Assets/Model/0527ChaseMode.onnx (onnx, 293275 bytes, 13 tensors)

action_model._discrete_distribution.branches.0.bias f4 [3]
000000 5c 80 99 bd a2 c2 e9 3d de 4e c3 bc
       -0.07495186 0.114140764 -0.023841318

action_model._discrete_distribution.branches.0.weight f4 [3, 256]
000000 f2 87 8d bd b2 08 81 bd 18 3f 00 3c 52 84 41 3c
       -0.06910695 -0.063004866 0.007827543 0.011811333
000010 b5 69 13 3d 3a 74 2a 3b 01 64 52 bd 61 26 a2 3d
       0.035989482 0.0026009218 -0.051364902 0.079174764
000020 66 6d 89 bd 64 9b 42 bd be e4 3c bd ee 19 c7 3d
       -0.06710319 -0.047511473 -0.046116583 0.097217426
000030 11 ab 94 bd ff 15 9d 39 89 a4 0d be 26 bd 83 bc
       -0.07259191 0.00029961762 -0.13832296 -0.016081404
000040 94 dc 02 bd c7 bc 31 3d b7 51 52 3a 21 b4 4b bd
       -0.03194864 0.043392923 0.0008023041 -0.04973233
000050 ec cd 94 3c 45 6a 1f 3e 86 65 04 bd 1b 28 6f 3d
       0.018164597 0.15567882 -0.032323383 0.058387857
000060 d3 cc cc 3d f6 62 95 3c 21 00 03 3d a0 32 18 3d
       0.100000046 0.018235665 0.031982545 0.037157655
000070 18 85 52 3d 4b 14 16 bd 54 43 d1 bb aa 48 1d bd
       0.05139646 -0.036640447 -0.0063862 -0.038399376
000080 80 36 12 bd 30 2a 80 bc f5 71 76 3d 6e f8 c4 3d
       -0.035696507 -0.015645117 0.06016727 0.09617697
000090 aa b8 9b bd 0c 8c c4 3c 8c 2f 84 bd 95 f1 08 be
       -0.07603581 0.02399256 -0.06454381 -0.13373406
0000a0 c4 1c 61 3d 07 75 2c bd 78 2c 08 bd 56 36 8c 3c
       0.054959074 -0.042103793 -0.033245534 0.017115753
0000b0 00 71 98 3d 4a e8 ed bd b0 9c b3 3c cc 94 ec 3c
       0.07443428 -0.11616571 0.0219253 0.028879546
0000c0 fc 1a 1c bd 7f f4 8d bd 5a 5b 13 bd 7a a5 16 3d
       -0.03811167 -0.069313996 -0.03597579 0.036778904
0000d0 b9 e3 be bd 4e 99 cb 3c f1 ff 7c 3c 9a d8 d1 3c
       -0.093207784 0.024853375 0.015441881 0.025615979
0000e0 0b be 95 3d 77 53 8b bd 25 0e bd 3d 9b f3 94 bd
       0.073116384 -0.06803029 0.092312135 -0.072730266
0000f0 86 7b cf bd 69 d6 25 3d 6d 2e d6 bc a7 50 2f 3d
       -0.10130982 0.04048768 -0.026145184 0.042801525
000100 c1 57 35 bc 70 bb 98 3d 52 56 20 3d e2 51 40 3d
       -0.011068285 0.07457626 0.03914482 0.04695309
000110 dc cb 8f 3d ed 7c 71 3d 13 3d b5 3c a1 ee d0 3b
       0.07021305 0.05895703 0.022123849 0.006376103
000120 d8 fe b1 3d 08 0e fe 3d d8 ee cc 3c cf 3e 09 3e
       0.08691186 0.1240502 0.025016233 0.13402866
000130 53 00 1a 3d 68 f3 af 3b 45 14 88 3b 84 4d 5e 3d
       0.037597965 0.0053695925 0.004152807 0.054273143
000140 7b 8f 54 3d 12 9f de b9 43 02 66 3c 61 59 e5 3d
       0.051894646 -0.00042461656 0.014038625 0.11198688
000150 31 3c f3 bd a5 67 ac 3d 66 22 37 bc 2c 76 e0 ba
       -0.11876715 0.08418206 -0.011177635 -0.0017125062
000160 e4 dd d0 bc f1 38 91 3c 5a 96 8c 3c 9b cb 16 3c
       -0.02549643 0.017727347 0.017161537 0.009203817
000170 7e b5 ff 3c a0 5f 70 bd d2 5f 9c 3a 9b 04 0f 3d
       0.031214472 -0.058684945 0.0011930412 0.0349165
000180 ef ea 85 3c 36 42 b0 3d cc 85 28 bc 6b 01 5d 3d
       0.016347377 0.08606379 -0.010285806 0.05395643
000190 4d b5 31 bd 9a 30 a9 3d 3b 99 be bd de f4 26 3d
       -0.043385793 0.08261223 -0.0930657 0.040760867
0001a0 00 ae 2e 3d 09 01 c7 3b e1 c2 c9 3d b1 51 cc 3d
       0.042646408 0.0060731214 0.09851623 0.09976519
0001b0 24 73 94 3d ad 40 c0 3c cb 88 ef 3c c3 7e 16 bc
       0.07248524 0.02346834 0.029240033 -0.009185496
0001c0 fd 37 a7 bd bf dc 0d bd d6 73 75 bb fe ae d0 bd
       -0.08164976 -0.034634348 -0.0037453077 -0.10189627
0001d0 f6 f3 e5 bd 90 86 06 3d 75 80 e4 bd 94 10 d0 bd
       -0.112281725 0.032843173 -0.11157314 -0.10159412
0001e0 8a da 3c bd 79 54 26 bd 75 02 ab 3c 55 70 77 bd
       -0.046106853 -0.040607903 0.020875195 -0.060409863
0001f0 8e da c5 bd 68 84 5e 3b 61 06 0b 3d de f0 b2 3c
       -0.096608266 0.0033953432 0.03394163 0.02184337
000200 12 2f 54 bd f7 31 a8 3d 83 91 5b bd be d5 17 bd
       -0.051802702 0.08212655 -0.053605568 -0.037069075
000210 f1 f9 f5 3c 7c c7 d0 bc 8a f5 0c 3e 2e 56 19 bd
       0.030026408 -0.025485747 0.1376554 -0.037435703
000220 79 9e d5 bc 94 f4 eb 3b f8 d8 34 bc 18 37 9a 3d
       -0.026076542 0.007200787 -0.0110380575 0.075300395
000230 a4 f7 7b 3d 74 a4 b4 3b 75 b4 c2 bd 1c 46 4f bc
       0.061515465 0.0055127684 -0.09507076 -0.012650993
000240 37 a9 c1 bc ba 2f 25 3d 8f cb 0f be cb b8 a7 3d
       -0.023640258 0.04032872 -0.14042495 0.08189543
000250 49 df 1a 3d 27 94 04 3d f9 61 35 bd b1 45 73 3d
       0.037810598 0.03236785 -0.044282887 0.059392635
000260 46 33 f4 3d c5 13 49 3b 6c 68 f5 3c c1 4f 97 3c
       0.11923842 0.003068195 0.029957019 0.018470647
000270 55 0b 60 bc e5 b1 ea bc 16 c0 08 3d 22 ef 75 3c
       -0.013674577 -0.02864928 0.033386312 0.015010627
000280 4b 90 76 3d f8 8b 0d 3d d6 03 d8 3d 62 60 4c bd
       0.060196202 0.034557313 0.10547607 -0.049896605
000290 7d 49 bd 3d 15 4a ce bd 75 6b 41 3d 5d 79 2f bd
       0.092425324 -0.10072724 0.04722162 -0.04284035
0002a0 48 17 bc 3d 69 66 79 3c 50 92 78 3d 2a f1 82 bc
       0.09184128 0.01522217 0.06068641 -0.015984137
0002b0 8c 9c 4e 3d 7d 0c 92 bc 0c f7 cf 3d b9 59 f9 bd
       0.050442263 -0.01782822 0.10154542 -0.12175316
0002c0 ef ec ff bc dd d4 86 3d 07 9d a8 bc 8f 74 0f 3c
       -0.031240908 0.06583569 -0.020582689 0.008755817
0002d0 6b 2b 61 bc e0 a3 34 3d 65 40 ca bc b3 14 d4 bb
       -0.013743262 0.044101596 -0.024688909 -0.006472194
0002e0 f1 4b 7e be 9c a2 aa 3d 46 ab ad bd b2 de 4d bd
       -0.24833657 0.083317965 -0.084799334 -0.050261207
0002f0 0f 8c 75 3b 7a 85 d3 ba b3 92 19 bd 6a 24 17 3d
       0.0037467515 -0.0016137802 -0.03749342 0.03689996
000300 66 60 36 bd cb 30 0e 3e 4d ec 05 3d aa ac 8f 3d
       -0.044525526 0.138858 0.032696057 0.07015355
000310 f5 f4 97 3d c6 0e d2 3d 5e c2 5d ba f8 a6 6d 3d
       0.07419769 0.10256724 -0.0008459444 0.058020562
000320 3a aa 2c 3d 4c ad 8a bd 6f e1 52 3d 84 4b 1c be
       0.04215453 -0.06771335 0.05148452 -0.15263182
000330 90 ae fa bc f8 10 4b 3d 53 58 ff 3a 3a 91 4f bd
       -0.030600816 0.04957673 0.0019481279 -0.05067561
000340 02 c9 a4 3c cf b4 ee 3c fa f3 bf bc e8 a7 7a bc
       0.02011538 0.02913895 -0.023431767 -0.015298821
000350 c2 f5 0b bc a4 84 c1 3c 6c cf 86 3c b0 b8 67 3d
       -0.00854248 0.023622818 0.016456328 0.056572616
000360 f5 83 38 3c 8f b4 08 3c 9e c9 48 bd 9e 77 b9 bc
       0.01126193 0.00834383 -0.049020402 -0.022640046
000370 f7 b4 ad 3d 3c bc 61 3c b3 52 d4 3d ab d0 0f 3e
       0.08481782 0.013777789 0.10367336 0.14044444
000380 97 eb 2f bd 9e 4d ea 3c 0f 07 e1 3d 7a f5 48 3d
       -0.042949285 0.028601464 0.109876744 0.04906223
000390 89 25 43 3c 6c 3a 08 bd 6d 68 0d bb 56 87 cc 3d
       0.011910805 -0.03325884 -0.0021577135 0.09986751
0003a0 d9 6b 90 3d 2c 5f bb bc 3e 75 f2 bc 81 15 fd bc
       0.0705182 -0.02287253 -0.029596921 -0.030894043
0003b0 59 53 72 bd 35 64 00 3e 67 21 a1 bc 19 5e 44 bd
       -0.059161518 0.12538226 -0.019669248 -0.0479413
0003c0 26 c1 ec 3d e2 83 09 be f3 07 3b bd c6 fe 5f bb
       0.11560278 -0.13429216 -0.045661878 -0.0034178956
0003d0 44 ce 7d 3d 4f 8d 72 3d cd 9c 89 3d 43 df 2c 3c
       0.06196429 0.059216794 0.067193605 0.010551277
0003e0 65 49 59 bd 09 df a6 3d 02 b6 9c 3d 90 6b 03 bd
       -0.05304851 0.08148009 0.07651903 -0.032085
0003f0 d6 fa c1 3c 9f 85 cc 3d 89 74 f8 bc 2f 7c a0 bc
       0.023679178 0.09986424 -0.030329006 -0.019590465

action_model._discrete_distribution.branches.1.bias f4 [3]
000000 76 26 f1 be 7a 4a 4a 3e 04 72 0c 3e
       -0.47099656 0.19754973 0.13715369

action_model._discrete_distribution.branches.1.weight f4 [3, 256]
000000 85 8e 06 3d 6b 26 be 3d 6c 70 e1 bc 3e 21 33 bc
       0.03285076 0.092846714 -0.027519427 -0.0109332185
000010 ae 7f b2 3d 04 43 ed 3d b8 e5 2b bd 72 a5 09 bd
       0.08715759 0.11585048 -0.041967124 -0.033605047
000020 fd cf a2 bc ac 81 cd bc a7 b8 0c be 61 66 65 bd
       -0.019874567 -0.025086246 -0.13742314 -0.05600584
000030 c8 4f 24 bd 54 d5 80 3d 2d 1a cc 3c fc f9 e3 3c
       -0.040115148 0.06290689 0.024914825 0.027829163
000040 64 44 17 3d 65 22 c0 3c 49 35 15 be f9 b1 fd 3c
       0.036930457 0.0234539 -0.14571108 0.030968653
000050 d2 f4 88 3d ad 0a 42 3c f0 d2 f2 bc a6 87 db bd
       0.06687321 0.011843366 -0.029641598 -0.10719232
000060 9a ce 14 3c e3 6d 81 bd 03 e1 0d bd 27 7b d2 3d
       0.009082461 -0.06319787 -0.034638416 0.10277396
000070 be 11 2f be 3c 47 af 3d 54 68 75 3b 8b 0b 0f 3c
       -0.17096612 0.08558509 0.0037446218 0.008730779
000080 58 24 1e 3d 46 61 04 bc 80 d4 31 bd 31 3c 10 bc
       0.03860888 -0.008079832 -0.043415546 -0.008803413
000090 a0 e3 77 bc 9c a8 c0 bb a3 ad 8b bd df 97 69 3c
       -0.015129954 -0.005879475 -0.06820228 0.0142574
0000a0 ca 89 45 bd 57 13 98 3d fc 25 16 bd b5 76 99 bd
       -0.04822711 0.07425564 -0.03665732 -0.07493345
0000b0 35 e6 48 bd 48 36 82 3c fa e5 5b bd 97 3d a3 3d
       -0.049047668 0.015895024 -0.05368612 0.07970732
0000c0 0b f8 85 bb 2d c5 c6 3d d8 2c 2f 3d 47 e7 7c 3d
       -0.004088407 0.09705577 0.042767376 0.061744
0000d0 5d 47 11 3d 00 b3 09 3d 41 74 34 3d ed 87 e4 3d
       0.035468448 0.033617973 0.04405618 0.11158738
0000e0 d7 b7 2d 3d b5 e1 0f bd 3f a7 cb bd 07 a3 29 bc
       0.04241165 -0.03512736 -0.09944009 -0.01035381
0000f0 3b 8d b9 3d 52 c9 f5 bc 4f 3f 43 bd 12 30 2e be
       0.09060141 -0.030003224 -0.047667798 -0.17010525
000100 fa 69 07 be ee 20 8a bd 61 73 59 3d b1 53 06 bc
       -0.1322402 -0.06744562 0.05308855 -0.0081986645
000110 42 36 91 3d d2 a1 d2 3d c2 1c 7b bd c9 bb 76 3d
       0.07090427 0.10284771 -0.061306722 0.06023768
000120 09 4b 05 3d 9a 59 3e bd 57 6e a7 bc 75 1c 44 3d
       0.032542262 -0.04647217 -0.020438356 0.0478787
000130 e7 13 f2 bd 56 dc c4 3c 48 09 6f bd 39 dd aa bd
       -0.11820202 0.024030846 -0.05835846 -0.08342976
000140 20 ec 61 3b bb 16 0d bd 0f 9a 31 3d 01 48 89 bd
       0.0034473017 -0.034445506 0.043359812 -0.06703187
000150 2c 74 c1 bd bc c1 ac 3d 4d ad aa ba 36 24 24 3d
       -0.09445986 0.084353894 -0.0013021618 0.040073596
000160 5d 95 b6 bc e4 31 0c bc 68 13 c8 bd 71 65 fa bd
       -0.022288019 -0.008556817 -0.097693264 -0.1222638
000170 64 f1 19 3d 16 17 0c 3e 64 22 5a bd ab f1 1a 3d
       0.037583724 0.13680682 -0.053255454 0.03782813
000180 1a 83 fb bd 79 4e 88 3b 4d 75 8a 3c 76 df 9c 3d
       -0.12280865 0.0041597453 0.016901636 0.07659809
000190 8e 2b 1c 3d 14 fd 6c 3d ae f6 b6 3d 8e ab 83 3d
       0.038127474 0.05785854 0.08933769 0.06429206
0001a0 5f dc d0 bd b7 8f 87 3c d2 d5 c9 3d 44 2e 99 3d
       -0.101982825 0.01654802 0.09855236 0.074795276
0001b0 ad 53 71 3d 5f e4 dd bd 9b 3d 0b 3e 24 fb d0 3d
       0.05891769 -0.10834574 0.1359772 0.10204151
0001c0 a0 dc 92 bc f5 ec ac 3d 69 63 1c 3c 23 b8 d0 bc
       -0.017927468 0.084436335 0.009545186 -0.025478428
0001d0 d8 54 b3 bd 3a a0 ea bc 14 a1 86 bc db 97 8e 3d
       -0.08756417 -0.028640855 -0.01643423 0.06962558
0001e0 da 65 b1 bd 8e 5f 88 3d 5c 0f 35 3d 82 2a 50 be
       -0.08662005 0.066588506 0.0442041 -0.20328715
0001f0 ea c3 ae 3c 07 dd ec 3c 23 68 03 3e 2c 96 69 bd
       0.021333653 0.028913988 0.12832694 -0.05702798
000200 b8 d0 2b bc 83 74 2e 3d e3 a6 32 3d da 1d 6f 3d
       -0.010486774 0.042591583 0.043616187 0.058378078
000210 3a c5 67 bd d4 43 4e bb c7 01 5f bb 39 38 b0 bd
       -0.056584574 -0.0031473534 -0.003402816 -0.086044736
000220 0c 2c 6e ba 83 10 b4 3d 1e d7 99 bc 7e d8 29 bd
       -0.0009085543 0.08792212 -0.018779334 -0.04146623
000230 7f c0 b6 3d 4f 90 13 3d 9f d3 2e 3d c9 d3 bc bc
       0.089234345 0.036026295 0.042682286 -0.023050206
000240 88 69 30 bd 6b 4d a5 3d 78 35 19 be 3c 41 78 bc
       -0.043069392 0.08071407 -0.14961803 -0.015152272
000250 32 a7 51 3d c4 ac f0 3b e7 f8 40 be 66 33 0f 3d
       0.05118484 0.007344814 -0.18844949 0.034961127
000260 35 72 60 bc 0e 1d 88 3d 2c 1b a7 bd 8e f5 5a bc
       -0.013699104 0.06646167 -0.081594795 -0.013364209
000270 9b db ee bd 90 90 ec 3c 37 70 84 bd 93 44 a1 bd
       -0.1166298 0.028877527 -0.06466716 -0.078744076
000280 75 ad b4 bc 51 84 12 3d f4 6e 58 3d 54 18 4a 3c
       -0.022055367 0.035770718 0.05284019 0.012334902
000290 49 2d 02 be d2 22 ce bc 6e cb 0e bd fe ce 8b 3d
       -0.12712587 -0.025163088 -0.034861974 0.0682659
0002a0 be f8 df bd 71 ab 59 bd b7 24 a6 bd cd 8c fc 3c
       -0.10936116 -0.053142015 -0.081124716 0.030828858
0002b0 c3 b2 d4 3c d0 84 51 bd b7 38 d1 3c ad 8a 28 bd
       0.025964146 -0.05115205 0.025539739 -0.041147877
0002c0 e3 4c 79 3d 2c b7 90 3c fe 44 00 be 1c 25 80 3d
       0.06086434 0.017665468 -0.12526318 0.06257078
0002d0 9f 6e 06 bd 60 6f 05 3d 97 d3 16 be 6e 46 85 3d
       -0.03282034 0.03257692 -0.14729153 0.06507574
0002e0 df 67 66 3c 3e 19 af bd 2e 1c 2d 3c 1a a8 46 bc
       0.014062851 -0.085497364 0.010565801 -0.0121250395
0002f0 58 b1 0d bd 55 f5 50 bc 70 5f 27 3b d5 9a fe bc
       -0.034592956 -0.012753804 0.0025539063 -0.031079689
000300 0a ba 68 3d 31 67 5a bc ec 44 56 3d 1e 57 96 bd
       0.056818046 -0.013330267 0.052311823 -0.07340835
000310 a1 05 b5 3c cb 0a 4d 3d 6b 48 4e bd 0a 04 9e bc
       0.02209741 0.05005912 -0.050362032 -0.019289035
000320 bc a6 c3 bc 46 f1 6e bd ed 64 31 3d 42 66 96 3d
       -0.023883216 -0.058335565 0.04330914 0.07343723
000330 22 17 a0 bd 7b 08 ff 3d fd 7e 9c bb 93 03 b7 3d
       -0.07816912 0.124527894 -0.0047758804 0.089362286
000340 46 65 9b 3c 06 d5 0f 3d b2 66 c4 ba 81 00 ee 3c
       0.01896919 0.035115264 -0.0014984219 0.029052975
000350 e1 73 96 bd 8e c2 75 bd dd 7a 7e 3d e0 d5 62 bd
       -0.07346321 -0.059999995 0.06212889 -0.05537975
000360 ca 26 4a 3d 36 7f 97 bd e9 65 25 bd da 8f bf ba
       0.0493534 -0.073973104 -0.040380392 -0.0014615015
000370 d1 b0 24 bd a9 c8 5a bc 14 4b 75 3d 0b 21 9b 3c
       -0.040207688 -0.013353505 0.059886053 0.018936655
000380 c4 f9 59 bd 86 2c d5 bb 50 68 14 bc 0a f9 98 bc
       -0.05321671 -0.0065055517 -0.009058073 -0.018673439
000390 be b8 59 3d 60 34 ec 3d e5 d6 93 bd af 60 9f 3d
       0.0531547 0.11533427 -0.07218722 0.07782113
0003a0 e6 25 94 3d f8 e6 1a bd fd df 1d 3d b6 e9 2c bd
       0.07233791 -0.037817925 0.03854369 -0.04221507
0003b0 6d 3a ae 3d 24 16 5f 3d d8 b7 a1 bd 55 ba ad bc
       0.085072376 0.054464474 -0.078963935 -0.021207014
0003c0 cf c3 0c 3d 2d ed 39 3d c0 6d 58 bd c6 f9 55 3b
       0.034366425 0.045392204 -0.05283904 0.0032650097
0003d0 d7 84 0e 3d 50 7e 9d 3d 46 bf 13 3d 29 c6 53 bd
       0.034794655 0.07690108 0.036071084 -0.051702652
0003e0 04 52 3e 3d f7 b9 e6 3b 28 d6 99 3d 59 c3 6b bc
       0.046464935 0.0070412117 0.0751155 -0.014389836
0003f0 f9 0f 01 be 06 a8 cc 3c b1 db f9 ba 2c 3d d0 bc
       -0.1260375 0.024982464 -0.0019062666 -0.025419794

action_model._discrete_distribution.branches.2.bias f4 [3]
000000 94 ef cf 3d 82 83 32 bd 2e 95 5e bd
       0.10153118 -0.043582447 -0.054341488

action_model._discrete_distribution.branches.2.weight f4 [3, 256]
000000 89 3f 96 3d 9f 35 17 3d 84 4b 27 bd 7e 02 21 3d
       0.07336337 0.03691637 -0.0408435 0.039309017
000010 29 41 46 3c 21 c5 01 bc 61 41 73 bc 6a 70 0e 3e
       0.012100496 -0.007920534 -0.0148471305 0.1391007
000020 8d 18 10 bd 01 60 26 3e 7e b4 0f bd 40 52 cc 3d
       -0.035179663 0.1624756 -0.03508424 0.099766254
000030 e1 59 6b 3d 03 b2 31 3e a7 24 ae 3d 98 68 92 3d
       0.057458762 0.17353062 0.08503085 0.07148856
000040 cc f9 32 bd 11 c4 91 3d 95 5c db 3d 27 a7 a0 3d
       -0.043695256 0.07117475 0.10711018 0.07844382
000050 12 23 51 3d 2d e2 2f 3e a7 16 14 bc 7c 12 4d 3d
       0.051058836 0.17176123 -0.009038604 0.050066456
000060 8a 67 25 3d 83 22 52 bd 00 66 6c 3d 4c 19 00 be
       0.040381946 -0.051302444 0.057714462 -0.1250965
000070 8c 13 4a bd 8b f8 c6 3d 69 f7 1c bd e6 6f aa 3d
       -0.049335048 0.097153746 -0.038321886 0.08322124
000080 a0 6c c4 bc 31 d3 e5 3c e5 4f 14 bd 43 7b 83 bd
       -0.023977578 0.028054805 -0.036209006 -0.06419995
000090 6e c5 2f 3d e5 10 ce 3c f9 fc 93 bd ef 39 f6 3b
       0.042912893 0.02515454 -0.07225985 0.0075142304
0000a0 8f 9f ab bd cd 01 79 3c 39 d4 67 3d fa cd 6a 3a
       -0.08380043 0.015198183 0.056598876 0.00089570845
0000b0 d3 44 42 bb fb f4 47 bd 40 64 c2 3d 82 98 ac 3d
       -0.0029643073 -0.048817616 0.094917774 0.08427526
0000c0 b2 d6 a3 3d 6c 83 2d 3d 1b 0a 82 3d f3 cd 8e 3d
       0.07999934 0.04236166 0.06349584 0.069728754
0000d0 f1 52 8b 3c 35 56 4a bd 63 87 2c bd 4a 63 a2 3d
       0.017007323 -0.04939862 -0.042121302 0.07929094
0000e0 c7 8c 0f 3d 16 ae 49 3d c9 41 01 3e dc 78 ab 3d
       0.035046365 0.049238287 0.12622751 0.083726615
0000f0 64 ab 1f 3e 02 da 3c bd 75 5d 3f bd 4c 67 e3 3d
       0.15592724 -0.046106346 -0.046719987 0.11103687
000100 28 28 4a 3d 1d b4 1f 3d 71 d6 ad 3d 38 8c 4a 3c
       0.049354702 0.03899013 0.08488167 0.012362532
000110 ac 45 91 3d a4 e0 cc 3d 64 1e c5 3d ee 6f ba bc
       0.07093367 0.10003784 0.09624937 -0.02275845
000120 be 1b f7 3c a2 15 89 bb d5 95 6f bb 79 df 0f 3e
       0.030164596 -0.004183487 -0.0036557813 0.14050092
000130 71 4e 4e 3d 86 8e a8 3d dd c2 6f 3d 94 b5 bc 3d
       0.050367776 0.08230309 0.058535445 0.09214321
000140 61 09 e9 bc 10 39 83 3d ba 0c 36 bd 51 e7 30 3d
       -0.028446855 0.06407368 -0.04444573 0.04318935
000150 b9 10 81 bb fc c6 8b 3b a0 95 10 3e 72 ae c8 3c
       -0.003938761 0.004265664 0.14119577 0.024497245
000160 93 98 96 3c 97 cf a4 3d 33 da 3b 3e 2f 56 5a 3d
       0.0183833 0.08047407 0.18344955 0.053304847
000170 41 25 61 3d e8 b6 7d 3d 6a 4a c5 bc b8 95 99 3d
       0.05496717 0.06194201 -0.024083335 0.0749926
000180 71 9e 15 3d 17 f5 2c bd f8 51 15 bd 78 05 dd 3c
       0.036528055 -0.042225923 -0.036455125 0.026980147
000190 c1 7c 6b bd cc 85 31 3d ef 33 a3 3d ec 93 26 bd
       -0.05749202 0.04334049 0.0796889 -0.040668413
0001a0 2a 8a 26 3e 8c 20 bf 3d bd ce 8a 3c 63 16 b3 3d
       0.16263643 0.0933238 0.016944284 0.08744504
0001b0 10 22 89 ba 37 c6 63 3d 58 37 96 3a 3a 18 32 3d
       -0.0010462422 0.055608954 0.0011460586 0.043480136
0001c0 b2 20 03 3d 80 87 e8 3d 5a d4 6e 3d 64 cc ac bd
       0.032013603 0.113539696 0.058307983 -0.08437422
0001d0 8d f7 58 3d 2c fe 96 3d b5 da df 3c 7f 19 1e 3d
       0.052970458 0.07372698 0.027325967 0.038598534
0001e0 75 24 84 3d 12 46 60 bc 7e 4e 8e bd 69 d3 39 bc
       0.06452266 -0.013688581 -0.06948565 -0.011341908
0001f0 8d 65 7e 3d 38 eb d3 3d f1 3e 13 3d a1 f4 08 bb
       0.062108565 0.10347599 0.035948697 -0.0020897763
000200 97 b1 d9 3c 5f 55 82 bb 93 c9 86 3d c4 5b 82 3d
       0.02657394 -0.003977462 0.06581416 0.06365159
000210 3d 05 66 bd a0 17 bb 3d 8e 82 37 bd cd f6 f6 bc
       -0.05615734 0.091353655 -0.04480224 -0.03014698
000220 90 40 0a 3b f2 a4 fd bb 56 1b ab bc 7f 53 ea bc
       0.002109561 -0.0077406103 -0.020887058 -0.028604267
000230 1e ff be 3d 64 00 29 3d 29 23 4f be 9d 92 86 bc
       0.093260035 0.04126014 -0.20228256 -0.016427333
000240 85 c0 52 3c 94 39 81 bd c8 06 a0 3c 4e 42 a6 bd
       0.012863283 -0.0630981 0.019534484 -0.08118115
000250 f6 85 17 be 44 2f 8e 3d c8 89 cd 3d 72 d8 aa bd
       -0.14797196 0.06942609 0.10036045 -0.08342065
000260 70 59 fa bd a2 59 89 3d 62 5f 5a 3b 1e 41 3d 3d
       -0.1222409 0.06706549 0.0033321013 0.04620468
000270 dd af 09 be f1 18 81 3d 22 b8 a1 3d 93 c4 7e bd
       -0.13445993 0.06303585 0.07896449 -0.062199187
000280 f4 b3 89 3d 5e 06 2a 3d e6 e0 53 3d 1b 7a 04 bd
       0.067237765 0.04150998 0.05172815 -0.03234301
000290 36 6e c1 bc 93 7e 0b bc f2 6e dc 3a 25 4d b5 3d
       -0.023612123 -0.008514064 0.0016817732 0.08852605
0002a0 c6 60 73 bc 0c 42 d5 3d 12 8b 08 bd 3c 8a 50 3c
       -0.014854616 0.10412988 -0.033335753 0.01272827
0002b0 a3 f5 39 3b 5e 32 2d 3d b4 1b c3 3d c9 09 81 3d
       0.002837517 0.042284362 0.09526768 0.063006945
0002c0 58 08 33 3d ba ca 83 3d 29 ba 44 3c 38 77 38 bc
       0.04370913 0.064351514 0.012007275 -0.011258893
0002d0 89 85 3e bb 7e 15 ea 3c 4f 73 41 be 02 dc b0 bc
       -0.0029071292 0.028574701 -0.18891643 -0.021589283
0002e0 68 04 5a bd ba f6 9c 3b 07 36 b7 ba 72 ed 2e 3d
       -0.05322686 0.0047901543 -0.0013977893 0.042706914
0002f0 21 34 0d 3e 92 36 87 3b 0a 29 b9 3c 95 88 0d 3d
       0.13789417 0.0041263783 0.022602577 0.034554083
000300 56 a1 15 3d c7 6a 89 3d f1 ca 12 bc 7c 5a 48 3d
       0.036530815 0.06709819 -0.008959518 0.048914418
000310 a6 d0 c3 3d b6 24 52 3d 6e b6 32 bd 8c 4a 4e 3d
       0.09561281 0.05130454 -0.04363101 0.050364062
000320 71 34 e5 3c 7c d8 c6 3d 05 34 0c 3e 46 41 0b 3e
       0.027979108 0.0970926 0.13691719 0.13599119
000330 05 3a 9b 3d 3d 29 dd 3a e2 4a a8 3d f8 e2 14 3e
       0.07579426 0.0016873252 0.08217408 0.14539707
000340 44 8a c7 3d 0b 42 57 3e a8 94 06 be 53 0e 67 3d
       0.09743169 0.21021287 -0.13142645 0.056410145
000350 1d 1f 8c bd 79 78 2a bd 21 b2 aa 3d 63 5c 4e 3d
       -0.06841872 -0.041618798 0.08334757 0.050381076
000360 d9 e3 47 3e 73 4c b2 3c 50 bd 00 3e e5 73 0b 3d
       0.1952051 0.02176497 0.12572217 0.034046073
000370 89 d9 d8 3d 3e 31 c6 bc 49 6c bb 3d 02 4e 84 3d
       0.105883665 -0.024193402 0.09151513 0.06460191
000380 a1 eb 10 3e 59 35 1f 3d e3 f7 e7 3c d4 b5 d0 3b
       0.14152385 0.038869236 0.028316444 0.006369332
000390 32 ee a3 3c 73 c3 a0 3d f9 7e 88 3d 96 b8 e7 3c
       0.020011041 0.07849779 0.06664843 0.02828626
0003a0 a2 ea 1c 3d ab 1e da 3c a4 b4 6e 3d 8a 73 c5 3d
       0.0383097 0.026625952 0.05827774 0.09641178
0003b0 81 68 3b 3e 55 f8 d4 3c eb 04 bb bd 4e 97 80 3d
       0.18301584 0.02599732 -0.091317974 0.06278859
0003c0 13 23 bf 3d 2c 9e 37 bd af 39 20 3d 65 99 d5 bd
       0.09332862 -0.04482858 0.03911751 -0.10429648
0003d0 1d f4 7b bc af 08 a7 3d 35 e9 c0 3c b8 89 54 3d
       -0.015378025 0.08155953 0.023548702 0.05188915
0003e0 4d 20 ef 3c 29 49 4f be bb e0 59 3d 37 6d 4f bd
       0.029190207 -0.20242752 0.053192835 -0.050641265
0003f0 97 65 e3 3d 58 f3 41 bc d4 d4 d5 3b 78 e7 55 3d
       0.11103361 -0.011837803 0.006525615 0.0522227

action_model._discrete_distribution.branches.3.bias f4 [2]
000000 0e 81 a0 bc cd 80 a0 3c
       -0.019592788 0.019592667

action_model._discrete_distribution.branches.3.weight f4 [2, 256]
000000 1d 9e c6 3d 53 c4 0f bd 7d 8d 33 3d b9 96 ff 3c
       0.096981265 -0.03509934 0.043836106 0.0311998
000010 6d cd b7 bc a9 a7 1a 3d 1c b9 90 3c 52 01 bd 3d
       -0.022436822 0.03775755 0.017666392 0.092287675
000020 98 19 95 3c f4 08 eb bc ba 4c e1 bd bb f7 b4 bd
       0.01820068 -0.028690793 -0.110009626 -0.08836313
000030 8b 66 02 3c b1 a0 cd bd 90 9e bc 3b 25 cb 84 bd
       0.007959018 -0.10040415 0.005756207 -0.06484059
000040 7f 22 e9 bc ca 58 32 bd d4 1d 12 3c df 08 33 bd
       -0.028458832 -0.043541707 0.008918244 -0.043709632
000050 60 7f 98 3d b4 25 4c bc 79 b2 92 bd a3 88 89 3a
       0.0744617 -0.012460161 -0.07162947 0.0010492991
000060 ba d4 aa 3d 5d 80 fd bc 3a 18 3a 3e a3 9c b7 3d
       0.083413556 -0.030944997 0.18173304 0.08965423
000070 a0 bb 97 bd 06 28 23 3d c8 30 14 bd 3e 18 04 3d
       -0.074088335 0.03983309 -0.036179334 0.03224968
000080 ab 20 03 bd 62 60 a3 3d fc 1e 97 3d 90 06 fc 3c
       -0.032013576 0.07977368 0.07378957 0.030764848
000090 0e 8d 06 3e c7 08 3b bd ee 2a 0f 3d 38 1c 25 3d
       0.13139746 -0.045662668 0.03495305 0.040310115
0000a0 73 84 65 3c c0 08 6a 3c 8b 39 ec 3d 6e 35 2d bd
       0.014008629 0.014284313 0.11534413 -0.042287283
0000b0 a6 99 5d 3d 0f 00 c2 3d f5 97 9a 3c e1 ae 0d bb
       0.05410161 0.094726674 0.018871287 -0.0021619129
0000c0 1a 00 94 bc f3 2a 99 bc 3f de 0b bb 76 0f 0d bd
       -0.018066455 -0.018697238 -0.0021342186 -0.034438573
0000d0 b1 42 7f bb ed 31 63 3d c2 34 ee bb ed 36 8a bc
       -0.0038949663 0.055467535 -0.007269473 -0.016871894
0000e0 61 9d 2d 3d 92 3b 4f 3d 0a 9b 5b bd 39 44 20 3d
       0.042386416 0.05059392 -0.053614654 0.039127562
0000f0 4e df 32 bd 10 ce 02 bc 9a 2d 82 bc 13 e5 25 bc
       -0.04366999 -0.007983699 -0.015890885 -0.010125416
000100 07 40 9d ba 29 15 d1 bc a6 60 7b bc 9a 1f b0 bb
       -0.0011997231 -0.025522785 -0.015342867 -0.005374861
000110 c5 d9 aa bb f5 89 ac 3d c7 93 08 bd 99 26 25 bd
       -0.0052139484 0.08424751 -0.033344056 -0.040320013
000120 13 99 21 3d e5 e0 be bb e1 5f 58 bd 95 25 da 3c
       0.039452624 -0.0058251494 -0.052825812 0.026629249
000130 27 a9 99 3b 5e 70 3a bc b6 9a 39 bc 24 aa c4 bd
       0.004689354 -0.0113793295 -0.01132839 -0.09602764
000140 43 20 07 38 e1 26 32 bd f6 eb 5d bd 65 f6 c8 bd
       3.2216554e-05 -0.04349411 -0.054180108 -0.09812621
000150 db 06 b0 bd de 73 2e bd 72 22 86 3d 2b 44 82 3d
       -0.085950576 -0.04259097 0.06549539 0.06360658
000160 11 3a 74 3d fb 82 26 bc 5e ba 83 bb 4a 98 61 bd
       0.05962569 -0.010163064 -0.0040200194 -0.055076875
000170 d3 9c 0c bd 57 ae 9e 3d b3 09 e2 3d 06 64 04 bc
       -0.034329247 0.077480964 0.11037006 -0.008080488
000180 c7 bf 5c 3d 91 c7 50 3d 83 53 e7 bc 43 34 ba 3c
       0.05389383 0.05097157 -0.028238064 0.022729998
000190 00 26 d7 3c b3 b0 59 bd b0 49 49 3d 50 52 dc bc
       0.026263237 -0.05314703 0.04914254 -0.026894718
0001a0 d8 df 07 bd 52 94 09 be 06 a1 cb bd 34 e5 0d bd
       -0.03317246 -0.13435486 -0.09942822 -0.034642413
0001b0 d4 7d b2 3c e6 37 a4 3c 76 04 84 3d 1f e2 0b 3e
       0.021788515 0.020046186 0.06446163 0.13660477
0001c0 9c 58 0c bb 89 bc 98 3d 81 d3 a9 3c c1 ad a6 3c
       -0.002141512 0.07457835 0.020730736 0.020346524
0001d0 9d 7b 3e 3d d4 e2 25 3e 18 ff a2 bd a3 28 3e bc
       0.046504606 0.1619981 -0.079588115 -0.011606368
0001e0 de ad 09 3d b1 2d f3 3c db ba b1 3c 9f ed 90 bc
       0.03361308 0.029684873 0.021695545 -0.017691432
0001f0 6a 4f 8d 3d e9 8b f6 3c a4 47 ad 3c 43 9b 2b 3d
       0.06899913 0.030096011 0.021152325 0.041896116
000200 57 f1 18 3d 59 b5 b5 3c d2 62 87 bc de e8 91 ba
       0.037339535 0.0221812 -0.016526613 -0.0011132022
000210 c2 ed 95 3d b1 53 e5 bc 1a c1 94 bc 6b 3d ad bd
       0.07320739 -0.027994009 -0.018158484 -0.0845898
000220 81 c1 98 3c 79 55 14 bc 58 15 70 bd 26 7a bf 3d
       0.018646957 -0.009053581 -0.058614105 0.0934947
000230 f2 ab c4 3b 06 61 19 3d fb 5e 3f 3c 57 48 ad 3c
       0.006001943 0.037446044 0.01168036 0.021152658
000240 80 bf 08 3d 7e 3c c4 3c 1d 4d 8b bc 7a 0b 50 bd
       0.033385754 0.023954626 -0.017004544 -0.050792195
000250 2d aa 5e 3c e8 bf 8e 39 82 a1 d7 3d a0 0c 3f bc
       0.013590378 0.00027227332 0.10528852 -0.011660725
000260 5a 3b 3d bd a5 e0 88 3a 87 bc 2d 3d c5 75 d1 bc
       -0.04619918 0.0010442926 0.04241612 -0.025568852
000270 1d 56 4e 3d bc 94 30 3a 39 3a 13 bd 36 d8 c4 bd
       0.050375093 0.00067360303 -0.035944197 -0.096115515
000280 94 3d da 3c 44 03 33 3d ae 8b 4c 3c a5 cb 06 be
       0.02664069 0.043704286 0.012484474 -0.13163622
000290 b9 f4 1d 3c 70 ae ac 3c 60 e3 7a bc 51 64 5d 3d
       0.009640866 0.021079272 -0.0153129995 0.054050747
0002a0 36 a3 bd bd 65 f4 c6 bd 56 43 9b 3d f1 19 76 3d
       -0.09259646 -0.09714583 0.07581203 0.060083333
0002b0 ba b3 60 bd 19 01 ed bc 96 ab 9d bd 7d 60 ec 3c
       -0.0548589 -0.028931187 -0.07698743 0.028854603
0002c0 43 aa 12 3d b8 9d 84 3d 98 4a 3d bd d9 48 60 bd
       0.035806905 0.06475395 -0.046213716 -0.054756973
0002d0 74 b7 ab 3c e9 2e 67 3d 32 63 1a 3e 4e cd c2 bc
       0.0209615 0.05644122 0.15076903 -0.023779538
0002e0 02 e5 0e 3c 73 2e 87 3d f3 8f 3d 3d c0 f2 d7 3d
       0.008721592 0.06600656 0.04627986 0.10544348
0002f0 99 e6 82 bc c5 cc 72 bd 89 71 df bc 17 da 87 bd
       -0.015979098 -0.059277315 -0.027275817 -0.06633394
000300 bd ab 8c 3d 21 ea 8b 3d 9e 67 b5 bb 63 7a 84 bc
       0.06868694 0.06831766 -0.005536034 -0.01617164
000310 82 76 7a 3d 52 04 12 bc 9a 3b cb bd ef 41 7b 3c
       0.061148174 -0.008912163 -0.099234775 0.015335544
000320 ff 58 f2 3d c0 b6 c5 3d 4f e4 01 3d 70 5e e4 3d
       0.11833381 0.096539974 0.031711873 0.11150825
000330 52 02 f4 bd 92 3f 93 3d 36 10 9a 3c e6 87 5b 3d
       -0.11914505 0.071898594 0.018806558 0.0535964
000340 79 75 e7 bd fd 00 33 3d 44 a0 1c 3e cd f1 7a 3d
       -0.11301703 0.043702114 0.15295511 0.061265755
000350 38 86 b5 bc 54 70 c5 bc d6 ae ef 3c 49 ba 47 bc
       -0.022158727 -0.024101414 0.029258173 -0.01219041
000360 38 79 ce 3c 8a f2 80 3d 3e 58 77 3b 08 3f 57 bd
       0.025204286 0.06296261 0.0037741805 -0.052550346
000370 58 cc 1c 3d 35 1b b5 bd ba 35 bf 3c 04 fa 45 bc
       0.038280815 -0.0884308 0.023341049 -0.012083534
000380 68 dc 02 bd cb 51 93 3d 56 1d 95 bc 64 85 03 bd
       -0.031948477 0.07193335 -0.018202465 -0.032109633
000390 c9 4f 3d bc ca ed 28 3d 3f 91 7c 3d 83 ad c6 3c
       -0.011554667 0.0412424 0.061661955 0.024252659
0003a0 c3 65 6c bd 86 b9 60 bd e3 0f ce bb fe df cc 3c
       -0.057714235 -0.05486443 -0.006288515 0.025009152
0003b0 0a d7 21 bc 17 58 06 be 3b 79 f2 3c 8e 57 da bc
       -0.009877929 -0.13119541 0.029598823 -0.026653077
0003c0 15 c4 c2 3c 4c 93 29 bd 11 e9 40 bd 00 b5 38 bd
       0.02377514 -0.04140024 -0.04709727 -0.04509449
0003d0 f2 90 8f 3d 72 59 be bc 43 54 13 3d 1f 4b 1f bd
       0.07010068 -0.02323601 0.03596903 -0.03889
0003e0 ed 1e f0 3c ad 67 89 bd 9c 42 ad bd ff 5d fe 3c
       0.029311622 -0.06709228 -0.0845997 0.03105068
0003f0 12 5a 16 3d d6 eb 90 bd de a8 8d 3c 18 71 ad 3c
       0.03670699 -0.07076232 0.017292436 0.021172091

discrete_action_output_shape f4 [1, 4]
000000 00 00 40 40 00 00 40 40 00 00 40 40 00 00 00 40
       3.0 3.0 3.0 2.0

network_body._body_endoder.seq_layers.0.bias f4 [256]
000000 0c 7b 3e 3c 59 71 91 bd 1a 1d 46 be 1c a1 bd 3d
       0.011626016 -0.071016975 -0.19347039 0.09259245
000010 e8 a7 0e 3e 50 ed a8 3c 40 ac fc 3d ae 9c 76 bd
       0.13931239 0.020620972 0.123375416 -0.060208015
000020 ee 0f 8a be b4 de 33 3d 9e 71 9d bd 69 6e bc bc
       -0.26965278 0.043913558 -0.076876864 -0.023001866
000030 6d 7c 23 3d 73 dc c9 bd 49 9b 61 3d 33 7b 0b bb
       0.039913584 -0.098565005 0.055079732 -0.002128315
000040 02 67 b5 3c 0a f8 97 bd bd 0e 9f 3c f1 c7 30 3d
       0.022143845 -0.074203566 0.019416207 0.04315943
000050 dd 97 34 3e ec b5 0d bd ae 33 b0 3b 46 7a 21 3e
       0.17636056 -0.034597322 0.0053772544 0.157693
000060 d3 27 2d 3d 9c 9e a0 3c f7 cf 92 bd 26 2b 80 3d
       0.042274307 0.01960688 -0.071685724 0.0625823
000070 63 ce c5 3c 81 19 26 be b0 ee 2a 3e 0c b6 d9 3b
       0.024146264 -0.16220666 0.16692615 0.006644016
000080 f9 6e 38 bd 93 e0 43 3d 4e 3c 18 be 0d 36 39 3d
       -0.045027707 0.047821593 -0.14866754 0.045217562
000090 90 d3 c1 3d e0 a0 66 bd 64 f5 fe bd 2d 11 ea bc
       0.094641805 -0.056305766 -0.12449148 -0.028572643
0000a0 53 55 82 3d a4 45 f6 3c 50 1e 07 3d 94 80 35 3d
       0.063639306 0.030062504 0.032987893 0.044312075
0000b0 ed 5d 74 bd fb 46 63 3d 4f d4 43 bd 11 ae 00 3d
       -0.059659887 0.055487614 -0.047809895 0.031416003
0000c0 e2 01 29 3d 09 00 a4 bc e3 9d f9 bd 02 9d 56 bc
       0.04126156 -0.020019548 -0.121883176 -0.013098957
0000d0 62 d7 df 3d 75 e4 0a 3d dd 8b 6f 3c db 72 0f bd
       0.10929753 0.03390928 0.014620748 -0.035021644
0000e0 11 b3 c6 bd 06 03 e4 3c c9 3b 86 3c 18 75 30 be
       -0.09702123 0.027833473 0.01638593 -0.17232168
0000f0 12 9f e0 bc 23 1c cf 3d b7 72 7e 3d cc 82 84 bd
       -0.0274196 0.101127885 0.06212112 -0.0647026
000100 fd 03 9a 3d b4 ef 4e bd 50 15 79 bc 0d 79 aa 3d
       0.07520292 -0.050521567 -0.015202835 0.0832387
000110 4d 70 aa bd 1b 91 bb bd ef f6 83 bd 60 6d e0 bd
       -0.08322201 -0.09158536 -0.06443583 -0.109583616
000120 c2 31 9f 3d 3d 2b 31 3d fe 07 cd 3d a2 a7 8b 3c
       0.077731624 0.043254126 0.1001129 0.017047707
000130 fb e5 00 bd c5 88 46 3d 4c 45 94 3d 56 09 56 3d
       -0.031469326 0.048470277 0.0723978 0.052254997
000140 7f cc 92 bd 93 17 ad 3c 9e 1f 3a bb 16 d0 76 3c
       -0.07167911 0.021129405 -0.0028400193 0.01506426
000150 bc 09 a7 bb b9 40 ae 3c dc e0 7b bc df 66 c5 3b
       -0.005097596 0.021271097 -0.015373435 0.006024226
000160 e3 11 cc 3c 94 27 e0 bd 71 6a 84 bd 25 ab 55 bb
       0.024910873 -0.10945049 -0.064656146 -0.003260323
000170 8b a9 bc 3d c4 59 60 bd 3a 65 09 3e 6d 5d b2 3c
       0.09212025 -0.054773107 0.13417521 0.021773065
000180 76 08 b1 3d c9 41 40 3c 70 c9 83 bd 6d 07 99 bd
       0.08644192 0.011734434 -0.064349055 -0.074721195
000190 c7 62 21 bd 13 de 05 be 95 fe 9a bd 27 5b 1d bd
       -0.039400842 -0.13072996 -0.07568089 -0.038417008
0001a0 db da 61 bd ea 6b d0 bd 24 9c 8b bd 9e 5e 30 be
       -0.055140357 -0.10176833 -0.06816891 -0.17223594
0001b0 81 34 19 be 5e a0 9b bc fa 80 31 be 43 82 da 3d
       -0.14961435 -0.018997367 -0.17334357 0.10669377
0001c0 dc 03 6a 3d f3 c5 fd bb b2 a0 cb bd 19 a4 20 3d
       0.057132587 -0.0077445447 -0.099427596 0.039218996
0001d0 68 54 a9 bc 7d d4 fb b9 b2 0a d3 bd 4f af 66 bc
       -0.02067013 -0.00048032767 -0.10304774 -0.014079883
0001e0 88 3e 2b bc 1b ad 72 bc 84 e9 02 3e 90 6d 48 be
       -0.01045192 -0.014811779 0.12784392 -0.19573045
0001f0 72 9e 09 bb 0e d6 d1 3c a2 5d 9b 3c 59 eb 0f 3e
       -0.0020998982 0.025614765 0.018965546 0.14054622
000200 c2 d3 2e 3d 87 56 11 3e e8 06 c2 bc 4b 29 22 bd
       0.042682417 0.14193164 -0.023684934 -0.03959016
000210 60 2f bb bc 96 76 52 bd c5 a3 c5 bc 7f 85 f1 bc
       -0.022849739 -0.051382624 -0.024125943 -0.029482601
000220 87 61 33 3e ef e8 44 bc 95 ab 45 3d a7 fd fd 3c
       0.17517672 -0.012018426 0.048259337 0.03100474
000230 bd 01 46 be e0 cf 47 3e bc 9b 21 3c e8 52 71 3d
       -0.193366 0.19512892 0.00986379 0.058916956
000240 56 6e 0f be 12 ce 85 bd e1 de 1e be fe f6 d2 bc
       -0.14006934 -0.065334454 -0.15514709 -0.02575254
000250 9a 2b 2e bc 71 db 16 be 8e fd 73 be 64 6f a7 bd
       -0.010630513 -0.14732148 -0.23827192 -0.08175543
000260 e3 fd 18 3e af f2 01 3e 90 f6 e5 3c a8 07 88 bb
       0.149406 0.12690233 0.028071672 -0.0041513033
000270 1b a6 8b 3d b9 82 45 bc e9 42 70 bd 57 78 2c be
       0.068187915 -0.0120550925 -0.05865756 -0.16842781
000280 c8 7a 94 3d b0 02 7b be 53 90 98 bd e1 17 28 be
       0.07249981 -0.24512744 -0.07449403 -0.16415359
000290 76 69 1e bd 10 9b 08 b9 e9 18 63 3d b5 63 0c bd
       -0.038674794 -0.00013027736 0.055443678 -0.034274776
0002a0 84 d7 10 bd 8c ee 29 bd 0d a0 2a be 8f e7 80 be
       -0.03536178 -0.04148726 -0.16662617 -0.25176665
0002b0 42 8a 5c 3d c6 fe 39 be 10 2d 86 bd 76 a7 5a bc
       0.05384279 -0.18163595 -0.06551564 -0.01334559
0002c0 98 a7 82 3d 26 d2 a3 3d 9f 6f 22 be 59 31 e6 3d
       0.06379622 0.07999067 -0.15862893 0.11239881
0002d0 c7 ab 06 be 52 6f 94 bc dc 1a 61 3d ff cf 96 3d
       -0.13151465 -0.018119488 0.054957256 0.07363891
0002e0 63 86 21 be 24 c0 9d bd 81 04 0e 3e 7f 32 2e 3d
       -0.1577392 -0.077026635 0.13868906 0.042528626
0002f0 d8 2b 84 3d cd 81 d2 3c 80 2d 9d bd 14 20 f4 bd
       0.06453675 0.02569666 -0.07674694 -0.11920181
000300 a3 32 2e bd 5e 31 3c be 36 84 b5 3d 7e 15 9c bd
       -0.04252876 -0.18378207 0.08863108 -0.07621287
000310 59 7d 0b bd e3 af 91 bd 6d e3 38 bc ce 03 ec bd
       -0.034055088 -0.07113626 -0.011284691 -0.11524163
000320 78 6a 3e 3e dd 03 65 3d aa 08 a6 3d 31 29 2a 3d
       0.18595302 0.055911887 0.08107121 0.04154319
000330 9a a0 87 ba 3f c0 02 3e 3f 48 33 3c 10 93 f3 bd
       -0.0010347546 0.12768649 0.010942518 -0.11893284
000340 9d d5 b4 bc 72 5c cf 3c da 7c 89 bd c5 c4 19 be
       -0.022074515 0.025312636 -0.06713267 -0.15016468
000350 65 80 07 bd 69 c2 4d 3d bd 07 6f bd 25 bd 99 be
       -0.03308143 0.050234232 -0.05835699 -0.30027118
000360 2b 9e d9 bc 74 b2 5b bd b3 68 38 be fb 8e 94 bc
       -0.026564678 -0.053636983 -0.1800869 -0.018134585
000370 e5 b6 a7 3d 13 42 e2 bc 86 a5 32 3c 1e d3 f7 bc
       0.08189181 -0.027619397 0.010903722 -0.030252036
000380 e5 a8 05 be 6e 54 73 3e 91 80 b9 3c 48 d3 ea 3d
       -0.1305271 0.23762676 0.022644313 0.1146608
000390 cf bd a9 bd 81 32 53 3e 2d 31 24 bd c6 d1 94 bd
       -0.08288156 0.20624734 -0.04008596 -0.072665736
0003a0 be 85 0e be 3c a5 f9 3d a9 95 90 bd 02 6b ff bc
       -0.13918206 0.12189719 -0.070597954 -0.031178955
0003b0 6f e8 a7 3d 3c 18 80 3d 61 69 23 bd 04 05 e6 3b
       0.0819863 0.06254622 -0.03989542 0.007019641
0003c0 87 cf 09 bd 2f 0d 27 bd 5b d7 84 bc b0 f4 9a bd
       -0.03364518 -0.040784057 -0.01621597 -0.07566202
0003d0 d0 34 0c be 5f b5 23 3d d6 f2 ed bc 17 f0 16 3e
       -0.13692021 0.03996789 -0.029046457 0.14740025
0003e0 94 a2 38 bd a8 3c 27 3e f3 e8 a2 bd 1b 64 28 3e
       -0.04507692 0.16331732 -0.07954588 0.16444437
0003f0 a3 14 05 bd 09 68 25 be 5d b1 fb bd 9e af 22 be
       -0.032490384 -0.16152968 -0.12289689 -0.15887305

network_body._body_endoder.seq_layers.0.weight f4 [256, 13]
000000 33 80 34 3e 3b c3 1b 3e 18 56 e4 be 71 6f e1 3d
       0.17627029 0.15211193 -0.44596934 0.11007584
000010 c7 0c 24 3e 2e 19 be bd 6f 6c cd bd c9 14 0a bf
       0.16020499 -0.092821464 -0.10030448 -0.53937966
000020 cb b4 db bc fe 87 fc bd 1f c9 97 bd b3 c7 c3 3e
       -0.026819607 -0.12330626 -0.07411408 0.38238296
000030 b1 29 84 bd 15 51 47 bd 58 7c 5c 3d 74 68 6e 3e
       -0.064532645 -0.04866131 0.05382952 0.23282033
000040 67 ef da be 24 a2 92 3d 51 24 87 3e 81 2d ec 3e
       -0.42760774 0.07159832 0.26394895 0.46128467
000050 47 05 43 be c3 05 c0 be ff 30 cf 3e a5 00 cc bd
       -0.19044982 -0.37504396 0.4046707 -0.099610604
000060 a7 38 4f bd 95 a6 5d 3e 57 a7 80 be d5 19 0b bf
       -0.050591137 0.21645577 -0.2512767 -0.5433629
000070 39 ea ae be 1e 80 e5 bd 06 82 de be e8 dc 91 be
       -0.34163073 -0.11206077 -0.43458575 -0.2848885
000080 67 6f 6d be 87 42 b7 be 61 7d 80 bd 31 43 e1 be
       -0.23187028 -0.35792944 -0.06273914 -0.43996575
000090 23 64 a4 bd af df 08 be 50 57 6e 3e 07 b9 9a bc
       -0.08026912 -0.13366579 0.23275495 -0.018887056
0000a0 6e 0a 8d 3e a4 ce 01 3f b5 cb f2 be e0 26 01 be
       0.2754702 0.50705934 -0.4742104 -0.12612486
0000b0 ab b0 8a be 4a ee dd bc f7 a0 ac 3e 50 64 9b 3d
       -0.27087912 -0.027091164 0.33716556 0.075874925
0000c0 09 68 07 bf 86 ab ef 3e 43 a7 ed 3d a4 47 5c be
       -0.5289312 0.4681055 0.11604168 -0.21511704
0000d0 4d 19 7f bf 36 60 e4 3b aa 00 d0 3e 99 b0 01 bf
       -0.9964798 0.006969477 0.40625507 -0.5066009
0000e0 21 98 33 bd c4 7f 2f bd 46 46 28 3c 0c f7 69 3d
       -0.043846253 -0.042846456 0.010270661 0.057120368
0000f0 b8 43 07 3d d6 6a d0 bd 3a 04 5a be d5 f1 b2 3d
       0.033023566 -0.10176627 -0.21290675 0.08737532
000100 c4 b1 26 3e df 26 d0 be 5d ab c9 be 49 c2 72 be
       0.1627875 -0.40654656 -0.39388552 -0.23706926
000110 6f ed 89 bf 8a 36 9c 3e a1 8f 0d 3f 1f 41 83 be
       -1.0775584 0.3051036 0.55297285 -0.2563562
000120 1f 8a 37 bf 49 4c 96 3c 5c ad d4 bd 58 bd a8 be
       -0.7169513 0.018346922 -0.10384628 -0.32956958
000130 5d a9 a6 be e4 53 9c 3e 9c 42 27 bf e1 8b ab be
       -0.3255109 0.30532753 -0.6533601 -0.33505157
000140 78 cc 31 3f 80 1b 4a bf 99 27 2b be 82 c6 33 3f
       0.6945262 -0.7894821 -0.16714324 0.70224774
000150 0e 11 68 3e 4a 99 76 3d 2b ff 7a bd b0 b5 90 ba
       0.22662756 0.06020478 -0.061278503 -0.0011040475
000160 eb 38 0a be a2 67 8e be 50 2e 37 3e e4 04 81 be
       -0.13498275 -0.2781344 0.1788876 -0.25199044
000170 03 d1 66 3e 62 1e e2 be 2e ab 4f be 65 67 94 3e
       0.22540669 -0.44163805 -0.20280144 0.28985134
000180 6e b6 9f be ad 24 9e 3e 89 d0 47 3e 64 92 de bd
       -0.3119387 0.30887356 0.19513144 -0.108677655
000190 b3 ff 9f 3e 8f d6 a9 be 2b 8f d6 be 80 b5 d5 bd
       0.3124977 -0.33171508 -0.41906103 -0.10435009
0001a0 0b 93 f0 be 18 47 4d 3b 72 d5 45 bf 6a 0f 89 bf
       -0.46987185 0.0031322893 -0.77278817 -1.0707829
0001b0 90 4c 46 3d 30 75 cf be b3 dc d3 bd c6 8f a5 be
       0.04841286 -0.40519094 -0.103448294 -0.32336253
0001c0 1f af df bd 55 b7 7f be 63 b2 e0 3d ee 4f b8 3d
       -0.109220736 -0.2497228 0.109715246 0.089996204
0001d0 d5 6c 03 3f 70 55 ca 3e b7 b5 bc be a7 ff 37 3f
       0.5133794 0.3951831 -0.36857387 0.7187447
0001e0 4a 21 9f 3e a3 b4 19 3f cc 5d 36 3e 23 db 16 3d
       0.31080085 0.60041255 0.17809218 0.03683008
0001f0 4e 66 62 be d5 6e c9 3d ab f1 3d 3e 3f c1 41 bd
       -0.22109339 0.09835593 0.1854922 -0.047303434
000200 1e d3 14 be b4 d6 40 3e d6 1f b1 3a 7b 22 a4 3d
       -0.1453366 0.18831903 0.0013513516 0.08014389
000210 c7 c4 9a be 28 bd 9a be 74 3e b5 3d 01 54 22 bd
       -0.30228254 -0.3022244 0.088498026 -0.039630894
000220 80 b8 c5 bd f9 f8 b9 bd ca cc 39 3e e6 26 7d 3d
       -0.09654331 -0.09080691 0.18144527 0.061804675
000230 c3 59 4c be d9 d8 2a 3e 70 ab 0f bf d8 62 3a be
       -0.19956116 0.16684283 -0.5612097 -0.18201768
000240 48 96 65 3b 32 a3 ce bb 42 00 a1 be 50 a8 bf 3d
       0.0035032202 -0.0063060755 -0.3144551 0.09358275
000250 4e 90 78 bd 58 9a 0c be df 48 8c 3d c0 84 0f 3e
       -0.060684495 -0.13730752 0.068498366 0.14015484
000260 63 13 f0 3d 5d 4a a6 3e d3 19 d0 be a5 b0 52 be
       0.11722448 0.3247861 -0.40644702 -0.20575197
000270 f0 fe dc be 8b 74 b6 3e 92 37 7c be c6 0b a9 be
       -0.43163252 0.3563579 -0.24630573 -0.33016795
000280 7e d3 d1 be 50 97 f1 bd e9 de 9f bd f5 60 8e be
       -0.40981668 -0.11796439 -0.078061886 -0.27808347
000290 71 21 96 be c0 ea 9e be c8 0c 83 bd 61 65 29 3e
       -0.2932239 -0.31038475 -0.06398922 0.16542579
0002a0 f1 eb 5a be 21 29 84 be 49 78 52 bf a6 11 16 be
       -0.21379067 -0.2581263 -0.8221479 -0.1465517
0002b0 7d 28 c4 bd 2a e3 5d be 25 a7 c9 be 3b a1 ba 39
       -0.09578035 -0.21668687 -0.39385334 0.0003559681
0002c0 fa 5a 9f be c4 55 91 be 3b 1c f9 bd 6d bd 9f 3d
       -0.31124097 -0.28385746 -0.12163588 0.07799802
0002d0 e5 14 ca bb b5 5e a3 3a b0 19 27 bf 68 c6 01 bf
       -0.0061670416 0.0012464138 -0.6527357 -0.5069337
0002e0 e1 c0 a4 3e c7 de 3c bf 0c 6d e4 3e 44 9b 96 3b
       0.32178405 -0.7377743 0.44614446 0.004596146
0002f0 7f f4 84 be ae 80 53 bd 04 49 14 3e 10 a6 97 be
       -0.25967786 -0.05163639 0.14480978 -0.29618883
000300 49 9b e3 bd 5b 03 56 bd e9 6c ad be c8 df 99 bc
       -0.11113603 -0.052249294 -0.33872154 -0.018783465
000310 8b 87 79 3e e3 68 94 be cd 9a 12 bf dc ed f6 3d
       0.24368112 -0.28986272 -0.5726746 0.12057087
000320 0b 52 cc bd b0 49 4e 3f c7 4c 02 be 8d e0 c3 3e
       -0.09976586 0.8058119 -0.127246 0.38257256
000330 dc 55 28 3f ae 89 fb 3e c8 8d b1 bd 4e d6 e9 bd
       0.6575601 0.4912848 -0.08669621 -0.114178285
000340 10 a6 d8 be 57 74 85 be aa 6b c5 3e e2 5b 59 be
       -0.42314196 -0.26065323 0.38558704 -0.21226457
000350 93 6d 0f 3e 1a 29 2d 3f c6 d6 03 be 3b 75 cf bd
       0.14006643 0.6764084 -0.12874898 -0.10129782
000360 c6 d2 81 be b3 be 78 3d 5a 23 1c 3c 9e cd 92 be
       -0.2535612 0.06072874 0.009529913 -0.28672498
000370 de 53 09 3b 09 f4 40 3e 10 b9 89 be fc 96 21 bf
       0.002095453 0.18843092 -0.26899004 -0.6312101
000380 51 3f 13 3f 9f 61 77 bc 44 d7 7d 3d 64 f6 62 bf
       0.5751849 -0.015098958 0.06197287 -0.8865721
000390 3b 86 38 3f 48 74 ab be 04 78 b6 3e a7 06 0d bf
       0.7207982 -0.33487153 0.3563844 -0.55088276
0003a0 cb 00 0c 3e 85 b4 7a 3e e0 24 dc 3e f2 29 d6 be
       0.13672177 0.24482925 0.42996883 -0.41828877
0003b0 70 91 49 be d9 7e e3 3e 0c e5 13 be 6f 1f 0e be
       -0.19684386 0.44432715 -0.14442843 -0.13879178
0003c0 c1 99 02 bf 2a 96 05 bf ad fa 4a 3f 30 2c cf bd
       -0.5101586 -0.5218226 0.7928875 -0.1011585
0003d0 ea b5 49 be 1d 94 bf bd 0b bd ad 3e 37 6c 93 3e
       -0.19698301 -0.09354422 0.3393329 0.287935
0003e0 05 98 6a be 58 f2 db be a4 80 e8 bc 02 4a 35 be
       -0.22909553 -0.4295833 -0.028381653 -0.17704013
0003f0 8d 5b a4 be 4d a9 c9 3e e1 3a 4b 3d b7 83 93 3c
       -0.32101098 0.3938698 0.0496167 0.018007142

network_body._body_endoder.seq_layers.2.bias f4 [256]
000000 f9 37 82 bd 20 4d 3f bc a7 01 e2 bd 09 c2 f1 bd
       -0.06358332 -0.011676103 -0.110354714 -0.118045874
000010 c2 60 db bd 34 86 3b bd 90 0c de 3c a2 3b 68 3d
       -0.107118145 -0.045782283 0.0271056 0.056697495
000020 fa 24 e4 3d 90 a3 23 bd 8a f6 4a bc 0e 8b e1 3b
       0.11139865 -0.039950907 -0.012387881 0.0068830317
000030 1c 6e 7e bd 77 57 83 3d ae e6 af bb d5 f8 0d be
       -0.062116727 0.06413167 -0.0053680753 -0.13864453
000040 80 15 67 bd 02 c3 18 be 77 e9 ae bd 5e dd f9 bd
       -0.05641699 -0.1491814 -0.08540624 -0.122004256
000050 59 a0 b0 bd cc 32 20 bd c9 e5 10 3d 72 3c 3f bc
       -0.08624334 -0.039110944 0.03537539 -0.011672126
000060 37 8c 2f be 64 8d a9 bc e9 8b ed bc 08 fc e1 3d
       -0.17143331 -0.020697303 -0.028997378 0.11034399
000070 4d fc 32 3d 8c 0c a7 3c c3 0f ce bd 8b 2f 8e bd
       0.043697644 0.020391725 -0.100616 -0.06942662
000080 d2 1c 61 bd fc 94 a5 bd 51 ea 39 bd 32 82 48 bd
       -0.054959126 -0.08085057 -0.045389477 -0.04895229
000090 5d 55 a0 bd cd 31 27 3d 43 51 d4 bd 6b 96 93 bc
       -0.07828782 0.040818978 -0.10367062 -0.01801606
0000a0 aa 9f be bd df dc b5 3c f8 d5 b7 bd cb cc 84 3d
       -0.09307797 0.022200046 -0.08976358 0.06484374
0000b0 b9 75 d6 bd 77 f6 aa bd 35 03 31 be ab c3 0a be
       -0.104716726 -0.08347791 -0.1728638 -0.13551204
0000c0 b7 3f 30 bd f9 ad f1 bc c1 95 04 3c 8d 95 2e bc
       -0.043029513 -0.029501902 0.008092345 -0.010655773
0000d0 da bb 4e bd 6d f9 29 be d3 db 89 bd 63 6e c4 bd
       -0.050472118 -0.16599055 -0.06731381 -0.09591367
0000e0 32 fa 1b 3b b6 a3 72 bc 60 ab 40 3d 1f 68 e1 bc
       0.002380025 -0.01480954 0.047038436 -0.02751547
0000f0 ce f5 ca 3c 17 88 ed bc be 19 75 bd 6d b3 52 bd
       0.024775412 -0.028995557 -0.059839003 -0.051440645
000100 d0 d9 c0 bb 70 8b 4f bb ea 98 df bd 65 2d c8 bc
       -0.0058853403 -0.0031668805 -0.10917838 -0.024435708
000110 e2 10 c4 bd 71 fd bd bd c5 bc 97 bd d8 ec d2 ba
       -0.09573533 -0.09276856 -0.07409052 -0.0016092313
000120 f3 a7 3f bd 0a 77 37 bd 11 32 08 bb 68 20 09 3c
       -0.04679103 -0.04479126 -0.0020781795 0.008369543
000130 d2 c5 12 bd ef 00 44 be 26 29 8e bd 7f 8b c4 3c
       -0.035833187 -0.19140981 -0.06941442 0.023992298
000140 fe 30 c1 3c aa cb d2 bc 54 aa bb 3d f4 58 ba bc
       0.023582932 -0.02573188 0.09163347 -0.022747494
000150 a2 d2 5e bd 3f 16 b0 bd c1 e8 35 bc dd 09 51 3b
       -0.054400094 -0.08597993 -0.011102856 0.0031896748
000160 df ce d3 bd a3 bc a0 bc f7 85 9a 3b 6e eb 5b bd
       -0.10342192 -0.019621199 0.004715677 -0.05369132
000170 46 f0 90 bd 1b f5 90 3d fe ee d5 bc 78 34 b8 bd
       -0.070770785 0.07078 -0.026114937 -0.089943826
000180 0d be ef bd 35 1b 72 3d 9c 18 51 bc 79 82 ad 3b
       -0.11706171 0.059107978 -0.012762215 0.0052950946
000190 b8 99 d6 bc 0d 1e a1 bd 89 52 ab bc 8e 36 ae 3a
       -0.026196346 -0.0786706 -0.02091338 0.0013291405
0001a0 db f1 ed bc 2d 89 87 bc 47 29 76 bd ed fd 61 bd
       -0.02904599 -0.016544903 -0.06009796 -0.055173803
0001b0 58 85 cb bd c9 07 c0 bd d6 67 0b be 45 a0 a7 3d
       -0.09937543 -0.09376485 -0.13613829 0.08184866
0001c0 e6 30 48 3c a6 6e b5 bd 6e fc 33 bd 56 10 66 3d
       0.01221869 -0.08858995 -0.043941908 0.056167923
0001d0 96 cb ff 3b ac 7c 7e bc 15 2f 72 bc 13 bf b1 3c
       0.0078062518 -0.015532654 -0.014781733 0.021697557
0001e0 31 f1 f5 bd 61 6d c2 bc 29 72 c2 3d 72 b7 60 3c
       -0.12008894 -0.023733797 0.094944306 0.013715612
0001f0 fd ab 5a bd e3 7d 32 bd 85 41 fe bd f9 3c d7 bb
       -0.053386677 -0.043577086 -0.124148406 -0.006568548
000200 5c 5d 9b 3a 5f d3 b6 bd 22 93 22 bd 6b d6 b6 3c
       0.0011853385 -0.089270346 -0.039691098 0.02231904
000210 00 28 e1 3c d2 89 a0 bd 24 f4 d3 bd 4c b5 6d 3d
       0.027484894 -0.07838787 -0.103493005 0.058034226
000220 5c 16 17 be c9 fa ba bd 3e f0 27 3a 5d d8 2c bb
       -0.14754623 -0.09129865 0.00064063433 -0.002637408
000230 cf 6a 6d 3d 29 f2 0f bd c7 62 8a 3d 46 a8 95 3d
       0.05796319 -0.03514305 0.067571215 0.07307486
000240 4e d6 a7 bd db 08 41 bd c0 73 f5 bb dc 51 5d bc
       -0.08195172 -0.047127586 -0.007490605 -0.013508286
000250 09 3c dc bd 5a 31 8b 3d 2c 9f 93 3d 13 b3 e5 bb
       -0.10753638 0.067965224 0.07208094 -0.0070098727
000260 81 7c 5f 3c 3e e2 ea bc 78 fd 7a bd 16 ee 5d bd
       0.013640524 -0.028672334 -0.061276883 -0.054182135
000270 c9 68 b4 bc a4 26 bf bd ab 90 00 bd 7f 54 53 3b
       -0.022022622 -0.09333542 -0.031387966 0.0032246409
000280 24 ce 01 3d 93 1f e3 3c eb 55 02 be 47 85 36 3d
       0.03169073 0.027725017 -0.12728088 0.044560697
000290 39 51 88 bd 00 f3 3a bd cc 01 11 bd ea 0e 12 3d
       -0.06656117 -0.0456419 -0.035402104 0.035658754
0002a0 cb d9 ba 3d 2f 27 66 bd 1a 5f ca 3b 1b a2 9d bd
       0.09123572 -0.056189712 0.006175888 -0.07696935
0002b0 20 9d 64 bd 62 79 41 bd c7 1e e3 bb e5 dc fa bd
       -0.05581391 -0.0472349 -0.006931159 -0.122491635
0002c0 71 85 9b bd 54 ab 04 3e 0a f4 ab bd 50 f3 77 bd
       -0.07593811 0.12955981 -0.08396156 -0.060534775
0002d0 31 23 cd bd f5 e7 d5 bc f7 6e ef 3c 7e 83 a6 bd
       -0.10016478 -0.026111582 0.029227717 -0.08130549
0002e0 3b a3 47 3c f8 2e f5 bb d3 c9 49 bd 34 f7 dc 3d
       0.012184913 -0.0074824058 -0.04926474 0.10789338
0002f0 e1 78 39 bd 90 ca c0 3c f4 3a 8d 3d 3f 7f 08 bd
       -0.045281295 0.02353409 0.0689601 -0.033324476
000300 1f 9c 91 bc ab 01 54 bd de 01 75 3d b9 72 c9 bc
       -0.01777464 -0.051759403 0.059816234 -0.024590837
000310 39 2d a0 bd 30 20 4b bd 4a 40 17 bb 6d 6d b2 bd
       -0.078211255 -0.049591243 -0.002307909 -0.087122776
000320 9f b1 63 3d f9 4a 98 3c e8 53 1e be a1 56 36 bd
       0.055589315 0.018590437 -0.15461695 -0.04451621
000330 8a 6b 18 bc 94 4b 15 bd ad 84 29 3c d8 6e 5b 3d
       -0.009302983 -0.03644903 0.010346574 0.053572506
000340 0b 2e 0d bd 31 e1 1c be 2c 1b a3 bb 0d c6 4b bd
       -0.034467738 -0.15320279 -0.0049776044 -0.049749423
000350 fa 4b c2 3c 10 76 4b bb 42 63 6d bd 1e 08 69 bd
       0.02371787 -0.0031045713 -0.057955988 -0.056892507
000360 77 0c 6a 3d 29 6c ed bd 00 68 6b 3c 39 9a b0 bd
       0.057140794 -0.115928955 0.014368057 -0.08623166
000370 43 51 46 bd 2a b3 0b bd 32 39 5a bd a7 52 7b 3d
       -0.04841734 -0.03410641 -0.053277202 0.06135812
000380 bf 3e 08 bc f5 cf 97 bd ca 9a d7 bd 33 38 b2 b9
       -0.008315741 -0.074127115 -0.105275705 -0.00033992677
000390 bf 33 58 3c 64 8d 8b 3b b2 63 0f bd 0d 4d dd bd
       0.013195931 0.0042587984 -0.035007186 -0.10805712
0003a0 df 1e 9d bd 00 18 13 bd 82 19 08 be cd 28 e1 bc
       -0.07671904 -0.03591156 -0.1329098 -0.027485276
0003b0 2f b3 f7 bd da 47 2c 3d c8 30 21 3d 26 2e d1 bd
       -0.120947234 0.04206071 0.039353162 -0.1021388
0003c0 55 22 f2 bd d4 43 ad bb 28 39 59 bd b5 e7 8e 3d
       -0.118229546 -0.0052876268 -0.053033024 0.06977788
0003d0 e5 13 2b bd 4f e7 e4 bd 0a cb 93 3b 37 20 fa 3c
       -0.04176702 -0.11176931 0.004510288 0.03053294
0003e0 36 e1 02 bb 05 8d a6 3d de c5 fd bd 00 2d 46 3d
       -0.0019970662 0.08132366 -0.12391256 0.04838276
0003f0 8d 53 41 3b 6c 32 9f bc 6d ec 08 3c 39 f0 f6 bc
       0.0029499263 -0.019433223 0.00835715 -0.030143844
