Assets/Model/0527AttackMode.onnx (onnx, 293275 bytes, 13 tensors)

action_model._discrete_distribution.branches.0.bias f4 [3]
00000000: 91f0 6a3e b7e0 34be da91 a4bd
0.22943331 -0.17663847 -0.080356315

action_model._discrete_distribution.branches.0.weight f4 [3, 256]
00000000: 41a3 e4bb 9c06 05bd 6464 1a3d 8901 48bd
00000010: a51f 273c c079 96bd 3740 9abc 172b a2bd
00000020: 896e 8f3c e36c 5dbd 3cde b5bc e602 ae38
00000030: 0865 15bd c6c6 d1bb 086b b4bc f6a2 f0bc
00000040: 54ae 8bbd 63c2 bfbd 56ca d9bc 4f91 f73c
00000050: 7bb7 5b3c 1b77 cd3b 4aa1 0b3c 7a8d 943d
00000060: dc4f b83c 43fb 8e3b 5dfe 85bd 3612 c63b
00000070: 4f68 b33c 020c 183c 79bd cbbc 81b8 39bd
00000080: 27dc 6abc 1486 bf3b 3278 5abd 3dc6 0d3e
00000090: c887 94ba a795 7fbd 45e3 86bd 9dae 7c3d
000000a0: 587d 813c 84ec 90bd 6d2b 46bd 21b1 483c
000000b0: 5ae5 abbd 7e79 8f3d d448 3dbd 071b dfbd
000000c0: 3e47 c73c 8d16 803d fa40 d9bd 1e02 003d
000000d0: 388b e13b 24b7 82bd f89f 09bd 7a1f 83bd
000000e0: d191 e03c 4934 173d d27d 7abb 2206 3fbc
000000f0: 54e4 34bd 2de9 07bd 8191 693c 46cc aa3c
00000100: df87 20bd 8681 9fbc 37f9 403d fbd4 26bd
00000110: 869b 373d d9bb bc3c 3876 dabb 30b3 80bd
00000120: 1312 dfba 773b 673c 5526 7fbd 801a 903a
00000130: 8b90 753d 5973 003c cccd 62bd acd6 443c
00000140: 0637 85bd e356 d23c b4fc 9a3c 610d 063d
00000150: a0a3 3cbd c0de d5bc 615f 853d 2438 e73b
00000160: ca02 8abc 34c7 cfbd 70e4 47bd a060 0dbe
00000170: 901b 64bd 8d1f 87ba 9f21 44ba 409b 7dbd
00000180: 2ef7 0b3d 897a 1bbd e003 113d 0258 09bc
00000190: 0118 943d 8632 703c fd58 1ebc 477c 903d
000001a0: 0a65 8f3c 0073 973d 0405 8e3c dd43 1abd
000001b0: eb9c 04bd 1631 1e3d c07e de3c 265b 8abb
000001c0: 4536 513c 483d febc c2a1 91bd d300 53bd
000001d0: 78e6 76bc 4421 c73d 5282 48bd 148b b03c
000001e0: f19d 81bd 523c 0ebd e7d9 2c3c 7666 c1bd
000001f0: 58e3 973d a0f4 353d 6fab 88bb f614 cabd
00000200: 318f 543c e654 05bd 286f 94bd ff71 273c
00000210: 5852 f6bd c114 38bc fbbe 88bd 08fd 0e3d
00000220: 52ac edbd 6d01 07be c3fb b23c 5bf1 e1bd
00000230: e490 23bd f868 a2bc 553c ca3c a247 b63d
00000240: 1054 05be 8b49 203c a4d1 9dbd 74a3 f53c
00000250: 054f 1fbc ae85 503d f2e5 223d 2870 0abd
00000260: a4ef c9bb d058 9fbc 6950 9fbb 271b bfbc
00000270: b2a9 53bd 3e7e d63d 9efe 753c 9ec7 a0bd
00000280: 79e4 ffbc 3c12 a5bb 57bb 6ebd f437 01be
00000290: c971 b6bc a1ea e0bc 1140 3f3d 892c cdbb
000002a0: 53e5 823d d5e5 e0bd 637c 96bd 8f15 6c3c
000002b0: 5b83 b23c 9851 dcbd 04e2 aebc d336 40bc
000002c0: f77b 98bd a0f2 22bd 5897 f73b ed49 ebbc
000002d0: a45e 8ebc 5d20 0eba d89b 35bd 72ca a9bb
000002e0: e771 a8bb cbca 033e d4ad 73bd 168c 55bc
000002f0: e6bd e7bc aa86 943d 636c a13d 2488 40bd
00000300: 1cd5 ba3d 97e5 1abd 10f8 59bd 66be af3d
00000310: fa06 54bd 365b 9e3d 2b6e 613c 0269 b43b
00000320: 7819 4dbd c27a 89bd 21a6 f7bb 33b4 413d
00000330: 4bd5 0dbe d27a 90bc 5446 813c 54f9 36bd
00000340: baca 973d 83ad 2a3d d8bf 263c e26a d73c
00000350: c881 643d 7c78 4abd a3a6 b6bd 676a be3b
00000360: a3ad ff3b 1bd4 383c 6483 87bd 4b5e 2abd
00000370: 4db5 edbd 6063 9c3d 6114 553d 3099 1dbe
00000380: 8275 c9bc 630d d1bc 9f20 923c 9d57 4bbc
00000390: ae8c 7cbd dd24 43bd e83b babd 53e6 133d
000003a0: 5148 8d3c 3272 9a3d b661 c0bb 8063 843d
000003b0: 04c5 c4bc fc23 dc3c a4b3 c1bc 489e d03a
000003c0: aaf5 dabc 073a 60bc c2ba 093c b0cd b6bc
000003d0: 3f73 233c e983 99bc a518 493d 380a 1bbd
000003e0: 2458 023d 3286 f3bc 78b4 74bc 9641 d6bb
000003f0: 54fe 62bd 6ed3 413c 26c7 8e3d d117 6fbd
-0.006977469 -0.032477006 0.037693396 -0.04882959 0.010200416 -0.07347441 -0.018829448 -0.07918375
0.017508762 -0.05405892 -0.022200696 8.2975064e-05 -0.036473304 -0.0064018695 -0.022023693 -0.02937458
-0.0682036 -0.09363248 -0.02658574 0.030220656 0.013410444 0.006270302 0.008522341 0.07253547
0.022499017 0.004363449 -0.065426566 0.0060446514 0.021900324 0.009280207 -0.024870621 -0.045341972
-0.014334715 0.005844841 -0.053337283 0.13845153 -0.001133197 -0.06239858 -0.06586317 0.06168996
0.015806839 -0.07076362 -0.048381258 0.012249262 -0.08393355 0.07005595 -0.046212032 -0.10893827
0.024325963 0.06254301 -0.106080964 0.03125202 0.0068830512 -0.063825876 -0.033599824 -0.06402488
0.02741328 0.036915097 -0.0038221967 -0.011659177 -0.044163063 -0.033181358 0.014255882 0.020849358
-0.039192077 -0.019470941 0.04711267 -0.040730458 0.044826053 0.023038791 -0.006666925 -0.06284177
-0.0017018936 0.014113299 -0.062292416 0.0010994226 0.0599523 0.007840001 -0.055372044 0.012014072
-0.065046355 0.025676196 0.018919326 0.032727603 -0.046054482 -0.026107192 0.06512333 0.007056253
-0.016847033 -0.10145417 -0.04880184 -0.13806391 -0.05569035 -0.0010309085 -0.00074818166 -0.061915636
0.034171276 -0.037958656 0.035404086 -0.008382799 0.07231141 0.014660483 -0.009664771 0.07054954
0.017504234 0.073949814 0.017336376 -0.037662376 -0.03237621 0.03862103 0.027160048 -0.0042222915
0.0127692865 -0.03103508 -0.07110931 -0.051514458 -0.0150695965 0.09723142 -0.048952408 0.021550693
-0.06328953 -0.034725495 0.010549999 -0.09443371 0.07416409 0.044422746 -0.004170827 -0.09867279
0.012973593 -0.03255167 -0.07247764 0.01022005 -0.120274246 -0.011235417 -0.06677052 0.03490928
-0.11605133 -0.13184138 0.021848565 -0.11032363 -0.0399331 -0.019825444 0.024686972 0.089003816
-0.13020349 0.009783159 -0.077060014 0.029985167 -0.00972343 0.050908737 0.039770074 -0.033798367
-0.0061626006 -0.019451529 -0.0048618806 -0.023328377 -0.051675506 0.104732975 0.015014319 -0.07850574
-0.031236874 -0.005037574 -0.05828413 -0.12619 -0.022271054 -0.02745563 0.046691958 -0.0062614125
0.063913964 -0.10981337 -0.07347944 0.014409437 0.02179115 -0.1075775 -0.021348007 -0.011731821
-0.074455194 -0.039782166 0.0075558834 -0.028721774 -0.017379113 -0.00054216926 -0.044338077 -0.005181604
-0.0051405313 0.12870328 -0.059491947 -0.013033887 -0.028288793 0.07252248 0.07882001 -0.047004834
0.09122679 -0.03781661 -0.053215086 0.085812375 -0.051764466 0.07732241 0.013759176 0.005505682
-0.050073117 -0.06712867 -0.007557646 0.047290992 -0.13850896 -0.01763669 0.015780605 -0.04467137
0.07411714 0.04166938 0.010177575 0.026296083 0.05578783 -0.04943131 -0.08918502 0.005811024
0.0078026815 0.011281039 -0.06616858 -0.04159383 -0.11606846 0.07636142 0.052021388 -0.15390468
-0.024592165 -0.025519079 0.01783782 -0.012411025 -0.0616576 -0.047642577 -0.090934575 0.036108326
0.017246397 0.07541312 -0.005871023 0.064642906 -0.024019726 0.026872627 -0.02364523 0.0015916312
-0.02672847 -0.01368571 0.008406343 -0.022314876 0.009976207 -0.018739657 0.04909577 -0.037851542
0.03182234 -0.029727075 -0.014935605 -0.00653858 -0.055418327 0.011830194 0.06971578 -0.058372322

action_model._discrete_distribution.branches.1.bias f4 [3]
00000000: 71bf 55bf 0688 1a3e 7897 813e
-0.8349524 0.15090951 0.25310874

action_model._discrete_distribution.branches.1.weight f4 [3, 256]
00000000: f3fa af3c 3b58 d53d 5f6f b1bc dbb3 27bc
00000010: 7647 83bb aed6 a8bc 4903 01bd fc51 a03c
00000020: e1e5 913c cc28 74bc c4b7 d63c bb28 47bd
00000030: fdfe d93d e64b 67bc 391b 43ba c0e2 73bc
00000040: 4767 b93b ac0e de3d 52db a33c 093c 023d
00000050: d032 1ebd f122 433d f44d 8ebc 2956 173d
00000060: d600 f83b 4047 3d3d f8cb 943d 1152 483d
00000070: 8dd6 313e 1ccf bbbc dd25 c23c 0eb2 dc3d
00000080: b126 9a3c 6fb4 0dbe b82b da3a 420f 66bc
00000090: f368 1abd 4768 5b3d a46e 083d 3b49 0bbd
000000a0: 2e8f 8abc 6109 603d ca23 403d 1371 433d
000000b0: 2d2a b53c 14de 463d dbfb a03d 3c18 6ebd
000000c0: cbc2 083e 2b76 183d 6386 17be 7c00 1b3c
000000d0: 1277 b03d c226 14bc 7f34 ad3c 4db2 1bbc
000000e0: 3a1a e83c 73e2 e8bb 1a5e 873d e543 8ebb
000000f0: 2af0 ad3c 2951 a23d 9477 523d c836 bf3d
00000100: 55f7 dcbd 4a3a a0bd 1ea6 6b3d 9359 95bd
00000110: 7d75 9c3d 1304 78bd d62b ec3c e01b ebbc
00000120: f2a5 92bc 713e b2bc dd8e d9bc 0524 823d
00000130: 11a8 a93d f598 b7bc 04c3 83bd e72a 09bb
00000140: 0ce3 a63d fbfc 893d d8f4 15bc dcdf 993c
00000150: 8313 8f3d 6e89 923b 1821 bb39 6b9b c93d
00000160: 1ad9 9c3c 1304 40bd 7c1c a13d dc3c 09bd
00000170: 7bba aebc d3ce 38bd 565f bf3d 57fa 7a3d
00000180: 65f2 54bd 3bb6 4b3d 7285 50bc d380 85bd
00000190: 0538 f7bc 85c6 8a3b 706a b8bd aa6b f3bd
000001a0: 501e b73c 6491 81bd c975 e23b e123 2ebb
000001b0: 7257 90bd 04f5 853c 1ff6 b13c 7d3b 1f3d
000001c0: 1f57 d53d 00d4 8fbc d38c 253d e05a 9b3d
000001d0: 1542 f63c f03c 0fbd c174 4b3d dd09 ccbc
000001e0: 7a64 50bd 0e6c a4bd 3529 4a3d fe24 823d
000001f0: 8607 68be 5b64 c2bc aaf3 84bd d039 133d
00000200: 3083 583d be5e a8bd 005c 8f3d 3ed2 c03d
00000210: a2cb dabd 87b6 873d 8421 a93d 9ebe 243d
00000220: 16c0 443d afe8 4abd b1c8 c23d ede0 e23d
00000230: 2f60 a238 daf2 2bbe 9be9 273d cf9f ce3d
00000240: 05c0 88be 240b f0bd 1e77 bd3c 242d d53a
00000250: 57df f6bd 42a5 19bd 1205 d83d 6691 353d
00000260: e893 8f3d 4be0 d03d cbe5 ca3d 90d5 22bd
00000270: d150 a23d fc2d 59be 4fac 7bbd 1a38 78b9
00000280: 3ec9 43bd ad77 2fbd 496c 58bd 8f2f 05bd
00000290: d910 323e ed93 afbd dedb c9bc bb72 61bd
000002a0: 95a8 87bd fb13 f13b 8216 89bc ec0d d939
000002b0: 5363 1b3b 23aa b7bd b0ca 353c 6e0c 48bd
000002c0: fdb6 0cbd 0be3 e93c d1bd 243c 34ee f6bc
000002d0: 3530 3f3d 6826 773d 71a4 b33c 8355 c639
000002e0: bd00 a73c b633 c83d 466f 43bd 45c9 6a3d
000002f0: 976b c23d 850e c23d 184e 16bd 3927 cc3d
00000300: c7d8 38bd ac27 46bd 1d35 283d 10c1 eebc
00000310: 746f 263b 4bac ca3d c44d f73a cb10 863d
00000320: 8958 bd3d 1eca 8fbd 19db c43c 91f0 303c
00000330: ad02 983d 77c2 6fbd 98d0 cd3a 0157 a83d
00000340: 3728 2d3d b320 7a3a b410 34be 3f07 d8bd
00000350: 2bd1 8f3d 1ff0 853d 588d 703c b5d5 b83d
00000360: ec16 bdbc 237a 1d3c 134a 763d 8ce7 51bc
00000370: 802f a5bc f533 493d 770e c2bb 0859 b03c
00000380: ba30 90bd d14b c3bb cc0c a33c c97a 003d
00000390: 4453 493c 09c9 7b3d b9b2 e53c 2142 17bd
000003a0: e6b2 7f3d 48c9 a8bd c38c e6bc 9318 54bd
000003b0: 6044 9ebd e052 b33d b32b 0fbc 4fbe 283d
000003c0: f171 0b3d 72d9 c03d 093b 4f3d d229 d1bd
000003d0: 4394 27be 1bfd 973b 9ec6 d53c 4a37 d3bd
000003e0: 1dd9 72bd df03 03be 3640 bc3d b6c4 cdbd
000003f0: eebd c03d d48b 243d e5fd 193e bf33 9fbd
0.021481967 0.10417219 -0.021659551 -0.010235752 -0.0040063215 -0.02061018 -0.031497274 0.019570343
0.01780981 -0.014902305 0.026210673 -0.048622828 0.10644338 -0.014117217 -0.0007442716 -0.014885604
0.0056580636 0.10842642 0.020002041 0.031795535 -0.038622677 0.047640745 -0.017371155 0.036947403
0.007568459 0.046210527 0.072654665 0.04890639 0.17367001 -0.022925906 0.023699695 0.10776149
0.018817278 -0.13838361 0.0016645109 -0.014041724 -0.037697744 0.053566243 0.03330864 -0.034005385
-0.016913977 0.054696444 0.04690913 0.047715258 0.022114838 0.048551634 0.078605376 -0.05812858
0.13355558 0.03722207 -0.14797358 0.009460565 0.08616461 -0.009042444 0.021143196 -0.009502959
0.028332818 -0.007107073 0.06609745 -0.0043415898 0.021232683 0.07925636 0.05138357 0.093366206
-0.10789362 -0.07823618 0.05753147 -0.072924756 0.076395966 -0.06055076 0.028829496 -0.028699815
-0.017901395 -0.02175829 -0.02655738 0.063545264 0.08284009 -0.022411803 -0.06433681 -0.0020930113
0.081487745 0.06737705 -0.009152614 0.018783502 0.069861434 0.0044719493 0.00035692076 0.09844097
0.01914649 -0.046878885 0.07866761 -0.033505306 -0.021329155 -0.045119118 0.09344356 0.0612739
-0.051988978 0.049734335 -0.012727128 -0.06518712 -0.03017808 0.004235091 -0.09004676 -0.1188577
0.022353321 -0.06326559 0.0069110137 -0.0026571678 -0.07047929 0.016352184 0.021723805 0.03887509
0.10417008 -0.017557144 0.040417504 0.075856924 0.030060807 -0.034970224 0.049671892 -0.024907047
-0.050877072 -0.08028422 0.049355704 0.06354712 -0.2265912 -0.023729494 -0.06491788 0.035943806
0.052859485 -0.08221196 0.069999695 0.094151005 -0.10683371 0.06626611 0.08258346 0.04022085
0.04803475 -0.04953831 0.09510935 0.110780574 7.7426776e-05 -0.1679186 0.040994268 0.10089075
-0.26709 -0.11720875 0.023128089 0.0016264063 -0.120543174 -0.037511118 0.10547842 0.044328116
0.07010633 0.101990305 0.09907111 -0.03975445 0.07925571 -0.21208948 -0.061443623 -0.00023672023
-0.04779934 -0.04283874 -0.052837644 -0.03251606 0.1738924 -0.085731365 -0.024640974 -0.055041056
-0.06623951 0.007357118 -0.016734365 0.00041399838 0.0023710325 -0.08967998 0.011095688 -0.04883998
-0.0343542 0.028550645 0.010055021 -0.030142881 0.046676833 0.06033936 0.021928998 0.00037829214
0.020386094 0.09775488 -0.04771354 0.05732085 0.094931774 0.09475426 -0.03669557 0.09968419
-0.04512861 -0.048377678 0.041066278 -0.029144794 0.002539602 0.098961435 0.001886778 0.06546172
0.09245402 -0.07020973 0.024030255 0.010799543 0.07422385 -0.058535066 0.0015702425 0.0821972
0.04227468 0.0009541616 -0.17584497 -0.10548257 0.070223175 0.0653994 0.0146821365 0.090251364
-0.023082219 0.009611639 0.060129236 -0.012811553 -0.020164251 0.049121816 -0.0059221345 0.021526828
-0.07040544 -0.0059599658 0.019903563 0.031367097 0.0122879185 0.06147102 0.028039323 -0.0369283
0.06242647 -0.08241516 -0.028143292 -0.05178125 -0.07727885 0.087560415 -0.008738446 0.041197117
0.03404421 0.094164744 0.05059341 -0.10213055 -0.16365151 0.004638327 0.026095685 -0.1031328
-0.059289087 -0.12794445 0.09191935 -0.10047285 0.09411226 0.040172413 0.1503826 -0.07773542

action_model._discrete_distribution.branches.2.bias f4 [3]
00000000: 6462 07bd 3d4a 433d bb09 56bc
-0.033052817 0.04767822 -0.013063843

action_model._discrete_distribution.branches.2.weight f4 [3, 256]
00000000: 5f84 54bd d7f9 53bd 3167 c6bd 7e03 a6bc
00000010: 58a8 15be f6f8 abbd 1881 5abd aac2 763d
00000020: c372 1dbd cd0e bb3d c582 f5bc f712 563c
00000030: dbd9 7abc c20c 643d 3c69 a73d 4966 d63d
00000040: 734d 0fbd a56d 83bd 1512 9c3d 4415 833d
00000050: c2ae b3bd 286c 60bc c1fe b73d 636f fe3c
00000060: 23ec 89bd df55 2abd 9930 21bd 3ee4 2abd
00000070: 73e4 d03c d793 ffba df08 33bd d08c 183c
00000080: bf15 3d3c 2f3c ae3c 9e35 81bd 5eae c83d
00000090: 0ac3 a2bc a995 d4bc 4980 e7bd 9e7c 573d
000000a0: 4c6d d2bd 75da 0bbe 8c7b d4bc a541 6ebd
000000b0: 41ed 7e3c fdd3 ccbd 3341 0cbc a290 88bd
000000c0: 942e a1bd a998 5ebc 6f33 2f3a 2fb3 753c
000000d0: 7269 403d e22a de3d 6445 57bd 3cee fe3c
000000e0: 8aa8 73bd 176a 49bd 5999 e23d 35d7 bbbc
000000f0: 8846 b03d d1be aebc e6c6 cfbc f970 cd3c
00000100: da07 ea3a c227 f5bc 182e 8cbd fec7 9fbd
00000110: 707b 733d 53be 363c f184 59bd 60e6 e0bc
00000120: 3899 523c 9192 05bd 64cc ccbd f2e4 b3bc
00000130: 9ffd 8fbd dd2b 4abd 5fbb e13c 7d2c 89bd
00000140: 5d41 1abd c900 52be 6944 89bc 5e66 f2bc
00000150: ff70 0abe 93db 0fbd a324 333d d801 353c
00000160: 8baf 873d 572d 273c 02e9 60bd 44a8 b83b
00000170: 6426 b4bd feae 67bd 12c9 3c3d 73d1 73bd
00000180: dead 78ba d065 89bd 7daf 89bd 796a f33c
00000190: cdf7 dcbc 70d2 24bd f232 22bc 0e54 70bd
000001a0: f5d1 45bc 979e bebb 711f 62bc 5709 d7bd
000001b0: 5529 28bd 589c 2dbe 9fe5 a03d 650f eebc
000001c0: a7c1 2f3b 4c66 0cbd 4c0f 76bc cbe3 adbd
000001d0: 151a 86bc 4438 be3d 6e96 673c e5b3 2fbd
000001e0: 2639 533d d100 573c ee80 83be 4d5d f8bd
000001f0: 5965 573d 2f25 ad3d b44a 76bc 259b babd
00000200: 085d c2bd 9e6e 563c af55 a4bd b035 4abd
00000210: 0999 093e e8d2 37bc d844 cb3d 315b abbd
00000220: c433 52bc 08b2 de3d f949 a13d e088 95bd
00000230: efcb 1e3e ea27 053d bb30 1d3c dd41 dbbc
00000240: 65f0 fe3d 0470 903d 92fb a7bd 1886 883c
00000250: e283 f4bd 6217 71bb 1145 95bd 979a c3bd
00000260: 9b12 cfbd 1a75 373d 90a9 16bc dbb9 b1bb
00000270: b4bd 82bb 7214 67bc 882f 6bbd 9ac8 0abd
00000280: a3ee c1bd d386 f73c 4cc8 223d 64c8 4dbb
00000290: fd32 a13c d25f 44bd 79ab 92bd bd83 783d
000002a0: cd3b 84bc 6756 103d 7810 dbbd 6e3b 093c
000002b0: 2728 9f3d 3a26 1b3e 182b a3bd 25e2 2e3d
000002c0: c8c6 abbd fc12 f83c 1495 653d ee22 c53b
000002d0: cd16 2cba 947a 923c 6bba 22bd c6fd 3fbd
000002e0: d786 88bd e5f1 c43c 6a17 84bc d3fc 78bd
000002f0: 8ee9 393d c661 fcbd 370f dbbd 4c7a efbd
00000300: 7bf9 223d 3eb7 b03b c234 17be ac76 533d
00000310: ebc3 d6bd 1278 5bbd feb5 8e3c 6a51 1bbd
00000320: 4466 1abd b823 c03d 7c8d 293d 6cb8 afbd
00000330: d96f 9abc b3b3 c2bd ec97 e1bd e90d 04bd
00000340: b38d 04bc 7fd1 bcbc 6ce0 133d 07c7 253d
00000350: c650 103d a519 4b3c 7c97 8abb 03db a43d
00000360: 44d3 e43d ccfa 83bd cfd0 973c fd9a 633c
00000370: e36a 35bd d1e6 8cbd f840 a83c cfc0 23bd
00000380: a151 853d 93ed 153e 8616 67bd d70e 773c
00000390: ef05 853d aaac 98bd a7a1 76bd 8e59 353c
000003a0: 63a1 b7bd c99f 683d bbb9 363d e6f1 833d
000003b0: 0c83 ed3d 3ea0 90bc 81b5 4ebc c339 97bd
000003c0: f47e 033d 796b 8a3c 12a6 1ebb f23d 11bd
000003d0: ab8d 4f3d 3fe7 0cbe 3234 4f3d bdf7 0fbe
000003e0: ab3c 1ebe ae90 05bd b765 f4bd 5ffe 003c
000003f0: 514f 41bd e5b4 8cbd d7ea 30bc 67bc 773d
-0.05188405 -0.051751938 -0.09687651 -0.020265337 -0.14615 -0.08397095 -0.05334577 0.06024424
-0.038439523 0.091336824 -0.029969582 0.013066045 -0.01531073 0.05567623 0.08174369 0.10468728
-0.03498597 -0.064173974 0.076206364 0.064005405 -0.08773567 -0.013697661 0.08984137 0.031058973
-0.06734493 -0.0415858 -0.039352987 -0.041721575 0.025499558 -0.0019499016 -0.043709632 0.009310916
0.011540829 0.021268932 -0.06309055 0.09798883 -0.019868392 -0.02595027 -0.11303765 0.05260908
-0.10274753 -0.13657553 -0.025937818 -0.058168072 0.015559495 -0.10001371 -0.008560467 -0.066682115
-0.07870212 -0.013586202 0.00066833844 0.014996334 0.04697556 0.10848023 -0.05255641 0.031119458
-0.059486903 -0.04917344 0.11064405 -0.022929767 0.08607203 -0.021331223 -0.025363397 0.025078284
0.0017855123 -0.029926185 -0.06844729 -0.07801817 0.05944389 0.011153775 -0.0531053 -0.027453601
0.012853913 -0.03261048 -0.09999922 -0.021959756 -0.07030796 -0.049358238 0.027555166 -0.066979386
-0.03765999 -0.20508112 -0.016756253 -0.029589828 -0.13519667 -0.03512151 0.04373611 0.011047803
0.06625279 0.010203681 -0.054909714 0.005635293 -0.08796385 -0.05656337 0.046090193 -0.05952592
-0.00094863574 -0.06708872 -0.06722925 0.029713856 -0.02697363 -0.04023975 -0.009899842 -0.05867391
-0.012073983 -0.005817245 -0.0138014415 -0.10499828 -0.041055042 -0.16954172 0.07856297 -0.029060075
0.0026818307 -0.034277245 -0.0150182955 -0.08490714 -0.016369859 0.092880756 0.014134986 -0.04289617
0.051568173 0.013122753 -0.25684303 -0.12127171 0.052586887 0.08454358 -0.015032459 -0.09111623
-0.094904006 0.013087897 -0.08024155 -0.049367607 0.13437285 -0.011219718 0.0992524 -0.08367003
-0.012829725 0.108738005 0.07875437 -0.073014975 0.15507482 0.03250877 0.009594138 -0.026764804
0.12448195 0.07052615 -0.0820228 0.016665503 -0.11939217 -0.003678762 -0.07288564 -0.0955097
-0.101109706 0.04478941 -0.0091957 -0.005423767 -0.0039898995 -0.014103996 -0.057418376 -0.033882715
-0.094693445 0.030215656 0.0397418 -0.003139996 0.019677633 -0.047942944 -0.07161612 0.06067251
-0.016141796 0.03523865 -0.106965005 0.008375986 0.0777133 0.15151301 -0.07967204 0.042696137
-0.08387524 0.03028249 0.056050375 0.006016127 -0.0006564677 0.017880715 -0.039728563 -0.046872877
-0.06666344 0.024041126 -0.016124446 -0.060787987 0.04538875 -0.12323336 -0.106962614 -0.11693248
0.039788704 0.005392938 -0.1476622 0.051626846 -0.10486587 -0.053581305 0.017420765 -0.03791944
-0.037695184 0.09381813 0.041394696 -0.085800976 -0.018852161 -0.09506931 -0.11015305 -0.03223983
-0.008090424 -0.023049114 0.036102697 0.04047301 0.03523328 0.012396251 -0.004229484 0.08049586
0.11173108 -0.0644432 0.018532185 0.013891933 -0.04429139 -0.06879962 0.020538792 -0.0399788
0.0650971 0.14641409 -0.056417964 0.015079222 0.06495272 -0.07454808 -0.060212757 0.011068715
-0.08966329 0.056793008 0.04461072 0.06442623 0.11597261 -0.017654534 -0.012616516 -0.07384064
0.032103494 0.01689695 -0.0024207872 -0.035459466 0.050672214 -0.13760088 0.050586887 -0.14059348
-0.1545283 -0.03260868 -0.11933463 0.007873147 -0.047194783 -0.068704404 -0.010798178 0.06048241

action_model._discrete_distribution.branches.3.bias f4 [2]
00000000: 6fd2 90bd 6fd2 903d
-0.07071387 0.07071387

action_model._discrete_distribution.branches.3.weight f4 [2, 256]
00000000: 0a7c ea3c 926b a33c 5223 023d f435 8c3d
00000010: 1a60 96bc 0312 403c db99 823d ad1d 12bd
00000020: fff9 753d d3fe d2bd d4fb 413d 4433 803d
00000030: 7245 05bd 6248 8cbd 9419 86bd 9b83 39bc
00000040: 5dbb 963d cf73 2f3d b191 e1bd c2c3 823c
00000050: 5e97 b83c 7082 053b c372 a33c 3c22 c93c
00000060: 79a6 26bd 8943 b73d f023 8d3d 270d 763d
00000070: 5cb9 d4ba a18a ed3c c6c5 b0bb a12d a83b
00000080: fdae f3bc c470 ba3c e1d7 233d e347 f8bb
00000090: 85a5 90bd d420 0bbd 940d 043d ffb1 c8bc
000000a0: c3d1 693d 6534 b33d fca1 9b3d f5df bdbc
000000b0: 90d8 843c 23b2 323d c9f3 2d3d f95c 493d
000000c0: 924a a43d 8a2c 99bd 48b1 843d 3e23 153c
000000d0: 4333 673c c050 1f3c 9f86 423d cb6b f9bc
000000e0: 2fef 6c3c bae4 853d 245b a23c 30f6 84bc
000000f0: 152e 4fbd f8e7 853d 60a9 3fbc e7f3 fdbb
00000100: 2080 a03d 8e3a b5bc c82f 16bd 8dd8 5c3d
00000110: 8343 563b f4a8 453d 2296 363c 5a61 ad3c
00000120: 5a8a 92bc 5f3f b23d 0e24 2e3c eec1 b9bc
00000130: 61a1 4fbd 61e6 f93c 554e 233c ff4c dfbd
00000140: 38b7 ab3c 1db7 b33b 4dca 103e c9a1 783d
00000150: fd87 b63d c1e0 1a3e 99bc 44bd 20ca 963d
00000160: d515 893c 9032 683d b32b 5a3d 76fb 833d
00000170: 0c36 813c d06a 85bd ef8f a03c 5800 863c
00000180: 9fd2 2a3d 756a 3b3d aa66 503c 7bd8 ab3d
00000190: e40d 09bd 048e c23d 2181 ed3c d7ea 16bb
000001a0: c74e 98bc e63c 5b3d fc9c 8c3d 6dd0 c93d
000001b0: 5538 d9bc 072a 033e 9aa2 bfbc 9650 653d
000001c0: 6c54 9b3d bed6 2ebd 3b22 193c 8bb2 13bd
000001d0: 60fe 953b fe33 95bc ec25 1c3d 3e85 6c3d
000001e0: 91ec fe3c adc3 b6bc 64bc 42bd 6a7a e4bd
000001f0: f46b 7d3d 6421 513d 042c 013d c995 403d
00000200: a8a6 dc3d 1ff1 303c 7bde 473d 5152 48bd
00000210: c9f1 56bd 6005 ae3c d66a b7bd 0a33 a73d
00000220: 9950 aabd 7698 c73c b478 7f3c 25cb 613d
00000230: 1ff8 23bc 5b3a 833d 25ff 09bc 2fc2 073d
00000240: d0cf 8dbd f780 de3c 624c 92bc ef81 df3c
00000250: 9874 1fbd b31e 003c 8790 15be 9b6c 9cbd
00000260: da14 2e3d dc43 01bc 319b 6a3d c562 6a3d
00000270: 2af8 98bd a3dc 343b 5649 15bd df7e 483c
00000280: 1ac4 8dbb 0ef9 b73d 93b4 55bd b4a8 57bd
00000290: 77b9 97bc 4282 193c 22c3 bcba c84f ed3c
000002a0: b11d 233d 03a8 b2bd aa52 ad3c cf85 983d
000002b0: 436e b43d cb4b c23c 698a 6e3c b988 2e3d
000002c0: ffba 11bd 8152 c03b 3dff 413d cc55 113d
000002d0: 3d74 ca3c 4f5b d6bc 0e02 babc ad2d 5d3d
000002e0: 5caa 24bd 3ad2 ed3d c2df 8abd d38d ad3d
000002f0: 5dd7 6f3c e0cf b83c 5314 103e 626e 0d3e
00000300: f670 29bd 31ed 28be 1422 123e c2d3 dd3c
00000310: dc64 81bc 9797 ed3c 8574 9c3b 872f 073d
00000320: b842 a83d 57eb e1bd fc47 aebb badd 14bc
00000330: 49ab 01be 5a0c 3f3d 1ae0 d73d 2aee 553d
00000340: e371 aeba b9ba 49bc b57a 8d3b 221e 82ba
00000350: a259 943c b515 633c 4caf 5e3d 3150 f1bb
00000360: 82c6 e8bd 9d6d 643d 307d a43d d0eb 713c
00000370: 2a36 b8bc bd67 dfbc 4642 0a3c 7e77 dd3d
00000380: 6e57 353d 736d 0dbd 9ebf e13c 45a0 66bc
00000390: 9375 86bd 9f62 16be 946a fbbc 6671 253d
000003a0: a8ef 7f3d cebb 353d 2d19 c0bd 066f d53d
000003b0: f379 0fbd 8788 ecbc cccc 4f3d 8c2c 99bc
000003c0: 6aa6 3c3d 8445 51bb ef1a 8cbc 785f 0dbd
000003d0: eaf1 0ebd 728e 70bd d3e8 5c3d 470c 8f3d
000003e0: f9b1 6c3b f37c be3b d0c3 fa3d 92aa 9cbd
000003f0: 8580 36bc dea5 533c 07b3 cdbd 0e96 49bb
0.0286236 0.019948754 0.031771965 0.06846228 -0.018356372 0.011723044 0.06377002 -0.035672832
0.060052868 -0.1030251 0.047359303 0.06259778 -0.03253693 -0.068497434 -0.065478474 -0.011322881
0.073599555 0.042835053 -0.110141166 0.015962485 0.022533115 0.0020371936 0.019952184 0.024552457
-0.040686104 0.08948428 0.0689162 0.060071137 -0.0016229558 0.028996767 -0.00539467 0.0051323925
-0.029746527 0.022758849 0.0400008 -0.007576929 -0.0706282 -0.033966854 0.03223951 -0.024498938
0.05708481 0.08750228 0.075992554 -0.02317808 0.016216546 0.043626916 0.04246882 0.04916093
0.08022036 -0.07479198 0.06479126 0.009102641 0.014111343 0.009723842 0.047491666 -0.030446908
0.014461323 0.06537767 0.01981885 -0.016230673 -0.050581057 0.06538385 -0.011698097 -0.0077500227
0.07836938 -0.022122648 -0.03666666 0.053917456 0.0032694049 0.04825683 0.011144193 0.021164585
-0.017888237 0.08703493 0.010628713 -0.02267548 -0.050691012 0.030505361 0.009967406 -0.10903358
0.020961389 0.0054844753 0.14139672 0.060701165 0.089126565 0.151248 -0.048031423 0.07362771
0.016734043 0.056688845 0.05326433 0.06444447 0.015772842 -0.065145135 0.019599883 0.016357586
0.04170477 0.045755822 0.0127197895 0.083909 -0.033460513 0.094997436 0.028992238 -0.002302816
-0.018592251 0.053524874 0.0686588 0.09854207 -0.026516119 0.12809001 -0.023392964 0.055985056
0.075844616 -0.042685263 0.00934654 -0.036058944 0.004577443 -0.018213268 0.038122103 0.057744257
0.031118663 -0.022310102 -0.047542945 -0.11156161 0.06187053 0.051057234 0.031536117 0.047017846
0.10773975 0.010799675 0.04879616 -0.048906628 -0.052476678 0.021242797 -0.08955924 0.08164032
-0.08316154 0.024364691 0.015592743 0.055125374 -0.010007887 0.06407615 -0.008422648 0.033144172
-0.06924403 0.027161105 -0.017858688 0.027283637 -0.03892955 0.007819819 -0.14605914 -0.07637902
0.042500354 -0.007889714 0.05727691 0.0572231 -0.074692085 0.002759733 -0.03644689 0.01223728
-0.0043263556 0.0898305 -0.052174162 -0.052651122 -0.018521054 0.009369435 -0.0014401416 0.028968707
0.039823238 -0.08723452 0.021157581 0.07447397 0.08810093 0.023717782 0.014559367 0.042610858
-0.035578724 0.00586921 0.047362555 0.035482213 0.02471363 -0.026166586 -0.022706058 0.053998638
-0.04020153 0.11612363 -0.0678096 0.084743164 0.014638749 0.02256006 0.14070253 0.13811639
-0.041367494 -0.16496731 0.14270812 0.027078513 -0.015795164 0.029002948 0.0047746324 0.03300431
0.082158506 -0.11031216 -0.00531864 -0.009086067 -0.12662996 0.04664264 0.10540791 0.052229084
-0.0013309087 -0.012312585 0.0043176063 -0.0009927193 0.018109147 0.013860156 0.054366395 -0.007364296
-0.11365987 0.055768598 0.0803169 0.014765695 -0.022486765 -0.027271146 0.008438652 0.10813807
0.044272833 -0.034528207 0.02755719 -0.014076297 -0.06565394 -0.14686058 -0.030690469 0.04039135
0.062484413 0.044368558 -0.09379802 0.10421567 -0.03502841 -0.028873695 0.05073242 -0.018698
0.046057142 -0.0031932304 -0.017102687 -0.034514874 -0.034898676 -0.058729596 0.053932976 0.069847636
0.0036116822 0.005813235 0.122443795 -0.07649721 -0.01113904 0.012917964 -0.100439124 -0.0030759606

discrete_action_output_shape f4 [1, 4]
00000000: 0000 4040 0000 4040 0000 4040 0000 0040
3.0 3.0 3.0 2.0

network_body._body_endoder.seq_layers.0.bias f4 [256]
00000000: dafb af3d 1fe6 ec3d 1181 51bd c317 133e
00000010: 4d1d e1bd 1704 bdbd fa34 af3d 1d76 52be
00000020: 57ee ecbc 7c69 8f3b ab5d 57bd 5282 3ebe
00000030: c26b 4bbe bca0 253d 1410 96bc 05b9 923c
00000040: 32fb 153e 802c ae3d 0eaf 7e3d 7b12 1e3c
00000050: c74a c73c febf 593d 4e6c 53bd 54fd 07bd
00000060: f45d 0dbc 9999 743d 86bb 443d bf0b e3bc
00000070: 94f3 793d 5a4d 96bd 8d54 5a3d 0303 4b3e
00000080: aea8 353e 1703 da3c a967 cbbd 55f7 48be
00000090: 4399 b73d 2b99 b6bc fb8e bfbc 9f20 ae3d
000000a0: 5aa8 09bd a038 2e3d 2240 58be 502a bd3d
000000b0: 7b6a 81be 7ca1 2cbe 14b2 2cbe 29df d3bd
000000c0: 415b 1abe a6bf 9e3d 493b e6bd 6c75 e6ba
000000d0: 40c1 8e3d 7516 9b3d 41dc 553d 9706 38be
000000e0: 4f42 0fbe dc96 68bd 2055 ffbd a8f0 80be
000000f0: fe82 213e 0038 123e d425 d3bb 1141 a9bd
00000100: f24e 01bb 8a73 b4bd 5042 68bd 6d03 5a3e
00000110: c701 273c c821 c9bd 0577 b33d 2446 cdbc
00000120: 47f5 933c 2026 1ebe e9be fcbc c8b7 f8bc
00000130: 2df9 86bd 6e90 433c bb2e cdbd a8cb 67be
00000140: 1d51 9ebd 5d17 173c 5c66 a33c a129 0cbe
00000150: 685d c9bd 0f20 66bd 6274 c4bd 6436 0ebe
00000160: 14fd 66bd 5594 05bd 602e 1cbe b88a 523e
00000170: 10ef 68bd b5f1 243e 8038 06bd e205 b8bc
00000180: d984 ed3c 7e8e a5bd f112 2dbe 262f d4bd
00000190: 7930 b8bd 16c2 f33d e37a 86bd f26a 3fbe
000001a0: f561 aebc 9637 69bd 0af3 343c 65b7 1cbd
000001b0: be84 453e e90b d7bc 6819 3ebe e75b 1abe
000001c0: cd1c 1fbe ebc6 edbd 409b a4bd 5d0f 4ebd
000001d0: b0a6 83bd b764 3c3c 9f36 c13d 36d5 e4bb
000001e0: 9d2c d7ba 846a 29be d9fe debc 62ba 073e
000001f0: 1632 b73c 209a b2bd 5641 53bd 7ae9 043d
00000200: 0bad babd 8a4c e8bd 20ff 38bd 4f3b 03be
00000210: 4ad2 8fbc 94bc 543e 9ebb 813d 1d5f 64bd
00000220: 75e9 813d 0a6a 7bbd b7b7 dd3d 3a79 6d3e
00000230: 991e 13bd b646 353d 4077 b23d 3027 313d
00000240: 4660 14bd 67c2 e93c 90da 523d 90ce 65bc
00000250: 4f82 603c 3f8b b23d efdb 9c3d d3e9 813c
00000260: ad5c 7dbc 984a 98bd c1e8 613d 3784 2d3d
00000270: 1aca 523e ed9b 4f3e dd36 81be 4d41 a1bd
00000280: f10e 46be 2b84 22bc 4e76 1abb 4f6f 36bd
00000290: f3eb 1fbe 4e28 24be bb3c 643d f21b 2d3d
000002a0: 0cf1 99bd 9ed4 2dbd d5e7 0abe c74c e8bd
000002b0: 3b1b 3e3d 148f 99bd 1c3c 1ebe c727 c4bc
000002c0: 73e2 ddbd 9779 9bbd 651a 27bc 7d06 24bc
000002d0: 035e 07be d9dc 97be 3aed 39be 3661 2c3e
000002e0: b8ae b3bd 490f c6bc 30ae 98bd 51f1 d1bc
000002f0: 33c5 32bd d679 113e 0519 083d 8edd 6b3d
00000300: 2089 6abc 1597 24bc c9ff 86bd 464b 81bc
00000310: 5aca 92bd c875 f13d 6001 32be 5396 f5bd
00000320: 597f 36be e310 433d 7d38 ff3d 136b acbd
00000330: f36b da3c 5d36 2a3e 55b4 21be 982e 93bd
00000340: d3d3 d4bc b50b 1a3d 1e44 c5bd 7f0a d1bd
00000350: a9ac b6bd 5187 e8bd dc3b f0bb 115b ccbd
00000360: 009c b1bd f86c 623c f676 94bd 0d40 a8bd
00000370: e5d0 b2bc 2f1c c5bd 3d5e 0fbc 59b1 5cbe
00000380: 5a27 80bd d85e 87bd 20c8 3d3d 7ba9 3b3e
00000390: 89c8 15be 0d93 bfbd 1062 ab3c ce49 973c
000003a0: ae42 50bd 1083 48bd a5ed bcbc ca36 00be
000003b0: f9de a8bd 31a6 263d 9944 843d 13f9 1cbe
000003c0: b2c3 d13b f68b 24be 04df e9bd a5b5 dbbd
000003d0: e312 3d3c ab15 09be 1322 aebd 3437 91bd
000003e0: 88d6 e83d 1a5e b8bb ffae 1dbe 6f91 383d
000003f0: fc34 26be 8b16 023e 72f8 d6bd d265 743d
0.08592959 0.115673296 -0.051148478 0.14364533 -0.10991917 -0.09229296 0.08555026 -0.20552869
-0.028922243 0.0043765884 -0.052579563 -0.18604401 -0.19865325 0.04043649 -0.018318214 0.01791049
0.14646605 0.085045815 0.062178664 0.009647961 0.024327649 0.053161614 -0.05161696 -0.033200577
-0.008628357 0.059716795 0.0480304 -0.027715562 0.06102331 -0.073389724 0.05330329 0.19825368
0.17740127 0.026612801 -0.09931881 -0.196256 0.08964779 -0.022289833 -0.023383608 0.08502316
-0.03360782 0.04253447 -0.21118215 0.09236586 -0.2527655 -0.16858476 -0.16864806 -0.10345299
-0.15073873 0.07751398 -0.112417765 -0.0017582602 0.06970453 0.07572643 0.052212004 -0.17971264
-0.13990138 -0.056784496 -0.12467408 -0.25183606 0.15772626 0.14279175 -0.0064437184 -0.082643636
-0.0019730893 -0.088111 -0.056703866 0.2129037 0.010193295 -0.098208964 0.087629355 -0.02505786
0.018061293 -0.15444231 -0.030852752 -0.030361071 -0.06590495 0.01193629 -0.10018679 -0.22636282
-0.07730315 0.009221879 0.01994627 -0.13687755 -0.09832269 -0.056182917 -0.09592511 -0.13887936
-0.056393698 -0.032612164 -0.15252066 0.2056073 -0.056868613 0.16107829 -0.032768726 -0.022463743
0.02899401 -0.08083819 -0.16901757 -0.10360555 -0.089936204 0.11902253 -0.065664075 -0.1869314
-0.021286944 -0.056937777 0.011044273 -0.038260836 0.19288918 -0.026250796 -0.18564379 -0.1507412
-0.1553833 -0.11610206 -0.08037424 -0.05030762 -0.064282775 0.011498622 0.09434246 -0.0069834245
-0.0016416494 -0.16544539 -0.02722113 0.13254693 0.02236275 -0.08720803 -0.05157598 0.032449223
-0.091150366 -0.11342724 -0.04516518 -0.12815593 -0.017556328 0.20775062 0.06334613 -0.05575477
0.063433565 -0.061380424 0.108260565 0.23190776 -0.035917852 0.04425689 0.087141514 0.043250263
-0.036224626 0.028535081 0.05147797 -0.014026299 0.013702943 0.08717965 0.076591365 0.015858566
-0.01546399 -0.07436103 0.055153612 0.042362418 0.20584908 0.20274325 -0.2523717 -0.07873783
-0.19341637 -0.009919207 -0.002356905 -0.044539746 -0.15617351 -0.16031 0.05572198 0.04226298
-0.07516679 -0.042439096 -0.13565 -0.11342769 0.046412688 -0.07497993 -0.15452617 -0.023944749
-0.108342074 -0.07591551 -0.010199164 -0.010011313 -0.13219456 -0.2966068 -0.18156901 0.16833958
-0.08773559 -0.02417721 -0.07455099 -0.025627764 -0.043645095 0.14206633 0.033226985 0.057584338
-0.01431492 -0.010045786 -0.06591756 -0.015782963 -0.07167502 0.11790043 -0.17383337 -0.11991563
-0.17822017 0.047623526 0.12461946 -0.0841886 0.026662802 0.166223 -0.15791447 -0.071866214
-0.025979912 0.03760882 -0.09632133 -0.1020708 -0.08919651 -0.113539346 -0.0073313545 -0.09978307
-0.08672333 0.0138199255 -0.072492525 -0.08215342 -0.021828124 -0.09624516 -0.0087504955 -0.21552028
-0.06257506 -0.06609887 0.046333432 0.1832637 -0.1462728 -0.093542196 0.020920783 0.01846781
-0.05084484 -0.048953116 -0.023062536 -0.125209 -0.08245654 0.040685836 0.064583965 -0.1532939
0.0064015025 -0.16069016 -0.1141949 -0.10728005 0.0115401475 -0.13387172 -0.08502593 -0.07090607
0.113690436 -0.005626452 -0.15398787 0.04506057 -0.1623115 0.12703912 -0.10496606 0.059667416

network_body._body_endoder.seq_layers.0.weight f4 [256, 13]
00000000: b35a 9bbe ad9a d63c 1fd4 2ebc af12 d13d
00000010: 1086 693d bc8f 13bd 0ff6 e4bc 68a4 5c3d
00000020: 2b2e cdbe 77f6 8dbd 7e45 00be e2f1 a13d
00000030: d2fc 15be 3775 e4be 3a3b 2abd 5947 1d3f
00000040: c518 b1be dce7 f8bd d19d b73e 5e69 1ebf
00000050: f2fe 94be f04a 01be f5d0 47bd e349 43be
00000060: 34c8 a33c 0a23 b5bd 2c73 4e3e 7764 933e
00000070: cae4 89be e703 0dbf 80ef 49bd f899 80bc
00000080: ed18 a43e a9c1 1e3e 4bd4 5d3e 1fc0 c3bd
00000090: abd9 ff3e 735d ac3e 6268 f93d 6eb1 473d
000000a0: e409 bfbe 325f a03e 0a2c 96bf 4197 183e
000000b0: 5fa8 4e3f c478 66bd b860 d43c a04c b13e
000000c0: a96e 123e c6a1 433d fa29 25be dded a4bd
000000d0: b471 97be 3e11 793e 8290 fb3e 3c3e 643f
000000e0: 5c2b a83e 227e ff3e 68fe debe 504b c63e
000000f0: 79db d13e 3410 1a3e bbef 17be 9c9a 10be
00000100: 4d48 003e 6e25 1abf 0140 6fbe 605f fb3d
00000110: b57e c3bd ec26 65bd f286 c53e f46e 5f3e
00000120: ec29 50be 2864 a2bd 2c72 a83e 595c c9be
00000130: c60e 9b3d 08fa 82be 66b9 8dbe 8519 b63e
00000140: 192c 1ebf 103b d6bd f839 a2be edb3 f7be
00000150: b823 32be b968 acbd 8e35 323e dd03 4f3e
00000160: af76 743e 691c 843d a529 8ebd 3fa7 1c3d
00000170: ee5e 91be 5804 943d 550f 16be 730d e5bd
00000180: 5671 f0be a494 c53e 8ab6 15be bac6 453e
00000190: 44b4 723e 3e74 f4be 6d61 cf3d 9130 f93e
000001a0: 408e 793f 0f99 4cbe 395f 14bf b209 573f
000001b0: a9bd e0be 5a34 0ebf 3d5f 483f 4653 163d
000001c0: bf76 ddbe bd25 993d 4119 a63c 6d3a 08bc
000001d0: cf63 9ebe e8ab e0be fe6f 763e 4da6 503e
000001e0: a7c9 fdbe cdb0 2d3e c147 2d3f 69cd d8be
000001f0: ba4c d2be 7baa c93d 7eaf b83d ec20 15be
00000200: 31ce 123f b776 5d3e 5923 dfbe e810 973e
00000210: db2c 4f3f 7b74 fcbe 0af3 c5be 6784 e33e
00000220: 3155 493e a5c2 913e 475e a33e f573 743e
00000230: 23f5 0c3f 8fd6 12be 9ac0 73be 5136 3f3f
00000240: fe52 68be 92ab 143e d38a 4abe fa62 efbd
00000250: 8c8e 623e ef5b aa3e 932b fe3d 5ed7 bcbe
00000260: b0ef 923d 1161 abbc 2d4a 9b3d 9eae 3f3d
00000270: d8eb 813e 8b53 433e 4542 5f3e 9263 7ebe
00000280: 6446 203d dfe7 fbbd adc1 c2bd 12a9 11be
00000290: cf4a 5fbd 0a86 ed3d d127 5abe eb05 313e
000002a0: fb6d d53d bd58 143f 81b4 14bd 5705 62bf
000002b0: 858f 163e 589e c93e 92e5 95be 4996 b63e
000002c0: af98 adba 4c64 c4be 56ab f9be 80a9 39bd
000002d0: 0e6d 5f3e 7b8b 0dbe 7d81 08be 7193 9a3e
000002e0: 73be 13bf a3f3 c7be 7681 13bd 660c 153e
000002f0: fde1 96be ae05 d6bd f0bd 213e fbe0 563e
00000300: f5b0 6b3d 2c82 273e 65ec 03bf fd13 c63d
00000310: d83d 13bc 7a73 d1be d7ce 703f c07f 4cbe
00000320: b5e8 bdbe e772 d6be b391 e33e b7ed 993e
00000330: 9c0c 0cbf 83ee 04bf 71aa a23d 7661 a4be
00000340: 26d6 cabd 2b23 1d3f 352d 083d b58e 45bf
00000350: 4ace a33e b260 c83d ea6c 3c3f 4089 003e
00000360: b810 10be 829d b93d 575a 0d3f 71b5 853d
00000370: 6189 c2be 338e afbe 9999 8abd 2df7 44be
00000380: 1b1d 55be c68b 553e 7187 82be 4aab b5be
00000390: 81fc 7f3d 7135 8abd b502 8e3e 0c76 e63e
000003a0: 43af d43d 10bb 70be c826 823e 3e8a fb3e
000003b0: 163e fc3e f68a 393f 9515 3a3e 0473 3abf
000003c0: 556c 023f 57b8 fa3d 86af f4be 8802 9cbe
000003d0: 3883 123e b2da 143e fa15 eebd 12eb 70bf
000003e0: 7a7e eabd 315f 703d 7fb3 34bf f8eb 93be
000003f0: a88f cebc c7e0 b0be aaef 69be 3e9c c0bc
-0.30342636 0.026196802 -0.010670691 0.10208642 0.057012618 -0.036025748 -0.027949361 0.053867728
-0.40074286 -0.06931775 -0.12526509 0.079074636 -0.14647225 -0.44620678 -0.04156039 0.6143699
-0.3458921 -0.12153599 0.35862592 -0.6187953 -0.29100758 -0.12626243 -0.04878326 -0.19071154
0.019992925 -0.08844574 0.20161122 0.28787586 -0.26932365 -0.5508408 -0.04930067 -0.015698418
0.32050267 0.15503563 0.21663015 -0.095581286 0.49970755 0.33665046 0.121781126 0.048753195
-0.37312233 0.31322628 -1.173219 0.14901449 0.80725664 -0.056267515 0.025925025 0.34628773
0.14300026 0.0477617 -0.16129294 -0.08053181 -0.29578936 0.24322984 0.49133688 0.8915746
0.3284558 0.4990092 -0.43553472 0.38729334 0.40987757 0.15045244 -0.14837544 -0.14121479
0.1252758 -0.60213363 -0.2336426 0.12274051 -0.09545652 -0.055945322 0.38579518 0.21819669
-0.20328492 -0.079292595 0.32899606 -0.39328268 0.07571177 -0.25581384 -0.2768051 0.35566345
-0.6178604 -0.10460484 -0.31684852 -0.4837946 -0.17396438 -0.08418412 0.17403242 0.20216317
0.23873399 0.06450731 -0.06941537 0.038245436 -0.28392738 0.07227391 -0.14654286 -0.11184206
-0.46961468 0.38589966 -0.14620414 0.1931409 0.23701578 -0.47744936 0.10126004 0.48669866
0.9748268 -0.19980262 -0.579578 0.8399917 -0.438947 -0.5554863 0.7827032 0.03670051
-0.4325466 0.07477901 0.020275714 -0.008314711 -0.30935523 -0.43881154 0.24066159 0.20375939
-0.4956791 0.16961975 0.6768761 -0.42344216 -0.41074163 0.0984697 0.090178475 -0.1456334
0.57345873 0.21627317 -0.43581656 0.29505086 0.8092782 -0.49307618 -0.38661987 0.44436952
0.19661404 0.28468814 0.31907865 0.23872359 0.5506155 -0.1433966 -0.2380394 0.74692255
-0.22687909 0.14518574 -0.1977952 -0.116888 0.2212469 0.33273265 0.12410655 -0.36883062
0.07174623 -0.020920308 0.07582507 0.046797387 0.25375247 0.19074838 0.21802624 -0.2484267
0.03912963 -0.12300085 -0.09509597 -0.14224651 -0.054514702 0.115978315 -0.21304251 0.17287414
0.10421368 0.57947904 -0.036304954 -0.882894 0.14703186 0.3937862 -0.2927671 0.35661533
-0.0013244356 -0.3835777 -0.4876353 -0.045327663 0.21818945 -0.13822739 -0.13330646 0.30190614
-0.5771248 -0.39053068 -0.036012135 0.14555511 -0.2946929 -0.10450302 0.15795112 0.2098426
0.057541806 0.1635825 -0.51532584 0.09671781 -0.008986913 -0.40908414 0.9406561 -0.19970608
-0.37091604 -0.4188454 0.44447097 0.30064175 -0.5470674 -0.5192644 0.07942665 -0.32105607
-0.09904127 0.6138179 0.033246238 -0.7717088 0.31993324 0.09784068 0.7360369 0.12552357
-0.14068878 0.09063245 0.5521597 0.06528748 -0.37995437 -0.34288177 -0.06767578 -0.19234915
-0.20811884 0.208541 -0.2549396 -0.35482246 0.062496666 -0.067484744 0.2773644 0.45011938
0.10384991 -0.23508859 0.25420213 0.49128908 0.49266118 0.7247766 0.18172295 -0.7283175
0.5094655 0.12242191 -0.47790164 -0.3047068 0.14307868 0.1453655 -0.116252854 -0.9410869
-0.11449905 0.05868453 -0.7058639 -0.28890967 -0.025214985 -0.34546492 -0.22845331 -0.023512002

network_body._body_endoder.seq_layers.2.bias f4 [256]
00000000: 5e0d 27be 501c a3bd 85bc b9bd 1981 29be
00000010: 146b dfbc 1d5e a9bd 06f1 e1bd 03ac 35bd
00000020: 6bd5 ddbc e1a4 b5bc 12e2 41bd cae2 313d
00000030: 9516 5cbd 354f 1d3d 9014 0d3d 3d75 1cbe
00000040: 160b 8abd 0ad8 22bc 9386 9abd bd19 f1bd
00000050: 82f7 9cbd 0297 efbd 7690 723d 8276 833d
00000060: 6036 5bbe 182e ebbd cc40 1fbe 84c2 f2bc
00000070: e102 bcbb 54f1 81bd a5bd 90bd e4d1 f8bc
00000080: 9861 c4bd 9089 083d a800 f03b 2773 ce3d
00000090: 629c e1bd 56a2 1d3d 5c2a 11bd b9c1 213e
000000a0: 9941 04be c950 88bd ef5a d7bd 8eb2 cdbd
000000b0: 708d 813c 1e78 623c 52f1 ebbd 2dd7 83bd
000000c0: 4f8f aabc a540 11bd 2181 1f39 a687 90bd
000000d0: 944e 97bd ab52 46be 8ff7 a4bd 03f4 89bd
000000e0: d9f7 10bd 4fa6 dfbd c0a5 9abd f917 9f3c
000000f0: 915c a63b c21a 85bd fcfa 6cbd 221e 17bd
00000100: b498 24be a77e 8dbb dfde 8bbd 49c3 0cbe
00000110: e3b0 823c 4769 2cbc 8ef0 07bd e652 48bd
00000120: 8b95 83bd 911b eebb 781a 2ebd 52b5 dfbd
00000130: 79b1 20bd f5e6 a4bd d1b7 45bd d0c4 1fbd
00000140: 07ca f2bd 5a79 5abc fd01 01be 54b0 6bbd
00000150: 97ac 00be eb08 f3bc 4524 d13d 4ab9 b83b
00000160: a0c3 79bd ceb2 93bd 7c57 18be a056 593c
00000170: 037c 51bd 9ecd 72bd 0fce 97bd 9fce 03be
00000180: 96b5 23bd 15c6 aabd 7489 a7bc 4647 c1bd
00000190: 7c68 0abd 2ce5 06be 6967 c6bd 4057 013d
000001a0: d1a4 e4bd 6650 903c adc7 48bd 8206 68bd
000001b0: ff9b c7bc 040d 023c c5e3 80bb da99 eabd
000001c0: f7f0 e8bd 4fdb a4bd 0078 97bd 4d5a e6bd
000001d0: 9577 debd fea2 e9bc 86a5 60be 2860 87bd
000001e0: 1bbb 663c 2aac e63c 7bcc 413d 3a3e bb3c
000001f0: 77d6 12bc 3278 ebbd 3f79 de3d 3939 33bd
00000200: 3732 f2bd 456e a4bd 93fa 29be 45b3 d7bc
00000210: eb7a cc3c 5746 dabd 12b2 1ebd 5e4f a7bd
00000220: ae63 2ebd 0b4f a13c b3ed ce3b 827c 2bbc
00000230: d916 97bc c9e6 f3bc 7004 a6bd 36f1 a9bc
00000240: 2c27 823d 999d 13bd ef78 84bd 7d9e a13c
00000250: ee87 93bd 42fa 9ebd 271a 58bc 7ad0 13bd
00000260: 9c57 54bc 6454 143c 197d fabc 6592 babd
00000270: d63d d53c 8fba 9d3d 3e2b e0bb 37be 14be
00000280: a1c9 7bbd 3319 29bd e967 5dbc 4fef f13c
00000290: 40c1 4c3d 0853 a8bd 34f5 b8bd 44f3 523d
000002a0: 7cda c9bd 2892 03bd d032 aebd 7b09 d0bd
000002b0: 53f7 e93b 6397 02bd fed5 b1bd fcbe 88bd
000002c0: c9d9 cbbd 484a d4bd b049 b3bd dc3c f83b
000002d0: 574b edbd 7ab3 c9bd 445a 0fbd 7734 0cbe
000002e0: ed20 48bd 2ed8 29bd 4fe1 a7bb e224 80bd
000002f0: 68f8 16bd 4015 52bb cc87 813d 3e55 17be
00000300: 213b ec3c 5c25 65bc 05c9 aabc a4e9 90bd
00000310: a975 32bd 9ef3 b6bd b5da 83bd e7d1 cbbd
00000320: 8930 a6bd 87d2 64bc 455e 19bd 3576 cebd
00000330: 95c7 4d3d fbcd 01bd 0f7b 4ebd e501 d2bd
00000340: 34b2 75bc da16 31bc 923d eebd fd2e 91bc
00000350: 3211 78bd be39 b8bd 4d55 83bc 7e79 27be
00000360: e5da 83bc bfab 133d e0b6 c4bd 78ac 85bd
00000370: 1e2f 99bd 381b 86b7 85c2 05bc 54b5 c4bd
00000380: 7183 e9bd cbdf 1dbd d3bc 31bd e1ed 0e3d
00000390: 1f09 73bd 037e 69bc 125e d6bc 9ee0 18bd
000003a0: c8d2 afbd bcbd b2bc 8a67 0d3c c51b d0bd
000003b0: f9da 69bd 0d65 4bbd 5e7e 19be d282 bcbc
000003c0: bd81 11be 2f99 33bd f7d4 26bd 67b4 c0bd
000003d0: 7989 b9bc 08b8 3fbd 939f cbbc b5d8 b4bd
000003e0: cc54 3abd b768 f43b 01d9 aebd 6dff 45bd
000003f0: 09bd 973a 79e7 e1bd 02b5 8f3b 5418 82bd
-0.16313693 -0.079643846 -0.0906916 -0.16553153 -0.027272739 -0.08269904 -0.110323 -0.044353496
-0.027079305 -0.022173347 -0.047334738 0.043429174 -0.053732473 0.038405616 0.034443438 -0.15279098
-0.06740396 -0.009939203 -0.07545199 -0.11772487 -0.07664396 -0.11698724 0.0592198 0.06419088
-0.21407461 -0.11483401 -0.15552062 -0.029633768 -0.005737648 -0.06344858 -0.07067422 -0.030373521
-0.09588927 0.033334315 0.007324297 0.10080557 -0.11016156 0.038484894 -0.035440788 0.15796556
-0.12915649 -0.066560335 -0.10515391 -0.10043822 0.015814513 0.0138225835 -0.115206376 -0.06437526
-0.020820288 -0.03546204 0.00015211526 -0.07057123 -0.073880345 -0.19367473 -0.080550306 -0.06735995
-0.035392616 -0.10920393 -0.075511456 0.01942061 0.0050769527 -0.06499244 -0.057856545 -0.03689397
-0.16073877 -0.0043180767 -0.06829619 -0.1374637 0.015953487 -0.010523147 -0.033188395 -0.048907183
-0.064250074 -0.0072664698 -0.04250571 -0.10923256 -0.03923175 -0.08051864 -0.048271004 -0.039006054
-0.1185494 -0.0133345965 -0.12598415 -0.057541206 -0.12565838 -0.029667338 0.10211996 0.0056373226
-0.06097758 -0.07211839 -0.14877123 0.013265282 -0.051143657 -0.059278123 -0.074123494 -0.12871788
-0.039968096 -0.083385624 -0.020451285 -0.094374225 -0.03379105 -0.1317336 -0.09687693 0.03157735
-0.11164249 0.017616462 -0.04901855 -0.05664683 -0.024366377 0.0079376735 -0.0039334022 -0.11455126
-0.113740854 -0.08049642 -0.07395935 -0.11247692 -0.10862652 -0.028520104 -0.21938142 -0.06610137
0.014082695 0.028158266 0.04731415 0.02285682 -0.008962265 -0.11497535 0.108629696 -0.043755744
-0.11825984 -0.08028845 -0.16599493 -0.0263306 0.024960956 -0.106579475 -0.03874404 -0.08169435
-0.04257553 0.019691011 0.006314957 -0.010466697 -0.018443512 -0.029773133 -0.08106315 -0.020744901
0.06355128 -0.03603897 -0.06468379 0.019728893 -0.07203661 -0.07762577 -0.013189829 -0.03608749
-0.012960341 0.009053323 -0.03057723 -0.09109954 0.026030462 0.07701599 -0.0068410924 -0.14525686
-0.061471585 -0.041283797 -0.013513544 0.029533057 0.049988985 -0.08218962 -0.09031144 0.051501527
-0.09856126 -0.032121807 -0.085057855 -0.10158058 0.007140079 -0.031882655 -0.08683394 -0.066770524
-0.099536486 -0.103657305 -0.08754289 0.0075756144 -0.115866356 -0.098486856 -0.034998193 -0.13691889
-0.048859525 -0.04146593 -0.0051232944 -0.06257035 -0.036857992 -0.0032056123 0.06324729 -0.14778611
0.028836789 -0.013985958 -0.020847807 -0.070758134 -0.04356924 -0.08933185 -0.064381994 -0.09952145
-0.08114726 -0.013966209 -0.037443418 -0.1008114 0.050239164 -0.03169058 -0.050410327 -0.102542676
-0.0149961 -0.010808671 -0.11632837 -0.017722601 -0.060563274 -0.089953884 -0.016031886 -0.1635494
-0.016095588 0.03605246 -0.09605193 -0.065270364 -0.0747969 -1.598672e-05 -0.008164053 -0.09604898
-0.114020236 -0.038543504 -0.043392967 0.034894828 -0.05933487 -0.014251235 -0.026167903 -0.037323587
-0.08585125 -0.021818988 0.008630643 -0.101615466 -0.057093594 -0.049656916 -0.14989612 -0.023011599
-0.14209647 -0.04384726 -0.040730443 -0.09409409 -0.02264856 -0.046806365 -0.024856364 -0.08830396
-0.045491025 0.007458772 -0.08537484 -0.048339296 0.0011576723 -0.11030478 0.0043855915 -0.063522965
