Assets/Model/0604ChaseMode.onnx (onnx, 291227 bytes, 13 tensors)

action_model._discrete_distribution.branches.0.bias f4 [3]
0	0xbcebc5d8	-0.028780863
1	0xbdb3f626	-0.087871835
2	0x3de9125d	0.11380456

action_model._discrete_distribution.branches.0.weight f4 [3, 256]
0	0xbcb82c1f	-0.022481976
1	0x3df0bfc1	0.11755324
2	0x3cdee99d	0.027211005
3	0xbb3d22f7	-0.0028859952
4	0xbd666d8e	-0.056256823
5	0x3c431844	0.011907641
6	0x3c93ef1e	0.018058356
7	0x3d8dc5e8	0.06922513
8	0x3dc82bb2	0.09773959
9	0xbd89be21	-0.06725717
10	0x3e1f3982	0.15549281
11	0xbd6f00a3	-0.058350217
12	0x3cfa3c73	0.030546403
13	0x3d65f0e4	0.056137934
14	0x3c2637fb	0.010145183
15	0x3db7460f	0.089489095
16	0xbd8fcc83	-0.070214294
17	0x3d69215a	0.056916572
18	0x3dd61a00	0.10454178
19	0xbddef9c9	-0.108874865
20	0x3d265ed1	0.040617768
21	0x3bab8146	0.0052339165
22	0xbcb15e71	-0.021651478
23	0x3d84be92	0.06481661
24	0x3d40e595	0.047093946
25	0xbdb56c9b	-0.088586055
26	0xbb1e44dc	-0.002414993
27	0x3cbec488	0.023287073
28	0x3d8bbe9e	0.06823467
29	0xbd6d5092	-0.057938166
30	0x3d1a4cc9	0.037670884
31	0xbdbc8386	-0.092047736
32	0x3d98fa53	0.074696206
33	0x3c03a67c	0.008035298
34	0xbe275044	-0.16339213
35	0xbc1ff42f	-0.009762808
36	0x3da2a6f7	0.07942002
37	0xbd557a3d	-0.05211853
38	0x3c91206a	0.017715652
39	0xbd642f75	-0.05570932
40	0xbb6a0307	-0.003570737
41	0xbd6ce27f	-0.05783319
42	0xbd7e6b0f	-0.062113818
43	0x3d1c546c	0.03816645
44	0x3c90748f	0.017633704
45	0x3b5ba9cb	0.0033517953
46	0x3d742c99	0.059612844
47	0x3d70b519	0.05876646
48	0x3bcc454d	0.0062338472
49	0xbd5885ee	-0.0528621
50	0xbcf42489	-0.029802578
51	0x3cea71c9	0.02861871
52	0x3c8ae1cb	0.01695337
53	0x3b96d518	0.0046030395
54	0x3bd67508	0.006544713
55	0xbde20dc8	-0.11037785
56	0x3cea4e37	0.028601749
57	0x3d8ac1d5	0.06775252
58	0x3ac87ce9	0.0015296015
59	0xbe04d144	-0.12970454
60	0x3c83268a	0.016009588
61	0x3c842099	0.016128825
62	0x3de5bc43	0.11217549
63	0xbcbec8b8	-0.02328907
64	0x3d7d4854	0.061836556
65	0xbdd91989	-0.106005736
66	0x3d18b385	0.03728058
67	0xbd0b0e53	-0.033949208
68	0x3d3f5923	0.046715867
69	0xbc8aa901	-0.01692629
70	0xbdfc9902	-0.123338714
71	0xbc9656dd	-0.018351967
72	0x3d17aa50	0.037027657
73	0xbc73cf7d	-0.014881012
74	0xbd991871	-0.07475365
75	0xbd2feb70	-0.04294914
76	0xbcf67caf	-0.03008875
77	0xbc6e6a08	-0.014551647
78	0xbdfaef0a	-0.12252624
79	0x3b937e56	0.0045011444
80	0x3d08c12f	0.03338736
81	0x3c1d7412	0.009610193
82	0xbe263390	-0.16230607
83	0xbcd505a2	-0.026003662
84	0x3de6086b	0.11232074
85	0xba89e9b1	-0.0010521916
86	0x3d007f64	0.03137149
87	0x3d71e483	0.059055816
88	0x3d8b9a5b	0.0681655
89	0x3d86de6e	0.06585394
90	0xbe539093	-0.2066062
91	0xbd8566b8	-0.06513733
92	0x3d2b536b	0.0418276
93	0xbc99a7f7	-0.01875685
94	0x3db960d4	0.090516716
95	0x3d92c0b4	0.071656615
96	0xbcd71cdc	-0.026258878
97	0x3da4074d	0.08009205
98	0x3d83a860	0.06428599
99	0x3c894ca1	0.016760172
100	0xba1284e7	-0.0005589262
101	0x3cb65761	0.022258462
102	0xba57af20	-0.0008227695
103	0x3d21714a	0.03941468
104	0xbd14bf58	-0.036315292
105	0xbd11caa7	-0.035593655
106	0x3dcfbc49	0.101433344
107	0x3c66dfd6	0.014091453
108	0xbc899911	-0.01679662
109	0x3bb9d8c2	0.0056715915
110	0x3cdfeb85	0.027333984
111	0x3d8712da	0.065953925
112	0x3cb961bb	0.02262961
113	0xbd8a56fa	-0.06754871
114	0xbe215cb8	-0.15758026
115	0x3e0b5ca9	0.13609566
116	0xbd8a5ec6	-0.06756358
117	0x3d0d7d34	0.03454323
118	0x3d806802	0.06269838
119	0xbcc8e405	-0.02452279
120	0xbd82b6ed	-0.063825466
121	0xbc714a10	-0.0147271305
122	0xbc9260c8	-0.017868415
123	0x3d2fa2cb	0.04287986
124	0x3e1fadef	0.15593694
125	0x3da46560	0.08027148
126	0x3d86e95c	0.065874785
127	0x3dc733f1	0.09726704
128	0xbe02f2c4	-0.1278792
129	0x3d4db0cd	0.05021744
130	0x3cc98936	0.02460156
131	0x3cf3e174	0.02977059
132	0x3c93e892	0.018055234
133	0x3da4c4ef	0.080453746
134	0x3c83d279	0.016091572
135	0x3d7b9b8e	0.061427645
136	0xbccd7023	-0.025077885
137	0xbcb215c9	-0.021738904
138	0x3c8d8052	0.017273102
139	0x3dacd336	0.08438723
140	0xbcac5ee0	-0.021041334
141	0xbdb72a46	-0.0894361
142	0xbcb3a11e	-0.021927413
143	0xbd7db59e	-0.06194078
144	0xbcc4fc91	-0.024046214
145	0x3dd7f032	0.105438605
146	0x3c899a81	0.016797306
147	0x3d6331ba	0.055467345
148	0x3cbe30d2	0.023216639
149	0x3d76d4b2	0.060261436
150	0x3db09cd9	0.08623666
151	0xbd962019	-0.07330341
152	0x3d052b1b	0.03251181
153	0x3b33dba7	0.0027444155
154	0x3d3ed2d4	0.04658778
155	0x3cecda09	0.028912561
156	0x3dc22f93	0.0948173
157	0x3ccdb16b	0.025109014
158	0xbbdaa3df	-0.006672367
159	0x3d3b6cb6	0.04575797
160	0x3c5fc731	0.013658331
161	0x3c231bbf	0.009955346
162	0x3d50b318	0.050952047
163	0x3c84d8fc	0.016216747
164	0x3df60145	0.12011961
165	0xbd1b2f8c	-0.03788714
166	0xbdb1eb95	-0.08687512
167	0xbd4ccb3e	-0.049998514
168	0x3bc03649	0.0058658463
169	0x3d02017b	0.031739693
170	0x3ccd98f5	0.02509735
171	0xbdff9ace	-0.124806985
172	0xbd21f6b8	-0.03954193
173	0x3db76b67	0.08956032
174	0x3ca9576f	0.020671574
175	0x3d5785f0	0.052617967
176	0xbca293d0	-0.019845873
177	0xbd44b5f7	-0.048025098
178	0x3e150aab	0.14554851
179	0x3d51f85c	0.051262245
180	0x3d1558ed	0.03646176
181	0xbce0a5d6	-0.027422827
182	0x3b3ccc2c	0.002880822
183	0x3d9f2f00	0.077726364
184	0x3c5d1d30	0.013495728
185	0x3da27b0b	0.07933625
186	0x3b22415b	0.0024758193
187	0x39a8008a	0.0003204386
188	0x3c85aa40	0.016316533
189	0x3d496cd1	0.04917604
190	0x3d6ab26e	0.05729907
191	0x3ca9d43c	0.020731084
192	0x3de0609d	0.109559275
193	0xbd22c6b0	-0.039740264
194	0x3d0d365c	0.03447567
195	0x3d4742c3	0.048647653
196	0x3d68950f	0.05678278
197	0x3d528f47	0.05140617
198	0xbcd0fa1a	-0.025509883
199	0x3cec7c6b	0.02886792
200	0x3b2ba9d2	0.002619375
201	0xbce98ed0	-0.028510481
202	0x3dee316c	0.1163052
203	0x3dbb5e93	0.09148898
204	0x3d0965a4	0.033544198
205	0x3d7819ca	0.06057147
206	0x3d5cef9f	0.053939458
207	0xbd880682	-0.06641866
208	0xbd89538e	-0.0670539
209	0xbcc538b6	-0.024074893
210	0x3e1454c7	0.14485465
211	0x3d910fed	0.07083116
212	0xbc332a9f	-0.010935455
213	0x3de1e1e6	0.11029415
214	0x3c9b3d1f	0.018950043
215	0x3d96259c	0.07331392
216	0x3d7580d6	0.05993732
217	0xbd698ace	-0.05701714
218	0xbc6630ee	-0.014049752
219	0xbce1dd76	-0.027571421
220	0x3dd0d98d	0.101977445
221	0xbc9350f3	-0.017982936
222	0xbcca32c5	-0.024682412
223	0xbba1491e	-0.0049220463
224	0xbd43851a	-0.047734357
225	0x3decd68f	0.11564361
226	0x3b1537f8	0.0022768956
227	0x3d9dc5ba	0.07703729
228	0x3c77cbf3	0.015124309
229	0x3da777b5	0.08177129
230	0x3d7f0371	0.06225914
231	0x3d5285d5	0.051397163
232	0xbd0223bf	-0.03177237
233	0xbca98f56	-0.02069823
234	0x3d92a3d7	0.07160156
235	0x3bf86434	0.0075803045
236	0x3d197bb1	0.037471477
237	0x3cd027df	0.025409637
238	0x3c1abfae	0.009445114
239	0xbc8b3637	-0.016993625
240	0x3c01446b	0.007889847
241	0x3d2d70d5	0.042343933
242	0xbd8de656	-0.06928699
243	0x3c94ba7f	0.018155335
244	0x3d4e1d20	0.050320745
245	0xbc80cefa	-0.015723694
246	0xbe200c27	-0.15629636
247	0x3c8b8c9e	0.017034825
248	0x3d7fa610	0.06241423
249	0xbcc66c92	-0.024221692
250	0x3e07a198	0.13245237
251	0xbd8b0216	-0.06787507
252	0xbd26e038	-0.040741175
253	0x3d1dd6df	0.038534995
254	0x3e0276c0	0.12740612
255	0xbda3c043	-0.079956554

action_model._discrete_distribution.branches.1.bias f4 [3]
0	0xbcb02dcb	-0.02150621
1	0xbc15a400	-0.009133339
2	0x3d3ef713	0.046622347

action_model._discrete_distribution.branches.1.weight f4 [3, 256]
0	0xba7a1aa9	-0.0009540716
1	0x3cb5aea4	0.022178002
2	0xbdd9a520	-0.10627198
3	0x3ca04098	0.01956205
4	0xbdb94540	-0.090464115
5	0xbd5e3e99	-0.054258917
6	0xbd7557f0	-0.059898317
7	0xbe10260d	-0.14077015
8	0xbdbb4427	-0.091438584
9	0xbdebf6b5	-0.11521665
10	0xbd3b77ce	-0.04576855
11	0x3b80fc11	0.0039362987
12	0xbd9eab97	-0.07747572
13	0xbd9fe4b2	-0.07807292
14	0x3da266d1	0.07929767
15	0xbd15572d	-0.03646009
16	0xbc949e95	-0.018142024
17	0xbcc14e61	-0.023596944
18	0x3ca9295a	0.0206496
19	0x3d830e10	0.063991666
20	0xbd907aef	-0.07054698
21	0x3c389de4	0.011268113
22	0xbe17b82a	-0.14816347
23	0xbe0867e9	-0.13320889
24	0x3c43645c	0.011925783
25	0x3d1f55b9	0.03890011
26	0xbd0c0eb1	-0.0341937
27	0xbc7d5d5b	-0.015464152
28	0xbd7d2dd4	-0.061811283
29	0x3d7abfaf	0.06121796
30	0x3bba9ebd	0.0056951926
31	0x3c02f417	0.007992766
32	0xbcc1a6ec	-0.023639165
33	0xbe2c8973	-0.16849308
34	0x3d8ea247	0.06964546
35	0x3dbf05a5	0.093272485
36	0xbe2b3b25	-0.1672178
37	0xbe1dfd36	-0.15428624
38	0x3c91e460	0.017809093
39	0xbdd4fa04	-0.10399249
40	0x3c33d53c	0.010976132
41	0xbe25342f	-0.16133188
42	0xbd2e7ad0	-0.042597592
43	0xbcbfc0c9	-0.023407357
44	0xbdbd681c	-0.09248373
45	0xbe079660	-0.13240957
46	0xbd717732	-0.058951564
47	0x3d9f2ebf	0.07772588
48	0x3d2441a4	0.040101662
49	0x3caeec2c	0.02135285
50	0x3d89e01f	0.06732201
51	0xbda9b275	-0.08285991
52	0x3c0f105e	0.00873193
53	0xbda3df54	-0.08001581
54	0xbdc41695	-0.0957462
55	0xbb02666a	-0.001989747
56	0xbc691d48	-0.014228173
57	0x3c8dacf0	0.017294377
58	0x3c08d169	0.0083507085
59	0x3d1b6b54	0.037944153
60	0xbc36fc39	-0.011168533
61	0xbd5ec7fe	-0.054389946
62	0xbd67934f	-0.05653697
63	0xbd154bd8	-0.036449283
64	0xbdb57004	-0.08859256
65	0xbd83d00a	-0.06436165
66	0xbc0c3858	-0.008558355
67	0xbd70269d	-0.058630574
68	0xbc299594	-0.010350604
69	0xbd347f59	-0.04406676
70	0xbca38c47	-0.01996435
71	0xbd832bac	-0.06404814
72	0xbe00bdd4	-0.12572414
73	0x3d938ac3	0.07204201
74	0xbcb35d6b	-0.021895131
75	0xbdeaa2a3	-0.11456802
76	0xbe2484a9	-0.16066231
77	0xbd89cdc1	-0.067286976
78	0x3d005d5e	0.031339042
79	0xbdec3f89	-0.11535556
80	0xbcd66070	-0.026169032
81	0x3e43f55a	0.19136563
82	0x3c35b704	0.011090998
83	0xba8f71ee	-0.0010943988
84	0xbcbbefe9	-0.022941547
85	0xbcd64a18	-0.026158378
86	0xbdaac88c	-0.083390325
87	0xbc8193cd	-0.015817547
88	0xbe033ac6	-0.12815389
89	0xb8d1555d	-9.981797e-05
90	0x3b493569	0.0030702
91	0x3e7f4daf	0.24931978
92	0x3d0e7252	0.034776993
93	0x3d2f532c	0.04280393
94	0xbddcf61a	-0.10789128
95	0x3c9deba9	0.01927741
96	0x3d33c23b	0.043886404
97	0x3c4694e5	0.01212046
98	0xbb7e25ca	-0.0038779848
99	0x3c3f1ea0	0.011665016
100	0x3d446099	0.047943685
101	0xbce0d81d	-0.0274468
102	0xbe1d8c56	-0.15385565
103	0xbd309f87	-0.043120887
104	0xbe15049a	-0.14552537
105	0xbdffe098	-0.1249401
106	0xbd52e710	-0.05148989
107	0x3d4004e3	0.04687966
108	0xbda8d8f0	-0.082445025
109	0xbe4e9b33	-0.20176391
110	0xbcdc7580	-0.026911497
111	0xbdc38cdc	-0.09548351
112	0x3da8ad89	0.08236224
113	0xbe22545a	-0.1585249
114	0xbd24fc48	-0.040279657
115	0x3d3d4d82	0.046216495
116	0xbda5d2d8	-0.08096856
117	0xbd8158a3	-0.06315734
118	0x3e062c54	0.13102847
119	0x3de49445	0.11161093
120	0xbdd34923	-0.10316684
121	0xbd7217b8	-0.05910465
122	0x3d089051	0.033340756
123	0xbb2d59c3	-0.0026451207
124	0x3c9b37d5	0.018947521
125	0xbddaa15a	-0.106753066
126	0x3cf328fa	0.029682625
127	0xbc57c2c5	-0.013168995
128	0xbdff9d78	-0.12481207
129	0xbc25ee56	-0.0101276245
130	0x3d4eba6f	0.050470766
131	0x3cd07741	0.02544749
132	0xbded6c7b	-0.11592957
133	0xbe1f0b6f	-0.15531705
134	0xbd0bdeef	-0.034148153
135	0xbd808e28	-0.06277114
136	0xbd35bd7a	-0.044370152
137	0xbd6389c3	-0.0555513
138	0xbd2f1e84	-0.04275371
139	0x3e00569c	0.12533039
140	0x3d2b014d	0.041749287
141	0x3c0d2df1	0.00861691
142	0xbdc3ca26	-0.09560041
143	0xbd08b0e1	-0.03337181
144	0xbe132455	-0.14369328
145	0x3d36ca7d	0.0446267
146	0xbbda8dc7	-0.006669733
147	0x3d9a58ac	0.07536444
148	0x3c8e005a	0.017334152
149	0xbde42279	-0.11139388
150	0xbd354b90	-0.044261515
151	0xbc8628c1	-0.016376855
152	0xbcf42b1e	-0.029805716
153	0xbc65392a	-0.01399068
154	0xbd66c283	-0.056337845
155	0xbcb4a419	-0.022050904
156	0x3d91e2df	0.0712335
157	0xbd87f0a8	-0.066376984
158	0x3da2f46f	0.07956778
159	0x3dbf51ca	0.09341772
160	0x3d05b3e7	0.03264227
161	0xbd0cdd56	-0.03439077
162	0xbd193de3	-0.037412535
163	0x3d0017a6	0.031272553
164	0xbdaeb0bb	-0.085298024
165	0xbcf513bf	-0.029916642
166	0xbcb1ee27	-0.021720005
167	0xbe173da1	-0.14769603
168	0xbd7906ca	-0.06079749
169	0x3cbd3df4	0.02310083
170	0x3d7e3be4	0.062068835
171	0xbd5382f5	-0.051638562
172	0xbde9c2aa	-0.11414082
173	0xbe0edd02	-0.13951495
174	0x3b976cdc	0.0046211313
175	0x3d32ac17	0.04362115
176	0x3d528111	0.05139262
177	0xbda9ba3b	-0.08287474
178	0xbde98bca	-0.11403616
179	0xbc91575e	-0.017741855
180	0xbd35ca4a	-0.04438237
181	0xbd31de16	-0.04342469
182	0x3b4aa006	0.0030918135
183	0xbdb0cf54	-0.08633295
184	0x3e10ec67	0.1415268
185	0xbd8330b8	-0.06405777
186	0xbd372ba7	-0.044719364
187	0xbdde68e5	-0.10859851
188	0xbd324454	-0.043522194
189	0x3cce07c2	0.025150184
190	0xbdd22af0	-0.10262096
191	0xbcb00941	-0.021488788
192	0xbded36db	-0.115827285
193	0xbda5b5a6	-0.08091287
194	0xbd3670e4	-0.044541255
195	0xbd0958ac	-0.03353183
196	0xbdd44cda	-0.10366221
197	0xbd954068	-0.07287675
198	0xbdc4c640	-0.09608126
199	0xbdf170b4	-0.117890745
200	0xbdd8456a	-0.10560115
201	0x3d835d54	0.06414285
202	0xbc6999cc	-0.014257859
203	0xbd4eec49	-0.050518308
204	0xbcead0ef	-0.02866408
205	0xbdf7522c	-0.1207622
206	0x3c827901	0.01592684
207	0xbe1ccac9	-0.15311731
208	0xbd9c82f8	-0.07642168
209	0xbd8566dd	-0.0651376
210	0x3d38da7f	0.04513025
211	0xbe0552d7	-0.13019882
212	0xbdb97446	-0.090553805
213	0x3d198fd3	0.037490677
214	0xbdfb4728	-0.12269431
215	0xbd84865c	-0.064709395
216	0x3dcbf043	0.09957936
217	0x3e206e2f	0.15667032
218	0x3d98bb8f	0.07457649
219	0x3da19f97	0.078917675
220	0xbdf52a76	-0.119709894
221	0x3d468763	0.04846896
222	0xbce94f35	-0.028480152
223	0xbddef4b4	-0.10886517
224	0xbcaee11d	-0.021347577
225	0xbda8dd8f	-0.08245384
226	0xbca428b1	-0.020038934
227	0xbe0e2b24	-0.13883644
228	0x3c07cf86	0.008289224
229	0xbdba25a8	-0.090892136
230	0xbdf4c850	-0.11952269
231	0x3d86cc6c	0.06581959
232	0xbd84beef	-0.0648173
233	0x3d62278c	0.055213496
234	0xbd0d6685	-0.0345216
235	0x3d1c7a60	0.038202643
236	0x3d494ef2	0.049147554
237	0xbe06a265	-0.13147886
238	0xbd91e991	-0.071246274
239	0xbdd7e3e1	-0.10541511
240	0xbdcf6967	-0.10127526
241	0xbd529ddb	-0.051420074
242	0xbcab803d	-0.020935172
243	0xbdf7a27e	-0.1209154
244	0xbd98ec40	-0.07466936
245	0xbdf81a43	-0.12114384
246	0x3d8308f2	0.063981906
247	0xbd1cad16	-0.038251005
248	0x3d69dc30	0.057094753
249	0xbdfbec6f	-0.123009555
250	0xbcc69bd4	-0.024244227
251	0xbdc8686b	-0.09785541
252	0x3c87625d	0.016526395
253	0xbe3e0c84	-0.18559462
254	0x3be43952	0.006964841
255	0xbdb7a858	-0.08967656

action_model._discrete_distribution.branches.2.bias f4 [3]
0	0x3d0c5a35	0.034265716
1	0xbe2e99d1	-0.17050864
2	0x3dd0da10	0.10197842

action_model._discrete_distribution.branches.2.weight f4 [3, 256]
0	0x3d09aa29	0.033609543
1	0x3d9b2be3	0.0757673
2	0x3d424b39	0.04743502
3	0xbd8bce53	-0.068264626
4	0xbdef452d	-0.11683116
5	0x3d84400a	0.06457527
6	0x3e378596	0.17922053
7	0x3d671d2d	0.05642431
8	0x3da15c0b	0.07878884
9	0x3d776e99	0.06040821
10	0xbc75f732	-0.015012549
11	0x3ddd90d2	0.10818638
12	0xbd0871b1	-0.03331155
13	0xbd70cdec	-0.058790132
14	0x3d1f0790	0.03882557
15	0x3c6c3129	0.014416018
16	0x3d996e73	0.0749177
17	0xbd7e59c0	-0.06209731
18	0x3da4347f	0.08017825
19	0x3bad6f1c	0.0052927863
20	0xbd6ec075	-0.05828901
21	0xbdec761b	-0.11545964
22	0x3bdede86	0.006801429
23	0x3d9628c7	0.073319964
24	0x3e44e4bb	0.19227879
25	0xbda0b2ec	-0.07846627
26	0xbc9e24c5	-0.019304642
27	0xbd6535c7	-0.05595949
28	0xb80e86c0	-3.3980934e-05
29	0x3d082fa0	0.033248544
30	0x3deb36e8	0.11485082
31	0x3e08630b	0.13319032
32	0x3ddaac2b	0.1067737
33	0xbcb7586f	-0.022381036
34	0xbd2f8f62	-0.04286135
35	0x3cd6c8dc	0.026218824
36	0x3d905040	0.070465565
37	0x3ce2b73d	0.027675265
38	0x3dacb10c	0.084322065
39	0xbdd2d326	-0.102941796
40	0xbdb7c1b1	-0.089724906
41	0x3d89b3ea	0.06723769
42	0xbd802538	-0.06257099
43	0x3e03a220	0.12854815
44	0x3bcc2b11	0.00623072
45	0x3ddbff53	0.107420586
46	0x3b50e944	0.0031877318
47	0x3db849a7	0.08998423
48	0x3af3f538	0.001861251
49	0xbbc0a857	-0.0058794427
50	0x3c9160f1	0.01774642
51	0x3c67dcd9	0.014151775
52	0x3d44ceda	0.04804883
53	0x3d9150a3	0.07095458
54	0x3cd7bd24	0.026335306
55	0xbd11f834	-0.035637096
56	0x3d62e6ce	0.055395894
57	0x3ddfa3f9	0.10919947
58	0xbcfd1dfe	-0.03089809
59	0x3c220d96	0.009890934
60	0x3e08ffe1	0.1337886
61	0xbc8bf1c4	-0.017083056
62	0xbda30fb8	-0.079619825
63	0x3c9f80b7	0.019470556
64	0x3d63523e	0.055498354
65	0x3d57e5a3	0.052709233
66	0x3c87c6ad	0.016574228
67	0xbd911626	-0.070843026
68	0x3c5ce1f4	0.013481606
69	0x3ca58955	0.020207087
70	0xbd2b89b2	-0.041879363
71	0x3d8ce312	0.06879248
72	0xbdb86a3c	-0.090046376
73	0x3d0b9df3	0.03408618
74	0x3dd2716c	0.1027554
75	0x3d2e627e	0.0425744
76	0x3d6b05bf	0.057378527
77	0x3d319e2b	0.04336373
78	0xbd7f634d	-0.06235056
79	0x3debcb95	0.115134396
80	0xbc183df2	-0.009292113
81	0xbd862572	-0.06550111
82	0xbd96934a	-0.07352312
83	0xbe01069d	-0.12600179
84	0x3d3671b0	0.044542015
85	0xbe26b518	-0.1628002
86	0x3dd1bfe0	0.102416754
87	0xbd069911	-0.03286082
88	0x3c600e12	0.01367523
89	0x3d46faca	0.048579015
90	0x3d03468d	0.032049704
91	0x3d6afb1d	0.057368387
92	0x3d623b01	0.05523205
93	0xbd860dda	-0.06545611
94	0x3b7319a6	0.0037094145
95	0x3d392c78	0.045208424
96	0xbd2a356b	-0.04155485
97	0xbc9ea5fb	-0.019366255
98	0xbda73613	-0.08164611
99	0x3da316d6	0.0796334
100	0xbc3bf26d	-0.011471373
101	0xbd61957f	-0.05507421
102	0x3ccd003f	0.025024531
103	0xbc5c5793	-0.013448614
104	0x3c45848e	0.012055529
105	0x3d967f54	0.07348505
106	0xbd1d392d	-0.038384605
107	0xbd0c2cfe	-0.034222595
108	0xbd84e9d1	-0.064899094
109	0x3b1dfefc	0.0024108281
110	0xbc87954a	-0.016550679
111	0xbd763cdb	-0.06011663
112	0xbcae5dba	-0.021284927
113	0x3de49be1	0.11162544
114	0x3e0289d2	0.12747887
115	0xbd9ea0a9	-0.07745487
116	0xbd9f2849	-0.07771356
117	0xbd92871e	-0.07154678
118	0x3db1656f	0.08661925
119	0x39f44673	0.00046591795
120	0xbca1d12d	-0.019753063
121	0xbd2076af	-0.039175685
122	0x3cbe672f	0.023242561
123	0x3ba13e5c	0.004920764
124	0x3d401747	0.0468972
125	0x3d982e3f	0.07430696
126	0xbc812f71	-0.015769692
127	0xbc541723	-0.012944969
128	0x3c15daca	0.009146402
129	0xbde77e7b	-0.11303421
130	0xbdaf9d4d	-0.085749246
131	0x3c012b0c	0.007883798
132	0xbc9cab94	-0.019124784
133	0x3d0cb313	0.034350466
134	0xbdf34be7	-0.118797116
135	0x3ca5e1c5	0.020249257
136	0xbe1405fd	-0.1445541
137	0x3c8a6853	0.016895449
138	0xbcf70dce	-0.03015795
139	0xbe5a10b9	-0.21295442
140	0x3d9383a7	0.07202845
141	0xbd37f486	-0.04491093
142	0x3d2809bb	0.041024905
143	0x3e1a4c0b	0.1506807
144	0xbd2912f7	-0.041277852
145	0x3c1012cc	0.008793544
146	0xbd58a200	-0.05288887
147	0x3bdea562	0.0067946175
148	0xbcd11c6e	-0.025526252
149	0x3d55d810	0.052208006
150	0xba42986e	-0.00074232265
151	0xbc14ec0c	-0.009089481
152	0x3d47e458	0.04880175
153	0xbd884df4	-0.066554934
154	0x3bdf93ef	0.006823055
155	0x3dcb9fff	0.09942626
156	0xbd9f51bf	-0.07779264
157	0xbda6fb85	-0.08153442
158	0xbd6ff446	-0.058582567
159	0xbe1d7d6b	-0.15379874
160	0x3c542189	0.0129474485
161	0xbd7df3e0	-0.062000155
162	0x3e008ada	0.12552968
163	0xbd48c8d5	-0.049019653
164	0xbd617175	-0.05503984
165	0xbd69ee49	-0.057112012
166	0xbcf56358	-0.029954597
167	0x3cbabf48	0.022796288
168	0x3dc28cea	0.094995335
169	0xbc309c5c	-0.0107794665
170	0x3d097c80	0.033565998
171	0xbdcaa5b7	-0.09894889
172	0xbd843085	-0.06454567
173	0x3c9236e2	0.017848436
174	0xbda0cb91	-0.07851327
175	0x3cbf8257	0.02337758
176	0xbc4ffa24	-0.0126939155
177	0x3d613dc2	0.054990537
178	0xbc1cb08b	-0.0095635755
179	0x3d069d4c	0.032864854
180	0x3cc8b0e5	0.024498412
181	0x3d26938f	0.040668067
182	0xbd798933	-0.06092186
183	0x3c5cce83	0.013476971
184	0xbc046d05	-0.008082633
185	0xbda4f338	-0.08054203
186	0xbd427f44	-0.04748465
187	0xbd1d52a8	-0.038408905
188	0xbd860d12	-0.06545462
189	0xbd406e23	-0.046980035
190	0x3d57fc7f	0.052731033
191	0x3e4f3043	0.20233254
192	0xbc94885b	-0.018131426
193	0xbd377f01	-0.044798855
194	0x3da79246	0.08182196
195	0x3e116b0d	0.14200993
196	0xbcc1a0d7	-0.023636265
197	0x3c126202	0.0089345
198	0x3cc496a7	0.023997618
199	0x3c809191	0.015694411
200	0x3db109e0	0.08644462
201	0xbc9e76c9	-0.01934375
202	0xbd06f294	-0.032946184
203	0x3d58c370	0.05292076
204	0xbca1b215	-0.019738236
205	0xba969c65	-0.0011490701
206	0x3e19da3e	0.15024659
207	0xbcb83349	-0.022485392
208	0x3cda276f	0.026630132
209	0x3ca11c11	0.019666703
210	0x3bd11243	0.006380351
211	0x3d0c416d	0.034242082
212	0xbd00c1cf	-0.03143483
213	0x3c9cb244	0.019127972
214	0xbd363685	-0.044485588
215	0xbd0095fc	-0.031393036
216	0xbe03272d	-0.12807913
217	0xbd0c4563	-0.03424586
218	0x3dc25431	0.094887145
219	0x3da48c26	0.08034544
220	0x3c2756dc	0.01021358
221	0xbd4a3742	-0.049369104
222	0xbd4b8965	-0.049691577
223	0x3cb969af	0.022633402
224	0x3e055d7b	0.13023941
225	0xbb247689	-0.0025095067
226	0x3b53891a	0.0032277764
227	0x3ccf9da3	0.025343722
228	0x3ceb8927	0.028751923
229	0x3ce38c71	0.027776929
230	0xbb8398d2	-0.0040160203
231	0xbe097083	-0.13421826
232	0xbd1502a4	-0.03637947
233	0x3da624ee	0.081125125
234	0xbb2a299d	-0.0025964745
235	0xbc8f330a	-0.017480392
236	0x3df87956	0.12132518
237	0x3dc102c5	0.09424356
238	0x3d154428	0.036441952
239	0x3d295650	0.04134208
240	0x3da5279c	0.080641955
241	0xbd5f225d	-0.05447613
242	0xbcb90017	-0.02258305
243	0x3e2b2f7f	0.16717337
244	0xbc94a62c	-0.018145643
245	0xbd53950a	-0.051655807
246	0xbe3855d7	-0.18001495
247	0xbdd0f763	-0.10203435
248	0xbc48d5f1	-0.012258039
249	0x3b8d0210	0.0043032244
250	0xbcbe2ac1	-0.023213746
251	0xbba96b0b	-0.005170231
252	0xbd7c4315	-0.061587412
253	0x3dec4618	0.11536807
254	0x3d350d4f	0.044202145
255	0x3c7ed3b7	0.015553406

action_model._discrete_distribution.branches.3.bias f4 [2]
0	0xbccbb4a8	-0.024866417
1	0x3ccbb49c	0.024866395

action_model._discrete_distribution.branches.3.weight f4 [2, 256]
0	0xbd1bd278	-0.038042516
1	0xbc795a4a	-0.0152192805
2	0xbd033994	-0.032037333
3	0xbe082ffa	-0.13299552
4	0x3d2c80c9	0.042115007
5	0x3d0f4741	0.034980062
6	0x3db955d1	0.09049571
7	0x3dcc59fe	0.09978102
8	0x3d5933b1	0.053027812
9	0x3de7bfe6	0.113158986
10	0xbd360f8e	-0.044448428
11	0x3d918627	0.07105666
12	0x3d78a10c	0.06070046
13	0x3afc3fb3	0.0019245058
14	0xbd707518	-0.05870542
15	0xbb5cf030	-0.00337125
16	0xbd185191	-0.037187163
17	0x3c4a4ff5	0.012348165
18	0xbbed5af8	-0.0072435103
19	0x3d2d781d	0.042350877
20	0x3e1392ce	0.1441147
21	0x3c870885	0.016483555
22	0x3d3a9f8a	0.045562305
23	0xbce88138	-0.028381929
24	0x3d3de46e	0.046360426
25	0x3dfae732	0.12251128
26	0xbd347399	-0.044055555
27	0xbcfec997	-0.031101985
28	0x3df65a36	0.12028925
29	0xbe103f0f	-0.14086555
30	0x3d05ce0a	0.032667197
31	0xba19ba3c	-0.0005864238
32	0xbd1a5dae	-0.037686996
33	0xbd71e3a3	-0.059054982
34	0x3c0382e9	0.008026817
35	0xbc8a17a0	-0.016856968
36	0x3d56b4f9	0.052418683
37	0xbdb4bc0b	-0.08824929
38	0x3dab4ab2	0.083638564
39	0xbcbff410	-0.023431808
40	0x3d06b5b6	0.032888137
41	0x3cff5462	0.031168167
42	0x3d045a29	0.032312546
43	0x3dbc7cf9	0.09203524
44	0x3d42dc16	0.04757317
45	0x3c3f4ec0	0.01167649
46	0x3e093a07	0.13401042
47	0x3d281686	0.041037105
48	0x3cd5dd7a	0.026106585
49	0xbcc224b2	-0.023699138
50	0xbc90a5a4	-0.017657109
51	0xbd4908e4	-0.049080744
52	0x3ccd7b28	0.02508314
53	0x3d11cd6c	0.035596296
54	0xbdcd9e08	-0.10039908
55	0x3d40ff59	0.04711852
56	0x3dbd3f81	0.09240628
57	0x3e0f86bd	0.14016242
58	0x3c27cd41	0.010241807
59	0xbccd2cd9	-0.0250458
60	0x3e0d111b	0.13776056
61	0xbbd81c66	-0.006595182
62	0x3db77d9c	0.08959505
63	0x3cbe0d12	0.023199592
64	0x3e0e8354	0.13917285
65	0xbda9fdb7	-0.083003454
66	0xbdc428ab	-0.09578069
67	0x3dae05e3	0.084972166
68	0x3cd407ce	0.025882628
69	0x3da1011b	0.07861539
70	0xbc345e8e	-0.011008872
71	0x3d99d543	0.075113796
72	0x3cb2836d	0.021791184
73	0xbd997685	-0.07493309
74	0x3d4395b2	0.047750182
75	0x3d2258b1	0.039635364
76	0x3c58f20c	0.013241302
77	0x3de9bc93	0.11412921
78	0x3d488575	0.0489554
79	0x3dd5293e	0.10408257
80	0xbb5e3ee2	-0.0033911993
81	0xbc82258e	-0.015887048
82	0xbd672fe8	-0.05644217
83	0x3d5ae18b	0.05343775
84	0xbdacc304	-0.08435634
85	0x3c9f4927	0.019444061
86	0xbd29b804	-0.041435257
87	0x3e05c70c	0.13064212
88	0x3deab65a	0.11460562
89	0x3d585f70	0.05282539
90	0x3aeba0b3	0.0017976969
91	0x3bc7ffa3	0.0061034723
92	0xbd8436ba	-0.06455751
93	0x3dd0ff8b	0.10204991
94	0x3c8d55ad	0.017252767
95	0x3abcd1c9	0.0014405783
96	0x3cb5db1a	0.022199202
97	0xbd84c567	-0.06482964
98	0xbc8adb8d	-0.016950393
99	0x3ce610b1	0.028084131
100	0xbd1a1588	-0.03761819
101	0x3d8db1c5	0.069186725
102	0x3c5cccb4	0.013476539
103	0x3c79afeb	0.015239696
104	0x3d28e6d3	0.041235756
105	0xbc8b9b45	-0.017041812
106	0x3d648f83	0.055800926
107	0x3ddbb901	0.10728646
108	0xbca82466	-0.020525169
109	0x3cd20b72	0.025640223
110	0x3daa0d19	0.083032794
111	0x3d176889	0.036964927
112	0x3de5b2ca	0.11215742
113	0x3d9e04fd	0.07715795
114	0xbd5a1bcd	-0.05324917
115	0xbd66dc6a	-0.056362547
116	0x39a73d3f	0.00031898354
117	0xbd5de159	-0.054169986
118	0xbdbf8f61	-0.09353519
119	0xbd87699f	-0.066119425
120	0xbc435d56	-0.0119241085
121	0xbd78477f	-0.06061506
122	0xbe2b55c5	-0.16731937
123	0xbde9b1b5	-0.11410848
124	0x3c8f12d2	0.017465029
125	0xbd0a1be7	-0.033718016
126	0xbc05c1e4	-0.008163903
127	0xbcab6a97	-0.02092485
128	0xbc1040e2	-0.008804532
129	0xbc32f458	-0.010922514
130	0xbd5ec22c	-0.054384395
131	0xbd025b94	-0.031825617
132	0x3ce7b0a8	0.028282478
133	0x3dba3b46	0.09093337
134	0xbd15406b	-0.036438387
135	0x3d2518ee	0.040306978
136	0xbd23ba33	-0.039972495
137	0x3d4e8c82	0.050426967
138	0x3d8dd275	0.06924907
139	0xbd2eb6e2	-0.04265488
140	0xbd1b834a	-0.037967004
141	0x3d4e0110	0.050293982
142	0x3d34aa56	0.044107758
143	0xbd7380c5	-0.059448976
144	0xbc050c9b	-0.008120681
145	0xbc7f52a3	-0.015583667
146	0x3e372f81	0.17889215
147	0xbda02d9a	-0.07821198
148	0x3d61a22c	0.0550863
149	0x3af360c2	0.0018568265
150	0x3d885379	0.06656546
151	0xbdcb7495	-0.09934346
152	0x3ab79043	0.0014004785
153	0x3ce7e478	0.028307185
154	0x3d5d70b7	0.05406257
155	0x3df928d8	0.121659935
156	0x3b688dfb	0.0035485018
157	0x3dc5f71c	0.09666273
158	0xb9726b54	-0.00023118901
159	0xbd440180	-0.047852993
160	0xbdd22827	-0.10261565
161	0xbd7ab201	-0.061204914
162	0x3de22285	0.1104174
163	0x3e02e495	0.1278251
164	0xbd0dad80	-0.03458929
165	0x3d229896	0.0396963
166	0xbdf8dc87	-0.12151437
167	0x3d81c6d2	0.0633675
168	0xbdc76743	-0.097364925
169	0xbcaa2b5a	-0.020772625
170	0x3d8713c0	0.06595564
171	0x3d13c4df	0.036076423
172	0x3b8ea16c	0.004352739
173	0xbcbbc804	-0.022922523
174	0xbcb66a07	-0.022267355
175	0xbe604193	-0.21900015
176	0xbd4793d3	-0.04872496
177	0x3d918581	0.07105542
178	0xbd67f431	-0.056629363
179	0x3cf4d08b	0.029884597
180	0x3dc280ca	0.09497221
181	0xbd389d0c	-0.045071647
182	0x3cebcf50	0.028785378
183	0x3ba6e333	0.005093002
184	0x3da1394a	0.07872255
185	0xbcb37e2c	-0.02191075
186	0xbd12f9c4	-0.035882726
187	0x3c8f1243	0.017464763
188	0x3d85cea3	0.065335535
189	0xbd375453	-0.044758152
190	0xb9a58471	-0.0003156993
191	0x3d1cac89	0.03825048
192	0xba06215b	-0.00051166647
193	0x3d9fc7ba	0.07801767
194	0x3e33f198	0.1757263
195	0x3cec6081	0.02885461
196	0x3e0256e9	0.12728466
197	0x3e0aac60	0.13542318
198	0xbb940cc1	-0.004518122
199	0x3cc6d5d9	0.024271892
200	0xbd8e9e5f	-0.06963801
201	0xbd276ab5	-0.040873248
202	0xbd4b6d26	-0.04966464
203	0x3cf32d8b	0.029684803
204	0x3d62bf0c	0.055357978
205	0x3da5912b	0.08084329
206	0xbda2100e	-0.079132184
207	0xbd7b9f45	-0.061431188
208	0x3e3ee11e	0.18640563
209	0xbdb43161	-0.08798481
210	0x3e09e72d	0.13467093
211	0xbc9b553d	-0.018961543
212	0x3d78ae71	0.060713235
213	0xbd149640	-0.036276102
214	0x3e067975	0.1313227
215	0x3aa8f537	0.0012890463
216	0xbd8fad7c	-0.070155114
217	0x3dc3b731	0.09556425
218	0x3d218556	0.0394338
219	0xbc80ebc1	-0.015737416
220	0xbd8d1133	-0.06888046
221	0xbdf54d43	-0.11977627
222	0x3c1fddb0	0.009757444
223	0xbd04324e	-0.032274537
224	0x3c4ab25b	0.012371625
225	0x3d14d2e5	0.036333937
226	0xbda26cce	-0.07930909
227	0x3d87df42	0.0663438
228	0x3d1bd16c	0.038041517
229	0x3c8cd1ba	0.01718985
230	0x3d4858c7	0.04891279
231	0xbe33e634	-0.17568284
232	0x3caae001	0.020858767
233	0xbda0c27c	-0.07849595
234	0x3d47f046	0.048813127
235	0xbce3d435	-0.02781115
236	0xbd461fb8	-0.048370093
237	0x3ac092d4	0.0014692196
238	0xbd510d55	-0.051038105
239	0x3ddfc4a7	0.1092618
240	0x3d51925b	0.051164966
241	0x3df93d69	0.12169916
242	0x3d9208f7	0.07130616
243	0x3de29b49	0.110647745
244	0xbca4cf31	-0.020118328
245	0x38c8b6ce	9.570793e-05
246	0x3c8bee3e	0.017081376
247	0xbd267a20	-0.04064381
248	0x3dc257b7	0.094893865
249	0xbc8fc814	-0.01755146
250	0xbde1f279	-0.11032576
251	0x3dc4674e	0.09590016
252	0x3d835712	0.06413092
253	0x3cda0311	0.02661279
254	0x3d8038a4	0.06260803
255	0x3dc638f0	0.09678829

discrete_action_output_shape f4 [1, 4]
0	0x40400000	3.0
1	0x40400000	3.0
2	0x40400000	3.0
3	0x40000000	2.0

network_body._body_endoder.seq_layers.0.bias f4 [256]
0	0xbdb51b08	-0.088430464
1	0x3e05a60f	0.13051628
2	0xbc58e7c3	-0.01323885
3	0xbc0a65ef	-0.008447154
4	0xbe452902	-0.19253924
5	0xbcd90da8	-0.02649577
6	0xbdae19d4	-0.0850102
7	0xbdb76b2a	-0.08955987
8	0x3cce862b	0.02521046
9	0xbc014be9	-0.007891634
10	0xbcb4f132	-0.022087667
11	0xbb1f0612	-0.0024265093
12	0xbd9b1bd7	-0.075736694
13	0xbd5dab63	-0.054118525
14	0xbe24a238	-0.16077507
15	0xbdec90b3	-0.11551037
16	0xbdcb597e	-0.09929179
17	0x3d9d4bc6	0.07680468
18	0xbe07c663	-0.13259272
19	0x3d81c1d9	0.06335802
20	0xbdc9e4ac	-0.09858069
21	0xbc96609a	-0.01835661
22	0xbcf0a28a	-0.02937438
23	0xbcfb5fff	-0.030685423
24	0xbd7b268b	-0.061316054
25	0xbde3619d	-0.11102603
26	0xbdb72332	-0.0894226
27	0xbd8c0f2f	-0.068388335
28	0xbd2bd0ca	-0.041947164
29	0xbd167790	-0.036735117
30	0xbdd169ab	-0.10225233
31	0x3d143811	0.03618628
32	0xbd7286d2	-0.059210606
33	0xbd3302de	-0.043703906
34	0xbbfd7990	-0.0077354386
35	0xbe0651f7	-0.13117205
36	0xbd5bf0d5	-0.053696472
37	0x3cee4d0b	0.029089471
38	0xbd910b8d	-0.07082281
39	0xbdf32cba	-0.11873765
40	0xbe01fdbb	-0.12694447
41	0xbd59787b	-0.053093415
42	0xbbd4d530	-0.0064951405
43	0xbdb16703	-0.08662226
44	0xbc80a6b2	-0.015704487
45	0xbd9c3daa	-0.07628949
46	0xbe0f8fef	-0.1401975
47	0x3ab72fda	0.0013976053
48	0xbdc71e81	-0.09722615
49	0xbe124d6a	-0.14287344
50	0xbd32ced0	-0.043654263
51	0xbd05e043	-0.032684576
52	0x3cfab23e	0.03060257
53	0xbd7740f5	-0.060364682
54	0xbcc36074	-0.023849703
55	0xbde37711	-0.111066945
56	0xbdd32272	-0.10309304
57	0x3ad77b7e	0.0016440002
58	0xbdcf498b	-0.10121449
59	0x3b03547b	0.0020039368
60	0xbe3a199a	-0.18173829
61	0x3b8f72c8	0.0043776967
62	0xbe0421e0	-0.12903547
63	0xbd99789b	-0.07493707
64	0xbdd38c26	-0.103294656
65	0xbe06dac1	-0.13169385
66	0xbd1240aa	-0.0357062
67	0x3c472ebf	0.012157141
68	0xbd338317	-0.04382619
69	0x3c67b304	0.014141802
70	0xbd1c8ae0	-0.03821838
71	0xbda4b912	-0.08043112
72	0xbd8bbc7a	-0.068230584
73	0xbd5db842	-0.0541308
74	0xbe1c09ad	-0.15238066
75	0xbdb2c38c	-0.08728704
76	0x3d8457ab	0.06462034
77	0xbde5b9a9	-0.112170525
78	0xbd6bdca8	-0.05758348
79	0xbc76d013	-0.015064257
80	0xbb262896	-0.002535378
81	0xbc33d22c	-0.010975402
82	0x3dc723a8	0.09723598
83	0xbc94b75f	-0.018153844
84	0xbdeba1bb	-0.11505457
85	0xbd9323d4	-0.07184568
86	0xbdb8b2aa	-0.090184525
87	0xbd837c9c	-0.06420252
88	0xbe1c9f2d	-0.15295096
89	0xbd713bc3	-0.058894884
90	0x3d038a3f	0.032114264
91	0xbdd833d7	-0.10556763
92	0xbcd83290	-0.026391298
93	0x3d8e80b2	0.069581404
94	0xbdc4297d	-0.09578226
95	0x3d9c1bef	0.076225154
96	0x3d30d356	0.043170296
97	0xbd05167e	-0.032492153
98	0xbd14a2ef	-0.036288198
99	0xbe08d5ab	-0.13362758
100	0xbe0399cd	-0.12851639
101	0xbd86d77c	-0.06584069
102	0xbcb6fa0c	-0.022336029
103	0xbb4902e6	-0.0030671894
104	0xbdd33382	-0.10312559
105	0xbdfe5b78	-0.1241979
106	0x3cb77894	0.022396363
107	0x39240b1d	0.00015644399
108	0xbd8b000c	-0.06787118
109	0xbde6d16d	-0.112704135
110	0xbd2ffcb1	-0.042965595
111	0xbd704921	-0.05866349
112	0xbd303022	-0.043014653
113	0xbe09a34d	-0.134412
114	0xbd87b0be	-0.06625508
115	0xbe0e2c91	-0.13884188
116	0x3c3b9615	0.011449357
117	0xbe08b01b	-0.13348429
118	0xbbc8f1b4	-0.006132329
119	0xbda5aea3	-0.0808995
120	0x3d1e3625	0.038625855
121	0xbcd1c436	-0.025606256
122	0xbd42df6f	-0.047576364
123	0xbddfd58c	-0.10929403
124	0xbe03ed9a	-0.12883607
125	0xbd02e87a	-0.03195999
126	0xbdb1a30d	-0.086736776
127	0xbd72bafb	-0.05926035
128	0xbd3a875e	-0.045539252
129	0xbe2fdd98	-0.17174375
130	0x3c972968	0.018452361
131	0xbdce8637	-0.10084193
132	0xbac920e6	-0.0015344888
133	0xbd0a93df	-0.033832427
134	0xbdd40c39	-0.10353894
135	0xbe29a67d	-0.16567416
136	0x3ce05e93	0.027388847
137	0xbdd47bae	-0.103751525
138	0x3d48040f	0.048831996
139	0xbd9483ad	-0.07251678
140	0xbdbf19e6	-0.093311116
141	0xbddb9b95	-0.10723034
142	0xbd4139f1	-0.047174398
143	0x3c9a8270	0.018861026
144	0xbd6b4850	-0.05744201
145	0xbba74190	-0.005104251
146	0xbd430737	-0.047614302
147	0xbd329e69	-0.043608103
148	0xbd56a0e7	-0.052399542
149	0xbc4e2719	-0.012582564
150	0xbd8bd068	-0.0682686
151	0xbd81f8eb	-0.063463055
152	0xbd539c2d	-0.051662613
153	0xbe08f8fd	-0.13376231
154	0xbc267eaf	-0.01016204
155	0xbcb77383	-0.022393947
156	0xbd49e164	-0.049287215
157	0xbd1026f6	-0.035193406
158	0xbded3bab	-0.115836464
159	0xbdacdd79	-0.0844068
160	0xbd18adf4	-0.03727527
161	0xbd2da0bc	-0.042389616
162	0xbe401478	-0.18757808
163	0xbd02a140	-0.03189206
164	0xbdb0fef9	-0.08642382
165	0xbe0acfd5	-0.13555844
166	0xbc42f1aa	-0.0118984375
167	0x3ca8ca34	0.02060423
168	0xbca2c084	-0.01986719
169	0xbdd729bc	-0.10506007
170	0x3c790cce	0.015200807
171	0xbd9a607a	-0.07537933
172	0xbda5b06b	-0.0809029
173	0xbb79d53a	-0.0038121478
174	0xbde85c21	-0.11345697
175	0x3cec0ae4	0.028813787
176	0xbc1fb11f	-0.009746819
177	0x3cfd9b56	0.030957859
178	0x3d5a1c52	0.053249665
179	0xbdbccdea	-0.092189625
180	0xbd9afe4a	-0.07568033
181	0xbddec761	-0.10877872
182	0xbbd2867e	-0.006424724
183	0xbe435a84	-0.19077498
184	0xbd9f44f9	-0.07776827
185	0xbd6723e5	-0.056430716
186	0xbdaa31e4	-0.08310297
187	0x3cec9fe1	0.02888483
188	0x3da0b667	0.078472905
189	0xbd6227a1	-0.055213574
190	0xbd29036b	-0.041263025
191	0xbd058586	-0.03259804
192	0xbddcaacd	-0.10774765
193	0xbdce1f10	-0.100645185
194	0x3ac84f31	0.001528239
195	0x3c958c8d	0.018255496
196	0xbd804626	-0.0626338
197	0xbdbb5096	-0.0914623
198	0xbc0b9c6d	-0.0085211815
199	0xbd232a5c	-0.03983532
200	0x3c138626	0.009004151
201	0xbddcac3e	-0.1077504
202	0xbe1d8b18	-0.15385091
203	0xbdf4bac2	-0.11949684
204	0xbd4e0f37	-0.05030748
205	0x3bd0b64a	0.006369387
206	0x3c9fe75c	0.0195195
207	0xbd62c507	-0.05536368
208	0x3be2d8ff	0.0069228406
209	0xbc267b37	-0.010161213
210	0xbdcd4cd8	-0.100244224
211	0xbdacdc38	-0.08440441
212	0xbd953768	-0.072859585
213	0xbd8b7e06	-0.068111464
214	0xbe05ff8d	-0.13085766
215	0xbc0afe9f	-0.008483558
216	0xbcfb13d7	-0.030649109
217	0xbd8f6a73	-0.070027255
218	0xbd7f8f31	-0.062392417
219	0x3c2cb651	0.0105415145
220	0xbd6c0506	-0.05762198
221	0x3e0a7cae	0.13524124
222	0xbc512188	-0.012764342
223	0x3b860db0	0.004090987
224	0x3e334f33	0.17510681
225	0xbe02d418	-0.1277622
226	0xbcef1f13	-0.029189622
227	0xbc818986	-0.015812647
228	0xbd9c772d	-0.076399185
229	0xbcb697ad	-0.022289122
230	0xbd8fbb5a	-0.07018156
231	0xbdc9cc27	-0.09853392
232	0xbd0137ae	-0.03154724
233	0xbdedf668	-0.11619264
234	0xbda2e011	-0.079528935
235	0x3d5487b0	0.051887214
236	0xbd623251	-0.055223767
237	0x3db93508	0.09043318
238	0xbd54a4c6	-0.051914953
239	0x3da90ddc	0.082545966
240	0xbd128e1d	-0.03578006
241	0xbd574b72	-0.052562185
242	0x3c485f35	0.01222973
243	0xbda779af	-0.08177506
244	0xbdcf95a8	-0.101359665
245	0xbd7c9de6	-0.06167402
246	0x3c914ae4	0.017735906
247	0x3a471ca9	0.0007595518
248	0xbc57d976	-0.013174405
249	0x3a1b8d85	0.0005933869
250	0xbd85d7de	-0.06535314
251	0xbd7e0aef	-0.062022146
252	0xbd1c5083	-0.03816272
253	0xbd9de807	-0.07710271
254	0xbd6992c8	-0.057024747
255	0xbd7774e3	-0.060414206

network_body._body_endoder.seq_layers.0.weight f4 [256, 11]
0	0xbc1c0115	-0.009521742
1	0xbc266b9d	-0.010157493
2	0x3e07cf80	0.13262749
3	0xbdf68173	-0.12036409
4	0xbc266e2f	-0.010158106
5	0xbe5ef9bc	-0.21774954
6	0xbebb88fe	-0.36627954
7	0x3e52e4a1	0.20595028
8	0xbf43b66d	-0.76450235
9	0xbedb5811	-0.42840627
10	0xbe96bbad	-0.2944006
11	0x3c9062f4	0.01762531
12	0xbe9483ee	-0.29006904
13	0xbf474961	-0.7784634
14	0xbe3100be	-0.1728544
15	0x3e00c29c	0.12574238
16	0xbe33f167	-0.17572556
17	0xbe3a21e7	-0.18176995
18	0xbe4e4ce7	-0.20146523
19	0x3e47269b	0.1944832
20	0x3c8f00c4	0.01745642
21	0x3d316b23	0.043315064
22	0xbdcdd012	-0.10049452
23	0x3e0799cf	0.13242267
24	0xbe998b0d	-0.299889
25	0x3e00b44a	0.12568775
26	0xbdb5afe4	-0.08871439
27	0x3ed2c662	0.4116698
28	0xbf0d2e64	-0.5514891
29	0xbefa3f56	-0.48876446
30	0x3ebfea03	0.37483224
31	0x3f0aa274	0.54154134
32	0x3e907934	0.2821747
33	0x3f353780	0.7078781
34	0x3ea9c563	0.33158407
35	0x3d4685da	0.048467495
36	0x3eb21fba	0.3478983
37	0x3e73aa32	0.23795393
38	0xbf6ba021	-0.9204121
39	0xbe0bf7ba	-0.13668719
40	0x3f0874f1	0.5330344
41	0xbf01b535	-0.50667125
42	0xbef96e5b	-0.48717007
43	0x3e9af58d	0.30265465
44	0x3f06d7f4	0.5267327
45	0xbdec4845	-0.11537222
46	0x3bd2d5f0	0.0064341947
47	0x3e542e30	0.20720744
48	0x3f50ee0c	0.8161323
49	0x3edd603c	0.43237484
50	0xbe9a6b6f	-0.3016009
51	0x3e93c0a2	0.28857905
52	0x3eb52ca8	0.35385633
53	0xbe9f3b7f	-0.3110008
54	0x3d2d45a8	0.042302758
55	0xbe4c3f43	-0.19946007
56	0xbe987c95	-0.2978255
57	0x3f02c3ac	0.5107982
58	0xbcde3b25	-0.027127812
59	0xbead5973	-0.33857307
60	0x3ed8128f	0.4220166
61	0xbcab6fa9	-0.020927267
62	0xbef7ca7d	-0.48396674
63	0x3f43312a	0.76246893
64	0xbc8e8aa9	-0.017400103
65	0xbbd62247	-0.006534848
66	0x3ef3c940	0.4761448
67	0xbd988226	-0.07446699
68	0xbe92bc12	-0.2865911
69	0x3e40067f	0.18752478
70	0x3db012f7	0.08597367
71	0xbe0d01d1	-0.13770224
72	0x3d0d2abf	0.034464594
73	0x3c92e56a	0.017931659
74	0x3e136ccc	0.14396971
75	0x3f0d90cc	0.5529907
76	0xbdb48933	-0.08815231
77	0xbf0a2e51	-0.53976923
78	0xbf0a2cc1	-0.5397454
79	0x3eabe9bc	0.33576763
80	0xbf0dd752	-0.5540668
81	0xbe0f524d	-0.13996239
82	0xbe06742a	-0.1313025
83	0x3ed4c12e	0.41553634
84	0x3bd9bc7a	0.0066447826
85	0xbdb16e7d	-0.08663652
86	0xbece664d	-0.40312424
87	0x3c1d3574	0.009595264
88	0x3e5c467a	0.2151126
89	0x3db2c6b8	0.08729309
90	0xbf0413f9	-0.51592976
91	0xbea4adba	-0.32163793
92	0xbe3eedcc	-0.186454
93	0xbf26b042	-0.651127
94	0x3e191699	0.14950027
95	0x3e127a05	0.1430436
96	0xbebe563f	-0.37175176
97	0x3dd82f24	0.10555866
98	0xbeca1a55	-0.39473215
99	0x3e4fc935	0.20291598
100	0x3dbf426d	0.093388416
101	0xbe4232df	-0.18964718
102	0x3ea3cf15	0.3199393
103	0xbd00b4d6	-0.03142246
104	0x3ea54f1a	0.32286912
105	0xbe081860	-0.13290548
106	0x3e672a72	0.22574785
107	0x3e805331	0.2506347
108	0x3f3b93a3	0.7327215
109	0x3dccc0e2	0.09997727
110	0xbd6c8b39	-0.05774996
111	0xbf0c55f4	-0.54818654
112	0x3e1c1186	0.1524106
113	0x3eb953e1	0.36196807
114	0xbc9bdc9b	-0.019026091
115	0x3eb80f39	0.35949114
116	0xbf2a2feb	-0.66479367
117	0xbdf62901	-0.120195396
118	0xbdb34654	-0.087536484
119	0xbc94479e	-0.018100556
120	0xbb9a504d	-0.0047092796
121	0x3f577134	0.8415711
122	0xbe2df5a3	-0.16988234
123	0x3e2c7b81	0.16843988
124	0xbe8c6964	-0.27424157
125	0x3e6e0bd3	0.23246698
126	0xbe099405	-0.13435371
127	0xbdfe6117	-0.12420862
128	0xbeee204d	-0.4650902
129	0x3eec0a0e	0.4610142
130	0xbe6d630a	-0.23182312
131	0x3e072ee6	0.13201484
132	0x3f440cfe	0.76582325
133	0x3e64a5f6	0.22328934
134	0xbee3209f	-0.44360825
135	0x3eb76df2	0.3582607
136	0x3cb20ed1	0.02173558
137	0x3de4e1b8	0.11175865
138	0x3e1a76d9	0.150844
139	0x3e8247ed	0.254455
140	0xbe84bdfa	-0.2592619
141	0xbea8dff7	-0.32983372
142	0xbe09cac8	-0.13456261
143	0x3e0ed320	0.13947725
144	0x3d4fc37f	0.05072355
145	0x3d10907e	0.03529405
146	0x3ec6b9f4	0.38813746
147	0xbf806206	-1.0029914
148	0xbe812c52	-0.25229126
149	0x3e1829f5	0.14859755
150	0xbe8b637a	-0.27224332
151	0xbec83fa1	-0.39111045
152	0xbe254c01	-0.16142274
153	0xbed963d1	-0.42458966
154	0x3eb4a503	0.35282144
155	0xbea4afe9	-0.3216546
156	0x3e23aef9	0.15984716
157	0x3ee97eb8	0.4560449
158	0x3ec5487f	0.38531873
159	0x3ebc7404	0.36807263
160	0xbeb910aa	-0.36145526
161	0xbe00ad36	-0.12566075
162	0x3d1b1814	0.03786476
163	0x3e60c2e1	0.2194934
164	0xbe2f1d91	-0.17101122
165	0x3ea35d38	0.31907058
166	0x3ebe17e1	0.37127593
167	0xbe6ec29e	-0.23316428
168	0x3f0238d9	0.5086799
169	0x3e49cdcb	0.1970741
170	0x3e9d120c	0.3067783
171	0x3f17e109	0.5932775
172	0x3db0c794	0.086318165
173	0xbd2c4cca	-0.04206542
174	0x3f179a6a	0.5921999
175	0xbebbd00c	-0.36682165
176	0xbe904256	-0.2817561
177	0xbe936691	-0.2878919
178	0xbefa54e3	-0.48892888
179	0xbf382934	-0.7193787
180	0xbe07ab48	-0.13248932
181	0x3ea79d09	0.32736996
182	0xbf10152e	-0.5628232
183	0xbe8be4d7	-0.27323028
184	0xbec8ad27	-0.39194605
185	0xbcee426e	-0.02908441
186	0xbec33f4a	-0.38134223
187	0x3f34018b	0.70314854
188	0x3e87c915	0.265206
189	0xbf314443	-0.69244784
190	0x3ea1f70a	0.31633788
191	0x3e081ac9	0.13291468
192	0xbdf47c8d	-0.11937819
193	0x3f1eb93d	0.620014
194	0x3c0c9c74	0.008582223
195	0xbe2da52d	-0.16957541
196	0x3eaae0ca	0.33374625
197	0x3d92128d	0.071324445
198	0x3f06221b	0.5239579
199	0x3ee7668f	0.45195433
200	0xbe1d0ff2	-0.15338114
201	0xbebf89fe	-0.37409967
202	0xbd51d059	-0.051224086
203	0xbbd75073	-0.0065708696
204	0xbea0be9e	-0.3139543
205	0x3e607907	0.21921168
206	0xbd53e13a	-0.051728465
207	0xbe8ccad1	-0.27498487
208	0xbc94feb4	-0.018187858
209	0xbdea8a68	-0.1145218
210	0xbe8ed525	-0.2789699
211	0xbf115cf5	-0.56782466
212	0xbe4755c6	-0.19466314
213	0xbed5e4a4	-0.41776
214	0xbc7c5ad1	-0.015402512
215	0xbf0c1b85	-0.5472949
216	0xbde3938c	-0.11112127
217	0x3e1376df	0.14400814
218	0xbcb72b9e	-0.022359665
219	0xbd7976c9	-0.060904298
220	0xbecc14a8	-0.3985951
221	0x3eb61ffc	0.35571277
222	0xbe04fa63	-0.1298614
223	0x3f1d2053	0.6137745
224	0xbd1a7732	-0.03771133
225	0xbe1875cb	-0.14888684
226	0x3d826547	0.06366973
227	0xbf0146db	-0.5049874
228	0x3efc04c4	0.49222386
229	0x3e2a56ba	0.16634646
230	0xbec18c25	-0.37802234
231	0xbe4bf81c	-0.19918865
232	0x3e951f91	0.29125646
233	0xbf5dca2d	-0.8663662
234	0xbeaf83d1	-0.34280255
235	0x3eacf69b	0.33781895
236	0x3d005662	0.03133238
237	0x3e98ebca	0.29867393
238	0xbe9db7b6	-0.30804223
239	0xbd47cb31	-0.048777763
240	0x3e4a3e37	0.19750296
241	0xbe76758e	-0.24068281
242	0xbe31fcf0	-0.17381644
243	0x3d82b212	0.063816205
244	0xbdaa1489	-0.08304698
245	0x3e0099f9	0.12558736
246	0xbd8471c8	-0.064670146
247	0x3e901196	0.28138417
248	0x3ef181a1	0.47169212
249	0xbef6ad4c	-0.4817909
250	0xbea4bae0	-0.32173824
251	0x3e94bb52	0.29049164
252	0xbefdf814	-0.4960333
253	0x3e6af309	0.22944273
254	0xbe237c56	-0.15965399
255	0x3f0d4921	0.5518971

network_body._body_endoder.seq_layers.2.bias f4 [256]
0	0xbb30463b	-0.002689733
1	0x3cfc3fa3	0.030792063
2	0x3d93c90f	0.07216083
3	0xbc92ec90	-0.017935067
4	0x3ccdab35	0.025106052
5	0xbd16b871	-0.03679699
6	0x3d492be6	0.04911413
7	0x3d0275ce	0.03185063
8	0x3d7a6d78	0.061139554
9	0x3d864ed4	0.06558004
10	0x3d210d42	0.039319284
11	0x3e1586bd	0.1460218
12	0x3d6e8449	0.058231626
13	0x3dc15222	0.09439494
14	0x3d2ed1a1	0.042680386
15	0x3db06a62	0.08614041
16	0x3b50c549	0.0031855872
17	0x3cbe51fc	0.023232453
18	0x3d27885a	0.04090152
19	0x3d72388a	0.05913595
20	0xbd87e2e2	-0.06635071
21	0x3d144791	0.036201064
22	0x3c360ed4	0.011111934
23	0x3d00a7fd	0.031410206
24	0xbc3361f5	-0.010948648
25	0x3ca41da7	0.02003367
26	0x3c5db2de	0.013531415
27	0x3db516fa	0.08842273
28	0xbd6e3c69	-0.05816308
29	0x3d6e1756	0.058127724
30	0x3bb6c372	0.005577498
31	0x3d8f43a8	0.06995326
32	0x3bc167d2	0.005902269
33	0x3d2eb65e	0.042654388
34	0xbd6e24b3	-0.058140468
35	0x3dbd8e84	0.09255698
36	0x3d13a173	0.03604264
37	0x3d02e1cc	0.031953618
38	0x3c0031ad	0.007824344
39	0x3d534467	0.051578905
40	0x3d9b301d	0.07577536
41	0x3cbed62c	0.023295484
42	0xbca81753	-0.020518934
43	0x3de20651	0.11036361
44	0x3c1c6be6	0.009547209
45	0x3d115023	0.035476815
46	0xbd83b8a3	-0.06431701
47	0x3d74a6b0	0.059729278
48	0xba3ded53	-0.0007245142
49	0x3d399487	0.045307662
50	0x3cdb8d34	0.02680073
51	0x3c989706	0.018626701
52	0x3b24e3b3	0.0025160133
53	0xbaa8221c	-0.0012827548
54	0x3d2172de	0.039416187
55	0xbd5808a5	-0.05274262
56	0xbd8df5f7	-0.0693168
57	0xbc1b29d3	-0.009470421
58	0xbc756e6a	-0.014979938
59	0x3d6aa3a2	0.05728496
60	0x3d3d298d	0.046182204
61	0x3d9d051f	0.076669924
62	0xbcfb86c0	-0.030703902
63	0x3c62532e	0.013813777
64	0xbc9b4e20	-0.018958151
65	0x3daa6ef2	0.083219424
66	0x3d2fd630	0.042928874
67	0xbd51b1fb	-0.051195126
68	0xbd8e425e	-0.06946252
69	0xbd51c983	-0.051217567
70	0xbd02beca	-0.031920232
71	0x3d55c3a7	0.05218854
72	0x3b898fc9	0.0041980487
73	0x3d624c73	0.05524869
74	0x3d84a5c2	0.06476928
75	0x3d0e0629	0.034673844
76	0x3ced597a	0.02897333
77	0x3cf4817e	0.029846903
78	0xbd272d02	-0.040814407
79	0xbc565756	-0.013082346
80	0xbd4695a5	-0.048482556
81	0x3d34aa8f	0.04410797
82	0x3db111f3	0.08646002
83	0x3be6c273	0.007042223
84	0x3d93f1ae	0.07223831
85	0x3d166c28	0.03672424
86	0x3da117e8	0.07865888
87	0xbd792c65	-0.060833354
88	0xbd06272b	-0.032752197
89	0x3cd71827	0.026256634
90	0x3dc5fdcd	0.09667549
91	0x3c8957d5	0.016765514
92	0x3d4ec9ae	0.050485305
93	0xbe0e8e0a	-0.13921371
94	0xbc006642	-0.00783688
95	0x3d86e1b7	0.065860204
96	0xbd856600	-0.065135956
97	0xbcddf3ff	-0.027093885
98	0x3cddf563	0.027094549
99	0x3e2a3c56	0.16624579
100	0x3b528283	0.0032121248
101	0x3dcacf89	0.099028654
102	0xbbbbfbd7	-0.0057368088
103	0xbd5e0f37	-0.05421373
104	0x3cc5c48a	0.024141569
105	0x3c83114f	0.015999464
106	0xbc6ecc1b	-0.01457503
107	0xbdc7982a	-0.0974582
108	0x3d9c27a7	0.076247506
109	0x3d3c9832	0.046043582
110	0xbd6fbab3	-0.05852766
111	0x3c799d84	0.015235309
112	0x3cce1939	0.025158511
113	0x3d7b6a21	0.06138051
114	0x3d0aef9b	0.03391991
115	0x3cce8df3	0.025214171
116	0xbd70fff4	-0.058837846
117	0xbd15c43b	-0.036564093
118	0x3cac898c	0.021061681
119	0xbd9656c5	-0.07340769
120	0x3c0f4259	0.008743846
121	0x3d1f329a	0.038866617
122	0x3e07f7b6	0.13278088
123	0xbc83b651	-0.016078146
124	0xbcd7f550	-0.026362091
125	0xba2c2984	-0.00065674656
126	0x3d6a8dae	0.057264023
127	0x3db40b4f	0.087912194
128	0x3d273023	0.04081739
129	0x3d6653ef	0.05623239
130	0xbc632c08	-0.013865478
131	0xbcab75c1	-0.020930173
132	0x3b3a09df	0.0028387231
133	0xbc638d2a	-0.013888637
134	0x3de74b66	0.11293678
135	0x3d4096e1	0.04701889
136	0x3c8a784b	0.016903063
137	0x3d705097	0.058670606
138	0x3cb2bc2e	0.021818247
139	0x3dcf8f98	0.1013481
140	0xbc423cc5	-0.011855309
141	0xbdb70978	-0.08937353
142	0xbbd03d77	-0.0063549834
143	0x3c558b2d	0.01303367
144	0xbc4057cb	-0.0117396815
145	0x3d137704	0.036002174
146	0x3d0d46a4	0.034491196
147	0x3c625eac	0.013816517
148	0x3db25e38	0.08709377
149	0xbb5fd317	-0.003415292
150	0xbc1f037d	-0.0097054215
151	0x3d2a027d	0.04150628
152	0xbd182ba8	-0.03715101
153	0x3cb51873	0.022106385
154	0x3aa6feba	0.0012740709
155	0x3c9b86b0	0.018985122
156	0x3ce9916d	0.028511727
157	0xbbe12e26	-0.0068719564
158	0xbdac1698	-0.08402747
159	0xbbcc9cef	-0.006244294
160	0x3a713ed4	0.00092027825
161	0x3dd797c1	0.10526992
162	0x3d0095a7	0.03139272
163	0xbd937429	-0.0719989
164	0x3be2d228	0.0069220252
165	0x3d66df86	0.056365512
166	0x3d199a9c	0.037500963
167	0x3d5e14f1	0.05421919
168	0x3ca08dc5	0.019598851
169	0xbc811d65	-0.015761087
170	0xbd43103d	-0.047622908
171	0x3dab7f1c	0.083738536
172	0x3c5c4da4	0.013446245
173	0x3cf3b2b9	0.029748308
174	0xbca58d65	-0.020209024
175	0x3dab6ff1	0.083709605
176	0x3cdde7e2	0.02708811
177	0x3da04ddd	0.07827351
178	0xbc30b380	-0.010784984
179	0x3d247bed	0.040157247
180	0xbc6ef5d5	-0.014584978
181	0x3bf741fb	0.0075457073
182	0x3df9d9b7	0.12199729
183	0xbb7db0de	-0.0038710157
184	0x3d4bf5c2	0.04979492
185	0xbd61a6a1	-0.05509055
186	0xbcd85e48	-0.026412144
187	0xbc73dc44	-0.014884058
188	0xbd923d60	-0.071406126
189	0x3d62188b	0.055199187
190	0xbadbb7a5	-0.0016763104
191	0x3d38b03d	0.04508995
192	0x3d7ef392	0.062244006
193	0xbce2f64e	-0.027705338
194	0xbcd0c351	-0.02548376
195	0x3c55d0b9	0.013050252
196	0xbd2d8469	-0.042362604
197	0xbd819224	-0.06326702
198	0x3d1f4fc3	0.038894426
199	0x3dd79fc6	0.10528521
200	0x3d046e8f	0.032332
201	0x3d2cce17	0.04218873
202	0xbd2454fb	-0.040120106
203	0x3c0e44f9	0.008683437
204	0xbd8f5511	-0.06998647
205	0x3c8b3656	0.016993683
206	0x3c969a43	0.018384105
207	0x3d50c45d	0.050968517
208	0x3dd6abee	0.10482012
209	0x3d892a8d	0.06697569
210	0x3b19d7b8	0.0023474526
211	0xbd22bdf7	-0.039731946
212	0xbd4f9bcc	-0.05068569
213	0x3da40c52	0.080101624
214	0x3cc14e57	0.023596926
215	0x3c7baed7	0.015361509
216	0x3bef450e	0.007301933
217	0xbd44d37c	-0.04805325
218	0x3de73f81	0.11291409
219	0x3d6c8e3b	0.05775283
220	0xbc47f53f	-0.012204467
221	0x3d901aa1	0.07036329
222	0xbc35b28e	-0.011089934
223	0x3cbbdf97	0.022933764
224	0x3bf3ee20	0.007444158
225	0x3d258f0e	0.04041963
226	0x3dad21d5	0.084537186
227	0xbcae6c00	-0.021291733
228	0x3dbeea18	0.093219936
229	0xbd0b161b	-0.03395663
230	0x3ccafcde	0.02477878
231	0x3a02dce9	0.00049920246
232	0x3a707a65	0.00091735116
233	0x3e09636a	0.1341683
234	0xbd16a07a	-0.036774136
235	0x3cbe6b59	0.023244547
236	0x3cbd8cca	0.023138423
237	0xbcd4fdcd	-0.025999928
238	0xba8ede17	-0.0010899928
239	0xbd448bb2	-0.047984786
240	0x3cde450e	0.027132537
241	0xbd3f0df1	-0.046644155
242	0xbc7255eb	-0.014790992
243	0x3d287b62	0.041133292
244	0x3c899b82	0.016797785
245	0x3d928c35	0.071556486
246	0x3d7e3ea7	0.06207147
247	0x3c9eed69	0.019400315
248	0xbd4eaa44	-0.050455347
249	0xbc842fde	-0.016136106
250	0x3c3bf457	0.011471829
251	0x3d147ec4	0.036253706
252	0xbe00a314	-0.1256221
253	0x3d2d5a5c	0.0423225
254	0xbd3e03c9	-0.04639033
255	0x3d674b4d	0.056468297
