Assets/Model/0604AttackMode.onnx (onnx, 291227 bytes, 13 tensors)

action_model._discrete_distribution.branches.0.bias f4 [3]
00000000: 3c06 043e 19cb 6cbd 19b3 a9bd
0.12893003 -0.057810877 -0.08286113

action_model._discrete_distribution.branches.0.weight f4 [3, 256]
00000000: c51a 3a3c 7e8b 10be 3e25 0c3c 786a a53a
00000010: c97d 9d3d 09a8 0b3d acf2 013d 14fd abbd
00000020: 9d54 64bc 0d30 973c c09a 653c ad7d 4c3d
00000030: f636 243d e6fa 933d 3303 ed3c 20f5 98bd
00000040: 2702 553d ada5 663d 639c b0b9 1d21 8fbc
00000050: 97ff c33d f42d c9bc eab4 f13c b048 bd3c
00000060: f6eb 143d 85b1 c23c f33f ceb9 91c4 5c3d
00000070: bcbd 953d fba6 a93d 979c b8bd d9c9 1b3d
00000080: d462 003d 7290 873d 4b25 4d3d db2e 1abc
00000090: 87bf 4d3d 648b 333b 01ce 8bbc b39c 553d
000000a0: 6feb 503b 29eb a73d 5bc5 3d3d ca1a c03c
000000b0: e2d0 873d c08e 163d 8099 183c 8578 cd3c
000000c0: 6455 c13c 84a4 663d c667 1a3e 2adb 8d3c
000000d0: 184f 423d f6df 28bd e8d1 a93d 2534 6f3d
000000e0: de99 34bc a8f7 3abd 7006 fb3d 86d9 8f3c
000000f0: 818f b23d 4f1d 603d 3491 24be 2324 0ebd
00000100: f099 2fbd 412b fc3c b41c 86bc 94b4 483d
00000110: 30b7 debc e37a acbd 8bf4 0cbd 4e9a eabc
00000120: 3b4f 043d e2e7 4ebc 7266 513d 4b5a cabc
00000130: bddb 9dbd 477a a6bc 43d7 df3d 8070 94bc
00000140: c3ab 833d 23ae 783d e970 f53c 7aa9 8d3d
00000150: 5944 d93b 33d6 bb3d b687 b13d 82f8 a83d
00000160: 783e 053d 09b0 853d 6457 ff3c b7bb d53c
00000170: abbd 213e dd0a 11bd 3b85 203c d226 1d3c
00000180: 1ed7 973b 461f 8cbd 705e 493b 3b3b c9bd
00000190: fe58 883d 787d 233d 7afe 55bc b53e aa3d
000001a0: 5db4 a13d 849a 243d 1d25 01bc 908a bd3c
000001b0: fc55 293d 9f4c 983c aed2 913a 3aa8 873d
000001c0: 70cd fb3c f135 40bd 3ecb 3c3d 6d1c a73c
000001d0: 6aea 9d3c 7e4a 0a3d 8323 81bc 4dda cdbc
000001e0: 7f99 953d b4ba 1b3d da34 173d 538f dd3b
000001f0: eeb7 ffbc 36a9 363c 87ac be3b 78ff 913d
00000200: 2c37 5bbc 72e5 d2bd eb17 e83d ee97 33bd
00000210: be25 cfbc a686 213d e48a 9c3c 6c9f d43a
00000220: df86 133d 29ba d3bd 73dc 643d 79a5 5d3d
00000230: 06ba 94bc e68e e23c 9f1a 833c 4d46 fa3d
00000240: 9738 1f3d 30f0 043e 7ff9 873d 9cd9 073d
00000250: 01a6 cfbd ce28 0ab9 d60a 023b c58d dc3c
00000260: c145 863d 8044 a43d d141 ff3c 421b 153d
00000270: 99d8 173d a926 cdbd c881 8e3d 6a61 a23c
00000280: 9475 c5bb f787 9abc 2afd b33b 671f 483d
00000290: 1fdc 7e3d cefa 2cbd 8121 843d 70fb 643d
000002a0: fd2f e93c c935 443d 91b5 ecbd 1208 233d
000002b0: 5977 b03c a416 583d 44a3 81bd 86c3 10bb
000002c0: ce9e 8b3d 2273 a7bd a3bb 463d 61c4 4f3d
000002d0: a8d0 d5bd e714 953d 10fe 793d 3ce8 c6bc
000002e0: 0b86 cc3c 5aed ea3c 9007 443d 49b0 efbc
000002f0: a92e cdbb 0a37 d23c a25b 6abd 2053 c23d
00000300: e459 cb3c 1fa2 5abc 83e0 063e 74f1 cf3d
00000310: e171 1a3d 6585 67bd fb52 08bd 0e5b 563d
00000320: 0476 ae3c 46dc d13c 1836 873d c95f afbd
00000330: adb9 b7bc ecf1 9bbc a7c4 2dbd f189 e23c
00000340: c6a0 acbc adf6 643d 97fe 33bb 9920 913d
00000350: f173 4c3d a52b 313d e966 413d c979 053e
00000360: 5ff3 22bd a4a1 b13d c099 4d3d d4ae 153e
00000370: a632 083d e255 af3c 827c d43c 8bc7 7f3d
00000380: 6ca7 493d 4e9e 10bd 8234 a8bd 2843 c13c
00000390: 275f 2f3d 451f d33c e04f 83bb c688 123e
000003a0: f72f 123d 10c3 e63d 186c d6bd 56db 9f3d
000003b0: 0c8b 81bd b183 df3d 7387 6c3d 8610 bb3d
000003c0: 33c2 67bd 421d 2e3d 14d7 bdbd 07fd f53d
000003d0: 0c7d e6bc 1671 873d 1e42 023d d35f a33c
000003e0: f998 9f3d c721 febd 75d2 323d 5936 143d
000003f0: d6cd 1bbd 92e4 fa3b 6ca3 ca3b 17ec 933c
0.011358921 -0.14115712 0.008553801 0.0012620231 0.07690007 0.034095798 0.03172557 -0.0839788
-0.013936189 0.01845553 0.014013946 0.04992454 0.040091477 0.072255895 0.02893219 -0.07468629
0.052004006 0.056310344 -0.00033685853 -0.017471844 0.09570234 -0.024558045 0.029505212 0.02310595
0.036357842 0.023766289 -0.00039339028 0.053898398 0.073115796 0.08283802 -0.09014242 0.038034294
0.03134425 0.06619348 0.050084393 -0.009410585 0.050231483 0.0027396316 -0.017066004 0.052151393
0.003187861 0.0819915 0.04633079 0.023450274 0.06631638 0.03675723 0.009313941 0.025081882
0.023600288 0.056309238 0.15078649 0.01731642 0.04743871 -0.04122921 0.082919896 0.05839934
-0.011023013 -0.04564634 0.12257087 0.017559778 0.087187774 0.05471545 -0.16071016 -0.03470243
-0.042871416 0.030782344 -0.016371109 0.049000338 -0.02718696 -0.08421876 -0.0344129 -0.028638031
0.032302123 -0.012628527 0.05112309 -0.024701258 -0.077079274 -0.020321978 0.1092973 -0.01812005
0.06429245 0.060712945 0.029961066 0.06917091 0.006630462 0.09171715 0.08668463 0.08250524
0.032530278 0.06527717 0.0311696 0.026090486 0.15795009 -0.03541075 0.00979739 0.009591775
0.0046337983 -0.068419024 0.0030726455 -0.098257504 0.06657599 0.03991458 -0.01306116 0.08312742
0.0789573 0.04018642 -0.007882384 0.02313736 0.041341767 0.018591223 0.001112541 0.066238835
0.030737609 -0.046926443 0.046092264 0.020399297 0.019276816 0.033762448 -0.015764004 -0.025128508
0.07304668 0.03801985 0.036915638 0.0067614703 -0.031215634 0.0111487415 0.0058189067 0.07128805
-0.013379853 -0.102976695 0.11332687 -0.043846063 -0.025286552 0.03943505 0.019109197 0.0016221828
0.036017295 -0.103382416 0.0558743 0.054112885 -0.01815511 0.02765603 0.016003905 0.1222044
0.038872328 0.1298225 0.066393845 0.033166513 -0.101390846 -0.00013175906 0.0019842885 0.02692307
0.06556273 0.08020878 0.031159313 0.03640295 0.037071798 -0.100171395 0.069583476 0.019821841
-0.0060259793 -0.018863661 0.005492826 0.048858073 0.062221643 -0.042231373 0.06451703 0.055903852
0.028465265 0.047902856 -0.115580685 0.03980262 0.021541284 0.052755967 -0.063299686 -0.0022089197
0.06817399 -0.08176257 0.048518788 0.05072439 -0.10440189 0.072793774 0.06103331 -0.02428066
0.02496626 0.028677631 0.047858775 -0.029258864 -0.006261666 0.02566101 -0.057216294 0.09488511
0.024823137 -0.013344317 0.13171582 0.101534754 0.03770626 -0.0565237 -0.03328226 0.05233293
0.021296509 0.02561773 0.066021144 -0.085631914 -0.022427404 -0.019036256 -0.04242387 0.027653666
-0.021072756 0.05589931 -0.002746498 0.07086296 0.049915258 0.043254513 0.047217283 0.13034739
-0.039782878 0.08673409 0.050195456 0.14617473 0.033251427 0.021403257 0.025938276 0.06244616
0.04923193 -0.03530722 -0.0821314 0.023591593 0.042815354 0.025771746 -0.0040073246 0.14309987
0.035690274 0.11267674 -0.10469836 0.07805507 -0.06325349 0.1091379 0.057746362 0.09134011
-0.056581687 0.04250837 -0.092695385 0.12011152 -0.028135799 0.06613366 0.031801336 0.019943153
0.07792849 -0.12408786 0.04365774 0.036184642 -0.038038097 0.0076566422 0.006184032 0.018056912

action_model._discrete_distribution.branches.1.bias f4 [3]
00000000: 70ce ee3d f158 d7bb 06c5 06be
0.116604686 -0.006571882 -0.13161096

action_model._discrete_distribution.branches.1.weight f4 [3, 256]
00000000: cd32 c5bd ea7c febd c459 eebc de43 4a3d
00000010: 18db 8f3c a415 713d 0930 1b3d f227 533d
00000020: f9d2 47be fc74 debd d31a 963c 3169 45bd
00000030: e63b 00bd df1a abbb b231 363c db5a 063e
00000040: bdbc aabd 4171 e93c 15b2 47bd c061 4f3d
00000050: efcc efbd a0d5 51bd d3ea f0bc b884 38bd
00000060: 4362 debb f32d e73d 9c20 a93c 4dd0 f1bd
00000070: c8a4 eebd d9a5 763c 9d1a 4dbd 02c0 96bd
00000080: a061 59bc ec1c 68bd 33a4 41be 4e5d f83d
00000090: eda6 28be 6e7a 923d d276 d2bc 7c16 023d
000000a0: c644 46be b3ff 3f3c b57d 863d 0550 e1bd
000000b0: 05d9 5ebd 6cb6 debd bcad 6e3d a6c0 29bc
000000c0: 2909 0a3d 47fe dfba 1214 babd 4272 83bd
000000d0: 691a 3ebd 6e81 09be a665 13bd 81ea 8e3d
000000e0: b166 643d 6e43 62be 4199 8c3c 0359 063d
000000f0: ac71 453d d629 48bd 515d 95bd 1cd9 12be
00000100: d766 4cbd 0008 383d 9a45 773c 7277 07be
00000110: befa 123d e5e7 5bbe a2cd a3bc ddde 98bd
00000120: 7e36 023d c21a 613d 9452 eb3c 868d c63d
00000130: 8a94 11be 8f79 8dbd ab23 743d 15a2 e03c
00000140: ba47 213d ee26 22bd 15b2 9e3d 2219 313c
00000150: 2d2e 9cbb 7808 cebc a89a e7bd 7128 3abd
00000160: 7d9b c3ba 8c91 1dbe 6631 3fbd e822 db3d
00000170: 6097 50bc 721b 3cbd 9f92 663d e749 013e
00000180: b68a 363d 8c54 353b 80a4 61bd 39bd b0bd
00000190: 4fab 96bd b479 633d 01a1 4abe 5712 31bd
000001a0: 50ab f03c aa85 373d 64ca 5dbd f576 703d
000001b0: a1d3 2abe 19ba e5bc 5398 8f3a 78ab 19be
000001c0: 413d bdbd c6db 20be 6c42 24be db4d 733b
000001d0: ba00 8c3c f4e3 a4bc 1503 0f3d 5c2d cc3c
000001e0: 75d4 c43c c4a8 9a3d 8bf1 f73d 4197 65bc
000001f0: 2474 20be a6d1 4cbe aa0b cd3d f6d8 08be
00000200: a753 29be a86d 563b 66bd ed3b a710 dd3c
00000210: f564 753b bb67 3cbe 09be cc3b 30f9 a03c
00000220: 3bc9 03bb b023 f5bd 6d44 d33d 4e98 e0bd
00000230: 0bc6 563d 34c3 25bb 5c4d 76bd ca1e 913c
00000240: b72a ddbb c53c 0cbe 421d 103d 3b81 263d
00000250: 7333 08be ec2e db3d 4705 1abe 313b 253d
00000260: f96c 9b3d e57d 153d 8060 c73d f3fc 3e3d
00000270: 664e dc3d 8870 29bd 28e8 20bd ee00 a83d
00000280: 580c 39be 7536 d43d 155f a93c 420c 7fbe
00000290: 982c 1bbe 50ce 66be 4afd 14be ed62 9fbd
000002a0: 6048 2f3d c0a7 f2bc 4f00 fabd 3c23 3dbd
000002b0: bac1 03bb ccb8 8a3c d6c5 cabd c28f 5fbe
000002c0: 2373 f8bd 1544 c73c e3cf 0ebe b4b8 9a3d
000002d0: 80e2 d7bd 3af4 84bc c842 5f3d dda8 493c
000002e0: 91c8 053e da06 f53d c169 183d fcfe 0bbd
000002f0: 999a 62be 475c a33d 7a69 72bd ef75 8b3c
00000300: 5e99 fb3c 8542 563c 4da1 71bd 7be7 223d
00000310: 0643 db3d 5f72 25bd 0f5a 5dbe c0d4 27be
00000320: cac6 883d e957 023e 3ec6 0b3e a01e 13be
00000330: 764b 2cbe 7e52 9bbd e581 32be 0db0 ac3d
00000340: 6965 843d 9cc1 643d 224d 8bbd 7ffa 383c
00000350: 9832 0f3e faae 863d 645e 53bd 61d1 96bd
00000360: d023 03be 27d4 093d 3115 61bd 54b4 1bbd
00000370: 3064 9d3d b508 59bd 103f 30bd 7aac 1cbd
00000380: 6a4c c93d c258 9fbc d2ee 27bd e3ba db3c
00000390: 81b9 0abc bba3 78bc 7ac9 0ebd 4a57 2fbd
000003a0: 6f5f c83d e791 ccb8 f751 8dbd 949d 4fbe
000003b0: 03e3 c5bd d7b5 a9bc 253c 8f3d cf5a f93b
000003c0: f89c c4bd f97e cd3d 46ea 19be 4f4c e73c
000003d0: ad1f 63ba 7b92 393d 9922 993b 64fd 08be
000003e0: 7351 60bc ae71 71bd 7f46 febd bf89 dbbc
000003f0: 61f7 bf3d 4d50 60bd b784 f03d b192 14be
-0.0962883 -0.12426169 -0.029095538 0.04938113 0.017560527 0.05885853 0.037887607 0.051551767
-0.19514073 -0.10862157 0.018323338 -0.04819602 -0.031307124 -0.005221709 0.011120247 0.13120596
-0.0833678 0.028496386 -0.048753817 0.05063033 -0.1170901 -0.05122912 -0.029408848 -0.045048445
-0.006786616 0.11288061 0.020645432 -0.11807308 -0.11652523 0.01505419 -0.05007421 -0.07360841
-0.0132679045 -0.056668207 -0.18910293 0.121271715 -0.16469927 0.07152258 -0.025691424 0.031759724
-0.19362172 0.011718678 0.065669455 -0.11001591 -0.054406185 -0.10874638 0.058271155 -0.010360872
0.033700142 -0.001708933 -0.09085859 -0.06418277 -0.046411905 -0.1342828 -0.03598561 0.06978322
0.055761997 -0.22096035 0.01716292 0.032799732 0.04820411 -0.048868023 -0.07293189 -0.14340633
-0.049902763 0.044929504 0.015092278 -0.13229159 0.035883658 -0.2147518 -0.019995514 -0.07464383
0.03179025 0.05495716 0.0287259 0.09694962 -0.1421682 -0.06907951 0.059604328 0.027421037
0.039375044 -0.039587907 0.0774881 0.010809215 -0.004766247 -0.025150523 -0.11308795 -0.045448724
-0.0014923658 -0.15387553 -0.04667797 0.10700017 -0.012731403 -0.04592461 0.056292173 0.12625848
0.04456588 0.0027668802 -0.05508852 -0.08629841 -0.07356893 0.055535987 -0.1978798 -0.04323038
0.029378563 0.044805206 -0.054148093 0.058707196 -0.16682293 -0.02804284 0.001095543 -0.15006816
-0.09240199 -0.15708837 -0.16040963 0.0037125263 0.01709019 -0.020128228 0.03491505 0.024923973
0.024027089 0.07551721 0.121066175 -0.0140131125 -0.15669304 -0.2000185 0.1001199 -0.13364014
-0.16535817 0.0032719169 0.007255244 0.02698548 0.0037444208 -0.18398945 0.00624824 0.019650072
-0.0020108956 -0.119696975 0.103157856 -0.1096655 0.052434962 -0.0025293352 -0.06013237 0.017714877
-0.006749477 -0.13695057 0.035184152 0.040650588 -0.13300876 0.10702309 -0.15041076 0.040339652
0.07589144 0.036497016 0.09735203 0.04662795 0.10757141 -0.041367084 -0.0392839 0.08203302
-0.18071115 0.10361949 0.020675221 -0.2490702 -0.1515373 -0.2253964 -0.14549747 -0.077825405
0.04279363 -0.029621005 -0.1220709 -0.04617618 -0.0020104484 0.016933821 -0.099010155 -0.21832183
-0.121313356 0.024324456 -0.1394649 0.075547606 -0.10541248 -0.016229738 0.054507047 0.012308327
0.13064791 0.119641975 0.03721023 -0.03417872 -0.22129287 0.07976585 -0.05918262 0.017024009
0.03071278 0.013077383 -0.05899172 0.03977154 0.10706143 -0.040392276 -0.21616386 -0.16389751
0.06678541 0.12728848 0.13649842 -0.14367151 -0.16825661 -0.075840935 -0.17432363 0.084320165
0.06464655 0.055848703 -0.06801821 0.011290192 0.13984144 0.06576343 -0.05160369 -0.073641546
-0.1280663 0.03364959 -0.05495185 -0.03801377 0.07685125 -0.05298682 -0.04302889 -0.038250424
0.09829028 -0.019451503 -0.04099924 0.026822513 -0.008467079 -0.015175755 -0.03486011 -0.042807855
0.097838275 -9.7546545e-05 -0.06900399 -0.20274955 -0.0966244 -0.02071659 0.069938935 0.007609702
-0.09600252 0.10033984 -0.15030774 0.028234629 -0.0008664083 0.04530571 0.004673314 -0.13377911
-0.013691294 -0.058946304 -0.1241579 -0.02679908 0.09373356 -0.05476408 0.11744063 -0.14509083

action_model._discrete_distribution.branches.2.bias f4 [3]
00000000: e43f c2bc 12ae a1bd de5a 063e
-0.023712106 -0.078945294 0.131206

action_model._discrete_distribution.branches.2.weight f4 [3, 256]
00000000: 6c5f df3c cbc9 71bd bf33 e2bd 1f40 53bd
00000010: 8f9c bd3d 6995 883d cedd 44bd b0f1 8b3d
00000020: 7cac f9bb fcb3 9b3d 380a 453d b2f5 a63d
00000030: dcd6 273d d81a cd3c e977 693d 77c3 cabc
00000040: cdf1 c53d 1157 853d 6227 433d e7c9 573d
00000050: 4c9e f23b 3b6b 16bd fbbe 0fbc e609 753b
00000060: 20dc 9b3d 8fb1 003d 2069 393c 70a4 b23b
00000070: cb71 59bb acd9 793d 53b2 88bc bc1a 003d
00000080: 3ccb 933d c28f f43c a22c 853d 9544 bfbb
00000090: cb6f ce3c bf2d 2d3d 518c 913d eada 8cbc
000000a0: c28d 5fbc 4938 153d af8f ad3c a3f4 743d
000000b0: e310 d73d 6d44 443d 318a 2f3d 26aa 8c3d
000000c0: 1143 3d3d f5d8 a2bc 9e71 c43d 3ae7 853d
000000d0: 2c12 0dbd 4d30 33bd a3d0 e3bc 95ef 8c3b
000000e0: c21d 19bd eaf5 28bd 6366 383d bc29 963c
000000f0: 8498 043d 4e8c 713d 495a c0bd 751e f7bb
00000100: 2535 8b3d 48b9 493b 25d6 39bd 7ded 893b
00000110: 21d3 7f3c e79b d8bb 6db2 6cbc 4fa6 083d
00000120: 1353 9c3d 6e34 ca3c bd04 0a3d 5e29 01bd
00000130: fc4a 1dbd 23be 3e3c bddf 973d 8af3 803b
00000140: 214a f53b bb54 9c3d af59 853c 2a41 683d
00000150: a27b 50bc c015 513d 09f4 bb3c a9cb c13c
00000160: f047 9e3d 64d2 533c f865 903d 4b08 403d
00000170: cd99 433d bbee 5a3d b16c 093d 6fc4 c13c
00000180: ba9e 89bd adb7 71bd 0535 b2bd 8d92 dbbc
00000190: d84c 733d 8846 213d ded4 903d 6887 0e3d
000001a0: 0294 b73d 7b0d 1c3d 3726 ea3c 1273 623d
000001b0: a726 f13c 0b69 a73d 0e70 973b 8688 af3d
000001c0: 9dae eb3c 57e9 99bd 5af8 6e3c 43a8 5c3d
000001d0: 4e2e 5e3d 3663 af3d cd56 78bd c219 3bbd
000001e0: e7fa 153d a125 e03c 21c2 6fbd 7943 a43d
000001f0: be01 dabc 7a8b 963b ab65 023d d091 b43c
00000200: e134 8f3c dbb4 fbbd 745f a03d 7d10 883c
00000210: 062d 8dbc 2446 fd3b 9713 823c 2cd1 933d
00000220: d203 873c e54e 96bd af28 9f3d 7dda 96bb
00000230: 6aab 1c3e e161 153c f985 633d b155 c63d
00000240: 4206 92bd 8aa7 0f3d 1fb3 7d3d 6a39 72bd
00000250: baf3 2cbd 1fc4 a53c 140e 813c f956 343d
00000260: cfde 793c 7910 503d 6ca6 903d c20c 073d
00000270: 1ac4 be3d 3444 733c 5e3c a03d 6ef6 9e3d
00000280: 6865 66b8 f29b 9f3c a9c2 113d ec7a d83c
00000290: 971f 783d 4a7f 25bd 6011 603c a7c0 1fb8
000002a0: d6cd c3bc 22ad 043e b332 abbd 6f94 bb3c
000002b0: a96a 5e3c 9dbf 403d 6793 293c bcf7 9a3d
000002c0: e8e1 29bd 9ee1 1bbe 459f 953c 22eb 523d
000002d0: 76e6 c4ba 113b 1a3e 2e38 03bd bbb3 533b
000002e0: 9870 58bc 9b98 8c3c e0d1 043d 6a58 3abd
000002f0: 3a0e 9d3c 86d9 af3c bc26 7dbd 11f9 663c
00000300: 1c55 4b3d 6827 acbd 3410 263e fdb6 983d
00000310: 43e3 2fbc 2c21 7b3c 03d5 23bd d718 ff3c
00000320: ab66 b1bd 65e4 ac3b b170 393d 7c29 573d
00000330: 9da0 f4bc 37eb cfbd 8f1d 62bc 5650 b43d
00000340: 93aa 0ebd f297 8f3d 04d4 debc f3f4 be3d
00000350: 9dcb 823d d515 643c 74a3 4a3d 123e e23c
00000360: 816a b93c 2359 61bc aa9b cebb ab3e bc3c
00000370: 7bb0 91bb d19c 25bd eb39 a63d 4dce 7f3d
00000380: dfa8 1b3d 09ad a73c c65f a93c 0ad9 03bc
00000390: f263 6c3c fdcd 443d 35d9 adbd 99aa 733d
000003a0: 912e 0dbd a89f f0ba 1533 a8bd 1e78 293d
000003b0: c6ad 893b b15e d33c b78d 083e 7eca a33c
000003c0: 2233 bc3c c186 09bd a9d4 8d3d 6d9c cb3c
000003d0: 904a a1bd ac81 ab3d f2cf 09bd 7a4c e83c
000003e0: 0246 553d 3dbb b93c e953 f33c ea14 5b3d
000003f0: da6f 25be 67d1 ae3c 617b 3f3c 485d 923c
0.02726718 -0.059030335 -0.11045026 -0.051574823 0.09258377 0.06669123 -0.048063092 0.068332076
-0.0076194387 0.07602689 0.04810545 0.081523314 0.04097639 0.025037214 0.05699912 -0.024751408
0.096652605 0.06510747 0.04764498 0.052682783 0.0074041244 -0.036723357 -0.008773561 0.0037389933
0.07610345 0.031419333 0.011316568 0.0054517314 -0.0033179398 0.060998604 -0.016686594 0.031275496
0.07216498 0.029853705 0.06502654 -0.005837033 0.025199791 0.042279955 0.07106841 -0.01719423
-0.013644638 0.03643063 0.021186678 0.059803616 0.10501268 0.04791682 0.0428564 0.06868391
0.046206538 -0.019878844 0.09591983 0.065382436 -0.03444116 -0.043747235 -0.027809447 0.0043010213
-0.037381895 -0.041250147 0.04501952 0.018330447 0.032372013 0.058971696 -0.093922205 -0.0075414726
0.06797246 0.0030780602 -0.04537024 0.004209219 0.015614302 -0.006610382 -0.014446837 0.03336173
0.07633033 0.024683204 0.033695925 -0.03153359 -0.03840159 0.011642012 0.074157216 0.003935282
0.0074856435 0.076333486 0.016278116 0.05670277 -0.012724789 0.051046133 0.022943513 0.023656683
0.07728565 0.012928579 0.07050699 0.04688291 0.047754098 0.053450327 0.03355092 0.023653237
-0.06719728 -0.059013058 -0.08701519 -0.02680328 0.059399456 0.039373904 0.07071851 0.034797102
0.08963777 0.038098793 0.028582675 0.05528552 0.029437376 0.08174332 0.0046215123 0.08570962
0.028769786 -0.07515209 0.014585579 0.053871404 0.05424338 0.08563845 -0.060629655 -0.04567886
0.036616232 0.027361693 -0.058534745 0.08020682 -0.026612159 0.0045942636 0.03183524 0.022042185
0.01748127 -0.12290355 0.07830706 0.016609425 -0.017233383 0.0077293087 0.015878482 0.07217631
0.016481314 -0.07339267 0.07771432 -0.0046036826 0.15299764 0.009117574 0.05554769 0.09684313
-0.071301 0.035071887 0.0619384 -0.059136786 -0.042224623 0.02023512 0.015753783 0.044028256
0.015250876 0.05079696 0.070629925 0.03297115 0.09314747 0.014847804 0.07824014 0.077618465
-5.4930715e-05 0.01948354 0.035586033 0.026425801 0.060577 -0.040404595 0.0136760175 -3.8087976e-05
-0.023901861 0.1295667 -0.083592795 0.022897927 0.013575234 0.047057737 0.010350085 0.07566783
-0.041475207 -0.15222785 0.018264422 0.05149377 -0.0015022296 0.15061595 -0.032036 0.0032303173
-0.013210438 0.017162612 0.032426715 -0.045494474 0.019171823 0.021466028 -0.061804518 0.014097468
0.049641714 -0.08405954 0.16217119 0.07456777 -0.010735336 0.015327733 -0.039998066 0.031139774
-0.086621605 0.00527625 0.045273487 0.052529797 -0.029861743 -0.101522855 -0.013800993 0.08804385
-0.03483064 0.07011403 -0.027200706 0.09324064 0.063864924 0.013921221 0.049472287 0.027617488
0.022633793 -0.013754162 -0.0063051777 0.022979101 -0.004446087 -0.040432755 0.08116516 0.062452603
0.038002845 0.020468252 0.020675551 -0.008047352 0.014428126 0.04804801 -0.084886946 0.059488866
-0.034468237 -0.0018358128 -0.08212868 0.04137432 0.0042016236 0.025801988 0.1333531 0.019994017
0.0229736 -0.033575777 0.06925327 0.024854863 -0.0787555 0.08374342 -0.033645578 0.02835678
0.052068718 0.02267229 0.029703097 0.053486742 -0.16155949 0.021340085 0.011687131 0.017866746

action_model._discrete_distribution.branches.3.bias f4 [2]
00000000: 2a93 fdbd 2893 fd3d
-0.12381585 0.123815835

action_model._discrete_distribution.branches.3.weight f4 [2, 256]
00000000: e2fa 993b 4688 373d 27dc 653d 7684 9b3b
00000010: ec49 56bc c285 5a39 1eb7 36bd a146 7e3d
00000020: 9885 bbbb 4f7c bcba 82f7 153c f73a 01bc
00000030: 14f5 acbb cfa8 a2bc 090b 3f3c 1638 63bc
00000040: 98aa 003c dc1d cbbc 5991 bdbb 2796 04bc
00000050: 9437 20bd a467 21bd 058b d9bc e921 2abc
00000060: 670e 9ebc 3143 68bc b101 37bc d487 42bc
00000070: 549b bebc 12b2 d9bc 90d8 853c 27ee 0dbd
00000080: 95af 093c 89d0 2cbc b200 fd3c 65d9 e2bb
00000090: d162 9abd 8803 323c a8f3 ec3c 2a95 00bd
000000a0: a841 abbd dbbf 98bc 8352 2d3c 8108 83bc
000000b0: 5411 91bc 6514 2ebd 82a0 fcbb 2aa0 72bb
000000c0: a03b 253c 8e69 01bc c729 66bc f914 5b3b
000000d0: 0cfb 88bd 707f 4f3b b33b c8bc f669 ae3b
000000e0: c190 ecba 5e11 13bd e794 8bbb 5f9a ac3c
000000f0: 0d3d 853c af0c f437 2c89 183d 8e02 4fbd
00000100: 7d5f 9d3d 342e 9dbb 4b44 143b f32a 2abd
00000110: 2813 12bd 60d6 83bc 50d5 bdbc cfba 4fbd
00000120: 5667 17bc b890 7d3d 2d28 793a cccb 433d
00000130: da00 9f3c edb3 583a 1aff 2eba 09be babc
00000140: 9295 09bb ecf1 14bd 6054 4ebd f9cb f8bc
00000150: 1df9 86bc cc4c 73bc 6431 09bd f3c3 9bbc
00000160: fc69 163c 747b adbd 6bb2 15bd 1d8a 37bc
00000170: 0fd7 d3bc 765f 33bd 3126 48bc e85c df3a
00000180: e448 79bb cb06 f7bc 36b4 723d b4c1 4abc
00000190: 476a a73c 966a 13bb 2cf5 fd3a b184 68bc
000001a0: ad10 1a3c 198d c83c 1125 ab3b cb81 15bd
000001b0: d5a9 01be 4f69 1fbc a0ba 473d 7720 0a3d
000001c0: a6ae 893c f363 f93c 2057 c4bd 78ac 283c
000001d0: e24a c13b 0a1e 863a 3a70 8bbc 9acf 5bbd
000001e0: ed40 e93b 596f 8ebc a0ab 04bb 9a2b 8bbc
000001f0: 4235 79bd ddab 653b 5db8 933c 0361 5a3c
00000200: 4844 acbd 1520 a4bc dc79 50bc 7968 523d
00000210: 97d4 933c acba b5bd 1b0a b7ba 8510 fabc
00000220: 462f 8bbb 2de7 9e3d 2c0b 94bc a400 55bd
00000230: 67bd 84bc 6295 a23c 55e5 49bc d2ed 67bc
00000240: 89f0 7e3d ae20 5fbb 88e1 3cba 8719 aabc
00000250: 3cf9 85bb d5c5 493c 3465 3dbd bd77 01bc
00000260: e298 be3c 5abb 48bc 40cf 51bb 6ecd 523c
00000270: 3c66 2f3c 6e01 8d3c 0e58 4d3c 6d1a 77bc
00000280: b334 1f3d fb50 af39 1159 363c baf8 46bd
00000290: 8109 15bd 513b 4abd a3be 56bd 8e28 b53b
000002a0: 4b94 3abb 95e5 debc 6b1e b13c 2174 913c
000002b0: 6159 4b3c 2c26 c4bc 3c44 1a3d c922 4f3c
000002c0: 92eb 32bd 3d68 5dbc 88b8 e9bd 7013 71bb
000002d0: b02a 9d3d ac8c 40bc 6184 53bc 79c0 b3bc
000002e0: 9984 a7bc 10e0 b4bb ceb0 8c3c fe41 13bd
000002f0: 9a19 76bd 146a b8bb 15c3 4b3d 5b95 ce3b
00000300: 0bc3 223c 426b 7abd 75e7 5ebc 04c5 b9bb
00000310: 225f 4c3c 2d4a 153d d82f 2bbd e96b 77bd
00000320: 9823 78bc 4517 bd3b 9583 143c af42 a63d
00000330: 33f2 b6bc afe4 97bd e915 1ebd 8e3e 5f3b
00000340: ead7 0fbd 603a fd3b 6846 b93c b117 15bc
00000350: c457 a23b c793 e63c 2447 8d3b cb33 09bb
00000360: 595d f93c a99b 09bc eb8e a4bc 8746 11bd
00000370: 724d 893c 0945 c2bc 85ec 723b 5c06 07bd
00000380: 4b53 903c 7307 d83b f6f3 7b3d c351 063c
00000390: 7c8d 703b 7916 313c a05b f8bc 1097 d5b9
000003a0: 10ee 773b e194 1bbc 6940 4b3d 220a 88bc
000003b0: aeba 4e3d 6ca8 fcba 7ad5 6ebc 00fd 743a
000003c0: 97fc c23d 0f3e 8a3c d709 843d 6fa0 35bc
000003d0: 8aed dd3b 5435 383d 0fde 273c 29c4 f8bd
000003e0: a7e2 c6bc 9cd3 883d 8e56 813d 137c 7d3c
000003f0: 5fe4 eb3b c3de 36bc 8966 afba 2ca1 e6bd
0.004699097 0.044807695 0.056118157 0.004746015 -0.013079148 0.00020839929 -0.044608228 0.062079076
-0.0057227127 -0.0014380309 0.009153249 -0.0078875935 -0.005278239 -0.019855885 0.011660346 -0.013868352
0.007853173 -0.024794511 -0.005785149 -0.00809244 -0.039115503 -0.03940548 -0.026555547 -0.010384061
-0.019293977 -0.014176176 -0.011169837 -0.011873204 -0.023267426 -0.026574168 0.016338617 -0.034650948
0.008403678 -0.0105477655 0.03088412 -0.006922888 -0.07538379 0.0108651 0.028924778 -0.031392254
-0.08362132 -0.018646171 0.010578754 -0.015995266 -0.017708458 -0.04249992 -0.0077095637 -0.0037021735
0.0100850165 -0.007898701 -0.014048046 0.0033429249 -0.066885084 0.0031661652 -0.02444253 0.00532269
-0.0018048511 -0.035905235 -0.004259694 0.021069704 0.016264463 2.9092973e-05 0.037240192 -0.050539546
0.076842286 -0.0047967676 0.0022623714 -0.041544866 -0.0356628 -0.016093433 -0.023173004 -0.050715264
-0.009240946 0.061905593 0.0009504583 0.047801778 0.019409586 0.0008266557 -0.00066755863 -0.022795694
-0.0020993692 -0.036363527 -0.050373435 -0.0303707 -0.016476208 -0.014849853 -0.03349437 -0.019014334
0.009180542 -0.084708124 -0.036547106 -0.011202362 -0.025859384 -0.04379221 -0.012216137 0.0017041238
-0.003803783 -0.030154606 0.059253894 -0.012375284 0.02043642 -0.002249395 0.0019375435 -0.014191792
0.00940339 0.024481343 0.0052229245 -0.036500733 -0.12662442 -0.009729697 0.048761964 0.033722367
0.016806912 0.030443167 -0.0958693 0.010295026 0.0058988193 0.0010232341 -0.017021287 -0.05366478
0.0071183355 -0.01738708 -0.0020243898 -0.016988564 -0.060841806 0.0035045065 0.018032247 0.013328793
-0.08411461 -0.02003483 -0.012724366 0.051369164 0.018045707 -0.088734955 -0.0013964804 -0.030525455
-0.004247579 0.07758937 -0.018071733 -0.052002564 -0.016203595 0.019846622 -0.012322743 -0.014155822
0.06224111 -0.0034046578 -0.00072052376 -0.020764126 -0.004088549 0.012315233 -0.046239093 -0.007902083
0.02326626 -0.012251699 -0.00320144 0.012866361 0.010705527 0.017212596 0.012533201 -0.015081984
0.038868617 0.00033438936 0.0111296335 -0.048577048 -0.036386017 -0.049372975 -0.0524279 0.005528516
-0.0028469737 -0.027209083 0.02162095 0.01775557 0.012411446 -0.023943983 0.03766273 0.012642571
-0.04368169 -0.013513622 -0.1141215 -0.0036785267 0.076741576 -0.011752289 -0.01290998 -0.021942364
-0.02044897 -0.0055198744 0.01717415 -0.035951607 -0.06008301 -0.00562788 0.04974659 0.0063044257
0.009934197 -0.061137445 -0.013604988 -0.005669238 0.012473853 0.036447693 -0.041793674 -0.060405646
-0.015145205 0.005770596 0.009064575 0.08118188 -0.022332286 -0.07416665 -0.038595114 0.0034064385
-0.03511802 0.007727906 0.02261658 -0.009099887 0.00495431 0.028146638 0.004311459 -0.0020935412
0.03044002 -0.008398929 -0.02008768 -0.03546765 0.016760562 -0.02371456 0.0037067246 -0.03296505
0.017617842 0.006592685 0.061511956 0.008198204 0.0036705425 0.010808581 -0.030317128 -0.00040739076
0.0037831105 -0.009495945 0.049621973 -0.016606394 0.050471 -0.0019276268 -0.014577264 0.0009345561
0.09520834 0.016875295 0.06447189 -0.011085614 0.0067727016 0.044972733 0.010245814 -0.121467896
-0.024277998 0.06680986 0.06315337 0.015471476 0.007198855 -0.011161509 -0.0013381998 -0.1126121

discrete_action_output_shape f4 [1, 4]
00000000: 0000 4040 0000 4040 0000 4040 0000 0040
3.0 3.0 3.0 2.0

network_body._body_endoder.seq_layers.0.bias f4 [256]
00000000: ddc4 12ba a0ce 01be 7270 2abe 24c3 c13d
00000010: 7202 50be 1ca5 523d f7d7 55bc c113 ffbd
00000020: 56dd 683d 41f7 ac3c 99c3 66bd 5b6d 5fbd
00000030: d5ea 27be 7e62 f9bd 8e50 c3bd 989d dd3d
00000040: 4785 9dbd 234f 5fbe cfd5 e6bd 0e2c 263d
00000050: decd 0c3c b85e c0bb ee68 0bbe bcd3 663c
00000060: b90f 3b3d 2bd4 ecbd 825a 7bbe a855 043e
00000070: 29fa 97bc dc15 78bd 8e06 efbd 0863 123c
00000080: 8eee a63c dfe5 24be 1941 ffbd f9a1 0ebe
00000090: 359e ba3b 9bea dfbd 9e1a 3c3b 4fc3 45bd
000000a0: 4d5a 3d3d fa10 2cbd 08cb 18be 89d3 08bc
000000b0: d95d bb3c 9d39 c53c 9c31 1ebd 2437 c53d
000000c0: e5ed 0e3d 2f21 e0bc 86db a6bd 6119 38be
000000d0: 3f43 d8bb 0efc 1dbe b218 6abd 003a 5cbd
000000e0: be7c 0ebe cd41 16be 4cfb b6bb 87a9 d5bd
000000f0: 0d45 31bd 51d3 2a3e f665 6fbc d48f 29be
00000100: 7811 cabd 2c4c 46bd 6087 12be cc34 07bd
00000110: 3020 7c3d 6fb1 1bbd 4387 54be 9051 43bd
00000120: 4e90 013d f8c6 09be c04f dbbd d5f9 d83d
00000130: 208f 73bd e675 813c 54a2 3ebe aef3 193b
00000140: 3dc2 90bd b706 0ebc 5d58 43bd d3ea 35be
00000150: 82d1 2abd f2e4 06be dc3e debc f5a8 9f3c
00000160: a856 abbc 31e1 5cbd 319c a73c 293c cfbd
00000170: bac3 cd3c d7cc b9bd 9399 b1bc 2626 d1bd
00000180: 4f34 0cbe 7003 3fbe 9d37 a73d 97c5 bebd
00000190: 632d 22ba a2ec 82bd 866f aebd ef51 e1bd
000001a0: 4dd6 d5bd 974e 67bd 94af 92bc aae1 30be
000001b0: 095f 02bb 01c9 97bc 4ba9 fabd 203e b1bd
000001c0: 1329 01be 0141 46bd c6e3 f2bc e2b2 b3bd
000001d0: a272 55bc c597 f2ba cfe5 143d fb4c 91bc
000001e0: 189a 2cbd 1314 36be dcd4 e73c f4e4 a2bd
000001f0: 96f7 6e3d 152f 233d 4bd6 31bc 14a6 89bc
00000200: 6768 3cbe 85ca 8d3d 1f1f 66be d12c 43be
00000210: a4e5 6bbd 201a 1e3d f2e7 5abe 4ff4 b6bd
00000220: 894c d7bd 15c8 f7bc 7410 08be aab3 07bd
00000230: 8eb0 af3d 038b 56bd 94fe c2bd 136a 92bd
00000240: 567e 8e3d 4d7e 92bd 1ad0 53be 4793 62be
00000250: d2c7 f9bd 1258 dabb 459c 00be 0eda 403d
00000260: 20a7 48bd be9c 3d3d e305 b7bd 2802 573d
00000270: ee65 c8bd 058c 633d 8830 d3bd 3754 9ebd
00000280: 1cfc cdbd 51b0 c2bd ed42 6e3d 0b01 0dbe
00000290: 3686 24be 53e8 d2bc f750 f93d 93dc a0bd
000002a0: 9375 0cbd c02a bb3c dacc 1cbe 0517 e23d
000002b0: c110 473d d32d ce3c 235c 00be 5516 afbd
000002c0: 58ed 45bd 6489 f6bd daa8 503d 6be7 b6bd
000002d0: 0282 003e 2c50 4ebd c771 1fbd fbd5 24be
000002e0: ef82 bc3d 777c f6bd 8522 3bbe d45a b33d
000002f0: 9031 efbd 2f71 b4bd c253 44be 4081 603d
00000300: afdd ddbd 0baa 45bc e01f f0bc 6c29 0c3d
00000310: 06f9 c0bd 7745 babd 81c7 1cbc ff24 9f3d
00000320: 5a20 8f3d 69b1 aabd 4df3 73bd 2a24 31bc
00000330: 9ef2 1fbe fb53 4bbe e9b9 3bbe 13c0 af3d
00000340: fdb9 1bbe b290 31bd 6fbd dd3c c372 823d
00000350: 1512 58b9 024b bfbd 4dd6 05be d004 29be
00000360: 689e 19be 8c26 a3bc 8c76 9abd 3b50 18bd
00000370: 87f8 61bd 972d 40bc 702a 02be 056e cebd
00000380: 5b7e df3d abe7 5c3d abb9 60bd 617e 0ebd
00000390: 028f 313d e6ce 84bd cc99 39be 2ef9 f3bb
000003a0: 8fe1 d3bd eaf8 1bbe 14bf febd 404e 3cbe
000003b0: 6d55 cbbd 2f4b c1bd 694d ce3d bb6c 55be
000003c0: 7be7 30bd 492e c1bd a5f4 603b 9bc1 1a3e
000003d0: 97c0 1ebd 8042 b3bd b67d 9c3c e555 2e3d
000003e0: 2647 32bc c25a a33c fd32 43bd a9aa b1bb
000003f0: 10e5 42bb 1645 50bd 5721 783d 40f5 31be
-0.0005598793 -0.12676477 -0.16644457 0.09461048 -0.20313433 0.05142699 -0.013051978 -0.1245494
0.056851707 0.021113994 -0.05633888 -0.05454765 -0.16398175 -0.12176989 -0.09536849 0.10821074
-0.07691436 -0.21807532 -0.112712495 0.040569358 0.008594004 -0.0058706664 -0.13614246 0.014088567
0.04566929 -0.11563905 -0.24546245 0.129233 -0.018551903 -0.06056772 -0.11671172 0.008934744
0.020377424 -0.16103314 -0.12463588 -0.13928975 0.0056951293 -0.10933419 0.0028702389 -0.048281964
0.046228696 -0.042008378 -0.149212 -0.008351215 0.022871898 0.024075324 -0.03862153 0.09629658
0.034894843 -0.027359573 -0.081473395 -0.17978431 -0.0065998132 -0.15428182 -0.057152458 -0.05376625
-0.13914773 -0.14673539 -0.005584156 -0.104327254 -0.043278743 0.16682173 -0.014611712 -0.16558772
-0.09866613 -0.048412487 -0.14309454 -0.033009335 0.061554134 -0.03801101 -0.20754723 -0.047685206
0.03163176 -0.13454807 -0.107085705 0.10594527 -0.059462667 0.015803289 -0.18616611 0.0023491192
-0.07068298 -0.008668593 -0.04769169 -0.1776536 -0.04170371 -0.13173273 -0.027129583 0.019489745
-0.020915344 -0.053925697 0.02046022 -0.101188965 0.025117744 -0.09072273 -0.021679675 -0.10212354
-0.13691829 -0.18653655 0.08164904 -0.09315031 -0.0006186573 -0.063927904 -0.08517365 -0.11001956
-0.10441265 -0.056471433 -0.017905988 -0.17273584 -0.001989307 -0.018528463 -0.12239321 -0.086544275
-0.12613325 -0.048401836 -0.029649626 -0.087743536 -0.013027819 -0.0018508366 0.036351975 -0.017736902
-0.042139143 -0.17781095 0.028299741 -0.079538256 0.058341585 0.039839823 -0.010854314 -0.016802825
-0.18399201 0.06923393 -0.2247281 -0.19060065 -0.05759205 0.038599133 -0.21377543 -0.08933317
-0.10512645 -0.030246774 -0.13287526 -0.033130325 0.08578597 -0.052378666 -0.09521213 -0.07149138
0.069576904 -0.07152996 -0.20684853 -0.22126494 -0.12196316 -0.006663331 -0.12559612 0.047082953
-0.048987508 0.04629206 -0.0893667 0.05249229 -0.097850665 0.055553455 -0.10311991 -0.077309065
-0.10057852 -0.09506286 0.058169294 -0.13769929 -0.16066822 -0.025745546 0.12173646 -0.07854571
-0.034291815 0.022847533 -0.1531252 0.11039547 0.048599962 0.025168335 -0.12535147 -0.08549181
-0.04832205 -0.12037924 0.05094228 -0.08930858 0.12549594 -0.050369427 -0.038926866 -0.16097252
0.09204661 -0.120354585 -0.18274887 0.087575585 -0.11679375 -0.088106506 -0.19172576 0.054810762
-0.108332984 -0.012064467 -0.029312074 0.03421919 -0.094224975 -0.090952806 -0.00956905 0.07770728
0.069885924 -0.083346196 -0.0595582 -0.010811845 -0.15619895 -0.19856255 -0.18332638 0.08581557
-0.15207668 -0.043350883 0.027067868 0.06369545 -0.00020606101 -0.093404785 -0.1307003 -0.16505742
-0.15001833 -0.019915842 -0.07542142 -0.03718589 -0.055168655 -0.0117296195 -0.12711501 -0.10079578
0.10912772 0.053931873 -0.054864567 -0.034788493 0.043349274 -0.06484775 -0.18125075 -0.007445476
-0.10345756 -0.15231672 -0.12438789 -0.18389225 -0.09928403 -0.09438168 0.100733586 -0.20842259
-0.043189507 -0.09432656 0.0034325507 0.15112917 -0.038757887 -0.08752918 0.019102912 0.042562384
-0.010881221 0.019940738 -0.047656048 -0.0054219556 -0.0029738583 -0.050847135 0.06057867 -0.17378712

network_body._body_endoder.seq_layers.0.weight f4 [256, 11]
00000000: 3b7a 88be 8fbb cc3d 8c92 db3d 0f8b dbbd
00000010: e5db 4b3c 4a3c 8c3e 39a5 19bf bf1c f4bc
00000020: 8a37 c63e 62fb 14be bba0 d33d a8d9 b53e
00000030: 443b b9be 4fa4 22bf f6a7 4dbe 4901 0a3e
00000040: 69ec ba3d 7d30 14bd 8730 bd3e 7ac9 513e
00000050: 5b4c 08bf 69f9 763f effd ce3d c36a a13e
00000060: 5830 9cbb 2cbf a13e 1439 a63e 5817 b0bd
00000070: 189a 103e b961 4bbe ae62 e3be dd3f 1cbf
00000080: 8acf 0c3f 4ed2 6b3e 0994 89bf 2ede 42bf
00000090: 88e2 3d3e 9296 4fbe 7713 1abe d957 f13d
000000a0: 47a4 cebe 6330 a33e e427 31bd c258 1f3c
000000b0: 0edb 86bd 768c f43e 9186 563d dc0f d4bc
000000c0: 7c00 97be f99d 5bbe 9e25 cb3d 9b5b 023f
000000d0: 7bda 0abe 3604 55bd 8b79 fd3e 0170 37be
000000e0: 70a7 603e 7955 023d d2c1 be3d d58c 14be
000000f0: 1cf0 df3e b9c2 2d3f 0403 b7bd 30b8 9bbd
00000100: 6f27 08be 2467 0d3e 44d0 e63d 74af 423e
00000110: 763d 133f 1b2b e93e 684b f33e bbc4 163e
00000120: 0b40 673e b4d9 433e abcd 26bf b75b 25be
00000130: 6be8 9dbd bda9 5d3e 9eb7 d7be 36c4 c13e
00000140: 377b b7be 53e7 3dbe 0f1d 6e3d 5b94 1abe
00000150: f1b5 9bbe 84b0 ecbd 2322 963d 4493 d2be
00000160: fb7b 74bf 79c3 37bf 0140 bc3e 1682 1d3e
00000170: 17ce 45be 0f75 2c3e 0579 09bf f971 993e
00000180: 29f4 a4bc a1da 77bd b041 2e3e 96e8 d63e
00000190: 8a71 2e3f 640f e3be 6e0e ad3d b9b9 473e
000001a0: f99d b33e ccaa ac3e 7c6a 3cbe a224 2ebf
000001b0: d836 863e c076 91be 0f9a 883c a1f5 59bc
000001c0: e502 2cbe 54df 293f 606b 8cbe 3b16 823e
000001d0: d7dc 9cbd 67da 2cbc f893 843e c2de bbbd
000001e0: 0052 a93e 44c1 6f3e 07ae bebd c0ef 8d3c
000001f0: ea23 90be 2167 e4be 31c9 cc3e 4dda de3e
00000200: 2524 c7be ba67 123e bcc7 41bf be1f d43d
00000210: 52c4 a23d dead 4cbe c236 fcbd 66ec 8b3e
00000220: 6cbb 88be 14c5 70be 9bb2 22bf 03a3 bf3e
00000230: 94ad 7ebe 2e8c 013f 6e97 d2bd 7b32 b6bc
00000240: 192a 0dbf daaf a2be e4e5 4b3e 494a bb3d
00000250: 94a0 e23c 1489 9bbe 9aef a63e 56be 3dbe
00000260: 78ac 0b3f da8d fe3e 59cc 32be 7dbb 1f3e
00000270: 5fb2 5bbe 88b7 8cbd ecb5 1ebf e760 b3be
00000280: ac6a 563e 7983 313f cdde 013f d212 443f
00000290: a798 883e c188 46bf 4fb9 89be da14 71be
000002a0: 5a3a df3e d05a 15bf 0296 5c3d df8c d83e
000002b0: c62e c5bd b9e9 313f cf6d 163e e9f8 5f3e
000002c0: e38d 4a3f 418b 903e 313f 943d d156 e4bc
000002d0: d028 b2bd 19f4 04be f50a b2be e5b5 1bbd
000002e0: fa04 abbd cffd ca3c 5637 a93e 2a86 1fbe
000002f0: aaaa 3a3e 642f 16be c9d2 6dbe f25b dcbe
00000300: 36ca a6be d4c4 df3e 8f1d 15bf 5593 96be
00000310: 4a00 093e 5129 8bbe 5c0c e33c a830 673e
00000320: f577 1bbe dd77 aebe 32c6 39bd 9ee2 e1be
00000330: aec7 30be 6b80 93bd 37e3 023f 88a0 1fbd
00000340: 8df9 f13e 80f1 723e 0282 9c3e af86 02be
00000350: 9506 003d bef8 aa3e 3333 343e 9c45 953c
00000360: 3737 53be b705 e93e 7a0c 8b3d 6392 cf3c
00000370: 23fd 13be 2461 00bf 310a 31bf 17eb 1dbf
00000380: b8bd 193d 5d34 0d3c 2875 623f d3f0 203f
00000390: 7d4d aebd e99a e73e bff9 afbd 8ad5 e63b
000003a0: 126b dabd be42 b93e 607b 5d3e 20e7 72be
000003b0: d54e 793e a907 a1be c864 96bd 3ff1 0d3f
000003c0: 11f2 73be b49e 063e 4829 d73e 304d 20be
000003d0: 0606 683e 6cbf 90bb eb36 0d3d 6b05 b93e
000003e0: 9253 e7be f1b6 5f3c 4190 0ebe 561f 23bf
000003f0: af18 a7be b244 93bd 7a10 2cbd 1d6f be3e
-0.26655754 0.099967115 0.10721311 -0.10719883 0.012442564 0.27389747 -0.60017735 -0.029798863
0.38714248 -0.1454902 0.10333391 0.3551762 -0.3617803 -0.63531965 -0.20083603 0.13477053
0.09127123 -0.036179055 0.36951086 0.20487013 -0.5324151 0.9647432 0.10107028 0.31526765
-0.004766505 0.31591165 0.32465422 -0.085982025 0.14121282 -0.19861497 -0.44411224 -0.6103495
0.5500418 0.23029444 -1.0748302 -0.7612027 0.18543446 -0.20272282 -0.15046488 0.11784334
-0.4035971 0.31872854 -0.043250933 0.009725751 -0.0658475 0.47763413 0.052374426 -0.025886469
-0.29492557 -0.2144698 0.09919284 0.5092103 -0.13559906 -0.05200597 0.49506792 -0.1791382
0.21938872 0.031819794 0.09314312 -0.14506848 0.43737876 0.6787525 -0.08936122 -0.0760349
-0.13296293 0.13808876 0.11270192 0.19012243 0.57515657 0.455407 0.47518468 0.14723484
0.22583024 0.19126016 -0.65157574 -0.16148268 -0.07710346 0.21646781 -0.42132276 0.3784501
-0.35836193 -0.18545274 0.05813318 -0.15095656 -0.30412248 -0.11557105 0.0733073 -0.4112798
-0.9550168 -0.7178264 0.3676758 0.15381655 -0.19316898 0.1684153 -0.53700286 0.29969767
-0.020135956 -0.060511235 0.17017245 0.41974324 0.68141997 -0.4434768 0.08450018 0.19504441
0.3508146 0.33724058 -0.18399996 -0.6802465 0.26213717 -0.28410912 0.016675023 -0.013303191
-0.16797979 0.66356397 -0.2742567 0.25407586 -0.07659309 -0.010550118 0.2589414 -0.09173347
0.33070374 0.23413569 -0.09310537 0.017326236 -0.281524 -0.4460993 0.39997247 0.43525925
-0.38894764 0.14297381 -0.75695395 0.10357617 0.079476014 -0.199882 -0.12315132 0.27328795
-0.26705492 -0.2351268 -0.6355378 0.37429056 -0.24870902 0.5060452 -0.10282789 -0.022240868
-0.5514236 -0.3177479 0.19911915 0.09145028 0.02766446 -0.3037802 0.32604676 -0.18529639
0.5456004 0.497176 -0.17460765 0.15598865 -0.21454762 -0.06870943 -0.6199634 -0.35034868
0.2093913 0.69341236 0.5073059 0.7659122 0.26678964 -0.7755242 -0.26899192 -0.2354311
0.43599206 -0.58341694 0.053853996 0.42294976 -0.09628062 0.6949726 0.14690326 0.21872295
0.7912275 0.28231242 0.07238615 -0.027873429 -0.086991906 -0.12983741 -0.34773985 -0.038015265
-0.083505586 0.024779228 0.3305003 -0.15578523 0.18229166 -0.14666516 -0.2322494 -0.430389
-0.3257615 0.43704855 -0.5824823 -0.2940928 0.13379017 -0.2717996 0.027715854 0.22577155
-0.15182479 -0.34075823 -0.04535503 -0.44118208 -0.17263672 -0.07202228 0.5112795 -0.038971454
0.47260705 0.23724937 0.30567938 -0.1274669 0.031256277 0.333929 0.17597656 0.018221669
-0.20626532 0.45512173 0.06789489 0.025338357 -0.14452033 -0.50148225 -0.69156176 -0.61686844
0.037534446 0.008618441 0.88460016 0.6286747 -0.085108735 0.45235375 -0.08592557 0.007044499
-0.10664953 0.36183733 0.21629095 -0.2372098 0.24346478 -0.31451157 -0.07343441 0.5544624
-0.2382281 0.13146478 0.42023683 -0.15654445 0.22658548 -0.0044173505 0.034476202 0.36136946
-0.45180947 0.0136544565 -0.13922216 -0.6371969 -0.3263602 -0.07190837 -0.0420079 0.37194148

network_body._body_endoder.seq_layers.2.bias f4 [256]
00000000: 7e5a 56bc 2db9 e93b 5613 ebbd 16b1 813c
00000010: c643 f93d aafa 533d 92f1 943d 234f 5ebe
00000020: d05b 6a3d 8d01 a3bd 85ae d63b 8607 a3bd
00000030: cafb 4cbc 134f 013e 837d 2dbc a2f8 29be
00000040: 6429 abbc 3458 b03d afc2 9cbb 2af3 e5bd
00000050: 5b3a 123e f040 783c 6bc5 c53d 9379 423d
00000060: 7b90 b03d 7d65 c13d 61a0 a2bd f6e9 283c
00000070: 98e2 b23d d013 c53d 149c c93c ed2f bf3d
00000080: d5cb a0bc ff51 f03d e23f fe3d 0893 6abd
00000090: c559 523e 7088 30bb 5af5 b9bd 44cd 33bd
000000a0: 596b 303e 5127 933d 6bad f93a dfdc bfbd
000000b0: e748 7c3d c95e a33d 5df3 7dbd 2a7b 31bb
000000c0: 8210 edbc e208 b83d e480 083e 830b 2abe
000000d0: 5aff 9b3d 58fb af3d 35ed ae3d 5309 143e
000000e0: fa8c 04be 794e 033e 790b f03d 69a5 853b
000000f0: 8e69 253d 56a7 f43b 8fe5 98bd 79d5 433e
00000100: 3dc7 cfbd fba8 adbd cbd8 b4bd 4e86 a83d
00000110: cf11 0cbd 83d2 0b3e c2a7 493b 52dd 98bd
00000120: 164e 8fbc ac40 2abe 09d7 f73d 68ab 2abe
00000130: b26b c43d 4caf 5bbd 1bcf ab3d a489 d2bc
00000140: 2732 8f3c dd40 9a3d 6a61 11bc 4789 dc3d
00000150: b545 9c3d 70a5 c43d 2b95 0b3e f9f3 bc3d
00000160: 8885 5bbd e79f ff3d 7719 3c3c 4317 de3d
00000170: 56df 1d3e e7a6 963d 5c0c 9bbd a9c1 83bd
00000180: 9bae f23d bd1e dd3c ea61 f63c 5456 d43d
00000190: fab2 62bc ce9f 64bc 3a8d 8c3d 51a6 973d
000001a0: 6a49 ca3d 3d9f 0cbb c613 72bc c37a 403d
000001b0: 632a 3d3e 2651 71bd d579 3ebe 64ec 903d
000001c0: a240 4fbc eb2f 9d3d ab42 123e 5a4e babd
000001d0: dcb4 60bd eadf afbc 37fb 98bd 896d 293e
000001e0: c894 633c 59c3 983d 92fb 133e 8fc9 91bc
000001f0: 9243 1b3e fad7 ae3d f1c9 16bb 2d08 153e
00000200: a953 2a3e 08f5 023e 87c5 ee3d 5987 85bd
00000210: 920c d63d 158b 273e 11f3 393e 8fda 183d
00000220: 5a6a b53d 5252 1a3c 0dbb f73d 0750 d73d
00000230: 0d65 0abd d892 3abd ca7f d2bd 3435 e13d
00000240: 36a2 aabd c416 2d3e 1fe6 143e 9df6 083e
00000250: 043a 133e baa1 2abd 18d9 123e 26eb abbb
00000260: cae4 68bc a954 083e 1218 a83b 2938 c4bc
00000270: 667c 423d daf3 e7bc e290 2d3e 3491 033e
00000280: 9b27 933d 6a94 193d c50c cebd 63d4 013e
00000290: 2feb 0c3e 0131 293e 7e10 0c3e 14ef 043d
000002a0: 849f d23d d802 aa3d dec0 a03d 10e9 5fbd
000002b0: c678 9c3d b996 f83d 07af 7cbe 4176 d23d
000002c0: 9450 a33d 021e e83d b2d3 de3d e0b8 ad3d
000002d0: 8b06 87be 5566 ec3d b436 62bd 42e6 493d
000002e0: cc71 3ebd 9ac4 ce3d 38d8 bc3c e38b 5c3e
000002f0: 4125 143e cea5 743d d9d5 1fbd 506b e53d
00000300: 4808 08bc ef5c 483e d0c4 ff3d 4de8 c73d
00000310: 6999 7f3c 378d f1bb 2e78 1d3e 371a 8d3d
00000320: e0ae 1d3e 7c3f 50bd 3685 823d 0a93 a3be
00000330: 9d94 033e c968 2d3e f4d8 283e fe4b ec3c
00000340: f991 e33c 4405 dc3d 52f7 b3bd 9d0f d33d
00000350: 3743 fe3d abcd cf3d 3320 af3c 837d cf3d
00000360: 86fa 9bbc 94ae bc3d a12a 963d 4601 bb3d
00000370: ef4b b33c 9507 8f3d bc5a 923d 200e 563d
00000380: cbcf b93c f939 5dbd 1c54 16be 0467 a03d
00000390: cfeb b73d 1c5a 94bd ee53 0e3e c05b 173e
000003a0: 061f 48bd 35ea fe3d 3c1c 953d dabc 2e3e
000003b0: d49a b7bd c8dd f03d f0ea 113e 52c6 443c
000003c0: 0f87 85be baf9 903d 778e a7be 1a24 933d
000003d0: ceb4 733d 0900 95bd 4d80 ed3d 6287 153e
000003e0: 9d20 173e 2d8e a6be 1dc2 e5bd d7cc a7bd
000003f0: bab1 fcbc ff95 9bbd c266 8abc 3662 283e
-0.013083098 0.0071326704 -0.114782974 0.015831511 0.1217113 0.051752724 0.072726384 -0.21709876
0.057216465 -0.0795928 0.006551566 -0.07960419 -0.012511203 0.1262782 -0.010589006 -0.16598752
-0.02089376 0.086105734 -0.0047839503 -0.112280205 0.14280073 0.015152201 0.09656795 0.047479223
0.086213075 0.094431855 -0.07940746 0.010309687 0.087346256 0.096229196 0.024610557 0.09335313
-0.019628445 0.117343895 0.124145284 -0.057269126 0.20542057 -0.0026936792 -0.0908 -0.04389693
0.1722845 0.071852334 0.0019048875 -0.093683 0.061592963 0.07977063 -0.061999667 -0.0027081468
-0.028938536 0.08986069 0.13330418 -0.16605954 0.07617064 0.08592862 0.085413374 0.14456682
-0.12944403 0.12822904 0.11720938 0.0040785563 0.040383868 0.007466237 -0.0746566 0.19124402
-0.101454236 -0.08479496 -0.088304125 0.082287416 -0.03419667 0.13654523 0.0030770157 -0.074640885
-0.017493289 -0.16626233 0.121015616 -0.16666949 0.09590854 -0.053633973 0.083891116 -0.025700398
0.01747997 0.07531903 -0.008873323 0.10768371 0.07630483 0.09601867 0.13631122 0.092262216
-0.053594142 0.12481671 0.011480681 0.108442806 0.15417227 0.07356053 -0.07570717 -0.06433422
0.118497096 0.026992196 0.030075986 0.10368028 -0.013836617 -0.013954116 0.06862874 0.07404769
0.09877284 -0.0021457218 -0.014775222 0.046992075 0.184732 -0.05891528 -0.18601163 0.07076338
-0.012649687 0.07675155 0.14283244 -0.090969756 -0.05485998 -0.021469075 -0.074697904 0.1654569
0.013890453 0.074591346 0.14451435 -0.017796306 0.15162495 0.08537288 -0.002300855 0.145539
0.16633476 0.12788785 0.11658769 -0.06519956 0.10451616 0.1636165 0.18159129 0.03731781
0.088581756 0.009419041 0.12096224 0.10513311 -0.033787776 -0.045550197 -0.1027828 0.10996476
-0.083317205 0.16903216 0.14540909 0.13375326 0.143776 -0.04165814 0.14340627 -0.0052465377
-0.014214704 0.13313545 0.0051298225 -0.02395256 0.047481917 -0.02831452 0.169498 0.1284836
0.071852885 0.037495054 -0.10061029 0.12678675 0.1376159 0.165226 0.13678166 0.032454565
0.102843314 0.08301324 0.078492865 -0.054665625 0.07640223 0.12138123 -0.24676143 0.102764614
0.079743534 0.113338485 0.108802214 0.08482528 -0.2637218 0.11542956 -0.05522795 0.049291857
-0.046495244 0.100960925 0.02305232 0.21537738 0.14467336 0.059728436 -0.0390223 0.11202109
-0.008302756 0.19566701 0.12488711 0.09761105 0.015600541 -0.0073715704 0.15377876 0.06889766
0.15398741 -0.050841793 0.06373064 -0.3194812 0.1284966 0.16934504 0.16489011 0.02884483
0.027779566 0.10743192 -0.08787407 0.10305712 0.12415164 0.1014665 0.021377658 0.10131361
-0.019040357 0.09212986 0.073323496 0.09131102 0.021886794 0.06983868 0.071462125 0.052259564
0.022682091 -0.054010365 -0.14680523 0.07832149 0.08980524 -0.072437495 0.13899204 0.14781094
-0.04885771 0.12447015 0.07280776 0.17064229 -0.08965078 0.117610514 0.14249778 0.012010174
-0.26079604 0.070788816 -0.3272588 0.0718462 0.0594986 -0.07275397 0.11596737 0.14602426
0.14758535 -0.32530347 -0.11218665 -0.08193367 -0.030846465 -0.07596969 -0.016894702 0.16443714
