Assets/Model/0605ChaseMode.onnx (onnx, 291227 bytes, 13 tensors)

action_model._discrete_distribution.branches.0.bias f4 [3]
000000 b1 1f 20 3d 42 81 f0 bc cc 5f 52 bc
       0.039092723 -0.02935851 -0.012840223

action_model._discrete_distribution.branches.0.weight f4 [3, 256]
000000 f5 39 a2 be 72 00 75 3d 6b 47 89 bc 7e a1 fc 3d
       -0.31684843 0.059814878 -0.016757688 0.1233549
000010 cf 32 17 bd b7 df d5 bd 30 80 16 bc ef 4b 08 3d
       -0.03691369 -0.10443061 -0.009185836 0.03327554
000020 f9 a6 72 bb 86 07 8e bc c6 56 89 3c 11 5d 83 bd
       -0.0037025793 -0.017337572 0.01676501 -0.064142354
000030 a6 ad 30 3d 27 90 a7 3d ae 86 2a be 3b 01 1c 3e
       0.043134354 0.08181792 -0.16652939 0.15234844
000040 84 1b 9c bd 7f 9b c9 bc 05 d8 75 be 5c bf 9e bc
       -0.07622436 -0.02461028 -0.24008186 -0.019378357
000050 84 2c d1 bd 89 87 7e 3d 1c 96 09 3b 3e 6e a6 3b
       -0.10213569 0.062140975 0.0020994013 0.00507906
000060 b1 bf a8 be a3 86 0c be d9 3c 43 bd be 73 b6 bb
       -0.3295875 -0.13723235 -0.04766545 -0.0055679968
000070 a8 63 25 be a2 fc 2a be c1 54 1e 3c 60 38 c3 3d
       -0.16151297 -0.16697934 0.009663762 0.09532237
000080 6a 35 7d 3d 2c 03 12 be 99 b0 4d be 49 b7 57 bc
       0.061818518 -0.14259022 -0.20086898 -0.013166257
000090 0b 23 3e 3d 95 c4 41 3b 8c e5 93 3d 9e 38 20 be
       0.04642014 0.0029566635 0.07221517 -0.15646598
0000a0 b7 d8 01 be 26 d8 c0 bd 84 94 17 3d c3 ed c5 bb
       -0.12680326 -0.09416227 0.03700687 -0.0060403063
0000b0 b9 87 89 be 0b b2 8f bd 14 5b 8b bc 3c ce 54 3d
       -0.2686136 -0.07016381 -0.017011203 0.051954493
0000c0 74 ba 2e be 94 07 e6 3c 68 14 31 3c 59 1c 9b 3c
       -0.17063314 0.028079785 0.010808088 0.018934416
0000d0 ed 5b 84 3d 76 9d 6b bd 21 32 18 be 7c 4d 80 3d
       0.06462846 -0.057523213 -0.14862873 0.06264779
0000e0 c4 db 8c bc 04 5d 6d 3c 17 bc 6e 3d 60 a6 aa bd
       -0.017194636 0.014487509 0.058284845 -0.08332515
0000f0 7a 6b 3f 39 71 71 16 be 7f 5d 3f 3d e2 34 b2 3d
       0.00018255218 -0.14691712 0.046720024 0.08701493
000100 61 98 2a bd 04 89 91 bd 61 93 3a 3c f0 7e 42 3c
       -0.041649226 -0.07106212 0.011387677 0.011871085
000110 df 37 d2 bc a8 3d 43 be a8 f8 b6 bc ff 71 8b be
       -0.025661407 -0.19066489 -0.022335365 -0.2723541
000120 1a aa 31 be 20 f3 00 be 25 32 28 3d ac 37 c8 bd
       -0.17350045 -0.12592745 0.041063447 -0.097762436
000130 98 b3 c0 bc 7c 1f 91 bb 29 aa 8f be a8 fa 7e bc
       -0.023523137 -0.004428802 -0.2805951 -0.015562691
000140 3c 71 ea bd 20 5b d8 bd a9 4c a5 bd 50 be 9c bb
       -0.11447379 -0.10564256 -0.080712624 -0.004783429
000150 50 da 09 be 9b 8a 15 be 6c 13 fb 3c b9 cb 07 3e
       -0.13462186 -0.14603655 0.03064891 0.13261308
000160 e0 af 82 bd 9e 56 00 3e 39 a6 06 be 3c 4e 1b be
       -0.06381202 0.12533042 -0.13149346 -0.15166563
000170 d2 e8 85 3b 3b 72 86 bb 91 14 38 bd 44 f1 8e 3d
       0.0040865922 -0.004102973 -0.04494149 0.069796115
000180 0a b0 5f bd 04 86 66 bd cc 36 3b be 4c df 4a be
       -0.054611243 -0.05628015 -0.18282622 -0.19811743
000190 99 42 9b bd ec bd d9 3c 7f 33 06 3d b4 b8 59 be
       -0.07581062 0.02657982 0.032763954 -0.21261865
0001a0 3d 31 b0 bd 97 c2 62 be f0 24 ef bd 44 75 a5 bd
       -0.086031415 -0.22144543 -0.11676967 -0.08079007
0001b0 5a f5 14 3d 63 e5 9c bd 8c de 72 bb 46 da 5a 3d
       0.036366798 -0.076609395 -0.0037058918 0.053430818
0001c0 d4 2d 79 3d d3 89 f5 bc 52 85 6a be 3a a2 84 bc
       0.06083472 -0.029972946 -0.2290242 -0.016190637
0001d0 fa 76 e8 bc ae 37 5f 3d 61 a1 58 be 49 9b da bb
       -0.028377045 0.05449646 -0.21155311 -0.0066713435
0001e0 6a b9 19 bd d7 64 5c bd 85 14 6e 3c 1a c7 0f 3e
       -0.03753034 -0.053807106 0.014531259 0.14040795
0001f0 6b b2 ec 3d cd d0 5d 3c 39 39 96 be 8f 6e 80 bd
       0.11557468 0.0135385515 -0.29340532 -0.062710874
000200 84 4a 93 be b1 63 d9 bd 51 f4 e3 bd 31 f2 de 3c
       -0.28767788 -0.10614718 -0.11130584 0.027215095
000210 a9 6f db 3c 80 01 1e bd ce 2b 22 3c 7b 77 af 3d
       0.026786642 -0.03857565 0.009898139 0.08567711
000220 fc 1e f0 bd 16 17 a1 bd ee e0 2c be f9 dd ce 3d
       -0.1172466 -0.078657314 -0.16882679 0.10100932
000230 87 3c 4f bd 79 d8 cf bc 4f 0e 84 3d 16 9c c0 3d
       -0.050594833 -0.025371777 0.06448042 0.09404771
000240 76 f8 28 bd 85 40 86 bd 4c 95 ae bd e1 fc 45 bb
       -0.041252576 -0.06555275 -0.0852457 -0.0030210542
000250 08 32 34 3d 4a 1e 13 bd 8e 4e 5d 3c 4a 55 9c bd
       0.043993026 -0.035917558 0.013507498 -0.07633455
000260 0c cf ee 3d 8c 94 37 3c f0 94 11 be 51 50 8f bd
       0.11660585 0.01120485 -0.14216971 -0.06997741
000270 44 0b 9b 3d a7 33 a1 3d ef 7e 95 bc f4 e9 8d be
       0.07570508 0.0787118 -0.018249003 -0.27717555
000280 47 64 28 3d 27 97 2f be 3e c7 17 be fa e6 77 be
       0.041111257 -0.17147504 -0.14822099 -0.24209204
000290 4f b8 bd be 3c 63 bf bd eb 4c a1 bd e2 95 51 3b
       -0.3705468 -0.09345099 -0.07875999 0.0031980206
0002a0 e1 b5 94 3d 68 df 69 be c7 fb 1f bd e7 98 2b be
       0.07261253 -0.22839129 -0.039058473 -0.16757546
0002b0 f8 7b 79 3c a6 57 ea bd 9e bd ad bd 99 c8 6a bd
       0.01522731 -0.11442499 -0.08483432 -0.05732021
0002c0 e7 21 15 3d 73 d3 98 bd 09 32 9c 3c e7 61 23 3e
       0.036409285 -0.07462206 0.019066827 0.15955316
0002d0 33 f4 83 be 7f c6 c3 3b b5 13 d3 bd 3e f3 6e 3d
       -0.25772247 0.0059745903 -0.10306493 0.058337443
0002e0 2b 36 6e bd 5d b7 54 3d 05 05 be bc 0c ed 45 3d
       -0.058157127 0.05193268 -0.023195753 0.04832177
0002f0 f0 18 19 be f8 79 f4 bd 5b 4f be 3b 42 fe 9c bb
       -0.14950919 -0.11937326 0.0058077998 -0.004791052
000300 03 2d 5a be ad a2 59 3d b3 f5 9f 3c c1 69 d4 bd
       -0.21306233 0.053133655 0.019526338 -0.103717335
000310 c6 5b 34 bd a2 4e 1c 3b 51 7e 65 3c 7b f2 b9 3d
       -0.044032834 0.002385058 0.014007167 0.090794526
000320 d2 10 2e bd af ce 75 bc ae 7a 21 bd f9 a0 9f 3c
       -0.04249651 -0.0150028905 -0.039423637 0.019485937
000330 83 d1 34 3d 9d 86 c3 bd f9 02 bd bd 29 66 60 be
       0.04414512 -0.0954716 -0.092290826 -0.21913971
000340 7d 2f 64 bc 72 97 97 bc 28 b7 26 3c 32 d4 2b 3d
       -0.013927338 -0.018504832 0.010175504 0.041950412
000350 ca c6 2e bd 8e fc 1b 3c ff 58 1d 3d 25 48 3b bb
       -0.04267005 0.009520663 0.03841495 -0.0028576937
000360 1b 28 17 be 68 aa bc 3d 60 78 19 be b6 86 e9 bd
       -0.14761393 0.0921219 -0.14987326 -0.11402647
000370 0a 39 fc 3a 60 08 a9 bd 08 83 88 bc cb 02 9b 3b
       0.0019243073 -0.082535505 -0.016664043 0.0047305576
000380 cc b9 5f be 56 b7 8e bd bb 6a b2 be 2e 01 a2 bd
       -0.2184822 -0.06968562 -0.34847054 -0.07910381
000390 f9 48 5a bc 99 39 8b be 6f 27 8b be f4 a6 52 3d
       -0.013323062 -0.2719238 -0.27178523 0.05142875
0003a0 0a 7f f1 bd 01 49 0c 3c 46 6d 95 3d 26 5a 12 3d
       -0.11791809 0.008562327 0.07296233 0.035730503
0003b0 c7 a5 44 be 96 35 0a be 8f 89 b4 3b 8d 3d 02 be
       -0.19203864 -0.13497004 0.0055095623 -0.12718792
0003c0 01 fa 54 be 3a 5c 41 bd b1 cd 2f bd f2 13 53 be
       -0.20798494 -0.047207095 -0.042920772 -0.20613077
0003d0 f7 5c 4c bd d7 d1 3f be 0b f8 64 be 93 49 6f bd
       -0.049893346 -0.18732391 -0.22360246 -0.058419775
0003e0 23 ab 8b bd cc 47 cb bc 85 2b 0e bd 68 9e 92 be
       -0.06819751 -0.024814509 -0.034709472 -0.2863648
0003f0 14 0a 21 3d 12 3a b8 bd 96 0d 67 be d9 a9 cc bc
       0.039316252 -0.08995451 -0.22563776 -0.024983333

action_model._discrete_distribution.branches.1.bias f4 [3]
000000 3c 65 5b 3d c1 80 f7 bc cb 25 91 bc
       0.05356334 -0.030212762 -0.017718216

action_model._discrete_distribution.branches.1.weight f4 [3, 256]
000000 96 f5 5b 3d 4a 2b 6c bd ef db f3 3d 6f 4a 9d 3d
       0.053701006 -0.05765847 0.119071834 0.07680213
000010 bc b4 fb bd 7e e1 93 3d 43 6a a3 bc e5 cb c5 bd
       -0.12290332 0.072207436 -0.01994813 -0.096580304
000020 52 ef a6 3d bb eb 95 bd f5 77 b6 3c fd 88 e4 3a
       0.081511155 -0.07320353 0.022273997 0.0017435845
000030 88 3b a5 ba 1a 45 e9 bc 73 e6 35 3d 80 db e7 bd
       -0.0012606243 -0.028475333 0.044409227 -0.11321163
000040 c0 2f b6 bd 9a 57 b2 bd ba 1e b3 bc 2d 90 02 ba
       -0.08895826 -0.08708115 -0.021865238 -0.00049805903
000050 f7 1e 50 bc 33 54 7b bd b9 19 ce bc 6f 39 1b 3e
       -0.012702695 -0.061359596 -0.02515875 0.15158628
000060 b9 4d 24 3d 1b 44 15 be fd a9 58 bd 35 91 5b bc
       0.040113185 -0.14576761 -0.05289649 -0.013401319
000070 08 1d 9a 3d 65 f5 47 ba 8a 92 a7 bd 62 9e c2 bc
       0.075250685 -0.0007627814 -0.08182247 -0.023757163
000080 e5 56 42 be b2 5f f6 bb 3a e7 4a 3d c0 fe f3 bd
       -0.1897846 -0.007518732 0.04953692 -0.11913824
000090 c2 c1 f5 bc 59 63 dd bc 48 c6 f9 bd 30 34 1c 3d
       -0.029999617 -0.027024912 -0.12196022 0.038135707
0000a0 d1 7c 22 3e 48 40 5a bc 9d b0 10 be d0 09 2b 3d
       0.15867926 -0.01332099 -0.14129873 0.041757405
0000b0 f9 a8 60 3d 18 14 dd 3d 14 38 eb 3c 04 63 a5 3d
       0.054848645 0.10794848 0.028713264 0.08075526
0000c0 98 49 52 3e b7 09 5a bc 79 d5 b8 bd 28 cd 41 bd
       0.20535886 -0.01330798 -0.09025092 -0.047314793
0000d0 f7 72 14 bd 14 04 15 bd d0 d2 91 bd ac 69 99 bd
       -0.03624245 -0.036380842 -0.071202874 -0.074908584
0000e0 f7 0b ba 3d 24 aa a7 3d ef b5 ed bd 51 09 a9 bd
       0.09084313 0.081867486 -0.11606967 -0.0825373
0000f0 40 26 8c bd fe 2e c9 bd ee 93 7e bd 9d 5e b3 bd
       -0.06843233 -0.09823416 -0.062152795 -0.087582804
000100 2f 20 24 3d 9f f2 3c bc 52 29 5f be c2 91 c7 bd
       0.040069755 -0.011532455 -0.21793106 -0.09744598
000110 85 f7 8e bc 9c 54 a6 bd 9e e6 45 bd 69 b0 ea 3d
       -0.01745201 -0.08121607 -0.048315637 0.11459429
000120 5d 1e 15 bd bb b0 55 3d c2 35 01 be 62 49 9c bc
       -0.03640591 0.052170496 -0.12618163 -0.01907796
000130 fc 99 12 be 50 19 3b 3d ff f9 f8 3d 51 8f 72 3d
       -0.14316553 0.045678437 0.12157058 0.05921871
000140 58 c6 41 bc 44 46 c1 3b 07 41 e9 ba 6d 3c 5e bd
       -0.011827074 0.005898269 -0.0017795869 -0.054256845
000150 a5 0c 97 bd dd 94 eb 3b d8 77 85 bd 47 87 b5 bd
       -0.07375459 0.0071893767 -0.06516999 -0.08863693
000160 05 a4 05 bd 2c 27 7b bd ef fc 74 bb 46 34 19 bc
       -0.032627124 -0.061316654 -0.0037382205 -0.009350842
000170 23 c9 06 bd 19 94 34 be 51 2d 61 bd b5 6c a6 bd
       -0.032906663 -0.1763462 -0.054974858 -0.08126203
000180 f8 a8 83 bd eb 70 d9 bd 01 d0 d1 3d 5b 15 a2 3d
       -0.064287126 -0.106172405 0.10244752 0.079142295
000190 7d 94 a1 3d 20 b4 a9 3d 65 14 d8 3c c6 d5 88 bd
       0.0788965 0.08286309 0.026376912 -0.06681399
0001a0 32 89 ce bd f3 ab 55 3d 7f 34 04 be 73 05 2a bd
       -0.10084762 0.052165937 -0.1291065 -0.041509103
0001b0 46 b2 eb 3c 84 ed 09 bd 45 0b 03 3c c6 e7 69 3d
       0.02877153 -0.03367378 0.007998292 0.057105802
0001c0 c2 50 ce bd 46 86 15 be 38 8e b4 3d 7d a7 f7 bc
       -0.10073997 -0.14602003 0.088161886 -0.030231232
0001d0 27 a7 0f be 96 46 17 3d db 97 e1 bc 3f c9 17 39
       -0.14028607 0.03693255 -0.02753823 0.00014475452
0001e0 9f 45 73 bc fc ba e9 bd 33 89 8d bc 0d 9c 56 bc
       -0.014848142 -0.114126176 -0.017277336 -0.013098729
0001f0 5e aa d0 bd 92 82 4f bd 5e 0b 34 3d 69 c5 9a bd
       -0.10188745 -0.05066163 0.043956153 -0.07557184
000200 b7 3c 93 3d b5 48 22 bc 4d 7c a7 bd 1e 53 1c 3d
       0.07189315 -0.00990503 -0.08178005 0.038165204
000210 f3 6e 20 3d e3 bd e4 bd f8 8d e8 bd 74 8d ad 3c
       0.03916831 -0.111690305 -0.113552034 0.021185614
000220 d1 10 1f bd 4e 03 ed bc 9b 46 11 be d8 f6 e2 bc
       -0.038834397 -0.02893224 -0.1418709 -0.027705595
000230 42 4a dd bc ee 73 e5 3c 6d de 19 be f2 f5 88 3d
       -0.027012948 0.028009381 -0.15026255 0.06687535
000240 86 8f 84 3d 72 02 a1 3d e8 f5 78 bc 4c 5e f1 3c
       0.064726874 0.078617945 -0.015195347 0.02946391
000250 0a 22 f5 bc be ef 4e be ce 40 5b bc 08 99 d9 bc
       -0.029923458 -0.20208642 -0.01338215 -0.026562229
000260 38 c0 2c 3d 8e cf 88 bd eb f6 75 bc a6 2a 03 be
       0.0421755 -0.06680213 -0.015012483 -0.12809238
000270 aa 68 ba bd 7f 0e f1 bd 9f f6 eb bd 68 63 d8 3d
       -0.09101994 -0.11770343 -0.115216486 0.10565835
000280 c6 53 93 3c 85 b5 04 be 70 d3 24 be 08 35 18 3d
       0.017984282 -0.12959869 -0.16096282 0.03715995
000290 53 ac a0 3d d6 d3 5c 3d 56 da 93 bc 46 9d 21 be
       0.07845368 0.05391296 -0.018048447 -0.15782651
0002a0 d7 80 d4 3c 44 e4 bd 3d 4f f3 cb 3c a0 12 29 3d
       0.025940342 0.09272054 0.024896292 0.041277528
0002b0 05 6c 1d 3c ab 64 0a be 8e e7 2d 3d 00 28 7e bd
       0.009608273 -0.13514964 0.042457156 -0.062049866
0002c0 14 36 81 bd 1e c0 04 3d 60 8b 08 bd 1b 16 09 bd
       -0.06309143 0.03240978 -0.033336043 -0.033468347
0002d0 78 ae 20 3e 37 02 b1 38 bb 12 9c 3b 0a 5c fb 3c
       0.15691555 8.44043e-05 0.004762975 0.030683536
0002e0 c3 13 d1 bd a8 0c 3f be 64 a8 4d be ae a5 5e bd
       -0.102088474 -0.18657172 -0.20083767 -0.054357223
0002f0 ed 45 58 bd de 87 95 3b 9f 0a 77 bc 4b 43 9e bc
       -0.05280106 0.004563316 -0.015078216 -0.019319197
000300 81 34 b4 3d a9 9e cb bd 7e 8e 8e 3c ab fc 89 3d
       0.08799077 -0.099423714 0.01740193 0.06737646
000310 a6 4e 92 3c 5a 1c db 3c ca ab 8e bd f5 c2 6a 3d
       0.017859768 0.026746918 -0.0696636 0.05731483
000320 c9 5e b2 bd d2 ea 91 3c d2 66 46 be a4 77 e2 3b
       -0.08709485 0.017812166 -0.1937516 0.006911235
000330 f1 ed ff bc 38 9e b4 bc d0 e1 09 be 00 96 37 3d
       -0.031241389 -0.0220481 -0.13465047 0.044820786
000340 c4 86 09 3d b5 f3 89 bc 26 1f 96 bc c5 bc 87 bc
       0.03357579 -0.016839841 -0.0183254 -0.016569505
000350 10 04 09 3c f7 10 7f bd 1e e7 45 3d bd c9 a2 bc
       0.008362785 -0.06227204 0.048316114 -0.019871587
000360 c2 46 5f bd ef 5b b1 bd 24 e7 73 bc 02 e9 d5 bd
       -0.05451084 -0.08660113 -0.014886651 -0.10444833
000370 d9 29 79 bc 10 23 63 bd b9 af 36 bd e1 37 ae 3c
       -0.015207731 -0.05545336 -0.044601176 0.02126688
000380 61 ae 11 3e c7 91 0f be 35 5a 8a 3d 52 37 a3 bd
       0.14226677 -0.14020453 0.06755487 -0.07969536
000390 a9 fe 7b bd 33 96 e0 bc 92 76 67 3d ec 06 95 bd
       -0.06152216 -0.02741537 0.05650956 -0.07276711
0003a0 2c 30 22 3c e8 b0 e6 3c 67 0a ed bd a9 e4 2e bc
       0.00989918 0.028160527 -0.1157425 -0.010674634
0003b0 e2 f3 82 3d d3 da 49 3d ba a5 ea bc 80 2d 83 3d
       0.06394173 0.049280953 -0.028643478 0.06405163
0003c0 3f 5e 83 3b bc bd e7 3d 4d db 0c 3d 6d d0 0e be
       0.0040090377 0.11315486 0.03438883 -0.13946696
0003d0 1e 64 28 bd a1 d9 06 3d fb 8d 9a 3d c1 0f 49 bd
       -0.041111104 0.03292239 0.07546612 -0.04908729
0003e0 c0 a9 24 bd c2 a0 72 be 3d 18 ad bc 7d bc fe 3d
       -0.04020095 -0.23694137 -0.021129722 0.12438295
0003f0 11 ea 52 3c 7f ae e8 3d 2e 53 0a 3e ef 45 8a 3c
       0.012873189 0.113614075 0.13508293 0.01687905

action_model._discrete_distribution.branches.2.bias f4 [3]
000000 b3 71 80 3c d6 1e 20 bd d8 45 d8 3c
       0.015679216 -0.039091907 0.026400492

action_model._discrete_distribution.branches.2.weight f4 [3, 256]
000000 77 4c 6b 3d f3 4e c6 bd c7 b1 39 bc 61 f8 ec bb
       0.05744597 -0.09683027 -0.011333889 -0.0072317575
000010 ed 0b d2 3d 56 76 11 3d 63 29 6f bd bc ff 8d 3d
       0.10256181 0.035513245 -0.05838908 0.06933543
000020 01 be 9e bd f9 8f 6e bd 3e 90 f9 bc da 43 8c 3d
       -0.07751084 -0.05824277 -0.030464288 0.06848879
000030 43 34 c6 3d 54 a9 92 bd fc d5 41 3e b9 f3 5f bd
       0.09677937 -0.07161203 0.18929285 -0.05467579
000040 8e 4d 2a be 30 19 ad 3d 77 d2 45 3e 8d 2d cf 3d
       -0.16631147 0.0845207 0.19318567 0.1011611
000050 f9 29 0f 3e 31 7d 77 bd c9 5e d6 3d 82 f4 4a 3d
       0.13980855 -0.060422126 0.104672976 0.049549587
000060 26 f3 65 3e 72 75 80 bc 6f 18 8f 3c d4 91 30 be
       0.22456035 -0.015681002 0.017467706 -0.17243129
000070 50 4c 06 3e d2 1e 0e 3e b5 c9 67 bd ec 15 2d bc
       0.13115048 0.13878945 -0.056588847 -0.010564309
000080 7b df 34 bd 7d e1 bb 3d b8 13 d4 3d f2 96 8a bd
       -0.04415844 0.09173868 0.103553236 -0.06767072
000090 f0 c4 2d be 00 7a 99 3c d5 76 04 be 41 9f 96 3d
       -0.16969657 0.018734932 -0.12935956 0.07354594
0000a0 90 70 f2 3d b0 63 99 3c 89 2e 04 3e 78 9b 75 3c
       0.11837876 0.018724293 0.12908377 0.01499068
0000b0 44 b6 44 3e 74 63 55 3d e9 05 ce 3c f7 57 af bc
       0.19210154 0.0520968 0.025149303 -0.02140425
0000c0 9d e4 c6 3d 7d 38 c7 bd 96 36 80 bd 26 77 0e 3d
       0.09711573 -0.09727571 -0.062604114 0.034781598
0000d0 70 38 a0 3c 99 bb 13 3d 9f fa 75 3d 3d cd 40 3d
       0.019558161 0.03606758 0.060053464 0.04707073
0000e0 a9 e3 85 3d d1 07 66 bd 81 ab d2 bd 99 4d 0a bd
       0.06537563 -0.056159798 -0.10286618 -0.03376541
0000f0 c7 cb 41 bd a0 9a d0 3d 5c 78 12 bd 9a 12 16 bd
       -0.047313478 0.101857424 -0.035759315 -0.036638834
000100 2d cb 4e bd 25 38 8c 3d 89 20 4e 3b b3 b8 37 be
       -0.050486732 0.06846646 0.0031452498 -0.17941551
000110 db 50 ac bd 81 bd 1f 3d 56 98 6b bd 2e bf 4e 3e
       -0.084138595 0.038999084 -0.057518326 0.20190117
000120 05 c3 e8 3d 50 a1 f1 3d d3 ea 52 bd 56 05 d1 3d
       0.11365322 0.11798346 -0.051493477 0.10206096
000130 5e 2f 92 3d ac 58 5f bd de 5e de 3d d6 b7 85 3d
       0.07137941 -0.054527923 0.10857938 0.065292045
000140 05 66 eb 3d a0 9e 2d 3e af e0 96 3d 0b 7d 7e 3d
       0.11494068 0.16955042 0.07367074 0.06213097
000150 24 bb 1c 3c 19 80 9e 3d 1b 25 06 be 88 4c 0a be
       0.009566102 0.077392764 -0.13100092 -0.13505757
000160 5f 14 98 3c 1a a6 e2 3b b8 03 f9 3c bb dc a2 3d
       0.018564401 0.0069167735 0.030397281 0.07952257
000170 b8 84 73 3c ee 63 f8 bd 88 8b d7 3b ba 5b 16 bd
       0.014863186 -0.12128435 0.0065779127 -0.03670857
000180 d9 80 c9 3c f2 a8 c8 bc 2f 85 48 3e 92 0c d4 3d
       0.024597572 -0.024494622 0.19582056 0.1035396
000190 0a 35 4f 3d 6d 13 32 bb 84 8b 8d 3c ca c2 05 3d
       0.05058769 -0.0027172223 0.01727844 0.03265647
0001a0 f4 90 a6 3d 8b c7 03 bd b6 31 b1 3c d0 2b 9c 3d
       0.08133116 -0.03217272 0.02163015 0.07625544
0001b0 5b 15 87 bc 32 ad ca 3d 63 eb fc bd c0 3d 4f bd
       -0.016489675 0.09896316 -0.12349584 -0.050596
0001c0 9d f1 a2 bd ad 0d 82 bc 12 f5 1d 3e 8f 72 97 bd
       -0.0795624 -0.015875662 0.15425518 -0.07394897
0001d0 49 a0 b5 bc e6 7a 95 bc bc 90 8d 3d e7 43 80 3d
       -0.022171156 -0.01824708 0.069123715 0.06262951
0001e0 e3 79 4d bc 28 3b 0a 3e ac ff 5f bd 5d a7 c7 bb
       -0.012541267 0.13499129 -0.054687187 -0.0060929493
0001f0 9a 9b b0 bd 63 01 f3 bb 74 55 2b 3e 2e 32 49 bd
       -0.08623429 -0.007415937 0.16731817 -0.04912012
000200 bb 05 ce 3d bc 71 aa 3d 2a 1e b5 bb 07 93 74 bd
       0.10059687 0.08322474 -0.0055272775 -0.05971053
000210 7c 34 12 3c ea 9e ce 3d 4a e4 b0 bc bc 83 1b be
       0.008923646 0.10088904 -0.021593232 -0.15186971
000220 f7 3c a0 3d d8 42 89 3c 1e 46 fd bc f6 ec 62 bc
       0.07824128 0.016755506 -0.030917224 -0.013850441
000230 fb 06 c4 bc 92 e7 40 bc cf f3 67 bd fb df 4b 3c
       -0.02392911 -0.011773961 -0.056629 0.012443538
000240 83 43 aa 3d e0 6b 11 3e 36 f4 21 bd 51 1c a6 3d
       0.08313658 0.14201307 -0.03953954 0.0811087
000250 dc d9 f1 bd 8f 7f 09 3d c9 1f c9 bd 17 c4 88 3d
       -0.118091315 0.033568915 -0.09820516 0.06678026
000260 c6 fc 47 bd a4 cf 17 be ea f9 9b 3d 43 d7 80 3b
       -0.048825048 -0.14825302 0.07616027 0.003931911
000270 c7 df 0f be 6d 89 12 be dc af 48 3d 08 d9 db 3d
       -0.14050208 -0.14310236 0.048995838 0.10734755
000280 88 df 99 3b b5 7e 13 3e 27 36 9a bc 61 d9 2e 3e
       0.0046958365 0.14403804 -0.01882465 0.17075111
000290 d5 26 5e 3e de 94 bc 3d c0 e6 55 b7 a9 4d 88 3d
       0.216945 0.09208082 -1.2749515e-05 0.066554375
0002a0 ce 07 9d bd be 5c 3b 3e 3d 1c 4f bc c9 c6 48 bd
       -0.07667504 0.18297097 -0.01264101 -0.0490177
0002b0 d7 73 89 bb 10 e4 ab 3d d4 5f 92 3d cd fd 02 be
       -0.0041947174 0.08393109 0.07147184 -0.1279213
0002c0 77 a0 b8 3d dc 6b 6c bd e8 a6 b2 3d 91 3e 00 be
       0.09014981 -0.05772005 0.08723241 -0.12523867
0002d0 47 20 30 3e 13 a7 64 bd 0d 2c d5 3d d1 bf 38 3c
       0.17199813 -0.055823397 0.10408793 0.011276201
0002e0 b4 b1 46 3e fd 2e b5 3d 24 60 80 3b eb f9 93 bd
       0.19403726 0.08846853 0.003917711 -0.072254024
0002f0 3d d8 85 3e 61 ac 79 3a 12 30 9b 3d 6a 1f 2c 3d
       0.2614154 0.00095242827 0.07577528 0.042022146
000300 d6 7b f2 3d e6 dd 08 be 6d 7b 9b bd d5 ee 5c 3d
       0.11840026 -0.13365898 -0.07591901 0.053938705
000310 fa 8e 2e 3c c8 00 f6 3c cf 95 6d bd 8d d2 ce 3b
       0.010654205 0.03002967 -0.058004197 0.0063117207
000320 17 2b fe bc 49 b1 8f bd 1f 4f b9 ba 09 c4 a8 3d
       -0.031026406 -0.07016236 -0.001413796 0.08240516
000330 31 59 41 3d 8b 06 fc bc 62 1d 75 bd 73 a9 c2 3d
       0.0472042 -0.030764839 -0.059842475 0.09504976
000340 4d 8e 15 bc 68 df 89 bc 5f 7a 8b bd af 08 e1 3b
       -0.009128165 -0.016830161 -0.0681045 0.0068674902
000350 8f 92 65 bb be 59 56 3c 28 b4 90 bd 30 e8 22 bd
       -0.0035029983 0.01308292 -0.07065612 -0.039772213
000360 5b 5b a2 bc 64 08 7a bc c1 e2 04 3e c4 2d 5f bd
       -0.019818952 -0.01526079 0.12977125 -0.054487005
000370 15 d1 c2 3d 70 ce 02 3d 56 be 07 bc 65 bd 44 3c
       0.095125355 0.031935155 -0.008285126 0.012008046
000380 c6 e4 32 3e 7a 9f 94 3a d0 a2 18 3e 4c a0 a6 bc
       0.17470083 0.0011339032 0.14905858 -0.020340107
000390 d5 d5 eb bd 4a 28 0a 3e a6 90 64 3e 1d ca ae bd
       -0.115153946 0.13491932 0.22320804 -0.08534644
0003a0 72 b2 e5 3b 51 83 f3 bc 8a 4f df 3c 91 0c 0a 3d
       0.0070097977 -0.029725702 0.027259607 0.03370339
0003b0 4f c4 38 3e 3d c8 77 bc ab 74 37 bd 44 e1 aa 3d
       0.18043636 -0.015123424 -0.044788998 0.08343747
0003c0 25 fb 59 3b a9 a7 b2 3d 34 39 8a bd ee c5 1a 3e
       0.0033261266 0.08723385 -0.06749192 0.15114567
0003d0 50 b7 0c 3c 38 a2 2f 3d 85 80 f2 bc 08 a4 86 3c
       0.008588627 0.042879313 -0.029602299 0.016435638
0003e0 2e 41 f3 3d 73 00 0e 3d 68 a1 90 3d 08 28 28 3e
       0.118776664 0.034668397 0.07062036 0.1642152
0003f0 94 de f9 3c bd 35 3b 3e a8 e1 ad bc 88 37 84 3c
       0.030501641 0.18282218 -0.021225765 0.01613976

action_model._discrete_distribution.branches.3.bias f4 [2]
000000 35 33 67 3b 57 33 67 bb
       0.0035278325 -0.0035278404

action_model._discrete_distribution.branches.3.weight f4 [2, 256]
000000 f5 97 05 bc 93 95 d4 3d d1 72 47 bc bd 45 38 3e
       -0.008153905 0.103800915 -0.01217337 0.17995353
000010 97 7c 98 3d 13 3a d9 bc 90 cc 4b bd 47 83 17 bd
       0.074456386 -0.02651695 -0.049755633 -0.03699043
000020 a6 de ee 3c f9 be 56 3d fd 5b 58 ba 5b 3a a2 bc
       0.029158901 0.05242822 -0.00082534534 -0.019803217
000030 e1 23 7a bc 3c d2 f3 3d 19 7e f8 3b d5 c1 64 3d
       -0.015267343 0.119053334 0.0075833914 0.055848915
000040 4d 1a 2b bb 05 a1 3d bb 85 4f 84 3d 71 0a bd 3d
       -0.0026108206 -0.0028935086 0.0646048 0.09230507
000050 21 cc 37 3d ce 20 65 3d b2 1d 49 bd 61 3c a9 3c
       0.044872407 0.055939488 -0.049100585 0.020658674
000060 9e fb 4d bc 83 62 da bd 66 b6 14 3c f5 08 69 3d
       -0.012572197 -0.10663321 0.00907669 0.056893308
000070 cd 80 74 bd 44 75 a4 bc a6 06 a5 3c 92 f5 29 3d
       -0.059693146 -0.020075448 0.020144772 0.04149396
000080 b3 4a b9 3d 13 cf 7b 3d ee d4 95 bd ee 88 08 3d
       0.09047451 0.06147678 -0.07316004 0.03333371
000090 04 55 fa 3c 7f 88 9f bc 78 99 85 3d 27 fc 1b bc
       0.030558117 -0.019474266 0.065234125 -0.009520567
0000a0 de bb 47 be 22 0d b5 bc f9 22 51 3d ed 8c 15 bd
       -0.1950526 -0.022100989 0.051058743 -0.03651135
0000b0 0d 25 d4 3c ca af c0 3a 43 ec bf bc 29 b4 0e bd
       0.025896573 0.0014700827 -0.023428088 -0.034839783
0000c0 85 56 67 bc 79 f0 53 3c b3 2d eb bb e9 2a 1f 3d
       -0.014119749 0.012935751 -0.0071770786 0.03885928
0000d0 50 e3 ba bb ce de b0 3c 89 50 b3 3d f5 a7 a1 bd
       -0.0057033673 0.021590617 0.08755595 -0.078933634
0000e0 09 57 10 bc fd 33 2e 3d 47 af 80 3d e4 4a 8f bc
       -0.008809813 0.04253005 0.062834315 -0.017491765
0000f0 6a d5 c7 3d 92 19 2a bd b1 c9 07 3e 1a ed a6 bd
       0.097575024 -0.041528292 0.13260533 -0.08150692
000100 67 c1 2a 3c 4a b9 43 bc c5 41 fa 3d 6b ad b5 bc
       0.010422087 -0.011946032 0.12219576 -0.022177419
000110 59 34 50 3d 1e c5 1e 3c 88 02 9c bd 30 2e 8b bc
       0.050831173 0.009690551 -0.0761767 -0.016989797
000120 be 3e 8f 3c 5c ae 9b bc 5a df 1f 3e e0 a4 38 3d
       0.017485972 -0.01900404 0.15612546 0.045079112
000130 41 c8 04 3e 33 7a 8a 3c 20 fc 63 bd 9b 7f 2f bc
       0.12967016 0.016903972 -0.055660367 -0.010711576
000140 c2 8d 64 3d e5 a8 ec bc 02 44 54 bc a2 cf 7d 3c
       0.055799253 -0.028889129 -0.012955667 0.015491398
000150 c2 85 ca bd db e5 47 3d fb 0d 8a bd b4 49 ad 3d
       -0.098887935 0.04880319 -0.06740948 0.084613234
000160 91 f3 7c 3a 0c 3a 19 3e 38 05 d2 bc 9e 0c 2d 3c
       0.00096493313 0.1496355 -0.025637254 0.01056209
000170 18 db d2 3c 6d 32 69 ba 25 c5 ca 3d 88 2e 11 3c
       0.025739238 -0.00088957587 0.099008836 0.008861192
000180 6f 06 0c bd 8c 9d ac bc 8d ab 59 bc e0 78 c1 bd
       -0.034185823 -0.021071218 -0.01328553 -0.09446883
000190 97 43 92 3c 57 53 44 bd 77 3d c3 3d 7a 45 b0 bc
       0.017854495 -0.04793104 0.09533208 -0.021517504
0001a0 31 5b 87 3d 48 03 3a bd 1d 84 06 3d ac 15 0e 3d
       0.0660919 -0.045413285 0.032840837 0.034688637
0001b0 c9 b1 d5 bc ae da 34 3d a3 b8 0d 3d 46 29 03 3e
       -0.026085751 0.04415386 0.03459991 0.12808713
0001c0 d6 ef d1 3d 79 b3 c5 3d dd cd ad 3a 40 a1 04 3e
       0.10250823 0.09653372 0.0013260205 0.12952137
0001d0 ac 68 fa 3d c6 2b bd bc 9c 76 01 bd 31 cc 86 bd
       0.12226996 -0.023092162 -0.031607255 -0.06581915
0001e0 52 ac 99 bc 13 5d ba 3d 4d 1c 77 3d 31 e8 39 3e
       -0.018758927 0.09099784 0.060329724 0.1815498
0001f0 38 42 40 3d ea c6 7a bd 2a f3 3f bd 6f 45 56 3d
       0.04693815 -0.061224855 -0.04686276 0.05231231
000200 0d c8 43 bd dc 86 97 3d 92 2a 88 bd 51 ab 79 3d
       -0.047798205 0.07398769 -0.06648745 0.060954396
000210 51 3d e8 bc c1 b8 05 3d 50 22 38 3d ea c4 e9 3d
       -0.02834955 0.0326469 0.044954598 0.114145115
000220 3b 8b 16 3d 9d d6 0c 3d a7 2a 72 bd 7f b9 4d 3d
       0.036753874 0.03438436 -0.059122708 0.05022573
000230 9b af 96 3d 1a ed a0 3c d9 0b d0 3d b1 8c 06 3e
       0.07357713 0.019644309 0.1015851 0.13139607
000240 cd ef d3 bc 74 9b c8 bc 4a 85 25 be 05 24 e7 bc
       -0.025871182 -0.024488188 -0.16164127 -0.028215418
000250 e4 70 0a bd 4b d1 8f 3d 0f ce b6 3d cc f2 15 bc
       -0.033799067 0.07022341 0.08926021 -0.009152126
000260 1d 75 44 3e a2 fa e0 bd 19 c9 93 3d b2 d6 96 bc
       0.191853 -0.109853044 0.07216091 -0.018412922
000270 5c 07 95 3b 09 54 e1 3d 25 9e 93 bd c8 8d e0 bc
       0.0045479964 0.110023566 -0.07207898 -0.027411357
000280 66 90 03 bd 9c ae 1f 3e 8c 2c 14 bd 7a 9b 55 bc
       -0.03212013 0.15593952 -0.036175296 -0.013037557
000290 6b d2 7c 3c 34 81 e0 3a 76 83 ae 3b ab bf 51 bc
       0.015431027 0.0017128349 0.00532573 -0.012802045
0002a0 e5 ba 13 3c 05 2b d9 bb 99 43 56 3b df 7d 07 be
       0.009016727 -0.006627443 0.00326941 -0.1323161
0002b0 cd fc 19 3b e0 2c 28 3e fa 71 e2 bc 21 6a 26 bd
       0.0023496628 0.16423368 -0.027642239 -0.040628556
0002c0 5b ad 0a bd f0 51 31 3c f1 b2 7c 3d 6c 0e 42 3e
       -0.03385673 0.010822758 0.06169409 0.18950814
0002d0 ab d7 8a bd 41 86 0a bd ab b6 ad bd 94 aa 58 bd
       -0.06779417 -0.03381944 -0.08482107 -0.05289705
0002e0 1e a0 6c 3d 5c b5 df 3d a2 5d 18 3d 3e d7 16 3e
       0.057769887 0.109232634 0.03719867 0.14730546
0002f0 4a a2 a3 3b e6 10 d6 bd 39 d6 28 3c 35 e5 4e 3d
       0.0049937116 -0.10452442 0.010304981 0.050511558
000300 47 68 51 bd 59 aa 0e bd 99 f2 f0 3d b2 03 37 bd
       -0.051124837 -0.034830425 0.11765022 -0.04468126
000310 78 1c 19 3d 00 0d 25 3b 43 54 ba 3d 95 94 02 3c
       0.037380666 0.002518475 0.09098103 0.007969995
000320 55 3a 0d 3d 79 92 0c 38 d3 9b 2a 3d 3e 66 5b 3d
       0.034479458 3.3515014e-05 0.04165251 0.053564303
000330 b8 92 aa 3d 16 1b a1 3c 26 ac e6 3c 49 32 74 3b
       0.08328766 0.019666236 0.028158259 0.0037261418
000340 b9 c8 e9 b9 64 f7 94 bc 24 e6 32 3d 6c 8f 97 bc
       -0.00044590773 -0.018184371 0.04367651 -0.018501006
000350 95 05 76 3d f2 f0 81 3d f2 61 4f 3d ad 7e 36 3e
       0.060063917 0.06344785 0.050630517 0.1782176
000360 aa 04 e0 bd 15 e6 c5 3d d6 a4 6b 3a 7d ac d1 bd
       -0.109383896 0.09663025 0.0008989101 -0.10237978
000370 d4 fc 54 3d e1 e9 08 bd 5f e4 30 3c 6b 95 5b bb
       0.05199893 -0.03342617 0.010796635 -0.0033505808
000380 bf b2 5d bd 9f 14 3c 3c e6 74 5c bc 39 68 de 3c
       -0.054125544 0.011479526 -0.013455605 0.027149307
000390 48 8a f7 bc da d5 b8 bb 5f 6e d2 bc eb 6c 7a 3c
       -0.030217305 -0.0056407275 -0.025687395 0.015284757
0003a0 95 b1 b6 bd aa 7f 16 3d 83 df c9 3d 8b 36 0b 3e
       -0.0892059 0.036742844 0.098570846 0.13595025
0003b0 24 bf f8 3c 41 75 3f bd 43 c1 97 3c 97 31 5e 3b
       0.03036458 -0.04674268 0.018524772 0.003390407
0003c0 e6 ab 0c be ab 28 40 bd e3 12 62 bd 79 74 da 3c
       -0.13737449 -0.046913784 -0.055193793 0.026666867
0003d0 90 85 c3 bc a0 db de bd 59 ff 8e bc 5b 94 38 3d
       -0.023867399 -0.10881734 -0.017455744 0.045063358
0003e0 32 84 fe 3c e5 f9 05 3e 28 cd 84 bd 5b 30 30 bd
       0.031068895 0.13083608 -0.06484443 -0.043014865
0003f0 db 69 ed 3c 09 a7 81 bd 7b 6e 2a bd 69 19 12 be
       0.02898114 -0.063306876 -0.04160927 -0.14267506

discrete_action_output_shape f4 [1, 4]
000000 00 00 40 40 00 00 40 40 00 00 40 40 00 00 00 40
       3.0 3.0 3.0 2.0

network_body._body_endoder.seq_layers.0.bias f4 [256]
000000 2a 10 fa bd b1 c3 ad bd 9f 73 ea bd fe 69 04 be
       -0.12210114 -0.08484591 -0.11447834 -0.12931058
000010 a3 77 93 bd 42 29 f4 3d b5 e1 77 bd 2b 5f 45 be
       -0.07200553 0.11921932 -0.060517985 -0.19274585
000020 04 78 e5 bb 6b db 06 be bb 39 db bd 32 03 d1 bd
       -0.0070028324 -0.13169639 -0.107043706 -0.102056876
000030 6f 30 7a bd e2 7c b3 bd 61 db 96 bd 30 a3 14 bd
       -0.061081346 -0.08764054 -0.07366062 -0.03628844
000040 f2 5d 97 bd f0 bf 7a 3d 47 f8 81 bd 6c fb 83 bd
       -0.073909655 0.061218202 -0.06346183 -0.06444439
000050 b7 08 06 be a1 73 bf bd 3e b7 39 be 79 2c 00 be
       -0.13089262 -0.09348226 -0.18136308 -0.12516965
000060 8e c0 21 be 72 b4 8c bd de 48 bd bd de 94 2f be
       -0.1579611 -0.06870355 -0.09242414 -0.17146632
000070 cf 87 8c 3d 97 9f 93 bd 40 c9 81 bd 83 f2 89 bd
       0.06861841 -0.07208174 -0.063372135 -0.067357086
000080 bd 24 29 be c6 23 f7 bd c1 17 3e be ea 63 94 3d
       -0.16517921 -0.1206737 -0.18563749 0.072456196
000090 09 2c f1 bd 9d 6c 33 be 90 23 4c bd 92 4b 2d be
       -0.11775977 -0.17521901 -0.049838603 -0.16923359
0000a0 87 3b 0a be 3c 83 a4 bd 0f d9 bb 3c f5 87 03 bd
       -0.1349927 -0.080328435 0.02293065 -0.03211208
0000b0 3b ac f2 bd b4 c3 e5 bd 18 00 c2 bd ba 42 8a bd
       -0.118492566 -0.11218968 -0.09472674 -0.06751008
0000c0 60 51 1e be 5a a2 69 bd 2f 3b e9 bd 06 49 79 bd
       -0.1546073 -0.057039596 -0.113882415 -0.060860656
0000d0 c2 df 8f bd 59 96 76 bd 42 e8 91 bd 43 6d 0b be
       -0.070251 -0.060201976 -0.07124378 -0.13615899
0000e0 c3 3b 26 3d 9d 87 db bc 59 bd 9b bd ac 53 35 be
       0.040584337 -0.026798064 -0.076044746 -0.177077
0000f0 6e 39 0b be af a6 63 bd fc 75 ef bd 92 d6 86 bd
       -0.13596126 -0.055578884 -0.116924256 -0.06583895
000100 0a df 78 bc 00 15 b4 bb 38 91 71 3c 30 de 88 bd
       -0.015189895 -0.0054956675 0.0147440955 -0.06683004
000110 5e 3a 22 be 0a 5d a4 bd c7 31 eb bc 4f da 40 3d
       -0.15842578 -0.08025558 -0.02871026 0.047083195
000120 c4 bc 9b bd 34 4a b7 bd 4c 53 e9 bc 39 bb d2 bd
       -0.076043636 -0.089497 -0.028482102 -0.10289616
000130 39 42 d3 bd 34 c0 51 bd fb 6c 9c bd b6 a0 01 be
       -0.10315365 -0.05120869 -0.07637974 -0.12658963
000140 bf 9d 89 bd ff 67 ac bb 54 17 20 be ea 93 05 be
       -0.06719541 -0.0052614207 -0.15633899 -0.13044706
000150 e7 26 95 bd 7c bf 54 be b7 ea e8 bd 52 07 e0 bb
       -0.07282811 -0.2077617 -0.11372893 -0.00683681
000160 20 61 10 bd da 5f b4 bd ab f1 23 be 74 4f 9c bc
       -0.035248876 -0.08807345 -0.16010158 -0.019080855
000170 00 c0 13 bb a0 ec 9c 3b 09 d7 8b bd e7 ec d9 bd
       -0.002254486 0.00478895 -0.06828124 -0.10640889
000180 c8 9e 8d 3b b3 67 01 bd d2 e8 1b be 37 57 18 bc
       0.0043219067 -0.031593036 -0.15225533 -0.009298137
000190 bc 18 ce bd 80 ea 35 be a9 65 a4 bd 8c ee 69 3d
       -0.100633115 -0.17765236 -0.08027203 0.05711226
0001a0 c5 e3 7d bd 2c f8 11 be de 9e c4 3b a8 5a ec bd
       -0.061984796 -0.14254826 0.0060003838 -0.11540729
0001b0 38 0e 5f bd 26 86 95 3d db d3 72 bb ee 14 29 be
       -0.05445692 0.073009774 -0.0037052545 -0.1651189
0001c0 49 51 14 be ae 8d a8 bd 7d 2d 36 bd c4 c1 8a 3c
       -0.14484133 -0.08230148 -0.044476975 0.016938098
0001d0 7e ac 88 bd 62 dd 24 bd 39 e9 83 bd 5d 31 bb bd
       -0.06673525 -0.04025019 -0.06440968 -0.09140275
0001e0 f0 6c ea bd 81 53 dd bc 11 c6 47 be 04 5d 18 bd
       -0.114465594 -0.027017357 -0.1950915 -0.03719808
0001f0 41 cd 23 be 44 37 e5 bd 65 4b 2c be 7c de ec bd
       -0.15996267 -0.11192182 -0.16825636 -0.11565873
000200 b4 36 43 be 4d cd de bc 62 66 0b bd 51 96 57 bd
       -0.19063836 -0.027197504 -0.034033187 -0.052633587
000210 03 44 ef bc 66 61 16 bc 11 78 86 bd f2 12 d5 bd
       -0.029207235 -0.009178495 -0.065658696 -0.10404004
000220 9c f5 0f bd 65 d6 bf bc 47 06 a8 bc ef c8 cb bd
       -0.03514634 -0.023417661 -0.020510806 -0.099504344
000230 25 d4 0b be 40 f7 e2 bd 95 a2 33 bc ce 2b 56 bd
       -0.13655145 -0.110823154 -0.010964056 -0.05228787
000240 2f fc 21 bd 3f 1c 96 3c a6 6a 07 be 17 3a 06 be
       -0.03954714 0.018324016 -0.13224277 -0.13108097
000250 b7 36 7a bb 70 f3 01 bd 81 7a 9b bd cc 77 be bc
       -0.0038179585 -0.0317263 -0.07591725 -0.023250483
000260 dc af a1 bd c7 10 25 be 59 91 ca bd f7 e3 0e be
       -0.07894871 -0.16119681 -0.09891004 -0.13954149
000270 db 2e d0 bd 39 b0 e9 bd 92 1b 41 bc c0 c8 86 bd
       -0.10165187 -0.11410565 -0.011786358 -0.06581259
000280 5e f0 d3 bd cd c0 c4 bd 8d a5 ff bd d9 b0 a3 bd
       -0.10348581 -0.09607086 -0.12482748 -0.079927154
000290 10 18 30 bd 5a 75 c4 3c 46 70 13 be be 88 4e 3d
       -0.042991698 0.023981739 -0.14398298 0.050423376
0002a0 fc 25 27 be d1 06 b5 bd 24 73 5d be 1d 0e 25 be
       -0.16323084 -0.08839191 -0.21625954 -0.16118665
0002b0 7b 35 a7 bd 7b b2 c9 3c c1 8d 65 be 5a 7d 43 bc
       -0.081644975 0.024621239 -0.22417356 -0.011931742
0002c0 39 45 a4 bd 7b b4 1d bd 49 5c 20 be c7 54 81 bd
       -0.08021016 -0.038502198 -0.15660204 -0.06314998
0002d0 19 ea 17 bd e2 02 11 bd e9 d9 bf bd 95 d7 d1 bc
       -0.037088487 -0.03540314 -0.09367735 -0.025615493
0002e0 30 eb 10 3d ee 54 23 3d d6 e9 cb bd ae 2b ad bd
       0.035380542 0.039875917 -0.0995671 -0.08455597
0002f0 8f 43 9f bc f6 ca d7 bd e8 80 43 bd 77 f9 13 be
       -0.019441394 -0.105367586 -0.047730356 -0.14450632
000300 fe 4b 83 bd d1 2d 11 be 7f ae 6c 3c d1 f8 40 3d
       -0.06410979 -0.14177634 0.0144459 0.04711229
000310 85 6f 93 bd c7 64 c4 bd ae 61 76 3b 59 8f 94 be
       -0.07199005 -0.09589534 0.0037594843 -0.29015616
000320 ef 49 dc bd e0 2b fd 3c 4d fb 22 3b 87 35 6a bd
       -0.10756289 0.03090471 0.0024869025 -0.057179954
000330 39 2d e8 bd 14 1d 05 be 55 e1 53 bd f5 75 e6 3b
       -0.113367505 -0.12999374 -0.051728565 0.0070331045
000340 ef 7d 12 bd bd 54 76 bd 36 7b db bd ec d1 18 be
       -0.03576463 -0.060139406 -0.1071686 -0.14923829
000350 fb f2 8e 3c a6 62 0e be 5e 54 2f be 18 00 4c 3d
       0.017449846 -0.13904819 -0.17122027 0.049804777
000360 cf a3 b0 bd 1d d7 24 bd 3f 12 e4 bc 79 0b 2a bd
       -0.08624994 -0.04024421 -0.027840732 -0.041514847
000370 92 33 44 bd 18 b4 12 be d9 9e 43 be 11 79 dc bd
       -0.047900744 -0.14326513 -0.19103564 -0.10765279
000380 a6 70 81 bb c8 02 1e bd 18 66 30 3c ea 54 02 be
       -0.0039501963 -0.03857687 0.010766529 -0.12727705
000390 ae 78 31 bc c5 52 02 bd 36 6c fa bc 39 23 15 bd
       -0.010831995 -0.031817216 -0.030569177 -0.036410544
0003a0 d0 45 80 3d bf 8f ad bd b3 bb 74 bc 02 9c c4 bd
       0.06263316 -0.08474683 -0.014937329 -0.09600069
0003b0 b8 f9 a4 bd 32 e2 c0 bd dd d4 67 bd ce 01 52 be
       -0.080554426 -0.09418143 -0.056599487 -0.20508501
0003c0 66 fe 1f bd 25 b1 97 bc f2 2d 8a 3d 2c 3d 5b be
       -0.039060973 -0.018517086 0.067470446 -0.21410054
0003d0 ed 36 f2 bc 8d a2 ac bd c2 bf 3e 3d 91 da 9a bc
       -0.029567206 -0.084294416 0.046569593 -0.018903049
0003e0 30 f8 a8 3d ff b8 37 bd a5 8b 8a 3d b9 24 61 3d
       0.08250463 -0.04485416 0.06764916 0.054966662
0003f0 67 72 50 bd af a2 32 be ed 2f e6 bd 8c 55 8f bd
       -0.050890353 -0.17444871 -0.1123961 -0.06998739

network_body._body_endoder.seq_layers.0.weight f4 [256, 11]
000000 db 2b 4e 3e 85 61 d8 bd 4b 5e c8 be 14 0d e0 3e
       0.20133917 -0.105654754 -0.3913444 0.43759978
000010 b7 47 2b bf dd 7b 15 be 68 2c 0b 3c 8a f3 7e 3c
       -0.66906303 -0.14598031 0.008494474 0.015560994
000020 ff 06 ff 3e d2 76 b2 3d 1a cb c8 3e 0c 75 c2 3e
       0.49810025 0.087140694 0.39217454 0.37979925
000030 5b 4f 0a 3e 56 40 ee be c2 b5 7d bd f3 bd 28 be
       0.13506834 -0.4653346 -0.061940916 -0.1647871
000040 02 6d d5 be d7 45 1c bf f4 db 14 be 1d 01 07 bf
       -0.4168473 -0.6104407 -0.1453703 -0.52736074
000050 28 88 a5 be 06 ca 6f 3e 52 16 f2 bc 02 a8 2a 3e
       -0.3233044 0.2341691 -0.029551659 0.16665652
000060 c5 91 3f 3e bc c6 01 3d c8 f2 0f bc b2 5f 8b 3e
       0.1870795 0.03168367 -0.008785911 0.27221447
000070 33 71 4e 3e dd 65 4a be 9f e8 5e bd 6d ee 63 3e
       0.2016037 -0.1976542 -0.054421064 0.22258921
000080 d7 f6 03 bf e4 c4 07 3e 9b 60 71 3e 7a 92 03 3f
       -0.5154852 0.13258702 0.23572008 0.5139538
000090 b2 0b de be 98 ab b9 be 9c 2b b0 3e 0f d7 9f 3c
       -0.43368298 -0.36263728 0.3440827 0.019511728
0000a0 38 05 76 be a2 e1 eb 3e 6c 38 2c be 40 6d c0 bd
       -0.24025428 0.46070582 -0.16818398 -0.09395838
0000b0 eb 1e 78 be 73 1d a2 3e 20 b9 2d bf d9 b1 ee be
       -0.24230544 0.31663093 -0.67860603 -0.46620062
0000c0 00 24 85 3e 1e a6 39 bd 0f 2d ad bd a6 27 fb 3e
       0.26004028 -0.045324437 -0.0845586 0.49053687
0000d0 27 41 a9 bd b2 6a 1b be 97 e5 a8 3e 35 79 d4 be
       -0.0826438 -0.1517742 0.32987663 -0.41498724
0000e0 a7 95 90 3e eb db 30 be 06 02 00 bf 25 ef 95 be
       0.28239176 -0.17271392 -0.5000309 -0.29284015
0000f0 ee 8a bc 3d 4f fa 24 bf 30 ff 8f be db 14 2c bf
       0.09206186 -0.6444444 -0.2812438 -0.6721932
000100 40 69 c3 3d 2d 47 42 bd 55 e1 26 3f 79 a2 d3 bd
       0.09541559 -0.04743116 0.6518758 -0.103337236
000110 38 61 99 3e 21 c2 65 3f 11 10 f7 b9 87 73 a4 bc
       0.29956985 0.8974934 -0.00047123482 -0.020074619
000120 72 45 f8 be ae d2 04 be b4 5e 3a 3f 07 52 f7 bc
       -0.48490483 -0.12970993 0.72800756 -0.03019048
000130 6f 8a 8f 3d b6 e1 fb 3e c2 d3 45 3e dd 15 c3 3e
       0.07008826 0.4919564 0.1931906 0.38102618
000140 43 b7 9a 3d d5 ff 0c bf 1d 98 4e 3e fe 96 e0 bd
       0.07554486 -0.5507787 0.20175214 -0.109662995
000150 5d 29 50 bf 76 35 58 be c2 73 58 3e 23 8f bd 3d
       -0.81313115 -0.21114144 0.21137908 0.09255817
000160 2b 29 22 bf fc 6e 5a be 2c b1 5b bf 77 ae 39 bf
       -0.6334407 -0.213314 -0.8581722 -0.7253184
000170 62 45 0e 3e c9 9f 7a 3c 80 a5 2e be da d6 a3 bc
       0.13893655 0.015296885 -0.1705532 -0.01999991
000180 04 16 f9 be 60 c9 24 3e 7f c7 eb 3e 96 a5 1e 3f
       -0.4864961 0.16092443 0.4605064 0.61971414
000190 47 87 dd bd 47 4f 28 3e f0 50 39 3f 9f 8c 15 bf
       -0.10816818 0.16436492 0.72389126 -0.58417696
0001a0 eb 7e 00 3f 94 6c 9b 3c 89 fd 4f 3f 5c 1e bd 3d
       0.5019366 0.018972673 0.8124624 0.09234306
0001b0 23 c0 09 bb d4 b0 28 bc 2e 1a 99 3d 2c 61 0e bf
       -0.0021019063 -0.010296065 0.074756965 -0.5561702
0001c0 f5 f7 4e be 5e 05 07 bf f5 55 2a 3e 59 6d 06 3d
       -0.20211776 -0.52742565 0.16634353 0.032819126
0001d0 46 ff 81 3e e3 fd 3e bf b7 88 bb 3e 21 fe a2 3e
       0.2539007 -0.7460615 0.36627743 0.3183451
0001e0 fd 21 03 bd 9c 73 ff 3d 05 6e a5 3e 93 92 08 bc
       -0.032014836 0.124732226 0.323105 -0.008335727
0001f0 18 16 c3 be 1c f6 2e 3f 1b 78 c3 bd 82 23 27 be
       -0.38102794 0.68344283 -0.09544393 -0.16322139
000200 34 e2 90 bb a6 d3 85 be 8f 8b 20 bf 64 16 76 be
       -0.0044214968 -0.26138037 -0.6271295 -0.24031979
000210 ea d7 b7 be 3c 66 82 3c a7 27 27 bf 69 e6 aa be
       -0.35906917 0.01591789 -0.6529488 -0.33378914
000220 3b 12 14 bf b9 6c 22 3e 3e dc cd be 37 a3 a9 3e
       -0.5784032 0.15861787 -0.40207094 0.33132336
000230 9c ac 7a be ee 17 ed 3e fe a4 27 3d 62 41 20 bf
       -0.24479908 0.4630732 0.040928833 -0.62599766
000240 fe e0 93 be 54 92 7b 3d 88 5d 5a 3c 32 5a 2d 3e
       -0.28882593 0.061418846 0.013327964 0.16928938
000250 e3 9f 2e bf 99 6a dc bd 5a 9c a2 3c 55 d5 4f 3d
       -0.6821272 -0.107625194 0.019849945 0.05074056
000260 9a 0c 8d bd 04 7d fc 3e f3 1c af bb 43 81 7e 3e
       -0.06887169 0.4931413 -0.005344027 0.24853997
000270 0e 65 de be 65 e1 e0 bd f5 8b 14 be 3b e8 b8 be
       -0.43436474 -0.109804906 -0.14506514 -0.36114678
000280 94 b9 9f 3c fa a1 14 bc 4e 8e ed 3d 77 a5 b5 be
       0.01949767 -0.009071821 0.11599408 -0.35477802
000290 e1 81 7d be 64 0f f3 3e ec 84 ca 3e 99 cc 16 bf
       -0.24756576 0.4747268 0.39554536 -0.5890594
0002a0 23 62 95 be f3 26 8b be 42 c6 5b be ec 4b 04 3f
       -0.29176435 -0.27178153 -0.21462348 0.5167835
0002b0 60 c6 c6 bc a7 53 09 bf 86 d7 be be e3 63 82 3d
       -0.024264514 -0.5364327 -0.37273806 0.06366708
0002c0 df ce f1 3e 4e 1f d5 3e c9 0b 8d be a5 b2 99 3d
       0.47228143 0.41625446 -0.27548054 0.07504777
0002d0 f2 19 b1 3e f2 b0 15 bf 1d 8e 1a 3d 3d 86 04 3e
       0.34590107 -0.5847312 0.037733186 0.12941833
0002e0 7c c7 93 bc 48 8b 8e 3e e3 5e d0 3d c3 2c a2 bf
       -0.018039457 0.27840638 0.10174348 -1.266991
0002f0 f2 69 ec 3e d1 11 98 3c a0 e0 c2 be 8c 40 5c be
       0.4617458 0.018563183 -0.38062 -0.21508998
000300 08 39 c9 be 23 3a 1f bf 75 6a b6 bc 17 00 f7 be
       -0.39301324 -0.62198085 -0.02226756 -0.48242256
000310 24 a0 b1 be 56 c6 81 be 55 2d 1e ba e4 8f 2f bf
       -0.3469249 -0.2534663 -0.00060339767 -0.68578935
000320 2a 5a b3 be 0c 88 79 be 90 ca b1 3d 6b 15 20 bf
       -0.35029727 -0.24368304 0.08681214 -0.6253268
000330 a9 38 06 3e 69 67 de 3e 78 54 9a 3e 8b e4 fa be
       0.13107552 0.4343827 0.3014257 -0.4900249
000340 20 0e b1 bd 37 c5 10 be df ad be be 8a 27 2a be
       -0.08645272 -0.14137731 -0.37242028 -0.16616645
000350 ed 83 a8 3e be dd 9e 3e 56 ec fe be 34 9c 1c bf
       0.3291315 0.3102855 -0.49789685 -0.6117585
000360 8c 0c ba bd d3 96 9f 3e 14 14 01 3f 94 62 59 3e
       -0.090844244 0.31169757 0.5042126 0.21229011
000370 d2 08 0b 3d 83 0c c0 3e 73 39 7b 3e ed d4 f0 3a
       0.03394396 0.37509546 0.24533634 0.0018374004
000380 9b 7a 01 bf c0 d8 06 bf 2f bf 29 bf a9 b0 4b bf
       -0.50577706 -0.52674484 -0.6630735 -0.79566437
000390 59 13 53 bd d5 ff 9f 3e d1 f3 5d 3d 94 6d ad bc
       -0.051532123 0.31249872 0.0541876 -0.021170415
0003a0 e7 41 6c be 73 c9 46 be 90 02 c9 3d c6 cc 95 bd
       -0.23072015 -0.19412784 0.09814942 -0.07314448
0003b0 d4 5a 81 3d 98 c9 05 bf 57 10 a8 3e f8 25 30 be
       0.06316152 -0.5226073 0.32824966 -0.17201984
0003c0 41 0a 97 3e ac 9b 32 3f c7 6b 72 3e 53 ad d8 bd
       0.2950001 0.69768786 0.23673926 -0.10579934
0003d0 9b 41 37 be 43 25 94 bd c7 4e 19 be 22 25 99 3e
       -0.1789612 -0.072336696 -0.14971457 0.29911143
0003e0 b8 26 27 be fe 59 f4 be 01 66 bb be 98 93 8c 3e
       -0.16323364 -0.4772491 -0.3660126 0.27456355
0003f0 cb be 28 3e 1c 4a 9a bd 4f f7 84 3e b7 bb 54 3e
       0.16479032 -0.075336665 0.2596993 0.20774733

network_body._body_endoder.seq_layers.2.bias f4 [256]
000000 be 05 77 3c 46 5e 4b 3d 20 bf 13 3b 2d a2 0d 3d
       0.015077053 0.049650453 0.002254434 0.03457849
000010 bd aa 92 ba e3 ee 37 bc 75 14 6f 3d 80 fa 74 bc
       -0.00111898 -0.011226389 0.05836912 -0.014952302
000020 19 d1 8d 3d f5 24 73 bc 84 e4 30 3d 2e 21 9f 3c
       0.06924648 -0.014840354 0.04318668 0.019425001
000030 d6 59 90 bd 20 d9 8d 3d d9 28 e2 3d be 38 b7 3d
       -0.07048385 0.06926179 0.11042947 0.089463696
000040 7e 0c 9f 3d 00 eb cf 3c 23 2b 50 3d f6 4b b7 bd
       0.077660546 0.025380611 0.05082239 -0.08950035
000050 ca cc a5 bd 8b ee c1 bc 5d 79 19 bb 48 47 15 3c
       -0.08095701 -0.023673316 -0.0023418285 0.009111233
000060 c4 17 95 3d 4e 38 a9 bd 33 8b b4 3c 35 b7 e3 3b
       0.072799236 -0.082626924 0.022039032 0.00694933
000070 69 8c 50 bc be df 5d bd 9f e3 02 3e ce 37 13 3d
       -0.012728789 -0.054168455 0.12782143 0.03594189
000080 7a c4 a9 3d 62 9a 99 bd e2 18 6d 3c a3 63 92 3d
       0.08289428 -0.07500149 0.014471265 0.071479104
000090 b5 d2 cf 3d 9f a1 0c bd 29 f5 a6 3d fa 1a 3c bd
       0.10147611 -0.03433382 0.08152229 -0.045924164
0000a0 9d d6 81 3d bd 5c cc 3c 65 23 28 bc f8 d2 12 3e
       0.06339762 0.024946565 -0.010262345 0.1433829
0000b0 90 98 14 3c 19 bd f4 bb ca f0 ec 3c 8b 9f a7 3d
       0.009069577 -0.0074688313 0.02892341 0.08184727
0000c0 b4 c4 11 3d 50 75 ce 3d e4 bb 27 3d ce 97 2c bd
       0.03558798 0.10080969 0.04095067 -0.04213696
0000d0 cd 99 19 bc 14 f7 47 3d 92 0d b9 3b 28 a7 72 3d
       -0.009375048 0.048819616 0.0056473697 0.059241444
0000e0 cd 71 01 bd 4d 2b a1 3d 43 47 22 3d 5f 2a 13 3d
       -0.03160267 0.07869587 0.03961874 0.03592908
0000f0 49 1c 8f bc ab fe a8 bd 4e fb 9a 3d db 22 89 3d
       -0.017469542 -0.08251699 0.07567464 0.06696101
000100 75 d2 ca 3d ad 1b 7a bc 7e ed 49 3d 09 10 bf 3d
       0.09903423 -0.0152653875 0.049298756 0.0932923
000110 f8 5e fe bb bc 92 c6 3b 96 01 46 3d 0e 5d 88 3d
       -0.007762786 0.0060599726 0.048341356 0.06658374
000120 54 35 2c bc 34 0f 06 3e 84 e8 c1 3d 87 c0 dd bd
       -0.010510761 0.13091737 0.09468177 -0.10827737
000130 38 6d 80 3d 08 ee 99 3d f3 87 1e 3d bc ed 3a bd
       0.06270832 0.07516104 0.03870387 -0.045636877
000140 36 8a a1 bd c1 86 3b bd 83 86 13 3e 15 24 08 bd
       -0.0788769 -0.04578281 0.14406781 -0.033237536
000150 01 71 a0 bd 32 88 88 bd 85 55 91 3d ac 8a bf 3d
       -0.07834054 -0.06666602 0.0709639 0.093526214
000160 0a e8 35 3e dc 7d 26 3d fe 78 10 bd 9f d6 03 be
       0.17764297 0.040647373 -0.035271637 -0.1287484
000170 6e 08 a4 3d d7 60 83 3d 22 94 7b bd 67 e2 82 3d
       0.0800942 0.06414955 -0.061420567 0.06390839
000180 c2 de 63 bd f5 7f 9c 3d fc 89 6f 3d 44 c2 25 bd
       -0.05563236 0.07641593 0.0584812 -0.04046847
000190 ee 8e 92 3b 65 35 9d 3d d8 c8 8d 3d b1 4a 50 bb
       0.004472605 0.076762 0.069230735 -0.00317828
0001a0 11 89 19 3d 49 37 d6 3d 8c 16 fc 3b 76 1b 13 be
       0.037484232 0.104597636 0.0076931175 -0.14365944
0001b0 9a d0 39 3d 64 ce 78 3c 9a d8 2f 3d 9d 5b 93 3d
       0.045364954 0.015185926 0.042931177 0.07195208
0001c0 93 29 82 3c dc d4 1c bd 97 c3 60 3c 64 30 46 3d
       0.015888965 -0.038288936 0.013718507 0.048385993
0001d0 01 7a 57 3d d2 00 87 3d f0 55 70 bd 36 45 e4 bc
       0.052606586 0.06591953 -0.058675706 -0.027865034
0001e0 c0 53 69 3c 13 03 68 3a af 09 13 bd 4b 26 eb 3c
       0.014241159 0.0008850556 -0.035897907 0.028704783
0001f0 0c 87 43 3d ba 35 41 bd bb 36 2d 3d 44 f2 0a 3d
       0.047736213 -0.04717038 0.042288523 0.03392245
000200 d9 f8 a3 3b 94 06 02 3d 30 91 87 bd ab af 71 bc
       0.00500403 0.031744555 -0.06619489 -0.014751355
000210 43 2a 62 3c a7 0a 16 bd ae f8 d5 3d 91 0f b2 3c
       0.013804021 -0.036631253 0.104478225 0.021735938
000220 9e 00 97 bd c3 b0 63 bd 14 4b de bc 4b 6d 7a 3d
       -0.073731646 -0.055588495 -0.02713541 0.061139386
000230 12 a7 33 bd 98 3b ba 3b 86 fb b9 3d ca 9e 66 3c
       -0.043860503 0.0056833737 0.090811774 0.014075944
000240 23 6b 6f bd f9 6c 67 bc 83 b6 cd bc 8a 5e 2c bd
       -0.058451783 -0.014125102 -0.025111442 -0.042082347
000250 5a 4c e9 3d bc 48 80 3d 49 af 32 3c 2e 9f 32 be
       0.11391516 0.06263873 0.010906049 -0.17443535
000260 ec c5 01 3d e8 0f 88 3d 1f c7 89 bd b6 e8 92 3d
       0.031682894 0.06643659 -0.067274325 0.07173292
000270 f7 59 10 3d c0 b3 f2 3c 39 a4 34 3c 0a 26 cd bb
       0.035242047 0.029626727 0.011025482 -0.006260638
000280 bd 77 f8 bc d6 d3 91 3c 51 f4 21 bd 76 4f 9b 3d
       -0.030330533 0.017801207 -0.03953964 0.07583515
000290 89 1d 97 3d 3d 53 31 bc ae 9b 84 3c 02 9d 38 bd
       0.0737868 -0.010823068 0.016187515 -0.04507161
0002a0 27 b8 29 ba 3a e7 92 3c db 48 a3 3d 1c c1 1d 3d
       -0.0006474279 0.017932523 0.079728805 0.03851424
0002b0 8e b6 8b bd d2 65 18 bd c9 de 97 bc ac 97 55 3c
       -0.06821929 -0.03720648 -0.01853885 0.01303665
0002c0 7d bf 19 ba 52 f9 04 3e 53 a5 09 bc 8c 26 c4 3d
       -0.0005865021 0.12985733 -0.008401233 0.09577665
0002d0 73 9c 98 3c 71 47 fc bb 8d 85 b9 bd 8b 5b 39 3d
       0.018629288 -0.007698946 -0.09058676 0.045253318
0002e0 3f 55 72 bc d8 f3 4b 3c b8 d1 27 3c ce a6 9c 3b
       -0.014790832 0.012448274 0.010242872 0.004780627
0002f0 bd 3d 78 3d c2 32 28 bd e0 42 10 3c d0 4e 41 3d
       0.060605753 -0.04106403 0.008805007 0.047194302
000300 ed c0 1f 3d c5 7f a1 3d f5 0e 5d 3d 8a a2 d1 3c
       0.039002348 0.07885698 0.053969342 0.0255902
000310 22 f5 94 3c 72 32 23 3d e3 04 ce bc 42 f5 dc 3b
       0.018183295 0.03984303 -0.025148815 0.006743104
000320 62 b7 68 3d 48 29 14 3e cf e4 60 3d da f9 79 bd
       0.056815512 0.14468873 0.05490571 -0.061029293
000330 a4 c6 fd 3c 3f 83 62 3d 7e 1f 39 3d 6d a3 8f 3b
       0.030978508 0.055300947 0.04519605 0.0043834955
000340 8c 78 c9 3d 7e 7f a0 3d ae 2d 95 3c 79 bd 09 bd
       0.098374456 0.07836817 0.018210258 -0.03362796
000350 e8 d5 22 bc ef eb cd 3d e0 1d b4 3c 28 24 88 3d
       -0.009938695 0.100547664 0.021986902 0.06647521
000360 96 3b d2 bc 7e fb d0 3d 7a 32 7e bd b4 eb ae bc
       -0.025663178 0.10204218 -0.062059857 -0.021352626
000370 b0 0e 07 bd 22 6c 80 bd 9a 85 0d 3d ca da 86 bb
       -0.03297299 -0.06270625 0.03455124 -0.004115437
000380 3c 2d ed 3c 36 03 33 3d cc 66 6f 3d 57 9d fe 3d
       0.028952233 0.043704234 0.058447644 0.12432354
000390 3f 8d 03 3d e0 46 80 3c 6d 36 bf 3d d8 f7 16 3d
       0.032117125 0.015658796 0.09336553 0.036857456
0003a0 60 29 bd 3d 81 00 aa bc b3 4e ab 3b f2 00 d2 3d
       0.09236407 -0.020752193 0.0052278875 0.102540866
0003b0 80 d8 ec 3c 53 19 9f ba c3 88 dd 3c e3 19 ea bc
       0.028911829 -0.0012138285 0.027042752 -0.028576797
0003c0 85 e3 93 3d 2f 4c 19 3d 44 53 cd bb 91 db 2d 3d
       0.0722113 0.03742617 -0.0062660296 0.042445723
0003d0 0b a5 02 3e fb 19 36 3c 16 33 4d 3d 1e 34 39 bd
       0.12758271 0.011114593 0.050097547 -0.04521572
0003e0 a5 ab b8 3b c5 21 84 3d c9 52 cb bc e5 46 64 3d
       0.005635696 0.064517535 -0.024819748 0.055731673
0003f0 b2 0e 0e 3d a0 1e cc 3d 1f 7b 14 3d 30 e2 3d 3d
       0.034681983 0.09966779 0.03625023 0.046358287
