Assets/Model/0605AttackMode.onnx (onnx, 291227 bytes, 13 tensors)

action_model._discrete_distribution.branches.0.bias f4 [3]
0.1291113 -0.056409594 -0.09898522
00000000: c135 043e bf0d 67bd c3b8 cabd

action_model._discrete_distribution.branches.0.weight f4 [3, 256]
0.01511386 0.036830995 0.029991988 0.009506402 0.050348576 -0.01809939 0.03799471 0.06472488
-0.003451787 0.022369504 0.049602993 -0.10553966 0.049861725 0.122098945 0.09841221 0.018182425
-0.06481599 -0.15662336 -0.040888265 -0.09873077 0.0043286914 0.04405975 0.07465621 0.07258964
-0.03687575 -0.033631112 0.029729536 -0.06590897 -0.08525946 0.05161237 -0.062166825 0.06360153
0.013188085 -0.049919307 -0.08084399 0.06416637 -0.063401446 -0.0061560036 0.012929213 0.0422075
0.029215641 0.04542972 0.05244679 -0.021317061 0.042993005 0.072142854 -0.11573354 -0.016502453
-0.011017295 -0.09014761 -4.5260575e-05 0.011467031 0.0518383 0.033573233 0.0637968 0.046422396
-0.0030309865 0.06813415 -0.088564165 0.050943084 0.023543362 0.06122168 0.0071033053 0.03841862
0.039051212 -0.028530056 0.03081098 -0.1212706 0.030118193 0.03761929 0.036937293 0.03800343
-0.05373607 -0.046771575 0.016156677 0.02487608 0.024779527 0.046408966 -0.014984347 0.017820526
0.05732794 0.067285605 0.07416274 0.009644425 -0.055631224 0.0024580536 0.056585625 0.03948682
0.039584927 0.072424926 0.02077389 -0.026737822 0.019295832 0.053008564 0.03559919 0.047214903
0.030834278 0.06952705 0.016507868 -0.012476912 -0.05207731 0.02680639 0.05176793 0.031611305
-0.014029529 0.036253806 0.090735234 -0.10317004 -0.022681857 0.081436984 -0.040718086 0.07046854
-0.037683588 -0.07221835 0.034149554 -0.031056106 0.061472237 0.054878663 -0.04446997 -0.073088765
0.068741135 0.002747146 -0.10307614 0.03055384 0.059436876 0.033304565 -0.09268478 -0.0015658301
0.050472133 -0.04443259 -0.009872978 0.031511284 -0.13305059 -0.05563382 -0.0024189139 0.049253993
-0.0037594144 0.0070085786 -0.035938267 0.04422321 0.03985563 0.053589888 -0.01491556 0.08572526
0.020445917 -0.003813706 0.028432377 -0.022781778 -0.056520272 0.018501539 0.031128408 0.080906704
0.030024895 0.035285138 -0.0200185 0.02893268 0.06418385 0.025888005 0.07144108 0.05639835
-0.107861616 -0.15211041 0.018992942 0.040258963 0.07959211 0.024245838 -0.09270279 0.07229993
0.036880165 0.04860973 0.05687661 -0.015981631 0.053146906 0.041705683 -0.030283062 0.016581474
0.050556213 0.034319654 -0.01916171 0.008450875 0.048921276 0.06884586 0.0156107955 0.012492595
-0.03438526 0.071819164 -0.06718162 -0.018498767 0.031954624 0.036972396 0.0030676522 -0.008876465
-0.105081715 0.015761567 0.07213787 0.07728943 0.031732854 0.027522767 0.03815113 0.013638887
0.0059659895 -0.08058549 0.025629662 0.09545603 -0.019492108 -0.023232535 0.00027892765 0.030327726
0.03593809 0.034829013 -0.015446565 -0.017416602 0.08859592 0.04319257 -0.020330573 0.047289547
0.02535129 -0.027094295 0.048934687 0.012680302 0.054668818 0.035393737 0.02902255 0.064686984
-0.024599386 -0.007663381 -0.05504301 -0.0335086 0.02877052 0.00022274602 0.013820792 0.0005101591
0.0421672 -0.08848995 0.008821809 -0.001401853 -0.008247088 0.0057865945 -0.010092178 0.084610246
-0.00077808846 -0.006092191 0.03852012 0.032370158 0.07192604 0.017273206 0.017484764 0.025088152
-0.06714131 0.023901405 -0.024571767 0.068376094 -0.07703871 0.07184251 -0.039306484 0.011770659
00000000: 20a0 773c 19dc 163d c2b1 f53c bdc0 1b3c
00000010: 4f3a 4e3d 2c45 94bc 57a0 1b3d 7a8e 843d
00000020: 6037 62bb 4040 b73c 822c 4b3d 2d25 d8bd
00000030: cf3b 4c3d 030f fa3d 578c c93d 4ff3 943c
00000040: 3fbe 84bd e061 20be 747a 27bd 5c33 cabd
00000050: b2d7 8d3b ff77 343d 5be5 983d e1a9 943d
00000060: 070b 17bd c7c0 09bd 5b8b f33c 48fb 86bd
00000070: 839c aebd 7e67 533d a4a2 7ebd 8541 823d
00000080: d612 583c 3078 4cbd 8991 a5bd a869 833d
00000090: 9ed8 81bd 4db8 c9bb 0dd5 533c c6e1 2c3d
000000a0: a455 ef3c 8414 3a3d 72d2 563d 1ea1 aebc
000000b0: 6f19 303d a2bf 933d b505 edbd 2730 87bc
000000c0: e281 34bc 4f9f b8bd 2cd6 3db8 37e0 3b3c
000000d0: 6654 543d 1684 093d e6a7 823d 6925 3e3d
000000e0: 84a3 46bb eb89 8b3d 2161 b5bd b2a9 503d
000000f0: 02de c03c 96c3 7a3d d8c2 e83b d85c 1d3d
00000100: 2af4 1f3d ddb7 e9bc 4f67 fc3c b85c f8bd
00000110: 6eba f63c af16 1a3d 8f4b 173d 7ca9 1b3d
00000120: 5a1a 5cbd 8d93 3fbd 025b 843c ecc8 cb3c
00000130: 6ffe ca3c 5417 3e3d e880 75bc 5afc 913c
00000140: b4d0 6a3d 09cd 893d a2e2 973d a603 1e3c
00000150: 91dd 63bd 4c17 213b 54c6 673d efbc 213d
00000160: ce23 223d 8553 943d 012e aa3c 4709 dbbc
00000170: 4b12 9e3c 821f 593d 75d0 113d 6a64 413d
00000180: 2b98 fc3c 3364 8e3d 823b 873c f66b 4cbc
00000190: 044f 55bd 1399 db3c 9c0a 543d db7a 013d
000001a0: 1cdc 65bc df7e 143d 65d3 b93d d04a d3bd
000001b0: 4dcf b9bc 6fc8 a63d 02c8 26bd cf51 903d
000001c0: 1b5a 1abd 37e7 93bd 67e0 0b3d 6069 febc
000001d0: 50ca 7b3d 73c8 603d 2526 36bd 90af 95bd
000001e0: 27c8 8c3d 7609 343b 9519 d3bd 0c4c fa3c
000001f0: 1574 733d 5e6a 083d 85d1 bdbd 8a3c cdba
00000200: debb 4e3d f3fe 35bd 45c2 21bc fa11 013d
00000210: 6a3e 08be 4ae0 63bd a486 1ebb 8ebe 493d
00000220: 8260 76bb 38a8 e53b 0134 13bd 6623 353d
00000230: a83f 233d 1281 5b3d 6560 74bc ba90 af3d
00000240: 327e a73c 5fef 79bb 04eb e83c daa0 babc
00000250: cd81 67bd 8a90 973c 0101 ff3c 6ab2 a53d
00000260: c5f6 f53c 2687 103d d6fd a3bc 3a04 ed3c
00000270: d372 833d 1513 d43c b34f 923d f501 673d
00000280: 8de6 dcbd d5c2 1bbe 1697 9b3c 95e6 243d
00000290: 3001 a33d 359f c63c f6da bdbd fc11 943d
000002a0: a80f 173d ff1a 473d 73f7 683d e9eb 82bc
000002b0: 92b0 593d 94d3 2a3d 2f14 f8bc dfd5 873c
000002c0: 0814 4f3d c492 0c3d 05f9 9cbc 8a75 0a3c
000002d0: ad61 483d 0fff 8c3d 6cc4 7f3c bead 4c3c
000002e0: 8fd7 0cbd ed15 933d 8496 89bd ba8a 97bc
000002f0: dae2 023d 5e70 173d aa0a 493b 986e 11bc
00000300: 1535 d7bd 671e 813c 05bd 933d ec49 9e3d
00000310: 4ffa 013d 6d77 e13c 5c44 1c3d a375 5f3c
00000320: 597e c33b 010a a5bd 4cf5 d13c 737e c33d
00000330: eaad 9fbc 2852 bebc 093d 9239 da71 f83c
00000340: d233 133d dea8 0e3d 9713 7dbc 43ad 8ebc
00000350: c771 b53d b1ea 303d 4d8c a6bc afb2 413d
00000360: 82ad cf3c dbf4 ddbc bd6f 483d 0bc1 4f3c
00000370: 69ec 5f3d 06f9 103d b3c0 ed3c 9c7a 843d
00000380: a784 c9bc 191d fbbb c774 61bd 5040 09bd
00000390: 27b0 eb3c ee90 6939 9a70 623c 33bc 053a
000003a0: 84b7 2c3d 383a b5bd 5989 103c 62be b7ba
000003b0: cb1e 07bc 799d bd3b aa59 25bc 2348 ad3d
000003c0: a2f8 4bba 01a1 c7bb 46c7 1d3d 9296 043d
000003d0: f64d 933d 8a80 8d3c 353c 8f3c ab85 cd3c
000003e0: 6281 89bd e1cc c33c bb4a c9bc c408 8c3d
000003f0: 79c6 9dbd 2a22 933d d6ff 20bd b9d9 403c

action_model._discrete_distribution.branches.1.bias f4 [3]
0.056997787 -0.02792402 -0.019475129
00000000: 8376 693d eac0 e4bc 4e8a 9fbc

action_model._discrete_distribution.branches.1.weight f4 [3, 256]
0.14013956 -0.038420293 0.05991666 -0.019778876 0.12118027 0.055307772 0.14380783 0.025060251
0.031645723 -0.08482932 0.17219618 -0.031832807 0.13274154 0.067448676 0.035652157 0.02023018
-0.17592832 -0.06521993 0.04376131 0.019325769 0.026167797 0.07414461 -0.003050939 -0.018782685
-0.06374224 -0.14929916 -0.0925025 -0.07083422 -0.022474857 0.009634928 -0.033598296 0.17966637
-0.037971497 0.036793888 -0.00838684 -0.027233088 0.021646898 -0.08263322 -0.18436323 0.023239527
0.039935865 0.056910902 0.0125874225 -0.008748166 0.0031065955 0.15502201 -0.056320585 0.045181375
-0.1513309 -0.01878614 0.009937884 -0.010444895 0.17349087 0.18217862 0.17815404 0.008556988
-0.016779864 0.026973575 -0.032000136 -0.032345094 0.10284756 0.08599887 -0.047216028 -0.0013025445
0.015930792 -0.018299239 -0.0973298 -0.022607092 0.18610057 0.016585981 0.090054154 -0.045661017
-0.054167446 0.014828504 0.009177658 -0.015154328 -0.030341575 0.029286936 -0.08698978 -0.06792465
0.16553937 0.11697534 -0.042748116 -0.04570602 -0.06936173 -0.031847723 0.009165222 -0.030171966
0.18360446 -0.08128902 0.011230526 -0.119017914 0.025739184 -0.001964894 -0.07386226 -0.080451235
0.09209512 -0.014070059 7.1390146e-05 0.02675444 0.00041966522 0.044054974 0.08574488 -0.09024861
0.007716461 0.14379121 -0.06682698 0.028756551 -0.024929384 0.09864399 0.05325763 0.044814926
-0.19408903 0.016977994 -0.039440658 -0.009705873 0.0316064 -0.06230778 -0.06499845 0.11546542
0.16630015 -0.010457754 -0.030042471 -0.07191784 -0.003600713 -0.010537314 -0.11701918 0.020860482
0.06735708 0.009518524 -0.16527405 -0.054468397 -0.090757795 -0.011856979 -0.017659815 0.0811904
-0.023640977 -0.069051236 0.08413546 0.0043370947 -0.10303686 0.105433464 -0.097761326 -0.03440826
-0.023698034 -0.035003718 0.06314921 0.010086356 -0.13224424 -0.07510638 -0.071811095 0.06608753
0.014978142 0.020796984 0.08580882 -0.010213082 -0.0033935707 0.03350141 -0.033522505 0.07671586
-0.08913631 -0.006843732 0.1457822 0.08513036 0.05638568 0.013565419 -0.0013556316 0.029922837
0.003437031 0.06953857 0.00396902 -0.026803711 0.06343965 0.007006391 0.12046856 -0.18098803
0.080489606 -0.047995027 0.09126597 -0.07007007 -0.05072371 0.05362838 0.13941047 -0.15824418
0.0132360095 0.013217823 -0.086546116 -0.03907733 -0.12911563 -0.06444275 -0.04874779 -0.16492704
0.01818209 -0.05894793 0.04186856 0.040808998 0.0049854354 -0.006055934 -0.05306805 0.10496074
-0.06669817 -0.13654667 -0.059344247 0.031533364 -0.027435832 0.06018344 -0.025141818 0.07999143
0.04184591 0.042418834 -0.0072853947 0.029049268 0.019880889 0.06329841 -0.03161137 0.08930119
-0.104080066 -0.04407599 0.006608808 -0.058100633 0.02526744 -0.0139110405 0.08565248 0.08307401
0.014522167 -0.034326278 -0.00023861018 -0.11988117 0.0033575606 0.10022412 -0.092550814 -0.03210572
-0.036737464 -0.072561026 -0.10389802 0.0033392124 -0.02993899 -0.0061212135 0.021445785 0.07258914
0.018912636 0.015561896 -0.074898176 0.11900547 -0.0014837678 -0.099341944 -0.03911281 0.019071396
0.06838491 -0.016944949 0.032637104 0.12010268 -0.047817823 0.066418834 -0.2018365 -0.08093637
00000000: bf80 0f3e 995e 1dbd 2c6b 753d 4f07 a2bc
00000010: 5d2d f83d 678a 623d 5c42 133e 284b cd3c
00000020: f29e 013d ffba adbd 3254 303e 1e63 02bd
00000030: 66ed 073e 8822 8a3d ff07 123d c3b9 a53c
00000040: 8e26 34be 0792 85bd 0f3f 333d 1351 9e3c
00000050: d95d d63c 21d9 973d 43f2 47bb 25de 99bc
00000060: 4b8b 82bd e1e1 18be f371 bdbd 8811 91bd
00000070: 311d b8bc d1db 1d3c 5e9e 09bd 76fa 373e
00000080: 0088 1bbd 30b5 163d f568 09bc ed17 dfbc
00000090: d654 b13c 9b3b a9bd b7c9 3cbe d260 be3c
000000a0: ca93 233d 681b 693d 7a3b 4e3c 7854 0fbc
000000b0: 0698 4b3b 17be 1e3e 6ab0 66bd 1b10 393d
000000c0: 7df6 1abe 64e5 99bc 82d2 223c 1121 2bbc
000000d0: 97a7 313e 088d 3a3e 036e 363e 9c32 0c3c
000000e0: ed75 89bc b0f7 dc3c 9312 03bd 4a7c 04bd
000000f0: bea1 d23d 2d20 b03d 9865 41bd 24ba aaba
00000100: 4b81 823c 49e8 95bc d954 c7bd 8232 b9bc
00000110: 2691 3e3e 53df 873c 506e b83d 0c07 3bbd
00000120: afde 5dbd 41f3 723c e35d 163c dc49 78bc
00000130: e58e f8bc 28eb ef3c b327 b2bd 141c 8bbd
00000140: 2783 293e c490 ef3d a618 2fbd 3c36 3bbd
00000150: 860d 8ebd c272 02bd ba29 163c 332b f7bc
00000160: cf02 3c3e dc7a a6bd 3d00 383c aabf f3bd
00000170: fbda d23c 73c5 00bb 1945 97bd 9ec3 a4bd
00000180: 5e9c bc3d 1b86 66bc 4bb7 9538 212c db3c
00000190: 8306 dc39 fd72 343d 039b af3d 43d4 b8bd
000001a0: 5eda fc3b 013e 133e 95dc 88bd dc92 eb3c
000001b0: b538 ccbc dc05 ca3d ac24 5a3d db8f 373d
000001c0: 46bf 46be 6f15 8b3c 878c 21bd 6205 1fbc
000001d0: b675 013d 7136 7fbd e81d 85bd 2279 ec3d
000001e0: 964a 2a3e 0057 2bbc a11b f6bc a949 93bd
000001f0: f1f9 6bbb b3a4 2cbc c0a7 efbd 9ae3 aa3c
00000200: 82f2 893d 95f3 1b3c 9a3d 29be 411a 5fbd
00000210: 39df b9bd c643 42bc 51ab 90bc 2747 a63d
00000220: b9aa c1bc bc6a 8dbd 364f ac3d 301e 8e3b
00000230: fd04 d3bd 80ed d73d 1737 c8bd adef 0cbd
00000240: 6122 c2bc 0f60 0fbd 5f54 813d 3e41 253c
00000250: 096b 07be 60d1 99bd b211 93bd e658 873d
00000260: e266 753c 705e aa3c 89bc af3d c554 27bc
00000270: ab66 5ebb c638 093d e54e 09bd 341d 9d3d
00000280: 198d b6bd 6341 e0bb ee47 153e d458 ae3d
00000290: acf4 663d 7e41 5e3c 73af b1ba bd20 f53c
000002a0: d03f 613b 3d6a 8e3d 8e0e 823b 7593 dbbc
000002b0: a6ec 813d de95 e53b 38b8 f63d ed54 39be
000002c0: bcd7 a43d 6f96 44bd a7e9 ba3d e680 8fbd
000002d0: aac3 4fbd 6fa9 5b3d 9ec1 0e3e c30a 22be
000002e0: d9db 583c 918f 583c 173f b1bd 8d0f 20bd
000002f0: e336 04be 8ffa 83bd c3ab 47bd a2e2 28be
00000300: 9bf2 943c 6273 71bd 5e7e 2b3d 5627 273d
00000310: dd5c a33b db70 c6bb e25d 59bd a8f5 d63d
00000320: 0d99 88bd e4d2 0bbe f412 73bd 2129 013d
00000330: 1cc1 e0bc e982 763d 37f6 cdbc 8cd2 a33d
00000340: 9e66 2b3d 5fbf 2d3d 52ba eebb bbf8 ed3c
00000350: 3fdd a23c 99a2 813d ed7a 01bd 8be3 b63d
00000360: ee27 d5bd 0689 34bd b38e d83b eefa 6dbd
00000370: aafd ce3c 22eb 63bc 916a af3d b522 aa3d
00000380: 62ee 6d3c b699 0cbd 6f33 7ab9 4284 f5bd
00000390: 850a 5c3b 4e42 cd3d 488b bdbd 4a81 03bd
000003a0: 067a 16bd e09a 94bd 7cc8 d4bd b0d6 5a3b
000003b0: 9d42 f5bc 7694 c8bb 12af af3c 9da9 943d
000003c0: acee 9a3c 53f7 7e3c 3764 99bd 24b9 f33d
000003d0: fc7a c2ba ca73 cbbd c134 20bd 9e3b 9c3c
000003e0: 630d 8c3d 22d0 8abc 7cae 053d 65f8 f53d
000003f0: 9fdc 43bd 9906 883d 3aae 4ebe f8c1 a5bd

action_model._discrete_distribution.branches.2.bias f4 [3]
0.025568262 -0.14694858 0.13207687
00000000: 8874 d13c b079 16be 293f 073e

action_model._discrete_distribution.branches.2.weight f4 [3, 256]
-0.021978162 0.07588588 0.032204792 0.027431892 0.071055025 0.012845788 0.07815393 0.041038692
-0.08910371 0.06757297 0.057661876 0.022677768 0.047204588 0.09115586 0.024844194 -0.02909421
-0.06063404 -0.090477034 -0.12241866 0.01401451 0.021798698 0.032866832 -0.05045734 -0.003632584
-0.043419443 0.028888782 -0.013062469 -0.010566179 -0.06679901 0.020608125 -0.014322177 0.051248062
0.0036264018 -0.023748228 -0.014162265 0.043242957 -0.08632303 0.06382914 0.018785102 0.032931834
-0.0050984337 0.04128582 0.030754296 0.0146729965 0.0057801977 0.07179 -0.11522035 -0.039059095
-0.022978159 -0.05508587 -0.008900326 -0.044807818 0.058959555 0.073818244 0.101848096 0.017080132
-0.018611493 0.03444549 -0.09451363 -0.018437916 -0.018401833 0.06546284 -0.028270967 0.00086737995
0.0021987413 -0.06876671 0.02441053 -0.019859038 0.011475961 0.011359684 -0.007808847 -0.009236116
-0.0035652413 0.002496595 0.044865273 -0.00025958943 -0.023542754 -0.004419438 -0.063961774 0.0050536706
0.05161934 0.014377498 -0.016066788 -0.010008134 -0.0936747 -0.016993523 0.0016206562 -0.03921548
0.012853476 -0.014803481 -0.0008084939 0.084812194 -0.0010517198 -0.01142161 0.003217424 -0.021390755
0.061567128 0.016691554 0.06943065 -0.09220343 -0.009363506 0.010066967 0.025229227 0.021758309
-0.036291 -0.005571345 -0.018478775 -0.002461006 0.083571486 0.043134157 0.026919508 0.050621677
0.022028714 -0.11684662 0.0016391346 -0.012697768 0.05231386 -0.028932158 0.09534348 -0.018456442
0.040504225 0.0677135 0.040119063 0.011287521 0.019453172 -0.0016169731 0.048286818 0.07503502
0.040732145 -0.037813958 0.009570868 -0.020716846 -0.15089063 -0.057010587 -0.010959376 -0.08152787
-0.0057605486 0.0048639006 -0.0045352136 -0.008880594 0.053861115 0.050804395 -0.06105897 0.050410133
-0.023907835 -0.043048292 -0.08389086 0.02385314 -0.01941909 0.029142588 0.024171641 -0.041607052
0.0357543 0.06762556 -0.06715403 0.047750425 0.040296644 -0.019359175 0.07315767 0.011029024
-0.012376246 -0.09597109 0.08473388 0.036511377 0.045307387 -0.0068168645 -0.035979275 0.010413179
-0.014771724 -0.012717454 0.014700797 0.037448604 0.017416727 0.055605676 0.093168974 0.0638252
0.046133045 0.013209042 0.027023012 0.0011983317 0.031817146 0.0524985 -0.0487425 -0.026535831
-0.07386708 0.030624015 -0.0457197 0.012614351 0.019974452 -0.03131933 -0.08320837 0.07644135
0.038458418 0.05143363 0.054080844 0.07566329 0.024161715 -0.00415103 -0.013050597 0.033007264
-0.0051466487 0.0020414137 -0.042664144 0.037532758 0.04457753 0.007263388 -0.023312328 0.054018077
-0.040135317 -0.014326641 0.0018297258 0.0540889 -0.02599791 -0.02300117 0.057102453 0.09800466
0.037162237 -0.1470389 0.02598784 -0.012855329 -0.014427382 0.017716529 0.008431993 0.037528325
-0.018538356 0.02393436 0.031442527 -0.08353805 -0.03682468 -0.067189574 -0.0070884936 -0.0033004938
-0.027583435 -0.093304515 0.027878879 -0.04330944 0.004157325 -0.029150173 -0.020517085 0.035065997
-0.035033546 -0.020666359 0.004168912 -0.038529582 0.03776287 0.021186726 0.009530854 0.033820722
-0.06832443 -0.1003864 -0.012379826 0.029804392 -0.040047493 0.038981188 -0.01689196 0.045347817
00000000: 8c0b b4bc 0e6a 9b3d 2ce9 033d d9b8 e03c
00000010: 4c85 913d 2477 523c 2b0f a03d 3018 283d
00000020: 027c b6bd b363 8a3d dc2e 6c3d bac6 b93c
00000030: 9959 413d ecaf ba3d 0d86 cb3c fb56 eebc
00000040: 665b 78bd 064c b9bd a2b6 fabd 1e9d 653c
00000050: 2f93 b23c 5f9f 063d 5bac 4ebd a510 6ebb
00000060: 96d8 31bd 2ba8 ec3c f703 56bc c41d 2dbc
00000070: ebcd 88bd 5fd2 a83c 90a7 6abc 7de9 513d
00000080: eda8 6d3b a58b c2bc d808 68bc 871f 313d
00000090: 21ca b0bd dab8 823d 37e3 993c 88e3 063d
000000a0: c310 a7bb 521b 293d 6ff0 fb3c 0267 703c
000000b0: d067 bd3b a306 933d a6f8 ebbd 6efc 1fbd
000000c0: b13c bcbc b9a1 61bd acd2 11bc 6788 37bd
000000d0: 937f 713d 052e 973d bc95 d03d a2eb 8b3c
000000e0: 2177 98bc b716 0d3d 5d90 c1bd 1d0b 97bc
000000f0: 71bf 96bc 6211 863d 8498 e7bc e260 633a
00000100: c218 103b 90d5 8cbd 98f8 c73c 6caf a2bc
00000110: ab05 3c3c f81d 3a3c 5be1 ffbb 1453 17bc
00000120: d3a6 69bb ea9d 233b a6c4 373d 8119 88b9
00000130: bcdc c0bc efd0 90bb 64fe 82bd 4399 a53b
00000140: cd6e 533d 998f 6b3c 7f9e 83bc 28f9 23bc
00000150: 85d8 bfbd 0036 8bbc 336c d43a 69a0 20bd
00000160: 6397 523c 4d8a 72bc 1bf1 53ba 04b2 ad3d
00000170: dcd9 89ba b421 3bbc 6bdb 523b aa3b afbc
00000180: d02d 7c3d babc 883c a831 8e3d 27d5 bcbd
00000190: 6469 19bc ecef 243c 86ad ce3c 7b3e b23c
000001a0: dfa5 14bd d48f b6bb cd60 97bc d448 21bb
000001b0: 8727 ab3d 71ad 303d 4d86 dc3c ad58 4f3d
000001c0: 9075 b43c 484d efbd 3bd8 d63a 4d0a 50bc
000001d0: 0f47 563d 2203 edbc 7143 c33d f731 97bc
000001e0: c2e7 253d 60ad 8a3d e353 243d 4bef 383c
000001f0: 425c 9f3c 9df0 d3ba 66c8 453d f6ab 993d
00000200: c0d6 263d cfe2 1abd 21cf 1c3c 60b6 a9bc
00000210: 1383 1abe ef83 69bd f48e 33bc 15f8 a6bd
00000220: fcc2 bcbb 5b61 9f3b 219c 94bb e97f 11bc
00000230: 799d 5c3d 4518 503d f818 7abd db7a 4e3d
00000240: 5dda c3bc 6853 30bd f9ce abbd a967 c33c
00000250: c914 9fbc 70bc ee3c 9b03 c63c 286c 2abd
00000260: 1a73 123d 457f 8a3d 0d88 89bd f395 433d
00000270: 180e 253d 2297 9ebc b0d3 953d 14b3 343c
00000280: bdc5 4abc 7e8c c4bd f588 ad3d f48c 153d
00000290: 3d94 393d 0160 dfbb 015f 13bd 0a9c 2a3c
000002a0: 1a05 72bc de5c 50bc 9ddb 703c b563 193d
000002b0: 86ad 8e3c c7c2 633d 60cf be3d c9b6 823d
000002c0: 01f6 3c3d bd6a 583c 5d5f dd3c 5711 9d3a
000002d0: b252 023d ab08 573d 37a6 47bd ac61 d9bc
000002e0: a047 97bd 37df fa3c 9544 3bbd 6cac 4e3c
000002f0: 76a1 a33c b348 00bd 2669 aabd 488d 9c3d
00000300: 9386 1d3d 12ac 523d e083 5d3d 5bf5 9a3d
00000310: caee c53c 5d05 88bb 2cd2 55bc a032 073d
00000320: 38a5 a8bb 3dc9 053b 99c0 2ebd f3bb 193d
00000330: ee96 363d b701 ee3b 7ff9 bebc 0f42 5d3d
00000340: ee64 24bd 4aba 6abc 69d3 ef3a 538c 5d3d
00000350: 92f9 d4bc f36c bcbc 43e4 693d abb6 c83d
00000360: 6e37 183d 5e91 16be 73e4 d43c 289f 52bc
00000370: d360 6cbc 4122 913c 5826 0a3c 4db7 193d
00000380: c0dd 97bc fe11 c43c e1c9 003d ff15 abbd
00000390: 7ad5 16bd b09a 89bd 9846 e8bb 194d 58bb
000003a0: a8f6 e1bc 7016 bfbd 3f62 e43c 3d65 31bd
000003b0: 2b3a 883b 58cc eebc 7213 a8bc 5da1 0f3d
000003c0: 567f 0fbd 7f4c a9bc 5e9b 883b 32d1 1dbd
000003d0: 3dad 1a3d c98f ad3c 4d27 1c3c 9987 0a3d
000003e0: aeed 8bbd 6397 cdbd c1d4 4abc 5728 f43c
000003f0: d708 24bd bdaa 1f3d 0261 8abc a2be 393d

action_model._discrete_distribution.branches.3.bias f4 [2]
-0.044780128 0.044780146
00000000: 5e6b 37bd 636b 373d

action_model._discrete_distribution.branches.3.weight f4 [2, 256]
-0.0010467004 -0.015478911 0.017432887 -0.031729054 -0.0036613233 -0.01433189 0.009598153 -0.011874045
0.0033944272 0.049044807 0.013909219 0.071536034 0.0059306854 -0.014830772 0.008332046 0.0068410435
-0.050286397 -0.010653977 0.013982787 0.028466603 0.012007252 -0.009115021 -0.07452681 -0.041784268
0.041588087 -0.07008847 -0.08586287 -0.044110045 0.0687302 -0.010375412 0.012495737 0.008126509
0.008118104 0.019111697 0.044778943 -0.009625908 0.050963327 0.05067866 -0.03005136 -0.01708279
0.0038645142 -0.006919781 -0.00045390578 0.04282632 0.0071298317 -0.0119457925 0.015442309 0.015764838
-0.06519408 -0.006753461 -0.0007307046 -0.0048500923 0.008291949 0.0074054752 0.018889308 0.0019601756
-0.017259974 0.0049864533 0.01496854 -0.034769822 0.0011712809 -0.00741396 -0.03331947 -0.009222877
-0.0011511937 -0.010628296 -0.06527531 0.027766328 -0.0002466142 0.009056072 0.009846681 -0.033813294
-0.042684793 0.048409294 -0.0060968213 -0.008338468 -0.035662055 -0.011812572 -0.0052299732 -0.024653386
-7.8701494e-05 -0.005288663 -0.07200491 0.02314554 0.012502192 -0.06338401 -0.017335247 -0.08106697
0.014142263 -0.01922871 2.9333692e-06 0.049251348 -0.003981598 -0.029509887 -0.03103723 -0.064512335
0.008760429 -0.026190868 -0.020782243 0.020143839 0.061047852 -0.0021304497 -0.017247455 -0.06694079
0.00552545 0.005260215 -0.07868602 0.018993847 0.07757873 -0.0060582673 0.04656829 -0.0041498663
-0.047747564 0.021868212 0.0010900366 0.033052288 -0.012758833 -0.06294057 0.013459743 0.0033896682
0.0009578895 -0.042239636 0.09567849 0.011442384 -0.017291265 -0.010047792 0.025945446 -0.03278922
-0.002857862 0.06871313 -0.06838644 -0.02850535 -0.01536999 0.080181785 -0.02596345 0.013090217
0.0008945103 0.007578506 -0.0016085585 -0.010764474 -0.051721178 0.009560148 -0.034007847 -0.022453802
-0.015603493 -0.0061011645 0.0044309124 0.065622166 -0.051225387 0.05560599 -0.004824166 -0.0017841036
0.005060445 -0.035313867 0.022670783 0.012410722 -0.018007563 -0.0087161055 -0.025656736 -0.0038237455
0.048555937 0.032119516 0.0060697007 -0.0038674287 0.00617385 0.0027912622 0.044088434 0.0028310858
-0.014956988 -0.01888468 -0.03135657 0.008147267 0.0034833802 -0.007523433 0.009049439 -0.022484118
-0.0025203435 -0.011178309 0.004603615 -0.042236526 -0.0140973115 -0.001351674 -0.009151387 -0.055050243
0.00022241942 0.006386997 -0.058842473 0.019220501 -0.023929898 -0.048381735 -0.036707297 -0.05674684
0.03692271 -0.047819454 -0.007575246 -0.0216975 -0.009915999 0.0022868006 -0.08041895 0.019835386
-0.035558924 0.06443358 -0.031884238 0.016731434 0.061665755 0.022131668 0.013980458 -0.005903408
-0.007475942 -0.024066899 0.0026468066 -0.04091136 -0.045004643 -0.017862797 0.04500072 -0.011958128
-0.020105487 -0.032309406 0.02317413 -0.04375129 -0.011126604 -0.0034877933 0.013136009 -0.010880714
0.04971643 -0.023834344 0.03771043 -0.0033397165 -0.043417614 -0.0011911861 -0.037891652 -0.03693815
-0.033609927 -0.02277996 -0.06723177 -0.025234288 0.016596368 0.011144455 -0.005575719 0.00015103436
-0.006088099 0.05807932 -0.031981163 -0.008248733 -0.006528482 -0.022851838 0.00028098782 -0.011386151
0.03657997 -0.03152471 -0.00865423 0.0031795732 0.058500957 0.016081315 -0.056384027 -0.054907672
00000000: 7031 89ba 429b 7dbc 6acf 8e3c 53f6 01bd
00000010: d0f2 6fbb 4ed0 6abc 9241 1d3c 5b8b 42bc
00000020: 0a75 5e3b 35e3 483d 7ee3 633c 7c81 923d
00000030: 3256 c23b c4fc 72bc 2283 083c d52a e03b
00000040: 1cf9 4dbd 058e 2ebc 0f18 653c cb32 e93c
00000050: 11ba 443c 2b57 15bc 83a1 98bd fb25 2bbd
00000060: 4558 2a3d 8b8a 8fbd dfd8 afbd bcac 34bd
00000070: 6bc2 8c3d a2fd 29bc ebba 4c3c 0d25 053c
00000080: cc01 053c 2290 9c3c 206a 373d fcb5 1dbc
00000090: ecbe 503d 6d94 4f3d 452e f6bc 35f1 8bbc
000000a0: ca43 7d3b 55bf e2bb 34fa edb9 a76a 2f3d
000000b0: 5da1 e93b 49b8 43bc bd01 7d3c 4325 813c
000000c0: 7984 85bd 234c ddbb c18c 3fba 86ed 9ebb
000000d0: f4da 073c a1a9 f23b c0bd 9a3c 4a76 003b
000000e0: ca64 8dbc 6765 a33b 9b3e 753c cd6a 0ebd
000000f0: aa85 993a cef0 f2bb ff79 08bd 8d1b 17bc
00000100: a7e3 96ba 4e22 2ebc 10af 85bd 3676 e33c
00000110: ff4b 81b9 eb5f 143c f953 213c cf7f 0abd
00000120: 40d6 2ebd d348 463d d8c7 c7bb 129e 08bc
00000130: 6012 12bd 8589 41bc 3260 abbb e6f5 c9bc
00000140: 8b0c a5b8 854c adbb 4f77 93bd b79b bd3c
00000150: fed5 4c3c 7acf 81bd a602 8ebc 7106 a6bd
00000160: f3b4 673c 8785 9dbc e6da 4436 c8bb 493d
00000170: 1178 82bb b8be f1bc ca41 febc 0b1f 84bd
00000180: e787 0f3c 3b8e d6bc 863f aabc b104 a53c
00000190: 500d 7a3d 049f 0bbb 894a 8dbc 4118 89bd
000001a0: d60e b53b e25d ac3b 2326 a1bd fc98 9b3c
000001b0: 99e1 9e3d 6e84 c6bb 64be 3e3d 9afb 87bb
000001c0: f392 43bd f724 b33c 8fdf 8e3a d661 073d
000001d0: 6d0a 51bc fce6 80bd 4186 5c3c 3225 5e3b
000001e0: e01a 7b3a 7803 2dbd 16f3 c33d d678 3b3c
000001f0: 69a6 8dbc 7f9f 24bc 8b8b d43c fd4d 06bd
00000200: f84a 3bbb 78b9 8c3d 310e 8cbd 0d84 e9bc
00000210: 69d2 7bbc 5936 a43d 4db1 d4bc 5978 563c
00000220: 927d 6a3a 1e55 f83b 44d6 d2ba 7a5d 30bc
00000230: 96d9 53bd 2ba2 1c3c d04b 0bbd 09f1 b7bc
00000240: cba5 7fbc 47ec c7bb 3031 913b ea64 863d
00000250: b6d1 51bd 1bc3 633d 0a14 9ebb 95d8 e9ba
00000260: 17d2 a53b 46a5 10bd 14b8 b93c 5756 4b3c
00000270: 9984 93bc ffcd 0ebc 132e d2bc ce97 7abb
00000280: 97e2 463d c18f 033d 57e4 c63b b074 7dbb
00000290: 024e ca3b 9ced 363b 1396 343d bd89 393b
000002a0: 280e 75bc 0bb4 9abc bf6f 00bd 1d7c 053c
000002b0: 6c49 643b 2187 f6bb 1944 143c 9d30 b8bc
000002c0: 592c 25bb 3a25 37bc ecd9 963b 3500 2dbd
000002d0: 69f8 66bc a72a b1ba b3ef 15bc 5d7c 61bd
000002e0: 4239 6939 044a d13b ce04 71bd 5074 9d3c
000002f0: a208 c4bc ed2b 46bd 645a 16bd 606f 68bd
00000300: 443c 173d 55de 43bd c539 f8bb f5be b1bc
00000310: b776 22bc 26de 153b b1b2 a4bd d27d a23c
00000320: 3ca6 11bd c1f5 833d 0c99 02bd 5c10 893c
00000330: 3b95 7c3d 794d b53c 4a0e 653c 6071 c1bb
00000340: bff8 f4bb f227 c5bc 0c76 2d3b ac92 27bd
00000350: ca56 38bd 0055 92bc ad52 383d 06ec 43bc
00000360: 43b4 a4bc de56 04bd acd7 bd3c 8d34 33bd
00000370: 5c4c 36bc 7693 64bb 6a38 573c 0645 32bc
00000380: 75a3 4b3d 3e40 c3bc 4076 1a3d 25df 5abb
00000390: abd6 31bd 9321 9cba 4734 1bbd 754c 17bd
000003a0: 90aa 09bd 0a9d babc cfb0 89bd 23b8 cebc
000003b0: 1bf5 873c 3b97 363c 85b4 b6bb fa5e 1e39
000003c0: ad7e c7bb 95e4 6d3d aefe 02bd b225 07bc
000003d0: e0ec d5bb c733 bbbc 8c51 9339 fb8c 3abc
000003e0: e1d4 153d 0e20 01bd 79ca 0dbc 6360 503b
000003f0: b39e 6f3d f6bc 833c f0f2 66bd dee6 60bd

discrete_action_output_shape f4 [1, 4]
3.0 3.0 3.0 2.0
00000000: 0000 4040 0000 4040 0000 4040 0000 0040

network_body._body_endoder.seq_layers.0.bias f4 [256]
0.013358578 -0.07261104 0.012588136 -0.10794276 0.068719424 -0.04795535 -0.17294927 0.13498633
-0.036232907 -0.07371514 -0.096273094 0.0023528403 0.056738175 -0.04771627 -0.07519564 -0.19008508
-0.03461068 -0.04300482 -0.028869024 -0.19280985 -0.047658302 -0.12946677 0.029393978 0.0528312
-0.13162522 -0.18079713 -0.14984038 -0.034134407 0.05581863 0.06540041 -0.15222962 -0.15475354
-0.2263622 -0.009292408 -0.032144453 0.11572283 0.063033104 -0.0663623 0.085459985 -0.103399195
-0.08960135 0.13991559 -0.006770416 -0.1653859 -0.114939906 0.0043961913 0.10367014 -0.018352615
-0.015958453 -6.744406e-05 -0.036331147 -0.09102864 -0.112869486 -0.24871345 -0.01907216 0.025516769
-0.14859593 0.036165673 -0.07790639 -0.0781222 0.059500203 -0.14836667 0.017884348 -0.15686135
-0.028743338 0.05502223 -0.17081383 -0.021531539 -0.052576125 -0.02535398 -0.18717347 -0.1673186
0.0014871169 -0.007974681 -0.14561887 -0.08107821 -0.05268235 0.095602445 -0.19043678 0.006991936
0.01614859 -0.12209805 -0.09311904 -0.10188254 0.0015579094 0.0117450915 -0.08969595 -0.18677984
-0.05191382 -0.09428922 -0.039965317 -0.18168293 -0.062161017 -0.12794906 -0.14265415 -0.054637354
0.080513075 -0.01914396 -0.0733811 -0.059155628 0.074113384 -0.073161595 -0.064356975 0.061434377
-0.025948856 -0.07070088 -0.17060207 0.005920176 -0.08528283 -0.14617041 -0.06856329 -0.062239356
-0.16133396 -0.13388191 -0.15917367 0.11442075 -0.1131794 -0.23563905 -0.10873788 0.23265393
-0.19285645 -0.1208966 -0.08642363 0.030409563 -0.1078803 0.059876572 -0.06941894 -0.14434996
-0.12933499 0.05299149 0.02523617 -0.19691716 -0.024551187 -0.12132975 -0.11725596 -0.106394134
-0.14051455 -0.0953831 0.03211463 -0.11523487 -0.14553757 -0.1324975 -0.128709 -0.004239528
0.051212747 -0.23096539 -0.15433925 0.016456153 -0.036850356 -0.10814215 -0.06826883 0.040058408
-0.01545129 -0.0040412806 -0.13012686 -0.10619584 -0.013939064 -0.022196846 -0.07313545 -0.10896026
0.065385565 -0.055385835 0.0651649 -0.07716275 -0.15237418 0.0682748 0.064382695 -0.10343431
0.004963421 -0.19574633 -0.06582799 0.011311731 0.08833993 0.110218845 -0.1581401 0.028794667
0.010029988 0.028019866 -0.09950876 0.01710626 -0.18752433 0.060987797 -0.14672314 -0.052747015
-0.0977801 -0.019066887 -0.14455736 0.015397726 0.14547762 -0.09260148 0.08877492 0.004326842
-0.09088343 -0.09751819 -0.018405411 0.008052035 -0.12396534 0.07896206 0.08794813 0.05949954
-0.11350823 -0.052039087 -0.06578382 -0.15666899 -0.06485646 -0.13723572 0.047980502 -0.10166516
-0.15148476 0.11718636 -0.1747617 -0.014606441 0.031947117 -0.09188526 -0.09441893 -0.06770064
-0.07104557 0.007671923 -0.10638859 -0.1302955 -0.08801773 -0.0032876562 -0.14589201 0.027943058
-0.09248499 -0.028957766 -0.14978369 0.041411802 0.059182778 -0.14782165 -0.08983512 -0.18712696
-0.11330887 -0.11627981 0.011990623 -0.052265216 0.054805055 -0.10165547 -0.07862775 -0.011282235
-0.08256323 -0.20862421 -0.1556039 -0.19523744 -0.13950166 0.007517596 0.017489437 -0.25199974
-0.055762235 0.050245687 -0.022197172 -0.11981308 -0.040980365 -0.071480446 0.014434792 -0.013218645
00000000: f0dd 5a3c 19b5 94bd 783e 4e3c 1811 ddbd
00000010: c5bc 8c3d d46c 44bd 9d19 31be db39 0a3e
00000020: f568 14bd f7f7 96bd d42a c5bd 1c32 1a3b
00000030: 4a66 683d 2372 43bd 2c00 9abd aaa5 42be
00000040: eec3 0dbd d225 30bd bb7e ecbc f26f 45be
00000050: 5a35 43bd f092 04be a4cb f03c 8765 583d
00000060: c3c8 06be e222 39be c26f 19be 85d0 0bbd
00000070: 13a2 643d a6f0 853d 15e2 1bbe b677 1ebe
00000080: 7ecb 67be 2f3f 18bc e7a9 03bd 1700 ed3d
00000090: 8017 813d f5e8 87bd a505 af3d f5c2 d3bd
000000a0: ea80 b7bd 0846 0f3e 5eda ddbb ec5a 29be
000000b0: 9d65 ebbd ed0d 903b 0351 d43d 3958 96bc
000000c0: 4dbb 82bc c170 8db8 f8cf 14bd 396d babd
000000d0: 1e28 e7bd bdae 7ebe 383d 9cbc 8b08 d13c
000000e0: 8829 18be 7522 143d 638d 9fbd 88fe 9fbd
000000f0: 7cb6 733d 6fed 17be 3282 923c 43a0 20be
00000100: 2677 ebbc fd5e 613d d2e9 2ebe e962 b0bc
00000110: 105a 57bd 26b3 cfbc 67aa 3fbe 9155 2bbe
00000120: 5deb c23a 3da8 02bc 1d1d 15be 550c a6bd
00000130: 73c9 57bd 37cb c33d dc01 43be 9c1c e53b
00000140: 0c4a 843c 8b0e fabd 32b5 bebd cba7 d0bd
00000150: c432 cc3a 7c6e 403c 83b2 b7bd 3743 3fbe
00000160: 96a3 54bd b51a c1bd acb2 23bd 170b 3abe
00000170: 8d9c 7ebd 1405 03be ee13 12be 6bcb 5fbd
00000180: 0ae4 a43d cbd3 9cbc d548 96bd 2c4d 72bd
00000190: c2c8 973d bfd5 95bd 97cd 83bd 9da2 7b3d
000001a0: b292 d4bc 9fcb 90bd 4fb2 2ebe 09fe c13b
000001b0: c4a8 aebd b2ad 15be e96a 8cbd b2ee 7ebd
000001c0: bb34 25be 5718 09be 6cfe 22be 6d55 ea3d
000001d0: 9aca e7bd 5d4b 71be f7b1 debd d53c 6e3e
000001e0: 297c 45be a398 f7bd dffe b0bd 7a1d f93c
000001f0: 59f0 dcbd 2341 753d 842b 8ebd 7ad0 13be
00000200: 6470 04be 9b0d 593d 16bc ce3c a7a4 49be
00000210: 921f c9bc bb7b f8bd e523 f0bd 2be5 d9bd
00000220: 0ce3 0fbe 3758 c3bd a18a 033d 4200 ecbd
00000230: cd07 15be 6dad 07be 4bcc 03be bdeb 8abb
00000240: 75c4 513d 3182 6cbe 1c0b 1ebe 0ecf 863c
00000250: 66f0 16bd a279 ddbd 87d0 8bbd 4914 243d
00000260: 6827 7dbc b86c 84bb fa3f 05be 347d d9bd
00000270: ac60 64bc 29d6 b5bc 0ac8 95bd 8f26 dfbd
00000280: dee8 853d 42dc 62bd 2d75 853d 8107 9ebd
00000290: fa07 1cbe a9d3 8b3d 13db 833d 5ed5 d3bd
000002a0: 31a4 a23b ba71 48be d3d0 86bd d754 393c
000002b0: 91eb b43d 6bba e13d 7aef 21be cbe2 eb3c
000002c0: d254 243c eb89 e53c 40cb cbbd 6d22 8c3c
000002d0: 6106 40be 57ce 793d 973e 16be 410d 58bd
000002e0: ef40 c8bd 2932 9cbc d806 14be be46 7c3c
000002f0: 16f8 143e d8a5 bdbd a0cf b53d 2ec8 8d3b
00000300: 1721 babd 9eb7 c7bd f2c6 96bc afec 033c
00000310: 8ae1 fdbd dcb6 a13d 261e b43d cab5 733d
00000320: 0177 e8bd f026 55bd abb9 86bd d66d 20be
00000330: 77d3 84bd 8587 0cbe 3487 443d d335 d0bd
00000340: d21e 1bbe 67ff ef3d bbf4 32be db4f 6fbc
00000350: fbda 023d 572e bcbd b65e c1bd a2a6 8abd
00000360: 5780 91bd c164 fb3b 43e2 d9bd 2f6c 05be
00000370: a442 b4bd b875 57bb b764 15be d7e8 e43c
00000380: c568 bdbd d638 edbc e560 19be 6c9f 293d
00000390: a469 723d 8f5e 17be 7afb b7bd 369e 3fbe
000003a0: 7b0e e8bd 1c24 eebd 5174 443c 0d14 56bd
000003b0: 447b 603d be30 d0bd 9607 a1bd 20d9 38bc
000003c0: e916 a9bd 96a1 55be a156 1fbe 53ec 47be
000003d0: 86d9 0ebe 2a56 f63b 0246 8f3c 1c06 81be
000003e0: f166 64bd 6cce 4d3d d8d6 b5bc 8f60 f5bd
000003f0: 07db 27bd 5764 92bd e87f 6c3c 0493 58bc

network_body._body_endoder.seq_layers.0.weight f4 [256, 11]
-0.2992867 0.09008463 -0.11068715 0.24588142 -0.4475334 -0.18798468 -0.43237165 0.09774568
0.54807657 0.09604812 0.46357787 0.49906436 0.0075580473 0.0345135 0.3373945 -0.1731307
0.0566609 -0.0521479 0.3665353 0.32354307 0.10975814 0.1112276 -0.018462263 -0.12704572
-0.022932721 0.2941964 -0.5145935 0.018608063 0.8196427 -0.011986313 -0.4963111 0.22691938
-0.12672521 -0.3242188 0.08174534 -0.34761274 0.13511495 -0.10176893 0.3390898 0.51212025
-0.34638277 -0.73163974 -0.94400036 -0.24729231 -0.48042232 0.07576992 0.24823146 -0.3996957
-0.36814412 0.1952712 -1.0553448 0.10584693 0.24753366 0.00540242 -0.10646756 -0.35400316
-0.21489066 0.12171931 -0.18532951 -0.14168373 0.2515992 -0.009418549 -0.26276273 0.3683762
0.15474074 0.5191728 0.38366726 0.29283178 -0.07873143 0.2925096 -0.03210696 -0.14210892
0.1389013 0.2951727 -0.5369244 0.38516402 0.12406949 -0.39542425 0.10266664 0.14500597
-0.058558587 0.43780184 0.14231606 -0.07786335 0.42036873 0.178677 0.025480503 0.13753448
0.097327076 0.4147937 -0.02854688 0.0019185751 -0.7064803 0.6726271 0.08056452 -0.4070162
-0.016552765 0.68976486 -0.01030614 0.5302697 -0.09277447 -0.27389178 0.17444636 -0.21819417
0.27041432 -0.15948206 0.5172903 -0.24951158 -0.32828015 0.16088049 0.16351779 0.007984813
-0.24245815 -0.25004187 0.22231106 0.2009079 0.23524226 -0.09235819 0.047015917 -0.29784158
0.8007769 -0.54445744 0.36269462 0.25505117 0.025183802 0.05496809 0.10387602 0.024686541
-0.5471774 0.50953543 0.2601598 -0.35030797 -0.96422136 -0.32471818 0.04021028 -0.31398273
0.54192394 0.21727893 0.31965828 0.47247133 -0.06804619 0.34644872 -0.1505229 -0.10178144
-0.40591574 -0.08129333 0.0026692196 0.61291605 0.17198466 0.26200467 -0.26563433 0.35405993
0.29005903 0.29490942 -0.06195224 -0.3122006 0.063152894 -0.044827804 0.034793135 0.098230086
0.31438085 -0.2038756 0.118060805 0.4545358 0.3955132 0.01223424 0.32521847 -0.45182195
0.122737795 0.30308545 0.0023167066 -0.43919605 0.10503814 -0.5184142 0.61744684 0.0071968953
0.34025073 0.32182017 -0.28127953 -0.008794813 -0.065433435 0.18576573 -0.41068414 -0.15038641
0.57466745 0.18361826 0.046293 0.2110475 -0.33589214 0.096252844 0.040875334 -0.0649457
0.2001085 -0.19591285 0.7124259 -0.017291 -0.04533047 0.11653427 0.26500884 -0.4831365
-0.101672165 0.6069707 -0.3065577 0.084432445 0.030038152 -0.22988743 0.30771348 0.07605431
-0.110716924 0.40838814 -0.20333913 -0.46355164 -0.07179494 -0.13442433 0.08724358 -0.52874655
0.4347521 -0.044788506 0.044767767 -0.084787816 -0.11855642 0.040336 0.060606822 -0.72409713
0.43116128 0.018733095 -0.020833794 -0.19548383 0.5149756 -0.46235466 -0.02890147 0.37063083
-0.36976847 -0.33998913 -0.5675156 0.005743029 0.056409065 -0.059649225 -0.25474918 0.2677323
0.47516498 -0.2852749 -0.01996111 -0.46880165 -0.11558159 0.6031266 -0.2812331 0.21339314
-0.06740823 0.17648453 0.58206034 -0.061787877 0.22888173 0.06926716 0.047206733 0.6245063
00000000: 1b3c 99be 4a7e b83d f2af e2bd 57c8 7b3e
00000010: 1923 e5be 0e7f 40be d15f ddbe e32e c83d
00000020: bf4e 0c3f e0b4 c43d 145a ed3e 5d85 ff3e
00000030: 7fa9 f73b 075e 0d3d f9be ac3e 2d49 31be
00000040: 4315 683d 0999 55bd 84aa bb3e 70a7 a53e
00000050: e0c8 e03d 4ccb e33d 2c3e 97bc 4618 02be
00000060: 67dd bbbc e9a0 963e 66bc 03bf f06f 983c
00000070: 1bd4 513f 3e62 44bc 7d1c febe 8e5d 683e
00000080: 41c4 01be 0200 a6be 1a6a a73d 4cfa b1be
00000090: 935b 0a3e 3b6c d0bd 2e9d ad3e 501a 033f
000000a0: 1559 b1be be4c 3bbf 02aa 71bf 323a 7dbe
000000b0: eaf9 f5be 432d 9b3d 6330 7e3e eaa4 ccbe
000000c0: 637d bcbe 2cf5 473e 8a15 87bf 46c6 d83d
000000d0: 7779 7d3e c906 b13b aa0b dabd e73f b5be
000000e0: 4c0c 5cbe f947 f93d 05c7 3dbe 8a15 11be
000000f0: 9cd1 803e 4250 1abc d688 86be ce9b bc3e
00000100: 5b74 1e3e 82e8 043f 0970 c43e 0cee 953e
00000110: f23d a1bd d1c3 953e 9682 03bd 0085 11be
00000120: 243c 0e3e e020 973e e173 09bf 3834 c53e
00000130: 2518 fe3d 0c75 cabe e342 d23d 727c 143e
00000140: 21db 6fbd 9027 e03e 4dbb 113e d276 9fbd
00000150: 923a d73e 1af7 363e 7dbc d03c d7d5 0c3e
00000160: 6b53 c73d d75f d43e 26db e9bc b378 fb3a
00000170: e5db 34bf 4a31 2c3f 03ff a43d 6d64 d0be
00000180: aa99 87bc 6e94 303f 16db 28bc c1bf 073f
00000190: 8b00 bebd 8b3b 8cbe 11a2 323e 4b6e 5fbe
000001a0: bf73 8a3e 444f 23be 236d 043f f77f 7fbe
000001b0: 5614 a8be dbbd 243e 3571 273e bcd2 023c
000001c0: f346 78be 7d05 80be 83a5 633e cdba 4d3e
000001d0: 59e3 703e 4a26 bdbd c393 403d b17e 98be
000001e0: b7ff 4c3f 9061 0bbf 1cb3 b93e 1196 823e
000001f0: 434e ce3c 3826 613d f3bc d43d 6e3b ca3c
00000200: d113 0cbf ea70 023f aa33 853e 915b b3be
00000210: 36d7 76bf 7641 a6be 89b3 243d 58c2 a0be
00000220: 87bb 0a3f 5e7e 5e3e 40aa a33e c3e7 f13e
00000230: cd5b 8bbd ba61 b13e ad22 1abe ca72 d0bd
00000240: 30d4 cfbe 1e7d a6bd 13ee 2e3b 11e8 1c3f
00000250: bf1c 303e 7a25 863e 3901 88be 5847 b53e
00000260: 9e82 943e 5efe 963e a2c1 7dbd c2d8 9fbe
00000270: 4e56 813d 5c9d 37bd 3f83 0e3d db2c c93d
00000280: 87f6 a03e c4c4 50be ddc9 f13d ebb8 e83e
00000290: b580 ca3e 1f72 483c 0983 a63e 3555 e7be
000002a0: f45d fb3d 042e 9b3e e3d3 173b 4ede e0be
000002b0: 3d1e d73d cbb6 04bf ff10 1e3f efd3 eb3b
000002c0: 5835 ae3e 9dc5 a43e df03 90be 1f18 10bc
000002d0: f701 86bd 5f39 3e3e 3145 d2be e5fe 19be
000002e0: 681d 133f 6d06 3c3e bb9d 3d3d d61c 583e
000002f0: 0efa abbe 3620 c53d e56c 273d 4002 85bd
00000300: 3ee9 4c3e 619d 48be 8b61 363f dba5 8dbc
00000310: 71ac 39bd 85a9 ee3d 3daf 873e ab5d f7be
00000320: 7f39 d0bd 6f62 1b3f 21f5 9cbe ebea ac3d
00000330: 9212 f63c 9c67 6bbe 9f8c 9d3e 5dc2 9b3d
00000340: 8ebf e2bd 4018 d13e 2238 50be a456 edbe
00000350: 3a09 93bd 88a6 09be c3ac b23d ef5b 07bf
00000360: d497 de3e 2774 37bd 685e 373d 3ca5 adbd
00000370: b5cd f2bd 5d37 253d dc3e 783d 6e5e 39bf
00000380: 2cc1 dc3e 2676 993c a2ab aabc ea2c 48be
00000390: 71d5 033f c0b9 ecbe c7c2 ecbc 53c3 bd3e
000003a0: 4b52 bdbe 0e13 aebe b448 11bf 0530 bc3b
000003b0: 310d 673d bf52 74bd 7c6e 82be 3514 893e
000003c0: d348 f33e 8d0f 92be 7b85 a3bc c506 f0be
000003d0: 0ab6 ecbd 8166 1a3f c9fd 8fbe bb83 5a3e
000003e0: 530d 8abd 5cb8 343e e801 153f 4915 7dbd
000003f0: f95f 6a3e f1db 8d3d d95b 413d a5df 1f3f

network_body._body_endoder.seq_layers.2.bias f4 [256]
0.0450981 0.057162993 0.063825086 -0.13153487 0.04784157 -0.16433884 0.07537686 0.011185821
-0.10674459 -0.11860556 0.060330298 -0.27741444 0.034280017 0.05035357 -0.11793163 -0.10285467
0.10316693 0.22703499 -0.017375994 -0.0683334 0.057049986 0.00067861244 0.046281543 0.031568177
-0.13245186 0.2368938 0.10993266 0.25497627 -0.09254514 -0.01736509 0.18643051 0.12413634
-0.075872056 -0.09242433 -0.28004408 0.01875537 -0.074660815 -0.07841296 0.025938999 -0.003088053
-0.042987015 -0.02582966 -0.019729748 -0.19828652 -0.07245444 0.11545605 0.16904075 -0.08643627
0.03759814 0.22624762 -0.080099516 0.15687191 0.112313576 0.11136251 0.06510469 -0.0044385185
0.1914203 -0.09397897 -0.09502541 -0.017080445 0.027494382 -0.061112646 0.039204307 -0.030550314
-0.07091748 -0.08018975 0.09948455 0.013904508 0.04198129 -0.036410443 0.01377342 -0.059038993
0.22475147 -0.13425367 0.042696334 -0.059773106 -0.003964488 -0.063823305 -0.19059084 0.0026534002
0.0747205 0.087273926 0.065373406 -0.21602215 -0.25688663 0.014895961 -0.037016254 0.027615871
0.0644637 0.017689517 -0.06505452 -0.12006419 -0.07740811 0.01055642 0.007325015 0.03541415
0.06368177 0.013479073 -0.10711481 0.002880123 -0.20609035 -0.05069087 0.044332225 0.21125996
-0.06341176 0.04754982 0.083891004 0.065215655 -0.17155546 0.081756994 -0.041520573 -0.05598834
0.12665406 0.09009478 -0.05541081 -0.08621309 0.041374847 0.031220483 -0.09262373 0.0123697575
0.10555901 -0.12972398 -0.2524834 -0.06493124 -0.0072420477 0.15940902 -0.17370221 -0.1299189
-0.09009253 -0.2245935 0.038431007 -0.070623614 0.15594038 -0.13845026 -0.121466964 0.044159032
-0.034129646 -0.054127626 -0.012186643 -0.032251794 0.08641294 0.1040366 0.04100906 0.12382406
0.15242808 0.08778392 -0.04797729 -0.14331934 0.12072063 -0.13133018 -0.028156083 0.13185224
-0.11670366 -0.12483615 -0.0011509894 0.056851596 0.13912652 0.11476883 0.033371072 -0.043293297
-0.26951408 0.14667982 0.13970347 -0.059051353 -0.08443202 -0.073173866 -0.18494228 -0.043937393
0.036114693 0.014076285 0.018742466 -0.10190535 -0.06924889 -0.036950685 -0.02455773 -0.01907728
-0.060306575 -0.023617908 -0.06407667 -0.033557303 0.008758919 -0.012184387 0.012062174 0.049115963
0.20044602 -0.11586212 0.23960513 -0.065843105 0.022485534 0.021448752 -0.06681601 0.20109732
-0.16306597 0.15733026 -0.0049037905 0.021290198 -0.059923597 -0.06890779 0.10556927 0.1089872
0.045973085 -0.2799887 -0.05866884 0.08615267 -0.19818676 -0.06936469 -0.034823455 -0.07746879
-0.061295968 0.018371288 0.12056604 -0.16886547 0.024626963 0.065105736 -0.18113579 0.12548748
-0.014483665 -0.17973222 -0.05901924 -0.054937445 0.058018763 -0.04121009 0.026033962 0.07428656
-0.15466647 -0.16605486 -0.14107753 0.051597513 0.024715075 -0.05252376 0.019094309 -0.022887262
0.030305238 0.1616687 0.23283441 -0.08342796 -0.08665972 -0.13891569 0.20906807 0.0712382
0.16499342 -0.16981654 0.03223513 0.01072224 0.15833053 0.16631447 -0.086786 0.01774888
0.102495804 -0.09663523 -0.07669177 0.12334706 -0.20998259 -0.10253318 0.10213734 0.24824336
00000000: c9b8 383d be23 6a3d bab6 823d 14b1 06be
00000010: 86f5 433d 7148 28be 2f5f 9a3d bc44 373c
00000020: e89c dabd 79e7 f2bd e71c 773d 4409 8ebe
00000030: 3469 0c3d 8c3f 4e3d 2386 f1bd 78a5 d2bd
00000040: 2f49 d33d dc7b 683e 1a58 8ebc 62f2 8bbd
00000050: 3fad 693d e9e4 313a b791 3d3d a24d 013d
00000060: 76a1 07be 4a94 723e 6024 e13d 408c 823e
00000070: 4e88 bdbd 3c41 8ebc a4e7 3e3e 323b fe3d
00000080: cf62 9bbd f848 bdbd f061 8fbe dda4 993c
00000090: c5e7 98bd f996 a0bd 067e d43c ef60 4abb
000000a0: 2713 30bd b998 d3bc 48a0 a1bc 9f0b 4bbe
000000b0: fe62 94bd 3974 ec3d 0519 2d3e 8005 b1bd
000000c0: 8200 1a3d 75ad 673e 370b a4bd 08a3 203e
000000d0: a904 e63d 0712 e43d 9c55 853d fe70 91bb
000000e0: af03 443e 0c78 c0bd af9c c2bd 4aec 8bbc
000000f0: e63b e13c 4151 7abd b294 203d a744 fabc
00000100: 2f3d 91bd 863a a4bd 8ebe cb3d bccf 633c
00000110: 93f4 2b3d 1e23 15bd e9a9 613c dfd2 71bd
00000120: 4025 663e cb79 09be 5ae2 2e3d a5d4 74bd
00000130: 89e8 81bb cbb5 82bd 3f2a 43be abe4 2d3b
00000140: 1007 993d acbc b23d 7ee2 853d e934 5dbe
00000150: a586 83be 300e 743c 5b9e 17bd ae3a e23c
00000160: 8b05 843d 9be9 903c 4e3b 85bd 37e4 f5bd
00000170: 2588 9ebd d6f4 2c3c ae06 f03b 6e0e 113d
00000180: 966b 823d 54d7 5c3c 025f dbbd 72c0 3c3b
00000190: 5909 53be 3ba1 4fbd b595 353d 8854 583e
000001a0: 06de 81bd 9ac3 423d 0ccf ab3d c98f 853d
000001b0: 3cac 2fbe 3670 a73d 7a11 2abd 0854 65bd
000001c0: 9ab1 013e 9d83 b83d 72f6 62bd 7d90 b0bd
000001d0: ac78 293d 19c2 ff3c 83b1 bdbd 86aa 4a3c
000001e0: 522f d83d 5dd6 04be 8145 81be acfa 84bd
000001f0: b34e edbb 1e3c 233e fede 31be 7609 05be
00000200: 6f82 b8bd d7fb 65be d569 1d3d 1da3 90bd
00000210: d6ae 1f3e e8c5 0dbe acc3 f8bd 1ae0 343d
00000220: 87cb 0bbd eeb4 5dbd 7caa 47bc 751a 04bd
00000230: 44f9 b03d 2411 d53d 1ef9 273d 7897 fd3d
00000240: 1b16 1c3e 0ec8 b33d d683 44bd 4ec2 12be
00000250: 613c f73d 6b7b 06be 96a7 e6bc 4604 073e
00000260: 5402 efbd 18aa ffbd ccdc 96ba 38dd 683d
00000270: 2f77 0e3e ec0b eb3d 1bb0 083d 5054 31bd
00000280: c0fd 89be 3c33 163e 6d0e 0f3e d5df 71bd
00000290: b2ea acbd 2edc 95bd 8261 3dbe b2f7 33bd
000002a0: 00ed 133d 38a0 663c cd89 993c c1b3 d0bd
000002b0: 5dd2 8dbd 9a59 17bd 4b2d c9bc f547 9cbc
000002c0: 0704 77bd 587a c1bc a13a 83bd 6273 09bd
000002d0: 9281 0f3c 06a1 47bc 6da0 453c d22d 493d
000002e0: b941 4d3e 1f49 edbd 0c5b 753e c0d8 86bd
000002f0: 9533 b83c 4bb5 af3c d5d6 88bd 75ec 4d3e
00000300: c4fa 26be 2f1b 213e faaf a0bb c868 ae3c
00000310: 7272 75bd 871f 8dbd b434 d83d ae34 df3d
00000320: 464e 3c3d ae5a 8fbe bd4e 70bd d070 b03d
00000330: 78f1 4abe 130f 8ebd 0aa3 0ebd f5a7 9ebd
00000340: 7b11 7bbd 627f 963c 54eb f63d 12eb 2cbe
00000350: 7cbe c93c 2856 853d a97b 39be ca7f 003e
00000360: e54c 6dbc b90b 38be 29be 71bd 1606 61bd
00000370: 15a5 6d3d e9cb 28bd 2d45 d53c 8d23 983d
00000380: e360 1ebe 490a 2abe a176 10be ea57 533d
00000390: 4577 ca3c 2723 57bd ab6b 9c3c 117e bbbc
000003a0: b142 f83c 7b8c 253e 256c 6e3e 47dc aabd
000003b0: a77a b1bd ea3f 0ebe f115 563e 55e5 913d
000003c0: 09f4 283e 63e4 2dbe fc08 043d 56ac 2f3c
000003d0: 6621 223e 574e 2a3e dcbc b1bd 1966 913c
000003e0: 52e9 d13d b1e8 c5bd 9310 9dbd 629d fc3d
000003f0: ad05 57be eafc d1bd 622d d13d 8233 7e3e
