Assets/Model/0614AttackMode.onnx (onnx, 292251 bytes, 13 tensors)

action_model._discrete_distribution.branches.0.bias f4 [3]
0.10265119 0.0077407463 -0.13324001
00000000: c93a d23d 16a6 fd3b 1270 08be

action_model._discrete_distribution.branches.0.weight f4 [3, 256]
0.058772404 0.01677708 -0.02552642 0.033837497 0.09489385 0.047005232 0.050726987 0.017868793
-0.1051684 -0.016771568 0.02340037 0.07132228 0.17299227 -0.015424921 -0.08284052 -0.013132133
-0.003980349 -0.08342147 0.032844484 0.035247944 0.03966766 -0.003362301 0.10532498 0.024919463
-0.009667114 0.10416215 0.012121994 -0.09860196 -0.08188619 0.08064983 0.04862152 -0.021275358
0.13894175 -0.25631043 -0.065342814 0.08753885 0.06813607 -0.005740522 0.017694818 -0.022041978
-0.018976986 0.019454177 -0.10783308 0.007338553 -0.09318603 -0.05594735 -0.13841438 -0.008860482
0.013805876 0.09943245 0.0083373105 -0.004758647 0.037577488 -0.005064182 -0.10939687 0.0485581
-0.020565396 0.008846454 0.028108442 -0.03971782 -0.03314094 -0.0889433 0.060230307 0.117782936
0.05770832 0.04526697 0.042551853 0.09486856 0.071375385 -0.0007021917 -0.014217782 -0.03659183
0.10268462 0.008296627 -0.047344707 0.036816843 0.123671144 0.01909574 -0.10109061 0.008227516
0.012578438 0.018166224 -0.064322144 -0.15357769 0.05368344 0.07680794 0.05184768 0.01936346
0.04859413 0.042884488 0.00066514756 0.04050937 0.0010643161 0.0026281916 -0.08484334 -0.21425977
0.07015639 -0.070345394 -0.06110571 -0.06448793 0.047613863 -0.055963222 0.031000609 0.08663404
-0.023059916 -0.001570743 -0.13852675 0.037712414 0.08500228 -0.05022705 -0.09528565 0.0859558
-0.030753462 0.013226172 0.08602793 -0.009254408 0.077904984 -0.20019385 0.10331079 0.13845812
0.020847416 -0.08217057 0.07684909 -0.021030573 -0.026685659 0.054433018 -0.11777836 -0.028400715
-0.02255638 0.046992254 0.040622946 -0.0805389 -0.04527395 0.0598948 -0.19975996 -0.22879717
-0.026995866 -0.058865678 -0.012094353 0.022458421 0.009008429 -0.07192111 0.008182412 -0.08311369
0.008027033 -0.08682326 0.09660311 -0.0453903 -0.06422508 0.0102671245 0.14808093 -0.03936541
-0.021256868 -0.05846075 -0.003936444 0.059174534 0.05687458 0.045608427 0.003386358 0.006878982
0.050762422 -0.059969652 -0.07266065 -0.028959818 -0.008932258 0.06370648 -0.15484394 0.089241736
-0.003079562 -0.11647634 -0.22749586 -0.022128217 -0.039153185 -0.018441044 0.01359526 -0.04698237
-0.046422698 -0.010965239 0.01355464 -0.04927273 -0.012219367 0.050301835 0.007931017 -0.008136506
0.014477708 -0.07995645 0.04818421 -0.12227419 0.08213208 -0.18686435 0.0063385717 -0.12360265
0.042427745 -0.15059279 0.09244326 0.07506752 0.081123635 -0.005615675 -0.027336424 -0.08957687
0.011325436 -0.028211907 0.005328106 -0.15876073 0.02307622 -0.056605656 0.0832525 -0.118340135
-0.0068668383 0.027445916 0.004518098 -0.06184342 -0.006599143 -0.23633167 -0.002833654 0.0864619
-0.060993798 0.0810489 0.0035759676 -0.06504549 -0.12323308 0.0022379223 -0.046882298 -0.029104378
-0.0034869986 0.029446635 0.033564653 0.081552394 -0.14623445 0.058948074 0.014585494 -0.077152215
-0.032319944 0.0068284646 -0.11216519 0.08993459 -0.024313817 -0.08922645 0.06605025 0.0013036887
0.008563648 -0.14118141 0.015370803 0.01912987 0.10471553 -0.063348874 -0.060609855 -0.027852751
-0.029346732 0.04270943 0.028397938 0.061918464 -0.05106842 -0.0911558 -0.07394753 0.04966596
00000000: 55bb 703d 1670 893c c81c d1bc 3099 0a3d
00000010: b557 c23d 8f88 403d 1ac7 4f3d 9361 923c
00000020: 8862 d7bd 8764 89bc 22b2 bf3c 6a11 923d
00000030: e324 313e cfb8 7cbc 4aa8 a9bd 2828 57bc
00000040: 966d 82bb e0d8 aabd f087 063d 2660 103d
00000050: 8e7a 223d 0d5a 5cbb a0b4 d73d e723 cc3c
00000060: d162 1ebc f752 d53d 549b 463c d3ef c9bd
00000070: f2b3 a7bd bd2b a53d 5c27 473d a949 aebc
00000080: bf46 0e3e 1f3b 83be 74d2 85bd 9247 b33d
00000090: ed8a 8b3d fd1a bcbb b9f4 903c 6191 b4bc
000000a0: a075 9bbc 5e5e 9f3c 97d7 dcbd 3f78 f03b
000000b0: 51d8 bebd 0c29 65bd 80bc 0dbe 8e2b 11bc
000000c0: 0a32 623c 3ea3 cb3d 3799 083c 6dee 9bbb
000000d0: daea 193d 70f1 a5bb 770b e0bd dce4 463d
000000e0: c378 a8bc b8f0 103c ad43 e63c 27af 22bd
000000f0: cbbe 07bd e827 b6bd 0eb4 763d 2e38 f13d
00000100: 8f5f 6c3d dc69 393d da4a 2e3d 734a c23d
00000110: 422d 923d 4a13 38ba b3f1 68bc 51e1 15bd
00000120: 504c d23d 93ee 073c 86ec 41bd 42cd 163d
00000130: 4c47 fd3d ab6e 9c3c 9808 cfbd b4cc 063c
00000140: cb15 4e3c 55d1 943c 54bb 83bd 7843 1dbe
00000150: 2be3 5b3d 7b4d 9d3d 3c5e 543d 1ea0 9e3c
00000160: a30a 473d a5a7 2f3d 4c5d 2e3a 27ed 253d
00000170: 8680 8b3a bd3d 2c3b 58c2 adbd ea66 5bbe
00000180: 27ae 8f3d 3f11 90bd fb49 7abd 3f12 84bd
00000190: c106 433d b139 65bd fdf4 fd3c 306d b13d
000001a0: 26e8 bcbc 64e1 cdba f5d9 0dbe 5578 1a3d
000001b0: ad15 ae3d e1ba 4dbd 1f25 c3bd 9809 b03d
000001c0: afee fbbc 96b2 583c 692f b03d cd9f 17bc
000001d0: a68c 9f3d 9eff 4cbe 9c94 d33d f7c7 0d3e
000001e0: 33c8 aa3c 0b49 a8bd 0e63 9d3d 4f48 acbc
000001f0: e29b dabc 28f5 5e3d c835 f1bd 9ea8 e8bc
00000200: 28c8 b8bc f37a 403d 3f64 263d 94f1 a4bd
00000210: 2d71 39bd 4054 753d e08d 4cbe ce49 6abe
00000220: 6f26 ddbc 231d 71bd 6527 46bc b9fa b73c
00000230: 1798 133c 604b 93bd 860f 063c 8337 aabd
00000240: d183 033c 65d0 b1bd dad7 c53d 2eeb 39bd
00000250: 7088 83bd 7137 283c 87a2 173e a03d 21bd
00000260: e222 aebc 8a74 6fbd 49fd 80bb ff60 723d
00000270: 52f5 683d e7cf 3a3d a9ed 5d3b 1569 e13b
00000280: 42ec 4f3d bda2 75bd 1bcf 94bd 243d edbc
00000290: 9b58 12bc 8b78 823d 698f 1ebe 5fc4 b63d
000002a0: 7ad2 49bb 268b eebd adf4 68be 3c46 b5bc
000002b0: 175f 20bd ac11 97bc a7be 5e3c 9670 40bd
000002c0: ba25 3ebd 8ca7 33bc 4814 5e3c 34d2 49bd
000002d0: bd33 48bc 4c09 4e3d 19f1 013c fb4e 05bc
000002e0: e933 6d3c 35c0 a3bd ce5c 453d e46a fabd
000002f0: dd34 a83d 5e59 3fbe cbb3 cf3b 6323 fdbd
00000300: b7c8 2d3d ff34 1abe e452 bd3d 00bd 993d
00000310: 2624 a63d b203 b8bb a3f0 dfbc 1474 b7bd
00000320: 528e 393c a81c e7bc 6597 ae3b 2c92 22be
00000330: 570a bd3c 55db 67bd 4980 aa3d 505c f2bd
00000340: 3703 e1bb 42d6 e03c 8e0c 943b 874f 7dbd
00000350: a03d d8bb ee00 72be d3b4 39bb f012 b13d
00000360: a2d4 79bd f7fc a53d c85a 6a3b 9236 85bd
00000370: a061 fcbd 1baa 123b a707 40bd 4e6c eebc
00000380: 2186 64bb 123a f13c 177b 093d f104 a73d
00000390: 7cbe 15be 8973 713d fff7 6e3c fb01 9ebd
000003a0: eb61 04bd 50c1 df3b ddb6 e5bd a02f b83d
000003b0: c52d c7bc 5bbc b6bd 5a45 873d 89e0 aa3a
000003c0: 8b4e 0c3c dc91 10be d2d5 7b3c 3fb6 9c3c
000003d0: 1975 d63d 0ebd 81bd 0a42 78bd 742b e4bc
000003e0: 8f68 f0bc 15f0 2e3d cba2 e83c 379e 7d3d
000003f0: 1f2d 51bd e4af babd cd71 97bd 896e 4b3d

action_model._discrete_distribution.branches.1.bias f4 [3]
0.05727446 -0.037927352 -0.01627987
00000000: a098 6a3d b659 1bbd 5d5d 85bc

action_model._discrete_distribution.branches.1.weight f4 [3, 256]
0.09230146 0.060857046 0.022813337 -0.041434906 -0.08222813 0.044968843 0.13257787 0.13470466
-0.07835197 0.077863075 0.0011010369 -0.12756006 0.11720477 -0.034281027 -0.052645463 -0.16225043
-0.010814538 -0.07905327 -0.009888499 0.048987538 -0.15561487 -0.06947036 0.037469096 0.027167894
0.18664058 -0.018789481 0.19208772 -0.20919128 -0.03563117 -0.022317644 -0.046864264 -0.05312225
-0.063553624 -0.12190387 -0.07341611 -0.1677356 0.056381483 0.027379964 0.06429499 -0.060560603
0.038299266 0.020822182 0.013557909 -0.098917626 0.04949216 0.12418485 -0.23686579 -0.16742371
0.16959444 0.0306952 0.013782377 -0.08993437 -0.11830578 -0.0049673324 0.0023177527 0.032521043
0.1200245 -0.037385695 0.12939955 -0.023496905 -0.037357192 -0.12365563 0.039535712 0.0015215045
-0.012803061 0.0604659 0.025801247 -0.047602348 -0.14004596 0.026068477 0.08282913 -0.06505116
-0.016988233 -0.07489015 -0.066934414 0.24523571 -0.024066538 -0.017989973 0.020941844 0.0901584
-0.044346347 -0.08674369 -0.047865424 -0.025422841 -0.045203965 0.026990017 0.15485111 -0.022510666
0.13367106 0.16085258 -0.0030056448 -0.023352968 0.0022139973 -0.026500197 0.030769028 -0.20970197
-0.11415399 -0.0072797434 -0.004966714 0.12342964 -0.026859287 0.0029365567 -0.014693828 0.08411343
0.07587863 -0.0037953793 -0.26668492 -0.06667477 0.030298326 0.036427733 -0.06868893 -0.12899983
0.16479215 0.14684936 0.1706078 0.04049539 0.039243322 -0.2093943 -0.022653854 0.008156369
0.26408502 0.051735472 0.04756577 0.08357488 0.07248988 0.02023966 0.07637778 -0.031858053
-0.021371806 0.125261 -0.06282011 0.020947598 0.08505075 0.06007922 -0.082836576 -0.10962412
0.07244521 0.0539188 0.14641556 0.2009547 -0.00088238134 -0.104684904 0.03993034 -0.040357724
-0.004924075 -0.10995903 0.067236744 -0.067633964 0.03876059 -0.071780145 0.05721438 0.017705692
-0.077809826 0.089745104 0.04047112 0.03791102 -0.06484629 0.08612719 0.03889242 -0.07241864
0.0054112747 -0.1324256 -0.11501808 -0.12207829 -0.0074094813 -0.013613312 -0.17179418 -0.02774267
0.063529685 0.054778986 -0.12935226 -0.086345136 -0.10630042 -0.006987727 -0.03411639 0.09039078
0.16704246 0.13529773 0.10551474 0.0010610308 -0.0012385509 0.08160038 0.08252868 0.14964166
0.043009445 0.11239262 -0.015837627 -0.17513685 0.052928522 -0.035899803 0.021036 -0.20445912
0.008184555 -0.06932598 -0.010652089 -0.03401879 0.04641055 0.014168604 -0.27722785 -0.097600676
-0.019198697 -0.022086406 -0.017505005 -0.22506131 0.08385632 0.10929645 0.17939302 0.018765688
-0.077748984 -0.10180684 0.18182446 -0.019404208 0.08589495 -0.25689632 0.056348898 -0.15262924
0.11983647 0.019856 -0.0054303007 -0.023054264 -0.25340894 -0.15983813 -0.24329874 -0.02249467
-0.0148152895 -0.008175656 0.21060973 0.053894732 -0.25171095 0.01086784 -0.102339305 -0.18957393
-0.101169035 -0.019454258 0.027781636 -0.22036593 0.15323538 0.039006215 -0.10284257 -0.08258765
-0.0027693554 -0.13872561 0.091789305 -0.100111105 0.023385024 0.13521048 0.016365245 0.055368524
0.049615182 0.035597727 -4.5968834e-05 -0.077088945 -0.10005706 -0.09818358 0.07845304 -0.19083104
00000000: 8c08 bd3d 3d45 793d 09e3 ba3c a6b7 29bd
00000010: 3967 a8bd 4031 383d 7ec2 073e 05f0 093e
00000020: ff76 a0bd ad76 9f3d ab50 903a 1b9f 02be
00000030: 0e09 f03d 436a 0cbd c5a2 57bd fa24 26be
00000040: 762f 31bc aee6 a1bd 5f03 22bc 28a7 483d
00000050: 8159 1fbe 7a46 8ebd 3279 193d 348f de3c
00000060: b51e 3f3e 66ec 99bc a5b2 443e 3d36 56be
00000070: fdf1 11bd 7ed3 b6bc bef4 3fbd b796 59bd
00000080: 6728 82bd bca8 f9bd 2f5b 96bd e2c2 2bbe
00000090: 45f0 663d f24b e03c 17ad 833d 650e 78bd
000000a0: b1df 1c3d 4893 aa3c fe21 5e3c 5395 cabd
000000b0: 4bb8 4a3d a054 fe3d f28c 72be 1f71 2bbe
000000c0: 2aaa 2d3e 8074 fb3c 7bcf 613c 832f b8bd
000000d0: 4d4a f2bd 01c5 a2bb 70e5 173b c934 053d
000000e0: 68cf f53d be21 19bd 5181 043e 957c c0bc
000000f0: db03 19bd 2a3f fdbd 33f0 213d 386d c73a
00000100: eec3 51bc 17ab 773d 235d d33c aefa 42bd
00000110: 3568 0fbe 8f8d d53c 52a2 a93d 8b39 85bd
00000120: e82a 8bbc 0260 99bd e914 89bd 121f 7b3e
00000130: 3027 c5bc b55f 93bc 3b8e ab3c f8a4 b83d
00000140: 84a4 35bd ada6 b1bd 890e 44bd 9043 d0bc
00000150: cb27 39bd 2b1a dd3c 4a91 1e3e 4a68 b8bc
00000160: 11e1 083e 8ab6 243e 5afa 44bb b94e bfbc
00000170: b618 113b f116 d9bc 540f fc3c 1dbc 56be
00000180: 91c9 e9bd ea8a eebb d1bf a2bb aec8 fc3d
00000190: 0208 dcbc 3f73 403b 62be 70bc a943 ac3d
000001a0: 4166 9b3d e6bb 78bb ed8a 88be c88c 88bd
000001b0: 3234 f83c 3f35 153d c8ac 8cbd 8818 04be
000001c0: 46bf 283e ae5f 163e d0b3 2e3e 7ede 253d
000001d0: 9bbd 203d 766b 56be 9394 b9bc 4ba2 053c
000001e0: 2736 873e 93e8 533d 53d4 423d 4f29 ab3d
000001f0: 9375 943d a5cd a53c f46b 9c3d 977d 02bd
00000200: ed13 afbc 6b44 003e d4a7 80bd 4c9a ab3c
00000210: 162f ae3d a115 763d 39a6 a9bd 9c82 e0bd
00000220: 275e 943d f6d9 5c3d f6ed 153e 12c7 4d3e
00000230: 9c4f 67ba 0a65 d6bd ff8d 233d 244e 25bd
00000240: 235a a1bb 3332 e1bd 6bb3 893d ad83 8abd
00000250: 6dc3 1e3d 7801 93bd a059 6a3d 870b 913c
00000260: c25a 9fbd 48cc b73d 0cc5 253d 9648 1b3d
00000270: 22ce 84bd 7463 b03d a84d 1f3d 3950 94bd
00000280: 1051 b13b 949a 07be 998e ebbd 2f04 fabd
00000290: 3ccb f2bb 5e0a 5fbc d0ea 2fbe 9944 e3bc
000002a0: da1b 823d ee5f 603d eb74 04be b8d5 b0bd
000002b0: 09b4 d9bd 4df9 e4bb a1bd 0bbd cd1e b93d
000002c0: 2e0d 2b3e 7d8b 0a3e 1d18 d83d 4912 8b3a
000002d0: df56 a2ba 1a1e a73d cc04 a93d aa3b 193e
000002e0: ac2a 303d 1a2e e63d e9bd 81bc 1357 33be
000002f0: 94cb 583d ac0b 13bd b153 ac3c bb5d 51be
00000300: 8318 063c c8fa 8dbd 1986 2ebc 4957 0bbd
00000310: fd18 3e3d 6f23 683c cff0 8dbe dde2 c7bd
00000320: 9646 9dbc 8dee b4bc a866 8fbc 7976 66be
00000330: ddbc ab3d d1d6 df3d ceb2 373e 80ba 993c
00000340: dc3a 9fbd 1b80 d0bd 3130 3a3e 93f5 9ebc
00000350: b1e9 af3d ea87 83be 1ace 663d d74a 1cbe
00000360: d36c f53d 0da9 a23c aaf0 b1bb 4cdc bcbc
00000370: d1be 81be 9bac 23be 4e23 79be be46 b8bc
00000380: d4bb 72bc 30f3 05bc 14aa 573e b9c0 5c3d
00000390: 42e0 80be 060f 323c 4597 d1bd ab1f 42be
000003a0: b631 cfbd 895e 9fbc 5096 e33c 9ba7 61be
000003b0: bce9 1c3e fbc4 1f3d 209f d2bd b723 a9bd
000003c0: 137e 35bb 160e 0ebe 08fc bb3d 0d07 cdbd
000003d0: f391 bf3c 9e74 0a3e 6810 863c 1bca 623d
000003e0: 4a39 4b3d ecce 113d a9ce 40b8 cfe0 9dbd
000003f0: b7ea ccbd 7914 c9bd fdab a03d 3669 43be

action_model._discrete_distribution.branches.2.bias f4 [3]
-0.042387314 -0.13962592 0.19551592
00000000: 529e 2dbd 19fa 0ebe 5335 483e

action_model._discrete_distribution.branches.2.weight f4 [3, 256]
0.088499606 -0.05550885 0.03256267 0.002198847 0.0669229 0.053985298 0.06486025 -0.02615092
-0.10283803 -0.09450816 0.06740082 0.094283275 0.1072623 0.0712758 0.011930051 0.006983251
0.05594715 0.037663937 0.062275834 0.07252582 0.0052112797 0.03660601 0.105869316 0.042325515
-0.033467077 0.13523781 0.05006253 -0.02735808 0.03364173 0.13027827 -0.04210283 0.01932603
0.092744365 -0.08499283 -0.028572105 0.07033175 0.055154927 -0.0027718607 0.016856749 -0.019773616
0.066728294 -0.049426522 -0.09168226 0.026312388 -0.10799988 0.0005488803 -0.02977637 -0.0038643628
0.033436667 0.11756106 0.018462399 0.08343473 -0.07005392 -0.09884806 -0.010633313 0.115236685
-0.07326707 -0.1277013 0.01372698 -0.029323569 0.04433974 -0.05218382 0.14462371 0.07206501
0.13888082 0.065895095 0.04065655 0.080369875 0.095145196 0.11405663 -0.004526252 -0.02505225
0.09479259 -0.0059157903 0.022094132 0.073349826 0.07634247 -0.073935166 -0.11351859 -0.03227502
0.02580601 -0.12165355 -0.084615774 -0.10592072 0.031618346 0.050021823 0.15259287 -0.0053306697
0.007274666 0.05924348 -0.0711781 -0.09592998 -0.04578996 0.027826173 0.03986328 -0.11514813
0.05407279 -0.018913886 -0.1052353 -0.026118994 -0.017891519 -0.010916227 -0.027061105 0.07937021
-0.077669926 -0.024332313 -0.17174035 -0.07967742 0.11539822 0.03400759 -0.13932388 0.05898678
0.008681857 -0.022028212 0.080987886 -0.04866603 0.08416745 -0.066009685 0.020849584 0.069999844
0.08078814 -0.102250166 0.0747659 -0.0477035 -0.015702866 0.078814305 -0.116747245 -0.0027222463
0.05045772 -0.0023205958 -0.022495268 -0.12280827 -0.03664211 0.029920965 -0.090065695 -0.084410325
-0.021444378 0.01405702 -0.011353418 0.116980016 0.013795147 -0.11800908 -0.022986718 -0.059872985
0.068424694 -0.08945093 0.0121953655 0.015289967 -0.064466745 0.030514844 0.127049 0.1470697
0.005189875 -0.11673966 0.07085743 0.080153525 -0.12336177 0.07571008 -0.061252058 0.06474274
0.048287574 -0.035442997 -0.046005376 0.098512515 0.03069295 0.09123789 -0.020822726 0.083205305
-0.0670148 -0.036602657 -0.056471657 -0.059629593 -0.031521782 0.0032651243 -0.02546571 0.023205718
0.033795703 0.029878354 -0.06287096 -0.027121862 -0.061306488 0.10067747 0.044325437 0.0079913605
-0.03720987 -0.07927978 0.051921513 -0.17224833 0.08899258 -0.027419338 0.060974464 -0.19505738
-0.06279199 -0.12824284 0.010562829 0.07359807 0.02059316 0.07499373 -0.062561296 -0.15063116
-0.008484369 -0.08705109 -0.0069580637 -0.047735844 0.046490427 -0.07207929 0.110144764 -0.025777234
0.03224872 -0.035687488 0.0533173 0.066140406 -0.00073442585 -0.07571161 -0.059641205 0.048145257
-0.015691608 0.055598494 -0.07989824 -0.009625718 -0.088549964 0.07120198 -0.028965797 0.04113304
0.070100576 -0.043754224 0.08940736 0.05519697 -0.09247487 0.04810994 -0.0011216457 0.010643549
0.06231934 -0.05413641 -0.015750812 0.024609854 0.0011437574 -0.1359596 -0.05919391 -0.030954558
-0.15309036 -0.034586206 -0.045862995 0.065173306 0.07141771 -0.00033703315 0.15699254 0.010828327
-0.024361368 -0.030571818 0.051737882 0.06600743 -0.004904918 0.0020488342 -0.033259433 0.02286341
00000000: 483f b53d 3f5d 63bd 6f60 053d 881a 103b
00000010: e00e 893d b01f 5d3d 73d5 843d 743a d6bc
00000020: bf9c d2bd 7f8d c1bd 7109 8a3d 9717 c13d
00000030: 56ac db3d 0cf9 913d 4376 433c c1d3 e43b
00000040: d728 653d 8045 1a3d f214 7f3d 6b88 943d
00000050: 62c3 aa3b 2ff0 153d 03d2 d83d 855d 2d3d
00000060: c614 09bd c87b 0a3e 5e0e 4d3d 0d1e e0bc
00000070: e9cb 093d ab67 053e 0474 2cbd 9f51 9e3c
00000080: c2f0 bd3d b910 aebd 0c10 eabc 180a 903d
00000090: 22ea 613d 1ba8 35bb 2a17 8a3c 47fc a1bc
000000a0: d8a8 883d 7773 4abd e9c3 bbbd 148d d73c
000000b0: 0b2f ddbd bce2 0f3a 93ed f3bc 4041 7dbb
000000c0: e3f4 083d dac3 f03d 753e 973c d4df aa3d
000000d0: 6e78 8fbd da70 cabd 5937 2ebc 3601 ec3d
000000e0: 0c0d 96bd 21c4 02be 21e7 603c fb37 f0bc
000000f0: 969d 353d b4be 55bd 3d18 143e d296 933d
00000100: c636 0e3e 02f4 863d 7c87 263d f698 a43d
00000110: 7cdb c23d 8696 e93d f450 94bb 603a cdbc
00000120: 9e22 c23d 3fd9 c1bb c1fe b43c 6f38 963d
00000130: 7159 9c3d 526b 97bd 6f7c e8bd d032 04bd
00000140: 2067 d33c 7f25 f9bd 094b adbd f6ec d8bd
00000150: 3d82 013d afe3 4c3d 4e41 1c3e e6ac aebb
00000160: 5260 ee3b 4ba9 723d d3c5 91bd f076 c4bd
00000170: 418e 3bbd b7f3 e33c ae47 233d c8d2 ebbd
00000180: 6e7b 5d3d 4bf1 9abc 9b85 d7bd 80f7 d5bc
00000190: 3c91 92bc f9d9 32bc 40af ddbc d98c a23d
000001a0: 6911 9fbd 8f54 c7bc b4dc 2fbe ea2d a3bd
000001b0: e755 ec3d 8b4b 0b3d ebaa 0ebe 1f9c 713d
000001c0: 593e 0e3c 8274 b4bc fadc a53d 0856 47bd
000001d0: fc5f ac3d 1630 87bd bfcc aa3c 145c 8f3d
000001e0: 4174 a53d 8968 d1bd dd1e 993d bf64 43bd
000001f0: 4ca3 80bc 6569 a13d 2e19 efbd b767 32bb
00000200: c1ac 4e3d 2315 18bb ff47 b8bc e782 fbbd
00000210: 0a16 16bd d01c f53c 5d74 b8bd 52df acbd
00000220: 1fac afbc 6a4f 663c b003 3abc 3893 ef3d
00000230: 0a05 623c bfae f1bd a44e bcbc 603d 75bd
00000240: 3f22 8c3d 0d32 b7bd 12cf 473c c582 7a3c
00000250: 2407 84bd 44fa f93c 2219 023e 7099 163e
00000260: d40f aa3b 3415 efbd b31d 913d 8827 a43d
00000270: 18a5 fcbd e30d 9b3d 70e3 7abd d797 843d
00000280: 31c9 453d ad2c 11bd 2270 3cbd eec0 c93d
00000290: c86f fb3c eeda ba3d 6c94 aabc 8b67 aa3d
000002a0: 0e3f 89bd abec 15bd d34e 67bd 293e 74bd
000002b0: fc1c 01bd b2fb 553b 779d d0bc eb19 be3c
000002c0: 5d6d 0a3d 73c3 f43c 7dc2 80bd ab2e debc
000002d0: 831c 7bbd fd2f ce3d 978e 353d 32ee 023c
000002e0: 6069 18bd 705d a2bd a7ab 543d de61 30be
000002f0: be41 b63d 859e e0bc 5cc0 793d 1fbd 47be
00000300: 1699 80bd 1752 03be b70f 2d3c 96ba 963d
00000310: fdb2 a83c 5096 993d 2320 80bd 0e3f 1abe
00000320: 0602 0bbc d847 b2bd 7800 e4bb a986 43bd
00000330: bf6c 3e3d 4f9e 93bd 9493 e13d c72a d3bc
00000340: 3c17 043d 0b2d 12bd 3e63 5a3d 9f74 873d
00000350: 7c86 40ba b00e 9bbd 564a 74bd f633 453d
00000360: b08b 80bc 3fbb 633d b0a1 a3bd 30b5 1dbc
00000370: af59 b5bd 58d2 913d ae49 edbc 1e7b 283d
00000380: e490 8f3d a137 33bd 351b b73d 3816 623d
00000390: 7763 bdbd ee0e 453d 2f04 93ba 4862 2e3c
000003a0: 9042 7f3d 24be 5dbd d907 81bc 9b9a c93c
000003b0: 21ea 953a fe38 0bbe 5075 72bd 6a94 fdbc
000003c0: b8c3 1cbe 44aa 0dbd d6da 3bbd 9579 853d
000003d0: 7343 923d d3b3 b0b9 a7c2 203e 4c69 313c
000003e0: 7e91 c7bc c071 fabc 1aeb 533d e72e 873d
000003f0: 6fb9 a0bb bc45 063b 0b3b 08bd 0c4c bb3c

action_model._discrete_distribution.branches.3.bias f4 [2]
0.010257151 -0.010257104
00000000: 9c0d 283c 6a0d 28bc

action_model._discrete_distribution.branches.3.weight f4 [2, 256]
-0.02158724 -0.02876164 -0.04492903 -0.029705679 0.029653654 0.0029575229 0.0059182714 0.027199332
-0.015095514 -0.038861997 -0.00018462389 -0.016641807 0.017751852 0.018178593 -0.0108675985 -0.02085165
-0.025925508 -0.011766949 0.005713424 -0.0045895004 0.025463684 -0.016523624 -0.034191057 0.037994467
-0.051688213 -0.009620816 -0.0009591935 -0.014497709 0.033086933 -0.005935209 0.009786227 -0.04845367
0.010862471 -0.010410649 0.026875969 0.02215742 -0.008542753 -0.031964656 -0.037787855 0.0012278149
-0.01503566 0.024994496 -0.007542296 0.0058677783 -0.014341042 -0.034911677 -0.009317099 -0.012822884
-0.0046186163 -0.01871709 -0.055944975 -0.025338396 0.022710988 0.023672557 0.0022974063 -0.0013824187
0.008495366 -0.098662905 -0.004132805 -0.09847892 -0.01691772 -0.049350116 -0.026533872 0.0077699455
0.032131262 -0.035666045 -0.020410096 0.006116145 0.010453183 -0.05796207 -0.03139709 -0.013781173
0.008889077 -0.029311948 -0.045258906 -0.026027737 0.0031014904 0.014703407 -0.0039740717 -0.04183784
0.018501831 -0.031957798 0.023881128 -0.018431906 0.030503996 -0.02325249 0.018284652 -0.022205248
-0.02183347 -0.018812047 -0.043801475 0.0124625955 -0.03467146 -0.049352396 0.016372886 -0.025192522
0.034377474 0.010027934 -0.028285706 -0.02297886 0.017392552 -0.0025576523 -0.014348486 0.005544531
-0.017226927 0.08267271 0.006016029 0.008560293 0.01236647 -0.016683642 -0.019161044 0.025896518
-0.027566526 -0.0068730973 0.011751946 -0.008866257 0.008635665 -0.021721387 0.017718187 0.015805742
-0.04887418 -0.019245962 -0.024346093 -0.0021200082 -0.014570474 -0.0063169557 -0.025364151 0.039505932
-0.017251225 -0.0023468968 0.027985802 -0.013595769 -0.020818638 -0.016206628 -0.04585452 -0.04414314
-0.023694986 0.0057758056 -0.0121108685 0.0032284893 -0.039593764 -0.05740428 -0.010702834 -0.022343524
-0.044418827 -0.018265873 0.014565594 -0.017334336 -0.0316505 -0.015575103 -0.00728355 -0.01696455
-0.010246225 -0.0070156665 -0.047271553 0.021744005 -0.079623826 0.009555738 -0.050513245 -0.015874194
0.0007075257 -0.008043466 -0.0203334 -0.011691326 -0.035232276 0.033015214 -0.019807141 0.0036670608
-0.0043081795 -0.045347016 -0.07529144 0.009421296 -0.035792608 -0.0035008527 -0.0029227817 -0.03093878
-0.02919931 -0.0036303326 -0.062084306 -0.02402899 -0.0444234 0.016731098 0.0074700043 -0.01282979
-0.036024697 -0.041131236 0.00038310746 -0.035093892 -0.009246989 -0.01152202 -0.040697157 0.00568011
-0.063568585 -0.0050903927 0.054673888 -0.009991973 0.019497318 -0.021852339 -0.018373422 -0.017027339
-0.06674773 0.0031240163 0.0015403486 -0.019955307 -0.0019431663 -0.02401621 0.0042717378 0.024120664
0.0009704034 0.0008947127 -0.029742746 -0.04265837 -0.061234087 -0.0479221 0.00267298 0.03332047
-0.031265542 -0.006005782 -0.08134704 0.049467914 -0.021674033 0.0065861563 -0.016344665 -0.06761759
0.011261035 -0.027868532 -0.0055075064 0.008939699 -0.024432153 -0.026368856 0.00045391283 -0.022987908
-0.023548234 0.0039511793 -0.021110423 0.010647204 -0.059198372 -0.021040028 -0.029249297 -0.074999765
0.007066198 0.007272734 -0.0027677438 0.027312221 0.043727838 -0.023853984 -0.027311446 -0.03266456
-0.028008563 -0.03212795 -0.0085905455 0.0018670147 -0.008063284 0.035699826 0.010129892 0.018614907
00000000: b9d7 b0bc 889d ebbc 8107 38bd 5359 f3bc
00000010: 38ec f23c 00d3 413b 0fee c13b 22d1 de3c
00000020: 2d53 77bc c22d 1fbd 9997 41b9 6654 88bc
00000030: 556c 913c 46eb 943c 030e 32bc 14d1 aabc
00000040: bb61 d4bc 29ca 40bc ad37 bb3b 8563 96bb
00000050: 3799 d03c 8d5c 87bc ec0b 0cbd 16a0 1b3d
00000060: 05b7 53bd a1a0 1dbc 6372 7bba cd87 6dbc
00000070: 2a86 073d 247c c2bb 6956 203c 5b77 46bd
00000080: 81f8 313c 6d91 2abc fe2a dc3c 7a83 b53c
00000090: e7f6 0bbc 5fed 02bd 70c7 1abd a2ee a03a
000000a0: 2158 76bc 42c1 cc3c 5d25 f7bb 7e46 c03b
000000b0: b1f6 6abc 8cff 0ebd bfa6 18bc 1317 52bc
000000c0: c357 97bb 9554 99bc 8f26 65bd 7892 cfbc
000000d0: 650c ba3c f3ec c13c 1590 163b 4632 b5ba
000000e0: 2630 0b3c c70f cabd 7b6c 87bb 51af c9bd
000000f0: 0897 8abc 5923 4abd 905d d9bc 079b fe3b
00000100: 129c 033d 8f16 12bd 1333 a7bc f169 c83b
00000110: d443 2b3c a369 6dbd 3c9a 00bd 6eca 61bc
00000120: 7ea3 113c 9c1f f0bc 6761 39bd 1f38 d5bc
00000130: 6042 4b3b 8fe6 703c ee38 82bb 285e 2bbd
00000140: 2791 973c 2ee6 02bd 5ba2 c33c 82fe 96bc
00000150: 84e3 f93c 027c bebc b2c9 953c c8e7 b5bc
00000160: 1bdc b2bc b91b 9abc 2d69 33bd ea2f 4c3c
00000170: a903 0ebd bd25 4abd 6e20 863c 8c60 cebc
00000180: 65cf 0c3d 344c 243c 6db7 e7bc 2a3e bcbc
00000190: d37a 8e3c 499e 27bb ea15 6bbc e6ae b53b
000001a0: 7c1f 8dbc 4f50 a93d 1c22 c53b 7940 0c3c
000001b0: bc9c 4a3c 22ac 88bc 9ff7 9cbc ef24 d43c
000001c0: 32d3 e1bc b837 e1bb 3c8b 403c c743 11bc
000001d0: 9b7c 0d3c 0df1 b1bc bb25 913c 0b7b 813c
000001e0: 4b30 48bd b5a9 9dbc 7571 c7bc d6ef 0abb
000001f0: ffb8 6ebc 77fe cebb 7bc8 cfbc f9d0 213d
00000200: 7152 8dbc 65ce 19bb 7b42 e53c cac0 5ebc
00000210: d98b aabc c3c3 84bc f3d1 3bbd 70cf 34bd
00000220: fd1b c2bc f842 bd3b aa6c 46bc 1095 533b
00000230: 122d 22bd c020 6bbd f15a 2fbc c409 b7bc
00000240: 84f0 35bd 50a2 95bc 87a4 6e3c bd00 8ebc
00000250: f4a3 01bd b82e 7fbc d9aa eebb 3df9 8abc
00000260: c8df 27bc ade3 e5bb d19f 41bd 7c20 b23c
00000270: d111 a3bd ac8f 1c3c fae6 4ebd 990a 82bc
00000280: 3f79 393a bec8 03bc 3b92 a6bc fa8c 3fbc
00000290: b84f 10bd f63a 073d 9642 a2bc 1253 703b
000002a0: a12b 8dbb cbbd 39bd 6632 9abd c85b 1a3c
000002b0: 459b 12bd 906e 65bb 248c 3fbb 5373 fdbc
000002c0: 6433 efbc e0ea 6dbb 1d4c 7ebd 72d8 c4bc
000002d0: 50f5 35bd a80f 893c f0c6 f43b 0a34 52bc
000002e0: a28e 13bd 3a79 28bd d0db c839 9dbe 0fbd
000002f0: af80 17bc dbc6 3cbc 10b2 26bd 3720 ba3b
00000300: 3f30 82bd 4fcd a6bb baf1 5f3d 5fb5 23bc
00000310: d7b8 9f3c ad03 b3bc dc83 96bc eb7c 8bbc
00000320: 09b3 88bd 4cbc 4c3b 86e5 c93a 5079 a3bc
00000330: d7b1 feba a5bd c4bc eff9 8b3b b398 c53c
00000340: ab62 7e3a 278b 6a3a 0fa7 f3bc 8bba 2ebd
00000350: 98d0 7abd f749 44bd 2a2d 2f3b 0c7b 083d
00000360: 4c10 00bd 27cc c4bb 4799 a6bd de9e 4a3d
00000370: be8d b1bc afd0 d73b 3fe5 85bc 177b 8abd
00000380: 3480 383c 8c4c e4bc 5078 b4bb d177 123c
00000390: f025 c8bc 8003 d8bc 26fb ed39 2351 bcbc
000003a0: 3ae8 c0bc e578 813b c4ef acbc 9c71 2e3c
000003b0: fe79 72bd 235c acbc 399c efbc 7a99 99bd
000003c0: 918b e73b 1d50 ee3b 0963 35bb e1bd df3c
000003d0: f61b 333d 6e69 c3bc 41bc dfbc 46cb 05bd
000003e0: 3772 e5bc 9998 03bd 5cbf 0cbc 9eb6 f43a
000003f0: dd1b 04bc fb39 123d d9f7 253c 4a7e 983c

discrete_action_output_shape f4 [1, 4]
3.0 3.0 3.0 2.0
00000000: 0000 4040 0000 4040 0000 4040 0000 0040

network_body._body_endoder.seq_layers.0.bias f4 [256]
-0.044320714 -0.042118788 -0.094072945 0.04868271 0.029811978 0.12639767 0.0055610277 0.10010199
0.046291433 -0.16256052 -0.00030331494 -0.067044176 -0.07959197 0.091886446 -0.06209688 -0.1255332
0.05576808 -0.1372862 -0.008476815 -0.084576756 -0.09118241 -0.02811421 -0.18651113 -0.014576756
-0.12680604 -0.08793075 -0.097604655 -0.09810981 -0.12296189 -0.01866462 -0.07791359 -0.07626448
-0.1300671 -0.070628695 0.0255054 -0.051654108 -0.14964482 0.013854741 0.0025919462 -0.068071015
0.010092124 -0.16018456 0.035221852 -0.045859255 -0.0021582742 -0.035772618 0.032574873 0.027445562
-0.03901588 -0.16833408 -0.06390601 0.15224609 -0.09790695 -0.16122656 -0.2017792 -0.017241575
0.009614442 0.058854185 0.01630167 -0.07383687 -0.09018679 -0.11980799 0.12786955 -0.11398977
-0.09963948 -0.12225407 0.08046712 -0.14487922 0.027310628 -0.14374453 0.0360681 -0.14338098
0.0044934833 -0.11828628 -0.14337015 0.05058359 -0.13456249 -0.13016163 -0.16314411 0.01571836
0.059669457 0.009739877 -0.06710877 0.0068429043 -0.0249771 0.012922932 -0.14375874 0.088014245
-0.0774872 -0.11997986 -0.10401097 -0.0891854 -0.12847301 0.07021019 -0.14509016 -0.1244534
-0.0049233655 0.053492244 -0.10469729 -0.047444258 -0.09255036 -0.1285992 -0.007067335 -0.011644773
-0.023973666 -0.01906769 -0.059757665 -0.089935854 -0.084641784 -0.15028873 -0.041937314 0.021238891
0.09287921 -0.10369213 0.1340225 0.032840483 -0.13561337 -0.08708507 -0.23445499 0.018734673
-0.16358955 -0.07830739 -0.146652 -0.10699954 -0.14402159 0.023005916 -0.037936594 -0.09190685
-0.17782956 0.02694831 0.019949924 -0.10723843 -0.14611584 0.031792685 0.07284916 -0.13196068
-0.1742637 -0.20349045 0.071594484 -0.1667057 0.00209147 -0.17248909 -0.09419047 -0.14562477
-0.109693915 -0.22923943 -0.14572205 0.09535929 -0.122530594 -0.15030754 -0.079746544 -0.15595402
0.0133126145 -0.07427782 -0.057480875 -0.1409727 -0.21475135 -0.09375865 -0.06806277 -0.12780496
-0.06679997 0.04043078 -0.12489432 -0.12946363 -0.12043546 0.032617442 0.023551257 -0.12151122
-0.17760733 0.035232496 -0.21358152 -0.05006239 0.0788033 -0.113755986 0.04018883 -0.15482475
0.04228059 0.010824838 -0.18419495 0.0037102257 -0.18614477 0.03637468 -0.146874 0.0065905987
0.04952952 -0.13854866 -0.075314365 -0.021147262 0.028656168 -0.1363796 -0.05596569 -0.07429219
-0.07412975 -0.08104817 0.040163167 0.03734259 -0.12864897 -0.047008213 -0.22153778 -0.03984594
-0.0050808713 -0.15045743 -0.07804871 -0.16011961 0.00033255035 -0.021378107 -0.054479327 -0.01707218
-0.14919229 -0.15867151 -0.13323063 0.054440554 0.050392248 -0.14802189 -0.04161034 -0.099712744
0.014387735 -0.13539056 -0.12086447 -0.051326383 0.017367853 -0.07432028 0.12695774 -0.142262
-0.15873493 -0.10228181 -0.12052818 0.015868094 -0.013573959 0.015529982 -0.060198627 -0.16183217
-0.13171324 -0.04506963 -0.039539147 0.03771235 -0.122150674 -0.028222283 -0.097552605 -0.22232118
-0.09210358 -0.0081687905 0.058745686 0.08906545 -0.21077418 -0.13233566 -0.020375434 -0.11497374
-0.03487922 -0.019634785 -0.037104357 0.07256023 -0.18060611 -0.07895751 0.030391213 0.05336157
00000000: a389 35bd c084 2cbd 51a9 c0bd 8567 473d
00000010: 4038 f43c 646e 013e 4839 b63b 4602 cd3d
00000020: 169c 3d3d 4476 26be 3e06 9fb9 754e 89bd
00000030: 1d01 a3bd f62e bc3d 4c59 7ebd c68b 00be
00000040: 126d 643d c194 0cbe 57e2 0abc 9436 adbd
00000050: d8bd babd c64f e6bc c6fc 3ebe 59d3 6ebc
00000060: 71d9 01be 0915 b4bd f3e4 c7bd cced c8bd
00000070: 72d3 fbbd 8ce6 98bc 2991 9fbd 8d30 9cbd
00000080: 4f30 05be c7a5 90bd b3f0 d03c 4293 53bd
00000090: 7e3c 19be fffe 623c a4dd 293b d168 8bbd
000000a0: 7059 253c 6c07 24be ca44 103d ead6 3bbd
000000b0: d571 0dbb 4f86 12bd 3b6d 053d 84d5 e03c
000000c0: 1ecf 1fbd c55f 2cbe 27e1 82bd 66e6 1b3e
000000d0: 7083 c8bd 9318 25be 359f 4ebe 343e 8dbc
000000e0: e485 1d3c 1611 713d 148b 853c c937 97bd
000000f0: dab3 b8bd e45d f5bd 3cf0 023e 7873 e9bd
00000100: c90f ccbd 5860 fabd f2cb a43d 385b 14be
00000110: 8aba df3c c431 13be 25bc 133d 77d2 12be
00000120: 123e 933b 1440 f2bd a0cf 12be bd30 4f3d
00000130: c0ca 09be 1749 05be 400f 27be cac3 803c
00000140: f667 743d 0194 1f3c 5370 89bd 713a e03b
00000150: c69c ccbc b5ba 533c 7e35 13be d040 b43d
00000160: 9cb1 9ebd 00b8 f5bd b403 d5bd d6a6 b6bd
00000170: 6e8e 03be 5cca 8f3d 8492 14be 6de1 febd
00000180: 2f54 a1bb af1a 5b3d 886b d6bd e954 42bd
00000190: 0b8b bdbd 82af 03be 1a95 e7bb b8c9 3ebc
000001a0: 6c64 c4bc d833 9cbc 74c4 74bd 4a30 b8bd
000001b0: ac58 adbd 4ae5 19be 76c6 2bbd 2ffd ad3c
000001c0: 7537 be3d 8a5c d4bd 323d 093e be83 063d
000001d0: 3bde 0abe a859 b2bd f814 70be 7579 993c
000001e0: 0584 27be a05f a0bd f12b 16be 9322 dbbd
000001f0: 657a 13be e776 bc3c 6763 1bbd a939 bcbd
00000200: f418 36be b4c2 dc3c 066e a33c d29f dbbd
00000210: 649f 15be 0c39 023d f131 953d b320 07be
00000220: 2f72 32be cd5f 50be 21a0 923d e6b4 2abe
00000230: 0b11 093b fba0 30be efe6 c0bd a91e 15be
00000240: 34a7 e0bd bebd 6abe 2938 15be bb4b c33d
00000250: 52f1 fabd 38ea 19be 2852 a3bd 69b2 1fbe
00000260: 271d 5a3c f81e 98bd 1171 6bbd 265b 10be
00000270: c7e7 5bbe 8904 c0bd 7e64 8bbd 4edf 02be
00000280: 6cce 88bd bf9a 253d 98c8 ffbd 1d92 04be
00000290: dea6 f6bd de99 053d 91ee c03c e0da f8bd
000002a0: b2de 35be f34f 103d 1db5 5abe 380e 4dbd
000002b0: a063 a13d e6f8 e8bd 0b9d 243d 618a 1ebe
000002c0: 692e 2d3d a95a 313c 9a9d 3cbe 4227 733b
000002d0: bc9c 3ebe 9efd 143d 2366 16be f3f5 d73b
000002e0: 77df 4a3d b3df 0dbe 6b3e 9abd 063d adbc
000002f0: 57c0 ea3c 18a7 0bbe 483c 65bd 8126 98bd
00000300: 57d1 97bd 95fc a5bd 2282 243d 8bf4 183d
00000310: 8ebc 03be af8b 40bd cdda 62be 7f35 23bd
00000320: 707d a6bb 8311 1abe 01d8 9fbd 65f6 23be
00000330: 275a ae39 2421 afbc b725 5fbd f5da 8bbc
00000340: ddc5 18be c97a 22be 9c6d 08be 0ffd 5e3d
00000350: 1a68 4e3d 0d93 17be 9b6f 2abd 3236 ccbd
00000360: 89ba 6b3c d3a3 0abe cb87 f7bd 9d3b 52bd
00000370: 0747 8e3c 3b35 98bd 3601 023e 21ad 11be
00000380: 698b 22be 2079 d1bd 7ad7 f6bd cefd 813c
00000390: 4f65 5ebc 7771 7e3c d692 76bd 55b7 25be
000003a0: d6df 06be ef9a 38bd cdf3 21bd 4478 1a3d
000003b0: 222a fabd 6b32 e7bc a9c9 c7bd 2aa8 63be
000003c0: cda0 bcbd 64d6 05bc 519f 703d f267 b63d
000003d0: 30d5 57be 0083 07be 62ea a6bc 5a77 ebbd
000003e0: 83dd 0ebd 21d9 a0bc bdfa 17bd 759a 943d
000003f0: cff0 38be 7ab4 a1bd fef6 f83c a991 5a3d

network_body._body_endoder.seq_layers.0.weight f4 [256, 12]
0.082410775 0.61482584 0.056178626 -0.72670186 0.31817824 0.34753376 0.45910686 0.45980725
-0.6187983 -0.23462155 -0.0417109 0.17943703 -0.41168034 -0.18866974 -0.08815687 -0.33533445
0.12653743 -0.13193141 -0.27905658 -0.15653658 -0.26416656 0.37567064 0.030780526 0.07407232
-0.41041568 0.020762589 -0.37054867 0.35562682 0.76828086 -0.4083998 0.17424783 0.15894218
-0.3645992 0.52099395 -0.19128233 0.39619315 -0.19597845 0.31559798 -0.08603127 0.39076954
-0.1652529 0.24050179 0.23554756 0.27305666 -0.26354468 0.117792435 -0.32192314 0.58930415
-0.36626837 0.5947171 -0.12238999 -0.43367088 -0.46821398 0.14356296 0.39162943 0.23546125
-0.88686746 0.07733321 0.001106561 0.26078895 -0.10758303 0.1246882 -0.4580601 -0.4943928
0.53967667 0.07143089 0.17393823 0.06453343 0.66574174 0.14970009 -0.108490855 0.43418175
-0.7413127 0.07972747 0.4352477 -0.25317752 -0.28539997 0.5365392 0.25946063 0.7223943
0.27785593 -0.073911205 0.18261357 -0.045519274 -0.5773636 -0.016585423 0.0018835695 -0.4648562
0.09110901 -0.08298775 0.22370793 -0.46963263 0.5734493 -0.0049831695 0.051910724 0.15795621
-0.60580605 0.087067686 0.19029851 -0.6009651 0.69585043 0.3593277 -0.38486764 0.47245964
-0.05852005 0.15921214 -0.12351938 0.06024158 -0.15092337 0.067973904 -0.54802287 0.51007146
0.22180165 -0.14940251 0.37603348 0.48582155 0.23986863 0.4840603 0.3428943 0.033400167
0.43070248 0.6312495 0.052072883 -0.016529858 0.50192815 -0.59060884 0.37161246 0.43608683
-0.4082771 -0.02604684 2.4917435e-06 0.29070786 0.24683237 -0.2901138 -0.27895647 0.1370937
-0.44646844 -0.06838055 -0.3627521 -0.0077971076 0.08292543 0.115709834 -0.14998947 -0.23224862
0.39383143 0.24173877 -0.41544542 0.50052303 0.3940658 0.46137226 -0.30546904 -0.21102814
-0.6392833 -0.2353077 0.15839007 0.01555086 -0.24316789 0.58592105 -0.18301573 -0.15654802
0.008883385 0.18642619 -0.15943353 0.08666061 -0.9406538 -0.052097067 -0.09614984 0.45221186
0.029018288 -0.105832346 -0.250049 0.23513442 0.08592345 -0.082101285 -0.3407443 0.18682268
0.075553745 0.286282 -0.017559264 0.11270251 0.12366434 0.3906742 0.0015414549 0.31980053
0.01572364 0.43158665 0.001742912 0.06578646 -0.4373547 0.16543902 0.3026773 0.08291019
0.2597833 0.39893976 0.104720265 -0.082604036 0.0754397 -0.1322361 0.5170638 0.34443045
0.018879645 0.19549145 -0.2969877 0.2094965 -0.48988482 -0.047374785 0.2470583 0.08948878
-0.037011303 0.056604322 0.04221813 -0.06919545 0.2225871 -0.716178 -0.7412277 -0.14018962
0.55625796 -0.08770909 -0.38785434 -0.040911674 -0.07730221 -0.10604579 0.52362823 0.18472008
-0.47639713 0.12837683 -0.07619077 -0.15296084 -0.23985946 0.32979843 0.27123335 -0.18896694
-0.055547144 0.56856334 0.033157423 0.03651398 0.6749278 -0.5536004 0.04904486 0.05679007
0.22911586 -0.17645232 -0.10150986 0.5570591 0.69282436 -0.29906237 0.22628723 0.259439
0.32524186 -0.25276747 -0.01419917 -0.15054078 0.015500395 0.06438239 0.009291487 -0.312815
00000000: fbc6 a83d 3a65 1d3f 8f1b 663d 2209 3abf
00000010: 42e8 a23e f2ef b13e 0e10 eb3e db6b eb3e
00000020: 9169 1ebf a240 70be 0cd9 2abd 57be 373e
00000030: c4c7 d2be a432 41be 978b b4bd f5b0 abbe
00000040: 0793 013e 0719 07be 81e0 8ebe 204b 20be
00000050: d740 87be e757 c03e 7127 fc3c 3ab3 973d
00000060: 0122 d2be 4e16 aa3c 8eb8 bdbe b814 b63e
00000070: 0eae 443f c719 d1be 066e 323e bdc1 223e
00000080: bfac babe dc5f 053f 84df 43be d4d9 ca3e
00000090: 93ae 48be 0f96 a13e 2a31 b0bd f212 c83e
000000a0: 0e38 29be 1a46 763e 6133 713e 15ce 8b3e
000000b0: 54ef 86be 293d f13d 1cd3 a4be a3dc 163f
000000c0: 8787 bbbe 613f 183f 9aa7 fabd 1c0a debe
000000d0: beb9 efbe 2b02 133e a783 c83e c11c 713e
000000e0: bf09 63bf e060 9e3d 070a 913a 2186 853e
000000f0: 7e54 dcbd 875c ff3d da86 eabe 0e21 fdbe
00000100: 4028 0a3f 5c4a 923d dd1c 323e 1a2a 843d
00000110: 0d6e 2a3f fb4a 193e 7430 debd 124d de3e
00000120: abc6 3dbf 2848 a33d c9d8 de3e 7ca0 81be
00000130: f21f 92be a25a 093f 06d8 843e d5ee 383f
00000140: 2243 8e3e c25e 97bd 0dff 3a3e 6b72 3abd
00000150: 1ace 13bf 27de 87bc 1be2 f63a a201 eebe
00000160: 5c97 ba3d 7bf5 a9bd b113 653e b073 f0be
00000170: 93cd 123f db49 a3bb 57a0 543d 46bf 213e
00000180: 1b16 1bbf 8b50 b23d 9ddd 423e d9d8 19bf
00000190: 4123 323f cdf9 b73e 5f0d c5be 3be6 f13e
000001a0: b8b2 6fbd 8208 233e bbf7 fcbd e0bf 763d
000001b0: a88b 1abe e735 8b3d 3a4b 0cbf 0b94 023f
000001c0: f91f 633e f9fc 18be 7687 c03e 9abd f83e
000001d0: 1fa0 753e c0d6 f73e d78f af3e 9dce 083d
000001e0: 0985 dc3e 9199 213f 604a 553d a069 87bc
000001f0: 5d7e 003f 2432 17bf fd43 be3e c646 df3e
00000200: b209 d1be 2f60 d5bc d437 2736 a9d7 943e
00000210: a0c1 7c3e cc89 94be 62d3 8ebe 4a62 0c3e
00000220: 8397 e4be 1a0b 8cbd a5ba b9be e17e ffbb
00000230: cfd4 a93d 47f9 ec3d d796 19be 95d2 6dbe
00000240: 46a4 c93e 5e8a 773e 43b5 d4be 4722 003f
00000250: fec2 c93e fc38 ec3e 7066 9cbe c317 58be
00000260: 12a8 23bf 80f4 70be 0231 223e 09c9 7e3c
00000270: 0101 79be ecfe 153f 7a68 3bbe 204e 20be
00000280: 9e8b 113c 82e6 3e3e 8b42 23be 1e7b b13d
00000290: b0ce 70bf bc63 55bd 35ea c4bd 5088 e73e
000002a0: c3b7 ed3c a1be d8bd 6c06 80be 14c7 703e
000002b0: a2f8 af3d b824 a8bd 0976 aebe 724e 3f3e
000002c0: ecbb 9a3d 8e93 923e 72d8 8fbc 93d0 e63d
000002d0: bb43 fd3d 7306 c83e a50a ca3a e5bc a33e
000002e0: ddce 803c edf8 dc3e 6c72 e43a 0dbb 863d
000002f0: f5ec dfbe d968 293e 85f8 9a3e d1cc a93d
00000300: 5102 853e d541 cc3e 9477 d63d 4e2c a9bd
00000310: 2180 9a3d e668 07be 4b5e 043f 3059 b03e
00000320: 7ca9 9a3c e92e 483e c60e 98be 4086 563e
00000330: 2fd2 fabe 100c 42bd dafc 7c3e e545 b73d
00000340: 2a99 17bd efd9 673d ebec 2c3d 58b6 8dbd
00000350: dfed 633e 7157 37bf 19c1 3dbf de8d 0fbe
00000360: ec66 0e3f d3a0 b3bd d894 c6be 0093 27bd
00000370: 9f50 9ebd 892e d9bd 800c 063f 4327 3d3e
00000380: 53ea f3be 3775 033e e809 9cbd c4a1 1cbe
00000390: b89d 75be 57db a83e 19df 8a3e 8d80 41be
000003a0: 6785 63bd 5e8d 113f 14d0 073d af8f 153d
000003b0: 11c8 2c3f c1b8 0dbf 43e3 483d b49c 683d
000003c0: 599d 6a3e ebaf 34be 67e4 cfbd 6d9b 0e3f
000003d0: f05c 313f b41e 99be d7b7 673e 30d5 843e
000003e0: 1a86 a63e bd6a 81be a3a3 68bc 5d27 1abe
000003f0: 5ef5 7d3c eada 833d 523b 183c 4a29 a0be

network_body._body_endoder.seq_layers.2.bias f4 [256]
-0.066564694 0.07610564 -0.25110528 -0.08271895 0.0926208 -0.07222911 -0.0028837938 0.042035256
0.07642107 0.0022412539 -0.0134900175 -0.053983185 0.022824852 -0.17938673 0.113630265 0.12380804
0.019809129 0.06414378 0.12616189 -0.19025046 0.14860006 0.12743995 0.01855666 -0.047563016
0.006580748 -0.04264799 0.04887137 0.198487 -0.17885804 0.0653669 -0.03585576 -0.046907518
0.035005737 0.11669801 -0.059823737 0.11548761 -0.13907231 0.032567866 0.115787975 -0.08961957
-0.21602634 0.08262884 0.20403711 0.107407935 0.19207199 -0.11429227 0.0981912 0.17180371
0.04404228 -0.085000165 0.024304686 -0.009584881 -0.07304838 -0.016126817 -0.2706199 -0.03625159
0.08145348 -0.070407666 0.09168079 0.039179146 -0.13846472 0.026117276 -0.048868254 0.07251036
-0.09087715 -0.10524838 -0.10433791 0.07136737 -0.010715936 -0.13847609 0.022796893 0.062869735
-0.13513845 0.024242807 -0.05345315 0.029120853 0.06537735 0.017148841 0.19893526 0.028751973
-0.101713724 -0.08793225 -0.07511062 0.102719225 -0.08500989 -0.049322024 -0.046449266 0.052226257
0.036555197 -0.018958278 -0.12707862 0.043758996 -0.14940411 -0.11657708 -0.14464891 0.12204131
0.10306856 -0.12721722 0.07179155 0.15028374 -0.0032754706 -0.098969035 0.0758318 -0.16745172
0.03211958 0.020544501 0.122743554 -0.018871417 -0.18889134 -0.15298855 0.13692018 0.092792064
0.014065575 0.048105855 -0.013425527 -0.026072167 -0.17398831 0.17031574 0.08526246 0.08104631
-0.0056245555 0.12945047 -0.12539805 0.01779027 -0.22179617 -0.13402958 0.19144669 -0.039764725
-0.034172155 0.093192585 -0.017965037 0.08575092 0.10076628 -0.043297537 0.034011777 -0.071912624
0.07916074 -0.1680246 0.056757007 0.032974076 -0.0076527027 -0.047669817 0.19141507 0.14410111
-0.09341009 0.0833273 0.053672753 -0.036230367 0.07768088 0.08112847 -0.06640092 -0.121033564
-0.056905143 0.12668267 0.048780825 -0.0718745 -0.11216827 0.044930544 0.032200392 0.028020782
-0.06541848 0.20499332 0.04772997 -0.04670882 -0.22910912 0.06348292 0.15260047 0.12855253
0.090202294 -0.06727556 0.090038374 0.13942604 0.08315139 -0.17093103 0.0140744485 -0.23415968
-0.032568473 0.1263999 -0.16695547 0.15243295 0.055770654 -0.08998269 -0.08458236 0.1135003
-0.0049614157 0.06511125 0.1035775 0.097178124 -0.086626165 -0.20610732 0.058445465 0.06144509
-0.028819792 0.12770593 -0.09829815 -0.042433348 -0.00613221 0.044490077 0.19154298 0.04797975
-0.23249651 -0.10384209 -0.06639243 0.12521788 -0.034578267 0.15421498 -0.019836446 -0.16035075
0.085450456 0.10550157 -0.015895711 -0.13742806 -0.20554487 0.12781048 0.018194254 0.12836385
-0.046801675 0.04253431 -0.08843258 -0.13008554 0.17443387 0.019939 0.13662094 0.0022096785
-0.19200599 0.027390657 0.009751514 -0.005405462 0.119786166 -0.09201222 0.11593592 0.12426493
-0.0388059 0.033697616 -0.17026542 0.15688019 -0.065341145 -0.05725044 -0.043957233 0.08094763
-0.12536402 0.065183595 0.06665701 0.08024957 0.0031628155 0.19158538 -0.17487586 -0.16110396
0.11209175 -0.17519376 -0.030494334 0.135206 0.20219415 -0.14370234 -0.065081336 0.11196738
00000000: 1253 88bd 46dd 9b3d df90 80be 8e68 a9bd
00000010: f9af bd3d dbec 93bd 08fe 3cbb 292d 2c3d
00000020: a682 9c3d 00e2 123b 3c05 5dbc 791d 5dbd
00000030: 2ffb ba3c 28b1 37be fcb6 e83d 128f fd3d
00000040: c146 a23c d05d 833d 9530 013e 04d1 42be
00000050: 9d2a 183e 9e7f 023e 2304 983c 70d1 42bd
00000060: 51a3 d73b a9af 2ebd 582d 483d 2d40 4b3e
00000070: 9026 37be 15df 853d 7ddd 12bd 1922 40bd
00000080: 2d62 0f3d 5eff ee3d bc09 75bd c584 ec3d
00000090: f968 0ebe e265 053d 3f22 ed3d 778a b7bd
000000a0: 0236 5dbe 4f39 a93d 1bef 503e b1f8 db3d
000000b0: 85ae 443e 1112 eabd 7818 c93d 50ed 2f3e
000000c0: ae65 343d 9114 aebd 9f1a c73c e809 1dbc
000000d0: 649a 95bd 631c 84bc b18e 8abe 8c7c 14bd
000000e0: 15d1 a63d e531 90bd 23c3 bb3d 507a 203d
000000f0: b2c9 0dbe e6f3 d53c 142a 48bd 5080 943d
00000100: cd1d babd 768c d7bd 1daf d5bd 0e29 923d
00000110: e591 2fbc adcc 0dbe 8dc0 ba3c d9c1 803d
00000120: bc61 0abe da98 c63c b1f1 5abd db8e ee3c
00000130: 8fe4 853d ba7b 8c3c afb5 4b3e 4289 eb3c
00000140: 494f d0bd d315 b4bd 99d3 99bd 755e d23d
00000150: aa19 aebd e405 4abd 9641 3ebd 33eb 553d
00000160: e7ba 153d 644e 9bbc e620 02be a23c 333d
00000170: 64fd 18be f7bf eebd d81e 14be cbf0 f93d
00000180: 9c15 d33d 3b45 02be 7307 933d fbe3 193e
00000190: 47a9 56bb 47b0 cabd b44d 9b3d 7778 2bbe
000001a0: d28f 033d f14c a83c f960 fb3d 3b98 9abc
000001b0: bb6c 41be 08a9 1cbe ce34 0c3e c409 be3d
000001c0: 4c73 663c a50a 453d bef6 5bbc 4c95 d5bc
000001d0: fe29 32be 4067 2e3e 169e ae3d 9cfb a53d
000001e0: 314e b8bb aa8e 043e 5968 00be e6bc 913c
000001f0: 891e 63be 0d3f 09be 9a0a 443e 56e0 22bd
00000200: 1af8 0bbd c1db be3d 6a2b 93bc 2e9e af3d
00000210: 8d5e ce3d c258 31bd ef4f 0b3d ed46 93bd
00000220: 071f a23d a40e 2cbe 097a 683d d30f 073d
00000230: 86c3 fabb 6d41 43bd 5002 443e 3e8f 133e
00000240: ca4d bfbd 81a7 aa3d f6d7 5b3d 4b66 14bd
00000250: 2717 9f3d af26 a63d 35fd 87bd 72e0 f7bd
00000260: 5e15 69bd 1ab9 013e 67ce 473d f032 93bd
00000270: 7ab8 e5bd 1709 383d 8fe4 033d d78b e53c
00000280: 20fa 85bd c5e9 513e 8080 433d bf51 3fbd
00000290: 959b 6abe 5503 823d 4c43 1c3e 46a3 033e
000002a0: fbbb b83d c5c7 89bd 0a66 b83d b3c5 0e3e
000002b0: 474b aa3d 8b08 2fbe 8498 663c 8ec7 6fbe
000002c0: 8566 05bd fa6e 013e 60f6 2abe 6217 1c3e
000002d0: c56f 643d d848 b8bd 8439 adbd d872 e83d
000002e0: 5f93 a2bb 0c59 853d 7120 d43d 5305 c73d
000002f0: 0f69 b1bd cc0d 53be 8364 6f3d d9ad 7b3d
00000300: 7c17 ecbc 58c5 023e 8a50 c9bd 97ce 2dbd
00000310: b5f0 c8bb 3a3b 363d d823 443e 6a86 443d
00000320: 9113 6ebe 29ab d4bd c1f8 87bd 1e39 003e
00000330: f1a1 0dbd 88ea 1d3e 0b80 a2bc fd32 24be
00000340: a600 af3d 3511 d83d b937 82bc f1b9 0cbe
00000350: 5b7a 52be c0e0 023e 1e0c 953c d071 033e
00000360: 1db3 3fbd 7538 2e3d 241c b5bd 2535 05be
00000370: cb9e 323e 1d57 a33c 5ce6 0b3e 41d0 103b
00000380: 389d 44be 5f62 e03c d0c4 1f3c 4d20 b1bb
00000390: 7352 f53d e770 bcbd d06f ed3d 9d7e fe3d
000003a0: eff2 1ebd 8306 0a3d 0f5a 2ebe 33a5 203e
000003b0: 94d1 85bd 707f 6abd 800c 34bd dfc7 a53d
000003c0: 6d5f 00be fa7e 853d 7883 883d e359 a43d
000003d0: 3d47 4f3b f52e 443e a812 33be 70f8 24be
000003e0: 5c90 e53d fe65 33be 41cf f9bc 7173 0a3e
000003f0: fc0b 4f3e b526 13be 5d49 85bd 274f e53d
