Assets/Model/0614ChaseMode.onnx (onnx, 292251 bytes, 13 tensors)

action_model._discrete_distribution.branches.0.bias f4 [3]
00000000: 5a4f 133d 0df5 25bd 9146 723c
0.035964347 -0.0405169 0.014787332

action_model._discrete_distribution.branches.0.weight f4 [3, 256]
00000000: 82fc 80bd 2d36 843d d6e1 203d fd80 ba3c
00000010: c040 eebb f25d 273e 7a55 cdbc 7687 10be
00000020: fb9d 263d 8528 e3bb 6af3 2a3d 65cd 8f3c
00000030: 57ce 94bc d502 883d 9d37 89bd 75ef 9fbd
00000040: 3a36 9ebd abc2 d3bc 8535 09be b43c 1fbd
00000050: e1ad 623e 0c3e 70bd d1cc 893d 6575 15bc
00000060: 3d80 b53c 65d3 2b3e 122a d13c 4758 9cbc
00000070: 0288 063e b856 83bd 85a0 293e ecd1 203d
00000080: ef4e f73b add7 5fbe d7ab 873d eafa 3e3d
00000090: f9cb 0b3e b04f 04be e62a fc3d 3833 193e
000000a0: 84bb 803d d01b 283d 0474 bfbd 2e20 043e
000000b0: 7b81 153e faa5 9f3b afad adbd 7be7 293d
000000c0: 919f a63c 38a5 38bc 9012 8e3e 26b6 8cbc
000000d0: 8be9 9f3d 4a92 b9bb 8cff 8b3d 80bf 153e
000000e0: de6c b63d eeaa 43be f4e4 efba c7f4 09be
000000f0: da4e 003e 8786 29be 9583 273d 1b9a 143e
00000100: 876e fd3c a9e4 a53d e34a ddbb 1852 ab3d
00000110: cd4d b13d e3e7 b1bc 86ef 923c 6e98 9cbd
00000120: 2169 b73d 3307 e5bd 2740 283d 8964 d13d
00000130: 18d8 18bd 5db8 e8bd ca75 2b3c 5569 a53d
00000140: 5524 013d ca74 053e 221e a5bd f2c6 a1bd
00000150: 99fd bc3d ef24 8dbd 07b6 403e 6346 25bc
00000160: 8f80 96bd a9f6 783d 3417 483d d769 6abc
00000170: 5aeb ea3d 9fbe 04be 6f18 053e dc65 27be
00000180: 8125 3ebb d419 34be 21d7 bfbd 46f2 02bd
00000190: 9154 093d 2ca7 0b3d 8006 30bd 7c37 ff3d
000001a0: 240b 31bd 779a a93e aa64 debc ed98 babc
000001b0: c07f 62be a7cc 303c 1dd4 9d3d 4298 5dbc
000001c0: cd28 e53d be6c a5bc d473 21be c1cd e43c
000001d0: 34d2 e93d 1225 2a3e 9299 e43d 1b72 aebd
000001e0: ff61 8fbd dd0d 983d af11 1a3e ec61 653c
000001f0: 23ce 1abe f28c 593d fb21 833d 8677 a53d
00000200: 37b2 22be 7342 46bd a3ed a33c 50ad 4a3c
00000210: db0f 1d3c d5dc 9bbe e6f9 8f3c 25ca 403e
00000220: 8a5d 073e 33a2 923d 3fef fd3b 9350 9b3c
00000230: a6b4 d9bc 9c29 993d d36a afbd d882 533d
00000240: 8d23 153e 4e8c 27be 835c 1f3d 2eac ee3d
00000250: 6e6a 52be 4e8d b0bd 0aa9 84bc 3fa8 bf3d
00000260: ff0e db3d 16b2 87bd cc42 13bd 410d 063e
00000270: 007c 403c 91ee 6cbd 42dd bfbd d4a5 203e
00000280: 7859 223e cf21 41bd 1da2 343d 1161 aa3d
00000290: 9cb5 333d 4872 07bc 4212 05be 6d8b c53d
000002a0: e516 a8bd 5bba c03c 8b0d e13d 30a8 97bc
000002b0: 0f01 303e b606 143b bd87 babc bb6d 543c
000002c0: 4904 c53d 95de 41be c556 37be 0b01 d13c
000002d0: ea19 3cbd f95a 0f3e b047 1b3e 1b1b c9bc
000002e0: 0bdf 713d 11f6 bbbe a106 0cbe aac9 00be
000002f0: 8f10 ebbd 7082 2fbd 2cdf cc3d fb00 863e
00000300: 5745 f03d 0ab4 82bd 874e 1c3d 67b0 d93d
00000310: 2b04 92bd 5d4b 7a3d 3a90 55bd 209e 0dbe
00000320: 422c 5abd 73bb aa3d 2731 be3d 389d 883d
00000330: 1429 e7bd adfa 123d 6f54 1abe 425d bebd
00000340: 4864 113e a78c e83d 4249 12be da23 053c
00000350: d690 623d f380 153d 67da f2bd 0cb1 90bd
00000360: 71a3 0cbd 7cdd e4bd 9452 f53d 607a 0d3e
00000370: 2775 5e3e 8e3d fbbd 2d7f d1bd b913 9c3d
00000380: fea1 b73c 0be4 b83d 4b09 abbc 8382 093e
00000390: 2bc9 cf3d f11e a7be 01d1 ad3d df79 053e
000003a0: 130f 22bc 6139 34be 9ca7 bdbc 1ba0 10bd
000003b0: 797b f63b 4407 b8bc 186e f5bd 7030 153d
000003c0: 7eb6 c3bb 08f4 06be 9696 843c 2694 0b3e
000003d0: eea5 39bd 51df 74bc 5f08 9fbd 51ae f83d
000003e0: 821b e23d bf02 2b3c 1d35 5ebd 0ec6 d73d
000003f0: ec13 2bbd 36a5 3a3c cec7 fe3d 5c9b 0f3c
-0.06298162 0.06455646 0.039277874 0.022766585 -0.0072709024 0.16344431 -0.025065172 -0.14114174
0.040678006 -0.0069323205 0.041736044 0.017553994 -0.018164797 0.06641165 -0.067000605 -0.07809345
-0.07725187 -0.02584966 -0.13399322 -0.03887625 0.22136642 -0.058652923 0.06728519 -0.009122227
0.022155875 0.1677986 0.025532756 -0.019085063 0.1313782 -0.06413025 0.1656514 0.039262697
0.0075472514 -0.21859618 0.06624573 0.04662601 0.13652028 -0.12921023 0.1231287 0.14960945
0.06285766 0.04104215 -0.093483 0.129029 0.14600174 0.004872081 -0.08480393 0.041480523
0.020339759 -0.01126986 0.27748537 -0.017176699 0.07808217 -0.005663191 0.06835851 0.14623833
0.089074835 -0.19108173 -0.0018302486 -0.13472281 0.1253008 -0.16555224 0.04089697 0.14511912
0.030936493 0.08100254 -0.006753312 0.083652675 0.086574174 -0.021717018 0.01793648 -0.07646261
0.089555986 -0.11183014 0.041076805 0.10224254 -0.037315458 -0.113632895 0.010465095 0.08076731
0.03152879 0.13032833 -0.08062388 -0.07899274 0.092280574 -0.0689181 0.18819438 -0.010087582
-0.07348739 0.06078211 0.048850253 -0.014307461 0.11470671 -0.12963341 0.12997602 -0.1634745
-0.0029014053 -0.17587978 -0.093672045 -0.03196933 0.033527914 0.034094974 -0.04297495 0.12461755
-0.043223515 0.3312566 -0.02714761 -0.022777999 -0.22119045 0.01079098 0.07706473 -0.013525071
0.11189423 -0.020193454 -0.15766841 0.027930142 0.11417046 0.16615704 0.11162104 -0.08517858
-0.07001113 0.07424519 0.15045808 0.014000397 -0.15117697 0.05311293 0.06402966 0.08079438
-0.15888296 -0.048403215 0.020010775 0.0123704225 0.0095863 -0.3044192 0.017575216 0.18827112
0.13219276 0.07159843 0.0077494676 0.01895932 -0.026575398 0.074786395 -0.08565297 0.051638454
0.14564343 -0.16362116 0.038906585 0.116539344 -0.20548412 -0.08620702 -0.016193885 0.09358262
0.1069622 -0.06625764 -0.035952374 0.13090993 0.011748314 -0.057844702 -0.093683735 0.15688258
0.15854442 -0.047151383 0.044099916 0.08319295 0.043874368 -0.008266993 -0.12995246 0.09645734
-0.08207492 0.023526361 0.10988911 -0.018512815 0.17187904 0.0022587008 -0.022769803 0.012965615
0.09619958 -0.18932565 -0.17904194 0.025513193 -0.04592315 0.13999547 0.15164065 -0.024549058
0.0590506 -0.3671117 -0.13674404 -0.12576929 -0.11477768 -0.042849004 0.10003504 0.26172623
0.117319755 -0.06381996 0.038160827 0.10629349 -0.07129701 0.06110703 -0.0521395 -0.13829851
-0.053264864 0.08336534 0.09286719 0.06670612 -0.11287132 0.035883594 -0.15071271 -0.09295131
0.1419841 0.11354952 -0.14285758 0.008126223 0.055313908 0.03649993 -0.11858063 -0.07065019
-0.034335557 -0.11175057 0.11978641 0.13816214 0.21724378 -0.122676 -0.10229335 0.07620949
0.022416111 0.09027871 -0.020878455 0.13428693 0.101457916 -0.32640794 0.0848713 0.13034771
-0.009891289 -0.17600013 -0.023151211 -0.03530894 0.0075220433 -0.022464402 -0.11983889 0.036423147
-0.0059726825 -0.13179028 0.016185086 0.13630733 -0.04532426 -0.014945821 -0.077652685 0.12142623
0.11040403 0.010437666 -0.05424987 0.10535823 -0.041767046 0.011391928 0.124404535 0.008765068

action_model._discrete_distribution.branches.1.bias f4 [3]
00000000: f46c 03bd 957c 1b3b bb4b 3d3d
-0.032086328 0.002372538 0.0462148

action_model._discrete_distribution.branches.1.weight f4 [3, 256]
00000000: 7e03 6e3d 8368 6cbd 12b0 0ebd 098e 3e3e
00000010: d55c c3bd 179b 2f3d a9b4 93bc 0130 58bd
00000020: 154c 0abe 4373 1cbe 8a93 a6bc 206e e3bc
00000030: f22c 59bd c122 f8bd bad9 cd3d acd3 fcbd
00000040: 65f5 fe3c 3fc3 243d 12d4 d0bd e5a6 9f3d
00000050: c2a9 f3bd 4c53 dcbd da5d 0c3d 5ca7 12be
00000060: 5b52 ccbd 80be d33d 6efe a4bd 08a7 103d
00000070: 029d 9abd a71c 85bd 0d47 5b3d 5bb0 f6bd
00000080: 4f38 753e 1818 d3bd e3d8 eebd b3e6 c2bd
00000090: b9e9 3fbc ce0d 19bd 8e6f d5bc ed8f 463d
000000a0: 2aa1 4ebd 61f2 043d 82cb 013c 3afa 8f3d
000000b0: 8f96 183e 9931 28bd 987b 88bd ff1f 553e
000000c0: 3b24 b1bd 4596 1b3d ad66 753d ba27 dc3c
000000d0: 2f2d 79bd c936 a4bd 5b31 603d d3b5 213d
000000e0: 4a42 77bd b045 1a3e 7168 d13c 71b1 013d
000000f0: 5e78 50be 0d11 b8bd 5be7 1fbd d000 313e
00000100: 6643 c63d fce6 f83d 943a a3bd d341 003e
00000110: 7f91 333e be78 ec3c b122 173e 12c5 97bd
00000120: d332 923d 8ac8 4fbd 5dbb 693e 54ff 63bd
00000130: d3d1 ecbc db84 c63d 1d65 cbbc a5e9 c93d
00000140: 7b92 55be b92b 0f3d 7121 bfbd 49dc 0bbd
00000150: 9a38 613e 9507 d73d e91c fb3d 0a3a c7bd
00000160: 8fbc 49bd ad93 73bd c560 5b3b 8acc 673d
00000170: 1092 45be f36e aa3d a0b5 ef3c 8d0a 28bd
00000180: 81c7 d63c 2a9c 34bd 114c 04be 102f 1b3e
00000190: 0c19 54bd baa4 263d 1a4c 58bd 1ff6 5ebd
000001a0: c645 4abc d37c e93c f478 e4bd 96db 323e
000001b0: b616 cabd 448c 5d3d 740f 08be 40af 563d
000001c0: b1a4 26be e4fb 123d 8da6 ed3c 5861 403e
000001d0: 7e87 953d 460e 4cbc f1d7 b4bd dbee dfbc
000001e0: 4c9f ebbd e4f4 9abc 8d5b 0fbc 4356 873c
000001f0: 2592 193d 80ac 56bd 9552 2c3d 3038 32be
00000200: e358 90bd 71df 64be c826 f4ba afc4 1f3d
00000210: e71a 0fbd d6d1 113c ac54 08be 1e6c e43d
00000220: e8bb 373d 072a 83bd 1c9d 97bb 0086 1abd
00000230: 88a8 8f3d dcba f23d 7c2d 613d e1ca 153d
00000240: 4ea9 f9bd 900f 6fbd c055 3cbd 7f07 c0bc
00000250: a2a8 d8bd 59f5 673d b211 903d 43d5 433d
00000260: 7d1f 993d 4e92 1cbe da93 b53d 749d 59ba
00000270: 99bb 6e3d a3d7 37bd 32ca be3c c9d1 07be
00000280: b76f d5bd 242f 64bd 1441 193c 1086 10bb
00000290: 7a0d 1dbe aa07 a53d 907d 793c e33c 6b3c
000002a0: 9adc ce3c c1bd a0bc b85d f7bb fa5c ccbd
000002b0: c82e fa3c abbb 293e 2f19 6f3d 3d45 ba3c
000002c0: eb74 11bd d0f8 f1bd 297a 5cbd 18fb c5b8
000002d0: 762f 743e 86ea 133d 36e7 43bc 5edb 043e
000002e0: 8519 0b3e 4acf 12bd eafa 37bd beae 923c
000002f0: 27ba 26be 01d7 9dbd 4169 623c df45 fabc
00000300: 3d3c c1bc e0bc ffbc 76c8 3e3c fa6a 2a3c
00000310: a751 4f3e 5668 35be b1ba 263e 3a7f 343d
00000320: f64e 90bd 5b9a 693d b7ea cfbc 8516 9f3d
00000330: cf10 88bd 9f5a bdbb 0ec9 1cbe 2326 3dbd
00000340: a4d1 84bd cb22 5c3e af8d 8fbd a021 87bc
00000350: 998e 2bbd 6b43 513c d663 55bd 60d0 833d
00000360: d824 eabd 9de6 db3c 32c9 83bd a060 cebc
00000370: 7ef7 b83d a954 5dbe 6637 b73a 0bbe 9cbd
00000380: 05c1 0e3e 9907 58bd 2c27 8a3d 7ce5 52bc
00000390: 5673 d6bc 2d09 a3bd 6d00 9dbd dd3c babc
000003a0: 59d3 81bd b8c7 bf3c 2690 36be 2af4 5f3d
000003b0: 8180 8ebd 9fe8 38bb 7d60 b23c be91 2f3d
000003c0: 6eb9 18bd b05c 9ebd 5b6c 673d 05e8 803d
000003d0: 60d6 82bd 6d5c b3bc 8b0f 093b 1617 9b3c
000003e0: fe97 973d ebcc 123d c0b4 c43d b433 b03d
000003f0: 24e2 6b3d 4000 adbd 03ab 833d 73d0 80bc
0.0581088 -0.057716858 -0.034835882 0.1860887 -0.09539191 0.042872515 -0.018030481 -0.052780155
-0.13505585 -0.15278344 -0.020334024 -0.027762473 -0.05302138 -0.12116004 0.10051294 -0.12345061
0.031122873 0.040225264 -0.10196699 0.077955045 -0.11897613 -0.10758075 0.03426919 -0.14321655
-0.099766456 0.10339069 -0.08056341 0.035315543 -0.07549478 -0.064996056 0.053534556 -0.12045356
0.23947261 -0.1030733 -0.116624616 -0.09516659 -0.011713439 -0.03736668 -0.02605417 0.048477102
-0.050446667 0.032457713 0.007922055 0.07030149 0.14901184 -0.041062925 -0.06664199 0.20812987
-0.086494885 0.037985105 0.059912372 0.026874412 -0.060834106 -0.08018262 0.05473457 0.03948004
-0.060365953 0.15065646 0.025562497 0.031663362 -0.20358416 -0.08987627 -0.039038997 0.17285466
0.09680824 0.12153432 -0.07970157 0.1252511 0.17535971 0.028866168 0.14759327 -0.07410635
0.071386 -0.05072836 0.2282538 -0.05566342 -0.028908646 0.09693309 -0.024828488 0.09859017
-0.20856659 0.034953807 -0.0933255 -0.034145627 0.21994248 0.10499493 0.122613735 -0.09727867
-0.04925209 -0.059467006 0.0033474427 0.056591548 -0.19294 0.08321943 0.02926141 -0.041025687
0.026218178 -0.044094242 -0.12919642 0.15154672 -0.0517817 0.04068444 -0.05280695 -0.054433938
-0.012345737 0.028501904 -0.111558825 0.17466578 -0.09867613 0.054088846 -0.13287145 0.052413225
-0.16273762 0.035884753 0.029010082 0.18787134 0.07301234 -0.012454575 -0.0883025 -0.027335575
-0.11504993 -0.018915601 -0.008749855 0.016520625 0.03749289 -0.052410603 0.042070944 -0.17404246
-0.07048204 -0.22350861 -0.001862728 0.03900593 -0.034937765 0.008900126 -0.1331355 0.11153434
0.044856936 -0.064045005 -0.004626883 -0.03772545 0.07014567 0.11852047 0.054975018 0.036570434
-0.121904954 -0.05836445 -0.045980215 -0.023441074 -0.10579039 0.056630466 0.07034625 0.047810804
0.07476709 -0.15290186 0.08866091 -0.00083013554 0.058284376 -0.04488338 0.023289774 -0.1326362
-0.104216985 -0.05570902 0.009353895 -0.0022052564 -0.15337172 0.080581024 0.01522769 0.014357778
0.025251675 -0.019621732 -0.007549014 -0.09978671 0.030539885 0.16575496 0.058373626 0.022738094
-0.035511892 -0.11815035 -0.05382744 -9.440462e-05 0.2384623 0.03611233 -0.01195698 0.12974307
0.13583954 -0.035842218 -0.044917025 0.01790559 -0.16281949 -0.07707024 0.01381904 -0.030550895
-0.023588294 -0.031217992 0.011644473 0.010401482 0.20245992 -0.17715582 0.16282155 0.044066645
-0.070463106 0.05703197 -0.025380475 0.07767967 -0.06643831 -0.005778625 -0.15311071 -0.046178948
-0.06485298 0.21497647 -0.07009446 -0.016495526 -0.04188404 0.012772421 -0.052097164 0.06436229
-0.11432809 0.026843363 -0.06434859 -0.025192559 0.090315804 -0.21614327 0.0013978302 -0.07653435
0.13940819 -0.05274162 0.06745753 -0.012872096 -0.026178043 -0.079607345 -0.07666097 -0.0227341
-0.063391395 0.023410663 -0.17828426 0.054676212 -0.06958104 -0.0028214825 0.021774525 0.0428636
-0.037286215 -0.077325225 0.05649982 0.06294254 -0.06388545 -0.021894658 0.0020913805 0.018931907
0.07402037 0.035839956 0.09604788 0.086036116 0.05758871 -0.08447313 0.06429102 -0.015724396

action_model._discrete_distribution.branches.2.bias f4 [3]
00000000: 66a2 b33b 199e 06bc 0b17 b43b
0.005482006 -0.008216404 0.005495911

action_model._discrete_distribution.branches.2.weight f4 [3, 256]
00000000: 5a79 87bd 9631 a5bc 1dbc 713e f5f6 a0bd
00000010: 1694 a73d 5e6b 653e 1220 63bd b1a7 043d
00000020: 4f07 c0bd bfd2 703c 34f6 273e 8d02 9a3e
00000030: 096b 78bd 8eda 7d3e 620f 543e 5e92 5d3d
00000040: fccf 02be 4df5 c4bc 78ce 20bd 0799 a93c
00000050: 481c 393d cdf0 1b3d 5d21 543d 9f9c fe3d
00000060: 9a09 2f3d f814 1c3e 2974 943d b5ec aa3c
00000070: 3291 87bd 869a 39bd dc65 ce3c 91ce d13d
00000080: 5430 5abd ed9d 35bd a113 2c3e c50f 113e
00000090: cc6d dd3d f69f 0dbd 3a84 823e 5f68 3e3d
000000a0: 88d0 b9bc 4cfb 633d dec5 973e 23ae fb3d
000000b0: 15c9 ca3d d4bb 3a3e 53d1 033e 73a1 f03d
000000c0: 92e0 b63d cf08 be3d c298 54bd 5793 733d
000000d0: 4895 223e b683 1b3e c4b0 a8bd 93dd 163d
000000e0: 2b67 e8bc 047a fbbc 9d8e 1a3b 481a 9e3c
000000f0: 8349 9c3c 634a 833b 0fc9 133e 0955 e83d
00000100: 40c3 8b3d 5e0d c73c 10a8 aa3d a2bd f73d
00000110: bbbd 94bd 5312 843d cb84 6e3d 630d b83e
00000120: 127a 503d a3a2 513e 2dc3 e4bc e65f d63d
00000130: 30f6 4f3d 82b6 3f3e f4c0 373e 93ca b2bd
00000140: ab3f 813d f5a0 2c3e 915d 1a3e f245 4a3e
00000150: d66d 423e fbc4 3abd 9c9c 9ebb 737d cb3d
00000160: 9cdb a03d 0ee4 58bd c091 783e d222 4c3e
00000170: e272 ddbb c972 1cbb 1544 87bc 8787 05bd
00000180: 9624 e03d cd56 02bd f7be 453e 7814 483d
00000190: e282 e6bc c715 5d3b b64f dfbd ad3c 623b
000001a0: c859 a7bd 7e38 3bbe 4e51 6f3d 7327 493e
000001b0: 3018 aabd f70b c93d 3dff 0d3e 2cfa 9c3c
000001c0: 37fe 52bc 170c a43d a77e c33e dc6c de3d
000001d0: 8183 0c3d a77b 13be 72ff 283c 01c1 bc3e
000001e0: 6d0a 18be 7d13 e13d 4969 6a3d 869d f83c
000001f0: 306e 0f3e 693d e63d 8ba1 973e ec4d ce3d
00000200: b359 dc3d e482 abba 9254 713e b1b6 9a3d
00000210: 00c2 c23d 4dc8 20bc c8e1 cd3d 7f98 27bd
00000220: 0bd9 a9bc 8d1b 0c3e 589c a43d 786d dd3d
00000230: d1e6 423d 4145 343d 4e96 0cbe a5b1 293d
00000240: 4d37 9d3c 053a 8f3c 884f 443e 7bd8 383d
00000250: 657b 8dbc c020 c63c 39cd dbbc 58bd aabc
00000260: ca38 cb3d 9378 cfbd d239 703d c09a cebd
00000270: 1f53 6a3d 8871 a4bd 5461 063c ef0a 053c
00000280: 00c1 a7bc 0dd5 a33e 0958 8e3d cfc0 803c
00000290: 9bdd d0bc 9952 2abe 46d0 743c 8683 333d
000002a0: 57fc a83d b031 1d3e 5ff7 323e a420 c4bd
000002b0: a47d d4bd 9bb5 d03d f9af f7bd 7313 a4bc
000002c0: 3b0d 13be 3fb7 143e 6ab3 f53d 9c45 efbc
000002d0: 1ca8 133d e958 0c3e c071 a43c 21ce 2e3d
000002e0: 213b 2f3d b805 2dbe d383 6b3d b381 80bd
000002f0: 603b 89bc e80d f23c 72c2 e93c ca96 1fbe
00000300: fabd 423e 8204 c53d 66b0 8e3d e67d b63d
00000310: ff08 2b3e eaa5 7f3d a096 1cbd 05a8 193e
00000320: 96b5 243d 63b4 903e a841 183e 186e 703d
00000330: 9330 9c3d c93b dabd 38a5 873d 90f6 9bbd
00000340: eb41 96bd eeb0 883d d67d ac3c f392 053e
00000350: 7d64 5abd ddf7 1e3e 1dab 233e eeb1 e23b
00000360: 1196 c63d c64a d0bd 7b08 463e c183 2a3e
00000370: 631c 54bd 82c5 603c 2eb6 78bd c76a 823e
00000380: 601e 753d 0d16 2f3d f049 b0bd 023a 213e
00000390: bda7 5d3e 2088 84bd dba9 adbd 789d 44bc
000003a0: d66d 083e 11d8 7dbc 8cc9 833d 1df8 093c
000003b0: 0d22 9b3d b5e6 933d c3de 093e a58b 863e
000003c0: 63c3 673d 472d 63bb b48d 893c 50d9 e33d
000003d0: f8ff edbd 0236 0abd 80bf 37bd f68d f0bd
000003e0: f7fa 903d 553d 5e3c 9017 b4bb e43d c43b
000003f0: 67f1 b63d 620e ca3d abd9 463e 3fe5 213e
-0.06614943 -0.020165246 0.23606916 -0.07859603 0.08182542 0.22404239 -0.055450507 0.032386485
-0.09376394 0.014698683 0.16402513 0.3008007 -0.06064895 0.24790403 0.20708993 0.054094665
-0.12774652 -0.02404275 -0.039259404 0.020702852 0.045192987 0.038071442 0.05178963 0.12432217
0.042733766 0.15242374 0.07248718 0.020864824 -0.06619491 -0.04531338 0.025195055 0.102444775
-0.053268746 -0.044340063 0.16804363 0.14166172 0.10811958 -0.03457638 0.25491506 0.046486255
-0.022682443 0.055659577 0.29643148 0.12289073 0.099016346 0.18235713 0.1287282 0.11749544
0.08929552 0.09279024 -0.051903494 0.059466686 0.15877259 0.15186962 -0.0823684 0.036832403
-0.028369507 -0.03069783 0.002358354 0.019299641 0.019078022 0.0040066703 0.14432167 0.11344344
0.0682435 0.024298366 0.08332837 0.120967165 -0.07262751 0.064488076 0.05823211 0.35947713
0.050897665 0.20472197 -0.027925098 0.1046751 0.050771892 0.18721965 0.179447 -0.08730044
0.06310972 0.16858275 0.15074755 0.19753245 0.18987212 -0.04559801 -0.0048404466 0.09936037
0.07854387 -0.052951865 0.24274349 0.19935158 -0.00675808 -0.0023872128 -0.016511956 -0.032599952
0.10944478 -0.03182106 0.19311129 0.048847646 -0.028138582 0.0033734904 -0.109038755 0.003452103
-0.08171421 -0.18283269 0.058427148 0.19643955 -0.08305395 0.09816735 0.13866897 0.01916226
-0.012877992 0.080101185 0.38182566 0.10860607 0.0343051 -0.14402638 0.010314809 0.36866
-0.14847727 0.10990045 0.057229314 0.03034855 0.14006877 0.11242182 0.29615435 0.10073456
0.10759296 -0.0013085273 0.23567417 0.07554377 0.09509659 -0.00981338 0.1005283 -0.040916916
-0.020733377 0.13682385 0.08037633 0.10811895 0.047583405 0.04401136 -0.13729212 0.04142918
0.019191409 0.01748372 0.19170964 0.045128327 -0.017270753 0.024185538 -0.026831256 -0.02084224
0.09922941 -0.101304196 0.05864889 -0.1008811 0.057208177 -0.08029467 0.008201916 0.008120283
-0.020477772 0.31998482 0.06950385 0.015716938 -0.025496295 -0.16633071 0.014942234 0.043826602
0.08251255 0.15350986 0.17477177 -0.09576538 -0.103755265 0.101908885 -0.12094111 -0.020028805
-0.14360516 0.14523028 0.11997111 -0.029207997 0.036048993 0.13705792 0.020073771 0.04267705
0.042781 -0.16896713 0.057498764 -0.06274738 -0.016751945 0.029547647 0.028535102 -0.15584865
0.19017783 0.096200004 0.06967239 0.08910732 0.1670265 0.062414087 -0.038229585 0.150055
0.040212236 0.28262624 0.14868796 0.058698744 0.07626452 -0.10655934 0.0662331 -0.076153874
-0.073367916 0.06674372 0.021056097 0.13044338 -0.05331849 0.1552424 0.15983243 0.0069181835
0.09696592 -0.10170512 0.19339173 0.16651823 -0.051784884 0.0137189645 -0.060720615 0.2547209
0.05984342 0.04274564 -0.086078525 0.15744784 0.21646018 -0.06471276 -0.08479663 -0.012000434
0.13323149 -0.015493409 0.064349264 0.008420971 0.07574854 0.07221738 0.13463883 0.26278415
0.05658282 -0.0034664439 0.016791202 0.111254334 -0.11621088 -0.033742912 -0.044860363 -0.11745827
0.07079118 0.013564427 -0.005495973 0.0059888232 0.089327626 0.098660246 0.19418971 0.15810107

action_model._discrete_distribution.branches.3.bias f4 [2]
00000000: c654 593c d454 59bc
0.0132648405 -0.0132648535

action_model._discrete_distribution.branches.3.weight f4 [2, 256]
00000000: 535d 1abe f395 3b3e 51c3 b2bc 6936 a13d
00000010: 6ef6 b83c c8bd 2fbd 4b09 353e ea70 4f3d
00000020: 0c1a febd 7ccb eebd 669f 993d edc3 3a3d
00000030: deec d6bb a518 ff3d 5af6 0b3d 0df3 103d
00000040: bc3f 0cbe 80dc 2b3d afc7 39bd 92b6 e0bc
00000050: add4 763c e672 993c f3a1 a2bc f813 f83d
00000060: a7f9 99bd 7f7b babd 967d 50bd d9c2 453e
00000070: d217 e53b 5a79 f33d 9bfa 6fb9 a60c b93d
00000080: 0e32 913d 63f1 a43d 3d1e 443e b10c a33d
00000090: e925 923d 69ab f43d e607 7d3d a310 c4bd
000000a0: ff69 5c3d 3470 6d3e deb3 493e 2620 6ebd
000000b0: ac75 8bbd 8ef0 213e 39b2 503e 6ee2 e33d
000000c0: 2a41 b13d 8d09 e83b 1388 a33d 3f24 373e
000000d0: 58c0 8f3d 534a 95bd 1497 ea3d 8ce0 893d
000000e0: 85ec f1bc 7e7c bd3d cf6c 39bd 6695 dc3d
000000f0: 4d27 2f3d 1d38 1d3e 93a0 663e 1576 db3d
00000100: 0428 873e 98a9 60bd 0cc1 103e aae0 28be
00000110: d91b 8bbc 7690 a2bb 32f8 d43d 2ff6 4d3c
00000120: 1bbc a83d ce91 85bc 15a4 bebb 545f 403b
00000130: 8032 503e 1530 7a3e a019 0d3d f203 04be
00000140: eeb0 d03c 6618 88bd 250b 6dbd 50c8 1a3d
00000150: 130c 983e 9843 de3d 5aa4 2f3e 347f b23d
00000160: 9dae 2cbd 54c4 543e cc7f e3bb 9493 c63d
00000170: 9e45 9cbd 54a9 c9ba 5a3c b3bc e30f e93c
00000180: 949b 1e3c 0060 d93d b7a7 f93d a57b 053e
00000190: a16a 903d 76cb 273e c365 88bd 86f6 9bbc
000001a0: 0347 3cbd e8c7 bfbd 7a36 a7bc 1d23 c33c
000001b0: 7e1b f03b 3074 963e 669b 35be 0a9d 0ebd
000001c0: 1543 df3d 68da 173a b20f 513e c26d c83d
000001d0: bb31 16be eecf 04bd e055 0f3c 326c 213e
000001e0: 42ae 813e 4557 cdbd a246 4ebd 481b 5dbe
000001f0: 5460 e8bc b06a cd3d f393 b53d a3ce 3abd
00000200: f9cb 953d fac9 2f3e e36e 3d3e 5841 74bd
00000210: 0ade aabc cfc7 3c3e d6ff 503d 8044 97bd
00000220: c9a5 47bd 1436 76bc 1243 e63c 3c6e 57bd
00000230: f3cc 3b3c 933e 31be a3b9 9f3d 6074 4c3e
00000240: df88 41bd edf6 693e 2dbd cb3d 8165 3e3d
00000250: c2d3 923d 871d cd3d 264e 32be 38a6 1c3e
00000260: ac43 ba3d 5442 a43d 41a5 ea3c 6568 f9bd
00000270: 029f 93bd 2781 363e 90b8 97bc 5fb5 033e
00000280: 9d97 0a3e ef36 823d 3110 c43c 38f1 1e3c
00000290: 2f3d e63c 3850 a9bd e964 ca3d a98d b93c
000002a0: 1d89 043e 76ae ffbd d344 883d ec45 4e3e
000002b0: d092 e9bd 86f3 703d 5c72 37be 5834 b03d
000002c0: 4e18 ad3d 8a4e 1b3d 37bf f9bb 4c8b d4bd
000002d0: 026c 15bd 92fb 91bd 4331 88bd c869 30be
000002e0: 382f d43d 30ec f93b a66d 90bd 5ae7 1a3d
000002f0: 0c20 6f3e 05c6 8fbd fb63 a83d e0c8 ea3d
00000300: 50a7 633c 6ec3 1d3d dda3 383e e071 893d
00000310: afd1 8f3e 8903 7fbc 79fd 06be 68d4 823e
00000320: eb21 673d c533 b33d 7d92 86bd d2dd 293e
00000330: 7e46 d93d caaf 1f3c a1c3 903d da4d 013e
00000340: 1e43 88bd 7f7e 063c dc1f 293d ddec 623e
00000350: 887b a3bd 942f 8ebd 8153 2c3d 183b d33d
00000360: 46ec 0ebd 4298 003e 34bc 00bd 1820 ec3d
00000370: 8b75 b43d 36a4 793e 4bd0 21bd cf5d b4bc
00000380: 779b e53d e066 1abd 737b 0b3e fc18 643d
00000390: bd51 07bd e34c 803d 0737 0d3e 984f 313e
000003a0: 062d d3bd 1bb9 cebd 76be 01bc 84c5 3cbe
000003b0: 3d47 bb3d 08e4 db3d cc08 2f3e 2608 b4bd
000003c0: 9837 65be 2682 a13e 0664 9bbc 20b5 453c
000003d0: ccef 1cbe 1b24 d13b 5a7d c1bd 309b 89bd
000003e0: b2bb 9bbd 2c42 d03d 2657 1abe f8da 9e3d
000003f0: 5ddd 273d bee5 473e 4463 bfbd 15cb f5bd
-0.15074663 0.1831892 -0.02182165 0.07871706 0.022578444 -0.0429056 0.17679326 0.050644793
-0.12407312 -0.11659905 0.07501106 0.045597006 -0.0065589985 0.124558724 0.034170486 0.03538804
-0.13696188 0.041958332 -0.04535645 -0.027430806 0.015065354 0.018731546 -0.019852614 0.12113184
-0.075183205 -0.09105586 -0.050901018 0.1931261 0.006991365 0.1188838 -0.00022886174 0.090356156
0.07089625 0.08053853 0.1915216 0.07961405 0.07136137 0.119467564 0.06177511 -0.09573486
0.053812023 0.23187333 0.1969752 -0.058136128 -0.068095535 0.1581442 0.20380487 0.111271724
0.08655007 0.0070812167 0.079849385 0.1788492 0.070191085 -0.07289567 0.11454597 0.06732282
-0.029531727 0.092522606 -0.045269784 0.10770683 0.04276209 0.15353437 0.22522192 0.10715882
0.26397717 -0.054849237 0.14136142 -0.16491953 -0.016981052 -0.0049610687 0.10398902 0.012570902
0.08239003 -0.016304877 -0.0058179 0.0029353695 0.20331764 0.24432404 0.034448266 -0.1289213
0.025474992 -0.06645279 -0.057871956 0.03778869 0.29696712 0.10852736 0.17152539 0.08715668
-0.04215871 0.20778018 -0.006942725 0.09696117 -0.07630466 -0.0015385547 -0.021879364 0.028449958
0.009680647 0.10614014 0.12190192 0.13035448 0.07051588 0.16386208 -0.066600345 -0.01903845
-0.04596616 -0.09364301 -0.020411719 0.023820454 0.007327496 0.2938552 -0.17735061 -0.034817733
0.10901467 0.0005792738 0.20416144 0.0978656 -0.14667408 -0.03242486 0.008748502 0.1576393
0.2532826 -0.10026411 -0.05036033 -0.21592438 -0.028366245 0.10030115 0.0886611 -0.04560722
0.07314295 0.17166892 0.18499331 -0.05963263 -0.02085783 0.18435596 0.051025234 -0.07386112
-0.04874209 -0.015027542 0.028108153 -0.052595362 0.011462438 -0.17309026 0.07799079 0.19966269
-0.04724967 0.22848101 0.09948192 0.04648352 0.07169296 0.100153975 -0.17412624 0.15297782
0.09094939 0.080204636 0.028643252 -0.12178115 -0.07208063 0.17822705 -0.018520623 0.12862156
0.13534398 0.06358134 0.023933502 0.009701066 0.028105346 -0.08267254 0.09882528 0.022650557
0.1294293 -0.12484448 0.06653752 0.2014386 -0.114049554 0.058825992 -0.17914718 0.08603734
0.084519014 0.037916698 -0.0076216715 -0.10378131 -0.036479957 -0.07128061 -0.06650021 -0.17227852
0.10360569 0.0076270327 -0.07052164 0.03781829 0.23352069 -0.07020191 0.08222195 0.11464095
0.013894871 0.038516454 0.18031259 0.06711173 0.28089663 -0.015564808 -0.1318263 0.25552678
0.05642883 0.08750109 -0.06570909 0.16588524 0.106091484 0.009746501 0.07068563 0.12627354
-0.066534266 0.00820887 0.04129015 0.22160669 -0.07982546 -0.069426686 0.042071823 0.103140056
-0.034893297 0.12558082 -0.031429484 0.11529559 0.08811482 0.24379048 -0.039505284 -0.022017388
0.11211293 -0.037695765 0.13621311 0.05568789 -0.033036936 0.06264665 0.13790523 0.17315519
-0.10311322 -0.100939 -0.007918945 -0.18434721 0.09144447 0.10736853 0.170932 -0.08790617
-0.22384489 0.31544608 -0.018968593 0.012067109 -0.1532585 0.006382478 -0.09447737 -0.06719053
-0.076041594 0.10168871 -0.15072307 0.07756609 0.040982593 0.19521233 -0.09345105 -0.120016254

discrete_action_output_shape f4 [1, 4]
00000000: 0000 4040 0000 4040 0000 4040 0000 0040
3.0 3.0 3.0 2.0

network_body._body_endoder.seq_layers.0.bias f4 [256]
00000000: 7c6e d5bd 2714 51bd 63d8 08bd 363c 8cbd
00000010: 01d8 98bd 93e1 2f3c 053e 81bd b63b 0bbd
00000020: 5bb9 97bd d8f7 bcbd b053 6dbd 5e17 0fbd
00000030: 96fb 02bd cf32 e0bd db7b 52bc 036f 89bd
00000040: f3a0 203e bf7b 30be c784 dc3a 5af9 853d
00000050: cc73 debd 015c 08be 7e81 17be cc24 0ebe
00000060: 9f86 b4bd d5aa 9c3d 28ed 35be a866 35be
00000070: be46 133e cfb4 aebd 2115 05bc f617 34bd
00000080: f558 543d 613f e7bd d929 a339 4812 253b
00000090: 4f47 633a 166b afbd 1817 b0bd 08fe 8abb
000000a0: 0d92 393a fae2 83bd 1633 18bd 057a e3bd
000000b0: 81c5 01be 8fe0 1cbe 9cba 4ebd 0a77 81bc
000000c0: 00df cdbc 7c24 8bbb 1f5a 203e 21df f6bd
000000d0: a060 263d c121 dabd 9fc3 41be ea7e b0bd
000000e0: 64a7 873d 361d c93d da63 5cbc faaf f7bd
000000f0: 7ac8 2cbe 3009 b9bd bc81 d8bd d605 87bc
00000100: 1bdf 683c 7e02 ddbd 2ff1 553d 9d05 0e3d
00000110: 79e3 fd3d 5788 61be 818e aebc fb4d 0cbe
00000120: 155e 063c c5fa 01bd a256 9d3c 4257 043d
00000130: 4ea7 d1bc ee33 a63d 0cd7 61be 8115 59bd
00000140: b692 b6bd 7ad9 b6bd d038 933d ceee b3bd
00000150: 5d67 a9bd 3e07 03bd d9cc 9cbc ba53 703b
00000160: eacb e3bb 9709 56bd 3e7d ebbd 833e 44be
00000170: 936d a6bd e6a7 453d e76e 93bc 4263 b9bc
00000180: 0964 533d 76fc 0abe 3c8c ccbc 33d5 993d
00000190: 5c14 bcbd 373e 9dbd c823 12bd cfa5 be39
000001a0: fbbe 38be 100c 3abd 0048 49bd ae86 1ebe
000001b0: 73b9 ddbd 264b 20be 0f26 87bd a39c 543c
000001c0: 2338 84bd 69a1 babd b320 20bd fc18 893c
000001d0: 03d7 a23b 8174 0bbe d379 dd3d 11a3 3bbd
000001e0: 9021 77bd 65b5 17bd 7870 39be aee3 bfbd
000001f0: a228 853c 2c59 27be a507 bb3d 3087 083d
00000200: e503 a43d 21ba 6fbb 4244 34be b1bb c5bd
00000210: 588e c5bd 38fa 0b3c a591 28be 1a5f 47bd
00000220: 1b9e 6bbd 4d91 2f3d 18b5 f2bd 15cc 493d
00000230: c935 43bc e0ce fdbd 2565 033d 1485 5dbe
00000240: 5c45 aebd 5065 41be 78b1 4fbd 3a3b c3bc
00000250: 60e8 52bc a70a 2ebc 1cd7 06bd 6ba2 303c
00000260: d9f1 c6bd d271 c5bd 9dc7 adbd 1806 c0bd
00000270: cc32 edbd 0b03 e0bc dd99 99bd 720f edbd
00000280: 4144 0ebe db44 80bc 4dd4 fcbd b676 a5bd
00000290: c628 b3bd aadd f6bd 0e0a 8dbd 0ff2 37be
000002a0: 6bff 18bd 0085 11bc c736 ae3d fa3c 4fbe
000002b0: c0ef 02be a6ac 97bd dfc4 7dbd 8e75 10be
000002c0: ebab 803d ebcd 1bbd df56 44bd 9f44 31bd
000002d0: b15b 8bbc d00f 0d3d 6cc8 c4bd 060a 863c
000002e0: 471e bfbd 9f66 81bd 65f1 fdbc f1b7 373c
000002f0: 336e 7abe 83b2 123d 559e 4cbd 7dc9 9f3b
00000300: 294d 2b3d bdc7 5ebe 62e7 90bd 8d37 05be
00000310: 2a12 9a3d e7d5 0bbe a86b 2bbd 3c7c c6bd
00000320: 0771 79bd fc08 b1bc 1089 8abd 78c1 2cbe
00000330: d6cf 80bd 0e1d 90bd 1a58 4abd 7061 e4ba
00000340: e151 d7bd aeeb 36bd 9faf 18be e137 a1bc
00000350: d804 17be d847 11be 873e 9dbd b4b6 12bc
00000360: b6c0 51bd 68ca 26be 81f2 cbbd b74a f4bd
00000370: b8d3 a9bd 7853 d13d 3722 94be 26a8 20be
00000380: 6add aebd b563 93bd c867 f4bb 141d c93d
00000390: 2313 35be d996 023c 0b0b 07be 0882 733d
000003a0: 54fa d43d 738b 383d 8751 91ba 7aa6 9dbd
000003b0: a7e1 a0bd 8bb1 e1bd b277 15be e529 1ebe
000003c0: cc96 9a37 f62f 07be 2d6c dbbc 91f7 1dbd
000003d0: f5b4 babd 8b0e fabc b782 3dbd ea6c 14bd
000003e0: 80cb c0bd 4ee3 fbbd 219b 57bd 0db0 103d
000003f0: 044d 3c3e 6038 8ebd 5316 053d a882 04bd
-0.10421464 -0.05104461 -0.033409487 -0.06847422 -0.074630745 0.010734933 -0.063106574 -0.03399249
-0.074084006 -0.0922696 -0.05794114 -0.034934394 -0.031978212 -0.10947191 -0.012846912 -0.06710627
0.15686397 -0.17234705 0.0016824239 0.06541701 -0.1086193 -0.13316347 -0.14795491 -0.13881224
-0.088147394 0.07649771 -0.17766249 -0.17714942 0.14382455 -0.0853058 -0.008122713 -0.043968163
0.05184265 -0.112913854 0.00031120962 0.0025187898 0.00086699886 -0.08565347 -0.08598155 -0.0042417087
0.0007078953 -0.06439777 -0.037158094 -0.11107258 -0.12672998 -0.15320037 -0.050470933 -0.015803833
-0.025130749 -0.0042462926 0.15659378 -0.12054277 0.040619493 -0.10650969 -0.1892228 -0.08617957
0.06623724 0.09820025 -0.013451541 -0.12094112 -0.1687335 -0.090349555 -0.1057162 -0.016482275
0.014213349 -0.10791491 0.052231964 0.034673322 0.123969026 -0.22024666 -0.021308186 -0.13701622
0.008201142 -0.031733293 0.019206349 0.032309778 -0.025592472 0.081153736 -0.2205469 -0.052999023
-0.08914702 -0.08928199 0.071885705 -0.08785783 -0.08271668 -0.03198933 -0.019140648 0.0036670999
-0.0069517987 -0.05225524 -0.114984974 -0.19164471 -0.081263684 0.048255824 -0.017997218 -0.022630338
0.051609073 -0.13572869 -0.024969213 0.07511368 -0.09183571 -0.07677882 -0.035678655 0.0003636316
-0.18041603 -0.04542166 -0.04914093 -0.15481064 -0.10826387 -0.15653667 -0.06599056 0.012976798
-0.0645602 -0.09112818 -0.039093684 0.016735546 0.004969479 -0.13618661 0.10814252 -0.04580981
-0.060334742 -0.037038226 -0.1810931 -0.09369598 0.016254727 -0.1634261 0.091323175 0.03333205
0.08008555 -0.0036579447 -0.17604163 -0.0965494 -0.096462905 0.0085435435 -0.16461809 -0.04867468
-0.057523828 0.04286318 -0.11850947 0.049266893 -0.011914679 -0.12392974 0.03207888 -0.21632797
-0.08509323 -0.18886304 -0.050706357 -0.023831952 -0.012872785 -0.010622657 -0.032919988 0.010780911
-0.097140975 -0.0964085 -0.08485339 -0.09376162 -0.11581954 -0.027345201 -0.0750005 -0.115752116
-0.13893224 -0.015657833 -0.12345181 -0.08079283 -0.08748011 -0.12053998 -0.068866834 -0.17963432
-0.03735296 -0.008881807 0.08506542 -0.20238104 -0.1278677 -0.07405977 -0.06195533 -0.14107344
0.06282791 -0.038038176 -0.04793441 -0.043278333 -0.017011495 0.034438908 -0.0960854 0.016362201
-0.09331947 -0.063184015 -0.030998895 0.011213289 -0.244561 0.035814773 -0.049955685 0.004876314
0.041821633 -0.21755882 -0.07075383 -0.13009472 0.07522996 -0.13655816 -0.041850716 -0.096916646
-0.060898807 -0.02161073 -0.06764424 -0.16870677 -0.062896416 -0.07036792 -0.049400426 -0.0017424058
-0.10513664 -0.044658355 -0.14910744 -0.019679965 -0.14747941 -0.14187562 -0.07677942 -0.008954693
-0.051209174 -0.1628815 -0.09958363 -0.11928313 -0.08292335 0.102209985 -0.28932354 -0.15689144
-0.08538325 -0.07196752 -0.0074586608 0.09819999 -0.17683081 0.007970535 -0.13187806 0.05945018
0.10399309 0.045054864 -0.0011086919 -0.076977685 -0.0785554 -0.11020192 -0.14596441 -0.15445669
1.842845e-05 -0.1320189 -0.02678498 -0.038566176 -0.09116546 -0.030524513 -0.046267238 -0.03623668
-0.094138145 -0.12299214 -0.052638177 0.035324145 0.18388754 -0.069443464 0.032491993 -0.032351166

network_body._body_endoder.seq_layers.0.weight f4 [256, 12]
00000000: 4a7f e8bd 476b cb3e 05ae 23bc 2f71 ba3d
00000010: ff8c bdbd ede6 183e c4c6 363e 32be 873e
00000020: 6b22 d33c b0c3 1fbe 95f5 203f 199d 203f
00000030: c61d 7ebe 7408 f63e 79ef f03e 6264 3cbd
00000040: d9ee 9cbd ec8b 923e 51cd 31bf 2be8 d93e
00000050: b1bb 2c3d e68b b13d 71aa 84be 7609 983e
00000060: c2fc bcbe a941 74bd 2c7b 833e 3aa7 95bc
00000070: 7405 fe3c cab9 6cbe cd82 a63d 1f40 943e
00000080: 6e7e 25bf 03e2 a13d 3b11 3c3f a704 a9be
00000090: 2400 403e 4e47 fa3e c7ac 1fbe f6c1 c63c
000000a0: 46b0 853e c84a a0be 1922 bb3e 418d 09be
000000b0: 1428 46be 2927 30bd e6e5 debe ea4a cbbe
000000c0: d7c0 c8be d1cd 3c3c c563 ecbd 59fc dfbe
000000d0: d0ff cfbb 0656 85be 4bc0 093f ff31 053f
000000e0: 415c dfbd 9867 f8be aa63 cebd d91f c0be
000000f0: 318c efbe 4f85 683e 3fbe 7fbe 5d2f 08bf
00000100: 1fdd 9d3d 566b 2c3e 0215 07be cc7b 493d
00000110: da20 a6be d8d9 9e3e 3b94 e9be 9ab0 a7bc
00000120: 0517 863e 01cf 5fbe 5bd7 d03e f581 623e
00000130: a368 18bf 6a07 b93d 57a1 6abe 7830 8f3a
00000140: e102 3f3f d7c0 743e 9be0 303e ab1b debe
00000150: cc70 dfbd 0e10 a53d a3df 423f f8e1 dc3e
00000160: 4fb1 9d3d b077 4d3f 40c1 12be 89a7 6d3e
00000170: eee5 913e ef81 d93c 8728 e63d 0fed a53e
00000180: 8ab1 d63d 06da 163e 8afa 203f 1e75 863e
00000190: 2597 853c d068 a03c 15f4 e7be 829e e23e
000001a0: 27b3 14bf f7e2 823e 7cf6 f6bd 9d5f 993d
000001b0: f3b6 e63b 9cdd 88be 6d2b 2cbe 2c86 32bf
000001c0: 5243 f7be 3c35 e4be d90d fbbd b65b c23d
000001d0: 3dd4 86be 6cd1 c0be cfac 3ebe 56c9 d6bd
000001e0: 1783 68be 7a55 1cbe 7c81 f43e 09d7 593f
000001f0: 9653 2f3e fa08 923e 9bbb 8ebe f9be d3bd
00000200: 1af7 01bf d58d 2a3e 4094 1a3d 862e e4be
00000210: 053a d3be cf1d 0fbe 086c 203f 9d0e 653e
00000220: 8d5d 913d 268d 873c c93a 7f3e c6d3 403e
00000230: b17a b33e 7ff9 153d 4933 af3c 13ac f1be
00000240: b6d6 c2be 0feb e43d 3410 983e 776e 0ebf
00000250: f1a4 0b3d a890 bbbd abbe 9f3d 5ce3 92bd
00000260: 1d91 afbe 86d4 473e 582f 4fbf fd63 2ebd
00000270: 2d58 a1bd ca92 ebbe 054c 733d 47db acbe
00000280: 6743 bdbd 4f39 fc3e b73a 85be 5dfc 6bbe
00000290: 956b 18bf 5948 c93e 7686 353e 67c8 133f
000002a0: d22b d0be 0682 223f 279b 453e d405 e93e
000002b0: dfff 8d3e 515b f5be c52f 35bf e317 de3e
000002c0: ee63 a8be 8297 cebe f309 bfbe a960 1bbe
000002d0: f909 0fbe dc6b c23e e98c 663f 9213 613e
000002e0: 316a 1dbe cbaf 963d fa8b 6b3c c307 803f
000002f0: 5463 8fbd b81a 933c 88fc 21bf 4aad b83e
00000300: 26bf 1b3f 8cdd 933e 46e7 41bf abc9 e13e
00000310: 11f6 173f c8ea 44bf bb98 19be 71e3 27be
00000320: c9cb 0e3f 2a18 c13d 0bac f7bd 0319 83be
00000330: 1cc0 50bf d906 9dbd fb5b bdbd 1921 353e
00000340: 9176 c43d 94b3 cb3e d1d7 47bf 6799 11be
00000350: 0811 013f 293e e2be efcc fa3d 971c ea3e
00000360: 52d3 4ebe d40c 0a3f 5138 80be 7d26 e63e
00000370: ad64 56be 0b4e 1ebe b156 f03e 5844 d0bc
00000380: c4aa 14bf 5bf0 9e3d 766e 183f be5d 803f
00000390: 0191 53be aa69 3bbd efbd b2be 4aa3 8f3d
000003a0: af6b 853f e259 e5be c038 a23b 458f a73e
000003b0: db11 83bf 6980 b4be c943 1fbf 3e36 5e3e
000003c0: d226 9abe 5b0a 3ebd 2d1a ce3e e864 ddbe
000003d0: 7a84 1f3e a744 25bc a3ca 433d 41cb 193f
000003e0: 6583 8fbe 6135 c6bd 318d 0bbd 9443 983a
000003f0: 1173 413e 7509 d9bd e4eb 78bc c971 883e
-0.113524035 0.39730284 -0.00999022 0.09103619 -0.092554085 0.14931841 0.1784926 0.26512295
0.025773248 -0.15601993 0.6287473 0.6273971 -0.24816045 0.48053324 0.47057703 -0.04599417
-0.07662744 0.28622377 -0.6945391 0.42559943 0.042171184 0.08669262 -0.25911286 0.29694718
-0.3691159 -0.05963293 0.2567991 -0.018268216 0.03100846 -0.23117748 0.08130417 0.2895517
-0.6464604 0.079044364 0.7346379 -0.33011362 0.18750054 0.48882526 -0.15593253 0.02426241
0.26111048 -0.31307054 0.36549452 -0.1343279 -0.19351226 -0.043006096 -0.43534774 -0.39705592
-0.39209625 0.01152368 -0.11542467 -0.43747213 -0.006347634 -0.26042193 0.5380904 0.52029413
-0.10906268 -0.48516536 -0.10077603 -0.37524298 -0.46786645 0.22707103 -0.24974917 -0.5319727
0.07708191 0.1683782 -0.13191608 0.049190328 -0.3244694 0.31025577 -0.45620903 -0.020469952
0.26189438 -0.2185631 0.40789303 0.22119887 -0.5953466 0.09034617 -0.22913109 0.0010924479
0.7461377 0.23901688 0.1727318 -0.43380484 -0.10910186 0.08059703 0.7612249 0.4314115
0.076998346 0.80260754 -0.14331532 0.23208441 0.28495735 0.026551215 0.11238199 0.32407424
0.10483082 0.14731607 0.6288229 0.26261228 0.016307423 0.019581228 -0.45303407 0.44261557
-0.58085865 0.25563785 -0.12058732 0.0748894 0.007040852 -0.26731575 -0.1681344 -0.6973598
-0.4829355 -0.44571865 -0.122585006 0.09490149 -0.263338 -0.37659776 -0.18620609 -0.104876205
-0.22706257 -0.15266982 0.4775504 0.8509374 0.17121729 0.28522474 -0.27877507 -0.103391595
-0.5076767 0.16655667 0.03773904 -0.44566745 -0.41255203 -0.13976215 0.6266484 0.22368856
0.070979215 0.016546797 0.24924769 0.18830785 0.35054544 0.03661489 0.02138676 -0.47201595
-0.38054436 0.11177646 0.29699862 -0.55637306 0.034092847 -0.0915845 0.07800039 -0.071722716
-0.342904 0.19514665 -0.80931616 -0.042575825 -0.07878146 -0.4601043 0.05939867 -0.33761045
-0.092413716 0.49262473 -0.26021358 -0.23045488 -0.5953916 0.3931301 0.17727074 0.57727665
-0.40658432 0.6347965 0.19297467 0.4551226 0.27734277 -0.4792123 -0.70776016 0.433776
-0.3288874 -0.40349966 -0.37312278 -0.15173592 -0.13968648 0.37972915 0.9005876 0.21980122
-0.1537254 0.073577486 0.014376635 1.0002369 -0.07001367 0.017957076 -0.6327596 0.3606971
0.60838544 0.28879964 -0.7574352 0.44099173 0.5935984 -0.7692075 -0.14999668 -0.16395356
0.557797 0.09428437 -0.120933615 -0.2560502 -0.81543136 -0.07667322 -0.092460595 0.17688407
0.09592927 0.39785445 -0.78063685 -0.14218675 0.5041661 -0.4418805 0.12246119 0.45724937
-0.201978 0.53925824 -0.25042966 0.4495124 -0.20936842 -0.15459459 0.4694114 -0.025423214
-0.5807307 0.07760688 0.5954355 1.0028608 -0.20660783 -0.045755066 -0.34910533 0.07013567
1.0423487 -0.44795138 0.004950613 0.32726493 -1.0239824 -0.3525422 -0.62212807 0.21700379
-0.30107743 -0.046396594 0.40254346 -0.43241048 0.1557788 -0.010087169 0.04780067 0.60075766
-0.28029934 -0.0967815 -0.034070197 0.001161682 0.1889155 -0.10597507 -0.015192959 0.2664931

network_body._body_endoder.seq_layers.2.bias f4 [256]
00000000: e84e d2bd 94ea ad3d 82fd a63d a2be 58bc
00000010: 5c49 6abd c174 62bd 06d8 c43d 949f 1dbe
00000020: 63cf fd3c efad 0e3e dc3c 353c 0ccf a93d
00000030: 8301 fc3c c7ff 2d3e 2fdf 24bc 406a 9f3d
00000040: ae93 63bc 097e 5fbc 32d5 b2bd 286b 81ba
00000050: 411b 0bbc c027 1c3d 2eab 2c3c 7eb2 dd3d
00000060: 7d85 043d 2028 9fbd a94b f7bc c447 453d
00000070: 8985 783d 7157 843d ba83 2dbd 4470 e23d
00000080: 49ef 81bd 6d28 a83d 9173 c33d b9dd 10bc
00000090: 816c 8abc f57a 923c eb82 ad3d 72a8 2bbe
000000a0: 185d d8bc 9376 e43b 9799 1f3d 8cba 74bd
000000b0: e447 1abd ba3b 1b3d 035c c13d 3195 bb3b
000000c0: 3d42 c13c 4a4a 0bbb 348f 683d ba48 043d
000000d0: 3ee3 813d a6ed 85bd fc58 5ebc 572f 4fbd
000000e0: fae9 a2bc e7f9 88bd 6ef2 323c 2d1c 3cbd
000000f0: 5804 fd3c 730f 0c3d db78 843d e157 ccbb
00000100: a9aa 423d a617 0dbe 8650 42bc 60cf 62bb
00000110: ac45 c3bc 466d 0abd 912b 5a3d f45f 4a3d
00000120: a92b bfbd 84fc debd a953 df3d 528d 73ba
00000130: 2927 d33d bae4 6c3d 1f4e 37bd b2d2 82bd
00000140: 4cfb 1b3d 7928 b4bd 9afd 68bc ba60 ec3c
00000150: d034 e93a f59a 963d 48a0 01bd 302d 7ebd
00000160: 655e c1bd 757a 8b3d b3fb bb3c e3e5 dcbc
00000170: 0a47 8f3d 9998 8dbd c388 de3c 4977 4dbd
00000180: bf42 0bbe 9448 97bd 28ab c73d 1236 f8bb
00000190: 718c 883c 31e9 c93c ef9b 003d 46c1 30bd
000001a0: 9626 993d 51eb 823d 0b00 133d 502b a93c
000001b0: 8460 c23d 28df 823d 1625 153d 8ce9 0d3d
000001c0: 1361 5f3d c3de dcbd ceb3 ca3d 87ab b8bd
000001d0: 9700 06be 14e0 553d bcdd 563d 36d2 d03d
000001e0: 4397 293e 5881 0ebe 8625 c6bc 7f4a 143c
000001f0: be87 013e d0c9 513d aa2e 623c 05f0 383d
00000200: dcfb f83c 249b e63d 7879 1e3e 723e 0dbd
00000210: e028 e0bc 0092 0a3d efe7 513d ccd4 6ebb
00000220: 27bd 94bc 4ae5 863b 5dc2 45bd 0ff8 3ebd
00000230: f6c0 993d d5d9 903a 087c b6bb 4a80 053d
00000240: 2a5d 38bd b10a 003e 3b6d 3f3d 0283 42bd
00000250: cf0b a73d 54a5 023d 8812 b23b f549 8a3d
00000260: 64f3 123c 8e5e a5bc 4d76 a13b c6b1 37bd
00000270: d2e7 96bd 8689 163d 553d c1bc a004 813d
00000280: 0114 d23d d5e9 c33d a6d4 bcbd 7b95 473d
00000290: 5d32 3cbb 9b46 d23d 51f9 d1bd 00b8 b73c
000002a0: f380 4a3d 9aab d2bd 2be1 3f3d c244 ff3c
000002b0: 92d9 89bd e51d 05bd c1b9 26bd 0544 2dbd
000002c0: 71a6 fe3b 209a 7c3b 9213 bbbc 165e 41bd
000002d0: 9a4a 82bd d07d b7bd 6dbe 513d e3e1 71bd
000002e0: 398e 8ebb 7ee5 ff3d 3324 0bbd 185b 743d
000002f0: fe50 923d 5b16 44bd e883 033c 19ef 9e3b
00000300: 54e2 06be ee8f 033d 48de c13c 806a 2a3b
00000310: db24 953d ef31 913c c468 0dbe f6c5 f73c
00000320: 1855 133c ca2c 253d 4db5 b1bc 9d72 1e3d
00000330: 82ab 683d 88a9 b1bc 2296 9f3d efa3 1e3c
00000340: 5ed3 d13d 7ece debd 51ff f9bd 6cd6 fcbc
00000350: 6d63 883d 824d db3c 7f3f 9c3c 3369 0fbc
00000360: e09a 15bc edbe 8abc 564b fcbc e21d a73b
00000370: 69df 1ebc a39d be3d 1006 c13c 12bc 9e3c
00000380: 61c3 8ebd 377a 0a3e dd88 08be 6be6 053c
00000390: a52d ddbd 0d75 8a3d 0aa2 cb3d ada3 aa3d
000003a0: 71ab 29bd d364 2ebb 651b 533c 626d c6bc
000003b0: 7026 d93b c931 13be 05cc d63c 6c29 22bd
000003c0: a21f 36bd 5fb6 c23d 602b 8c3d e1c2 b7bb
000003d0: c0cf d6bc 2286 e93d 0469 22bc 5abc 9bbd
000003e0: 953c 2ebd 6639 f5bc 1261 eabc 8060 823c
000003f0: 1990 d5bd c297 943d 54b9 10bd d829 f2bb
-0.102689564 0.08492008 0.081538215 -0.013229044 -0.057198867 -0.055287126 0.09611516 -0.15392905
0.030982679 0.13933538 0.011061873 0.08291444 0.03076244 0.16992103 -0.010062977 0.077839375
-0.01389019 -0.013640889 -0.0873207 -0.0009873854 -0.008490385 0.038123846 0.010538859 0.1082506
0.032353867 -0.07771325 -0.030187445 0.048164144 0.060674224 0.064619906 -0.042361952 0.11056569
-0.06344468 0.082108356 0.09543527 -0.008841925 -0.016897442 0.017880896 0.08472236 -0.16763476
-0.026411578 0.006972143 0.038964834 -0.059748217 -0.037666216 0.037898757 0.09441378 0.005724572
0.023591155 -0.0021253997 0.056777194 0.03229592 0.06342171 -0.065394685 -0.01357102 -0.050582256
-0.01988696 -0.0668829 0.010922058 -0.045925308 0.03088586 0.03419442 0.06468364 -0.006236062
0.047526035 -0.13778552 -0.011860019 -0.0034608468 -0.023836933 -0.033795618 0.053264204 0.049407914
-0.093344994 -0.10888007 0.10904629 -0.0009290773 0.103102036 0.05783532 -0.044752236 -0.06387843
0.038081452 -0.08796782 -0.01422062 0.028854717 0.0017792229 0.073537745 -0.031646997 -0.062054813
-0.094418325 0.06810466 0.022947168 -0.026965087 0.069959715 -0.06913871 0.027164822 -0.050162587
-0.1359968 -0.0738689 0.09749442 -0.007574805 0.01666853 0.024647327 0.03139871 -0.04315307
0.07478063 0.06392539 0.035888713 0.020650536 0.09491065 0.0639022 0.03641232 0.034646556
0.054535937 -0.10784676 0.09897576 -0.09017091 -0.13086163 0.05221565 0.052457556 0.101963446
0.16561608 -0.13916528 -0.024187814 0.009050964 0.12649438 0.051217854 0.013805071 0.045150775
0.030393533 0.112600595 0.15476024 -0.03448338 -0.02736324 0.033830643 0.05124658 -0.0036442755
-0.018156601 0.004116689 -0.048281062 -0.046623286 0.075075075 0.0011051247 -0.005568985 0.03259305
-0.045010723 0.12504078 0.04673503 -0.04748822 0.08156549 0.03189595 0.005434338 0.067523874
0.008969162 -0.020186689 0.0049274326 -0.044847272 -0.07368435 0.036752246 -0.023588816 0.0629971
0.10257722 0.09566084 -0.09220247 0.04872654 -0.0028716542 0.10267373 -0.102526315 0.022426605
0.04943938 -0.10286637 0.046845596 0.031160716 -0.06730951 -0.032499213 -0.040704492 -0.042301197
0.007771306 0.0038544014 -0.02283648 -0.047208868 -0.06361885 -0.08959544 0.051206995 -0.059053313
-0.0043504504 0.12494944 -0.03397007 0.059657186 0.07144354 -0.047872882 0.008027054 0.00485028
-0.13172275 0.032119684 0.023665562 0.002600342 0.0728242 0.017724006 -0.13809496 0.030245762
0.008992456 0.040325917 -0.021692896 0.038683522 0.056804188 -0.021687284 0.077923074 0.0096826395
0.10245393 -0.10879229 -0.12206901 -0.030863963 0.06659589 0.026770357 0.019073246 -0.008753109
-0.009131163 -0.016936744 -0.030797642 0.005099998 -0.00969682 0.093074106 0.023562461 0.019376788
-0.06970859 0.13523184 -0.13333459 0.008172612 -0.10799722 0.06760607 0.09943016 0.08332
-0.041423265 -0.002661039 0.012884949 -0.02422208 0.0066268966 -0.1437446 0.026220331 -0.039590284
-0.04446376 0.09507441 0.068442106 -0.005607948 -0.02622211 0.11402537 -0.009912733 -0.076042846
-0.042538244 -0.029934596 -0.02861074 0.015915155 -0.10427875 0.07255508 -0.035332993 -0.007390242
