Assets/Model/0622AttackMode.onnx (onnx, 295132 bytes, 15 tensors)

action_model._discrete_distribution.branches.0.bias f4 [3]
0	0x3e1881d2	0.14893273
1	0xbd1129e3	-0.035440337
2	0xbe13eb7a	-0.14445296

action_model._discrete_distribution.branches.0.weight f4 [3, 256]
0	0xbdbf4a4e	-0.09340344
1	0xbd13d5a2	-0.036092408
2	0x3ca78d75	0.020453194
3	0xbb2cd04f	-0.0026369279
4	0x3e3b4f80	0.18292046
5	0xbc95ae72	-0.018271659
6	0x3b2cd632	0.0026372788
7	0x3daa7b4f	0.083243005
8	0xbcdcddbb	-0.026961198
9	0x3c9f69b4	0.019459583
10	0x3dc0f144	0.09421018
11	0xbd9df69c	-0.07713053
12	0xbc44bc01	-0.012007714
13	0x3c6cd9b3	0.0144562
14	0x3c815e8a	0.01579215
15	0x3cac6c8c	0.021047853
16	0x3cb55bfb	0.022138586
17	0xbdce38da	-0.10069437
18	0x3dc317e2	0.0952604
19	0x3dcacf99	0.09902877
20	0x3d973c23	0.07384517
21	0x3cbd9672	0.023143027
22	0xbdccc23b	-0.09997984
23	0xbdaf1ecf	-0.08550798
24	0x3d60c401	0.054874424
25	0xbd440456	-0.047855698
26	0x3b688e14	0.0035485076
27	0x3c8c8fc2	0.017158393
28	0xbd0a886f	-0.03382152
29	0xbe947639	-0.28996447
30	0xbe44743c	-0.19184965
31	0xbc96da9b	-0.018414786
32	0x3ddd871d	0.108167864
33	0x3c2eaa01	0.010660649
34	0xba07cd0f	-0.00051803974
35	0xbc8b1d08	-0.016981617
36	0xbe4d06f6	-0.20022187
37	0xbd0d946c	-0.034565374
38	0x3cd03ff7	0.025421126
39	0x3d338fb8	0.043838233
40	0xbcaccafc	-0.021092884
41	0xbd85dbed	-0.06536088
42	0x3d4e97a5	0.05043759
43	0x3d9a35f8	0.07529825
44	0x3e04a5de	0.12953898
45	0xbc348a8b	-0.011019359
46	0xbd3c3120	-0.045945287
47	0xbc934446	-0.017976891
48	0xba4ed0f1	-0.0007889411
49	0xbcb66a06	-0.022267353
50	0x3c18060b	0.0092787845
51	0x3dcb7bbe	0.09935711
52	0xbd3059c6	-0.043054365
53	0x3ba1c8c6	0.004937264
54	0xbce70eaa	-0.028205235
55	0x3c5b42f3	0.013382661
56	0xba30a468	-0.00067383656
57	0xbdc5ed3b	-0.09664389
58	0x3c598cfd	0.013278243
59	0xbe803ebd	-0.25047866
60	0x3c9415ac	0.01807674
61	0xbbdd2e6f	-0.00674992
62	0x3cb4fbe2	0.022092763
63	0x3e09ba79	0.1345004
64	0xbd34b00f	-0.044113215
65	0x3c497d34	0.012297917
66	0xbda4ba4f	-0.08043348
67	0xbc66fdd1	-0.0140986005
68	0x3d8062bf	0.06268834
69	0x3dcf705f	0.10128855
70	0xbcbfe1b1	-0.023423048
71	0xbe2a6244	-0.16639048
72	0x3e0c9622	0.13729146
73	0xbdaf3454	-0.08554903
74	0x3daadc97	0.083428554
75	0xbe5acc1f	-0.21366929
76	0x3d9f97f8	0.077926576
77	0x3d40301e	0.046920888
78	0x3d2af2d9	0.041735504
79	0xbce3477f	-0.027744053
80	0xbc1fc720	-0.009752065
81	0x3ce957da	0.028484274
82	0xbd5f2764	-0.054480925
83	0x3cc934ec	0.024561368
84	0x3b39934e	0.002831656
85	0xbe3cfe0e	-0.18456289
86	0xbb8bd5cd	-0.0042674304
87	0xbde1503a	-0.1100163
88	0xbd07a304	-0.03311445
89	0xbdc065a7	-0.09394389
90	0x3d011087	0.031509902
91	0x3cfdeb95	0.030996123
92	0x3ca5b6e6	0.020228814
93	0xbc000048	-0.007812567
94	0xb9916f31	-0.000277394
95	0x3bde45f4	0.0067832414
96	0xbd84bc13	-0.06481185
97	0xbdc79e3e	-0.09746979
98	0xbd395882	-0.045250423
99	0x3be03c78	0.006843146
100	0xbb048b53	-0.0020224645
101	0xbd8d1882	-0.0688944
102	0xbd9748b8	-0.07386917
103	0x3b4b214f	0.0030995195
104	0x3c5619c2	0.013067665
105	0xbcbc3710	-0.022975475
106	0xbdfbf810	-0.123031735
107	0xbcb40515	-0.02197508
108	0xbe725471	-0.23665024
109	0xbe37a202	-0.17932895
110	0x3962a5ac	0.00021614757
111	0xbc3a6bb4	-0.0113782175
112	0xbcdf2bf1	-0.027242633
113	0x3dcd975a	0.10038634
114	0xbdb84953	-0.089983605
115	0x3d15c0bb	0.036560755
116	0xbb0a0964	-0.0021062726
117	0xbc12b204	-0.008953575
118	0x3cfe3c77	0.031034691
119	0xbc80074c	-0.01562848
120	0x3deea91b	0.11653348
121	0xbdce0336	-0.10059206
122	0x3c142515	0.009042044
123	0xbd43b3b5	-0.047778804
124	0x3cb0b2b0	0.02156958
125	0x3c52a4e1	0.012856693
126	0xbe07c810	-0.13259912
127	0x3c62b224	0.013836417
128	0x3c4e3356	0.012585482
129	0x3c971693	0.018443381
130	0x3dee704f	0.11642515
131	0x3cfba30a	0.030717392
132	0x3bd1165a	0.0063808383
133	0xbc9c4de7	-0.019080115
134	0x3cbc7f45	0.023009906
135	0xbcdf0011	-0.027221711
136	0x3b6153ea	0.0034382292
137	0x3dcb182b	0.09916719
138	0xbdbb83af	-0.09155976
139	0xbe86bafd	-0.26314536
140	0xbd0794f5	-0.03310104
141	0x3d2abae1	0.041682128
142	0x3cfd20be	0.030899402
143	0xb9ce0d34	-0.0003930122
144	0xbc81f865	-0.015865514
145	0x3c9b227e	0.018937346
146	0xbc696e36	-0.014247468
147	0x3d3b4e01	0.045728687
148	0x3bfca7ce	0.0077104336
149	0xbe2e5adc	-0.17026848
150	0xbe8b4874	-0.27203715
151	0x3e16b190	0.14716172
152	0xbd95ae96	-0.0730869
153	0xbb114ac5	-0.002216981
154	0x3de23694	0.11045566
155	0x3ac0c5cb	0.0014707384
156	0x3c53f117	0.012935898
157	0xbe97af92	-0.29626137
158	0xbdacacab	-0.08431371
159	0x3d03edde	0.03220927
160	0xbea5d206	-0.32386798
161	0x3c4538a7	0.012037433
162	0x3bada5a0	0.005299285
163	0x3d5dc467	0.054142382
164	0x3d19e0c1	0.037567858
165	0xbd077ab1	-0.033075992
166	0xbd107f30	-0.035277545
167	0x3dcc1794	0.09965435
168	0xbc9346a9	-0.01797803
169	0xbcd96354	-0.026536621
170	0xbd3948f6	-0.045235597
171	0xbd2aebb2	-0.041728683
172	0x3a08038f	0.00051885186
173	0x3d42491e	0.04743301
174	0xbd24f813	-0.040275645
175	0xbcc79a58	-0.024365589
176	0x3c926b71	0.017873498
177	0x3d0eaab5	0.034830768
178	0xba0cbae0	-0.0005368423
179	0x3d19d426	0.037555836
180	0xbde11e6b	-0.1099213
181	0xbd836de1	-0.06417442
182	0xbe5fbdfa	-0.21849814
183	0x3cdaaa50	0.02669254
184	0xbe4f438e	-0.20240614
185	0x3d36722a	0.04454247
186	0x3c90df3b	0.01768457
187	0x3d9ed7f2	0.07756032
188	0x3d4e0c6f	0.050304826
189	0x3cf00bf3	0.029302573
190	0xbd98ce81	-0.074612625
191	0xbd63adc6	-0.055585645
192	0xbd78cf44	-0.06074454
193	0x3ce04a5c	0.027379207
194	0x3c2dbff8	0.010604851
195	0x3d901a3e	0.07036255
196	0xba09ea50	-0.00052610505
197	0x3d7426d4	0.059607342
198	0xbde16490	-0.11005509
199	0xbb9cb342	-0.0047821114
200	0x3c1e3313	0.009655732
201	0xbdd9295d	-0.106035925
202	0x3d3f0532	0.046635814
203	0x3d1a9333	0.037738036
204	0xbd99a674	-0.075024515
205	0xbd70c080	-0.058777332
206	0xbc867144	-0.016411431
207	0xbcbfb859	-0.023403334
208	0xbc2cfca2	-0.010558279
209	0x3e024abf	0.12723826
210	0xbdf0e03a	-0.11761518
211	0x3d535fb9	0.05160496
212	0xbdce39dd	-0.1006963
213	0xbd2ce3c0	-0.042209387
214	0x3c893160	0.016747177
215	0x3a0d52ef	0.0005391081
216	0xbcab150f	-0.020884065
217	0xbd784169	-0.060609255
218	0xbe109d52	-0.14122513
219	0xbcd1c9b9	-0.025608884
220	0xbdaec82a	-0.08534272
221	0x3c95c1b0	0.018280834
222	0x3db42e81	0.087979324
223	0xbc5aceb0	-0.013354942
224	0xbd26f7fd	-0.040763844
225	0xbc79c585	-0.015244846
226	0x3b73a73c	0.0037178537
227	0x3c2c2f63	0.010509345
228	0x3d0ae9e3	0.033914458
229	0xbdff451e	-0.12464355
230	0x3d5dab35	0.054118354
231	0x3d0348fc	0.032052025
232	0xbdd9fa13	-0.10643401
233	0x3d208136	0.039185725
234	0x3d4decfd	0.050274838
235	0xbb6ae26b	-0.0035840522
236	0xbdf7b3b4	-0.120948225
237	0x3d8736d8	0.066022575
238	0xbdc251c9	-0.094882555
239	0xbc875a4e	-0.016522553
240	0x3b3578b6	0.0027690358
241	0xbd5bad05	-0.0536318
242	0xbe605821	-0.21908619
243	0x3d982354	0.07428613
244	0x3c866925	0.016407559
245	0xbbe9be5f	-0.0071332897
246	0xbc8c5b2c	-0.017133318
247	0x3ccccf94	0.025001325
248	0xbdc6ea96	-0.097127125
249	0x3c2807de	0.010255782
250	0xbd34eaae	-0.04416912
251	0x3dd1ab3e	0.1023774
252	0x3c61bad5	0.013777454
253	0xbc75961a	-0.0149894
254	0x3e019465	0.12654264
255	0x3c360b51	0.0111110965

action_model._discrete_distribution.branches.1.bias f4 [3]
0	0x3dac8e77	0.084256105
1	0xbdd9b3e2	-0.10630013
2	0x3d29bc06	0.04143908

action_model._discrete_distribution.branches.1.weight f4 [3, 256]
0	0xbe21227d	-0.15735812
1	0x3dd575fb	0.104228936
2	0x3d35634e	0.044284157
3	0x3e04482d	0.12918158
4	0x3be8e100	0.0071069
5	0x3d92ff65	0.07177619
6	0x3e8855a9	0.26627854
7	0xbdec4cce	-0.11538087
8	0xbd61ee53	-0.055158924
9	0x3cae9a0e	0.021313693
10	0xbde1bb17	-0.11022013
11	0xbe54287d	-0.2071857
12	0x3d98639e	0.074408755
13	0xbd5e6dc3	-0.054303896
14	0x3ce489c2	0.02789772
15	0x3e201412	0.15632656
16	0xb8e1d363	-0.0001076821
17	0xbd1a1264	-0.037615195
18	0xbe0371e9	-0.12836422
19	0x3b6dcb4b	0.0036284502
20	0x3dca4be2	0.09877755
21	0x3d1db87e	0.038506024
22	0x3c36966f	0.011144265
23	0xbbdad138	-0.006677773
24	0xbdb4dc7a	-0.08831115
25	0x3d0be2d5	0.03415187
26	0x3d217678	0.03941962
27	0xbc645c63	-0.013938042
28	0x3e1cde82	0.15319255
29	0xbe8f95fe	-0.28044122
30	0xbe758bd6	-0.23979124
31	0x3dd0a9a5	0.10188607
32	0x3d80c61b	0.062877856
33	0xbdc96827	-0.098343186
34	0x3e662371	0.22474457
35	0xbdf71a17	-0.12065523
36	0xbe4b450b	-0.19850557
37	0x3dec2f0c	0.11532411
38	0x3d962070	0.07330406
39	0x3cfdeed7	0.030997677
40	0x3e80cb9f	0.2515535
41	0xbd440b52	-0.04786236
42	0x3d73fbcf	0.059566315
43	0xbdfc2fec	-0.12313828
44	0xbde39e1e	-0.11114143
45	0x3d9e3edf	0.077268355
46	0x3c8c6a07	0.017140402
47	0x3ea838c3	0.32855806
48	0x3e8457d3	0.25848255
49	0x3e1f9908	0.1558572
50	0xbe6bd236	-0.23029408
51	0x3d5a9d10	0.053372443
52	0x3ddce4f6	0.10785858
53	0x3d00bbe9	0.031429205
54	0x3da4e976	0.08052342
55	0x3e1b9ef3	0.15197353
56	0xbd2aafb6	-0.041671477
57	0xbc4518fa	-0.012029881
58	0x3d2af670	0.041738927
59	0xbe8a5c5f	-0.270236
60	0xbe08e269	-0.13367619
61	0xbd813991	-0.06309808
62	0x3ddfd86e	0.109299526
63	0xbe51d2f7	-0.20490633
64	0x3e3ec997	0.18631588
65	0x3d31acac	0.043377563
66	0xbd1c5a55	-0.038172085
67	0x3ea89cb2	0.3293205
68	0xbc7d6e4e	-0.015468193
69	0xbe81b62a	-0.25334293
70	0xbdbfa88f	-0.09358322
71	0xbe192cc7	-0.14958487
72	0xbda30db0	-0.07961595
73	0xbd80dbf9	-0.062919565
74	0x3d7adb51	0.061244313
75	0xbe2f23ee	-0.1710355
76	0x3d28d8f0	0.041222513
77	0xbd5f8912	-0.05457408
78	0x3ce1256a	0.02748366
79	0x3e638a7e	0.222208
80	0xbd274f43	-0.040847074
81	0xbd3fe617	-0.04685029
82	0xbd4afe4f	-0.049558934
83	0x3d2b4d40	0.04182172
84	0x3eae56be	0.34050554
85	0xbe4b92aa	-0.19880167
86	0x3e61828b	0.22022454
87	0xbd778271	-0.060427133
88	0x3d95d032	0.07315101
89	0xbdc47219	-0.09592075
90	0x3e4158de	0.18881556
91	0x3d637334	0.055529788
92	0x3d5569fe	0.052103035
93	0x3d3d1adc	0.046168193
94	0x3eac8575	0.3369557
95	0x3c8d1222	0.01722056
96	0xbdb71cf3	-0.089410685
97	0x3c50776f	0.012723788
98	0xbdebf5df	-0.115215056
99	0x3df865f5	0.12128822
100	0x3ca70d18	0.020391986
101	0x3cb265f1	0.021777125
102	0x3dd4448e	0.10364638
103	0x3c52659b	0.012841607
104	0xbdd12f1a	-0.10214062
105	0x3c01986f	0.007909878
106	0xbe411e16	-0.18859133
107	0x3d25b427	0.04045501
108	0xbec8b22c	-0.39198434
109	0xbe4ba504	-0.19887167
110	0x3dfc80e3	0.12329271
111	0x3e8a368a	0.26994735
112	0x3bfe886c	0.0077677276
113	0xbe59e7d7	-0.21279846
114	0xbd54c47a	-0.051945187
115	0x3da1b72b	0.07896265
116	0x3df4d7d4	0.119552284
117	0xbd2c124b	-0.042009633
118	0x3def669a	0.116894916
119	0x3e2850de	0.16437098
120	0x3c8b2d64	0.016989417
121	0xbe50c712	-0.2038844
122	0x3e00c5f5	0.12575515
123	0x3d81364f	0.06309187
124	0x3d819fff	0.06329345
125	0xbdd3f707	-0.10349851
126	0xbe2398cb	-0.15976255
127	0xbdcef3e3	-0.101051114
128	0xbdbe32a2	-0.09287001
129	0x3d208c11	0.039196078
130	0x3d3bf577	0.04588839
131	0x3d0912ba	0.033465125
132	0x3b5e3ccd	0.0033910752
133	0xbdca6ee2	-0.098844305
134	0xbd808561	-0.0627544
135	0x3d924af6	0.07143204
136	0x3d81555f	0.06315111
137	0xbe41e435	-0.1893471
138	0xbdacfb4c	-0.084463686
139	0xbea6ae84	-0.3255502
140	0xbb89e111	-0.004207738
141	0x3ccfacff	0.025351046
142	0x3d142a9c	0.036173448
143	0xbc00760c	-0.007840645
144	0xbd8212e6	-0.06351261
145	0xb8cf63d1	-9.8891214e-05
146	0x3c29d685	0.010366087
147	0x3cae204b	0.021255633
148	0xbd817407	-0.063209586
149	0xbdfa93d5	-0.12235228
150	0xbe8e8e61	-0.27843
151	0xb9bc843e	-0.00035956682
152	0x3d0fdd79	0.035123322
153	0x3dd27cc6	0.10277705
154	0xbe1918eb	-0.14950912
155	0xbd7767a1	-0.060401563
156	0x3c6ac7d8	0.014329873
157	0xbe3f6228	-0.18689787
158	0xbe727f98	-0.23681486
159	0x3e01f273	0.12690143
160	0xbe9c25e9	-0.30497673
161	0xbd18ee95	-0.037336905
162	0x3e68e2d6	0.22742781
163	0xbe029863	-0.12753443
164	0x3b84e3c8	0.004055474
165	0x3de16674	0.110058695
166	0x3df3b0c5	0.118989505
167	0x3d295737	0.04134294
168	0xbe505f81	-0.20348932
169	0x3c010a6d	0.007876021
170	0xbd82ed5f	-0.06392931
171	0xbe5a60ee	-0.21326038
172	0xbbb2be2c	-0.005454799
173	0xbe0c8523	-0.13722663
174	0xbbb1fcf7	-0.005431767
175	0xbde27237	-0.11056941
176	0xbe32f378	-0.17475688
177	0x3d5ef4d6	0.054432712
178	0x3e464272	0.19361284
179	0x3e4bb83a	0.19894496
180	0xbe6d7197	-0.23187862
181	0xbbe5bc7e	-0.0070109954
182	0xbe102c80	-0.14079475
183	0xbc91d1ce	-0.017800238
184	0xbe836c3d	-0.25668517
185	0x3d19a582	0.037511356
186	0x3c62a891	0.013834135
187	0xbd67b83a	-0.056572177
188	0xbdb1d414	-0.08683029
189	0x3e041342	0.12897971
190	0xbd5ae767	-0.05344334
191	0xbdc64f08	-0.09683043
192	0x3dd4b59b	0.10386201
193	0x3d768958	0.060189575
194	0x3e1e6315	0.15467484
195	0x3da2bf51	0.07946647
196	0xbb077cfe	-0.0020673866
197	0xbe2c9880	-0.16855049
198	0xbcef3804	-0.029201515
199	0x3e05279c	0.13003391
200	0x3e087539	0.13325967
201	0xbe019bbb	-0.12657063
202	0xbb0eb9c3	-0.0021778203
203	0xbe24f555	-0.16109212
204	0x3cf9e573	0.030504918
205	0xbd04d2aa	-0.032427467
206	0x3ca44a6b	0.020055017
207	0x3e03eece	0.12884066
208	0xbce24a1d	-0.02762323
209	0xbe342d3f	-0.17595385
210	0xbdb06295	-0.08612553
211	0xbddca34b	-0.10773333
212	0xbd9d5cfd	-0.07683752
213	0xbd271de1	-0.04079998
214	0x3c24eb3a	0.010065848
215	0x3d96fd0a	0.07372482
216	0xbbe52421	-0.0069928323
217	0xbe59be84	-0.21264082
218	0xbea63e86	-0.32469577
219	0x3e98ee6b	0.29869398
220	0xbcd5eb77	-0.026113255
221	0x3ce157c6	0.027507674
222	0xbe779555	-0.2417806
223	0xbbcac110	-0.0061875656
224	0x3d5509f1	0.052011434
225	0x3c0676b7	0.008207015
226	0xbd05ab2b	-0.03263394
227	0x3db0c8cb	0.08632048
228	0xbdc57561	-0.09641529
229	0xbc1ad1cb	-0.009449433
230	0xbd75774b	-0.05992822
231	0x3c9e5372	0.0193269
232	0xbb908d08	-0.0044113435
233	0xbc810298	-0.015748307
234	0xbe34f8b0	-0.17672992
235	0xbdcdc197	-0.1004669
236	0xbe0d6279	-0.13807096
237	0x3d049399	0.032367323
238	0xbd60bfb5	-0.054870326
239	0x3d6b2f95	0.057418425
240	0x3d63d3b7	0.05562183
241	0xbc06684d	-0.008203578
242	0xbe95c548	-0.29252076
243	0x3db57135	0.08859483
244	0xbe450fc9	-0.19244303
245	0x3d0cbfb4	0.03436251
246	0xbc563c64	-0.013075922
247	0x3de21a61	0.110401876
248	0xbd8250b8	-0.06363052
249	0x3da68307	0.0813046
250	0xbd0e9ab9	-0.034815524
251	0x3904063c	0.00012590823
252	0xbd098cc4	-0.03358151
253	0x3e71eda3	0.23625807
254	0xbe417e07	-0.18895732
255	0x3d7224d1	0.059117142

action_model._discrete_distribution.branches.2.bias f4 [3]
0	0xbdaa6751	-0.08320487
1	0xbd31d9e7	-0.0434207
2	0x3e1eaac6	0.15494832

action_model._discrete_distribution.branches.2.weight f4 [3, 256]
0	0xbc4da837	-0.012552313
1	0xbc9823c3	-0.01857174
2	0x3cefd315	0.029275456
3	0x3da37038	0.079803884
4	0x3db0449a	0.08606835
5	0xbd9b8ee5	-0.07595614
6	0xbe6611ce	-0.2246773
7	0x3d2f4f65	0.042800326
8	0x3da4698a	0.080279425
9	0x3e0fbcf9	0.14036931
10	0xbb141da4	-0.0022600675
11	0xbe1b2710	-0.1515162
12	0xbd401b81	-0.04690123
13	0xbd00388a	-0.03130392
14	0x3c35d120	0.011097223
15	0x3d48128f	0.048845824
16	0x3d9dc92a	0.077043846
17	0xbc182b54	-0.009287674
18	0x3d8e3fbd	0.06945751
19	0xbc36b166	-0.0111506935
20	0xbc27f293	-0.010250705
21	0x3d051a4c	0.03249578
22	0xbe8d4e32	-0.2759872
23	0xbde6c725	-0.112684526
24	0x3dae993c	0.08525321
25	0xbe0d2b92	-0.13786152
26	0x3d6872ff	0.056750294
27	0x3d082e59	0.033247326
28	0xbdc6e8b6	-0.09712355
29	0xbd29487e	-0.0413289
30	0xbd6506ce	-0.055914693
31	0x3d8af7be	0.06785534
32	0x3d55accb	0.05216674
33	0x3c65585e	0.013998119
34	0xbd873ffa	-0.066039994
35	0xbbd3befe	-0.006461977
36	0xbce10032	-0.027465913
37	0xbe34d3fe	-0.17658994
38	0x3d39e0b0	0.045380294
39	0x3d70d92d	0.058800865
40	0xbe193e26	-0.14965114
41	0xbd510f02	-0.051039703
42	0xbd2edab4	-0.04268904
43	0x3dd66a52	0.10469498
44	0xbc032a6b	-0.008005719
45	0xbd0e5a78	-0.034754246
46	0xbe01739a	-0.12641755
47	0xbe11dc15	-0.14244111
48	0xbdbc0fe5	-0.09182719
49	0xbe3224d3	-0.1739686
50	0x3c869e8e	0.016433027
51	0x3d91feeb	0.071287
52	0xbe100425	-0.14064081
53	0x3ddfe82b	0.109329544
54	0xbc5e58bc	-0.013570961
55	0xbe01db8f	-0.12681411
56	0xbc232b83	-0.0099591045
57	0xbd68d345	-0.056842107
58	0x3cdeb748	0.027187005
59	0xbdacbb8f	-0.084342115
60	0x3de167f4	0.110061556
61	0x3d52dcd2	0.051480122
62	0xbd2412fd	-0.04005717
63	0xbc80369a	-0.015651036
64	0xbe4b10da	-0.19830647
65	0xbd09762a	-0.033559956
66	0xbe1c4d20	-0.15263796
67	0xbdefc3cb	-0.117072664
68	0x3d45f0cf	0.048325356
69	0x3dfafb60	0.12254977
70	0x3df17659	0.11790151
71	0xbdd340c1	-0.10315085
72	0x3bee7918	0.007277619
73	0xbd3fba4e	-0.046808533
74	0x3d041d08	0.03225425
75	0xbc215676	-0.009847274
76	0x3d0e8b64	0.034800902
77	0x3da62122	0.08111788
78	0x3dd0b449	0.10190637
79	0xbde9cbe0	-0.11415839
80	0x3d134a71	0.035959665
81	0x3dd93b51	0.10607017
82	0xbdc5ed39	-0.09664387
83	0x3d15ce64	0.036573783
84	0xbe1b33e8	-0.1515652
85	0xbd6da30b	-0.058016818
86	0xbd2bd935	-0.04195519
87	0x3d1ee9bd	0.03879713
88	0xbdc20bc2	-0.09474899
89	0xbcfd75b4	-0.030939914
90	0x3c1b1e13	0.0094676195
91	0x3cf06d2a	0.029348928
92	0xbdc6c2d4	-0.09705129
93	0x3da829f0	0.08211124
94	0xbdbf6474	-0.09345332
95	0xbd0977d4	-0.033561543
96	0x3cbd2e90	0.023093492
97	0xbddbc07f	-0.10730075
98	0xbbdd0e86	-0.006746116
99	0xbdb75ff5	-0.08953849
100	0x3d2f70d4	0.04283221
101	0xbc8c6320	-0.01713711
102	0xbd3c09b0	-0.045907676
103	0xbdedb8aa	-0.116074875
104	0xbc6e70b8	-0.014553241
105	0x3c636b8f	0.013880624
106	0x3dc5b407	0.09653478
107	0xbdfaa416	-0.12238328
108	0xbcbb68aa	-0.022877056
109	0xbe11c6e0	-0.14236021
110	0xbde79935	-0.11308519
111	0xbdeb04cd	-0.11475525
112	0x3c3116e1	0.010808677
113	0xbc55a520	-0.013039857
114	0x3db529d4	0.08845869
115	0xbbe90fee	-0.0071124947
116	0x3ce91464	0.028452106
117	0xbe66e3ec	-0.22547883
118	0x3be33f7c	0.006935058
119	0xbe11edab	-0.1425082
120	0xbd2c2dbe	-0.04203581
121	0x3c85e418	0.016344115
122	0xbda118a4	-0.07866028
123	0xbd7d746d	-0.06187861
124	0xbcc01843	-0.023449069
125	0x3e07cfe2	0.13262895
126	0x3cc5423b	0.024079433
127	0x3d6927b2	0.056922622
128	0xbd5bc9b6	-0.053659163
129	0xbd0a0211	-0.033693377
130	0x3d89a78e	0.06721412
131	0xbd09de33	-0.03365917
132	0x3d795c18	0.060878843
133	0x3d8cfb1e	0.06883834
134	0xbd8265ca	-0.06367071
135	0xbda63d29	-0.08117134
136	0x3cc176af	0.023616163
137	0x3d1a4753	0.037665676
138	0xbe3b0df8	-0.18267047
139	0xbd06ae47	-0.032881048
140	0xbd3ea1a1	-0.04654086
141	0x3da51248	0.080601275
142	0x3ded2ccc	0.1158081
143	0xbc5759d8	-0.013143979
144	0x3d4ec51d	0.05048095
145	0x3ddfcbe3	0.1092756
146	0x3de0aa09	0.10969932
147	0x3d98f4dc	0.07468578
148	0xbccb5027	-0.024818493
149	0xbce89d84	-0.028395422
150	0xbe10d798	-0.14144742
151	0xbc906c8c	-0.017629884
152	0xbdf79955	-0.12089793
153	0xbde5227b	-0.11188217
154	0x3d3107e0	0.0432204
155	0xbe02e3fa	-0.12782279
156	0xbdffe640	-0.124950886
157	0xbd656988	-0.056008846
158	0x3ca5fa13	0.020260846
159	0x3d1a6007	0.037689235
160	0xbdea61ba	-0.11444421
161	0x3d8e51c7	0.069491915
162	0xbd8c9757	-0.06864803
163	0x3aa64ede	0.0012688299
164	0x3db87e79	0.09008498
165	0xbe22a267	-0.15882264
166	0xbe4a8be1	-0.19779922
167	0xbc6ba5d7	-0.014382801
168	0xba134a98	-0.00056187203
169	0x3d809cfd	0.06279943
170	0x3a690e8a	0.0008890411
171	0x3d09d80a	0.033653297
172	0xbc17d774	-0.009267677
173	0x3d24f67f	0.04027414
174	0xbdc7a58f	-0.09748375
175	0x3d9777a1	0.07395864
176	0x3cff5f93	0.031173503
177	0x3cc9c08c	0.024627946
178	0x3c8ccfeb	0.017188987
179	0xbd95287d	-0.07283113
180	0xb89ae7ee	-7.3864925e-05
181	0xbe91fdc5	-0.28513923
182	0x3d937d12	0.0720159
183	0xbdcd8663	-0.10035398
184	0xbb74a457	-0.00373294
185	0x3d222dab	0.039594334
186	0xbc91a7ee	-0.01778027
187	0x3d019e9f	0.031645413
188	0xbe235268	-0.15949404
189	0x3d65d87e	0.056114666
190	0xbe2bc672	-0.1677492
191	0xbe2fb22d	-0.17157812
192	0x3d8a7fdf	0.06762671
193	0x3dfc4400	0.123176575
194	0x3d4f57d9	0.050620887
195	0x3b8dd840	0.0043287575
196	0xbdd0b07b	-0.10189911
197	0x3c9b3246	0.01894487
198	0xbdcb83b9	-0.099372335
199	0xbdaf57c1	-0.085616596
200	0xbdc90b83	-0.09816649
201	0x3c3f929b	0.011692668
202	0x3d77fe93	0.060545515
203	0x3d72103b	0.05909751
204	0x3b8244aa	0.0039754706
205	0x3e2c3542	0.16817191
206	0xbcfeab1f	-0.031087456
207	0xbdfb67ca	-0.122756556
208	0x3d83ae5b	0.0642974
209	0xbb74d414	-0.0037357854
210	0xbc0bdc43	-0.008536401
211	0x3c750fa7	0.014957345
212	0xbe8ece5a	-0.2789181
213	0x3c1675ae	0.00918333
214	0x3d84e6a3	0.06489303
215	0xbc68d883	-0.014211777
216	0x3dabca48	0.083881915
217	0xbcf21a1a	-0.029553462
218	0xbd2d4fc5	-0.042312402
219	0xbde64fce	-0.1124569
220	0xbe026a60	-0.12735891
221	0x3dad8688	0.084729254
222	0x3ce9bfc9	0.028533833
223	0xbd9e63e2	-0.07733895
224	0xbd7ef175	-0.06224199
225	0x3d354f03	0.044264805
226	0xbdbfc34c	-0.09363422
227	0x3dba4256	0.09094684
228	0xbd8e95ab	-0.06962141
229	0x3dda1d14	0.106500775
230	0xbe17e093	-0.14831762
231	0x3d91b496	0.07114522
232	0xbc1a1269	-0.009403803
233	0x3d87eb98	0.06636733
234	0x3dc72cd5	0.09725348
235	0xbbc57492	-0.006025859
236	0xbd0bc88e	-0.03412681
237	0x3d9ab124	0.07553318
238	0xbb6f83fe	-0.003654718
239	0xbdfa5fea	-0.122253254
240	0x3d81af0f	0.06332218
241	0x3d22589b	0.039635282
242	0x3ca7609d	0.020431811
243	0x3d0e40ea	0.034729876
244	0xbca5897a	-0.020207155
245	0xbdb5168f	-0.08842193
246	0x3d351c5d	0.044216502
247	0xbda8b932	-0.08238448
248	0xbde50e19	-0.111843295
249	0x3d6aabe1	0.057292823
250	0xbd06730c	-0.03282456
251	0x3e04b899	0.12961043
252	0xbde0aa6a	-0.10970004
253	0xbe5dfea7	-0.21679173
254	0xbbb6fb30	-0.005584143
255	0xbb434f90	-0.0029802062

action_model._discrete_distribution.branches.3.bias f4 [2]
0	0xbcc49db7	-0.024000986
1	0x3cc49db3	0.024000978

action_model._discrete_distribution.branches.3.weight f4 [2, 256]
0	0x3d452831	0.048134033
1	0xbd941b0f	-0.072317235
2	0x3c4b6bcf	0.01241584
3	0x3c60fe2b	0.013732473
4	0xbcd993fc	-0.026559822
5	0xbd8a4ec4	-0.067533046
6	0xbd141257	-0.036150303
7	0x3d3ed9b3	0.046594333
8	0x3d6cdcb6	0.057827674
9	0x3bd53f1b	0.006507767
10	0x3d71a103	0.058991443
11	0xbd16834f	-0.03674632
12	0xbd17732a	-0.036975063
13	0xbd71d184	-0.0590377
14	0xbc01f569	-0.0079320455
15	0xbd0f246a	-0.034946837
16	0xbcc2b4da	-0.023767877
17	0xbd5bb847	-0.053642537
18	0x3cbe9105	0.02326251
19	0xbc735984	-0.014852885
20	0x3b897bc0	0.0041956604
21	0xbc5f033d	-0.013611612
22	0xbd0d5556	-0.03450521
23	0x3da22cf3	0.0791873
24	0x3b817570	0.003950767
25	0xbd3b1db0	-0.04568261
26	0xbb8760d8	-0.0041314177
27	0x3c34a105	0.011024718
28	0xbd1adeee	-0.03781026
29	0x3ce881f4	0.028382279
30	0xbd4f9433	-0.050678443
31	0xbca883e7	-0.020570708
32	0x3bfdf7c8	0.007750485
33	0xbc9ba613	-0.019000089
34	0xbc4d5a3b	-0.01253372
35	0xbc0a7f9d	-0.008453277
36	0xbd6da4b7	-0.058018412
37	0x3c881389	0.016610878
38	0xbcbb8201	-0.02288914
39	0xbd800bb4	-0.06252232
40	0xbc988cb8	-0.018621787
41	0xbcc03276	-0.023461562
42	0x3ba166d7	0.0049255895
43	0xbd056eef	-0.032576498
44	0x3cc83073	0.024437165
45	0x3d61ce54	0.05512841
46	0xbc617f5a	-0.013763273
47	0xbcae8efe	-0.021308418
48	0xbc83ab47	-0.016072882
49	0xbc387847	-0.011259145
50	0xbd43e550	-0.04782611
51	0x3b975db5	0.004619325
52	0xbc599dbb	-0.013282235
53	0xbce17a85	-0.027524242
54	0xbc808e49	-0.015692847
55	0xbcf3fd3b	-0.029783836
56	0xbcca66c6	-0.02470721
57	0xbd150c5b	-0.036388736
58	0xbb6f5cf0	-0.00365239
59	0x3d0f9a02	0.035058983
60	0xbd0b7fb9	-0.034057353
61	0x3c8a784e	0.016903069
62	0x3ae176aa	0.0017201502
63	0x3ce4630f	0.027879266
64	0xbceea36a	-0.029130656
65	0x3d6e1760	0.05812776
66	0xbc1e5945	-0.009664838
67	0xbc27a446	-0.010232037
68	0x3d186217	0.03720292
69	0xbd2e3257	-0.042528477
70	0x3c8942e1	0.016755523
71	0xbd473473	-0.048634004
72	0x3cd0a1ef	0.025467841
73	0xbbe2ad13	-0.0069176047
74	0xbd4787e3	-0.048713576
75	0x3c24c2a1	0.010056169
76	0xbb9cface	-0.0047906404
77	0x3d98251f	0.07428955
78	0xbd249821	-0.040184144
79	0xbca55c04	-0.020185478
80	0xbc92490f	-0.017857103
81	0x3bb606da	0.005555016
82	0xbd4037bf	-0.046928164
83	0xbd28f15a	-0.041245796
84	0xbc2a0456	-0.01037701
85	0xbd279926	-0.040917538
86	0xba92ec33	-0.0011209309
87	0x3b5ac3cd	0.0033380867
88	0xbccbd475	-0.02488158
89	0xbd004a6b	-0.03132097
90	0xbba858cb	-0.005137538
91	0x3c24a2e9	0.010048606
92	0xba53d38a	-0.0008080533
93	0x3c85a676	0.016314726
94	0xbbafa5b1	-0.005360328
95	0xbc658330	-0.014008328
96	0x3cf6a391	0.030107291
97	0xbc89b13b	-0.016808143
98	0xbcac21f7	-0.02101229
99	0xbb4fa87c	-0.0031686118
100	0xbacc6109	-0.0015592884
101	0xbd38aa84	-0.04508449
102	0x3d9de04e	0.07708798
103	0xbc1733c7	-0.009228653
104	0xbd8799fb	-0.06621166
105	0xbcc3934c	-0.023873948
106	0xbd167fef	-0.0367431
107	0xbc663235	-0.014050056
108	0x3c48611d	0.012230185
109	0x3cce78ea	0.02520414
110	0xbbad3bdc	-0.005286677
111	0x3c20e304	0.00981975
112	0x3ce9edd3	0.028555786
113	0xbd042c8e	-0.032269053
114	0xbcdab5b6	-0.026697975
115	0x3d099362	0.03358782
116	0x3cbdd649	0.023173468
117	0xbd00032b	-0.03125302
118	0xbc7c0ce3	-0.015383932
119	0xbcbeb5e8	-0.023280099
120	0x3c2196b3	0.00986259
121	0xbd48803b	-0.048950415
122	0x3c677046	0.014125889
123	0xbd429041	-0.047500852
124	0x3c13fa8b	0.009031902
125	0xbbafc82f	-0.00536444
126	0xbd5f6d79	-0.05454776
127	0xbce89818	-0.028392836
128	0xbd8eb991	-0.06968988
129	0x3be2176b	0.0068997643
130	0xb9018d9c	-0.00012355152
131	0xbb817068	-0.0039501674
132	0x3c77f25d	0.0151334675
133	0xbca982a0	-0.02069217
134	0xbda55410	-0.08072674
135	0xbd673183	-0.056443702
136	0xbcb8b651	-0.022547873
137	0x3cbe8b0e	0.023259666
138	0xbc6d2169	-0.014473298
139	0xbd7edb9c	-0.062221155
140	0x3d57cc57	0.052685108
141	0x3c8fbc32	0.017545793
142	0xbbc33c65	-0.0059581273
143	0xbd0434ab	-0.03227679
144	0x3d87cb35	0.066305555
145	0xbbac53fe	-0.005259036
146	0x3c97a108	0.018509403
147	0xbc9ce837	-0.019153697
148	0xbb686e9b	-0.0035466317
149	0xbd0b4e96	-0.034010492
150	0x3d48c51f	0.049016114
151	0x39a7e4db	0.00032023233
152	0xbc1986fa	-0.00937056
153	0xbc9cc031	-0.019134613
154	0xbcfebdb6	-0.03109632
155	0xbd56ec15	-0.05247124
156	0x3bea24e4	0.007145511
157	0xbc37fb28	-0.011229314
158	0xbc8ffd06	-0.017576706
159	0xbb997a86	-0.0046837954
160	0xbce0dd55	-0.02744929
161	0x3c9cf93d	0.019161815
162	0xbbd9dfe5	-0.0066490048
163	0xbd08492c	-0.033272907
164	0xbc8c8677	-0.017153962
165	0xbbf00d90	-0.0073258355
166	0xbc91c98d	-0.017796302
167	0x3cb803ee	0.022462811
168	0xbd88bd5a	-0.06676741
169	0xbc406458	-0.011742674
170	0xbd6e371c	-0.058158025
171	0xbcfbadef	-0.030722586
172	0xbbf7e52a	-0.0075651603
173	0xbb6ffa39	-0.003661765
174	0xbbab5e2a	-0.005229731
175	0xba290c7d	-0.0006448699
176	0x3d181eb6	0.037138663
177	0xbcfc288c	-0.030781053
178	0xbc3d2faa	-0.0115470085
179	0xbbb8dbc9	-0.005641435
180	0x3c9cd934	0.01914654
181	0x3ca493c7	0.020089997
182	0xbc622134	-0.013801862
183	0xba426f82	-0.00074171287
184	0xbd7c69bd	-0.061624277
185	0xbcd3d393	-0.025857722
186	0xbc619026	-0.013767278
187	0xbce89474	-0.0283911
188	0xbd68b65a	-0.05681453
189	0x3bd821f6	0.0065958453
190	0xbb4830c7	-0.0030546652
191	0xbca9d0a8	-0.020729378
192	0x3d872a45	0.06599859
193	0x3dc27a47	0.09495979
194	0x3ae0eabe	0.0017159802
195	0x3be4245b	0.0069623417
196	0x3ceb9269	0.028756337
197	0xbbee9b99	-0.0072817323
198	0xbd3ca971	-0.04606003
199	0xbc957d35	-0.01824818
200	0x3c1fde95	0.009757658
201	0xbd1805b3	-0.03711481
202	0xbd6de44e	-0.058079056
203	0x3cb44d56	0.022009533
204	0xbc99e740	-0.018787026
205	0x3c32719d	0.010891345
206	0xbc646af5	-0.013941516
207	0xbc1001e5	-0.008789514
208	0xbd1bed62	-0.038068183
209	0x3ce709e8	0.028202966
210	0x3c8659e6	0.016400289
211	0x3d99abb6	0.075034544
212	0xbcc09c1e	-0.023511942
213	0xbcb45098	-0.022011086
214	0x3d042478	0.03226134
215	0x3cbcb502	0.02303553
216	0x3b446eec	0.002997334
217	0xbcafd947	-0.02146591
218	0xbd1faef2	-0.0389852
219	0x390c671e	0.00013389855
220	0xbac636dc	-0.001512255
221	0xbb21150c	-0.0024579195
222	0x3cde22d0	0.02711621
223	0xbd0907e0	-0.033454776
224	0xbd3999e4	-0.045312777
225	0xbd734101	-0.059388164
226	0xbc2d20cb	-0.0105669005
227	0xbcccaa2b	-0.024983486
228	0x3da6ddb9	0.08147759
229	0xbd72ca15	-0.05927475
230	0xbc9e98ed	-0.01936003
231	0x3ce8860d	0.028384233
232	0x3c001988	0.007818587
233	0x3d1ea38a	0.03873018
234	0xbcd2a219	-0.02571206
235	0x3c8e13db	0.017343452
236	0x3d93739a	0.071997836
237	0x3cdbca4c	0.026829861
238	0xbd4e2ede	-0.050337665
239	0x3b0566e4	0.0020355517
240	0xbd656b8d	-0.05601077
241	0xbd40cd2a	-0.04707066
242	0xbbe56882	-0.0070009837
243	0x3c313caf	0.010817691
244	0x3ddc7be2	0.10765816
245	0xbd17e0f5	-0.03707977
246	0xbb026447	-0.0019896196
247	0xbd77b16e	-0.060471945
248	0xbbc98ff5	-0.006151194
249	0xbcf92584	-0.030413397
250	0xbb0acc53	-0.0021178916
251	0xbcf66716	-0.030078452
252	0xbbb74f64	-0.005594181
253	0xbc7dc3e6	-0.0154886
254	0x3d194b3a	0.037425257
255	0xbd3f54cb	-0.046711724

action_model._discrete_distribution.branches.4.bias f4 [2]
0	0xbdad1fe1	-0.08453346
1	0x3dad1fdc	0.08453342

action_model._discrete_distribution.branches.4.weight f4 [2, 256]
0	0x3d238c66	0.039928816
1	0xbc42b56b	-0.011884074
2	0x3cfa5b9d	0.030561263
3	0x3d82c5cf	0.06385385
4	0xbd4489a3	-0.047982823
5	0x3c42bca3	0.011885795
6	0x3d81f379	0.06345267
7	0x3d964349	0.073370524
8	0xbb917201	-0.004438639
9	0xbb39543a	-0.0028278963
10	0x3d8cc3cf	0.06873285
11	0x3d06f30a	0.032946624
12	0x3c3d11ea	0.011539916
13	0x3d2d078d	0.04224353
14	0x3ce19b2b	0.02753981
15	0xbc1532c7	-0.009106345
16	0x3c5a8282	0.01333678
17	0xbd462843	-0.04837824
18	0x3d2bf7e6	0.04198446
19	0x3cbd794d	0.02312913
20	0xbc4eeac9	-0.012629219
21	0xbc289a95	-0.0102907615
22	0xbcaa91dd	-0.020821506
23	0xbcd441cd	-0.025910283
24	0xbc9a32dc	-0.01882308
25	0xbc2be3ac	-0.010491293
26	0xbb3a6213	-0.0028439804
27	0xbba0e1b4	-0.0049097184
28	0xbcd4c059	-0.025970625
29	0x3d81d06e	0.06338583
30	0x3c43c674	0.01194917
31	0x3c4ab47d	0.012372133
32	0x3cd6b242	0.026208047
33	0x3b1ba231	0.0023747797
34	0x3c0f1e55	0.008735259
35	0x3cc46b91	0.023977073
36	0x3d6081f8	0.054811448
37	0xbc1a0299	-0.009400033
38	0x3c2fa311	0.01072003
39	0xbc8b724f	-0.01702228
40	0x3c7b3828	0.015333213
41	0x3cdda49f	0.027056037
42	0xbc8cd151	-0.017189654
43	0x3d0ce4ee	0.034398012
44	0xbc379b15	-0.011206408
45	0xbcfa321b	-0.03054147
46	0x3d8c71ce	0.06857644
47	0x3d2a521b	0.041582208
48	0x3d26bfc3	0.040710222
49	0x3b3adbbd	0.0028512322
50	0x3c720548	0.014771767
51	0xbe223fcf	-0.15844654
52	0x3d01566f	0.03157657
53	0xbc6e571b	-0.014547135
54	0xbc08b0df	-0.008342951
55	0x3d01175c	0.031516418
56	0x3d334a85	0.04377224
57	0x3d2586d6	0.040411793
58	0x3adffce0	0.0017088912
59	0x3ce84827	0.028354717
60	0xbcdd9c7c	-0.027052157
61	0xbc3ba259	-0.011452281
62	0xbd0bc95b	-0.034127574
63	0x3d1a5484	0.037678257
64	0x3c10e94b	0.008844684
65	0xbd5e26dc	-0.054236278
66	0x3bd8646b	0.0066037676
67	0xbc0aaf09	-0.008464583
68	0xbd4ab071	-0.049484674
69	0xbb2bd652	-0.0026220274
70	0x3c0113d9	0.007878267
71	0x3d87b8d6	0.066270515
72	0xbc2ed22c	-0.010670226
73	0xbc057fe3	-0.008148166
74	0xba9aff03	-0.0011825267
75	0x3d1e3f3f	0.038634535
76	0xb971581b	-0.00023016373
77	0x3d1fbb45	0.038996954
78	0xbb601130	-0.0034189932
79	0x3c4bf2ba	0.012448007
80	0x3c6cd3ef	0.014454826
81	0x3ba4c798	0.0050286762
82	0x3d56314f	0.052293118
83	0x3d5df619	0.054189775
84	0xba41ab0e	-0.0007387855
85	0x3d81fd5a	0.06347151
86	0xbbdaeed2	-0.0066813016
87	0x3d9f1d24	0.0776923
88	0xbc03e46b	-0.008050065
89	0x3d0e509d	0.034744848
90	0xbc8807e0	-0.016605318
91	0xbb5f1e56	-0.0034045181
92	0xbd0742bf	-0.03302264
93	0xbcbb119c	-0.022835545
94	0x3c850db7	0.016241891
95	0x3c3cb0b4	0.011516739
96	0x3ad374f2	0.0016132875
97	0x3cbb931c	0.022897296
98	0x3c86553b	0.016398063
99	0x3d12b83e	0.03582024
100	0xbc930bc4	-0.017949946
101	0xbca42f7e	-0.020042177
102	0xbd4b9900	-0.04970646
103	0xbb0c3df3	-0.002139923
104	0x3952cd2e	0.00020103596
105	0x3d020cd0	0.0317505
106	0x3cb47daa	0.022032578
107	0xbc9a3a75	-0.018826703
108	0xbba4690b	-0.005017405
109	0x3d558524	0.052128926
110	0xbcbf95a3	-0.023386782
111	0xbc0bea62	-0.008539768
112	0xbd96a6c6	-0.07356028
113	0x3d86149b	0.06546899
114	0x3bbd6578	0.0057799183
115	0xbc97e14b	-0.018540045
116	0xbda91cae	-0.08257423
117	0x3d9256b8	0.071454465
118	0x3c334a1a	0.01094296
119	0x3c0c7b7b	0.008574362
120	0x3c9c0a8d	0.019048
121	0x3c07dbed	0.0082921805
122	0xbd6db3e1	-0.058032874
123	0x3d10ada9	0.035321865
124	0xbd5f82f7	-0.054568257
125	0x3cca0eba	0.024665225
126	0x3d1352d3	0.03596766
127	0x3d181fa6	0.037139557
128	0x3d38dd52	0.045132942
129	0xbc32edbb	-0.010920937
130	0xbc836de5	-0.016043613
131	0xbc6afe09	-0.014342793
132	0x3c5f918e	0.013645543
133	0x3cff5b35	0.03117142
134	0x3d363406	0.044483207
135	0xbbe11b6f	-0.0068697254
136	0x3d0c7fa4	0.034301415
137	0x3c463499	0.012097501
138	0x3cfdd09a	0.030983258
139	0xbb4502f5	-0.0030061577
140	0xbd85a01a	-0.065246776
141	0xbc27aa36	-0.010233453
142	0xbbb16833	-0.005414033
143	0xbbe14829	-0.0068750572
144	0xbc3ce155	-0.011528333
145	0x3cfd3746	0.030910145
146	0x3c26319e	0.010143666
147	0x3b5fef4d	0.0034169734
148	0x3b986533	0.0046507358
149	0x3d0187da	0.0316237
150	0x3d2d35be	0.04228758
151	0x3c85c60b	0.016329786
152	0x3d307b2c	0.043086216
153	0xbcf4c031	-0.0298768
154	0x3cc45ef2	0.023971055
155	0x3d44ea59	0.048075054
156	0x3c0bdfcf	0.008537247
157	0x3d84cf85	0.06484894
158	0x3b8b770b	0.0042561344
159	0xbd983b25	-0.07433156
160	0xbb9c0cb9	-0.004762259
161	0xbd9d1b7f	-0.0767126
162	0x3d5debd0	0.054179966
163	0x3cd10459	0.025514768
164	0x3d0b411b	0.033997636
165	0xbd0a911a	-0.033829786
166	0x3d0b17a1	0.03395808
167	0xbdbbada7	-0.09163981
168	0x3c80e4a2	0.01573402
169	0xbc89c0c0	-0.016815543
170	0x3ce4e13a	0.027939428
171	0x3cb6c36d	0.022309983
172	0x3c685713	0.014180916
173	0x3d5a0c82	0.053234585
174	0x3d430b54	0.047618225
175	0x3b0c34bc	0.0021393737
176	0x3d630e79	0.055433724
177	0x3c9dd43f	0.019266246
178	0xbb2e83cb	-0.0026628848
179	0x3d0cd2f7	0.03438088
180	0x3cb154c0	0.021646857
181	0x3b99e200	0.0046961308
182	0x3aebb4cf	0.0017982962
183	0xbd38984a	-0.04506711
184	0x3d2cdf93	0.042205404
185	0xbc3cb661	-0.011518092
186	0x3d960577	0.07325261
187	0xbcc26bdc	-0.023733072
188	0x3d186f3b	0.037215453
189	0xbd6b9ec0	-0.057524443
190	0xbc6059d4	-0.013693292
191	0xbd022304	-0.031771675
192	0xbda43f1f	-0.08019852
193	0x3d861e1d	0.065487124
194	0x3ac2fab4	0.0014875741
195	0x3cabd8cd	0.020977402
196	0xb95da825	-0.00021138841
197	0x3d5ec457	0.054386463
198	0xbcd31875	-0.025768498
199	0x3bac76f1	0.0052632024
200	0x3d12f656	0.035879456
201	0x3d2c5191	0.042069975
202	0xbc55c05d	-0.013046351
203	0x3d352bec	0.04423134
204	0x3dcb7502	0.09934427
205	0xbca6279f	-0.020282565
206	0x3ba523cd	0.005039668
207	0xbc974a8d	-0.018468166
208	0xbb60ab45	-0.0034281772
209	0x3d4f309d	0.05058347
210	0x3c5015b6	0.012700489
211	0x3ce5c4fd	0.028048033
212	0x3d11d132	0.035599895
213	0xbc200b14	-0.009768266
214	0xbd009940	-0.03139615
215	0xbcff1d32	-0.031141851
216	0x3c8563f3	0.016283011
217	0xbcf93a8b	-0.030423423
218	0xbb33a6b2	-0.002741259
219	0x3b6ceb79	0.0036151095
220	0xbae49091	-0.0017438104
221	0x3cc0124a	0.02344622
222	0x3c76266b	0.015023808
223	0x3d29172c	0.041281864
224	0x3cf6709d	0.030082995
225	0x3ac872f9	0.0015293054
226	0x3cf1b91f	0.029507218
227	0xbce0f26d	-0.027459348
228	0xb98869c8	-0.00026018755
229	0x3d459923	0.048241746
230	0x3c769ce3	0.015052053
231	0xbc0a05ae	-0.008424206
232	0x3cf15463	0.029459184
233	0xbd3e5b9b	-0.04647408
234	0x3c8c047f	0.017091988
235	0xbbda29b2	-0.0066578025
236	0xbd43f5ee	-0.04784196
237	0x3d43f284	0.047838703
238	0x3a537eac	0.0008067887
239	0x3c716b8d	0.014735115
240	0x3d1010c8	0.035172254
241	0x3cdd22de	0.026994165
242	0x3c6fa10c	0.014625799
243	0xbdb8b998	-0.09019774
244	0x3c88fb46	0.016721379
245	0x3c9c6d4c	0.019095086
246	0xbc905214	-0.017617263
247	0x3d1e0109	0.038575206
248	0xbd7b7e45	-0.061399717
249	0x3ca47b2c	0.020078264
250	0x3d2a18aa	0.041527428
251	0xbc646c3d	-0.013941822
252	0x3b5694a6	0.003274241
253	0x3d2110ed	0.039322782
254	0x3d035ad9	0.03206906
255	0x3d27906c	0.040909216

discrete_action_output_shape f4 [1, 5]
0	0x40400000	3.0
1	0x40400000	3.0
2	0x40400000	3.0
3	0x40000000	2.0
4	0x40000000	2.0

network_body._body_endoder.seq_layers.0.bias f4 [256]
0	0x3e0a4a48	0.13504899
1	0x3df0173d	0.11723182
2	0xbdbb93c4	-0.091590434
3	0xbdc30f9d	-0.09524462
4	0xbdf1b352	-0.11801781
5	0xbcca4471	-0.024690839
6	0xbd8934d0	-0.06699526
7	0xbe5c31ef	-0.21503423
8	0xbc443769	-0.011976101
9	0x3d9cd1e3	0.0765722
10	0x3dba1c16	0.09087388
11	0xbe0fd4a4	-0.1404596
12	0x3cf6424a	0.030060906
13	0xbe01c712	-0.12673596
14	0xbddefeae	-0.1088842
15	0xbe23c9d9	-0.15994968
16	0x3b5a3e8e	0.0033301446
17	0xbd9d4e67	-0.0768097
18	0xbd8d422c	-0.06897387
19	0xbd164395	-0.036685545
20	0xbe1829af	-0.14859651
21	0xbc15712f	-0.009121223
22	0xbdff4566	-0.124644086
23	0xbdfa1c7e	-0.12212466
24	0xbda3cc83	-0.07997992
25	0xbdf33a4e	-0.11876355
26	0x3cadebfc	0.02123069
27	0xbdd61888	-0.10453898
28	0xbdf331cd	-0.11874733
29	0x3e585814	0.21127349
30	0xbdcaf3ac	-0.09909758
31	0xbbd7e39e	-0.0065884134
32	0x3dbf15da	0.0933034
33	0xbe08109f	-0.1328759
34	0xbe0a2e3f	-0.13494204
35	0xbe14fc35	-0.14549334
36	0xbc863ead	-0.016387308
37	0x3d848095	0.064698376
38	0xbdb49da5	-0.08819131
39	0x3d5b8f36	0.053603373
40	0xbe152ac2	-0.14567092
41	0x3de4eee5	0.11178378
42	0xbd01f034	-0.031723216
43	0xbe17b9ae	-0.14816925
44	0x3d35d77a	0.044394948
45	0x3b1f8689	0.0024341664
46	0xbe46ec68	-0.1942612
47	0xbe221095	-0.15826638
48	0xbd9a9805	-0.07548527
49	0x3cb2d856	0.021831673
50	0xbe22e1a5	-0.15906389
51	0xbd2fd514	-0.042927817
52	0xbda01205	-0.07815937
53	0xbe0c942b	-0.13728397
54	0x3e1214dc	0.1426577
55	0x3d1f6f81	0.038924698
56	0xbe277d21	-0.16356327
57	0xbdd698b9	-0.10478348
58	0xbdcded65	-0.10055045
59	0xbdc10c14	-0.09426132
60	0xbe6778a1	-0.2260461
61	0xbdde51e6	-0.10855465
62	0xbe01b4c6	-0.12666616
63	0xbe29be3d	-0.16576476
64	0xbe0d9f86	-0.13830385
65	0xbdb7f4ab	-0.089822136
66	0xbb759039	-0.0037469997
67	0xbd976452	-0.073921815
68	0xbe59418c	-0.2121641
69	0xbe5cf798	-0.21578825
70	0x3d057beb	0.03258888
71	0xbde4450a	-0.11145981
72	0xbe0a3511	-0.13496806
73	0xbd902f79	-0.07040305
74	0xbddae14e	-0.10687505
75	0xbe39722b	-0.18109958
76	0x3ddc2a4f	0.10750257
77	0xbd06a233	-0.03286953
78	0xbe7267c1	-0.23672391
79	0xbd36400f	-0.044494685
80	0x3d018bb2	0.031627364
81	0xbdf83c9c	-0.12120935
82	0xbd88c7ba	-0.0667872
83	0xbd8371a3	-0.06418159
84	0xbddb7e85	-0.10717491
85	0x3deda50d	0.116037466
86	0x3dc3f9d8	0.09569138
87	0xbe0650dc	-0.13116783
88	0x3d0eeae2	0.03489197
89	0xbd5142c7	-0.051089074
90	0xbdfc40eb	-0.123170696
91	0xbd1d2b8f	-0.03837162
92	0xbd64e8d9	-0.055886123
93	0xbd7170d8	-0.058945507
94	0xbc8873b3	-0.016656732
95	0xbde28bc1	-0.11061812
96	0x3ce736af	0.028224317
97	0xbc66f62c	-0.014096778
98	0xbdced25d	-0.10098717
99	0x3dc760a9	0.09735233
100	0x3d85259b	0.06501313
101	0xbe64dbe3	-0.22349505
102	0xbd53d863	-0.051720034
103	0xbe20080b	-0.15628068
104	0xbd6e3217	-0.05815324
105	0x3d73a266	0.059481047
106	0xbd4882b2	-0.048952766
107	0xbc5bc9f1	-0.013414846
108	0x3d78d5a2	0.06075061
109	0xbe213f9a	-0.15746918
110	0x3ce8c16d	0.028412545
111	0xbe75c0a1	-0.23999263
112	0xbcd6232f	-0.026139824
113	0xbe4ae929	-0.19815506
114	0x3de19e5e	0.11016534
115	0xbc938239	-0.018006431
116	0x3dbd049f	0.09229397
117	0x3ca13fcc	0.019683741
118	0x3db2dc7a	0.08733459
119	0xbd5ccb20	-0.053904653
120	0xbe3fe2b2	-0.18738821
121	0xbdb89149	-0.09012086
122	0xbda9acad	-0.082848884
123	0xbd42c87b	-0.047554474
124	0x3d8bc89b	0.06825372
125	0xbd915ad1	-0.070974
126	0x3d3d2d10	0.046185553
127	0xbd2acb25	-0.04169764
128	0x3d821431	0.063515075
129	0xbb843b9b	-0.004035426
130	0xbd9b441b	-0.075813495
131	0xbd4897c8	-0.048972875
132	0x3b4ee9ac	0.0031572385
133	0x3dc5e6a0	0.09663129
134	0xbe1f4a2a	-0.15555635
135	0xbdfe3f43	-0.1241441
136	0xbd314fdc	-0.04328905
137	0xbd8796bc	-0.06620547
138	0x3dae6f64	0.0851734
139	0xbdec8a66	-0.11549835
140	0xbd423085	-0.047409553
141	0xbdfecc81	-0.1244135
142	0xbe4b4741	-0.198514
143	0x3db79062	0.08963086
144	0xbe327712	-0.17428234
145	0x3e1b14c9	0.15144648
146	0x3dd5052b	0.10401376
147	0xbe637dec	-0.22216004
148	0xbe464d61	-0.19365455
149	0xbd29f2a7	-0.041491177
150	0xbdd04337	-0.1016907
151	0xbdaa458e	-0.08314048
152	0xbe4984e7	-0.19679604
153	0xbcc6bd59	-0.02426021
154	0x3c1b5211	0.009480015
155	0xbe2736f5	-0.16329558
156	0xbddb9fe8	-0.10723859
157	0xbd9ba56d	-0.07599912
158	0xbdcb4242	-0.09924747
159	0xbd517180	-0.051133633
160	0xbe385ee3	-0.18004946
161	0xbd8e4de5	-0.06948451
162	0xbd6b367f	-0.05742502
163	0x3dd82435	0.10553781
164	0xbda6bb8e	-0.08141242
165	0xbc2e4828	-0.010637321
166	0x3e1093f4	0.1411894
167	0x3dadff4d	0.084959604
168	0x3d3c8c8b	0.04603247
169	0xbc712981	-0.014719368
170	0x3e02db0a	0.1277887
171	0x3d04b62d	0.0324003
172	0xbddfa75b	-0.109205924
173	0xbdea8cc5	-0.11452631
174	0x3c14bbcd	0.009077978
175	0x3d7176ce	0.05895119
176	0xbd89f394	-0.06735912
177	0xbbdf18da	-0.0068083825
178	0xbe33d441	-0.17561437
179	0x3d0b09fa	0.03394506
180	0xbd4d6afe	-0.050150864
181	0x3d91cc05	0.07118992
182	0xbe259636	-0.16170582
183	0xbd95a8e0	-0.07307601
184	0x3d1d9642	0.038473375
185	0x3ddbdb00	0.1073513
186	0xbc350c57	-0.011050305
187	0xbe484ea8	-0.19561255
188	0xbdaa6374	-0.083197504
189	0x3d8194c1	0.06327201
190	0xbe48ff86	-0.19628724
191	0xbe1a46b4	-0.15066034
192	0xbe18f883	-0.1493855
193	0x3d3274e7	0.043568518
194	0xbdf73ee1	-0.1207254
195	0xbe83d447	-0.25747892
196	0xbda5cc5e	-0.080956206
197	0xbe1af22b	-0.15131442
198	0xbcadd664	-0.021220393
199	0x3d35e6fc	0.044409737
200	0xbe7e6368	-0.24842608
201	0x3d1921aa	0.03738562
202	0x3d8f3931	0.0699333
203	0x3da38588	0.079844534
204	0xbe0c69a5	-0.13712175
205	0x3cd5175a	0.026012111
206	0x3d62c80d	0.055366565
207	0xbce1874f	-0.02753034
208	0x3c0dc6ba	0.008653337
209	0x3db0cca6	0.086327836
210	0xbd97516c	-0.07388577
211	0xbd8f8e1d	-0.07009528
212	0xbdcebeea	-0.10095008
213	0xbdc4ba03	-0.096057914
214	0xbde98fe8	-0.11404401
215	0x3d391790	0.045188487
216	0xbd4d2b4b	-0.050090116
217	0x3c3ffaba	0.011717493
218	0x3d51d4e5	0.051228423
219	0x3cb11cdb	0.021620205
220	0xbde970eb	-0.113984905
221	0xbd327f38	-0.043578357
222	0xbe2990fd	-0.16559215
223	0xbe301b6c	-0.1719796
224	0xbdf45ddc	-0.11931965
225	0xbd036156	-0.03207525
226	0xbe02a7c0	-0.12759304
227	0xbdcecc3c	-0.10097548
228	0xbdffd50e	-0.12491809
229	0x3c027cde	0.007964341
230	0xbe3313a6	-0.17487964
231	0xbd3fe38f	-0.046847876
232	0xbda230f1	-0.07919491
233	0x3d1b4463	0.037907016
234	0x3e00bbc9	0.12571634
235	0x3a2561ba	0.0006308813
236	0xbe2d94f7	-0.16951357
237	0xbd93d70f	-0.072187535
238	0xbdf179ea	-0.117908314
239	0xbe59beaf	-0.21264146
240	0xbdd08f0c	-0.10183534
241	0x3d306ea5	0.04307427
242	0x3b77c222	0.003780492
243	0xbda32b65	-0.07967261
244	0x3dde53fd	0.10855863
245	0x3d270bf2	0.040782876
246	0xbda85efb	-0.08221241
247	0xbd555fe8	-0.052093416
248	0xbda9d8e5	-0.082933225
249	0x3d2755d2	0.04085333
250	0x3d99ce0e	0.07510005
251	0x3e0f1ab0	0.13975024
252	0x3c3ac62c	0.011399787
253	0xbe0ad291	-0.13556887
254	0xbd92f966	-0.07176475
255	0xbde522f8	-0.111883104

network_body._body_endoder.seq_layers.0.weight f4 [256, 12]
0	0x3efb3c63	0.4906951
1	0xbe9bee19	-0.30455092
2	0xbf198d12	-0.5998088
3	0x3e161e2d	0.14659949
4	0xbd89fd3b	-0.06737753
5	0xbed16f7f	-0.40905377
6	0x3c4262ca	0.011864373
7	0x3e327018	0.17425573
8	0xbf1e2e4a	-0.6178938
9	0x3c83d20d	0.016091371
10	0xbc4f65a1	-0.012658508
11	0xbb762773	-0.0037560135
12	0x3f7c12fc	0.9846647
13	0xbebc4157	-0.367686
14	0xbe47524c	-0.19464988
15	0x3e2174d0	0.15767217
16	0x3e2e0909	0.16995634
17	0xbd662782	-0.05619002
18	0xbe8c7da4	-0.27439606
19	0x3f2402b9	0.64066654
20	0x3f69a6ea	0.91270316
21	0x3c8f48d0	0.017490774
22	0xbed57781	-0.41692737
23	0xbe0511da	-0.12995091
24	0xbd28db47	-0.041224744
25	0xbeeb4615	-0.45951906
26	0x3f10c6d0	0.56553364
27	0x3f5c802e	0.86133087
28	0x3ecb1112	0.3966146
29	0xbd2012ef	-0.039080556
30	0xbe594bd7	-0.21220337
31	0x3e413099	0.18866195
32	0x3e38dfdd	0.18054147
33	0xbeebe606	-0.4607393
34	0xbe886aac	-0.26643884
35	0x3debf735	0.115217604
36	0xbe547291	-0.20746829
37	0xbc588651	-0.013215617
38	0x3ea5f538	0.3241365
39	0x3ea23ae1	0.31685546
40	0x3eba5ebf	0.3640041
41	0xbc28a407	-0.010293013
42	0xbe7d2e3d	-0.2472467
43	0x3def660e	0.11689387
44	0x3ed9ac02	0.42514044
45	0xbf50babe	-0.81534946
46	0x3e926fd5	0.28600946
47	0x3ed2ddb8	0.41184783
48	0x3e3c7ac3	0.18406205
49	0xbed39b8e	-0.41329616
50	0xbe1c65ac	-0.1527316
51	0x3ebda8cd	0.37042847
52	0xb9ff8a16	-0.00048740272
53	0xbd4b3faf	-0.04962128
54	0xbe7e33fe	-0.24824521
55	0x3e3a5838	0.18197715
56	0x3e73aa0e	0.2379534
57	0x3ecf4016	0.4047858
58	0xbf16c9d7	-0.58901733
59	0x3e13b6a9	0.14425148
60	0x3e713798	0.23556364
61	0x3c69ef17	0.014278195
62	0x3e81fe7d	0.25389472
63	0xbe08de3f	-0.1336603
64	0x3ec200af	0.37891147
65	0xbef3ecb0	-0.47641516
66	0x3e4b8b4b	0.19877355
67	0xbc5262d2	-0.012840943
68	0xbefd453e	-0.4946689
69	0xbe6e0017	-0.23242222
70	0x3dfdec4c	0.12398586
71	0x3f1a8ed6	0.603742
72	0xbe4738f3	-0.19455318
73	0xbcccf9a6	-0.025021385
74	0xbcb98168	-0.022644714
75	0x3f1a1d2a	0.6020075
76	0xbee51d1e	-0.44748777
77	0x3ea253c7	0.31704542
78	0x3f20aa5a	0.62759936
79	0xbddd49f7	-0.10805123
80	0xbe144cd8	-0.14482439
81	0xbeede536	-0.46463937
82	0x3eb67870	0.35638762
83	0x3efb363e	0.4906482
84	0xbc93e5d2	-0.018053923
85	0x3de3db81	0.111258514
86	0x3db26598	0.08710784
87	0x3e72816c	0.23682183
88	0x3e5a790a	0.21335235
89	0xbca417a2	-0.0200308
90	0xbd10932f	-0.035296615
91	0x3dd6958d	0.10477743
92	0xbe757995	-0.23972161
93	0x3ee12596	0.43973988
94	0x3e9c4afa	0.30525953
95	0x3d68e204	0.05685617
96	0xbd90b30e	-0.07065402
97	0xbb15ef6f	-0.002287831
98	0xbd28e242	-0.0412314
99	0xbed2db26	-0.41182822
100	0x3f0872c3	0.5330011
101	0xbe3d83a8	-0.18507254
102	0xbea26590	-0.3171811
103	0x3f19e5a7	0.60116047
104	0x3edfa05a	0.43677026
105	0x3c2b9cc6	0.010474389
106	0x3e74da58	0.23911417
107	0xbe52bdcb	-0.20580213
108	0x3eff647f	0.4988136
109	0xbed67968	-0.418895
110	0xbde0a50b	-0.109689794
111	0x3ede05a0	0.43363667
112	0xbf5750a1	-0.84107405
113	0x3f1b5577	0.60677284
114	0xbde61818	-0.11235064
115	0xbe1bd771	-0.15218903
116	0xbf5f8647	-0.87314266
117	0xbc638fcd	-0.013889265
118	0xbd886eca	-0.06661756
119	0x3e1b0304	0.15137869
120	0x3f4519e8	0.76992655
121	0x3d44f4bb	0.048084956
122	0xbef92982	-0.4866448
123	0xbeb30655	-0.34965768
124	0xbd376816	-0.044777
125	0xbe27eae6	-0.163982
126	0x3c3d0279	0.011536234
127	0xbe816447	-0.25271818
128	0xbe37872e	-0.1792266
129	0x3ee8516e	0.45374626
130	0x3dd32468	0.10309678
131	0xbedfa6d9	-0.43681982
132	0x3dd7d747	0.10539108
133	0xbecc5198	-0.39906
134	0x3e432286	0.19056138
135	0xbeb0e71d	-0.34551325
136	0xbe92fcfd	-0.2870864
137	0x3e522f00	0.20525742
138	0x3ed2bf53	0.41161594
139	0x3e413548	0.18867981
140	0x3d8091b7	0.06277793
141	0x3ea60036	0.32422036
142	0x3e87c944	0.2652074
143	0x3e5ab300	0.21357346
144	0x3ebfea58	0.37483478
145	0x3ea52709	0.32256344
146	0x3cb4d0ab	0.022072157
147	0xbd8ec4e2	-0.06971146
148	0xbea1f929	-0.31635407
149	0xbc4dbb25	-0.012556826
150	0xbecb4c1b	-0.397065
151	0x3f2ca49a	0.6743866
152	0x3dccad16	0.09993951
153	0x3ed4ae28	0.4153912
154	0x3e9bcb6b	0.30428633
155	0xbf0d22d5	-0.55131274
156	0xbe988921	-0.2979212
157	0x3eb1cff3	0.34728965
158	0x3ed945bc	0.42436016
159	0xbe0b26c9	-0.13589014
160	0xbe2d2d4b	-0.16911809
161	0xbd46ee79	-0.04856727
162	0x3db08e37	0.08620875
163	0xbe84d813	-0.25946102
164	0x3f1ab68f	0.6043481
165	0x3e89a19e	0.26881117
166	0x3f08e2d5	0.5347112
167	0xbe63dcf1	-0.22252251
168	0xbf156d2d	-0.58369714
169	0xbdd23300	-0.10263634
170	0xbed26db6	-0.41099328
171	0x3dd973a0	0.10617757
172	0xbdfada04	-0.122486144
173	0x3e5fb247	0.21845351
174	0xbe574835	-0.21023639
175	0x3d66619e	0.05624544
176	0x3e5c4be4	0.21513325
177	0x3f4d2323	0.8013174
178	0x3c3e74c8	0.0116245225
179	0x3e7d8f4d	0.24761696
180	0xbddb13d7	-0.106971435
181	0xbd8a209f	-0.06744503
182	0x3ee2064a	0.44145423
183	0x3d3e9703	0.046530735
184	0xbc03b923	-0.0080397455
185	0x3c853b35	0.016263584
186	0x3ec0d6a0	0.37663746
187	0xbeba6300	-0.36403656
188	0xbf354bf3	-0.70819014
189	0x3ea84c27	0.328706
190	0x3c06b2e9	0.008221366
191	0xbd97aeb6	-0.0740637
192	0xbe8da8b1	-0.27667764
193	0xbde1bc4c	-0.11022243
194	0xbe6d5e41	-0.23180486
195	0xbf3d36a5	-0.73911506
196	0x3eaf7ade	0.34273428
197	0x3e8ae77b	0.2712973
198	0x3eb04bdf	0.34432885
199	0xbdaeddae	-0.08538376
200	0x3f653864	0.8953917
201	0xbebc943e	-0.3683185
202	0xbd44abee	-0.048015527
203	0xbd967626	-0.07346754
204	0x3d8dbc40	0.069206715
205	0xbe2974f2	-0.16548517
206	0x3e3a5c83	0.18199353
207	0x3f9869d2	1.1907294
208	0x3f24aac3	0.6432306
209	0xbb603349	-0.0034210256
210	0x3ebdb518	0.37052226
211	0x3da7c5ba	0.0819201
212	0x3eb0b105	0.34510055
213	0x3ecbaa0a	0.39778167
214	0xbe66dabf	-0.22544383
215	0x3e410a92	0.18851689
216	0x3e740808	0.23831189
217	0x3d51cec3	0.051222574
218	0xbed7fa5e	-0.42183203
219	0xbef82326	-0.48464316
220	0x3f0bbdac	0.5458629
221	0x3e059525	0.13045175
222	0x3ec67154	0.38758337
223	0x3e3bc249	0.18335833
224	0x3e2b2c1f	0.1671605
225	0xbf0b71dd	-0.54470617
226	0xbdab7dfd	-0.0837364
227	0x3de78f58	0.113066375
228	0x3e1f5161	0.15558387
229	0x3ee8db6f	0.45479915
230	0x3e7fcdc6	0.2498084
231	0x3d20dd23	0.039273392
232	0x3e8269b5	0.25471273
233	0x3f117860	0.568243
234	0xbe1847c1	-0.14871122
235	0x3f14a7b4	0.58068395
236	0x3f1a0548	0.6016431
237	0x3e619b54	0.22031909
238	0x3f0386ab	0.5137736
239	0x3de9adb6	0.11410086
240	0xbd91aff9	-0.07113642
241	0xbecce0e3	-0.40015325
242	0xbe722c94	-0.23649818
243	0x3e8e9057	0.27844498
244	0x3f039bbc	0.51409507
245	0x3e0bfe07	0.13671122
246	0x3f016579	0.5054546
247	0xbeae1b8a	-0.34005386
248	0xbdf5a73c	-0.11994788
249	0xbe204038	-0.15649498
250	0xbf06d7a1	-0.52672774
251	0x3e0d3f7b	0.13793747
252	0x3e031ecf	0.12804721
253	0x3e12129d	0.14264913
254	0xbed34356	-0.4126231
255	0xbef06d82	-0.46958548
