Assets/Model/0622ChaseMode.onnx (onnx, 295132 bytes, 15 tensors)

action_model._discrete_distribution.branches.0.bias f4 [3]
000000 10 cf b7 bc 63 44 10 bd 8c 15 85 3d
       -0.022437602 -0.03522147 0.0649825

action_model._discrete_distribution.branches.0.weight f4 [3, 256]
000000 c3 66 82 bd f7 bc 21 bd fd 40 b5 3c bc c9 7c 3d
       -0.063672565 -0.03948685 0.022125715 0.061715826
000010 3a 99 8c 3d 47 01 0b bd 72 a7 32 be 2e e8 69 bd
       0.06865163 -0.033936765 -0.17446688 -0.05710619
000020 aa 26 e4 bb 51 7f 18 3d bc 25 a9 bd 17 6d 53 3d
       -0.006962617 0.037230793 -0.082591504 0.051617708
000030 1d 91 8d bd 12 38 15 bd e1 9d b6 3d 36 b1 92 3c
       -0.06912444 -0.036430426 0.08916832 0.017906766
000040 df 29 29 3c 0c 93 31 be 92 f4 30 bd 08 10 7d bd
       0.010324924 -0.1734125 -0.04320199 -0.061782867
000050 be e7 8a 3b a8 12 6f bd 2d 58 0f 3d 11 0a b1 3d
       0.0042390516 -0.0583674 0.0349962 0.08644498
000060 b7 e1 ff ba 55 f5 27 bd 3b 24 0b bd 3d 3c f8 3c
       -0.0019522224 -0.04100545 -0.0339701 0.030302161
000070 b7 26 df 3c a7 eb 84 bd 6e 45 ca 3d 19 9d 98 3d
       0.02724014 -0.064902596 0.09876524 0.07451839
000080 c2 37 c0 3c f0 45 b0 bd 61 04 8c bd f0 af 3f 3d
       0.023464087 -0.086070895 -0.06836773 0.046798646
000090 d8 25 83 bd df d6 88 3c ed 99 db 3a c5 db d2 bd
       -0.064037025 0.016704021 0.0016754247 -0.10295824
0000a0 46 cc de 3d 78 34 a9 3d 86 dd 8b bd 58 e9 2d 3d
       0.10878806 0.08261961 -0.068293616 0.042458862
0000b0 58 d0 10 bc 35 0e ae 3d 32 78 a9 bb 8f ee d7 3c
       -0.0088387355 0.084988035 -0.005171799 0.02635887
0000c0 c7 9b 05 be 65 a3 a3 bd fa 0d 02 be 86 38 4a bd
       -0.13047706 -0.079901494 -0.12700644 -0.04937031
0000d0 3d 9d 86 bb 6f ca 64 bd 9a 3f fe 3c e8 81 0e bd
       -0.0041080997 -0.05585712 0.031036187 -0.034791857
0000e0 7a 3e 92 bc 8a 6e f4 3d ff 55 27 bd 6c 44 25 bd
       -0.017852057 0.11935146 -0.040853497 -0.040348455
0000f0 d8 ae b0 3d 0d 59 4e 3c e0 29 f2 3c e9 ec 9e bd
       0.08627099 0.012594474 0.029560983 -0.07760031
000100 f6 ac 34 3d be e3 0a 3d 57 07 40 3c f6 65 aa 3d
       0.04411026 0.033908598 0.0117205 0.08320229
000110 00 dd 0a bd ea 4e 44 3c 41 a5 0d bd 16 27 4c 3d
       -0.03390217 0.011981705 -0.034581427 0.049841963
000120 84 f2 9c bc 47 2c 0d bc e2 1e 45 bd 7e 2f 27 3d
       -0.01915861 -0.008616514 -0.048125155 0.040816776
000130 0b 93 55 3d e1 2e 12 be b4 22 51 3c 50 cf c3 3a
       0.052142184 -0.14275695 0.0127646215 0.0014939103
000140 4a 6a b9 bc 4c c2 d0 3d 03 38 49 bd 88 e2 33 bd
       -0.02263369 0.10193309 -0.049125683 -0.04391721
000150 2d dc 54 bd 0a c2 95 3d 7e 02 a3 bb 4d 5c 43 bd
       -0.05196779 0.07312401 -0.0049746623 -0.047695447
000160 e5 5f ad 3b b5 23 3d bd cd a6 17 be 96 9b da bd
       0.0052909725 -0.04617663 -0.14809723 -0.10674207
000170 6f bd f9 3c 45 c7 25 bc c9 03 53 3d 7b b0 90 bb
       0.030485837 -0.01011831 0.05151728 -0.0044155694
000180 35 4b 6e 3d 47 7a 3c bc 88 0a 1a 3b 2a 22 09 3d
       0.05817719 -0.011503763 0.0023504812 0.033479847
000190 21 ba 0d 3d 6c 6d 57 bc 8f 98 9a bd 79 3b 31 bd
       0.034601334 -0.013148647 -0.075486295 -0.04326961
0001a0 9a 22 a4 3b 52 89 0f 3d b6 48 26 bd fb ea d7 bd
       0.0050090076 0.03504307 -0.040596686 -0.10542866
0001b0 38 d4 0b be 6e 6a 16 bc 9b 9b 1f 3c 0e d0 a3 3d
       -0.13655174 -0.009180648 0.009741689 0.07998668
0001c0 8a 15 ec bd bb b1 aa bc a8 0b 74 bd a6 02 99 3d
       -0.11527546 -0.020836702 -0.05958143 0.07471208
0001d0 32 70 23 3c dd 02 1b 3d fa 0a 26 bd e1 7b f9 3c
       0.00997548 0.037844528 -0.04053781 0.030454578
0001e0 de fb 21 bd 5f 40 0c 3d 0e 33 d1 bd e5 41 5a bc
       -0.03954684 0.034241077 -0.10214816 -0.013321375
0001f0 73 64 4a 3c f0 fb 0a bd 5d 45 ee 3c 54 e8 ee bb
       0.0123530505 -0.033931673 0.02908581 -0.0072908793
000200 9d 49 01 3c 33 90 94 bb 0b 0f ba 3c 19 7d a1 3c
       0.007891086 -0.0045337914 0.022712251 0.019712972
000210 76 9d 2b bd 16 ca 8b 3b d9 07 f6 b9 13 ea 95 3d
       -0.041898213 0.004266034 -0.00046926623 0.07320037
000220 ad 64 ae 3c cd 09 4b 3d c8 6f 81 3d 51 41 36 3c
       0.02128824 0.049569894 0.06320149 0.011123971
000230 cf 6b 1b 3b 2e c3 e9 3d 1e 41 dd bc b2 3a 99 3d
       0.0023715382 0.11414181 -0.02700859 0.07481898
000240 d0 d4 65 bd 0f ab 82 3d e8 9e 4c 3d a6 6e 75 3d
       -0.056111157 0.06380283 0.049956232 0.059919976
000250 63 a8 c8 bb 17 e5 fc 3b 29 ca 33 bd 0f f3 c5 bc
       -0.006123589 0.0077177393 -0.043893967 -0.024163751
000260 69 27 e7 bc b4 39 a5 bc a7 62 a7 bb 5b be c6 3d
       -0.028217034 -0.020169117 -0.005108196 0.09704276
000270 1f 20 36 3d f8 b5 5e 3c 67 ef 05 3d ab a0 02 bb
       0.044464227 0.013593189 0.032699015 -0.0019932191
000280 28 e3 c6 3d e2 3c db bd 82 3a c0 bc 2b 43 55 3d
       0.09711295 -0.10704972 -0.023465399 0.05206601
000290 a5 d8 7e 3d 2f 1e ea bd 26 68 10 bc 51 4b 81 bd
       0.062218327 -0.11431538 -0.008813893 -0.063131936
0002a0 76 be 57 3d 70 1f ba bd c4 05 39 3c db 3b 05 3d
       0.052671872 -0.090880275 0.011292879 0.032527786
0002b0 60 ab 85 3d 68 27 03 bc 5a f7 4a bd ac 03 39 be
       0.06526828 -0.008005001 -0.0495523 -0.18067807
0002c0 a2 cd 41 bc e8 91 84 3c 0a 1e 78 3d 41 59 0f be
       -0.011828812 0.016182855 0.060575522 -0.13998891
0002d0 cc b2 bb bc 0b 47 23 3d 27 9a 96 3d 2f 27 9d 3d
       -0.022912405 0.039862674 0.07353621 0.07673489
0002e0 b0 c3 14 3c c1 3b 1e 3c 75 75 80 bc 05 96 99 bd
       0.009079859 0.009657801 -0.015681008 -0.07499317
0002f0 16 98 40 3b 86 9a 5a 3d ed ab 02 bd f6 f5 9d 3d
       0.0029387525 0.05337002 -0.031902242 0.07712929
000300 8d 82 2e bd d9 8f f0 3d cb 0c d6 bc 96 35 ab bd
       -0.04260497 0.11746187 -0.026129147 -0.0835983
000310 69 ee 56 bd 70 56 0d 3e 10 f6 00 bd e7 75 05 bd
       -0.05247346 0.13802505 -0.031484663 -0.032583144
000320 cc bd ae bc 10 1d 3f bb e5 a5 d1 3c 2e 6b 8d 3d
       -0.021330737 -0.002916161 0.0255918 0.069052085
000330 3b 3a bb 3d 51 b6 a2 39 f9 12 92 bd 86 ff 2b bc
       0.09141966 0.00031034884 -0.07132525 -0.010497933
000340 15 7b aa bd c3 d8 30 bd 75 fe 5a 3d b5 c2 70 3c
       -0.08324257 -0.04317547 0.053465325 0.014694859
000350 a4 56 2c bc eb f9 ee bc c4 2f c4 3c 4b f2 a6 bc
       -0.010518704 -0.029171905 0.023948558 -0.020379206
000360 09 e3 2d bb a9 89 64 3d fd 99 92 3d 05 bc 81 bc
       -0.0026533029 0.055795345 0.07158277 -0.015836725
000370 44 49 93 bc 02 a4 f2 bd e4 51 84 3c cf 44 c5 bd
       -0.017979272 -0.11847688 0.01615233 -0.09632265
000380 3f 08 12 3e 21 ff 8c 3d 3d ff 0b 3d d9 5a 88 bd
       0.14260958 0.068845995 0.03417896 -0.06657953
000390 3e 85 f7 38 26 6c 01 3b a8 92 7d bc c1 25 82 3d
       0.00011802696 0.00197483 -0.01547686 0.06354857
0003a0 bd 38 ba 3c 92 13 ab bd 2c ac a4 3c c8 f9 8f 3c
       0.022732133 -0.08353342 0.02010163 0.01757516
0003b0 f3 e5 4e 3c e2 f3 fa bd e5 01 e6 3d 00 24 45 3b
       0.012628066 -0.12253548 0.1123083 0.0030081272
0003c0 48 77 a9 3d 9f 77 b1 3c 91 0d 25 3d 8c 66 1b be
       0.08274704 0.021663485 0.04029614 -0.15175837
0003d0 e1 f7 66 bb 84 98 4d 3d 18 d8 8d bc 42 d8 8d bd
       -0.0035242962 0.05019428 -0.017314956 -0.069260135
0003e0 78 14 90 bc a5 2e e5 bd 2c 3e 26 bd ad 26 70 bd
       -0.017587885 -0.11190537 -0.040586635 -0.058630634
0003f0 d3 a3 97 3d bc 99 26 bd 45 f1 99 3c 10 36 87 3c
       0.07404294 -0.040673956 0.018791804 0.016505271

action_model._discrete_distribution.branches.1.bias f4 [3]
000000 f0 0c 25 be db 7d de 3d 92 6d 3b 3d
       -0.16118217 0.10863849 0.04575879

action_model._discrete_distribution.branches.1.weight f4 [3, 256]
000000 f4 6f ca 3d 64 5d 00 bc 5a 15 e5 bc e1 72 0a bc
       0.098846346 -0.007834766 -0.027964283 -0.008450241
000010 3a df e6 bc bb 00 7b 3b 4a c1 b0 3d 64 87 8c 3d
       -0.028182615 0.0038299996 0.08630617 0.06861761
000020 3b 6b b4 bd 16 15 0b 3d c7 da 53 3c ad 97 98 3d
       -0.08809515 0.033955656 0.012930579 0.07450805
000030 3f b0 cb 3c 02 6c 58 3d 20 cf 31 3e 43 a8 32 bd
       0.024864314 0.05283738 0.17364168 -0.043617498
000040 e9 e5 83 bd fb 40 c7 3d 30 e9 92 3d 05 9a bf 3d
       -0.06440336 0.09729191 0.07173383 0.09355549
000050 73 de 7a 3d c5 92 88 3d a3 7b ae bd 46 63 a5 3d
       0.0612473 0.06668619 -0.085196756 0.080755755
000060 34 a7 f2 bc 98 62 a6 bc 9b 5c 8d 3d 0a 13 0d 3d
       -0.029620744 -0.020310685 0.06902429 0.034441985
000070 d8 9c 2d be 44 83 08 bc 25 fe 41 3d b0 f6 93 3d
       -0.16954362 -0.008332077 0.04736151 0.07224786
000080 d8 72 11 3e a8 36 ae 3c 65 87 f8 3d 84 07 24 3e
       0.14203966 0.021266297 0.121351995 0.16018492
000090 63 a8 6b bd b0 ee df 3d 57 ea b0 3d 18 3b 17 bc
       -0.057533633 0.10934198 0.08638447 -0.009230398
0000a0 94 74 c8 3a b0 a1 ce bc 28 1e 24 be 5d 6b fd 3c
       0.0015293532 -0.025223583 -0.16027129 0.030934984
0000b0 58 84 27 3d 8a 06 84 bc e2 15 86 bd 2f 84 f8 3d
       0.040897697 -0.0161164 -0.065471426 0.12134587
0000c0 28 7e ab 3d 92 e1 14 be da 77 9f 3d 28 97 f5 3d
       0.08373672 -0.14539173 0.07786532 0.119917214
0000d0 79 41 d4 3b e4 b4 20 bd f0 13 21 3d c0 cb 4d 3d
       0.0064775315 -0.03923501 0.039325655 0.05024314
0000e0 0f 0c 40 39 36 92 f4 3d ed bd 01 bd 46 40 21 bd
       0.00018315039 0.1194195 -0.031675268 -0.039367937
0000f0 f2 46 f9 bc 69 4e d3 3d 71 cb 2c 3d d4 09 01 3d
       -0.030429337 0.1031769 0.042186204 0.031503513
000100 56 63 5b bb c0 be d7 3c ec 4d c7 bc d5 36 37 bc
       -0.0033475957 0.026336074 -0.024329148 -0.011182507
000110 31 2e 42 bd b3 3d 5e 3e 0e b8 86 bd 84 31 35 bd
       -0.047407333 0.21703224 -0.065780744 -0.044236675
000120 d0 2b e6 bd 52 e8 18 3d 0b a4 6b 3d 13 93 ea 3d
       -0.11238825 0.037330933 0.05752949 0.114538334
000130 d1 72 c2 3c 01 76 40 3d a6 a2 cd ba cc a5 29 3d
       0.02373639 0.046987537 -0.0015688732 0.04141788
000140 59 bd cd 3d 9b ab f1 bd 39 87 93 3c 23 6e 9d 3c
       0.10045881 -0.11800309 0.018008815 0.019217556
000150 4d e0 57 bc c5 04 8f 3c da 54 cd bc 75 d0 c2 3d
       -0.013176036 0.017458329 -0.025064874 0.09512416
000160 66 69 58 3c 97 00 81 ba a3 57 27 3e c8 a2 90 3c
       0.013208723 -0.0009842095 0.16342025 0.017655745
000170 b3 90 57 bd d2 3f bc 3c d0 5d 93 bc 18 ec b1 bd
       -0.05262823 0.02297965 -0.01798907 -0.086876094
000180 d1 30 97 bc 05 01 ab 3d 16 8a 24 3d 4a 83 6d bd
       -0.018455895 0.08349804 0.04017075 -0.057986535
000190 18 03 b7 bc 77 8a 7d bc 00 c4 a1 3d 35 d4 d6 3d
       -0.022340342 -0.015474907 0.07898712 0.10489694
0001a0 9c bf e5 3d 9b 7f c2 3c e2 d4 ac 3c 42 61 7b 3d
       0.11218187 0.023742488 0.021097604 0.06137205
0001b0 f3 ff d0 3d b3 b1 56 bd ba 48 06 3e 5b ee 18 3d
       0.102050684 -0.05241556 0.1311368 0.03733669
0001c0 e1 e3 77 bc e1 cc 89 bc 5f af 98 bc e2 04 1c 3d
       -0.015130014 -0.016821327 -0.018638311 0.038090594
0001d0 91 2c 78 bd 2e bd 09 3d 31 f5 b5 bc 90 b2 2c bc
       -0.060589377 0.03362768 -0.022211643 -0.0105406195
0001e0 fe db d3 bd 5e b1 ca bd 1d b1 7c 3d 6d ec 36 bc
       -0.103446946 -0.09897111 0.061692346 -0.011164767
0001f0 d5 d9 3e 3d 7d 68 ac bb 2a 05 1c bd d4 03 1c bc
       0.04659446 -0.0052614794 -0.038090862 -0.009522397
000200 cd 06 23 bd ed dd d0 bc a3 8d b8 bc 0e 38 ab 3d
       -0.039801408 -0.025496447 -0.022528475 0.08360301
000210 0e 6d e3 3b b9 ae 48 3e c1 c7 8c 3d 80 42 1d 3c
       0.0069404906 0.19597901 0.068740375 0.009598374
000220 7f 65 02 bd 82 7e 26 3d 7c fd a0 3d e6 7c 44 bd
       -0.031835075 0.04064799 0.07860848 -0.047970675
000230 f7 20 5b 3d e8 f6 0a bd 05 25 cb 3c 55 66 9e 3d
       0.053498235 -0.033926874 0.024797926 0.07734362
000240 41 89 9a 3d a0 f5 60 3c dc 87 0f bd 0d e2 9a bd
       0.0754571 0.013730437 -0.035041675 -0.07562647
000250 a6 a0 0e bd ea a0 bc 3b ba 59 2c bd b5 9a 93 bd
       -0.034821175 0.005756487 -0.042077757 -0.072072424
000260 f9 72 23 3c bf a0 be bd 3b 81 29 bd ae f0 37 bd
       0.009976142 -0.09308004 -0.04138301 -0.044907264
000270 a0 69 da bb b2 dd d6 3c 7f 28 cf bc 09 5a 6c 3c
       -0.0066654235 0.02622876 -0.025287865 0.014425763
000280 a1 05 07 3d 21 ff ad 3b b2 cc 34 bb 7c 88 c7 bd
       0.032964353 0.0053099548 -0.0027587828 -0.09742829
000290 66 f7 ad 3d 12 19 49 bd 6a 20 3d 3d e2 da d4 3c
       0.08494453 -0.049096175 0.04617349 0.025983278
0002a0 69 b5 0e 3d 5b 01 37 bd be dc e7 3d c1 79 c2 3b
       0.034840975 -0.044679027 0.113214 0.0059349244
0002b0 a4 18 ad 3d 2b 16 d6 bc bf d4 79 3d d7 83 9b ba
       0.084519655 -0.026133617 0.060993906 -0.0011864853
0002c0 7f d7 98 3d db 22 96 bd ea 60 92 3d a6 da b9 3c
       0.074629776 -0.07330867 0.07147391 0.022687268
0002d0 f3 64 c9 3c 33 19 ff b9 3b 70 60 bd b9 d0 ac 3d
       0.02458427 -0.00048656165 -0.05479453 0.08438248
0002e0 d4 90 81 bd 99 4b fe bd 90 25 50 bc 3a a6 3f 3d
       -0.06326452 -0.12416763 -0.012704268 0.046789385
0002f0 ef 30 91 bd 9e ce a6 3c 1e 37 28 3d 78 91 ad 3d
       -0.070894115 0.020362195 0.04106819 0.084750116
000300 2b e1 39 3d 9d c1 c1 bc a4 04 7c 3c be 53 f0 bc
       0.045380753 -0.023651892 0.015381966 -0.029336806
000310 5b 31 7d 3d 63 46 c4 bc 74 d8 3c bd e6 7b 9b bc
       0.061814647 -0.023959344 -0.046104863 -0.018979978
000320 25 5d a1 3c ca 57 5f bd 46 a1 67 3d 18 b2 aa 3d
       0.019697735 -0.05452708 0.056550287 0.0833475
000330 93 17 1d 3d f3 fc 40 3d 23 b4 aa bd b3 06 da 3d
       0.03835256 0.04711623 -0.083351396 0.10645809
000340 6c 95 b8 3d a3 52 03 bd a8 6c 5b bc fb 23 e6 3d
       0.09012875 -0.03206123 -0.013392605 0.112373315
000350 03 fd da 3d 79 16 c6 3d ae 55 a6 bd ec ce d0 3c
       0.106927894 0.09672255 -0.08121811 0.025489293
000360 88 bd ca 3b 6f 16 a2 3d e8 66 b7 3c 74 9e ec 3d
       0.0061871447 0.07914435 0.022387937 0.1155366
000370 cf 1e 91 3d ef 7d 14 be aa 56 53 bd 89 6c 25 bc
       0.070859544 -0.14501165 -0.05159632 -0.010096678
000380 82 1c a6 3d ef 59 9c 3d f5 52 c4 3c e8 c1 c4 3a
       0.08110906 0.07634341 0.023965338 0.0015011402
000390 1e f8 e6 3d db 73 cd bd b4 be b3 3d 22 32 dd 3d
       0.11277793 -0.10031863 0.08776608 0.10800578
0003a0 1d 58 39 bc 4b e2 c8 3d 91 44 be 3c 1c 9e dd 3d
       -0.011312512 0.09808787 0.023226054 0.108211726
0003b0 ba c7 6e 3d b9 0a a1 bc 93 41 2b bd ed 4a 54 bc
       0.058295943 -0.019658433 -0.041810583 -0.012957317
0003c0 ad ce d1 bc 14 9f 25 bd 38 2c 14 3d ca b3 d3 3d
       -0.025611246 -0.04043491 0.036174983 0.103370264
0003d0 8d 2a 7b bc ea f5 c1 3b 6b 69 4f be 2f 7f 3e bd
       -0.015329969 0.005919208 -0.20255058 -0.04650801
0003e0 5a 27 0c 3e 04 fe 05 3d 5f d2 9c 3d ee 88 94 3d
       0.13686886 0.03271295 0.076573126 0.0725268
0003f0 31 cb 6a 3d c1 a5 4c 3b a4 bb ff 3c 74 b3 77 bd
       0.057322685 0.0031226727 0.031217404 -0.060473874

action_model._discrete_distribution.branches.2.bias f4 [3]
000000 5a 3a 90 3d 80 f7 57 bc 92 bb 7f bd
       0.0704238 -0.013181567 -0.06243474

action_model._discrete_distribution.branches.2.weight f4 [3, 256]
000000 69 07 cb bb 34 90 38 3e 2d dc 94 3c e0 83 43 bc
       -0.0061959517 0.18023759 0.018171394 -0.011933297
000010 21 73 0d be b3 3b 8e bd 4d 12 d3 3d 80 ca 36 bd
       -0.1381345 -0.069449805 0.10306225 -0.044626713
000020 8a fb 28 bb e1 19 94 bd 1b 54 64 3d d3 97 98 3d
       -0.0025784695 -0.072314985 0.05574427 0.07450833
000030 56 5a ff bd b2 eb 2a 3d 10 20 80 3d 11 c2 b1 bd
       -0.12468402 0.041728683 0.062561154 -0.08679593
000040 de c3 f7 bd 0d bd a9 3d dd f9 b7 3d 32 db a8 3c
       -0.120979056 0.08288012 0.089832045 0.020612333
000050 c9 cf 55 3d 32 df bd bd 1c 23 4c bd 74 a8 7d 3d
       0.052200112 -0.09271087 -0.04983817 0.061928228
000060 78 b1 9b bc 7b c1 34 bd fd fa 2f 3d 2f e3 82 bd
       -0.019005522 -0.04412983 0.04296397 -0.06390988
000070 5e 59 60 3c 59 5a 97 3b c8 83 cc bd 89 5e 4a bd
       0.013693182 0.0046189246 -0.09986073 -0.049406562
000080 55 7a e6 bd 3a c7 d9 bd 91 21 be 3c 0d b3 62 3d
       -0.11253802 -0.106337026 0.023209365 0.055346537
000090 c1 1c d3 bd 87 29 96 bc 7b 8a 02 be dc 16 50 3c
       -0.10308219 -0.018330349 -0.12748139 0.012700763
0000a0 8d cc e3 bc 05 3d 1b be ac 0d 3e bd 0d 7d 9b bd
       -0.027807498 -0.15159996 -0.046399757 -0.07592211
0000b0 4b 00 51 bd 33 87 17 be df e8 69 3d e2 92 03 3d
       -0.05102567 -0.14797668 0.05710685 0.0321225
0000c0 42 09 37 3c 1c ae 06 bd 2c 48 83 3d 58 f2 a4 bc
       0.011171641 -0.032880887 0.0641025 -0.02013509
0000d0 f0 0c e1 bc 7f aa 5d bc 48 cc 6c bd ba 64 0c bd
       -0.02747199 -0.013529419 -0.057812005 -0.034275748
0000e0 ef 77 08 3d c7 f7 b7 3c bc ba 0d 3d 83 85 ea bc
       0.033317503 0.022457017 0.034601912 -0.028628116
0000f0 b6 73 01 be 2b 9e 6b 3b b8 e8 00 be 24 2b 1c bd
       -0.12641796 0.003595243 -0.12588775 -0.03812708
000100 23 ed ae 3d 3f 41 23 3c e5 16 be 3c 0e 4b e1 bd
       0.08541324 0.009964286 0.023204276 -0.11000644
000110 c6 c6 5c bd be 3a 47 3d f3 91 0f bd 4c de 5a bc
       -0.053900503 0.048640005 -0.035051297 -0.013358664
000120 d6 98 fc 3d 58 69 8a bc ba ad 51 bc ee 3b 3c bc
       0.12333839 -0.016895935 -0.012797767 -0.011488898
000130 cf 4d db 3d 57 29 77 bc b1 fc b8 bd 57 6e 1f be
       0.107082 -0.01508554 -0.09032572 -0.15569435
000140 90 ff 63 bd 06 de 93 3c 7c 07 1e bc 31 ef 1e 3e
       -0.055663645 0.018050205 -0.009645339 0.15520932
000150 4f 46 a8 3d 5e 66 89 3a 94 d9 b6 bc 52 09 c7 bc
       0.08216535 0.0010482778 -0.022320546 -0.024296436
000160 4f 33 4f 3d a9 04 f0 bc 4e 99 7c 3d 9c b4 9e 3d
       0.05058604 -0.029299097 0.06166964 0.07749292
000170 82 bf c6 bd 7a e4 9c 3d 58 71 9f 3a 42 a5 60 bd
       -0.09704496 0.07660766 0.0012164516 -0.054845102
000180 8f 78 da bc 81 37 00 bd a9 31 2e bd 18 6b 28 3d
       -0.026668815 -0.031302933 -0.04252783 0.041117758
000190 8a 0e 93 bd 77 eb bf 3d 31 86 3a 3d 6d 6b 95 3d
       -0.071805075 0.09371083 0.04553813 0.072958805
0001a0 03 54 d0 3c 54 cc 90 bd 59 aa 9f bc 89 e4 86 bd
       0.025430685 -0.070702225 -0.019490408 -0.06586558
0001b0 e7 89 c3 3d a9 bf a8 3c 5b a0 ae bd 90 8a 55 3d
       0.09547787 0.020599203 -0.08526679 0.052134097
0001c0 1a 27 19 3e a3 a0 a4 bd e4 84 9b bd 8a 78 a6 3d
       0.14956322 -0.080384515 -0.07593706 0.0812846
0001d0 90 70 36 3c 47 20 f4 bd d8 f3 57 3d 3f c0 2f bd
       0.011135235 -0.11920219 0.052722782 -0.04290795
0001e0 03 7b b4 3d cb bd a7 bc a8 cb fe bd fc ca 9c bd
       0.08812525 -0.020476243 -0.12441188 -0.07655904
0001f0 57 5d a6 bd 26 e0 22 3e 5e f1 10 be 52 91 f9 3d
       -0.08123272 0.15905818 -0.14154574 0.12185921
000200 e6 85 b7 3c 51 ec bb bc 51 6c a1 bb 29 41 cb bc
       0.022402715 -0.022939833 -0.0049262424 -0.024811344
000210 21 83 2f bd a6 a3 21 3e 2d 6a 23 bd 75 2c c6 bd
       -0.042849664 0.15785083 -0.03989618 -0.09676448
000220 04 c0 0e 3c 13 ec 13 bd e9 07 87 bd b2 e6 0a 3d
       0.008712772 -0.03611381 -0.065933056 0.033911414
000230 22 21 32 3d 6a a3 ed bd f3 4a fe 3d 41 2f 80 bc
       0.04348863 -0.116034344 0.12416639 -0.015647532
000240 1d 5c c8 3d 2a 02 8c 3b 27 6e f5 bd 5d 3b 9a bc
       0.09783194 0.004272719 -0.119839005 -0.018827135
000250 86 70 e3 bc 11 7c 87 3d ab ff 1a be e3 c8 88 3c
       -0.027763616 0.06615461 -0.15136592 0.016697353
000260 e9 a4 8c 3d 74 ee fe bc 6e 46 3e 3d 6a d1 f8 bb
       0.068673916 -0.031119563 0.046453886 -0.0075933235
000270 d0 29 3c bc 83 b1 4e 3d 7d 98 69 3d 37 60 db bd
       -0.011484578 0.050462257 0.05703019 -0.10711711
000280 30 3b 1a bd e6 57 e2 bb 2f ef 01 bd 53 85 2a 3d
       -0.0376541 -0.006907451 -0.031722244 0.041631054
000290 26 81 c0 bc 5b 65 f2 bc 81 b4 36 3c 1d ac 8d bc
       -0.023499083 -0.029589346 0.011151434 -0.017293984
0002a0 9e 7d 09 3d f4 51 b9 3b 0b de e5 bc 3d 71 a7 bd
       0.033567064 0.0056555215 -0.02805998 -0.08175895
0002b0 42 5b 2e bd 42 6f 26 3a 58 b8 1d bd d5 c2 dc 3d
       -0.0425675 0.0006348976 -0.038505882 0.10779349
0002c0 40 86 ee bb b7 27 20 bd b8 7a e3 bc 8d fd d9 bb
       -0.0072791874 -0.039100375 -0.027768478 -0.00665254
0002d0 bc a4 fd 3c e5 65 b2 bd 8a 56 9b bd 68 de b1 3c
       0.03096234 -0.08710841 -0.075848654 0.021712497
0002e0 0a bf db 3b 0a 18 77 bd 3a db 96 bd 72 d5 d0 bc
       0.0067061232 -0.06032566 -0.07366033 -0.025492404
0002f0 fa 18 da bc c6 bd a8 3d 11 2c f3 bd f9 99 4f 3d
       -0.026623238 0.082393214 -0.118736394 0.05068395
000300 b4 da 86 bc 65 e3 33 bd 9f b1 a5 3d da 19 42 bc
       -0.016461708 -0.043918032 0.08090519 -0.011846984
000310 63 da ac 3d dd cc d0 bb ad 41 99 bd fe c5 d7 3d
       0.084400915 -0.006372078 -0.0748323 0.10535811
000320 3b 21 27 bd a8 78 3d 3b 11 6e 5c 3d a6 b6 9a bc
       -0.040803175 0.0028911028 0.053815905 -0.018885922
000330 cf 96 8b bb 4c 7c 7a bd a9 87 8b bd 7b 66 5a bd
       -0.004259921 -0.061153695 -0.068129845 -0.05332039
000340 9a 07 48 3b e7 a6 1c 3b ba 9d 95 bd b6 40 e1 bb
       0.003052211 0.0023903192 -0.073054746 -0.006874169
000350 32 ed 7b 3b 8e 9c 7e 3b 11 d7 98 bc a6 e8 68 bd
       0.003844094 0.0038850638 -0.01865724 -0.056862496
000360 77 41 30 bd 27 03 ab bd 50 9c 3b bd bb 15 cb bc
       -0.043031182 -0.08350211 -0.045803368 -0.024790635
000370 8b 50 e3 3c 98 c8 3c bd c0 2d 6f bd 67 3d 0c 3e
       0.027748367 -0.04608974 -0.05839324 0.13695298
000380 fb b7 83 bc 3d c4 9d bd 2b 27 1f 3d 7a aa 37 bd
       -0.01607894 -0.07703445 0.038855713 -0.044840313
000390 f6 b4 71 bd 3e 8e 69 3c 6e 60 ce 3c 1f 25 09 bd
       -0.05901047 0.014255105 0.025192466 -0.033482667
0003a0 e4 6e bd 3d db 06 f1 bd 2e 95 07 bd 0f a1 ae bd
       0.09249666 -0.11768886 -0.033101253 -0.08526813
0003b0 bc 40 d1 3d 37 58 5b 3d 5d 10 62 b9 1f 88 22 3d
       0.10217425 0.053550925 -0.00021559135 0.039680596
0003c0 3e c6 de bd 79 bf 3d 3d 93 70 d6 3c 00 47 27 bc
       -0.108776554 0.04632518 0.026176726 -0.010209799
0003d0 5b fe 1c bd 2e 79 b7 bd c7 90 e2 bc d2 a1 b7 3d
       -0.03832851 -0.0895866 -0.027656926 0.08966412
0003e0 69 ca 05 bd 85 13 89 3c 24 e6 cb 3d c9 0d 8e 3d
       -0.032663736 0.01673294 0.09956005 0.06936223
0003f0 69 77 31 be 55 48 2c bb 33 02 50 bd 0c 0d 0b 3d
       -0.17330708 -0.002628823 -0.050783347 0.03394799

action_model._discrete_distribution.branches.3.bias f4 [2]
000000 d7 e9 81 bc de e9 81 3c
       -0.015858574 0.015858587

action_model._discrete_distribution.branches.3.weight f4 [2, 256]
000000 05 08 57 bd fb ba c0 3c 9d f7 91 3d ad 75 ea bc
       -0.052497882 0.02352666 0.071273066 -0.028620565
000010 f0 6b c7 bb e6 36 d1 bc 09 6e 32 bd e9 d4 eb 3b
       -0.006085865 -0.025538873 -0.04356197 0.0071970117
000020 86 31 8d 3a fe ba f0 3c ad 34 b6 bd ac 59 bb bd
       0.0010772205 0.02938604 -0.08896766 -0.09147963
000030 73 7d 9d 3d d7 ec 64 3d 1a 5d dd bd a6 41 69 3d
       0.07689943 0.05588993 -0.10808773 0.056947373
000040 83 1b f0 3c a0 2e cc 3d c9 29 05 bc 62 6e 5c 3c
       0.029309994 0.099698305 -0.008127638 0.013454052
000050 5c 3b a4 3c 95 22 d6 3c fd 8e 26 bc ea fc 52 3d
       0.020047836 0.026139537 -0.010165927 0.05151073
000060 86 a8 cd bb 29 65 ed 3c 6d 05 e9 bb e3 05 2d bd
       -0.006276193 0.028978901 -0.0071112425 -0.042241942
000070 f3 9f ad bd d6 b1 88 bc f7 68 6e bd 5e 4d 22 bd
       -0.084777735 -0.016686361 -0.05820557 -0.039624564
000080 e1 b5 8d bd c2 c1 aa bd 65 45 90 bd 16 15 4c 3d
       -0.06919456 -0.083377376 -0.07044486 0.049824797
000090 75 88 a2 bd 6b c4 30 bc be e5 48 bc 68 26 ff bc
       -0.07936183 -0.010789017 -0.012261806 -0.031146243
0000a0 b4 8b 5e bd cb 4c 43 3d de b0 01 bd 7b 3b 47 bd
       -0.05433245 0.047680657 -0.031662814 -0.04864071
0000b0 b2 16 01 3c 74 d2 8e 3c d6 be 57 bd a0 94 58 bd
       0.007878946 0.017434336 -0.05267223 -0.052876115
0000c0 16 70 d8 3d f1 35 32 bd 50 79 dd bc fc e1 a0 bd
       0.10568254 -0.043508474 -0.027035385 -0.07855603
0000d0 1e 27 26 bd 77 7d 39 bd 92 15 35 bd e4 e5 70 3d
       -0.04056465 -0.04528567 -0.044210024 0.05881299
0000e0 c0 ea 77 3d 7e 8b a9 bd b9 16 36 3d 19 06 bf bb
       0.06052661 -0.08278559 0.044455264 -0.0058295843
0000f0 a7 a1 ab 3d 80 cc 22 bd b7 0a f4 3c 1f 62 a3 3d
       0.08380442 -0.039745808 0.029790265 0.079776995
000100 be 36 11 3d 58 3f 19 bd 58 d4 ae 3c 03 0d 24 bd
       0.035452597 -0.037413925 0.021341488 -0.04005147
000110 49 17 16 3d b1 3d 9e bb 6b d5 d0 3b 2f 89 e7 bd
       0.0366433 -0.0048291315 0.0063730977 -0.113054626
000120 aa 74 fc 3a 81 2b 34 3b 15 8e 0a 3d 8b f2 30 bd
       0.0019260843 0.002749175 0.033826906 -0.043200057
000130 50 41 2e 3d c2 01 c3 3d df 5d d4 3c ba 9d ce 3b
       0.042542756 0.0952182 0.025923667 0.0063054236
000140 97 53 19 3c 52 81 0c bd 47 77 fd 3c 05 f2 56 3c
       0.009358308 -0.034303017 0.030940665 0.013119225
000150 8c 83 a0 3c f4 0c 01 bd f4 82 8c 3d df 40 b9 3c
       0.019593976 -0.031506494 0.06860915 0.02261394
000160 c7 70 4e bb 82 fa 97 bd a3 9f 18 bd bd 65 ea bc
       -0.0031500326 -0.074208274 -0.037261616 -0.028612966
000170 39 0d 2f 3d 3d 0d 62 bd 93 52 bc 3c 1e c5 16 bd
       0.04273722 -0.055188406 0.022988593 -0.03680908
000180 a6 04 8c bd 17 e1 1e bd f7 10 4f bc 85 20 98 bc
       -0.06836824 -0.03878888 -0.012638322 -0.018570194
000190 3d 97 87 3d 67 77 2c bd ad 66 c1 3d 29 56 c2 bc
       0.06620643 -0.04210606 0.09443412 -0.023722725
0001a0 46 d4 a6 3c 09 62 8d 3c 8c 1b 0a bb 02 cd e5 bc
       0.020364892 0.01725866 -0.0021073548 -0.028051857
0001b0 67 0f 4a bd c7 0a 88 bb fa 0d e9 bc 0d 9e d4 3c
       -0.049331095 -0.0041516754 -0.028449047 0.02595427
0001c0 a0 cb 8d bc 23 f6 0b bd 96 20 0c bd 57 13 d0 bc
       -0.01730901 -0.03417028 -0.034210764 -0.025399847
0001d0 27 a8 23 bd 45 0e c7 3c 66 fe 60 bd cf cd 49 bd
       -0.039955284 0.024298796 -0.054930113 -0.04926854
0001e0 69 15 e6 3a a9 81 eb bc 6f 6e 81 bd 1e 7a 5e bc
       0.0017553988 -0.02874835 -0.06319892 -0.01357892
0001f0 61 b6 6c bd 86 1b 96 bc 5e 01 ce 3b a4 30 89 3b
       -0.057791118 -0.018323671 0.006286784 0.0041867066
000200 0c 9c d0 3c ce 51 ed 3c 35 27 10 bd b7 ee b0 bd
       0.025465034 0.028969672 -0.03519364 -0.08639281
000210 6c bc 1c bd 63 50 2b be 26 4a 0f 3e 56 13 f2 3b
       -0.03826563 -0.16729884 0.13993129 0.007387559
000220 2b 64 3a 3d 84 36 5a 3b f8 44 6c bc 3e 79 09 3d
       0.045505684 0.0033296654 -0.01442074 0.03356289
000230 c5 5c 96 bd 22 3c 2c bd 0b 4d 33 3d 2f 69 7c bd
       -0.07341913 -0.042049535 0.043774646 -0.06162375
000240 39 ab 37 bd 71 71 ae 3c 75 30 92 3c 09 e0 20 3c
       -0.044841025 0.021294327 0.017845372 0.009819039
000250 42 b5 83 bd b8 06 e6 3d f3 3d 25 bd 88 a9 69 bc
       -0.064310566 0.1123175 -0.040342283 -0.014261611
000260 3e fa 94 bd 0c 8c 88 bd da e3 2c bd 22 33 2a bd
       -0.072742924 -0.06667337 -0.042209484 -0.04155267
000270 6a 3d bd 3d 94 7d 32 bd 48 0f 54 3d b5 c8 9f 3d
       0.092402294 -0.043576792 0.051772386 0.07801954
000280 ed 41 77 3c 3e c3 3b bc e0 3c 2f 3d 41 2d 8c bc
       0.0150914015 -0.011460124 0.042782664 -0.017111422
000290 7c d3 81 bd 0c bb 81 bb 11 e1 c2 3d eb e9 8b 3d
       -0.063391656 -0.0039590653 0.09515584 0.06831726
0002a0 7b 95 19 bc ee 45 77 bd 35 14 59 3d f8 19 96 3d
       -0.009374018 -0.060369425 0.052997787 0.07329172
0002b0 28 cf 83 bd 1b e4 0d bd 1f ad 3e 3b f8 2a 07 3d
       -0.06435996 -0.034641366 0.0029094887 0.032999963
0002c0 93 59 73 3d f6 18 da 39 7f 58 5f bd fb 22 95 3c
       0.059411597 0.00041598798 -0.054527756 0.018205157
0002d0 4c 5a ba 3b 57 fe 31 bd 31 4c 23 bb 0a e3 9c bc
       0.0056870338 -0.043455448 -0.002491724 -0.01915123
0002e0 a4 b8 3b bc ce 80 9f 36 9d 0f 59 bd ca 44 f4 bc
       -0.011457596 4.753564e-06 -0.052993406 -0.029817957
0002f0 a9 0f 3a 3b 52 77 47 bb 9f 83 47 3d 4c 80 cc 3c
       0.0028390682 -0.003043611 0.048709508 0.02496352
000300 fa ea e3 3c c1 b7 c6 3b e3 c2 54 3d 0e 0a 3f 3d
       0.027822006 0.0060643856 0.05194367 0.04664045
000310 24 aa 3b bd 2f 2e 81 bd 43 1e 7d bd 07 62 26 bc
       -0.045816556 -0.06307637 -0.061796438 -0.0101552075
000320 b5 8b 46 3b 0e 91 1b bd 3a e0 14 bd 80 19 07 3e
       0.0030295674 -0.03798013 -0.03634665 0.13193321
000330 e2 39 f3 bb 1d 4e ec 3b c8 a0 c8 3c bd 68 25 bd
       -0.0074226717 0.0072114603 0.024490729 -0.04038309
000340 26 d3 5d ba 9b 65 92 3c 5d 83 b9 3c 45 8e 26 3d
       -0.00084619445 0.017870715 0.022645647 0.040663023
000350 c5 27 af bd b6 af 46 3b f1 0d d5 3c 52 0a 95 3d
       -0.08552507 0.0030317134 0.026007624 0.07277359
000360 e9 ca ac 3d b8 d2 c6 bc 7d b2 ba bb 09 4b a9 bc
       0.084371395 -0.0242704 -0.005697547 -0.020665662
000370 f2 02 06 bd 5e 3d d3 bc 59 83 aa bd 4d 54 db bc
       -0.032717653 -0.025786098 -0.08325834 -0.026773596
000380 f9 c4 ba 3c e9 9f 23 3d 4d aa 23 bd 05 ac ee 3c
       0.022799002 0.039947424 -0.039957333 0.02913476
000390 3d 0a 91 3d fa 7a 0b 3d 9f f2 22 bc ed 8e ca bd
       0.07082031 0.034052826 -0.009945541 -0.09890542
0003a0 97 97 86 bc 1e fc c7 3c 15 b8 2c 3b 04 e8 25 3d
       -0.016429706 0.024412211 0.0026354839 0.04050447
0003b0 61 fe 41 bd 6c f2 38 bd 48 4f e6 3c 0c 5e 3a 3c
       -0.047361735 -0.045153067 0.028113976 0.011374962
0003c0 aa be b9 3c 00 7b af b9 e5 4c 41 3d 28 b0 10 bc
       0.022673924 -0.00033470243 0.047192473 -0.008831061
0003d0 c7 c1 99 3d 31 af 0b bd 4f 00 15 bd ec 1a 43 bc
       0.07507663 -0.034102622 -0.036377247 -0.011908274
0003e0 53 f5 46 bd 01 d7 a0 3d 9b 3a c5 bd f2 58 4e 3d
       -0.048573803 0.07853509 -0.09630319 0.050377794
0003f0 d6 5b 78 bc 89 28 a7 3b dc d5 77 3c 47 b3 2e 3d
       -0.015158614 0.0051012677 0.015126672 0.04265144

action_model._discrete_distribution.branches.4.bias f4 [2]
000000 b8 3a 3f bd b1 3a 3f 3d
       -0.046686858 0.04668683

action_model._discrete_distribution.branches.4.weight f4 [2, 256]
000000 62 e6 2f bc 72 11 d4 bb 62 7e bd bc 8d 90 c8 3c
       -0.01073608 -0.006471806 -0.023131553 0.02448299
000010 07 08 6d 3d 9e a4 f4 3d 6a 55 85 bd 3a 93 58 3c
       0.057868984 0.11945461 -0.06510432 0.013218695
000020 15 cb 16 bd 9c 82 28 bc 42 2a 70 bd d4 dd 2a 3d
       -0.036814768 -0.010285046 -0.05863405 0.041715458
000030 a7 20 c7 bc 1e 59 ac 3c 2f 0c cc 3d 9d 0f e9 3d
       -0.024307562 0.021038588 0.09963261 0.11379931
000040 ff ba 13 bd 5f 0c 37 bd ff ac 45 bd 2b c0 d4 bb
       -0.036067005 -0.044689532 -0.048260685 -0.006492635
000050 49 87 32 bb 84 50 00 bd 81 27 ba 3d ee e1 ec bd
       -0.002724128 -0.031326786 0.09089566 -0.1156653
000060 66 6a f5 3a ff f9 8c 3c f7 d0 1d 3d de 5a 51 bc
       0.0018723726 0.017209051 0.038529363 -0.012778012
000070 a8 75 9b bd b5 8e 81 bd 86 9b 3e 3c 4f 97 9b 3d
       -0.075908005 -0.06326047 0.011633759 0.07597219
000080 75 06 fd 3c e8 60 53 3d f5 d9 2d 3d 3b 88 1a ba
       0.030886868 0.05160609 0.04244419 -0.0005894934
000090 a8 bb bb bc a7 fa 16 3d 15 fb 5b 3c 88 19 5e 3d
       -0.02291663 0.036860134 0.013426562 0.054223567
0000a0 09 04 5a bd 86 12 13 bd 6a ff 6e bd f4 44 87 3d
       -0.053226504 -0.035906337 -0.05834905 0.06604949
0000b0 73 ad 41 3d 5f 98 f9 3d 6d 1f a2 3d 57 a4 4d 3d
       0.047284555 0.121872656 0.0791615 0.050205555
0000c0 e0 9f 62 bd c8 a8 c2 3d 04 7a 04 3d ef 44 18 3d
       -0.05532825 0.09504849 0.032342926 0.037175115
0000d0 3f 53 a9 bd 2b 79 9c bd b0 42 b3 3d 7c 71 99 3d
       -0.08267831 -0.076402985 0.08752954 0.074923486
0000e0 6c 34 64 3c 7c 4b 84 3d e5 1c 0c 3d 43 e5 ff bc
       0.013928514 0.0645971 0.034207243 -0.03123725
0000f0 bc ac 6f bd 1b 72 39 3d 03 5a 61 bd c8 28 da 3d
       -0.05851434 0.045274835 -0.055017482 0.1065231
000100 21 cb a5 bc e3 78 57 3d 14 9d 2e bd 10 bb 47 bc
       -0.020238461 0.05260552 -0.04263027 -0.012190595
000110 07 47 23 3c 5d ab fd 3c b1 ab 23 3b bb 0a ab bc
       0.009965665 0.030965501 0.0024974162 -0.02087914
000120 d9 74 f4 bb 53 db 59 3d e7 97 5c bd e8 29 50 bd
       -0.0074602184 0.05318768 -0.053855803 -0.050821215
000130 63 65 04 bd da 98 c9 bc 44 7d 99 3d 5c 22 41 bc
       -0.032323252 -0.024609018 0.07494596 -0.011787977
000140 a8 6d df 3d 2c 43 8a 3d 88 0b b9 ba d9 b0 b5 3c
       0.10909587 0.06751093 -0.0014117816 0.022179054
000150 da 6e 54 bb 39 6f ad 3d 57 31 75 bb 77 d7 69 bd
       -0.0032414705 0.0846848 -0.0037413442 -0.05709025
000160 33 fa 11 3d 36 ee a3 3d d3 d1 cb 3c 08 e3 43 bd
       0.035639 0.080044195 0.024880325 -0.047823936
000170 7a 47 3c 3d 4c 44 97 bd 86 37 05 bd b0 07 37 3d
       0.045966603 -0.073860735 -0.032523654 0.044685066
000180 d2 a9 6a 3d 26 7a 58 bd 86 6a 03 bb a9 95 26 bd
       0.05729086 -0.052850865 -0.0020052507 -0.04067007
000190 d8 f8 ab 3d 80 57 02 bc f2 6a 56 bc ae 9a ae 3d
       0.083970726 -0.007955432 -0.013087021 0.085255966
0001a0 77 a1 08 3d e4 47 d8 3d e4 f1 73 3d 3c 03 96 3d
       0.03335711 0.10560587 0.059556857 0.07324836
0001b0 33 83 5c bd f5 cc 8c 3d fd 80 8b 3d cd db 30 3c
       -0.05383606 0.0687503 0.06811712 0.010794592
0001c0 48 a8 b5 3c 96 08 bf 3d 91 0d 55 3d 7c 08 02 bd
       0.02217497 0.093278095 0.05201489 -0.031746373
0001d0 7c 18 1f 3d 2f 91 5e 3d 55 4d 8e bb e8 2b b3 3c
       0.03884171 0.054337677 -0.004342715 0.021871522
0001e0 44 5e 7d 3d 97 9c 46 bd 8b 9d b9 3d a1 f5 f4 3d
       0.061857477 -0.04848918 0.09063252 0.119609125
0001f0 62 41 57 3d d8 0e f5 3b e7 8b b8 37 48 39 58 3d
       0.05255259 0.007478576 2.1999656e-05 0.052789003
000200 10 3e 0c bc 0d e9 9b 3d 7e 30 f7 bd e1 b6 75 3d
       -0.008559719 0.0761281 -0.12069796 0.05998886
000210 f5 14 20 bc 8c b6 5d 3d ef cf 7f bd 29 6e 19 3d
       -0.009770622 0.05412917 -0.06245416 0.037458573
000220 df 10 12 3d b2 d6 02 3d ab b8 28 bd e9 c3 83 3d
       0.03566062 0.03194303 -0.041191738 0.06433851
000230 c7 7f ae 3d 7d 2a 86 bd 0e c4 1d bd 64 9e 87 3d
       0.08520465 -0.06551073 -0.03851705 0.066220075
000240 6b 29 c8 bc e5 2d ac 3c 19 06 bd bc 50 c8 dc bd
       -0.024433812 0.021017978 -0.023074197 -0.10780394
000250 d1 ab cf 3c fa 35 5c bc 16 8c f0 3d a8 d5 82 bd
       0.025350483 -0.013440603 0.11745469 -0.06388408
000260 4f 7b 2e 3d d2 d5 7d 3d 0c 89 b6 bc 62 1d c5 bc
       0.042598065 0.061971493 -0.022282146 -0.024061862
000270 61 ba 54 3d f0 52 93 3d e7 06 33 3d 12 55 be ba
       0.051935557 0.071935534 0.043707754 -0.0014521203
000280 67 ab a8 3c fb 10 12 bd ad 56 a3 3d 89 7d 06 3c
       0.020589544 -0.035660725 0.079755165 0.008208641
000290 5a 54 96 3b 5b 9a 10 3c 59 06 8e 3d 32 9b cd bc
       0.004587692 0.008825864 0.069348045 -0.025098417
0002a0 00 ee c0 3d 91 1b 70 3d 5d 01 c1 bd ca a4 8a 3c
       0.09420395 0.05862004 -0.09424088 0.01692428
0002b0 05 fd 59 3d 0a f5 02 3e 90 80 29 3c 15 35 62 bd
       0.053219814 0.12788787 0.010345593 -0.055226404
0002c0 2d d7 50 bd 72 99 39 bc 28 8c 90 bc d1 e7 ba bc
       -0.050986458 -0.011328088 -0.017644957 -0.022815617
0002d0 c5 ba f8 bc 2e b6 09 3e e2 4d 14 be f8 23 cb 3b
       -0.030362496 0.13448402 -0.14482835 0.006199356
0002e0 db 08 4f bb 14 bb 23 bd 2f 6f f5 3c 9d a0 00 be
       -0.0031590972 -0.039973333 0.029960243 -0.12561269
0002f0 ca fa 79 3d e1 cd c7 bd c4 a6 4a 3c 3c f0 33 bd
       0.061030187 -0.09756065 0.012368862 -0.043930277
000300 0f de 0b bd cc 6c 89 3d ff 02 b5 3c 34 e6 89 3d
       -0.03414732 0.067102045 0.022096155 0.06733361
000310 92 11 92 3d 47 0f 43 3d 57 0c a2 3d 93 06 7a 3c
       0.071322575 0.04762199 0.0791251 0.0152603565
000320 aa fe 1e bd bb b2 c7 bd 44 cc 79 3d 27 bf 8b bd
       -0.038817085 -0.09750887 0.06098582 -0.06823569
000330 d5 ce 14 3c fb 45 5f 3e 33 37 b0 bc 69 04 79 3d
       0.009082516 0.21804039 -0.021510696 0.06079522
000340 a9 51 fd bc ac 4e bc 3d 80 99 a9 3d 42 65 b0 3d
       -0.030922728 0.09194693 0.08281231 0.086130634
000350 d7 1a 97 3d 0d 0b 0b 3e 2a 8f a4 3c 97 d8 38 bc
       0.07378166 0.13578434 0.020087797 -0.011282108
000360 b4 5e aa bc 6a b4 75 3c 75 8b 33 bd f4 08 34 3e
       -0.020797111 0.014996627 -0.04383417 0.1758154
000370 a4 ab e6 3c e1 62 67 3c dc 81 87 3d 6e b9 a8 3a
       0.028158017 0.014122696 0.066165656 0.0012872645
000380 49 a9 db 3d 15 0d f7 3c 10 fd 2e bd d2 5b 07 bc
       0.10725648 0.030157605 -0.042721808 -0.008261638
000390 b6 bc 4c 3d 0d 9d ad 3d df 0b 02 3e 28 95 b7 3d
       0.049984656 0.08477221 0.12699841 0.08963996
0003a0 b2 b2 63 bd b5 43 b5 3c bd 9c c4 3d 50 e2 4c 3d
       -0.05559034 0.022127012 0.09600208 0.050020516
0003b0 d3 69 12 3d 2e ed 75 3b 85 aa ce 3c 0d bf 0a 3d
       0.035745453 0.0037525403 0.025227794 0.033873606
0003c0 2b 0d c6 3c 1d 59 56 3d 5c 37 d4 bc 3b b4 87 bb
       0.0241762 0.05233108 -0.025905304 -0.004141358
0003d0 57 e2 c8 3d a7 d8 1f bd f8 4e 91 bd 96 05 f6 3c
       0.09808796 -0.039024975 -0.0709514 0.03003196
0003e0 c0 d7 4a 3c 29 93 85 bd 4b d0 e3 bc 22 dd 4f bd
       0.01238054 -0.06522209 -0.027809283 -0.050747998
0003f0 00 57 8c 3d 60 7d 96 3c b6 c6 59 3b 2c 7f 81 bd
       0.068525314 0.01837033 0.0033230013 -0.06323084

discrete_action_output_shape f4 [1, 5]
000000 00 00 40 40 00 00 40 40 00 00 40 40 00 00 00 40
       3.0 3.0 3.0 2.0
000010 00 00 00 40
       2.0

network_body._body_endoder.seq_layers.0.bias f4 [256]
000000 0f 2f 8b bd 63 19 e1 3d 1e 10 b1 bd b7 b4 30 3b
       -0.06796085 0.1099117 -0.08645652 0.0026963183
000010 5a 79 b5 3b e0 11 e0 bc 4f 91 fe 3c b2 3c 92 3c
       0.005538148 -0.027352273 0.031075148 0.017851207
000020 ec fb d1 bc 29 6c e5 bd 1c 5b 49 bd 7b ef 23 bd
       -0.025632821 -0.112022705 -0.049159154 -0.04002331
000030 b0 c7 9d 3c 72 b8 ce bd 88 18 d1 bd fc b7 13 be
       0.019260257 -0.10093774 -0.10209757 -0.14425653
000040 cf 51 86 39 15 a3 b8 bd fa f7 1b bd dd 33 3e bd
       0.00025619424 -0.090154804 -0.038078286 -0.04643618
000050 ae 7a 8c bc 33 c2 5f 3b 15 cc 16 3c ea 0b bb 3c
       -0.017148342 0.0034142851 0.00920393 0.02283283
000060 52 db 90 bd 58 ac a5 bd b9 51 96 b9 3c 6f 02 bd
       -0.07073082 -0.080895126 -0.00028671118 -0.031844363
000070 ae 45 79 bd ce 72 b0 bd f3 9f bc bd 35 3c 61 bd
       -0.060857467 -0.08615647 -0.092101954 -0.05498906
000080 17 81 bb bc 8d 8f bd bd 2b 31 83 ba fe 61 37 bd
       -0.022888703 -0.09255896 -0.001000916 -0.044771187
000090 37 5a 36 bc f2 2a e2 bd bf b3 03 be 8e 22 63 3c
       -0.011129907 -0.110433474 -0.12861536 0.013863219
0000a0 1d 55 98 3c b7 ce 70 bd 3c 2e 76 bd e6 7e 96 3d
       0.018595273 -0.05879089 -0.060102686 0.07348423
0000b0 ce 98 c7 bd 8c 65 14 bd 25 b5 05 3e 8d cd e0 bd
       -0.09745942 -0.036229655 0.13057382 -0.10976706
0000c0 2b a8 d7 3d df 63 4c 3d fb 8d ac bd 1d e7 b0 3d
       0.10530122 0.049899932 -0.08425518 0.08637831
0000d0 b7 af 60 3c 90 d2 ff 3d f7 d0 0a bd 81 53 3f bd
       0.013713769 0.124913335 -0.03389069 -0.046710495
0000e0 c8 c9 4d be cc 10 04 3d de 02 d3 3b 3e 3c a1 bc
       -0.20096505 0.03224258 0.006439551 -0.019682046
0000f0 26 1e e5 bd c2 d3 04 bd bd d6 32 be 94 42 a9 3b
       -0.11187391 -0.03242851 -0.17464729 0.0051654074
000100 65 92 86 bd c6 5f d9 bd 42 93 46 3d 98 79 18 bd
       -0.06570891 -0.106139705 0.04848028 -0.037225336
000110 4a 4e f3 bd 60 9b 05 be 49 d9 b5 3d 82 14 f6 3a
       -0.11880167 -0.13047552 0.088793345 0.0018774422
000120 aa 6b 70 bc 5b c0 a0 bc 86 25 08 bd 75 0e 53 bd
       -0.014674107 -0.019622972 -0.03323891 -0.05152746
000130 fc cf ec bc 3b 8c 50 bb f4 79 54 3d 74 a3 e5 3b
       -0.028907768 -0.0031821865 0.051874116 0.0070080105
000140 f6 6b 01 be c7 0a 81 3c de 38 a2 bd 1f 17 d0 bd
       -0.1263884 0.01575221 -0.07921003 -0.1016066
000150 2d 8f 82 bd a1 63 fc bd f2 ad 2a be f2 15 a7 bc
       -0.06374965 -0.1232369 -0.16667917 -0.020396207
000160 66 3a ac bd bf df 48 bd 43 44 69 bd 54 17 11 bd
       -0.08409576 -0.049041506 -0.056949865 -0.035422638
000170 eb 7d ed bb 21 35 47 bd 60 c3 f8 3c ed 17 2a 3c
       -0.0072476766 -0.048634652 0.0303666 0.010381681
000180 38 9a 69 bd 2f 7d c6 bc 7b 79 49 bd aa 90 bd bd
       -0.05703184 -0.024229614 -0.04918812 -0.09256108
000190 2a a8 0d bb 37 64 b0 3b 97 ba 4c bb 1e 27 19 bd
       -0.0021615126 0.0053830403 -0.0031239146 -0.03739082
0001a0 4f 51 37 3c 8e dc cb 3d b3 d2 86 bd 7f 8a 89 bc
       0.011188819 0.09954177 -0.065831564 -0.016789673
0001b0 ef 8c 08 bd cd a0 80 bd fc f2 93 bc 99 39 dc bd
       -0.03333753 -0.0628067 -0.0180602 -0.107531734
0001c0 1f 7e 06 3d c1 c9 18 3e fc 98 89 3b 3b 5e 02 3c
       0.032835122 0.14920713 0.0041991454 0.007957037
0001d0 b1 97 e4 bb 54 3b 8a 3d 2b 27 d3 bd 5a 72 ee 3b
       -0.006976091 0.06749597 -0.10310205 0.0072768154
0001e0 18 84 18 3e 3b cd 4f bd 1b c8 13 bc 97 b9 eb 3d
       0.1489414 -0.050732832 -0.009019877 0.11510008
0001f0 fb aa f4 3a 75 d9 03 be 65 13 56 3b b9 e1 f7 bc
       0.0018666679 -0.12875922 0.0032665369 -0.030259
000200 5b 25 02 bd 57 d8 4c 3d 1f 21 a6 bd d6 5c d7 bd
       -0.031773906 0.050011005 -0.08111786 -0.10515754
000210 41 51 d7 bd e0 54 db 3d 31 87 81 bd 96 75 b8 bc
       -0.10513545 0.10709548 -0.06324614 -0.022517007
000220 96 8d 1a bd e9 c6 26 bd a1 92 8a bd b4 6e a5 bd
       -0.037732683 -0.04071704 -0.067662485 -0.080777556
000230 bb 4e eb 3c 72 d2 b1 bd 5e 31 72 3d 4e 92 58 bd
       0.028724065 -0.086827174 0.05912911 -0.052873902
000240 76 83 ef bd 77 28 91 bd 94 b0 87 bb b0 b0 27 be
       -0.11694996 -0.07087796 -0.004140923 -0.16375995
000250 ad 5a 8f bd 5b e8 5b bd 4f f7 0b bb 8b 91 8b bc
       -0.06999717 -0.05368839 -0.0021357124 -0.017037174
000260 09 66 11 3e ac 15 d5 bc d8 4e a4 bd 75 df 2b 3d
       0.1419908 -0.02601131 -0.08022851 0.041961152
000270 1f 47 ca bd ed 2e b0 bc 87 07 38 3c 34 02 24 bd
       -0.098768465 -0.021506751 0.011232263 -0.040041164
000280 07 26 dc bd 5c 86 b2 3a 7f 5b 7d 3c 40 e4 93 bd
       -0.10749441 0.0013620364 0.015463709 -0.072212696
000290 1c 76 04 bd 33 5e 7b 3b cc 07 c9 bd 3f ad 58 3d
       -0.0323392 0.0038355708 -0.0981594 0.052899595
0002a0 3f c4 41 bc 7c 3f 1a bd aa e4 dc bb fb e8 26 be
       -0.011826574 -0.0376582 -0.006741126 -0.16299812
0002b0 57 60 24 bd de 13 34 bc 48 6c de bd 62 00 83 bc
       -0.04013094 -0.010991065 -0.10860497 -0.015991393
0002c0 05 3a 0e 3e 1a 04 23 bd ca 50 9c bc 3b b2 f4 ba
       0.1388932 -0.039798833 -0.019081492 -0.001866884
0002d0 a9 ef d7 bb 76 a4 11 3d e8 7b 7a bc 67 6f bc 3c
       -0.006589849 0.035557233 -0.015288331 0.02300234
0002e0 9d ad a0 bd c8 55 b6 bd c1 16 93 bd 06 55 48 39
       -0.07845614 -0.0890308 -0.07182074 0.0001910516
0002f0 69 e4 92 bd a1 9f 7e 3d a0 41 ae bd 18 de 03 3e
       -0.07172472 0.062163953 -0.08508611 0.12877691
000300 b8 be bf 3c 5b 49 13 3d 3f 97 0d 3e ce a0 29 bd
       0.023406371 0.03595863 0.13827227 -0.04141312
000310 3e 79 49 bd 85 47 ce bd 40 ad ce bd 01 9a ff bc
       -0.04918789 -0.10072235 -0.100916386 -0.031201364
000320 dc 76 11 bd f3 8e cf bd 2a 78 45 3c a5 d7 82 3d
       -0.035513744 -0.10134687 0.012052575 0.06388787
000330 c3 f3 8a bd 6b 8f 77 ba 64 fa 9b bd c8 6c e6 bd
       -0.06784775 -0.0009443673 -0.076161176 -0.11251217
000340 9c 43 dd bd 52 b0 02 3d a9 37 41 bd ea 44 07 bc
       -0.10803911 0.031906433 -0.047172222 -0.0082561765
000350 1b 0d 7e 3d 90 36 83 3a bc bf ac bd a7 e7 d3 bd
       0.062024217 0.0010010768 -0.08435008 -0.103469186
000360 e4 bf 27 3d 67 84 66 bb 7b e5 65 bb 0b a3 b3 bd
       0.040954486 -0.0035174133 -0.0035079408 -0.08771332
000370 6e 27 88 bd e1 33 ed bd 45 af 77 3d 22 59 3d 3c
       -0.066481456 -0.11582161 0.060469884 0.011556895
000380 b2 c1 13 bd 1d b7 5f bd 5d a9 a2 bd 0e fd 30 be
       -0.036073394 -0.05461799 -0.0794246 -0.17284033
000390 08 e5 32 bd 30 ac 9b 3d 4a 88 af 3c 8c 8f a8 bd
       -0.043675452 0.076012015 0.021427292 -0.082305044
0003a0 aa fe 97 bd 0a 23 bf 3d ef 59 b4 bd 7b 79 f3 bd
       -0.0742162 0.09332855 -0.08806216 -0.11888405
0003b0 02 7d 81 bd 18 1b e5 3c b9 40 84 bd a0 b3 b1 3c
       -0.063226715 0.02796702 -0.06457657 0.021692097
0003c0 94 1f 4b bd 1c e7 1e bd 49 cd 7a bd d3 40 f9 bc
       -0.049590662 -0.03879462 -0.06123093 -0.030426418
0003d0 41 1c 4c 3d 77 44 25 bd fe f1 4b 3c 4c 73 83 bc
       0.049831633 -0.040348496 0.012447832 -0.016046189
0003e0 bf a4 47 be 05 1b a3 bd 05 3b 2b be 5f 27 de bd
       -0.1949644 -0.07964138 -0.16721733 -0.10847353
0003f0 b2 00 b9 bd 4a c5 a2 bd 3a c3 68 3d 56 75 c2 bd
       -0.09033336 -0.07947786 0.056826808 -0.09495036

network_body._body_endoder.seq_layers.0.weight f4 [256, 12]
000000 63 38 79 be 4a aa 04 3e d4 7f 7b be 43 d7 e0 3e
       -0.24337916 0.12955585 -0.24560481 0.43914232
000010 64 53 12 3e 10 13 9d be b6 1f 25 be 8b 94 96 be
       0.14289623 -0.30678606 -0.16125378 -0.29410204
000020 d0 29 44 3e f6 0c 43 3d f5 72 2b bf 7b 13 89 bd
       0.19156575 0.047619782 -0.66972286 -0.06693169
000030 33 2f ed be 73 32 1d be ef 22 1e be bc d7 55 bf
       -0.46325073 -0.15351276 -0.15443014 -0.8353231
000040 43 8f f8 3c fb dc 3a bf 97 21 0b bf d2 66 55 3e
       0.03034175 -0.7299344 -0.5434813 0.20840004
000050 0f ef 54 3c b1 f8 48 3e 64 54 91 be 0f 04 b7 3d
       0.012996449 0.19626118 -0.28384697 0.08936321
000060 d2 21 82 bd 1f 38 bb be b2 a8 07 3c 1b 7c c1 3d
       -0.06354107 -0.36566254 0.008279966 0.09447499
000070 1c 29 51 3b d3 e4 0d be a1 6f 29 3e 89 77 df be
       0.0031915372 -0.13856821 0.1654649 -0.43645886
000080 a7 01 35 3e a0 9f 89 3d f7 41 ff be 08 27 51 3e
       0.17676412 0.06719899 -0.49855015 0.20425045
000090 f7 75 fb be 26 89 32 3e 9f 78 01 bf fd 59 44 be
       -0.49113438 0.1743513 -0.5057468 -0.19174953
0000a0 73 35 03 3e 06 7b 04 be ff da 1a bf 1b 8f 91 3e
       0.12813358 -0.12937555 -0.6049041 0.28429493
0000b0 d4 20 96 be 20 8a 73 be 75 86 36 bf b2 a3 b9 3e
       -0.2932192 -0.2378316 -0.71298915 0.36257702
0000c0 49 3c 2c be e9 f3 26 bf df 0c 98 3e 36 e4 ca 3d
       -0.16819872 -0.6521593 0.2969732 0.09906809
0000d0 02 a0 ce 3c f2 00 25 bf 43 bd 08 bf 25 49 8e be
       0.025222782 -0.6445457 -0.5341379 -0.2779018
0000e0 2f b7 c3 3e f8 07 3c bd b0 8b f3 3e d0 c8 92 be
       0.38225695 -0.045906037 0.4756751 -0.28668833
0000f0 58 d8 58 3d b4 d6 0d bf b7 f4 66 3e be 1c 37 3f
       0.052940696 -0.55405736 0.22554289 0.7152823
000100 03 d3 7a 3d ba ca 63 3e 27 f9 21 3c b3 b5 6d bf
       0.061236393 0.22245303 0.009886063 -0.92855376
000110 e7 ad 00 bf d3 e2 19 3e e5 e9 a0 be dc 56 42 3b
       -0.50265354 0.15027933 -0.31428447 0.0029653823
000120 e2 5e 43 be 21 9e 95 3e 26 23 e4 be 74 6a 01 3f
       -0.19079164 0.29222205 -0.44558066 0.5055306
000130 a0 3f 49 bc 6c 58 82 be cb 2e 33 be c6 5d e9 3e
       -0.012283236 -0.25458086 -0.17498319 0.45579356
000140 d8 fa 32 be 67 69 08 3e a5 38 9e 3e 8a 4f 23 bf
       -0.17478502 0.13321458 0.3090259 -0.6379324
000150 82 86 7d 3e ec 2e 63 be 01 e6 a5 3e c0 76 89 3f
       0.24758342 -0.22185868 0.32402042 1.0739365
000160 91 a7 ad 3e 25 41 a8 3d ba c1 31 bf 58 68 89 bd
       0.33916906 0.0821555 -0.6943623 -0.06709355
000170 b5 3f 97 3e ed 37 cb bd 9f 81 4c 3b e3 78 8a 3e
       0.29540792 -0.09922776 0.003120519 0.27045354
000180 90 5f 40 be 9e 98 b0 3c 01 9f 9f be a2 50 bc 3e
       -0.18786454 0.021557149 -0.31175998 0.36780268
000190 85 49 d6 3d 7e 28 54 3d dd 6b b3 3e bd 43 ea 3d
       0.104632415 0.05179643 0.3504323 0.11438701
0001a0 80 a8 37 3f 80 61 b5 3d bc 36 41 3e fe 1d f5 be
       0.71741486 0.08856487 0.18868536 -0.47874445
0001b0 d6 19 0d 3e 58 8f 47 3f b7 e5 08 be 62 a6 cd 3e
       0.13779387 0.779531 -0.1336888 0.40166003
0001c0 55 74 f2 be b1 88 d2 be ce b1 a9 3a 19 3e db bd
       -0.4735438 -0.41119912 0.0012946667 -0.107052036
0001d0 f7 b7 9f 3e 3e d5 63 be 71 32 30 3e 8b 8c 22 be
       0.31195042 -0.22249314 0.17206742 -0.15873925
0001e0 76 c0 2c 3f 92 ed a4 be b3 cf df 3e e6 ad 00 3f
       0.6748117 -0.32212502 0.4371315 0.5026535
0001f0 50 47 93 3e 52 5c 98 bc f4 e8 c6 be c0 13 76 3d
       0.28765345 -0.01859871 -0.38849604 0.06007743
000200 2f 22 61 3e 7b 5f 3e bd 27 d8 0f be 8e b8 de bd
       0.21985696 -0.046477776 -0.140473 -0.10875045
000210 51 9f 00 be cc 9c 39 3f 66 0e b9 be 58 b2 de be
       -0.12560774 0.7250488 -0.36143798 -0.4349544
000220 a4 47 24 3e c2 23 b1 be d6 94 b3 3c d9 7a df 3d
       0.16042954 -0.34597594 0.021921556 0.10912103
000230 40 48 4d 3d 57 38 f4 bd 5b 5a ee 3e 8d c9 c3 be
       0.05011773 -0.119248085 0.4655331 -0.3823971
000240 12 01 2d bf a3 a9 00 3e 43 e7 87 3c 5e 8e 1c bf
       -0.6757976 0.12564711 0.016589766 -0.61154735
000250 38 04 10 bf 2b dd ee be 91 96 1a bd 72 37 79 3e
       -0.5625644 -0.46653113 -0.037741248 0.24337557
000260 23 be eb 3e 95 d4 92 3d 2f 47 8f 3e f3 23 3f be
       0.460435 0.07169453 0.27983996 -0.18666057
000270 7b f5 81 3a 8b 8d ec 3e 01 f6 ca 3e f4 50 f1 bc
       0.0009915078 0.4620174 0.3964081 -0.029457547
000280 5e d5 08 bf 5f be 9c be 33 76 ae bd 9d 11 ed be
       -0.5345057 -0.30613992 -0.085186385 -0.463025
000290 05 f7 c3 be 69 2e 4b 3e 96 82 93 3e 52 79 c9 3e
       -0.38274398 0.19841923 0.28810567 0.39350373
0002a0 ba 78 b3 bb 00 e9 9f bc 8f ea 46 be c5 27 51 3f
       -0.005477038 -0.019520283 -0.19425415 0.8170131
0002b0 50 83 a3 3d ef fe e8 bd 1c f3 6b 3d 85 75 de be
       0.0798403 -0.1137675 0.057604894 -0.43449035
0002c0 24 99 70 3c fb 41 26 3e 6d 8c 05 3e 36 7a 05 3e
       0.014684949 0.16236107 0.1304185 0.13034901
0002d0 d9 83 8e 3d 95 fc 8b be f2 1d 49 3b ef 9b 06 3f
       0.06958742 -0.27341142 0.0030688015 0.52581686
0002e0 46 2f 50 3e 9e de ce bd 77 df a3 3e 12 de a7 3e
       0.20330533 -0.101010546 0.32006428 0.32786614
0002f0 b4 2f 6e bd 66 35 32 3e da c3 96 3d 05 5b 59 bd
       -0.058150962 0.17403182 0.073615745 -0.05306532
000300 d5 b9 c1 bd 97 b1 64 3d 74 16 93 be 75 f4 5c bf
       -0.09459273 0.055833425 -0.28728068 -0.8631051
000310 d8 f9 a9 be 41 9d 58 bd db 20 3c 3f 38 0e 39 be
       -0.33198428 -0.052884344 0.73487633 -0.1807183
000320 2a 0d 50 3f 14 e2 91 bd 08 f0 c8 3d 5a db 82 be
       0.81270087 -0.07123199 0.09811407 -0.25557977
000330 e7 32 21 3d 0e 73 3d 3d 27 2d 8e bd 73 7b 2f 3f
       0.039355185 0.046252303 -0.06942206 0.68547744
000340 f6 cd a3 3e 44 dd 43 3e 32 9d e3 be 11 c7 44 3d
       0.31993073 0.19127375 -0.44455868 0.048041407
000350 a0 16 7f be 8c 55 b3 3d 71 e0 88 3e ef 68 21 bd
       -0.24910975 0.08756551 0.26733735 -0.039406713
000360 2d 0d ba bc 9a 70 23 bf a8 bc 43 bf f6 87 1c 3f
       -0.02271136 -0.6384369 -0.7645974 0.6114496
000370 c4 b8 e4 bd af 32 a4 bc 7d c1 74 be c9 7b 95 be
       -0.11168054 -0.0200437 -0.23901935 -0.29196003
000380 ba f3 72 3e 4b f4 05 be 18 dd 8a 3e 10 ca a3 3d
       0.23725787 -0.13081472 0.27121806 0.07997525
000390 dc 88 f1 3e 65 24 00 3e 92 16 d9 3e 05 5b 13 3f
       0.47174728 0.12513883 0.42400032 0.5756076
0003a0 2b b7 af 3c 71 0a f1 3e 08 48 48 3f 35 5c fc 3c
       0.021449646 0.4707828 0.7823491 0.030805686
0003b0 e1 fa c9 be 4a c7 69 3e 27 56 e8 bd 41 45 28 3e
       -0.39449218 0.22829929 -0.11344557 0.16432668
0003c0 56 9e 8f be 51 34 ce be 27 e0 f5 3e ca 64 50 be
       -0.28050488 -0.4027429 0.48022577 -0.20350948
0003d0 ec 87 47 3c 7e b3 a6 bd eb ba 93 bd 52 a8 1c be
       0.012178402 -0.08139704 -0.07213386 -0.15298584
0003e0 02 f9 cd 3e 66 54 13 3e 53 b1 c9 be 21 0f 5a be
       0.4022904 0.14387664 -0.393931 -0.21294834
0003f0 40 fa bd be 62 ca 85 3e 78 4d 24 3e f5 fd 19 3f
       -0.37104988 0.26130968 0.16045177 0.6015313
