Assets/Model/0627PatrolMode.onnx (onnx, 295132 bytes, 15 tensors)

action_model._discrete_distribution.branches.0.bias f4 [3]
000000 7f 7d 55 bd 74 bf a2 3c 85 4a 0e 3d
       -0.052121636 0.019866683 0.034739036

action_model._discrete_distribution.branches.0.weight f4 [3, 256]
000000 b1 f3 64 3c ab 37 0a 3b ec 18 01 bd 8b 38 10 3d
       0.013974116 0.002109031 -0.031517908 0.035210174
000010 19 df b3 3d a4 2c 1d 3d d0 80 dd 3c 44 47 9c 3d
       0.08782787 0.03837265 0.027038962 0.0763078
000020 04 00 2e bc c2 42 0d 3c 65 89 bd 3c e9 3c 8a bc
       -0.010620121 0.008621873 0.023136804 -0.016874747
000030 4b 23 33 bd bc bd 2e 3c 12 9a 38 bc 18 ef a5 3d
       -0.04373483 0.010665353 -0.011267202 0.08102244
000040 46 ab 5a 3c b0 82 57 bd 8d c1 16 3d 85 01 db bc
       0.013346499 -0.052614868 0.03680568 -0.026734123
000050 55 1e 1e 3c 9e 21 0b bd 5b 5e 7e 3c 08 ef b5 bc
       0.009650786 -0.033967607 0.015525426 -0.022208706
000060 7c e5 ce 3c 8f 3a 6e bc 02 ba 8f bc 7b 47 ae 3d
       0.025255911 -0.014540329 -0.01754475 0.085097276
000070 30 98 ca 3d e6 db 35 bd a8 33 3a 3d 0b 33 5d bd
       0.09892309 -0.044399165 0.04545942 -0.054003756
000080 a5 65 d3 3d 3c 80 37 3c ad 96 aa 3c cf fb bf 3c
       0.103221215 0.011200007 0.020823801 0.023435501
000090 6b ae 0c 3d 32 f1 11 3d a3 22 f8 3b 81 d8 e7 3d
       0.034346025 0.035630412 0.0075724884 0.11320592
0000a0 40 69 73 3c aa 9c 89 3d f4 1d 2d bc 67 bd e5 bb
       0.0148566365 0.067193344 -0.010566223 -0.007011104
0000b0 8c 4c 77 3d 3f 47 0b 3d 21 07 8b bc df 5b 88 3c
       0.060375735 0.034003492 -0.016971173 0.01664537
0000c0 bf fc 08 3d 34 c5 92 3c 76 65 11 3d 7b fe 3d 3d
       0.033444162 0.0179163 0.03549715 0.04638527
0000d0 f5 97 4d 3c 72 9e 92 bd db 6f 26 3d a0 5c d1 bc
       0.012548436 -0.07159127 0.040634017 -0.025556862
0000e0 91 9b 26 bc 66 f2 ec bc 3b cb c4 ba b3 06 e0 bc
       -0.010168926 -0.028924178 -0.0015014181 -0.027346944
0000f0 c7 23 53 3d 88 ac 51 3c 1d 84 c9 bc 2f f9 8c 3d
       0.05154779 0.012797482 -0.02459913 0.068834655
000100 82 c0 e2 3c 14 3f 5f bd f0 37 5c 3d 1f f3 8f 3c
       0.027679686 -0.054503515 0.053764284 0.017571984
000110 07 97 49 3d 4f 3f a6 bc 29 6d 05 3d 36 f7 6c 3c
       0.049216297 -0.02029386 0.032574806 0.014463237
000120 b1 cc 88 3c 6d 98 a7 3d a6 56 41 3d 21 45 31 bd
       0.016699167 0.0818337 0.047201775 -0.043278817
000130 85 73 d0 bc 31 32 2a 3d 41 bf cd bd 51 04 7e bd
       -0.025445709 0.041551773 -0.100462444 -0.062015835
000140 c2 03 b2 3d 63 3a 6f 3d b9 40 33 3d 50 f6 9c b9
       0.08692123 0.05840529 0.043762896 -0.00029938156
000150 a2 74 28 39 e7 0e 0f bc ef 1c 58 3d f9 ce 19 3c
       0.00016065178 -0.00873158 0.05276197 0.009387725
000160 4d e4 f9 bc 24 63 db bb 18 d0 40 3d 7d 36 59 3d
       -0.03050437 -0.006695168 0.047073454 0.05303048
000170 ad 86 dd bb 94 01 e3 3c e4 8d c1 bd 9f 63 0f bc
       -0.0067604394 0.027710713 -0.094508916 -0.008751779
000180 3b bc 8d bc 21 fb 7c 3d 88 36 66 3d 11 af 57 bd
       -0.01730167 0.061762933 0.05620435 -0.05265719
000190 b6 3b d5 3c 39 c4 3a 3d c8 d6 53 3d 7b 06 27 3d
       0.026029449 0.04559729 0.051718503 0.040777665
0001a0 08 0c 57 3d 26 c7 b4 3d b2 c2 b5 3b b0 0e 8c 3d
       0.05250171 0.08827047 0.005546891 0.06838739
0001b0 41 5a ab bb 62 99 47 3d 03 d8 5f 3d 8f 61 4b bb
       -0.005229265 0.04873026 0.054649364 -0.0031033491
0001c0 9d d6 12 3d 27 94 86 3c 26 2b 9d bc 37 b4 ad 3c
       0.035849202 0.016428066 -0.019185614 0.021204097
0001d0 e8 4d 08 3d 9a b5 84 bc 6e 09 30 3d 97 a3 ec 3b
       0.033277422 -0.016199876 0.042977743 0.00722165
0001e0 bc 06 33 bc df e7 b3 3c 84 ec 51 bd 99 09 a1 3d
       -0.010926899 0.02196115 -0.05125095 0.07863159
0001f0 e7 9e 7b 3b 43 00 0e 3c 79 f9 2b bc 57 45 38 bd
       0.0038394274 0.008667055 -0.010496491 -0.044988003
000200 8f e2 6f bc ab 49 b1 b9 b7 62 92 3c 82 fc 60 3d
       -0.014641418 -0.00033814958 0.017869337 0.05492831
000210 8b 8e ac 3d 83 02 af bc 28 65 94 3d ed b8 e2 bc
       0.084256254 -0.021363502 0.072458565 -0.02767607
000220 e0 eb e1 bc f4 68 82 bd 3d f9 82 bd 3a 13 74 3c
       -0.027578294 -0.063676745 -0.06395195 0.014897162
000230 d8 37 b1 3c 32 bf bb 3c 9e ec ec 3c d9 1b 83 3d
       0.021633074 0.022918317 0.028921422 0.06401796
000240 07 5f 9e bb 06 8f 4d bd e0 a1 52 3b 00 13 1a bd
       -0.0048331055 -0.050185226 0.0032139942 -0.037615776
000250 45 19 af bd 31 fe 91 3d a8 ea 29 3c c8 b0 ec bb
       -0.08549742 0.07128561 0.010370888 -0.0072232224
000260 f1 78 1d bc ba 7d 8c 3d 95 af 83 bd 89 30 c1 3c
       -0.009611354 0.06859918 -0.06429974 0.023582714
000270 ef af 3a 3d c2 aa 84 bc c8 65 3d 3d 65 e8 77 bd
       0.04557794 -0.016194705 0.046239644 -0.060524363
000280 c2 19 82 3d ff 2c 85 bc 17 3c 60 3d 1b 0e 6f 3d
       0.06352569 -0.016256807 0.054744806 0.05836306
000290 ac be fc 3a dd b7 5d 3d 34 9c 81 3c b7 ff 0a 3d
       0.0019282899 0.054130424 0.015821554 0.033935275
0002a0 f9 b8 92 bd 87 1f df 3d 36 03 02 3c 00 76 d3 3d
       -0.07164187 0.10894685 0.007935336 0.10325241
0002b0 21 2a bc 3c 9b e9 f2 3d 82 ce 04 3d f1 dd a4 3d
       0.022969307 0.11860963 0.032423504 0.080501445
0002c0 21 b2 3a b9 59 d1 bb bc 77 e7 e3 3b c8 fb 75 3c
       -0.000178047 -0.022926973 0.006955083 0.015013643
0002d0 ac 1b 85 bd af 60 97 3c 5f 3c 54 3d db ad ed b9
       -0.064994186 0.01847872 0.051815387 -0.00045333695
0002e0 54 3b 58 bc c6 39 dd 3c 3f a0 57 3d ba b1 ca bc
       -0.013197739 0.027005088 0.052643057 -0.02474295
0002f0 30 1f f3 bb 21 c7 01 3d 70 34 db 3c bc 6c 6a bd
       -0.0074194893 0.031684045 0.026758403 -0.057232603
000300 8b 93 27 bd bc 7e 7f bd 5f cf ea 39 1d be 8d 3a
       -0.040912192 -0.062376723 0.00044786462 0.0010814104
000310 84 49 80 bd 93 34 a3 3d 0c ba 4e 3d 3c a7 4c 3b
       -0.06264022 0.07969012 0.050470397 0.003122761
000320 dc 0c 72 3d 65 f3 85 bd 53 95 33 3d 76 13 73 3d
       0.059094295 -0.065405644 0.04384358 0.05934473
000330 7a 41 2d bd b9 e8 54 3d 03 05 7b bc 82 a5 05 bd
       -0.04229877 0.051979754 -0.015321019 -0.032628544
000340 b5 8b bd 3c 1a e2 f1 3c e6 3f 8a bc e5 b4 22 3c
       0.023137907 0.029526759 -0.016876172 0.009930824
000350 27 33 7e bc dd 20 19 3d f1 d2 40 bb 08 3d c1 bc
       -0.015515125 0.037384856 -0.0029422606 -0.023588672
000360 08 ae 89 3d db 2d 15 bd 06 4f 63 3d 79 5c 1e 3d
       0.06722647 -0.036420684 0.055495284 0.038662408
000370 80 f6 0d 3d a5 df 4b 3c f9 5a 6d 3c b5 c5 5d bd
       0.03465891 0.012443458 0.014487022 -0.054143626
000380 39 5c 71 3c e4 c4 f0 3c d8 ef ba 3c 34 5d c2 bb
       0.01473146 0.02939076 0.022819445 -0.005931521
000390 52 03 4f bd d5 f9 8a 3d e5 8d c4 3b 8f 5e 2e 3c
       -0.050540276 0.06785933 0.0059983605 0.010642662
0003a0 2f 19 06 3d da 93 fa 3c ee be 10 3c d9 d0 0d 3e
       0.03273886 0.03058808 0.008834584 0.138492
0003b0 ce c7 95 3d dc 36 d7 3b a3 ef 1d bd c9 0d 52 3d
       0.073135 0.006567819 -0.038558614 0.051282678
0003c0 d8 85 82 3d db 82 b5 bb 4e 4b cb ba ab af 0a 3d
       0.06373185 -0.005539281 -0.0015510113 0.033858936
0003d0 8a 4e ad 3d d5 b5 54 bc 33 a9 28 3d 99 ee ef 3c
       0.08462246 -0.012982805 0.041176986 0.029288577
0003e0 4a cb 89 3b 0f 20 d9 3c 70 fe 8b 3c 31 58 1a 3d
       0.004205142 0.026504545 0.017089099 0.037681762
0003f0 82 16 45 3d 33 b3 b3 3c 2d 3b 8c 3d cc fc 0d 3d
       0.04811717 0.021936035 0.068472244 0.034664914

action_model._discrete_distribution.branches.1.bias f4 [3]
000000 37 b4 f9 bd cc ce bc 3d ae 0e e5 3c
       -0.121925764 0.09219131 0.027961101

action_model._discrete_distribution.branches.1.weight f4 [3, 256]
000000 d4 d0 aa bc a9 bf 7b bc 15 2f 6b bd 16 88 32 3c
       -0.02085153 -0.01536552 -0.057417948 0.010896703
000010 39 db 20 be c7 d3 85 bc 0f 05 bb bd 0f f6 91 bc
       -0.15708627 -0.016336335 -0.09131824 -0.017817525
000020 f8 3c 81 bd 9e df 2f be ef 1c 58 bd 3c ff cf bd
       -0.06310457 -0.17175147 -0.05276197 -0.10156104
000030 61 54 f1 bc e3 c1 d5 3d 78 48 85 3b 4f 12 92 3c
       -0.02945918 0.104373716 0.004067477 0.017830996
000040 bf 7e a5 bd 6f df 2e bd 83 96 cc 3d ec c6 e4 3c
       -0.080808155 -0.04269355 0.09989645 0.027926885
000050 00 14 82 be f8 2b ed 3c 2e be a7 bd df b2 0d bd
       -0.25405884 0.02895163 -0.08190571 -0.034594413
000060 93 68 29 3d 64 f1 0f bd 9b 1c 3f be 6f a8 17 bc
       0.041359495 -0.035142317 -0.18663256 -0.009256466
000070 db 5d 52 3c 79 f9 7e bc 86 f1 94 bd 0b 2f 1a 3c
       0.01283976 -0.015562409 -0.072726294 0.00941063
000080 ea 28 f1 3d df fa 92 bc 27 67 b8 3d df 60 a1 3d
       0.11775382 -0.01794189 0.0900405 0.07879805
000090 f6 ec 16 3d 24 a9 42 3c f9 da 0d 3e 93 6b 3a bd
       0.036847077 0.011881147 0.13853063 -0.045512747
0000a0 ab b5 f4 bc 46 b1 f8 bd 23 bc dc bc 09 fa 32 3d
       -0.029871782 -0.12143187 -0.02694518 0.043695483
0000b0 91 2e 4e bd 1d 2f 47 bb 01 e3 da 3c ca 47 20 bd
       -0.050337378 -0.0030393072 0.026719572 -0.039130963
0000c0 c1 ff b1 3d 26 b9 3e 3b f2 72 dc bc 1b 69 32 3c
       0.08691359 0.0029102056 -0.026910279 0.010889317
0000d0 35 43 38 3c ed b1 82 bd 80 17 93 bc 43 fb ee bd
       0.011246492 -0.06381593 -0.017955542 -0.11669018
0000e0 00 46 41 bd 12 ef cf bd 95 a2 2d bd 68 1d fe bd
       -0.047185898 -0.10153021 -0.04239138 -0.124079525
0000f0 00 11 37 bc 14 91 41 3d 07 5f 27 be 0b 12 53 3d
       -0.011173487 0.047257498 -0.16344844 0.05153088
000100 10 67 1e bb 5c 67 b6 3b 98 7a 17 bd 7b 86 83 3d
       -0.0024170317 0.0055665206 -0.03698215 0.064221345
000110 87 bc dc 3c 0c 53 c9 bb 71 cc 1f 3b 7f 93 c2 b9
       0.026945366 -0.006143933 0.0024383331 -0.00037112457
000120 97 64 92 bd 99 1b 3e bd 50 e1 ed bc f7 a6 dd bc
       -0.07148092 -0.046413038 -0.029038101 -0.027057154
000130 0d 87 84 bc 1d cf 21 bd d1 38 ca b9 ea ed 58 3d
       -0.016177678 -0.03950416 -0.00038570774 0.052961268
000140 73 bc 26 3d 73 6d 45 bd a7 f6 a7 3c ea 3d 56 3c
       0.040707063 -0.048200082 0.020503355 0.013076285
000150 a5 e4 e8 3c 1c 5b 53 3d 69 8d 22 bd a7 fe d4 bc
       0.028429339 0.05160056 -0.03968564 -0.026000334
000160 8f 3b 27 bd 3a fc 5e 3d 9c 1b 19 3e f8 34 c5 bd
       -0.040828284 0.05443976 0.14951938 -0.096292436
000170 ec b3 5e 3d 59 c2 01 3d c5 df 38 3d c5 2f 25 bd
       0.054370806 0.031679485 0.04513528 -0.04032876
000180 11 4d 9e 3d 2a 4c b2 bd 41 34 9a bd 6a dc 95 bb
       0.07729543 -0.087059334 -0.07529498 -0.0045733945
000190 a7 57 3b bc 5c c1 0d bc 6d 58 6d 3c 84 64 2f 3c
       -0.011434472 -0.0086520575 0.014486414 0.010705117
0001a0 ef 57 8b bc 05 0c 97 3c 21 e7 be 3c 70 df 30 be
       -0.017009703 0.018438349 0.02330357 -0.17272735
0001b0 3a f3 87 3d ff 44 35 3c 33 4b 67 bc 91 21 ba bb
       0.06638189 0.011063813 -0.01411705 -0.005680271
0001c0 95 52 30 be 2c 0c 9c 3d 36 79 35 bd 19 5c a5 3b
       -0.17219003 0.07619509 -0.04430505 0.0050463793
0001d0 70 3f 9a bb 27 d9 5f bd 06 1a ef bb d6 8b b4 3d
       -0.0047072694 -0.054650452 -0.0072968034 0.08815734
0001e0 2b e4 38 3b 24 d3 56 bb da 43 e9 bc cd ca ba 3c
       0.002821217 -0.0032779658 -0.028474737 0.022801781
0001f0 02 f0 9a bd 24 bb ac bb 2f 36 27 bd 4b bb b7 3d
       -0.07565309 -0.0052713323 -0.040823158 0.0897127
000200 31 bd 4b 3d e8 79 85 bc be d0 7c bd 94 3a 32 be
       0.049740974 -0.016293481 -0.06172251 -0.17405158
000210 1b 9b 89 bb 91 80 d7 bd 15 b4 22 bd 5e 5d 44 bc
       -0.004199398 -0.10522569 -0.03972252 -0.011985151
000220 0a 35 26 3c 86 29 f1 3c 45 1d d4 bc 97 04 50 bd
       0.010144481 0.029438745 -0.025892863 -0.050785627
000230 cb 17 0f 3d 9f 62 3b bc b4 e8 ff bc 48 db a3 3d
       0.0349348 -0.011437087 -0.031238891 0.08000809
000240 0d 5c 05 bd f4 27 d8 3c d0 5a 97 bc 37 48 97 bd
       -0.03255849 0.026386239 -0.01847592 -0.07386821
000250 95 7b 28 bd e4 5d 0d 3d 2c 00 94 bc b0 d9 7a bd
       -0.041133482 0.03451337 -0.018066488 -0.06124276
000260 aa f7 34 bc 5d 3e 3f bc 4c c7 12 3d 0f 7d 99 3d
       -0.011045376 -0.011672583 0.035834596 0.07494556
000270 b6 ff a4 bd b9 c8 b9 3c a9 98 27 bd 2a 01 97 bd
       -0.080565855 0.02267872 -0.040917072 -0.07373269
000280 69 35 52 3c 5c f0 0b 3d 38 35 ff 3d 03 28 22 3d
       0.012830117 0.03416477 0.124613225 0.03958894
000290 ff 9b 1f 3d e4 cb ba 3d 6e 74 32 bc d6 89 ee bd
       0.03896713 0.0912092 -0.010892017 -0.11647384
0002a0 3b b1 7f bd 4f 99 5d bd 02 51 9b 3c e7 dc 92 bc
       -0.06242488 -0.054101285 0.018959526 -0.0179276
0002b0 d8 ac e7 bd 27 1e 8e bc d9 95 e0 bd cd 62 03 3d
       -0.11312264 -0.017348362 -0.10966081 0.032076646
0002c0 07 28 9b 3d 01 c4 cc bd af b9 2a 3d 82 da b3 3d
       0.07575994 -0.09998322 0.041680988 0.087819114
0002d0 66 da 0f be 2e 4e 01 3e eb e6 95 3c 81 c0 9d bd
       -0.14048156 0.1262748 0.018298587 -0.07702733
0002e0 d2 15 87 3c af ed b5 38 59 fe c4 bc 1b 7e 60 3d
       0.016489897 8.6750246e-05 -0.024047064 0.054807764
0002f0 ab a6 3e 3d 83 00 40 be 46 8e 8b bc 42 a1 02 3b
       0.046545666 -0.18750195 -0.017035615 0.0019932543
000300 44 a2 02 3b 07 38 00 3d 57 9e 85 bd 23 3e 83 bd
       0.0019933144 0.03130343 -0.065243416 -0.06408336
000310 de d3 a9 3c 88 cf 09 be fe 8e 89 bc ab 25 16 bd
       0.020730909 -0.13458073 -0.016791817 -0.036657017
000320 45 b9 4f bc db 76 59 3c c7 37 26 3d 8c 88 fd bd
       -0.012678449 0.013272966 0.040580537 -0.1237956
000330 a9 41 cd bc 3d 58 05 3d 05 14 cd 3c 62 22 c6 3c
       -0.025055723 0.032554854 0.02503396 0.024186317
000340 a2 4f cc 3d 03 2a 55 bb 04 ad 8d bd 03 a8 88 3d
       0.09976126 -0.0032526262 -0.06917766 0.06672671
000350 36 20 f9 3d e4 e6 a2 bd aa 8a 8c bd 05 64 1b bd
       0.12164347 -0.07954195 -0.068623856 -0.037937183
000360 dc e7 11 3e 24 8e 83 bd bd 4b 88 3d 97 78 2b 3d
       0.14248604 -0.064235955 0.06655071 0.04186305
000370 5e d6 40 3c a6 2b e0 3c be ab 16 be 0e c9 e5 3c
       0.011769859 0.027364563 -0.14713952 0.028049972
000380 83 2f 72 3c 5a 16 03 3d b9 31 2b bb 91 81 41 bd
       0.0147818355 0.032003738 -0.0026122166 -0.047242705
000390 ca 5e 98 3d f2 da 34 bc b3 a9 4f 3d 2a 23 14 3b
       0.074399546 -0.011038529 0.050698947 0.0022603967
0003a0 dd 5d b2 3d 8a f9 cf bc 8a f9 15 3e 84 44 f2 bd
       0.08709309 -0.025387544 0.14645973 -0.118294746
0003b0 c7 34 fe bc 16 5e ac bd 5f 66 82 bc 66 22 07 3c
       -0.031031026 -0.08416383 -0.015917955 0.008247947
0003c0 b1 8d 35 be bc 12 f1 bd 93 a8 32 bc 4c 3d ad 3c
       -0.17729832 -0.117711514 -0.010904449 0.021147393
0003d0 65 1d 92 bd f3 33 ea bd 20 39 36 3d 71 15 aa 3c
       -0.07134513 -0.1143569 0.044488072 0.020762177
0003e0 41 18 03 3c 44 b3 24 bd 27 5d 33 3d 25 40 f3 bd
       0.008001388 -0.040210024 0.04379001 -0.11877469
0003f0 d3 95 7e bc e4 3f 1f be fe 27 a0 3d 34 c2 ab bc
       -0.015538651 -0.15551716 0.07820128 -0.020966627

action_model._discrete_distribution.branches.2.bias f4 [3]
000000 66 00 55 3d fd 27 78 3b c2 f9 8a bd
       0.052002333 0.0037865632 -0.06785919

action_model._discrete_distribution.branches.2.weight f4 [3, 256]
000000 0e a3 f9 3c 2a f4 67 3c b2 b2 77 bd fc c5 e3 3d
       0.030473258 0.014157334 -0.06047315 0.11121747
000010 c7 04 14 be 13 66 5f 3c 8b ba 96 bc a7 42 34 bd
       -0.14454947 0.013635176 -0.018399497 -0.044008877
000020 0e fe 1c 3d 79 8f ef 3d 39 7d 2f 3d e3 3a 63 3d
       0.038328223 0.11697287 0.04284403 0.05547608
000030 9b df 5e 3d cb e6 97 3c 7e cf f2 3c be ed a3 3c
       0.054412466 0.018542668 0.029639956 0.020010825
000040 fc 91 9c 3d 24 10 4a 3d a9 4d 2f 3d 70 ed 26 3d
       0.07645032 0.0493318 0.042798672 0.04075378
000050 65 fc 12 bd 10 8d 6f bc 30 c6 5f bd 82 ba 88 3d
       -0.035885233 -0.014621034 -0.054632366 0.066761985
000060 20 60 83 bb 11 32 60 3c 19 d3 08 3d d3 10 1b be
       -0.0040092617 0.013683812 0.033404443 -0.15143137
000070 4c 84 b2 3c 0a 0b 19 3d 79 d1 b2 3b 7b ef af 3c
       0.0217916 0.037364043 0.0054571 0.021476498
000080 3e a7 e9 bd d7 e6 b2 3b 8f a5 db 3d c8 d2 e2 3d
       -0.11408852 0.005459647 0.10724937 0.110753596
000090 5e a8 a0 bd d6 b9 96 3d 49 01 c1 3d 13 cb 97 3d
       -0.078446135 0.07359664 0.09424073 0.0741178
0000a0 31 37 ae bb 48 ce 1e 3d cf bf 64 3d 87 24 bb 3c
       -0.005316638 0.038770944 0.055846985 0.022844566
0000b0 cf 68 3c bd b2 1d ce bc 66 20 81 bd 8b 00 08 3d
       -0.04599839 -0.025160644 -0.06305008 0.033203643
0000c0 8b 8f 5f 3d fa 4e eb 3d ed 9d 06 3c 0a 7a 28 3d
       0.054580253 0.11489673 0.008216363 0.04113201
0000d0 33 b6 01 3c cb 02 3d 3d 17 79 28 3d fc 69 82 3d
       0.007916975 0.04614524 0.041131105 0.06367871
0000e0 30 0f d9 bc 09 24 d9 ba dc 16 57 3d c6 2b 98 3c
       -0.0264965 -0.0016566525 0.052512035 0.01857556
0000f0 71 22 38 3d 5c b2 58 3d f0 09 31 bd 77 ad 17 bd
       0.04495472 0.05290447 -0.043222368 -0.037030663
000100 ae f5 1d 3d 69 7e 2f bc 8c 39 95 bc f9 07 83 3d
       0.038564377 -0.010711291 -0.018215917 0.06398005
000110 1b 69 08 3d d7 65 f1 b9 28 d1 87 bd 76 20 c7 3c
       0.03330336 -0.0004604298 -0.0663169 0.02430747
000120 82 27 91 3d bd 51 5e bc 30 8b 9f 3d 3b db b9 3b
       0.07087614 -0.013569293 0.0779022 0.0056718863
000130 be 69 38 bc 39 71 cf bc 98 28 fc bc 4e d3 e4 bc
       -0.01125568 -0.025322543 -0.030781075 -0.02793279
000140 bb 09 08 be 58 81 11 3d b9 42 30 bd 25 6a 47 3c
       -0.13284962 0.035523742 -0.04303238 0.012171303
000150 f7 78 f0 bb 35 a7 ee 3c 42 05 31 3d 66 47 ad bc
       -0.007338639 0.029132465 0.043217905 -0.02115221
000160 18 c4 86 3d e4 22 3e 3d e8 24 ca 3d 91 86 45 3d
       0.06580371 0.046419993 0.098703206 0.048224036
000170 48 2e bc 3c 9e 08 8c 3b 8b 98 f9 bb 4c 89 e0 3c
       0.022971287 0.004273488 -0.0076170615 0.027409218
000180 1f c5 a8 3c 18 ba 47 bd 28 28 a2 3d 59 f4 f7 3c
       0.020601807 -0.048761457 0.079178154 0.030267881
000190 76 a3 7c 3d c4 41 1b bb 98 37 f1 ba 0a c7 2e bd
       0.061679326 -0.0023690322 -0.0018403409 -0.042670287
0001a0 8d 65 30 bd 67 47 8f bc c2 ef b8 bb a4 f8 0f be
       -0.043065596 -0.017490102 -0.0056438157 -0.14059693
0001b0 80 2f b0 ba da 6c 96 3d 0b 95 92 bd 6a 8d a8 bb
       -0.001344189 0.073449805 -0.07157334 -0.005143811
0001c0 22 31 fa 3c 99 3f 87 bc bc bc cd 3c 18 78 49 be
       0.030541006 -0.016509818 0.02511441 -0.19674718
0001d0 8f 3c 95 3d d9 09 9c 3c 4c bb 8e 3d 24 e4 73 3b
       0.07286941 0.019047664 0.06969318 0.003721484
0001e0 0c 08 e3 bb 3f f3 24 3d 6c 79 6b 3c 9a 2c 89 bc
       -0.0069284495 0.04027104 0.014372211 -0.0167449
0001f0 78 9b 5a 3d 64 41 ad 3d 2e 33 f1 3c c0 ce 95 3d
       0.053370923 0.08459738 0.02944335 0.07314825
000200 84 84 0e 3c d3 93 34 3d 83 5c fb 3c ea 47 75 bd
       0.008698586 0.04408629 0.030683761 -0.059883036
000210 86 94 26 3c 44 2d a6 bd d0 da af bd 78 97 a3 3c
       0.010167247 -0.081141025 -0.08586657 0.019969687
000220 78 aa 83 bc a0 67 86 3d 28 9f 18 3d e7 82 78 3d
       -0.016072497 0.06562734 0.03726116 0.060671713
000230 da 95 88 3c 02 d3 6c bb 06 24 94 bd c2 d2 1c 3d
       0.016673017 -0.0036136513 -0.072334334 0.03828693
000240 f8 4d 06 be df 0f 91 3d 13 ee 00 3c 9a 6a 99 bc
       -0.1311568 0.07083105 0.007869261 -0.01872759
000250 82 f6 79 3d a8 9c a7 3c 9f 4d ff 3c e5 7e 32 3d
       0.061026104 0.020460442 0.031164942 0.043578047
000260 9a e6 a4 bc 46 0f 92 bd 47 cf 34 ba 32 6d b0 3c
       -0.02012949 -0.071318194 -0.0006897342 0.021536443
000270 1d 08 ad 3c 8f 69 17 bd ec 15 9b 3d 6b 06 2d 3d
       0.021122033 -0.036965903 0.07572541 0.04224245
000280 58 83 b7 3d 58 1e 63 3d 9d c0 2c bd 12 f3 08 3d
       0.08960599 0.05544886 -0.042175878 0.033434935
000290 b2 cc 0f bd 71 8e c0 bc b4 54 7c bc 22 24 99 bb
       -0.035107322 -0.023505421 -0.015401054 -0.004673497
0002a0 3c 53 4d 3b bf 9c a5 3c d1 52 fe 3c ef b6 d5 bd
       0.003133013 0.020216344 0.03104535 -0.104352824
0002b0 c4 c5 56 3c 95 79 15 bd 7c 6d 25 bc ce f5 53 bd
       0.013108674 -0.036492903 -0.010096904 -0.05174809
0002c0 fc 2c 08 3b 36 b4 41 3b b5 62 d9 bc 1f d9 8b 3c
       0.0020778766 0.0029556877 -0.026536325 0.017071305
0002d0 e7 ce dd 3d fb 5d d8 3c 91 1f 93 bb 88 da 53 3d
       0.10830479 0.026412 -0.004489847 0.05172208
0002e0 b3 a8 5b bc 0a 9b bf 3c b8 75 72 bb 94 76 32 3d
       -0.01340692 0.023389358 -0.0036996435 0.043570116
0002f0 7e 4f 12 3b 7f c8 b0 bd 0f 32 72 3d b0 cd 99 bc
       0.0022325213 -0.086319916 0.05912977 -0.018774837
000300 82 93 1c 3c 2e a0 27 bd f1 5e 0f bd 3d 10 da 3c
       0.009556653 -0.040924244 -0.035002653 0.026619071
000310 9f 30 48 3d f5 b5 6a bd 94 76 2b bd d2 1e 4a 3d
       0.048874494 -0.057302434 -0.04186113 0.0493458
000320 5d 8c 05 3d 08 a1 02 bc ab 86 a6 bd 3a 81 3b 3d
       0.032604564 -0.007972963 -0.081311546 0.045777537
000330 9c 18 5d 3c 54 89 84 bc 5f 86 46 3d 5b d8 2c 3d
       0.013494637 -0.016178764 0.04846799 0.04219852
000340 e2 1a 22 3d f4 08 33 bd d7 2f 4c bd 94 d9 9c 3c
       0.03957642 -0.04370971 -0.04985031 0.019146718
000350 92 c8 06 3e b0 8a 33 3d 31 71 20 bd 98 ab 97 3d
       0.13162449 0.043833435 -0.039170448 0.07405776
000360 9d 72 cf bc 2c 00 24 3d e0 ae c2 bd 9b 6e 69 bc
       -0.025323207 0.040039226 -0.09506011 -0.014247562
000370 32 ae 89 bd da 64 5b 3c 97 35 b7 bc a4 51 9c 3d
       -0.06722678 0.013390744 -0.02236442 0.07632759
000380 e2 95 97 bc 94 0b 9d bd 69 aa f4 3b c1 df 8c bd
       -0.018504087 -0.07668224 0.0074666035 -0.06878615
000390 c3 d0 12 3e 6d 3d 7c 3d 5d 6d 0e bd 94 e4 40 bc
       0.14337449 0.061582018 -0.034772266 -0.011773247
0003a0 cb 97 bf bd 63 c7 03 3d 3a 26 06 3e 03 bc 07 be
       -0.09355124 0.032172572 0.1310052 -0.13255315
0003b0 87 c3 25 bd ee 9c c6 3c ee 0a 59 3d e5 4a 69 bd
       -0.040469673 0.024244752 0.05298894 -0.05695619
0003c0 b4 f9 19 bd e0 52 af bc bb a7 59 bd ee fe b6 bd
       -0.03759165 -0.021401823 -0.053138476 -0.08935343
0003d0 97 08 06 be e5 79 6d bd a8 9f 2c 3d ec c9 1d 3d
       -0.13089214 -0.057977576 0.042144448 0.038522646
0003e0 62 e9 a3 3c 90 b8 2e 3d cc b7 a7 3d b7 ee 47 3d
       0.020008747 0.04265648 0.08189353 0.04881164
0003f0 d0 54 37 bd 92 e5 60 3d 17 9b 5e bd 04 ae 33 3d
       -0.044758618 0.054906435 -0.054347124 0.043867126

action_model._discrete_distribution.branches.3.bias f4 [2]
000000 26 8c 00 bb 6b 8c 00 3b
       -0.0019614785 0.0019614946

action_model._discrete_distribution.branches.3.weight f4 [2, 256]
000000 da 2b 95 3c 9e f6 db bc c6 41 46 bd 64 f5 57 bd
       0.018209387 -0.026850995 -0.04840257 -0.052724257
000010 fc 11 42 bb 72 ca b1 3c 4e 8a d2 3c e4 f4 5e 3c
       -0.002961277 0.021702979 0.025700714 0.013608191
000020 82 ff 21 bc 9a 23 2c 3c 83 34 33 bc c1 23 2b 3d
       -0.009887578 0.010506535 -0.010937813 0.041782144
000030 9b ec b3 bc 73 dd cb bd 61 ce 82 bc 1d f2 a9 bc
       -0.021963408 -0.099543475 -0.01596755 -0.020745331
000040 b2 24 ae 3c 11 f3 af 3c 2c 69 0b 3d 09 fb 43 3d
       0.021257732 0.021478208 0.034035847 0.047846828
000050 6e 8f 13 3c d0 10 3b 3c 91 5e 5c 3d 11 f4 71 bb
       0.009006364 0.011417583 0.053801123 -0.0036919157
000060 9b 82 8d bc 3b 91 d9 bb 1b 17 a2 bc 3e 43 09 3c
       -0.017274192 -0.0066396273 -0.019786408 0.008377848
000070 be a4 8e 3c f1 a1 97 bc 34 eb 11 bb 23 e4 5f 3d
       0.01741254 -0.018509837 -0.0022265436 0.054660928
000080 62 0a 03 ba 69 bf 88 ba d3 33 40 bd 85 29 ed bd
       -0.00049988006 -0.0010433021 -0.046924423 -0.11580185
000090 5d 11 88 3c 25 ee a7 bc 54 af 6d 3c 7e cf ab b9
       0.016609842 -0.020499298 0.0145071335 -0.00032770255
0000a0 7c 1a 14 3d 87 1a 4e 3d b5 c7 8b bc 5d fa 4f 3d
       0.03615807 0.050318267 -0.017063001 0.050775874
0000b0 fd 30 90 3d 36 16 c8 3c a9 78 cb 3c 7f 31 09 3b
       0.07040594 0.024424654 0.024837809 0.0020934043
0000c0 8e 68 08 3d fc 8a 7d bc 14 9b 4d bd 2b 1f a8 3b
       0.033302836 -0.015475031 -0.050196722 0.0051306686
0000d0 bb a9 22 3c 9b 12 5b 3c f5 c5 5d ba 47 91 77 3d
       0.009928162 0.013371135 -0.0008459979 0.06044128
0000e0 76 c7 c3 bc 6e 14 a6 3b e3 eb e6 bc d9 7c 73 3d
       -0.023898821 0.0050683534 -0.028188651 0.059445236
0000f0 3e bd 17 3d 96 c6 de 3c a6 0f 87 3d b8 a0 6a 3d
       0.03704571 0.027194303 0.065947816 0.05728218
000100 29 fc 06 3c 38 c0 21 bc 45 34 bd bb 7b c0 7e b9
       0.008238831 -0.009872489 -0.0057740533 -0.00024295032
000110 6d 75 8b 3c db ce af bc f8 2d 52 bd 61 fe 7d bd
       0.017023766 -0.021460941 -0.05131337 -0.062010173
000120 97 b7 1c bb 7c 38 a7 bd 4e 27 bc bc e9 cc b7 3d
       -0.002391314 -0.081650704 -0.02296796 0.089746304
000130 2c 23 5d 3c 8a f4 83 3c d4 70 73 bd 22 e8 d6 bc
       0.013497155 0.016107816 -0.059433773 -0.026233736
000140 00 9a 77 3b be 5e 57 bd 78 82 8d 3c 36 d6 c2 3c
       0.0037781 -0.052580588 0.017274126 0.023783784
000150 74 7e 98 3c 8d 93 7d 3d 03 1e 66 bd 0a 34 69 3c
       0.018614985 0.061908294 -0.056180965 0.0142335985
000160 19 08 3c bd 0c 9b 10 3c 3d 9d 10 bd 18 b9 a9 3b
       -0.04590616 0.008826029 -0.035306204 0.0051795356
000170 1d 3e a2 3c 55 a7 3a 3c 58 84 11 3d e1 e0 48 3d
       0.019805009 0.011392434 0.035526603 0.049042586
000180 9f 68 63 bc d7 33 06 3d 44 e4 0a 3d 88 db 3c 3d
       -0.013879924 0.032764282 0.033909097 0.0461078
000190 3b 78 5c bd 2c 49 34 3c 48 04 ea 3b cf 3c c2 3c
       -0.0538256 0.011003774 0.0071416236 0.023710636
0001a0 c3 b6 9b bd c3 7a 8d 3b d0 74 03 bb b1 8c 88 3c
       -0.076032184 0.004317613 -0.002005864 0.01666865
0001b0 3c bb 90 3c 66 11 cb bc 2d 08 6c 3d 5a 5b 4f 3d
       0.017667405 -0.02478857 0.057624985 0.05062423
0001c0 43 17 07 3d 6a 67 c1 3c 73 86 fc bc 73 c4 0c 3d
       0.03298117 0.023608882 -0.03082583 0.034367036
0001d0 7b bd f0 bc 36 09 94 bd c5 99 17 bd db 00 b4 3c
       -0.029387226 -0.07228319 -0.03701188 0.021973064
0001e0 bc 2b 49 bc 25 fc 98 bc 7c a7 26 3d c7 c3 48 3d
       -0.0122784935 -0.01867492 0.04068707 0.049014833
0001f0 0e 1a ac 3c a4 72 98 bc 5a 9d bb 3c 90 b4 84 bb
       0.021008518 -0.018609352 0.02290218 -0.004049845
000200 ef bb 95 bb b2 a2 e3 3c ae 88 c0 3b 2b fe c6 b8
       -0.0045695226 0.02778754 0.0058756685 -9.488718e-05
000210 84 78 d3 3c 49 58 1b 3d 76 e5 0c 3d 20 7d 88 3c
       0.025814302 0.037925992 0.03439852 0.016661227
000220 7e b4 cd 3c e5 dd a3 bc 4a b9 b0 bb 78 98 02 3d
       0.02511048 -0.020003268 -0.005393182 0.031883687
000230 bd fd ea bc 52 12 5f 38 1f c0 4d 3d a0 15 05 bd
       -0.028685445 5.3184405e-05 0.05023205 -0.032491326
000240 82 28 21 3d 38 c8 93 bc 3d c4 74 bd 49 78 ef bb
       0.039345272 -0.018039808 -0.05975746 -0.0073080403
000250 da 58 e7 bc 41 c6 a4 bb a3 e1 09 bd 6b 98 3e bd
       -0.02824061 -0.0050285165 -0.03366245 -0.046532076
000260 37 4c b6 bd c9 82 be bb fc 05 08 bd 08 86 ed 3b
       -0.089012556 -0.0058139306 -0.033208832 0.007248644
000270 a4 d1 b1 bb 72 ad c1 3c 02 4f d9 3c 03 d6 a0 3d
       -0.0054266024 0.023642275 0.026526932 0.078533195
000280 31 36 d8 b9 d6 4d 9f bd 14 22 90 3d 27 40 2d 3c
       -0.00041239106 -0.07778518 0.0703775 0.010574377
000290 96 d0 15 3d d8 5e 8e bc 7f 5a 30 3d e7 73 57 bd
       0.036575876 -0.01737921 0.043055054 -0.052600767
0002a0 1b 51 8a 3c 5b 71 df bc ae b3 3d bc 4b 17 1a 3d
       0.016884377 -0.027275732 -0.0115784835 0.03761987
0002b0 3f a1 32 bd 95 88 b1 bb db 81 18 3c c1 25 48 3c
       -0.043610808 -0.005417893 0.009308304 0.0122160325
0002c0 b2 19 81 bb ad 9a 0c 3d 5f 57 b3 bb e4 3a a3 bc
       -0.0039398307 0.034327198 -0.005473062 -0.019925542
0002d0 62 5a 07 bd f9 fc 45 3d 05 0f 56 3c da a1 97 bc
       -0.03304518 0.048336957 0.013065104 -0.018509794
0002e0 4e f8 9d bb 7f 66 2f 3d 16 00 8b bc 77 8a 50 bd
       -0.00482086 0.042822357 -0.016967814 -0.0509133
0002f0 c4 b9 06 bc 49 69 3a 3d 2d 56 55 3b 66 7a f0 3c
       -0.008223001 0.045510564 0.0032552585 0.02935524
000300 d8 3c cd 3b 1a 04 0e 3d 6a 14 5f 3b ff 16 60 3c
       0.0062633567 0.03467188 0.0034039267 0.013677358
000310 a4 c7 4e 3c 27 78 02 3d 3d f0 5c 3c c6 e2 5f 3d
       0.01262084 0.031852867 0.013485012 0.054659627
000320 f3 6e 4e bd 05 6d 64 3d e0 d4 57 3c 2d dd 97 3c
       -0.05039878 0.05576803 0.013173312 0.018538082
000330 65 75 34 bd 5a c6 de b9 cc 2a 81 3d 1a 10 15 bd
       -0.04405727 -0.00042490923 0.06306991 -0.03639231
000340 46 ea dd bc 7c 30 c3 3b 31 4f 9f 3c 28 ff f2 bb
       -0.02708925 0.0059567075 0.019446941 -0.007415671
000350 73 c7 40 3c 46 24 bf ba cd 10 5d 3d 87 4f 01 bc
       0.011766302 -0.0014582954 0.0539711 -0.007892496
000360 a0 34 2a 3c 53 d8 e3 bc 1a 33 e4 3c 5d 32 80 bd
       0.010388523 -0.027813112 0.027856398 -0.06259606
000370 6f 5a 1f bc ad a5 b8 3c 45 06 dd bc 3e af 1a 3d
       -0.009726151 0.022539938 -0.026980529 0.03776478
000380 48 58 98 3b 79 40 06 3d 87 aa d7 3c 4b cb c1 bb
       0.004649196 0.03277633 0.026326431 -0.005914127
000390 0f b4 f6 bb c5 11 53 bb e9 23 25 3d 88 d2 76 bc
       -0.007528789 -0.0032206636 0.04031745 -0.015064843
0003a0 a6 67 3b 3a 32 ee c2 3b 04 02 99 bc bc f7 27 3d
       0.00071489287 0.0059488053 -0.018677719 0.041007742
0003b0 09 e6 d7 bc 8a b2 36 bb fb 0d d2 bc d9 96 f4 bc
       -0.026354806 -0.0027877414 -0.025641432 -0.029857086
0003c0 e7 92 4d 3c f4 c3 b4 bc ea 31 1d 3d 0f e3 9f 3c
       0.012547231 -0.022066094 0.03837768 0.01951745
0003d0 2a ec 06 3d 09 18 54 3d bb 37 26 3d aa 39 e9 3c
       0.032940067 0.051780734 0.040580492 0.02846988
0003e0 7a a1 c9 3c 40 b0 66 3d a3 14 3e bd d5 07 5f 3d
       0.02461313 0.05632043 -0.0464064 0.05445083
0003f0 ba b3 4f bb 30 ec e4 3c d0 25 09 bd 0c 28 0a bd
       -0.0031692819 0.027944654 -0.033483326 -0.033729598

action_model._discrete_distribution.branches.4.bias f4 [2]
000000 bd a4 b5 3c b0 a4 b5 bc
       0.02217328 -0.022173256

action_model._discrete_distribution.branches.4.weight f4 [2, 256]
000000 2e 94 be bc 28 49 f0 3c 0f f0 3c bd a6 48 8e 3b
       -0.023264017 0.029331759 -0.046127375 0.0043421565
000010 77 92 5c bc 63 1c bc bc 8a ed 3a bd c3 b9 83 3d
       -0.013462654 -0.022962755 -0.04563669 0.064319156
000020 30 3b d3 3c f3 96 48 bd 45 ce b3 3a 95 8d 7a 3d
       0.025785059 -0.04897208 0.0013718089 0.06117018
000030 53 0e a6 3c e3 04 13 3d e0 19 f1 bc c9 bd cd 3c
       0.020270502 0.035893332 -0.029431283 0.02511491
000040 3f e2 84 3b 72 a2 c0 bb 07 7b 19 bc cf e3 16 3d
       0.004055291 -0.00587874 -0.009367711 0.03683835
000050 f5 9a a9 3c b0 87 07 bc 0f ca f3 3c 17 09 85 bc
       0.020703772 -0.0082720965 0.029759435 -0.016239686
000060 0f 36 eb 3c c5 ae 69 bd d1 48 1a bb b9 ac 65 bd
       0.0287123 -0.05705144 -0.0023541937 -0.056072924
000070 15 17 e7 3c e2 0c 51 3c 1f 99 a5 3b b6 04 59 3c
       0.028209249 0.012759419 0.005053654 0.013245752
000080 c4 cf 31 3d 29 02 39 bc 92 41 b0 3c a2 79 7f 3d
       0.04341103 -0.011292019 0.021515641 0.062371857
000090 d5 52 80 3c a2 aa b9 bc ba 24 20 bd ad 26 da 3d
       0.015664497 -0.022664372 -0.039097525 0.10651908
0000a0 b2 b8 66 bd 71 ef 30 bc 40 3a 86 3d 07 f3 4e 3d
       -0.056328483 -0.010799275 0.06554079 0.050524738
0000b0 73 5a 0a 3d f0 1d f8 bc 0c eb 70 ba e1 8e ea bc
       0.033777665 -0.030287713 -0.0009190298 -0.028632583
0000c0 81 49 9c 3c 04 2d ba bc 39 bd 1c bd 52 12 7c 3a
       0.019078018 -0.022726543 -0.038266394 0.0009615767
0000d0 12 7f 0d bc e2 3a 22 3c 14 e1 10 bd 75 33 09 bd
       -0.008636253 0.009901734 -0.0353709 -0.03349634
0000e0 6e 35 17 bd 9e c6 83 bc be c2 0d 3d 4f d6 4f bc
       -0.03691619 -0.016085919 0.03460955 -0.0126853725
0000f0 9d a1 7e 3c c4 0a 03 bd 47 a6 2f bd 5d 50 10 bd
       0.015541461 -0.03199269 -0.042883184 -0.03523289
000100 97 58 93 bc 36 46 19 bd bc 9e 43 3c 99 09 29 bb
       -0.017986579 -0.037420474 0.011939701 -0.0025793074
000110 73 79 83 3b 20 16 6f 3d 25 6c 58 bd 0e 8a 05 3c
       0.0040122806 0.05837071 -0.05283751 0.008150591
000120 f5 4e ed bc ba 00 b4 3b bf 4f f7 3c ed 65 6c 3c
       -0.028968314 0.0054932507 0.030189393 0.014428598
000130 e0 81 c2 3c fc 63 8e 3b 5f 37 44 bd 61 20 6d 3c
       0.02374357 0.004345415 -0.04790437 0.014473052
000140 b9 b2 ad 3c 4f 7f b1 bc 22 3a a1 bc 3d 42 ea 3c
       0.021203386 -0.02166715 -0.01968104 0.028596038
000150 99 a8 da bc da f8 0c 3d bf ad e1 bc c1 05 47 3d
       -0.026691722 0.03441701 -0.027548669 0.04858947
000160 16 c1 cc 3c f2 ef c1 3c 3e b4 00 bb 86 a0 3a 3c
       0.024994414 0.023673985 -0.0019638683 0.011390811
000170 1d 4e a0 3d ca e9 5d bd c3 d4 8d bd 5f a2 68 bc
       0.07827399 -0.054178037 -0.06925347 -0.014198869
000180 bb f2 78 bd 30 2a 07 bc 58 60 21 3d f8 64 af bc
       -0.06077836 -0.008249804 0.03939852 -0.02141045
000190 02 a6 84 bd ce 3e 0e 3c 3b 53 ad bc 21 c3 df 3c
       -0.06476976 0.008681966 -0.021157851 0.027314724
0001a0 9f 84 90 3c 11 71 aa 3b ba 4b 1b bc b6 a1 ab 3b
       0.017641364 0.005201467 -0.009478504 0.0052377833
0001b0 c3 80 2d bd 23 74 5b bb 94 41 c9 3b 44 b8 96 b9
       -0.042359125 -0.003348597 0.0061418507 -0.00028747518
0001c0 ca 59 62 bc 9c 96 7e bd 93 60 f9 3c 52 b2 f7 bc
       -0.013815353 -0.06215535 0.030441558 -0.030236397
0001d0 0d a5 da bc e9 92 51 3d 36 c0 73 3c 60 b2 8f bc
       -0.02669003 0.051165495 0.01487737 -0.01754111
0001e0 ae 07 b3 3c 3e 92 87 3c 28 f0 5b 3a 33 a9 4a bd
       0.021854248 0.016549226 0.0008389973 -0.049477767
0001f0 9b 6d 63 bc 6b 7a 5d 3d 91 f0 ba bc 66 dc e8 3b
       -0.013881112 0.054071825 -0.02281979 0.0071063517
000200 4b 7f 35 3c ef ec bd 3c 94 12 b2 bc e8 2b a0 3b
       0.011077712 0.023184268 -0.021737374 0.0048880465
000210 77 8d 2a bd 36 7d b6 bc 37 79 98 bc 9c 83 1d bc
       -0.041638818 -0.022276502 -0.018612487 -0.009613898
000220 ed 28 f2 bc 4f 1e 38 bd df a8 30 3c 30 b4 8b 3c
       -0.02956053 -0.04495078 0.0107824495 0.017053694
000230 71 a5 e8 bc 39 02 c1 bc 33 48 6e b9 c1 6b 6d 3d
       -0.028399201 -0.02356063 -0.00022724345 0.05796409
000240 bf 46 9f bc 16 69 c3 38 f9 71 54 3d 73 72 c2 bc
       -0.019442914 9.3178984e-05 0.051866505 -0.023736214
000250 ad 5d 46 bd 85 8a a7 bc d1 8d ce 3c 7f 2e 0f bc
       -0.04842918 -0.020451793 0.025214108 -0.008739113
000260 35 cd ff bc 1f 0c 8a bc fa d0 f8 bb 85 cf 04 3d
       -0.03122578 -0.016851483 -0.0075932713 0.03242447
000270 3b 4b 2b bc f9 6b 65 bc 32 eb 71 3d 18 4c 6d bc
       -0.010454948 -0.0140027935 0.05906219 -0.014483474
000280 a2 5f 88 bb b0 ea ae 3d 3e 02 c9 bc 3b bf a8 bc
       -0.004161791 0.08540857 -0.024537202 -0.020598998
000290 05 e1 10 3b 4a 87 87 3d 9b a7 bb bc f8 3b 78 3d
       0.0022106778 0.06617601 -0.022907069 0.060604066
0002a0 c1 74 9b bb 74 84 8f bc 6b 47 53 3c a9 3c 82 bc
       -0.0047441428 -0.017519213 0.012895445 -0.015898066
0002b0 65 d0 e4 3c 82 ad 2b bd e1 95 a5 bc 96 32 08 bd
       0.027931402 -0.041913517 -0.02021307 -0.033251368
0002c0 09 ea 2e bd 58 fb 64 bd 40 a0 25 3a 83 8f 05 bd
       -0.042703662 -0.055903763 0.00063181296 -0.032607567
0002d0 36 a8 29 bd 51 d9 5f bd 91 92 a8 3c 8c 02 09 bd
       -0.041420184 -0.05465061 0.0205777 -0.033449695
0002e0 0e 73 85 bd 60 bb b2 3c d3 86 82 3b 4b 4a 05 b9
       -0.065160856 0.021817863 0.0039833575 -0.00012711545
0002f0 bc fb 44 3d 30 2d d4 bc 9f a5 a2 bc 7a 5c 62 bd
       0.048091635 -0.025900453 -0.019854365 -0.055263974
000300 f4 84 5a bc ba 31 06 bd 58 17 c9 3a 9f ce 47 ba
       -0.013337363 -0.032762267 0.001534204 -0.00076220365
000310 10 8b 79 bc 59 60 a2 3a 65 85 26 3d d8 33 60 bb
       -0.015230909 0.0012388333 0.04065456 -0.0034210589
000320 49 2f 05 bd 9c 46 35 3d fb 0c 20 bd 7d f0 04 3d
       -0.032515798 0.04425679 -0.03907488 0.03245591
000330 32 ec 4c 3c c1 a3 42 bd 91 aa 24 3d 80 6f 90 3c
       0.012507485 -0.04751945 0.040201727 0.017631292
000340 81 aa 5f bd b1 12 01 bc 7b 96 76 bc 68 de dd bb
       -0.054605965 -0.007877992 -0.015050526 -0.0067708977
000350 e6 c8 ee bb 86 21 da 3a c5 98 b8 bc 4c 79 30 39
       -0.0072871326 0.0016642071 -0.022533784 0.00016829855
000360 73 bf f7 bb 07 3c 0a 3b b1 67 ae 3c a6 7f f9 3b
       -0.0075606643 0.0021092908 0.021289678 0.007614094
000370 05 47 f5 bc 41 68 32 3c 82 db ef 3a 13 d8 aa 3c
       -0.029941091 0.010889114 0.0018299671 0.020854985
000380 1c 0a d9 bc 4e 9b 6a bb d0 e9 bf bd 9e 0c c8 bb
       -0.026494078 -0.0035798135 -0.09370768 -0.0061050197
000390 c4 bf 42 3b 19 78 e1 bc 2e 5c 0f bd ca 6d 2e bc
       0.0029716352 -0.027523087 -0.03500002 -0.010646293
0003a0 41 35 04 bd 02 0a 7d 3b b8 75 d5 bc 2c c2 ea 3c
       -0.03227735 0.0038610701 -0.02605711 0.028657041
0003b0 f7 9b 24 3d 36 a5 62 bc 8e 63 b8 3c 9b 96 3c bd
       0.040187802 -0.013833335 0.022508409 -0.046042066
0003c0 fb 97 fa bc 14 43 06 bc 7b 34 90 bc f8 d7 10 bc
       -0.030590048 -0.008194704 -0.01760315 -0.008840553
0003d0 02 e5 8a 3c d4 a5 3f bc af 77 50 3d 59 01 30 bd
       0.016954903 -0.011697251 0.05089539 -0.042970035
0003e0 05 0b cd 3b 08 c8 ec bc 52 81 fe bb 5f 4c 8c 3d
       0.006257417 -0.028903976 -0.007766881 0.06850504
0003f0 dd bb 92 bd df 04 88 bd d1 33 15 bd a4 d0 cc bc
       -0.07164738 -0.06641554 -0.03642637 -0.025001831

discrete_action_output_shape f4 [1, 5]
000000 00 00 40 40 00 00 40 40 00 00 40 40 00 00 00 40
       3.0 3.0 3.0 2.0
000010 00 00 00 40
       2.0

network_body._body_endoder.seq_layers.0.bias f4 [256]
000000 75 af 6d 3d f0 79 83 bc e9 37 5a 3d 2f 54 84 bd
       0.058028657 -0.016049355 0.053275976 -0.06461369
000010 66 a1 0b 3c dd b0 ab 3c e2 89 86 bd 21 47 2b bd
       0.008522367 0.020958358 -0.06569268 -0.04181588
000020 90 bb 12 bd 44 c4 95 bc 41 db 60 bd b7 38 9d bc
       -0.035823405 -0.018282063 -0.054896597 -0.019192083
000030 77 00 cb bc 15 23 44 3c 7c fa f4 bd f3 f4 82 bb
       -0.024780495 0.011971255 -0.119618386 -0.0039964854
000040 88 15 f1 3c 13 ad 97 bd 04 31 23 be aa be f0 bc
       0.029429212 -0.07406058 -0.15936667 -0.02938779
000050 b8 a8 a3 3c 3b 2d 37 bc 2b 81 7c bd 13 eb c1 3d
       0.019977912 -0.011180217 -0.06164662 0.09468665
000060 e1 9c 22 3d 14 f1 23 bd dd 38 6e 3d 69 a0 7b bd
       0.039700393 -0.040024832 0.058159698 -0.061432276
000070 51 d8 a3 bc 51 f2 ef bb 20 fd 0f bd 3f bb 17 bd
       -0.020000609 -0.0073225875 -0.03515351 -0.037043806
000080 17 b0 1f bc 27 1b 19 be 3a 83 9a bb e5 20 01 be
       -0.009746573 -0.14951764 -0.0047153505 -0.12610205
000090 30 c5 93 bc b2 43 f2 bd be 17 43 3d 8c 9e 63 3d
       -0.018038362 -0.11829318 0.047630064 0.055571124
0000a0 99 64 03 3e c5 11 c9 3c a1 f0 bb bc 9d be d6 bd
       0.12831344 0.024544606 -0.02294189 -0.10485575
0000b0 43 f8 15 3d 1d e9 a3 bc a7 8a 0a be ad 6c 66 bc
       0.036613714 -0.020008618 -0.13529454 -0.014063996
0000c0 f8 0f d5 bc 4a 9d f2 bd 1b f3 c8 bd 57 c7 8f bd
       -0.026008591 -0.11846407 -0.09811994 -0.07020443
0000d0 ce 43 93 bd 4a c9 90 3c f0 98 a8 39 f9 12 25 3d
       -0.07190667 0.017674107 0.00032157404 0.040301297
0000e0 1d 42 f0 bc 38 6f ad bd c6 f7 a0 bd cf c8 b4 bd
       -0.0293284 -0.08468479 -0.07859759 -0.08827364
0000f0 7b 17 90 bd f9 83 05 bb 94 1c ed bd d9 e5 7c bd
       -0.070357285 -0.0020372851 -0.115777165 -0.061742637
000100 9c 94 ae bc 5a a6 9b bd 4d 6a f4 bd 0b f0 fb bd
       -0.021311097 -0.076000884 -0.11934338 -0.12301644
000110 11 60 32 bd af a2 35 3d 70 98 60 bd e7 81 0a be
       -0.043548647 0.0443446 -0.054832876 -0.13526116
000120 f9 99 67 bd fc 8d b4 3c d7 84 a1 bc a1 55 28 bd
       -0.056543324 0.02204036 -0.019716663 -0.041097287
000130 5c 86 74 3c 33 55 47 3d 84 12 8e bd 02 1e c8 bd
       0.014924612 0.048665237 -0.06937125 -0.097713485
000140 87 40 a3 bd f4 a0 e9 bc 93 56 c0 bd a8 c0 f6 3c
       -0.07971292 -0.028519131 -0.09391513 0.030121163
000150 99 7b 10 bd 67 fd 15 bd 5e d2 83 bc cd 6a 80 bd
       -0.035274122 -0.036618616 -0.016091522 -0.06270371
000160 8e f8 90 bb 37 a6 25 bc 78 66 35 bd ad de b0 bd
       -0.0044241613 -0.0101104295 -0.044287175 -0.08636222
000170 70 40 82 3c 3a 9b 9f bc cf 1a 85 bd f8 26 22 bd
       0.015899867 -0.019483197 -0.06499254 -0.039587945
000180 70 f3 81 bd 91 f2 b6 bd 21 36 83 bc ac 16 61 3d
       -0.0634526 -0.089329846 -0.016017022 0.054953262
000190 ee 72 1f 3d 59 f9 86 3d 64 cf 9d 3b 68 6f 02 bd
       0.038927965 0.06590528 0.0048159827 -0.031844527
0001a0 06 4c 7b 3b 67 86 f6 bd cb 96 47 3c d0 e2 db bc
       0.0038344874 -0.12037354 0.012181948 -0.026841551
0001b0 9f b5 93 bd f0 e2 8a bd ca 32 a9 ba a8 7a 16 3d
       -0.07212376 -0.06781566 -0.0012908813 0.036738068
0001c0 16 91 ae bd f3 f8 9e 3b 81 1c 3a bd 20 d6 92 3d
       -0.08523767 0.0048514544 -0.04543734 0.07169747
0001d0 b6 d4 e8 3c fa f6 a4 bd 31 76 64 bc ca 89 ac bd
       0.028421741 -0.080549195 -0.013944195 -0.08424719
0001e0 ed d9 7a bd d3 be 89 3d 7b 89 0d bd b7 07 7d ba
       -0.061242986 0.0672585 -0.03455494 -0.00096523337
0001f0 65 d3 8b 3d f1 3b 7e bd 2e 60 19 bd e9 eb af 3c
       0.0682743 -0.062068883 -0.03744524 0.021474795
000200 d2 0b 9e bd a2 16 03 3c 8b b2 26 bc 29 b7 06 bd
       -0.07717098 0.008001002 -0.010174404 -0.03288952
000210 62 6e 9c bd a7 c6 3c bd fc 0e 1a bd fe 36 86 bd
       -0.07638241 -0.046087887 -0.037611946 -0.06553458
000220 4b 9e 26 be d3 99 75 3c d6 cc ee 3d 38 da d3 bd
       -0.16271321 0.014990288 0.11660163 -0.10344356
000230 4d d1 84 bd 14 5a dc bd 15 75 84 b9 7b 95 4f 3d
       -0.064852335 -0.107593685 -0.00025264235 0.050679665
000240 10 49 86 3d c7 d2 ae bd 0e 9c e6 bd d1 35 58 bc
       0.06556904 -0.08536296 -0.11260234 -0.013196425
000250 89 5d 8b bc 07 84 c9 3c d1 e1 5a bd ee e1 b4 bd
       -0.017012374 0.024599088 -0.05343801 -0.08832155
000260 f2 57 9c bd 43 6d 92 bd 8a ac 3d bc 53 e9 38 bd
       -0.07633962 -0.07149746 -0.011576781 -0.04514439
000270 21 3e 69 bd eb e4 06 bd a2 64 16 3d 87 c5 df bd
       -0.056944016 -0.032933157 0.036717065 -0.10926347
000280 dd 48 e4 bc 1d 26 dd ba 9b 15 f5 bc 78 e4 86 bb
       -0.027866775 -0.001687232 -0.029917529 -0.004116591
000290 e3 a2 dc bd 09 fd ee bc 95 51 b0 3d 32 54 7f bc
       -0.10773256 -0.029173391 0.086093105 -0.015584039
0002a0 eb 34 37 3d 19 02 fb 3c c4 18 2a bd cb 9e dd bd
       0.0447282 0.030640649 -0.041527525 -0.10821303
0002b0 1b 7f ea bc 1a 03 8b 3c 78 24 0b bc 14 f7 8f 3c
       -0.028625062 0.016969252 -0.008492582 0.01757387
0002c0 d7 aa b3 bc 63 8e 84 bc 37 5b 0a bd ee ed 2f be
       -0.021932049 -0.016181177 -0.033778396 -0.17180607
0002d0 40 5d f6 bd 2e 16 90 ba 10 ac 25 bd 2f e4 4a bd
       -0.12029505 -0.0010992938 -0.040447295 -0.04953402
0002e0 35 d4 91 3d b2 14 07 be 69 d1 4e bd 5d 82 df bd
       0.071205534 -0.13191488 -0.050492678 -0.10913537
0002f0 d3 12 93 bd a4 97 fe bc 98 c2 40 3c d8 ed 59 bb
       -0.07181325 -0.031078167 0.011765145 -0.0033253338
000300 7a e8 cd bd c9 39 dd bd 88 f0 32 bd 03 42 96 3b
       -0.10054107 -0.10802037 -0.04368642 0.004585506
000310 b7 34 f6 bd 96 36 9a 3d ae 2c 40 bd 5c 3f c1 bc
       -0.12021773 0.07529943 -0.04691761 -0.023589782
000320 2f dc e0 bc a0 c7 2d bd 66 40 f1 3c 55 26 4f bd
       -0.027448742 -0.042426705 0.029449653 -0.050573666
000330 08 ba 0d bd bc 0c 7b 3d 2e 73 bf bd d1 e9 6f 3d
       -0.03460124 0.06129144 -0.09348141 0.058572594
000340 ea b5 6d bd c7 9c f5 3d dc af 6f bc d5 bd 74 3b
       -0.058034815 0.119927935 -0.0146293305 0.0037344594
000350 8b 6a 03 be 13 fd 04 bd 66 68 a7 bc 98 40 d9 bd
       -0.12833612 -0.032467913 -0.020435523 -0.106080234
000360 89 5d 0a bd 49 79 51 bd 59 ae bf bd e0 6b 9b bd
       -0.03378061 -0.051141057 -0.09359426 -0.07588935
000370 c2 27 82 bd 7b c6 11 3d 07 d9 49 bd 30 0f 8c 3d
       -0.063552395 0.035589676 -0.04927924 0.06838834
000380 0c 24 b2 bd 45 8e 85 39 e2 13 70 bd 90 31 81 bd
       -0.08698282 0.00025473736 -0.05861271 -0.063082814
000390 ef 5d da bc 2a d3 06 bd 95 66 97 bd c7 1b 40 bd
       -0.02665612 -0.032916225 -0.07392613 -0.04690149
0003a0 7a 20 03 be 73 c8 4d bd 24 54 c6 bd 11 90 ad bb
       -0.12805358 -0.05023999 -0.09684017 -0.005296715
0003b0 2d 5b b7 bd d0 a4 de bd 98 ba c2 bd ff 2d 26 bd
       -0.08952937 -0.10871279 -0.09508246 -0.04057121
0003c0 ec f4 02 bd 5d 70 2d 3b 29 6d 77 3d d2 42 ed bd
       -0.031971857 0.0026464679 0.060406838 -0.115850106
0003d0 e0 fc 64 bd 86 e6 ad bd 24 dd 0a bc 21 f1 dd bd
       -0.055905223 -0.084912345 -0.008475576 -0.10837007
0003e0 6e e4 06 3d 54 09 70 3c 30 1c 28 bd 7e 07 8b 3d
       0.03293269 0.0146506615 -0.041042507 0.067885384
0003f0 85 53 4c bd 1f ee aa bd f5 2d bd bc a6 56 75 bd
       -0.049884338 -0.08346199 -0.023093203 -0.059897088
