Assets/Model/2022051204.onnx (onnx, 86349 bytes, 9 tensors)

action_model._continuous_distribution.log_sigma f4 [1, 2]
00000000: 70f0 75bd 98a4 c73d
-0.060043752 0.09748191

action_model._continuous_distribution.mu.bias f4 [2]
00000000: 41a2 1e3d 6436 c2b9
0.038728956 -0.00037043088

action_model._continuous_distribution.mu.weight f4 [2, 128]
00000000: 65dd d1bc e1d6 113d 18f5 8fbc bf02 a63d
00000010: 546c bdbc 2654 7f3d ebb2 db3c 0ff8 47bc
00000020: 2c3d 08bd f1e1 49bd ad41 d73b 1e3a 383c
00000030: 4953 b63c 10ba 543c a6d2 ae3b a803 eebc
00000040: 7bed e2ba 8a75 2f3d cac9 5abc 014e b8bc
00000050: eb8d 2e37 7708 10bb 9cd2 03bb fd02 b13d
00000060: 441c 343d e451 64bd 8149 31bd 844c 48bc
00000070: 4c77 d63c 5113 023d e77a 24bc 5ea9 55bc
00000080: 7994 90bc 1ea0 35bc d753 183d 4953 b0bc
00000090: a7b9 5bbc e816 19bd 3ce4 803b 3b49 183d
000000a0: c30b 283c d098 923d 8c18 f6bb f212 193d
000000b0: a895 fc3c 762d bbbc 795c f3b9 2b28 1bbd
000000c0: 1379 c9bc 619b d33c b407 ceba 78a6 f2bc
000000d0: 11b8 b8bd b813 4bbc 6f54 a2bb 55bf 583c
000000e0: bf37 863c 592c bdbc a0c2 4d3d dd76 bcbc
000000f0: ccc0 1dbb 75c5 0e3d 7450 3ebc ceb5 31bd
00000100: 697c 1739 081f 2cbd 67cd e03b d38c 8a3b
00000110: 3aa2 f63c 6c9a 65bc 1003 99bd dff4 943c
00000120: 932f 013c 3dd1 163d 2400 4f3d b60e 82bd
00000130: 2358 913d 934e b5ba 7013 833d ea7f 03bd
00000140: f569 85bb b4e4 3a3c 7370 2f3c 4fd7 61bc
00000150: 8669 3ebc 35dc 4b3d 42d0 43bb 3266 4abc
00000160: a839 b7bc a349 1fbd 4f9a d1bc f401 903d
00000170: 65d9 233a e161 783b f67c 61bd 888b 6c3b
00000180: 844c 7cbc 00ee 813d 583b 86bb 8f1c 353b
00000190: 5970 48bd 0efa 203c 1522 2dbd 2cc8 fc3b
000001a0: 3260 0e3c a0b5 01bd d4dc f03c b734 18bd
000001b0: 7709 a33d a6ae 97bc a637 363c 7434 e93c
000001c0: 93fb 023d 88d3 f639 b3e4 2fbd 2c8c 7dbc
000001d0: c6ba 843d 727b 0b3c d711 773d 16f9 69bc
000001e0: be69 2fbc a75a 3abc 1eb5 533c 1f8a 56bc
000001f0: 1140 a23c f630 81bc e2c2 443c 191f 47bd
00000200: 20ba bc3b 0a50 69bc cfca b63c 35f9 e3bc
00000210: 3ae1 c23c e8a7 b63b 7725 00bc b95c 82bc
00000220: 9d55 303c e018 d2bd 9970 1ebc 4ba2 44bd
00000230: ab37 bb3c cdc8 df3c 631e 32bd 6305 83bc
00000240: a5ee f23c 056a c0bc f12d 2cbd 22da b1ba
00000250: 3b29 ec3c 73bd d7bb 69f6 cc3c 63d7 993c
00000260: bcfe 613c eb4b ff3a d71f 853c d861 f33b
00000270: fd8f 9b3c e4ce b93b a366 1e3d 045f 153d
00000280: 207a 16bd c14e 903c 5e88 5b3c dca3 af3c
00000290: 117c 5abd 525c b63c 80f1 d03c be4d 3bb9
000002a0: d0c8 08bd 611e 023d a136 123d bbfb d63b
000002b0: 4349 903c 16ff f13c 4df5 5cbd ee8b a4bc
000002c0: 620e 593c 39cd 9fbb ce8c 14bc 1ac6 43bd
000002d0: 0701 3dbc b836 c03c cad4 2d3d 8cb9 8c3c
000002e0: b442 313d eb7a 993b 05fa 033d dfed b93c
000002f0: e89b e7bc 92bb 4fbc bb00 a13a 8700 19bc
00000300: fca2 9abc 391d 043c 769b 4e3d bcd8 e7bc
00000310: c615 1dbc d8f9 6bbd ae86 723c a344 133d
00000320: e8e5 db3a 1d52 843d 62a5 753c 7df0 e63b
00000330: a67e 2fbc 9269 a63c cb39 563d 725e 0e3a
00000340: 4453 3f3d ba0f 3fbd 38dc ebbc e0e6 cb3c
00000350: 1756 7f3c 02d2 dd3c c706 b03a 228a 8ebd
00000360: 6b5a 8d3c 4051 f4bb 853e fcba c30e 163b
00000370: b4a9 403b 3422 913c 46e4 9d3d f33c 433c
00000380: 42fd 0f3d 3f59 053d 8bda 373c b1c6 843c
00000390: 7f4c a4bc a0b5 a8bc 8701 8ebd 6c00 d93c
000003a0: 5663 f8bc 2275 8e3c 4aff 3f3c 00bc 3bbb
000003b0: f30b 3fbb ca28 b83c 1c23 abbd f25c 9a3c
000003c0: ead5 92bc b1f5 cfbc e9b5 05bc fef2 73bc
000003d0: 6bb1 f8bc 2199 083c b879 b63c f3eb 2b3a
000003e0: 9dd0 a5bd ff80 263c bc81 163c 1cc3 e6bc
000003f0: e9a8 133d ef78 4dbc 2381 c4bb 9439 e93a
-0.025618264 0.035605315 -0.017572924 0.081059925 -0.023122944 0.06233611 0.026818713 -0.012205138
-0.033261463 -0.04928774 0.0065691085 0.011244325 0.02225651 0.012983814 0.00533517 -0.029054478
-0.0017313206 0.042836703 -0.013353774 -0.022498133 1.0404251e-05 -0.0021977702 -0.0020114547 0.08643148
0.04397227 -0.05574216 -0.04328299 -0.012225274 0.026179932 0.031756703 -0.010039068 -0.013040869
-0.017648922 -0.011085538 0.03718933 -0.021524088 -0.013410962 -0.03737536 0.0039334577 0.037179213
0.01025671 0.07158053 -0.0075102504 0.037371583 0.03083308 -0.022848826 -0.0004641747 -0.037880104
-0.024593865 0.025830926 -0.0015718848 -0.029620394 -0.09019483 -0.012394838 -0.004953913 0.013229211
0.016384004 -0.023092436 0.050234437 -0.023005897 -0.0024071215 0.03485628 -0.011615861 -0.043386273
0.00014446829 -0.04202178 0.0068604234 0.0042282133 0.030106653 -0.014013868 -0.07471287 0.01818317
0.007884878 0.03682064 0.050537243 -0.06350462 0.07096889 -0.0013832621 0.06400192 -0.03210441
-0.004071469 0.011407066 0.010707962 -0.013784244 -0.011621838 0.049770553 -0.002987877 -0.012353467
-0.02236636 -0.038888585 -0.025586275 0.070316225 0.0006250351 0.0037900137 -0.055050813 0.003609391
-0.015399102 0.06344223 -0.00409643 0.002763543 -0.048935268 0.009825243 -0.04226883 0.007714292
0.008689927 -0.03166735 0.029402174 -0.037159648 0.0796079 -0.018515896 0.011121666 0.028467394
0.0319782 0.0004707838 -0.042942714 -0.015475314 0.06480937 0.008513318 0.060319748 -0.014280578
-0.010706363 -0.011374152 0.0129216 -0.013094454 0.01980594 -0.015770417 0.012009354 -0.04861364
0.0057594925 -0.014240274 0.022313504 -0.027828792 0.023789037 0.005574215 -0.007821432 -0.015913354
0.010762599 -0.10258651 -0.0096704 -0.048006337 0.022853693 0.027317429 -0.04348601 -0.01599378
0.02965481 -0.023488054 -0.042036 -0.0013569037 0.028828254 -0.0065838634 0.025019841 0.018779462
0.013793644 0.0019477581 0.016250534 0.0074274354 0.018989557 0.0056704152 0.0386721 0.036467567
-0.03673756 0.017615678 0.013399212 0.021440439 -0.053340975 0.022260819 0.025505781 -0.00017862671
-0.033394635 0.031767253 0.03569663 0.0065607703 0.017613059 0.02954058 -0.053944875 -0.020086255
0.013248058 -0.0048767594 -0.009066774 -0.047796346 -0.0115358895 0.023463592 0.04243926 0.01717832
0.043276504 0.0046838424 0.03222086 0.022696434 -0.028272584 -0.012678998 0.0012283543 -0.009338505
-0.018876545 0.008063608 0.050441228 -0.02830159 -0.009587711 -0.057611316 0.014802618 0.03595413
0.0016776891 0.06460974 0.014993044 0.0070477114 -0.010711348 0.020314012 0.05230121 0.00054309436
0.046710268 -0.046645857 -0.028791532 0.024890363 0.01558449 0.027077679 0.0013429754 -0.069599405
0.017255029 -0.007455975 -0.0019244706 0.0022896982 0.0029398026 0.017716505 0.07709555 0.011916387
0.035153635 0.032555815 0.011221538 0.016208025 -0.020056007 -0.020594418 -0.06933885 0.026489459
-0.030320805 0.017389838 0.0117185805 -0.0028645992 -0.002915141 0.022480387 -0.08356306 0.018843148
-0.017924268 -0.02538571 -0.008161047 -0.014889477 -0.030358037 0.00833729 0.022274837 0.00065582915
-0.080964305 0.010162591 0.0091862045 -0.028169207 0.036049757 -0.01254104 -0.0059968396 0.0017793649

action_model._discrete_distribution.branches.0.bias f4 [2]
00000000: 7702 3eb7 e01d 3e37
-1.1325456e-05 1.1331838e-05

action_model._discrete_distribution.branches.0.weight f4 [2, 128]
00000000: 9667 e83c 4306 24bd 83a4 b83c 9869 9ebc
00000010: f6d5 4c3d 7e90 a9bc de5e 6b3c 69b8 163c
00000020: 9225 bf3a 36a2 2fbc e50e 28bc 206c 373b
00000030: 60d6 ce3b 5133 3fbc c70c 34bc d85a 203c
00000040: 5bcb c93b 483f c9bc 7fbf 753c 3107 18bb
00000050: 55df 283c aec1 4ebc f974 e4bc 4c77 adbc
00000060: 0777 bdbc a0da 2f3d 1b8c 113c 8f58 913c
00000070: 2986 c5bb 75a3 31bc b0db 2b3c d653 103d
00000080: f63f c73a 5053 b53c bc9a 56bc b7ab f13c
00000090: d4e4 8dbc 4182 56bc 3a24 9c3c 3519 88bc
000000a0: c7af e73c 6d94 bebb 07c5 ed3b d422 bcbb
000000b0: 97d6 43bc 7bb0 4e3c 5875 2b3b 841f bb3b
000000c0: 063e 413d def1 76bc a349 49bc e6a1 1c3c
000000d0: e73b b63b 4ca7 833c f693 5a3c 3b7d 9ebc
000000e0: 3e39 e7bb 7ad8 923b 0fc8 21bd e2b3 003d
000000f0: 3c18 7fbc 3eb3 dbbc cedd 4c3b e33f a1bc
00000100: 74dd f9ba eb84 7cbc c520 12bc c19e 74bc
00000110: 6cae a1bc 0a44 22bc 711f 473c 1300 b0bb
00000120: 81b1 04bd 1fa6 2fbd bd26 69bc 0315 683c
00000130: 9ec7 663c eab3 a83a 1f48 1cbc 8fe6 073b
00000140: 9300 023b a224 583b ef06 36bc e2d7 5fbc
00000150: 96ef f23b 1352 5cbb 4777 e7bb 2137 953b
00000160: 0cf9 0c3c 16a6 30bc 354c f9bc f520 893b
00000170: 8c46 213b 3c8e dabc 2a41 1a3d 412e eaba
00000180: a0c6 933c e4a4 d2bc b090 0b3d 3b71 123b
00000190: b847 243b 2353 eebb 3b47 353b 41a8 80bb
000001a0: 299e 293b db6d 83bb 9435 15bc c4d2 b3ba
000001b0: 1114 e23a b67f 4d3b 94cf 24bd 4507 17bd
000001c0: fa16 13bc 9ceb 293c 6224 c6ba 7870 ec3c
000001d0: d865 193c 4f15 ce3b dd2b 09bd feb8 8cbb
000001e0: cab2 06bd ed55 933c 01a5 37bc 1168 bc3b
000001f0: 94f6 cdbc 1f80 493c 970b bebc c7c0 163d
00000200: 8e4c 1dbc eefc 0e3d 4aaa d9bc 6a2a 9b3c
00000210: 7f2d 4cbd ace6 8a3c 9711 96bc 8776 8abc
00000220: 679f 84bc 7d8a 7f3c 29f2 35bc 4c9e 44bc
00000230: 3328 f43b 3341 3ebc 4d3a 2f3c ee29 64bc
00000240: 939d b9bb c64e f43c db68 c2bb 292d fcbb
00000250: 9dff 62bc e6bf 2f3c f843 8c3c 58ce a03b
00000260: 2133 863c 28ae f9bc b1c3 edbc e652 adbc
00000270: 02f6 db3c f00b 743c 058f 94bc 8658 1fbd
00000280: ffed 9f3c 6d53 ebbc 593b 793c 65a3 0bbd
00000290: 6395 08bc 291b 143c 4eb9 b3bc d343 853c
000002a0: f0c7 c3bc 11b6 553c 9d04 1d3c c10e 95bc
000002b0: a58d 2c3c f62a 763b 3a24 a6bc ea3e c8bc
000002c0: 675a 64bd ffdd b03c 1b13 a73c cebe b9bc
000002d0: cc53 99bc 77e1 de39 dada 1d3c 9d9f 873c
000002e0: 1ceb 2c3c f661 94bb 235c 3f3d d9fb a8bc
000002f0: e134 a33c 87d9 e43c 0259 08bc 279e 9139
00000300: 725c 17bc ab08 193c 7775 bebc 110c a23c
00000310: bcaf ab3c d337 49ba c454 a3bb fd76 83bc
00000320: 0caa d43c d051 e13c c80d 9e3c 8cbe 70bc
00000330: cccb 08bc 44b7 26bc 03f0 8d3c c1cb 85bc
00000340: 6408 ff3b 4c1b 28bc bfb9 0fba d5c6 213c
00000350: 41ea 4a3c e526 4a3c 6674 653c b8c2 27bc
00000360: 44e2 06bd 8163 ffbb 2ce0 b23c 2720 9e3c
00000370: bb3f 1ebb ea1b a93c 3e99 bcbc 7b50 26bc
00000380: c3f7 acbc 61d1 d03c f131 18bc f76f 143c
00000390: 3b33 4dbb 0159 8e3c 1780 81bb 60fa 6b3a
000003a0: 6113 86ba 8771 473c 899f 783c f3d5 853c
000003b0: fe15 c3b9 9fe2 5a3c 6177 e03c ca50 403d
000003c0: 14c2 96bc 4a15 7e3b 0390 42bc 5c20 9abc
000003d0: 263c 233c 0f6e 42bc 2500 f03c 875a 4939
000003e0: 0d21 223d 76e7 28bc da71 d9ba e2f5 a0bc
000003f0: 88c5 873c 112c 6bbc 3265 c33c 8bd9 42bd
0.028369706 -0.040045034 0.022539383 -0.01933746 0.050008737 -0.020698782 0.01436588 0.00919924
0.001458334 -0.010719826 -0.010257457 0.0027988032 0.0063121766 -0.01166995 -0.0109893745 0.009787284
0.006158275 -0.024566308 0.0149992695 -0.0023197646 0.010307153 -0.012619419 -0.027887808 -0.02117505
-0.023128046 0.042933106 0.008883501 0.017742423 -0.006027956 -0.010842194 0.010489389 0.035236202
0.0015201557 0.022134453 -0.013098415 0.029500825 -0.017321028 -0.013092578 0.019060243 -0.016613582
0.02828206 -0.0058160336 0.0072561535 -0.0057414565 -0.011953018 0.012615318 0.0026162472 0.005710544
0.04717829 -0.015072314 -0.012285623 0.009560084 0.00556134 0.016070984 0.013340941 -0.019346824
-0.0070563843 0.0044813724 -0.03949743 0.03142155 -0.015569743 -0.026818868 0.0031260136 -0.019683784
-0.001906319 -0.0154125495 -0.008918946 -0.014930428 -0.019736491 -0.009903917 0.012153492 -0.0053711026
-0.032395843 -0.042883035 -0.014230427 0.014165166 0.014085678 0.0012871001 -0.009538679 0.002073679
0.0019836768 0.003298082 -0.011110052 -0.01366231 0.007413815 -0.0033618256 -0.0070637795 0.004553691
0.008604299 -0.0107817855 -0.030431846 0.004184837 0.00246087 -0.02667915 0.0376598 -0.0017866568
0.018039048 -0.025713392 0.03407353 0.0022345323 0.0025067162 -0.0072730943 0.0027660865 -0.0039263074
0.0025881624 -0.0040108985 -0.009107012 -0.0013719429 0.0017248412 0.003135664 -0.040237024 -0.036872167
-0.008977646 0.010371115 -0.0015117044 0.028862223 0.00936266 0.0062891613 -0.033489097 -0.0042945137
-0.03288535 0.017985309 -0.011208774 0.0057497104 -0.025141992 0.012298613 -0.023198886 0.03680494
-0.009600772 0.03490918 -0.026570458 0.018941123 -0.049848076 0.016955696 -0.018318934 -0.016902221
-0.01618929 0.015596983 -0.011105099 -0.012000632 0.007451081 -0.011612224 0.010695052 -0.013926012
-0.0056645363 0.029822718 -0.00593291 -0.007695813 -0.013854888 0.0107269045 0.017122254 0.0049074106
0.016381802 -0.030478552 -0.029023977 -0.021157693 0.026850704 0.014895424 -0.018134603 -0.038902782
0.019522665 -0.028726304 0.0152119035 -0.034091372 -0.008336398 0.009039679 -0.021938946 0.016267693
-0.023899049 0.013043896 0.009583619 -0.018195512 0.010531818 0.0037562228 -0.020280946 -0.024444062
-0.055750277 0.021590231 0.020394852 -0.02267399 -0.018716715 0.00042511124 0.009634698 0.016555602
0.010554101 -0.0045282794 0.046718728 -0.020627903 0.019922676 0.027935756 -0.008322002 0.00027774388
-0.009238349 0.0093404455 -0.023249371 0.019781144 0.02095782 -0.000767586 -0.00498447 -0.016047949
0.02595999 0.027504832 0.01929368 -0.014693867 -0.00834937 -0.01017553 0.01732636 -0.016332509
0.0077829827 -0.010260414 -0.00054826954 0.009874065 0.012384952 0.012338375 0.014004802 -0.010239296
-0.032930627 -0.007793844 0.02183541 0.01930244 -0.0024146873 0.020643193 -0.02302229 -0.010151024
-0.021114236 0.025490465 -0.009289251 0.009059898 -0.0031311053 0.017376425 -0.003952037 0.00090018474
-0.0010229164 0.012173063 0.015174755 0.01633737 -0.00037209684 0.013359695 0.027400674 0.046952046
-0.01840309 0.0038770013 -0.011875155 -0.018814258 0.009963071 -0.01186706 0.029296944 0.00019202578
0.0395823 -0.010309091 -0.0016589717 -0.019648496 0.016573682 -0.014353768 0.023851965 -0.047570746

network_body._body_endoder.seq_layers.0.bias f4 [128]
00000000: a245 0fbd 9b48 84bc a786 ab3b 3475 f2bc
00000010: 1728 a03a 367b bfbc 0e4c d8bb 42b8 323d
00000020: 3663 01bd ae47 bf3c 0f6b 13bd a86f 063d
00000030: 455c d53c 4970 3b3d 14fd 19bd 8b11 943c
00000040: 108c 80bc cd51 9f3d 75d6 a2bc e217 a8bb
00000050: 3c7e c2bc 32d3 37bc 5099 003b c145 c9bc
00000060: a211 57bb 1b0f 333c 55c5 a3bc 0ec9 0e3d
00000070: fa4f 8e3c 3b62 67bd 0192 32bc 2a3b 92bc
00000080: dd5b 9abc 06ba ddbb cbfd e9bc 0399 443d
00000090: 5089 bcbc 6f9b 433d d567 90bc 0ef2 5cbc
000000a0: 95f4 24bc 6278 b13d cf06 473a 9e29 06bd
000000b0: e06b 91bb 4171 cd3c 32ca 293d 9aba 8dbb
000000c0: db73 76bc f4ba b5bc 73a6 383d 88c8 253d
000000d0: d3c8 a5bc 2fbf 9f3d 2d18 953d f7cf 5abd
000000e0: b2f1 8d3d 39df 1a3d 5bb5 e3bc 2eda 18bd
000000f0: 262b 9d3c 0524 8cbc 2b0f 9bbc 93fe 8d3d
00000100: 335a 9b39 d59e 6e3d 8ab1 20bd 8773 d5bc
00000110: f295 06bd 29c4 723d 81f8 54bc fe5d edbc
00000120: 0357 b43c 7972 32bb 2844 9e3a f915 8dbc
00000130: be04 b13c 792e 0bbd 1a74 b43b f810 58bc
00000140: 3a5f 303d 19bc cfbc 4e73 5bbc 4af1 103d
00000150: bcc0 ed3c 9caa 713c 2c98 1bbd 533b af3c
00000160: 9028 1ebd 7a4b 98bc e944 d9ba 0c0b be3b
00000170: 4305 9e3d 3fa7 873d 0c37 f83c 5d78 89bb
00000180: bae6 1dbb fadf 513d 13e2 0f3d 47e2 073d
00000190: 9973 703c 8bfe 6a3d e9b4 19bc ca1d 693c
000001a0: 4546 8fbc 0df7 15bd 3a46 edbb f805 61bc
000001b0: cd28 5e3d f916 ad3d 1876 9a3b 99b0 ab3c
000001c0: 6003 b23b 4183 a0bc 92bf 76bb fa9b 02bd
000001d0: 12b6 a83c 6ac4 283d ec05 b73c 7d72 823d
000001e0: 4d82 edbc 8fd5 6c3b 4ec1 9ebc 36e9 e0bc
000001f0: 86ce 4c3d d436 263d e152 653d 8595 873b
-0.034978516 -0.016147902 0.0052345577 -0.029596902 0.0012218979 -0.023374181 -0.0066008633 0.043632753
-0.031588756 0.02334961 -0.03599077 0.032821327 0.026044974 0.04576138 -0.03759487 0.018074771
-0.015691787 0.07779274 -0.019877652 -0.0051298 -0.023741834 -0.0112197865 0.0019622631 -0.024569394
-0.0032816906 0.010928894 -0.019991556 0.03485971 0.01737212 -0.056490164 -0.010899068 -0.017850477
-0.018842632 -0.0067665605 -0.0285634 0.047997486 -0.023014694 0.047755655 -0.017627636 -0.013485445
-0.0100680785 0.08665539 0.0007592262 -0.032754533 -0.0044379085 0.025078418 0.041452594 -0.004325223
-0.0150422705 -0.022183873 0.045080613 0.040474445 -0.020237362 0.07800137 0.07280002 -0.053420987
0.06930865 0.037810538 -0.027796438 -0.037317447 0.019185614 -0.01710702 -0.018928131 0.06933322
0.00029631107 0.058256943 -0.039231814 -0.026056064 -0.032857843 0.059269104 -0.012998701 -0.028975483
0.022014147 -0.0027228876 0.0012074756 -0.017222391 0.021608707 -0.033979867 0.0055070044 -0.013187639
0.043059565 -0.025358247 -0.01339419 0.03538636 0.029022567 0.014750149 -0.03798692 0.021390593
-0.038612902 -0.018590678 -0.0016576323 0.0057996567 0.07715847 0.066236965 0.030299686 -0.0041952566
-0.0024093823 0.05123899 0.03512771 0.03317478 0.014675998 0.057371657 -0.009381511 0.014228294
-0.017489562 -0.03661256 -0.0072410377 -0.013734333 0.05423813 0.08451647 0.004713785 0.020958232
0.0054325312 -0.019593837 -0.0037650806 -0.031887032 0.02059463 0.04120294 0.022341691 0.06369493
-0.028992796 0.0036138033 -0.019379284 -0.027454954 0.050001644 0.040579632 0.055987243 0.004137697

network_body._body_endoder.seq_layers.0.weight f4 [128, 29]
00000000: 1b5c 90bc 0d7e 50be f168 8fbd 75d7 533e
00000010: 05b7 113e 9014 2c3e b6a0 bfbd d8aa b93d
00000020: 7403 f5be 93ef 63be 5425 0e3c 114b 46be
00000030: c9e4 5b3e 3a4e e13b dfe2 863d 17f6 83ba
00000040: 6642 573d 21c6 0fbe c2ff a23d 3a82 643e
00000050: 51d9 31be df15 a0bd cedb 013d 2b77 7e3e
00000060: 54a4 0f3f 3e52 35be 411b 0ebd f995 61bc
00000070: 6a2d c23e 2f24 9a3c 1c19 90be f27f 46be
00000080: a6ad a23e 3a2f 8cbe 5842 7c3e 91f6 27bd
00000090: fc02 f63d b0ca 08be 5751 283e ae8f 22be
000000a0: 0bce c93d 0be9 fdbc 2d07 993d 18c5 193e
000000b0: edf5 df3e 83df 84be 5a68 26be 68e7 03bd
000000c0: a899 13bf 02af 2fbd e992 703e c267 943c
000000d0: 3f88 653c 6e4a b73d c0e4 efbe 528b aa3e
000000e0: e038 053e 73eb 5c3d 94ac b43e a1a6 103d
000000f0: cca9 21bd bb51 8fbe 6bb9 d03e 7cdb 0e3c
00000100: c953 19bc 32a7 20be 1ce2 25be 5dff bf3e
00000110: 35ca 0f3e a209 e83d ed23 b1be 82ff 0a3d
00000120: d5cc b63e 9e8f 5c3d c3c9 b13e f2e9 0f3e
00000130: 2426 14be b3e1 9a3d 1ec9 b53d 8774 1cbd
00000140: 840d 033e 1363 20be af72 253e 7ee6 963c
00000150: 6ebf bd3c a805 c93c 97b8 b93e cda9 3fbd
00000160: 3653 913e 80a3 2abe 2063 5bbe ace8 14bc
00000170: 6686 91be 07e7 853e f889 f13d 478e 7ebd
00000180: 42b9 893d 9a76 d63c 9dac 353e 4f82 193d
00000190: f6c6 c4bd 0697 fcbd e754 f9bc 6254 4cbd
000001a0: 1d4e 07be 31ed 2f3e 1302 bfbd dec2 bebd
000001b0: 8038 a4bc 7b5e be3d 82db 0e3d 18a4 9dbd
000001c0: 67e8 d63d 8b84 72be ff8a 4dbe eb03 2d3e
000001d0: 531c 3cbd b11b 6bbe 0423 d7bc 4950 e73c
000001e0: 0e2e 8f3e 6c11 c6be 44eb 3ebc e76a 003e
000001f0: 21bc 8abe fdad 063e e408 283e aaf7 82be
00000200: 5d5f b4be d0ef b0bc 97e6 cc3d 23bd d0bd
00000210: a17d 15be f717 e9bc 89d4 1d3d e742 83bd
00000220: 92a0 bebe c56d 0f3e 7bc2 763d 134a 113d
00000230: be73 b83e 36ad bc3d 69a5 7a3c 76f8 bfbd
00000240: 0e65 2b3e 0fa3 b33e 7d82 543e 6bba acbe
00000250: 3efb afbd 0f61 a8bc 9986 37bc fc8c 3fbe
00000260: 21d1 6b3d 6330 2fbe 2cf3 d3be 6c1d d53d
00000270: 6037 cfbd 10ef e03e 73a7 93bd 2edf 053e
00000280: 07bf 47be e768 2fbe 9aa0 b7bd 1132 16be
00000290: df5a ac3e b258 57bd 1624 f53c d9b9 afbc
000002a0: 6874 523d da1a e2bc f420 e93d 12fd 23be
000002b0: 3038 7d3c 4a72 9a3e 4350 02be 1a09 c73d
000002c0: 96be e6bd 51a0 033e 394c ad3d fe1e 58be
000002d0: 14b0 0dbc 5053 8bbe d44a bfbd 4725 fc3c
000002e0: b720 193c d0fd 9e3c 3d87 dcbd 25bc 5b3d
000002f0: 0a46 6e3e 19a7 2f3e 0411 ebbd 0f1d a3bd
00000300: 3914 8cbd 9a3e 8dbe f5ad 493e ad49 ae3e
00000310: 9411 33be 59e7 60be 2901 a4bc c657 073d
00000320: 7191 d13b 80af 9b3d f270 2f3e 72ea 863c
00000330: 6deb 003e 2135 8dbe aa3d 60be 9607 afbd
00000340: 97c1 9cbd dfef 98be 4852 c93c ad5a 8ebd
00000350: d61d 66be 68af c33d 85f1 21be 9656 023e
00000360: adc2 c5be d35b a33e 7795 28be b354 f9bc
00000370: ec26 963e d97e cabd b570 603e 654d 093d
00000380: 50ad 563d 5fdc 0f3e 9653 213d 9708 1a3e
00000390: 4bcc 2f3c 3a1a 013f dfde ac3e add0 b3bd
000003a0: 6fe9 e43d 0b86 00be b77c 9f3d 6f92 1ebd
000003b0: b87d 893e 7bdc 44be 2a95 f73d 1cf5 953c
000003c0: f4f6 50bd 8466 0c3e 6bb5 08be 19f2 1dbd
000003d0: 223e 3c3c 5939 09be d855 d73d 9149 76be
000003e0: 31c2 2b3e 313a 25be 09c4 c43d 67e6 0abd
000003f0: 5ca5 fabe 562f ddbd 386a 8dbc d949 29be
-0.017622044 -0.20360585 -0.07002438 0.20687659 0.14229973 0.16804719 -0.09356825 0.09065789
-0.47854197 -0.22259359 0.008675892 -0.19364573 0.21473993 0.0068757804 0.06586241 -0.0010067847
0.052553557 -0.14040424 0.07958938 0.22315302 -0.17368056 -0.078166716 0.031703763 0.24850146
0.5611012 -0.17707154 -0.03469396 -0.013768666 0.37925273 0.018816082 -0.28144157 -0.19384745
0.31773108 -0.2737978 0.24634683 -0.04100663 0.12012288 -0.13358569 0.16437279 -0.15875122
0.09853753 -0.030994913 0.07472072 0.15016592 0.43742314 -0.25951776 -0.16250744 -0.032203108
-0.57656336 -0.04289151 0.23493542 0.018115882 0.014009534 0.08949743 -0.4685421 0.33309418
0.13009977 0.05393548 0.35287917 0.03531516 -0.03946857 -0.27992043 0.40766463 0.008719321
-0.009358355 -0.1568878 -0.16199535 0.37499514 0.1404198 0.11329962 -0.34597722 0.033935077
0.3570315 0.0538479 0.34724244 0.14054087 -0.14467674 0.0756258 0.08876251 -0.038197067
0.12798125 -0.15662794 0.1615703 0.018420454 0.02316257 0.02453883 0.36273643 -0.046792794
0.28383797 -0.16663933 -0.21424532 -0.009088676 -0.2842285 0.26152822 0.117938936 -0.062147405
0.06724788 0.0261796 0.17741628 0.037477788 -0.09608261 -0.12333493 -0.030435992 -0.04988516
-0.13213392 0.17180325 -0.093265675 -0.09314512 -0.020046473 0.092953645 0.034877308 -0.07697314
0.10493546 -0.23683374 -0.20072554 0.16896026 -0.04592545 -0.22959782 -0.026261814 0.028236525
0.27964824 -0.38685167 -0.011652771 0.1254078 -0.27096656 0.13152309 0.16409642 -0.25579578
-0.35229006 -0.021598727 0.10004919 -0.10192325 -0.14598705 -0.02845381 0.038532767 -0.06409245
-0.3723188 0.14006718 0.060244065 0.035471033 0.36025804 0.09212725 0.015298226 -0.09373562
0.16737768 0.3508534 0.20752902 -0.33735976 -0.085928425 -0.020554094 -0.011201524 -0.18706125
0.057572488 -0.17108302 -0.41396463 0.104060024 -0.10117984 0.4393239 -0.07209673 0.13073418
-0.19506465 -0.17129861 -0.08966179 -0.14667536 0.3366308 -0.05257482 0.029924434 -0.021450924
0.051380545 -0.027600694 0.113832384 -0.16014507 0.015455291 0.3016532 -0.1272593 0.09718533
-0.1126682 0.12854125 0.08461804 -0.21105573 -0.008647937 -0.27212 -0.09340444 0.030779494
0.009346179 0.019408137 -0.10767982 0.053646225 0.23268905 0.17153586 -0.11477855 -0.07964527
-0.06839795 -0.27586824 0.19695266 0.34040585 -0.17487174 -0.21963252 -0.020020084 0.03304269
0.006395512 0.07601833 0.17132929 0.016469214 0.12589808 -0.27579597 -0.21898523 -0.08546369
-0.07654112 -0.29870507 0.024575368 -0.06950889 -0.22472319 0.095549405 -0.15814789 0.12728342
-0.38625088 0.31905994 -0.16463266 -0.030435896 0.2932657 -0.098874755 0.21917994 0.033521075
0.052411377 0.14048909 0.039386354 0.1504234 0.01072986 0.50430644 0.33763787 -0.08780036
0.111773364 -0.12551133 0.07787459 -0.03871387 0.26853728 -0.19224732 0.12088998 0.018305354
-0.051016763 0.13710982 -0.13350455 -0.03856096 0.011489423 -0.13400783 0.1051442 -0.24051501
0.16773297 -0.1613548 0.09607703 -0.033911135 -0.48954284 -0.10800044 -0.017262563 -0.16532077

network_body._body_endoder.seq_layers.2.bias f4 [128]
00000000: 8536 00bd 545f d13c aec4 9fbc 4504 5d3d
00000010: a82c 96bc 54f3 6a3d 0086 1e3c 0d07 efba
00000020: aa0e 06bd 7e8b dabc 5a51 043c 6d6d 03bc
00000030: a681 03bc 506c 483c cb60 ac3a 17f0 ffbc
00000040: cfc1 883b 1739 863c 7dc4 b0bc 974a e6bc
00000050: 5429 223d 544e 25bd a2e7 053c 1ddb 573d
00000060: d444 403d 6866 f8bc 001c 0bbd 14c5 0dbd
00000070: ff71 bb3c d2f1 f63c 206e 62bc 1d29 44bc
00000080: 3269 81bc 10eb d0bc 2981 653d be51 dabc
00000090: 07d9 93bc a254 30bd 29fa a0bc 2a67 e73c
000000a0: d714 5c3c ea5f dd3c 6d18 85bc 75aa 213d
000000b0: 18a6 c23c 9986 f5bc f471 d8bb 6930 acbc
000000c0: 6665 82bc 2cdf 183d c152 27ba 587f 1dbc
000000d0: 74ab 0dbd 5450 dfbc a6f0 753c 4b72 2d3c
000000e0: 0dbd af3c 8d6f c3bc 6640 313d 95f6 523c
000000f0: 94fe 1ebd 54fe b73c 3e97 423b 18c0 a5bc
00000100: 04ae 71bc 6479 3dbd 79a1 343c 45b5 15bc
00000110: 03e5 b73c b5a5 86bb 70c7 c4bc 1839 063d
00000120: f5a5 183d 202a 1e3d 9437 0b3d cfa3 efbc
00000130: 8a0b 6d3d fda5 35bb 8fc8 3c3d ce8f e3bc
00000140: 8690 99ba 481b c5ba 772d 21bb bec3 fdba
00000150: 7b4e 2abb 65b2 b43c bfd0 9d3b 3dff cabb
00000160: 5cc9 e8bc 1e74 16bd 6d8d ecbc af31 813d
00000170: 581d a3bc ea00 1c3c 1fe8 07bc e3f8 0abc
00000180: 3049 c1bc 8362 213d 8a85 86bc e473 c43c
00000190: 171b d4bc 5e05 073c 2597 81bc 210c 443c
000001a0: 218a d33c 58ef 11bd 1e45 f13c b458 dbbc
000001b0: 8033 383d ae08 06bd 536e 263d 9752 243d
000001c0: 7db9 a53c 6136 153d 8be6 d8bc b058 72bc
000001d0: 5f11 713d c12d 1a3d 48ac 123d 7eb4 41bc
000001e0: 176c f4bb 0db7 09bd 899b 0abd 9939 033c
000001f0: 74e7 153d dfc5 8abc 0147 413c 93d9 a4bc
-0.031301994 0.025558151 -0.019502964 0.05395915 -0.01833184 0.057360962 0.009675503 -0.0018236354
-0.03272883 -0.026677843 0.008076036 -0.008021695 -0.008026516 0.012232855 0.0013151405 -0.031242413
0.0041734944 0.016384644 -0.021578068 -0.02811174 0.039590195 -0.040357903 0.008172901 0.052699197
0.04694064 -0.030322269 -0.03396225 -0.034611776 0.022881506 0.030144606 -0.013820201 -0.011972693
-0.015797231 -0.025502712 0.05603138 -0.026650306 -0.018047823 -0.043049462 -0.019650536 0.028247435
0.013432703 0.027023274 -0.016246999 0.0394692 0.02376084 -0.029971408 -0.006605381 -0.021019178
-0.015917491 0.03732221 -0.0006382876 -0.009612881 -0.03458734 -0.027259983 0.015010988 0.010586332
0.021452451 -0.023856902 0.043274306 0.012876173 -0.038817003 0.02246014 0.0029692198 -0.020233199
-0.014750961 -0.046258345 0.011024826 -0.009137456 0.022448068 -0.0041091093 -0.02402088 0.032769293
0.037267644 0.038614392 0.03398855 -0.029252915 0.057872333 -0.0027717345 0.046089705 -0.027778532
-0.0011716045 -0.0015038038 -0.002459375 -0.0019360704 -0.002598672 0.022057721 0.0048161442 -0.0061949776
-0.028416328 -0.03673183 -0.02887603 0.063083045 -0.019911453 0.009521702 -0.008295088 -0.008482191
-0.023594469 0.03940059 -0.016421098 0.023981042 -0.025891824 0.008241026 -0.015819142 0.011965782
0.025822701 -0.035628647 0.029451903 -0.026775695 0.04497099 -0.03272312 0.040632557 0.040117826
0.02023005 0.036428813 -0.026477119 -0.014791653 0.058854457 0.03764129 0.03580883 -0.011822818
-0.0074591744 -0.033621836 -0.033839736 0.008009338 0.036597684 -0.016940055 0.011796714 -0.020123279

network_body._body_endoder.seq_layers.2.weight f4 [128, 128]
00000000: 7b67 23bd cd6d 88bd af10 353d 04f5 963d
00000010: a608 ef3d 95cd cbb9 b086 043e 2566 733d
00000020: 3c7b 2ebd f8fc 5d3a 32de 763c 6e04 37bd
00000030: d537 92bd 4121 173e e2fa 253d eb28 2b3e
00000040: fa7d e3bd aa7e 46bd 3bee 9f3d dc65 a93d
00000050: 2c6b d5bc c80b 9d3d 7b28 1ebd 6e4d 463e
00000060: 92a9 243e 4e3e 6e3d b704 03bd d9fe 8d3c
00000070: 99d1 603d d475 793d 6bc0 473d 9b99 963d
00000080: a2d0 9fbd 739f e43d 49c7 7d3d b1de 51bd
00000090: 33d2 4d3d 98ce 85bd 345b b3bd a003 8d3e
000000a0: 7109 69bc 0c2c 8b3d b07b 503b da83 2a3e
000000b0: 3dad fb3d 54c5 13bb 6c69 993c f48e 12bc
000000c0: e9d4 493d f10a a2bc 3f3a 3ebe 5196 f9bd
000000d0: 18a1 23bd a722 06be 0d53 acbb 553f a1bd
000000e0: 165d e6bd fd88 953d 7554 963d 308d ea3d
000000f0: 11cd 04bd 140d 84bc 1f98 773d 920b 6fbd
00000100: 17da 82bc 4373 23be a3c8 cfbc 94a0 2a3d
00000110: 194c 21bd a004 0c3d 3ab9 15bd 4b75 39bd
00000120: e7f3 173e c6fa 203d 1944 2dbb ddc1 023e
00000130: 4e6a 0d3e e443 c93d 990b 23be 4618 b23d
00000140: 32ff 33bd 9756 203e 047e cabd 18ce ccbd
00000150: c046 25bd fd41 233d decd d1bb ef25 63bd
00000160: 9300 0abc 9940 083c 8dbf bdbd 6ec3 2dbe
00000170: d33d cdbd ad44 4dbd 5e82 28bd d7fb 8e3d
00000180: 4fae c53a e815 193d c29b b1bd a57d e13c
00000190: e99d 023e 5c3f 44bd 38c7 0ebc aaff f4bd
000001a0: 2c30 553e ee94 0c3d fd4b 553e 692f 293e
000001b0: 5a49 853d a3a6 a73d 7781 fc3d 91ef aabd
000001c0: 90f7 2f3e dec6 6f3d 2fec b4bd 2c5b adbd
000001d0: 7f61 59bd f10c 09be e269 5b3d f166 4abe
000001e0: 11fa d8bd a969 643d 5177 fb3d db17 1d3e
000001f0: 54b4 43bd c015 333e 67ab 013d 6e4d 71bd
00000200: 0e1a bd3d 4f9b 09bd a9a4 363e f7d1 243e
00000210: 57aa 7a3d 34b9 78bd dfd1 4dbd 72d6 e83d
00000220: d765 abbd e6f6 9d3d 4492 93bd a6f3 bebd
00000230: d2b5 10be 0d1c 8e3d 04e3 7b3a 9301 613d
00000240: 1b0d ebbc 7626 303d ede2 27be ee09 96bd
00000250: 399b 63bd becc 323d 86c6 383e 7a6c 953d
00000260: e40c fa3d 4e2f 543d 1b78 c73d a68b 2a3d
00000270: 8d1f 01be a244 3cbd 2c24 0f3e c8f9 f73d
00000280: 374f 31be 0e8c 90bc 2214 ad3d 3863 303e
00000290: 24b1 26be bf62 e33d c77a 8c3d 418b 01be
000002a0: 9938 663c 90fa ad3c ed86 84bd 3fce 22bc
000002b0: e2c1 4cbd 8621 4bbd 37e9 213e c806 91bd
000002c0: 3aa9 fbbc f324 993b ee88 a93d e2f5 d23c
000002d0: a2d4 7c3d c71e 3939 985a 503b 9fc0 11bc
000002e0: a1de e5bd d04a 01be e1e9 4ebd 12ad 78be
000002f0: ee80 5ebe 9db3 1cbd cd48 a6bb c2b1 6d3e
00000300: 0351 193e 9463 1b3e b37c d73d c6eb 90bd
00000310: 93e2 3b3d 59a9 c6bd a922 0dbd 89d6 33be
00000320: bb6d 26be 9f46 78bc ca1c 53bd d917 8f3c
00000330: 1c74 893d 2caa 2dbd e3f1 193e 8726 8fba
00000340: 9e2e 3bbd ba14 e2bd 6b4e e43d 176a 883d
00000350: ebb3 303b ef53 c3bd a04d 3cbd 0aa1 793c
00000360: 0dd3 dfbd 1781 b63d 266f 3a3d d8fa ccbd
00000370: 4df3 f03c 3da0 a33c 6753 b13d 9cc5 2abc
00000380: 2fe4 4abd d945 993c 8bf6 cb3c a91d 333e
00000390: 9e23 d23d 883f 35be fe8d 89bd bb2a bf3d
000003a0: 5482 693d f6ac 99bd 2ebb e6bc f945 bc3d
000003b0: 533f 173d f4dd 0b3c bc91 14be 151c c6bd
000003c0: 8045 0f3e 3924 da3c 75a4 013e 8a44 31be
000003d0: 54b2 233d dd0f 4d3d 623d 1dbc 4a32 853e
000003e0: 4cbe 44bd 577c 493d 3872 42bd 3138 7d3d
000003f0: ea15 883e 01bf 463e 1d87 123e 5169 b8bd
-0.03989361 -0.06661568 0.044205364 0.07370952 0.116715714 -0.00038872348 0.12942004 0.059423584
-0.042597994 0.0008468176 0.015067624 -0.04468196 -0.07139555 0.14758779 0.040522464 0.16714828
-0.111080125 -0.04846064 0.07809111 0.08271381 -0.02605208 0.07668263 -0.038612824 0.19365475
0.16080311 0.058164887 -0.03198692 0.017333435 0.054887388 0.060903385 0.04876749 0.07353517
-0.078034654 0.11163225 0.06195763 -0.051237766 0.05024929 -0.06533545 -0.0875763 0.27541828
-0.014223442 0.06795511 0.0031812005 0.1665186 0.12288902 -0.0022548037 0.018727027 -0.0089452155
0.049275313 -0.019780608 -0.18576907 -0.12186874 -0.039948553 -0.13099156 -0.005258924 -0.07873408
-0.112482235 0.07301519 0.07340328 0.11452711 -0.03242213 -0.016119517 0.06044781 -0.058360644
-0.015973134 -0.15961938 -0.025364226 0.041657045 -0.039379213 0.0341841 -0.0365536 -0.045277875
0.14839135 0.039301656 -0.0026438294 0.12769265 0.13810083 0.09827402 -0.15922393 0.08696036
-0.043944545 0.15658031 -0.09887317 -0.10000247 -0.040350676 0.039857853 -0.006402715 -0.0554561
-0.0084229885 0.0083161825 -0.09265051 -0.16969082 -0.10021558 -0.050114322 -0.041139953 0.069816284
0.0015081855 0.037374407 -0.086722866 0.027525732 0.1275555 -0.047911987 -0.00871449 -0.119628266
0.20819157 0.034321718 0.20829768 0.16521992 0.06508131 0.0818608 0.12329381 -0.08346475
0.17184281 0.058539264 -0.08834111 -0.08464655 -0.053071495 -0.13383843 0.053567775 -0.19765832
-0.105945714 0.055764828 0.12278617 0.15341131 -0.047779396 0.17488766 0.031657603 -0.058911733
0.09233485 -0.03359538 0.1783625 0.1609572 0.061197605 -0.0607235 -0.050248977 0.11369027
-0.08369034 0.07713108 -0.07205632 -0.09323816 -0.14131859 0.06938944 0.0009608718 0.054933142
-0.028692773 0.04300543 -0.16395159 -0.07326113 -0.055567954 0.04365229 0.1804448 0.07296081
0.1220949 0.051802926 0.09739705 0.041637085 -0.12609692 -0.04596389 0.13978642 0.12108189
-0.17315374 -0.017644908 0.08451106 0.17225349 -0.16278511 0.11102819 0.068593554 -0.12650777
0.01405158 0.021237642 -0.064710476 -0.009936868 -0.04998959 -0.049592517 0.1581162 -0.070813715
-0.030720342 0.004673594 0.082780704 0.025752012 0.06172622 0.0001765444 0.003179228 -0.008896022
-0.11224104 -0.12626195 -0.050516013 -0.24284771 -0.2172887 -0.03825723 -0.0050745965 0.2321234
0.1497231 0.15174705 0.10521831 -0.0707622 0.045870375 -0.09700269 -0.034456883 -0.17562307
-0.16252796 -0.015153556 -0.051541127 0.017467426 0.06711599 -0.042398617 0.15033679 -0.0010921516
-0.045698754 -0.110391095 0.111477695 0.0666086 0.0026962708 -0.095374934 -0.045972466 0.015236149
-0.109289266 0.08911341 0.045516156 -0.10008782 0.02941289 0.019973869 0.08658486 -0.01042309
-0.04953402 0.018710064 0.024897834 0.17491783 0.102607 -0.17700016 -0.06716536 0.09334322
0.057009056 -0.07503693 -0.028165426 0.09193034 0.036925625 0.0085368045 -0.14508718 -0.09673325
0.13991356 0.0266286 0.12660392 -0.17311302 0.03996499 0.050063957 -0.009597154 0.2601493
-0.048033044 0.049190845 -0.04747221 0.061821166 0.2657922 0.194088 0.14309354 -0.090044625
