Assets/Model/AttackMode-2499983.onnx (onnx, 295132 bytes, 15 tensors)

action_model._discrete_distribution.branches.0.bias f4 [3]
00000000: ef78 273e fd44 89bd 4364 ffbd
0.16354726 -0.067026116 -0.12470295

action_model._discrete_distribution.branches.0.weight f4 [3, 256]
00000000: 68a0 fabd 418d 0cbd 968f 4dbc ca8b 8dbc
00000010: 1b7d 3b3e 589c 48bc 3a5b 0d3d 776f 9f3d
00000020: f31e f8bc e1de c53b 815b 483c a01c 9fbd
00000030: e327 86bc c33e 02bd ead2 89bd 8830 fa3c
00000040: 1e06 103d f71a 1bbd 6326 cc3d a60b 693d
00000050: fbe4 633d 017f e4bb 0402 b1bd 3032 c6bd
00000060: dfc9 c63c f2e7 253b 24e1 973c c27c 0ebc
00000070: f740 18bd de1e 86be 7960 d1bd d7bb 18bb
00000080: 318a a23d 2db9 973c d52a 05bc f2f9 1a3d
00000090: 9717 dabd c661 6cbc 2d40 7b3d 4bb4 013d
000000a0: f235 f5ba e5ae a2bd 06db 493d 251a a93d
000000b0: 31d7 063e c5b6 a038 026a 97bd 0aff 093b
000000c0: 8ecd a8ba 8957 6bbc 6e59 933d 2d5a 023e
000000d0: 47f5 c5bc 55ac 2c3a 7f5b 24bc f1dd 273b
000000e0: 4bca 7a3a 1484 e5bd 546b 1a3a 0b69 4bbe
000000f0: 9bf0 7e3d 80db b2bc 0ae7 df3c 93d2 093e
00000100: 4350 28bd 4e14 dc3c 93a8 b0bd 56b9 80bb
00000110: aefe 9d3c 178d 083e f333 9738 f16c 09be
00000120: 3b52 1d3e 6a9a 7ebd eed1 e23d ca51 3dbe
00000130: 604a 2f3d 8422 273d 4410 5b3d 1b81 523b
00000140: 11e9 b5bc 8d2d 1d3d 00ab 06bd d90e ba3c
00000150: c952 c23c 1586 e2bd 7d8d 32bc fa6e e0bd
00000160: fa43 c3bc f022 f7bd 2528 223c ca9b fd3b
00000170: 4c9b 283a 4032 8cbc a04c 453c 66f9 27bd
00000180: d3fd bdbc 2b2c e5bd 2028 b4bd e279 16bc
00000190: 97d5 b13c 61cc 73bd 13f0 05be d5de 04bd
000001a0: fcc9 9bbc 0bd1 70bc c2b2 a2bc 8760 07bd
000001b0: 09a8 35be 0d46 39be b827 69bd d6de 2d3c
000001c0: 5314 54bd 37f9 e73d 02dc afbd 7c73 1c3d
000001d0: b7fe e73c b255 09bd 02e8 b73c ae9c 93bc
000001e0: 902c c63d 1f1a 41bd 3908 a2bc ee73 a2bc
000001f0: c32c 943c b75f a13c a07a a9bd 9056 0b3d
00000200: 924e 3ebc 6b69 543b 852c f73d a080 243d
00000210: fded 163c cdf4 de3c 3307 78bb e962 d3bc
00000220: 3548 8c3c 64f8 e03d 1070 aabd 5fdf 32be
00000230: 33e9 4fbb 54b6 8e3c e954 c03c 95ee c43c
00000240: 2e48 9abc a5e4 763c 38d9 7dbc a0f2 823d
00000250: 9913 073d 6b8e 3ebe fe10 6bbe 9183 c93d
00000260: 3f05 c4bd dd13 e93c 8374 0c3e ee3c b4bc
00000270: a35f c8bc ff45 77be 783a 57bd ee4a 273d
00000280: 35f7 6dbe da18 743c a2b6 ac3b d156 c43d
00000290: 162e 023d a6ab 75bb ae66 13bd 59a2 013e
000002a0: 3171 973a 64fd 3fbc 3f75 1bbd 208b 8d3c
000002b0: afb9 5e3c d27e 993d c871 07bd 9ebd b23c
000002c0: 309b 8f3c 24d0 5b3d 3365 203c 3763 0c3d
000002d0: 8ac1 f7bd ef7b b0bd a071 41be be7e 203c
000002e0: 2bf0 f5bd 89a5 9b3d 844d a7bc 1d2c 333d
000002f0: 7091 e53b 3745 2d3c e313 10bd d812 75bd
00000300: 17c6 c2bd 5332 d63c 1fed 123b 20c8 0b3d
00000310: 8a80 433d bcea 2a3d 6f67 e0bd c026 083c
00000320: 0ca7 73bc 3d1c 07be dd93 393d 2f15 773d
00000330: 3d21 07be 61ce 15bd 8320 93bc ec1c ca3a
00000340: 402b 8d3c baeb 053e d5b3 23be 5458 013d
00000350: e72a bebd f0eb 62bd ec08 993c f5d7 033c
00000360: 50ee 21bc 9b20 c0bd 8e83 8ebd a420 b7bc
00000370: 0d18 65bd 905e e03c e147 b63d 3136 81bd
00000380: b6a7 93bd acaf 9a3c e1fc 9bbc 40e0 c639
00000390: 2aff 873c e8cd cebd 8f28 8d3d 584e 833c
000003a0: 602a e2bd 71ea 1e3d 4f05 8c3d d352 98bc
000003b0: a1f6 01be ee7e 333d 2b5b 07be b0ab 8ebc
000003c0: 4340 b53c 6ad2 3cbd 1f27 13be 3bc7 e13d
000003d0: b37a 59bc 89d0 e43b 75ce bbbb a0ab 1d3d
000003e0: 1197 bfbd c975 9d3b 5aa5 6cbd 962b 1c3e
000003f0: 1464 6d3c abf3 6439 e2aa e43d 9c61 873a
-0.12237626 -0.034314398 -0.012546441 -0.01727857 0.18309443 -0.0122443065 0.03451083 0.07784932
-0.030288195 0.006038532 0.0122288475 -0.07769132 -0.016376441 -0.031798135 -0.06729682 0.03054072
0.035162084 -0.037867513 0.09968259 0.056895874 0.055638295 -0.006973148 -0.086429626 -0.09677541
0.024266182 0.0025315252 0.018539973 -0.008696737 -0.03717133 -0.26195425 -0.10223479 -0.002330532
0.07936514 0.018520916 -0.008127888 0.037836023 -0.10649031 -0.014427608 0.0613405 0.03166608
-0.0018708094 -0.07943515 0.049281143 0.0825694 0.13168027 7.663438e-05 -0.07393266 0.0021056556
-0.0012878643 -0.014364132 0.07194792 0.12729712 -0.024164809 0.0006586959 -0.01003158 0.0025614465
0.0009566887 -0.112068325 0.0005890627 -0.1986429 0.062241178 -0.021833181 0.027331848 0.13459234
-0.04109217 0.02686515 -0.08625903 -0.0039283438 0.01928648 0.13335072 7.2099174e-05 -0.13420464
0.153634 -0.06215898 0.11075197 -0.18488231 0.04279554 0.0408044 0.05348231 0.003212041
-0.022205861 0.03837352 -0.032877922 0.022712158 0.023721116 -0.1106073 -0.010897991 -0.10958667
-0.023836125 -0.12067211 0.0098972665 0.007739519 0.00064318324 -0.017113805 0.012042195 -0.04100933
-0.023192322 -0.11190065 -0.08796716 -0.009184333 0.021708293 -0.059521083 -0.13079862 -0.03243907
-0.019017212 -0.014698277 -0.019860629 -0.03305104 -0.17739882 -0.18093129 -0.056922644 0.01061221
-0.051777195 0.11326831 -0.08586885 0.038196072 0.0283197 -0.03352899 0.022449497 -0.018019047
0.09676468 -0.04714405 -0.019779311 -0.01983067 0.01808775 0.01969896 -0.08275342 0.0340181
-0.011615412 0.0032411467 0.12069038 0.04016173 0.009212014 0.02721634 -0.0037846088 -0.025804
0.017124275 0.10984877 -0.083221555 -0.17468022 -0.003172469 0.017420925 0.023477988 0.024039546
-0.018833246 0.015069162 -0.0154936835 0.06393933 0.032977674 -0.18609016 -0.22955701 0.098395474
-0.09571313 0.028451854 0.1371632 -0.02200171 -0.024459666 -0.24147795 -0.052545995 0.040842943
-0.23238833 0.014898503 0.005270795 0.095868714 0.031782232 -0.0037486344 -0.035986595 0.12659587
0.0011554119 -0.011718128 -0.03795361 0.017278254 0.013594075 0.07494892 -0.033067495 0.021818932
0.017530054 0.053665295 0.009789753 0.034274306 -0.120974615 -0.086173885 -0.18891001 0.009795843
-0.12008699 0.07599933 -0.020422705 0.04374324 0.007005863 0.010575584 -0.035175215 -0.059832424
-0.09510439 0.026147043 0.0022419167 0.0341264 0.047730006 0.041727766 -0.109572284 0.00831002
-0.01487137 -0.13194366 0.04530703 0.060322937 -0.13196273 -0.03657377 -0.017959839 0.0015419996
0.017232537 0.13078204 -0.15986569 0.031578377 -0.09285527 -0.05540079 0.018681012 0.008047094
-0.009883478 -0.09381219 -0.06958686 -0.022354431 -0.05593114 0.02738884 0.089004286 -0.06309164
-0.07209723 0.018882595 -0.01904148 0.00037932582 0.016601164 -0.10097867 0.068925016 0.016028568
-0.11043239 0.0387978 0.0683695 -0.018594181 -0.12691738 0.04382222 -0.13218372 -0.017415851
0.022125369 -0.046099104 -0.14370392 0.11024328 -0.013273883 0.006982867 -0.0057313987 0.038493752
-0.093549855 0.004805301 -0.05777488 0.15251002 0.0144891925 0.00021834548 0.11165406 0.0010328772

action_model._discrete_distribution.branches.1.bias f4 [3]
00000000: 7b8e 843d e17f a6bd 3cf7 fc3c
0.064724885 -0.0812986 0.03087961

action_model._discrete_distribution.branches.1.weight f4 [3, 256]
00000000: d1e3 f9bd 89d1 773d 14db 073d 996e 803d
00000010: 1983 1b3c a86d 393d 0f5e 443e 1746 e2bd
00000020: 59db b8bd db54 393b 3a02 fbbd 3d62 c9bd
00000030: 6e5f 9d3c b32a f93c 06a9 a83c 840c 273e
00000040: d55e 8dbc 476e a03c ccbb ddbd 20e3 5fbc
00000050: bc7f c23d edda 123d 167a b43d 6f8c f3bb
00000060: e900 a5bd 5daf 9f3c 641d 123d 9866 4cbc
00000070: ed37 b63d 1f5c 14be bd6a bfbd 131b 8d3d
00000080: 1c53 7b3c 185d 13bd 56e9 4c3e 99b4 94bd
00000090: 8377 3ebd 02c5 b63d 2e14 903d b1f2 da3c
000000a0: 60f0 5b3e f1d0 98bc bb89 d03d 2f75 eebd
000000b0: 66c0 90bd 9e9c 883d 2e34 1d3d 9796 813e
000000c0: ce70 2d3e 896a 0f3e 2883 21be e42e 813d
000000d0: a6ae d93d 6600 133c f48c a13d 3257 083e
000000e0: 44de d3bc d358 78bb d7bf 8d3d 8720 f8bd
000000f0: 76dd 8ebd 9c43 4dbd f4fe 093e 9276 1cbe
00000100: 471b 543e b7f7 5b3d b644 ce3c afd8 703e
00000110: 2c7c e1bc 14c9 3abe 9cbd ccbd fdad c4bc
00000120: 3631 54bd 5857 d3bc 71e3 aa3d f3a2 cfbd
00000130: f647 d33c 14a7 92bd 23f2 243d fa84 283e
00000140: 1dfe 81bd 0d88 56bd 4872 9639 aa0a 603d
00000150: d707 803e e22a 78bd 5ccf 1f3e d753 34bd
00000160: d70c bb3d 4646 53bd 444c 343e 1d65 b43c
00000170: e4b9 553d 15cd de3c 01d0 8f3e 048c 1e3d
00000180: 0815 50bd f42d 4dbc 1369 91bd 1f97 ef3d
00000190: 39a6 be3c 7eab 893d 80eb 8f3d 47c3 793c
000001a0: d0cd 8bbb 140d f3bc 6b70 11be 0e19 eb3c
000001b0: 9d2c 58be 4ee7 c8bd 60c6 a73d 38d8 193e
000001c0: 28bb 583d 7391 2dbe 62b1 85bd 9ca7 8a3d
000001d0: fac2 0c3e d560 2e3c f970 ed3d fab2 093e
000001e0: 95cb 193c bc39 f5bd a419 de3d d8c0 973d
000001f0: ff63 bb3d be9d 7ebd 75b1 90bd 4ccb 81bd
00000200: 4e37 7fbd b0fe 113d db90 563d 08a8 9e3b
00000210: 987b 813b 4344 dfbd d9e8 f13b 09f8 ac3c
00000220: 7472 5c3d da6a 32be cf71 14bc e4ff 31be
00000230: c857 e63b 65c0 2b3c 6aea 923c c120 6bbc
00000240: a773 51bd a7c1 d5bc 6bba b2bc d458 643c
00000250: f66e 19bd 1389 a6bd 1991 0abe 7165 1abc
00000260: 3194 b13c 8258 b53d 21fa c3bd d417 623b
00000270: 290b ec3c 85d9 d1bd 949e 23be e391 0f3e
00000280: dc0e 0abe c343 0ebd fb30 543e 44bf 99bd
00000290: cdc0 203a 32ae b53d ae85 003e 704e 823d
000002a0: d57f ffbd 75bd bc3b b824 65bd 8524 fdbd
000002b0: bdb8 dcbc db58 bdbd 409c 9bbc 935a ecbd
000002c0: 5d17 1fbe 3f2e 593d de5b 093e b895 293e
000002d0: 9f46 0bbe 8122 163d 4297 c8bd 2bc3 b6ba
000002e0: bf09 0bbe 0be4 ce3c 1d6d e9bc 2092 77bd
000002f0: ba83 97bc 15bd f73d 8f0b 76bc a559 98bc
00000300: cb79 ca3d 7a10 313d 66f7 183e 67eb c93d
00000310: 1981 973c 1258 31be 6d5a 87bd 5a15 0d3e
00000320: b89c ee3d f235 d5bd 421b 3e3d 9435 0cbe
00000330: e31d 713d 9131 3fbd 6797 093d a75d a43d
00000340: f717 e03c 7f74 14be d9d4 67bd 8bb3 d5bd
00000350: b3ec 063c ec99 48bd 1c86 a2bc c96f ca3c
00000360: df05 50bd 91b7 2abe 050a 3ebe d1d7 393e
00000370: 6f45 34ba f278 0f3d 9a64 46be fd00 8e3c
00000380: 1f1c 403d affd 663c 06e6 24bd d907 663d
00000390: bf36 69bd 56c6 94bd b975 0abd 0163 463c
000003a0: e4a0 2cbd 8452 05bb 97a7 febd 5266 40bd
000003b0: 5ca2 03be ab52 cabb f9d6 6bbd 8c5a 423d
000003c0: a908 6e3d 9676 3e3d 9225 07be 742e e03d
000003d0: b3ac 09be ed37 2dbc 1206 b7bc c902 013e
000003e0: a264 483c f0f2 543d cf25 febc 6818 c93c
000003f0: 9b33 2e3c dd8b 2e3e 7c06 16be 68a9 dd3d
-0.12201656 0.060502563 0.033167914 0.06271095 0.009491705 0.045270592 0.19176506 -0.11048525
-0.09026212 0.0028279338 -0.12256284 -0.098331906 0.019210543 0.030415868 0.02058841 0.16313368
-0.017257133 0.019583834 -0.10826835 -0.013664991 0.0949702 0.035853315 0.088123485 -0.0074325125
-0.08056814 0.0194928 0.03567256 -0.012475632 0.08897386 -0.14488266 -0.093465306 0.068899296
0.015339639 -0.035977453 0.20010886 -0.07261009 -0.046500694 0.08924295 0.07035099 0.026727052
0.21478415 -0.018654319 0.1018252 -0.11643445 -0.07067947 0.06670497 0.03837984 0.25310203
0.16937563 0.14005484 -0.15772688 0.06307772 0.10629015 0.008972263 0.07888213 0.13314512
-0.02586282 -0.003789474 0.06921356 -0.12115579 -0.06975834 -0.050113305 0.13476163 -0.15279606
0.2071353 0.053703036 0.025179248 0.23520158 -0.02752503 -0.18240768 -0.099971026 -0.024008745
-0.051804744 -0.025798485 0.08344162 -0.10138502 0.02579115 -0.07160774 0.040269982 0.16456977
-0.063472964 -0.052375842 0.00028695376 0.05469767 0.2500598 -0.06058777 0.15606445 -0.04402527
0.091333084 -0.05158069 0.17607218 0.02202087 0.052179232 0.0271974 0.28088382 0.038707748
-0.050801307 -0.012523163 -0.071001194 0.11698746 0.02327262 0.06722163 0.0702734 0.015244312
-0.004266478 -0.029669322 -0.1420304 0.02869847 -0.21110769 -0.09809743 0.08192134 0.15023887
0.05291286 -0.16950016 -0.06527974 0.0677025 0.13746253 0.010643204 0.115938134 0.1344718
0.009386917 -0.119739026 0.10844734 0.07409829 0.09149932 -0.062162153 -0.07065097 -0.06337604
-0.062308602 0.03564328 0.05238424 0.004841808 0.003951501 -0.10901692 0.007382494 0.021114366
0.05382009 -0.17423573 -0.009060337 -0.17382771 0.0070295073 0.010482882 0.017934043 -0.014351071
-0.051135685 -0.026093317 -0.021817407 0.013937194 -0.037459336 -0.081316136 -0.13531913 -0.0094236
0.021677108 0.08854772 -0.09569193 0.0034499066 0.028813915 -0.10246567 -0.15978462 0.14020495
-0.13482231 -0.03473259 0.2072181 -0.07507184 0.0006132245 0.08871116 0.12550995 0.06362617
-0.12475554 0.0057598897 -0.05594322 -0.12360481 -0.026943559 -0.092454635 -0.018995404 -0.11540713
-0.15536256 0.05302262 0.13413951 0.1656102 -0.13601159 0.036654 -0.09794475 -0.0013943663
-0.13577937 0.025255224 -0.028494412 -0.06044209 -0.01849543 0.120966114 -0.015017404 -0.018597433
0.098865114 0.043228604 0.14938125 0.098593526 0.018494176 -0.17318752 -0.06609044 0.13777676
0.116509855 -0.1041068 0.046412714 -0.13692313 0.058866393 -0.04667813 0.033591654 0.08025675
0.027355177 -0.14497565 -0.05659947 -0.10434636 0.008235144 -0.048974916 -0.019839339 0.024711506
-0.05078685 -0.16671588 -0.1855851 0.18148734 -0.00068768015 0.03502745 -0.19374314 0.017334456
0.04690182 0.014098569 -0.04025843 0.056159828 -0.056936976 -0.07264392 -0.033803675 0.012108565
-0.042145625 -0.0020343373 -0.12434309 -0.04697258 -0.12854904 -0.0061744056 -0.05757806 0.047449633
0.058113728 0.04649981 -0.13197926 0.1094636 -0.13444786 -0.010572416 -0.022341762 0.12598719
0.012231024 0.051989496 -0.031023888 0.02454777 0.010632421 0.17045541 -0.14650911 0.10823327

action_model._discrete_distribution.branches.2.bias f4 [3]
00000000: 837e 47bd 0731 61bd bc85 013e
-0.048704635 -0.054978397 0.12648672

action_model._discrete_distribution.branches.2.weight f4 [3, 256]
00000000: 618d 1dbd d1c7 bfbc f75a b9bc 400d af3d
00000010: d73c 463d 6613 b9bd c08b 31be 0d85 ab3c
00000020: 9d2c 533d 4dd8 643d eb37 e1ba 6470 c9bd
00000030: b465 15bd d584 6cbd 4668 c03c 5681 0ebc
00000040: dbf2 fa3c f862 39bc 7cc5 d33c 93f1 9a3b
00000050: 3e9e c63b d805 553d 389a 36be 38ba 82bd
00000060: 0f3a a93d 966e 2abe 860b 443b 8961 223d
00000070: 0c28 37bd ddfc f73a e727 73bd 67fb 363d
00000080: dd8c b73c 77a9 013c 3b64 75bd 9553 3dbd
00000090: 63eb 1bbd 4e46 12be 9a96 e23b 8e2a 823d
000000a0: 9dfe adbd 0869 49bd 3af7 f73b 72dc 463d
000000b0: 57bd 833b 4c6f 08bc bada 9ebd 09c2 08be
000000c0: d8c9 ebbd 78d8 05be a779 9b3c 802f 4c3d
000000d0: 1bfb e0bd e885 c63d 292b b4bb 37b8 b7bd
000000e0: 4ac5 1dbc 7026 0ebc a767 2cbd 5e02 a5bc
000000f0: 4f12 b03d 4ba2 773d 5906 5fbc c78c 16bc
00000100: 3a68 1fbe 19b7 c6ba 3007 e6bd 9108 8dbd
00000110: 59f3 303d 5e04 ba3d 5c75 b83d e909 2dbd
00000120: 9800 403c 48f0 a8bd 629b 053d 95ac 873d
00000130: d80c 7b3d f1b5 573c f898 033e 4d1d 81bd
00000140: 1d3a a93b 2cae 4e3d 9200 b2bd 3b0e 12bd
00000150: 9713 9fbd 8e61 84bd 29c2 1bbd d522 8b3a
00000160: ca5b d6bd 9786 18bd 5825 69bc c167 733c
00000170: db71 8fbd 1e11 a23d 3c7a 4dbd 02f0 7cbd
00000180: 16c0 24bd d5d0 21bd f78f f6bc 733f e2bd
00000190: cb32 fe3c e917 033c 2e70 10bc 303d e4bd
000001a0: 6f16 f7bb 7672 86bd d181 263c 6373 e8bd
000001b0: eb6a afbc dec4 14bd aa9e ff3a 787f 6fbd
000001c0: 7706 d0ba 8886 28bd 8a95 da3d 0e57 33bc
000001d0: 4ff9 ce3c 8aff 21be 972a 04bd ae40 0ebe
000001e0: 92a2 223c 9150 f73c b636 6bbd 9c77 14bd
000001f0: da9c 4a3b 4335 b33d 1035 03bd fe66 a43c
00000200: 30e2 cabd b8ff 02bd 3b59 853d 13cd c2ba
00000210: e85f b7bc d3f7 1d3d b368 6dbd b514 c7bc
00000220: eb7f a4bb 4452 623c 3541 1abe f59b 92bc
00000230: c676 b93c f764 103d a8b1 ba3d fd4d 5fbd
00000240: 4d63 04bb 3690 923c 6c7a a23d a727 9c3d
00000250: 34b7 29bc cc19 b3bc c17b 9fbd 72d8 4f3c
00000260: d9ed 96bd 935d efbd e164 2c3d bb8d 54bd
00000270: 33b0 b5bd 0d84 d3bc b571 ce3b 5a32 283d
00000280: bd0a 8ebd 7222 5f3d 90e5 bebd a6b4 133b
00000290: fc78 4c3d 669a 18be d12d 25be fdcc 123c
000002a0: 3046 b5bc 8ef6 743d 7c6e 753c ed13 20bc
000002b0: c9a2 2fbc 6834 be3c d64e d5bd 2c8d 1c3d
000002c0: 0039 33bc a359 ef3c b68f 9d3a 4733 cbbd
000002d0: 9971 0dbc 81e0 49be 0fb3 c13d b512 88bd
000002e0: cbe6 c8bc aedb c23a 83b4 f1bd f9b3 e13c
000002f0: 52e2 fdbd 875d 943d 2dac 2ebe 4312 bfbd
00000300: b28e a43d 3b69 813d 70d9 4bbc 51b5 e33c
00000310: f7e8 17bd b2e4 3cbd 7882 90bd a9b2 cabd
00000320: 1200 dfbd c4f2 043b 15e5 313d 6ac2 cf3b
00000330: 3c7f 933c 990c 0d3e b27d 96bd dc93 28be
00000340: 6372 e83a bbcb 66bc 8093 9bbc 0318 833c
00000350: 7f07 3fbe 826b 103d a4be db3d 7e18 2fbd
00000360: cb44 583d e0ab 0bbd 2ad2 78bd 87b5 a1bd
00000370: 67d5 fbbd d943 4c3d 10ef c83c e9d9 11bd
00000380: b8fe 13bd 34cd 0b3d 6034 ffbd 2888 8d3d
00000390: ac98 f6bc a2e9 cd3d c5c7 75bd b2af 183d
000003a0: 0029 e83c e940 cb3d ffd0 843d cb17 3a3a
000003b0: 55a2 24bc 7204 433d 8f69 e13c 6377 cfbd
000003c0: 71e3 003d e989 2a3d 27c9 a93c 0ceb 333d
000003d0: dc73 bc3b b4cb debd 9e23 2c3d f00a bcbd
000003e0: 9895 8bbd f869 653d b4b3 abbc 8b47 c63d
000003f0: 76ee 27bd 7a87 2dbe ae57 d3bb d75e 013c
-0.038464908 -0.02341071 -0.022626383 0.08547449 0.048397865 -0.09036903 -0.17338467 0.020937467
0.05155622 0.055870343 -0.0017182803 -0.0983589 -0.036473945 -0.057743866 0.023487221 -0.008697828
0.03063338 -0.0113151 0.025851004 0.004728505 0.0060613444 0.052007526 -0.17832267 -0.06383175
0.08263027 -0.16643748 0.0029914095 0.039643798 -0.044715926 0.0018919964 -0.059364226 0.04467335
0.022406036 0.007913939 -0.05991004 -0.04622229 -0.03806628 -0.14284632 0.0069149258 0.06355773
-0.08495829 -0.04917243 0.0075673135 0.048550077 0.004020374 -0.0083273165 -0.077565625 -0.13355269
-0.11513108 -0.13070858 0.018978907 0.049849987 -0.109853946 0.09693509 -0.005498309 -0.08970683
-0.009629557 -0.008676156 -0.042091038 -0.02014273 0.08597242 0.06045751 -0.013612353 -0.009188837
-0.15567103 -0.0015160769 -0.1123184 -0.068863995 0.043200824 0.09082864 0.090067595 -0.04224578
0.011718892 -0.08248955 0.032618888 0.06624714 0.061291546 0.013165937 0.12851322 -0.06304417
0.0051643983 0.050459072 -0.08691515 -0.035658102 -0.07767408 -0.064639196 -0.038026962 0.0010615239
-0.10466726 -0.03723773 -0.014230095 0.01485628 -0.07004138 0.07913421 -0.0501654 -0.061752327
-0.04022225 -0.0395058 -0.030097945 -0.11047258 0.03103008 0.008001306 -0.008815808 -0.11144483
-0.007540516 -0.065648004 0.010162787 -0.11350133 -0.021413287 -0.03632056 0.0019502242 -0.058471173
-0.0015871067 -0.041143924 0.106730536 -0.010946048 0.025265364 -0.15820137 -0.03226718 -0.13891861
0.009926455 0.030189784 -0.057425223 -0.03624688 0.0030916245 0.08750393 -0.032033026 0.020068642
-0.09906423 -0.031982154 0.0651116 -0.0014862142 -0.022384599 0.03856642 -0.057961177 -0.024301866
-0.005020132 0.013813559 -0.15063937 -0.017896632 0.022639643 0.035252538 0.091159165 -0.054517735
-0.002020079 0.01789103 0.07933506 0.076247506 -0.01035862 -0.021862887 -0.07787276 0.012685882
-0.073695846 -0.1168777 0.042088393 -0.051892977 -0.08871498 -0.025819803 0.006300176 0.041063644
-0.06935642 0.05447621 -0.09321129 0.0022538095 0.049920067 -0.14902648 -0.16130759 0.008960006
-0.022128195 0.059805445 0.014979955 -0.009770376 -0.010719963 0.023218349 -0.104154274 0.03822057
-0.010938883 0.029217547 0.0012020979 -0.0992189 -0.008633041 -0.19714548 0.09457981 -0.06644193
-0.024524113 0.0014866495 -0.11802008 0.027551638 -0.12396683 0.072444014 -0.17057867 -0.09329655
0.080350295 0.06318899 -0.012441978 0.02779642 -0.037087407 -0.04611654 -0.07056135 -0.09897358
-0.10888685 0.00202863 0.04343136 0.0063403146 0.018005006 0.13774337 -0.07348193 -0.16462654
0.0017734285 -0.014086659 -0.018991232 0.01600266 -0.18655203 0.035258777 0.10729721 -0.042747967
0.05279998 -0.03409946 -0.060747303 -0.07895952 -0.12296563 0.049869392 0.024528056 -0.035608206
-0.03613159 0.034131244 -0.124611616 0.06910735 -0.030102096 0.100543275 -0.06000497 0.03727693
0.028339863 0.0992449 0.06485175 0.00070988823 -0.010048469 0.04761166 0.027516155 -0.10130193
0.031466905 0.041635428 0.0207258 0.04392533 0.005751116 -0.10878697 0.042026155 -0.09181774
-0.06815642 0.056009263 -0.020959713 0.096816145 -0.0409989 -0.16946211 -0.006449661 0.007896147

action_model._discrete_distribution.branches.3.bias f4 [2]
00000000: 860d f637 e02f f6b7
2.9331783e-05 -2.9347779e-05

action_model._discrete_distribution.branches.3.weight f4 [2, 256]
00000000: 1744 9d3d 976c bdbc 6c92 8a3d 70af 28bc
00000010: fdb1 e3bc ff0d a2bc d0d9 fdbc e758 d63c
00000020: c32a 993d 563c 9a3c f95c 203d 731b 113c
00000030: 451b 63bd 0494 54bc 2fad abbc 1ed4 52bc
00000040: 4703 aabc e32d 1c3c b464 d93b 9a71 cabc
00000050: 66e2 723b 81e6 03bd e589 c23b 5ced 193d
00000060: c7bd 103d 3791 823b ff70 bbbc 3e01 61bc
00000070: 3a31 16bd 4b13 faba 77d4 463c fdcd c3bc
00000080: f371 91bc 4f81 03bc 7f50 80bb 41e4 64bc
00000090: c0d5 043b 6140 023d 07ca 3fbd c085 f7bc
000000a0: d251 22bd eb45 e7bb b9dd 393c 37bd 9c3c
000000b0: 2508 7e3b be00 d2bc fa42 8b3c d171 f2bc
000000c0: 5f08 a8bc b779 2dbc d5a3 b7bc de45 25bc
000000d0: 4132 8abc 8d0a dabb d494 34bc 874c c3bb
000000e0: 85f8 093c 7c61 45bc c070 26bc 1d53 5b3d
000000f0: 37a6 0bbd d2ec b63c 5b53 203c 053c aa3c
00000100: bc18 e0bb 0363 84bc eee7 703c c87d a1bb
00000110: 5ecf 0c3c 88c5 96ba e63e 493c 1572 1cbd
00000120: 544e d23b e4ef 46bb 2a57 633b 163d 9f3c
00000130: bf0c 29bc 5806 cc3c a41f c5bb 4654 eaba
00000140: 16fa d0bc 219e a0bc 1e92 41bc 64a4 00bd
00000150: d524 9bbc 8d8c dabc fa83 b8bc 8c85 3cbc
00000160: e829 363c aece 3cbd e70d b3bc 3a2a 60bc
00000170: 6ee4 7bbb 886b c43b d9d2 dfbc 71bd 9e3b
00000180: 2756 a7bc 0bbd c2bc 165a 35bd 108c 13bc
00000190: c3eb 7abc a877 3bbd da91 2e3c 65a9 9fbb
000001a0: b5a2 cc3c 2b20 41bc c60c 82bc 6391 9dba
000001b0: 4c06 fa3c 4eeb f93c 7551 23bd 7244 a9bb
000001c0: ceac 2b3d bbc3 3d3c 3471 9fbd f4de fabc
000001d0: 78df 8d3c 9840 473c 4305 92ba b3e1 123c
000001e0: 5b3f 013c 487b 69ba 7339 82bd 8aa4 29bd
000001f0: a70f 883b 5ead 3d3d 5412 343c bb28 a63b
00000200: 6d95 9f3b a454 f0bc b90b f5bc 514d c1bc
00000210: 87cf 293c f03f 85bc d9cc 793b eccc 16bd
00000220: 3c7b 30bd 4fb9 e93c a8cc 553c f371 adbc
00000230: 9f38 3dbd 5d30 8d39 60aa 1e3b 8181 35bb
00000240: 81c0 8a3d f0cc 3d3d a3c1 b2bc 446f 3ebc
00000250: fe99 1ebb f266 07bd c747 6e3d 2845 1c3b
00000260: 4560 78bc 545b ac3c d23f edbc 9a8a 0b3b
00000270: de7a dc3b 977b 8cbc f31a 71ba 22b0 133b
00000280: 72d6 0f3b b258 fd3b 0939 05bc 06cf 7ebc
00000290: a9ae 643c 0e19 9c3c 20fc cdbc ef81 d03c
000002a0: 847b 2abd 888d c1bc a33e 49bd 8511 bc3c
000002b0: 70b3 dcbc 0328 7d3c 6b9d 903d 04f1 aa3a
000002c0: 1207 143c 9b8a 623c d581 4fbb 5da7 adbc
000002d0: 0834 0b3c d3f1 173c 6012 1bbd b5d9 2fba
000002e0: 18e8 243c 7102 40bb 0934 a8bd a3ea 313c
000002f0: 35ed 243d 512d 85bc 470c e03c fe41 69bc
00000300: 7e2e 0b3d 212f bc3c e40b 843c b254 b23b
00000310: 7fd9 5dbc 1323 293d cb07 54bd cb26 ebbc
00000320: 0d3e 11bc 2925 36bd 2719 91bc 9970 21bb
00000330: 86e3 2b3c c18e 423c a559 ea3a 6d8a 7f3c
00000340: 6a4c 5bbc bea2 de3c d982 27bb 6076 4e3d
00000350: 2fe9 6a3c 34bc 5abd 4c47 94bb a7e9 a33b
00000360: a33b 85bc f593 ce3c 2f36 973c 3ce5 c8bc
00000370: 7d2c 9e3c 05d7 553d 1ff2 0f3d c57c 56bd
00000380: 0001 20bd 15a5 ddbc 42b1 93bc e730 9e3c
00000390: 2668 363d e384 9dbb 843e 71bc 9ca9 3a3c
000003a0: b301 4dbc 1e33 833c f1a7 2d3c 232a 213d
000003b0: 493e fd3c 6546 773d b09d a0bd 6e95 033d
000003c0: ba96 60bd 311f 0abd e8e7 b53b c9d3 e53c
000003d0: 63ff 793d 097c 6b3c 704a 73bb a3d0 3abd
000003e0: 5013 643c 8d36 4dbc e5cd 98bc 2e58 99bc
000003f0: 1837 d4ba b9e8 20bc 7397 1c3d 72f0 8d3c
0.07679003 -0.023123069 0.06766209 -0.010295734 -0.027794832 -0.019782064 -0.03098765 0.026165439
0.07478859 0.018827599 0.039151166 0.008856642 -0.055445928 -0.012974743 -0.020956604 -0.0128679555
-0.020753516 0.009532425 0.006634319 -0.024712373 0.0037061214 -0.032202248 0.0059368485 0.03757988
0.035337236 0.003984596 -0.02288103 -0.013733206 -0.03666804 -0.0019079236 0.0121356165 -0.023901934
-0.01775453 -0.008026435 -0.003915846 -0.013970436 0.0020269006 0.031799678 -0.046823528 -0.030215144
-0.03962881 -0.0070578954 0.011344367 0.019133193 0.0038762179 -0.02563512 0.01699971 -0.029595288
-0.020511804 -0.010588101 -0.022416988 -0.010087458 -0.016869666 -0.00665409 -0.0110218115 -0.0059600505
0.008421068 -0.012047168 -0.010158718 0.05354606 -0.03409406 0.022329722 0.0097854985 0.020780573
-0.006838886 -0.016160494 0.014703734 -0.0049283244 0.008594362 -0.0011502961 0.012283063 -0.038194735
0.006418029 -0.0030355388 0.0034689405 0.019438308 -0.01031798 0.024905369 -0.0060157347 -0.0017877899
-0.025509875 -0.019606652 -0.011814622 -0.031406775 -0.018938461 -0.026678348 -0.022523869 -0.011506449
0.01111839 -0.046095543 -0.021857215 -0.013681943 -0.0038435715 0.005994264 -0.02732222 0.0048443605
-0.020426823 -0.023771783 -0.044275366 -0.0090055615 -0.015314999 -0.04576841 0.010654891 -0.0048724883
0.024979929 -0.011787455 -0.015875231 -0.0012021478 0.03052058 0.03050771 -0.039872605 -0.00516563
0.041912846 0.01158231 -0.07785264 -0.03062389 0.017318472 0.012161396 -0.0011140484 0.008964944
0.00788864 -0.0008906615 -0.06358614 -0.041416682 0.0041522565 0.046307914 0.010990698 0.0050707734
0.004870108 -0.029337235 -0.029912816 -0.023596438 0.01036442 -0.01626584 0.0038116483 -0.036816522
-0.043086275 0.028530745 0.013049282 -0.0211725 -0.046196576 0.0002692965 0.0024210438 -0.0027695599
0.067749985 0.04633802 -0.021820849 -0.0116232075 -0.0024200673 -0.03305716 0.05817392 0.0023844931
-0.015159671 0.021039642 -0.028961096 0.002129233 0.006728514 -0.017148776 -0.0009197436 0.0022535403
0.0021947888 0.0077315206 -0.008131274 -0.015552288 0.013957658 0.019054916 -0.025144637 0.025452582
-0.0416217 -0.023627058 -0.049132 0.022957573 -0.026941031 0.015451434 0.07061275 0.0013041799
0.009034889 0.013826991 -0.003166308 -0.02119797 0.008496292 0.009273964 -0.03785932 -0.0006708161
0.010065101 -0.002929833 -0.0821305 0.010859164 0.04026528 -0.01625696 0.027349604 -0.014236925
0.033979885 0.022971692 0.016118951 0.0054422254 -0.013540625 0.041293215 -0.051765244 -0.028705021
-0.008864892 -0.044469032 -0.017712189 -0.0024633764 0.0104912575 0.0118748555 0.0017879499 0.015596968
-0.013384918 0.02717721 -0.002556017 0.05040586 0.014337822 -0.05340214 -0.004525101 0.0050022188
-0.016263789 0.025217036 0.018458454 -0.02452337 0.019308323 0.05220701 0.035143014 -0.052365083
-0.039063454 -0.027056256 -0.018028859 0.019310428 0.044532917 -0.004807101 -0.014724378 0.011392977
-0.012512612 0.016015586 0.010599122 0.039346825 0.030913489 0.060369868 -0.078425765 0.03212493
-0.054831244 -0.033721153 0.005551327 0.028055089 0.06103457 0.014372834 -0.0037123226 -0.045609128
0.01392062 -0.012525213 -0.018652866 -0.018718805 -0.0016190736 -0.00982111 0.03823037 0.017326567

action_model._discrete_distribution.branches.4.bias f4 [2]
00000000: 7d33 a8bd 7b33 a83d
-0.082129456 0.08212944

action_model._discrete_distribution.branches.4.weight f4 [2, 256]
00000000: 9f8c b83d 8003 91bd 8d7e 7cbc e190 813c
00000010: 6f0a 97bd 0478 e73c f0c3 313d cb74 983d
00000020: 19ce e8bb 02cc a63c 8bc0 313d 0666 03bd
00000030: 48e3 40bc b092 893d bdab 313b 0004 d13a
00000040: c86b 823c 817e a8bd 2127 223d ac02 0b3d
00000050: fc59 a83b 091a 71bd 9b98 92bd 0017 523c
00000060: b7c1 bc3c 6679 b43b e483 d3bc 0d8f 92bc
00000070: 14f2 5bbd 2a87 d03c 9557 7cbd 2a88 bfbd
00000080: 2144 21bc db03 023b 1aa9 d8ba e3bc 1b3d
00000090: bbbd 1dbd c3f9 a93c 809f b5bd 397c e039
000000a0: f068 873c 0b4d 7e3c 820f 293c f733 2d3d
000000b0: ca4f 80bc 8a6c e9bb fbb7 283c bba1 eb3c
000000c0: 1081 093d 392e 31ba 16f2 703c a21d 32be
000000d0: a6d8 8b3c a501 9fbc 4cc6 e1bd 211b 483c
000000e0: 54c3 083d ce1e 093c 70a5 37bd 2c12 503d
000000f0: 7230 8a3a d878 103d bf5e 4d3c 9886 173d
00000100: 04c6 b3bc c988 75bc 4a3d 1dbd 987d e2bb
00000110: e844 c6bc 0c37 6abc 5a34 8f3c dcd3 003d
00000120: 429e d1bc c935 b5bc a0bd 12bd 0ee2 2fbc
00000130: b002 f0bb ec47 463d 89c2 84bd 933d 0a3d
00000140: 6d56 12bd 6b0a d939 5b88 3fb9 cb67 333d
00000150: 68e7 f93b d03d 48bc fb34 03bd 09eb a83d
00000160: 255c 9cbc 892c 163d 4cb8 01bc 9168 153b
00000170: 52c0 9dbd b6e3 70bb 3ef3 213c 407d 24bd
00000180: 1dde a13c 6fd0 0f3d 8fdf e83c aea7 3d3c
00000190: 7b47 1abb 6c89 1fbc 1916 a6bc 6b36 0abc
000001a0: d2e9 94bc 47ba 5e3c 4445 f23c 47b7 5bba
000001b0: e279 db3a f3ae da3c bc8e 6fbc 971c 873c
000001c0: a997 88bd 8c7b 1e3d 2fd1 f0bb aa9e 48bd
000001d0: d847 edbd b079 023c beaf 243c efd8 e6ba
000001e0: 2a0d 713c 9364 e2bc 66ec b6bd c349 a53c
000001f0: d4b0 d93a a923 86bb 3868 4fbd d5b1 b23b
00000200: 83a3 e5bb d524 2bbc 2618 823c da33 043a
00000210: 7ab9 963d f29c ef3c 0847 9c3c 968f a8bd
00000220: 6372 a03d 71fe 223c f886 35bd d7dc 28bd
00000230: c507 a9bd 3e2a 3cbb 680e 8e3b 69bb 3b3c
00000240: 0e32 273d 1516 023d 0050 01bd 7c7a 5a3c
00000250: 5110 103c aa73 a93c 1606 c83c b9db 5b3b
00000260: 0a9f 483d 9e89 9abc a8e6 00bd b642 9dba
00000270: b83b 0dbd 30b6 133d af9e 0cbd 8120 b0bd
00000280: c262 7cbd 817c 52bd 3fe8 ad3c b79e 84bc
00000290: 3f19 83ba ca6f 16bb 530f 733b aade 56bd
000002a0: 34e5 7abc 800d 09bc 55de 243c 5c84 28b9
000002b0: 276f fb3c b3eb b93c 668a 9c3d 9b30 4c3c
000002c0: 5b71 7e3d b72d 083d aab5 abbc 42e5 943c
000002d0: bc21 4a3c e402 05bd 14d3 6bbd 9c80 a9bd
000002e0: f4b3 a1bc 3c89 813c d052 133d 6c68 46bd
000002f0: 61c4 57bc b71e 93bd e6c3 91bc 385a e9bd
00000300: c4f7 84bd 1a78 4b3d 6e7d 683b c25d dd3b
00000310: 58bd 593c a402 833d a13b fbbc 261c 2d3c
00000320: 729d 063d 285f d83c 9562 9a3c 87ab 4c3d
00000330: 85b8 903d 28d1 4fbc ee43 28bd 1768 8a3c
00000340: 06bf adbd 912b 3e3d 5c80 0cbd 7bd5 3a3d
00000350: 9848 1bbd 5b0e 0dbd e247 06bd 2cc5 393c
00000360: 51dc 953c d481 bc3c d52a 773c 4097 29bc
00000370: 1e1e 553a 765d 1dbd 04ad 753c 36e2 403d
00000380: 8986 843c 42ff 7a3c 7cad ad3a e0e1 23bd
00000390: 914b 563d 3c42 473b 2f06 c53b 89f4 36bd
000003a0: 7f6c 39bc 58cd 5cbd 6d1e 3a3a f360 45bd
000003b0: 269d 2bbd e5d1 0fbc bc68 cd3b e792 f33c
000003c0: 92f0 8ebd 8fd3 23bb b13f 08bc 6d21 83bd
000003d0: 9b04 073d d62f a83c 929f 5cbb 9b04 293d
000003e0: 9fa3 d9bd 988a 81bd 19c8 103d 9aab c2bd
000003f0: ddae 10bd fcb1 323c 2e9b 133d 0706 e33b
0.09011196 -0.07080746 -0.015411031 0.015816154 -0.07375037 0.02825547 0.04339975 0.074441515
-0.007104647 0.02036095 0.043396514 -0.03207972 -0.011772938 0.067174315 0.002711042 0.0015946627
0.015920535 -0.08227254 0.039588097 0.033938095 0.00513768 -0.05886272 -0.071580134 0.012822866
0.02304159 0.005507636 -0.025819726 -0.017890478 -0.05369766 0.025455076 -0.061606962 -0.09352143
-0.009842903 0.0019838724 -0.0016529888 0.038021933 -0.03851102 0.020748978 -0.08868313 0.00042817162
0.01652953 0.015521298 0.010318639 0.042285886 -0.015663046 -0.0071235346 0.010297771 0.028763643
0.03357035 -0.0006758902 0.014706155 -0.17394117 0.01707108 -0.019409964 -0.1102415 0.012213499
0.033389404 0.008369161 -0.044835508 0.05079858 0.0010543002 0.035271496 0.012534796 0.036993593
-0.021945007 -0.014986225 -0.038388528 -0.0069119446 -0.024202779 -0.014295351 0.017481018 0.031452045
-0.025588159 -0.022120373 -0.03582537 -0.010735048 -0.007324539 0.048408434 -0.06482417 0.033750128
-0.035726953 0.00041397227 -0.00018265976 0.043800157 0.0076264627 -0.0122217685 -0.032032948 0.082479544
-0.019086907 0.036663566 -0.007917475 0.0022797922 -0.07702698 -0.003675682 0.009884654 -0.04015851
0.019759232 0.035110887 0.028426914 0.0115756225 -0.002354114 -0.009737354 -0.020274209 -0.008435826
-0.0181779 0.013594217 0.029574044 -0.00083814975 0.0016744698 0.02669475 -0.014621433 0.016493125
-0.06669552 0.038692042 -0.0073491554 -0.04897944 -0.11585969 0.007963583 0.010051666 -0.0017612259
0.014712611 -0.027635848 -0.08931808 0.020176774 0.0016608485 -0.0040936065 -0.0506365 0.005453328
-0.0070080175 -0.010445793 0.015880655 0.0005043127 0.073595956 0.029249642 0.01907684 -0.08230512
0.078343175 0.009948359 -0.04431817 -0.041226234 -0.08253435 -0.0028711702 0.0043352135 0.011458256
0.04081922 0.03175934 -0.031570435 0.013334867 0.008792953 0.020685036 0.024416965 0.0033547713
0.048979796 -0.01886445 -0.03146997 -0.0011998031 -0.03448078 0.03606242 -0.03433102 -0.0859995
-0.06161762 -0.051388267 0.021228908 -0.016188962 -0.0010002031 -0.0022954815 0.0037087991 -0.052458443
-0.015313435 -0.008365035 0.010062774 -0.00016071036 0.03069265 0.022695398 0.07643585 0.01246276
0.062119823 0.033246722 -0.020960648 0.018175725 0.012337144 -0.03247346 -0.057574347 -0.082764834
-0.019739129 0.015812509 0.035967648 -0.04843943 -0.013169379 -0.07183593 -0.017793607 -0.11394161
-0.0649257 0.049675085 0.0035475153 0.0067555616 0.013289772 0.06396988 -0.030668082 0.010565793
0.032864995 0.026412562 0.018845836 0.04996827 0.07066444 -0.012684144 -0.041080408 0.016895337
-0.084837005 0.046428267 -0.0343021 0.045613747 -0.037911028 -0.03443752 -0.032783397 0.011338513
0.018293532 0.023011126 0.015085896 -0.010351002 0.0008129793 -0.03841921 0.014994863 0.04709073
0.016177433 0.015319647 0.0013250555 -0.040010333 0.05231816 0.003040447 0.0060127 -0.0446668
-0.011317371 -0.05390677 0.00070998707 -0.04818816 -0.041897915 -0.00877807 0.006268589 0.029733134
-0.06979479 -0.0024997925 -0.008315966 -0.0640286 0.032963376 0.020530622 -0.0033664447 0.041264158
-0.10626911 -0.06325263 0.035347078 -0.09505387 -0.035323013 0.010906693 0.036036663 0.0069282087

discrete_action_output_shape f4 [1, 5]
00000000: 0000 4040 0000 4040 0000 4040 0000 0040
00000010: 0000 0040
3.0 3.0 3.0 2.0 2.0

network_body._body_endoder.seq_layers.0.bias f4 [256]
00000000: d3c2 b83d 90a1 983d a030 64bd aa47 8bbd
00000010: b23b cbbd 6e9a aebc 986a 84bd 5a08 4cbe
00000020: 1988 f4bb 4c1f 6a3d 7591 243d 9ff1 11be
00000030: 26d3 f6ba 489f f1bd 710e b0bd 486e 07be
00000040: 9eca 8cbb 0756 8ebd ea4a acbd 16fa 92bc
00000050: 51d8 19be 6ab0 03bd b0fe d9bd 93c8 eabd
00000060: abfc 8abd 6648 c9bd 4609 d4bc 4217 a1bd
00000070: da55 c2bd 12db 3e3e 8c8d abbd 305a 31bc
00000080: b09c 8a3d 805c d2bd 3ace febd 851c d5bd
00000090: 2a0d 793c d649 8d3d 36ef 77bd 83d1 553d
000000a0: 2677 0abe cda5 973d 6b77 ddbc 1f5c 0cbe
000000b0: 8fa7 1e3d 9898 8f3c aecd 26be bc5b 12be
000000c0: 31d2 88bd 347b debb cda6 16be bfd0 a3bc
000000d0: dedc bcbd ac1f f9bd a1bf b53d 42bf d13b
000000e0: 2fb9 06be e0b9 a3bd 120f 77bd f6b9 49bd
000000f0: b14e 4abe 1546 91bd db8a b3bd 8f86 18be
00000100: 1a3e 04be 97db 88bd 94e3 13bc b077 3abd
00000110: 2e06 39be cfcc 44be 1a85 093c d051 d5bd
00000120: b22e 0bbe 03be 98bd 7df5 b2bd 93f7 15be
00000130: 540a a83d 311e 82bc 5855 57be f533 7abd
00000140: 6581 a73c 8ed1 bbbd 0f31 44bd 113f 3dbd
00000150: 4ef5 ecbd 150a a53d 9206 7c3d 6c5f f9bd
00000160: 670f 363d 1353 1ebd aa67 bebd f71b cfbc
00000170: c58c 78bd 5b52 79bd 95ad 7abb f5c4 c8bd
00000180: ea2c cb3c 5dec 43bc c052 adbd bff8 343d
00000190: a999 243d 62b7 54be 8e7a 5dbd bb19 0dbe
000001a0: a9c3 bcbd 8994 b23c 113c a8bd b0b6 083c
000001b0: 1281 343d cc59 20be 74ea a63c aaf2 64be
000001c0: 04a7 893a f0f7 28be fdc0 f23d c0e3 88bd
000001d0: 2d11 963d 745b 3b3d 5c42 b43d e375 cfbc
000001e0: 1de7 0bbe c7da 84bd 4c74 64bd 3912 05bd
000001f0: 95a3 583d c09c 69bd bc71 e13a ac60 31bd
00000200: 5167 c03d ff5e a43c 2899 9abd b862 6fbd
00000210: 0357 a2bc efef a03d bd5d e9bd 02d7 cfbd
00000220: ce88 18bd 86a1 91bd b35e 363d a017 bdbd
00000230: f401 54bc a2ee e0bd 621d 37be 0093 4c3d
00000240: ea7d 1abe c4f9 d33d ee36 9a3d f07e 47be
00000250: 02e8 35be 6544 a3bc 5788 bebd c6ee 9abd
00000260: a01c 39be 8799 88bb 0109 8fbc a2bd 1bbe
00000270: b560 abbd cbb4 35bd 8b43 8fbd 7fca 97bd
00000280: 2782 38be 5fc5 26bd 17d4 22bd 1c3e da3d
00000290: 087b 81bd 3710 cebb 20ad 023e 51cf 7c3d
000002a0: e718 733d d280 17bd 5e21 0c3e 04e9 093d
000002b0: 1e7d bfbd 9737 bdbd e65f ccbc 97dc 0e3d
000002c0: f5d1 75bd b986 803b 19f0 19be f940 043c
000002d0: eac2 12bd 2c5d 963c f377 0abe f348 35bd
000002e0: 5987 c33c de15 d33d c766 1abc e591 2ebe
000002f0: 2d79 b2bd 681d 6d3d 008b 24be bdf5 0fbe
00000300: 6309 01be e554 5c3d 6661 d9bd 71a7 67be
00000310: 4248 89bd 9ce6 11be 3b31 56bd 9937 1c3d
00000320: cee3 62be 3399 143d bf0f ad3d b947 043d
00000330: f121 f6bd 6b74 7c3d 8902 053d 9dae 6839
00000340: 9703 bd3b 9dd8 de3d c7d8 9fbd e49a 3fbd
00000350: 2810 c1bd eb88 99bd 8f46 cdbd c940 e93c
00000360: 9a62 95bd ed6e 37bc 2a38 233c 70ae 5f3b
00000370: e237 d4bd b569 d9bc 8276 1dbe 63a1 10be
00000380: 2d92 ebbd 952e e2bc 47fd eabd 3c5d bbbd
00000390: c031 c3bd fbf7 29bc eeb4 1bbe d91c 70bd
000003a0: f4a7 83bd 3658 3b3d c59d a03d 25ae d1ba
000003b0: bd53 1cbe a475 51bd 7ecb cfbd d835 3ebe
000003c0: 59cd dcbd 2400 853d 86eb 78bc e2b2 59bc
000003d0: cc8f b83d d0fe 65bb 9bcb 86bd 00b8 85bd
000003e0: 1f0a 61bd 2193 2b3d c890 043d 90b1 c23d
000003f0: 6f40 babc 0c30 ebbd c52d b1bd 9a17 c0bd
0.09021535 0.074526906 -0.055710435 -0.06800778 -0.09923495 -0.021313872 -0.06465644 -0.19925061
-0.007462513 0.057158753 0.04017778 -0.14252327 -0.0018831238 -0.117979586 -0.085965045 -0.13225663
-0.004296615 -0.06950002 -0.08412726 -0.017941516 -0.15023924 -0.032150663 -0.10644281 -0.11464038
-0.06786474 -0.09828262 -0.025883328 -0.07865764 -0.09489031 0.18638256 -0.08376607 -0.010824725
0.06768167 -0.10271549 -0.12441678 -0.1040583 0.015200892 0.06898849 -0.060530864 0.05220176
-0.13522014 0.07404671 -0.027034482 -0.13707016 0.038734015 0.017528817 -0.16289398 -0.14292806
-0.06680716 -0.0067895893 -0.14712067 -0.019996999 -0.092218146 -0.12164244 0.08874441 0.0064009735
-0.1315658 -0.07994437 -0.060317107 -0.04924961 -0.19756581 -0.07093445 -0.08766719 -0.1489508
-0.12914315 -0.066825084 -0.009026427 -0.0455243 -0.18068764 -0.19218753 0.00839355 -0.10415995
-0.13592032 -0.07458117 -0.087382294 -0.14645223 0.08205095 -0.015883537 -0.2102865 -0.061084706
0.020447442 -0.09170829 -0.04789835 -0.046202723 -0.11570226 0.080585636 0.061529703 -0.121764034
0.044448283 -0.038653444 -0.09297116 -0.02528189 -0.060681123 -0.060869556 -0.0038250436 -0.098031916
0.02480169 -0.011958209 -0.08463049 0.044182535 0.040185604 -0.2077308 -0.054071955 -0.13779347
-0.09217007 0.021799343 -0.08214582 0.008344337 0.044068404 -0.15659255 0.020375468 -0.22358194
0.0010502045 -0.1650083 0.11853216 -0.06684065 0.07327495 0.045741513 0.088017195 -0.025324767
-0.13662381 -0.06487041 -0.05577497 -0.03248808 0.05289038 -0.057034254 0.0017200033 -0.043305084
0.09394706 0.020064829 -0.075487435 -0.058443755 -0.019816881 0.07858264 -0.11394832 -0.10148431
-0.037239842 -0.07110886 0.044523906 -0.09233022 -0.012939919 -0.109830156 -0.17882302 0.049944878
-0.15087095 0.103503734 0.07530008 -0.19482017 -0.17764285 -0.019930074 -0.093033485 -0.07565074
-0.18077326 -0.0041686925 -0.017460348 -0.15209058 -0.08368055 -0.04436187 -0.06995305 -0.0741167
-0.18018399 -0.04071557 -0.039753046 0.10656378 -0.063222945 -0.006288554 0.12761354 0.06172115
0.05934992 -0.036988087 0.13684604 0.033669487 -0.09350036 -0.092391185 -0.024948072 0.03487834
-0.060014684 0.00392231 -0.15032996 0.008072131 -0.035830416 0.018354975 -0.1352232 -0.044259023
0.02386825 0.10306905 -0.009423918 -0.17047842 -0.08714519 0.057889372 -0.1606865 -0.14058585
-0.12601237 0.0537919 -0.106142804 -0.22622468 -0.06703235 -0.14248127 -0.052293044 0.03813896
-0.22157213 0.036278915 0.08450269 0.032294963 -0.120181926 0.061634462 0.03247312 0.00022190293
0.00576825 0.108811595 -0.07805019 -0.046778575 -0.0942691 -0.07496818 -0.100232236 0.028473275
-0.072941974 -0.01119588 0.009962121 0.0034131072 -0.10362221 -0.026539663 -0.15377238 -0.14124064
-0.1150249 -0.027610103 -0.1147409 -0.091486424 -0.095309734 -0.010374065 -0.15205738 -0.05862126
-0.06428519 0.04573842 0.07842592 -0.0015997334 -0.15266319 -0.05113758 -0.10146235 -0.18575227
-0.107813545 0.064941674 -0.015192872 -0.013287278 0.09011802 -0.0035094507 -0.065818034 -0.06529236
-0.054941293 0.04188836 0.032364637 0.095065236 -0.022735802 -0.114837736 -0.08651308 -0.09379502

network_body._body_endoder.seq_layers.0.weight f4 [256, 12]
00000000: 82c1 073f 0060 c5be 5b7a 0bbf a931 303e
00000010: 0a41 9abd 3585 e1be ba83 f73c d09f e83d
00000020: 1084 01bf 1a71 b83c 1ee3 e2ba 1e81 0e3c
00000030: 1a61 743f bdd1 8ebe a4d2 40be 94af 3e3e
00000040: e391 c73d f8d4 ccbd b06c 9bbe 158a 1b3f
00000050: 7d43 3c3f 6647 873c 4292 e4be c23b b9bd
00000060: aeea 96bd 5b32 d3be 6cd5 143f bb1d 533f
00000070: c9d5 a63e 49c6 afbc dd6e 84be f4e9 6a3e
00000080: aaca 1e3e 1b9d e9be 5fc6 9bbe 02f2 d73d
00000090: 1137 7dbe 9a59 a73d 61d7 ac3e d964 8b3e
000000a0: 7607 a23e 41ed 6dbc 95b6 8cbe d1d9 2b3e
000000b0: 9534 d43e 9a74 49bf d5dd 853e 69dd cf3e
000000c0: c112 2d3e 4ee8 a4be 8031 2abe baa5 b93e
000000d0: 13e9 ddbd 0f47 59bd 7aeb 8dbe afa5 413e
000000e0: de9e 4d3e bb69 ca3e 0291 10bf b617 383e
000000f0: 2874 6d3e a68b e2bc cfec 6f3e cf29 22be
00000100: a617 973e 2eb8 04bf 75a6 383e 5d6d 9d3c
00000110: c96b f4be c188 80be dda9 093e ec62 183f
00000120: 528b 60be 1b3a 2dbc 8d9d 8cbc 7b36 103f
00000130: 4156 07bf 64cf 8e3e e8b9 1b3f b9d8 03bd
00000140: 6559 e4bd 0d7e e2be aba9 b13e 3dca 003f
00000150: 55ce eabb 5862 be3d bbe9 0e3d 279d 513e
00000160: 5cd6 2b3e 926a 9dbc 3ea3 dbbc f3ab 123e
00000170: 83df 7cbe f223 d03e 706a 893e 189e 403d
00000180: ea45 0abe 82e5 8a3d f1a1 8ebd 7461 e8be
00000190: 2353 093f 8ef3 37be e621 b6be 0497 153f
000001a0: 2a24 b73e 6c07 fc3b f8cb 833e a021 78be
000001b0: 1e52 0d3f d86e ebbe d5ff 86bd a4b0 dd3e
000001c0: 5f61 5dbf e7da 183f 11e5 ecbd ef90 2abe
000001d0: 72e2 40bf 23f9 b73b e2e1 91bd e789 063e
000001e0: d9ef 4f3f 8dad 1fbb ef0f 04bf 7389 9abe
000001f0: c0cf 8abd b8a2 4cbe 9c22 ac3c d50f 8fbe
00000200: de19 2abe a2e3 d73e 92ec da3d 387c b4be
00000210: 5185 e43d d173 d8be 57e9 233e ce4d c3be
00000220: 953d 9dbe 50f1 4a3e 23ed cf3e fb75 513e
00000230: fd38 923c fae1 a83e f5bd 803e ef9c 4c3e
00000240: 5a1f b83e cfb6 b03e 1f01 8abc 3ad6 e2bd
00000250: 7dd2 95be 3212 0c3c c80f dfbe 25ca 2e3f
00000260: de3c 613d 7df6 b83e 0bb5 8e3e 780e 19bf
00000270: f1a6 a3be 8b7b cc3e 775f cb3e bf03 33be
00000280: 5795 26be b745 41bd 452d 9e3d 6454 76be
00000290: 65dc 143f 76e8 803e 9dd3 033f 64da 9bbe
000002a0: 7d00 14bf e74b 8cbd 8765 eabe c6c4 c13d
000002b0: 144a 19be 055a 673e 9cfa 4bbe 2cc8 bc3d
000002c0: 31b6 693e 6d5d 3e3f aa85 963c 0d01 863e
000002d0: ed7c c5bd c823 16be 5489 e93e 5929 9f3c
000002e0: d23a 5a3b 42c8 853d 761c d43e d82a b6be
000002f0: 4a0e 31bf 0688 ba3e b615 b0bb b0ae dcbd
00000300: 78c0 aabe 4f8d a7bc c408 81be 6469 34bf
00000310: 57fa 993e 97a1 823e 0a44 a23e 2b70 a9bd
00000320: c8ed 523f 0c02 bcbe 3517 72bd e687 61bd
00000330: c144 2b3d 356b 0ebe 9b5b 2b3e 8138 8f3f
00000340: 732d 013f 8d3f 33bc 1e7b b83e d62c f73d
00000350: 3fff 763e d730 e53e 4d42 77be cba9 423e
00000360: 3a2d 7c3e 4558 093e c1c8 c7be 85f5 f4be
00000370: d06e fd3e d3df ef3d 7475 c33e ef4e 3b3e
00000380: 95a4 0e3e e2ba 04bf fc63 a8bd fa0a b33d
00000390: 697d 283e 6ad2 063f c171 733e d5c3 a0bc
000003a0: 4e0f 573e 4397 123f 68d5 1ebe bb6f 203f
000003b0: fcf9 093f 3472 623e 5b49 053f 24e8 c23d
000003c0: 2122 86bd 89cd 9dbe 64ad 67be d8f9 8f3e
000003d0: 566b f33e 7e2d 043e a613 fa3e 7b53 b7be
000003e0: 1255 3bbe 5313 09be 1c28 04bf dac8 f93d
000003f0: 1fe4 423e db67 bf3d 8cc5 d2be 2f4a edbe
0.53029644 -0.38549805 -0.54483575 0.17206444 -0.075319365 -0.4404694 0.03021418 0.11358607
-0.50592136 0.022514869 -0.0017310118 0.008697776 0.95460665 -0.27894393 -0.18830353 0.18621665
0.097446226 -0.10001558 -0.3035636 0.6075757 0.7354048 0.016513538 -0.44642836 -0.09044601
-0.0736898 -0.41249356 0.58138156 0.8246724 0.3258498 -0.021456854 -0.25865832 0.22940809
0.15506998 -0.45627674 -0.30424783 0.10544206 -0.24728037 0.08171387 0.3375807 0.27225378
0.31646317 -0.014521898 -0.2748305 0.16782309 0.41446367 -0.78693545 0.26145807 0.4059861
0.16901685 -0.32208484 -0.16620445 0.36259252 -0.10835471 -0.053046282 -0.27718717 0.1891086
0.20080134 0.3953379 -0.56471264 0.17977795 0.23188841 -0.02765448 0.23430179 -0.15836261
0.2951023 -0.51843536 0.18032248 0.019217188 -0.47738484 -0.25104335 0.13443704 0.5952594
-0.21928146 -0.010572935 -0.01716497 0.5633313 -0.5286599 0.278926 0.60830545 -0.032189105
-0.11149863 -0.44236794 0.3469976 0.5030859 -0.00716571 0.09296101 0.03489087 0.20470105
0.1678099 -0.019215856 -0.026811238 0.14323406 -0.24694638 0.40652424 0.26839018 0.04702577
-0.13503233 0.067820564 -0.069644816 -0.4538685 0.5364248 -0.17964002 -0.35572737 0.58433557
0.35769778 0.0076913144 0.25741553 -0.24231577 0.55203426 -0.45983005 -0.06591765 0.4329883
-0.864767 0.5970902 -0.115671284 -0.1665685 -0.7534553 0.005614416 -0.07123162 0.13138543
0.81225353 -0.002436492 -0.5158681 -0.3018299 -0.067779064 -0.19983947 0.021012597 -0.27941766
-0.1661143 0.42165858 0.106896535 -0.3525102 0.111582406 -0.4227586 0.16006981 -0.38145298
-0.30711046 0.19818616 0.40610608 0.20455162 0.01784944 0.32984906 0.25144926 0.1998174
0.3596142 0.34514472 -0.016846238 -0.11076017 -0.29262152 0.00854926 -0.43566728 0.682772
0.054989688 0.36125556 0.278725 -0.597877 -0.31963304 0.39938006 0.3972127 -0.17481898
-0.16267906 -0.047185626 0.07723478 -0.2405563 0.58148795 0.25177354 0.5149477 -0.30440056
-0.57813245 -0.06850415 -0.45780584 0.0946136 -0.14969665 0.22592933 -0.19919819 0.09217867
0.22823407 0.74361306 0.018374283 0.26172677 -0.09642968 -0.14662087 0.45612586 0.019428896
0.003329922 0.06532337 0.41427964 -0.35579562 -0.6916243 0.36431903 -0.005373682 -0.107755065
-0.33349967 -0.020453123 -0.25202 -0.70473313 0.30073807 0.25513908 0.31692535 -0.082733475
0.82394075 -0.36720312 -0.059104163 -0.055061243 0.041813616 -0.13908084 0.16734163 1.1189119
0.50459975 -0.010940445 0.3603143 0.12069099 0.24120806 0.44763824 -0.24146385 0.19010083
0.24626628 0.13412578 -0.3902035 -0.47843567 0.49498606 0.11712613 0.38175547 0.1829183
0.1392997 -0.5184766 -0.082221955 0.08742328 0.1645409 0.52664816 0.23773862 -0.01962463
0.21001932 0.5726206 -0.15511096 0.6267049 0.5389707 0.22113878 0.52065057 0.095169336
-0.06549478 -0.30820873 -0.22624737 0.28120303 0.47542828 0.12907979 0.48843116 -0.35805878
-0.1829417 -0.13386278 -0.516237 0.121965125 0.19032334 0.09345981 -0.4116634 -0.4634566
