Assets/Model/AttackMode0515.onnx (onnx, 87373 bytes, 9 tensors)

action_model._continuous_distribution.log_sigma f4 [1, 2]
0.06552626 0.032346647
00000000: a232 863d eb7d 043d

action_model._continuous_distribution.mu.bias f4 [2]
0.0101839965 0.013395708
00000000: c7da 263c ac79 5b3c

action_model._continuous_distribution.mu.weight f4 [2, 128]
-0.012988209 0.050230887 -0.037846208 -0.008848006 0.0346485 -0.019334098 0.00035944613 -0.031856384
-0.081893705 -0.007653619 -0.042430475 -0.019839142 0.043263577 0.04298876 0.00023730396 -0.10297569
-0.008800346 -0.04195395 -0.09623114 0.08786232 -0.017077614 0.010257202 0.024079507 0.032896373
0.013626387 0.054945264 0.017024098 -0.022992427 -0.02039212 0.0778767 0.005343469 -0.002726157
-0.0031170296 -0.0011473199 -0.041750304 0.011939393 -0.046925865 -0.006822523 -0.005638966 0.03698397
-0.051577177 0.04419683 0.030806797 0.015462284 -0.029042518 -0.003094335 -0.025285792 0.020227363
0.056021333 -0.016780445 0.008252524 -0.07078989 -0.0070970776 -0.05238525 0.057325315 0.0075013037
-0.07336298 -0.030314058 -0.0043865414 0.051499058 -0.0141634345 0.06702365 0.056242075 0.029611422
0.019872192 0.053173617 -0.063276395 -0.028421802 0.02963911 0.00842564 0.012520001 0.02182777
-0.049574375 0.04188105 0.033315174 0.0029817359 -0.00076191727 0.04142602 -0.07548684 0.0041789836
-0.059650797 -0.052633196 0.0062909606 -0.019467039 0.104518265 -0.023373127 0.04081433 -0.054265108
0.033787843 -0.106538765 0.0020603163 0.05258933 -0.0023998488 -0.031084467 0.005511232 0.009786075
-0.042795647 -0.08133129 0.005846758 -0.0033427742 -0.07069761 -0.03420047 -0.00023302571 -0.022221081
-0.048036832 -0.0021952 -0.032112297 -0.01654703 -0.023373729 -0.026963128 -0.0009252705 -0.012847115
0.053931255 -0.008750464 -0.006573194 0.04308607 0.011232975 -0.040438466 0.034622714 -0.08873034
-0.09061716 0.00706133 -0.027882896 0.05486316 0.028463567 -0.012498887 -0.0031003088 -0.016455473
-0.0032719169 -0.046339665 0.023388356 0.028354038 -0.03030329 0.008749134 -0.052780464 0.05194357
-0.018446743 -0.035114396 0.05315945 0.011829934 0.0070610456 0.014335388 0.093062505 -0.05596542
0.020283924 0.06498834 0.057028014 0.0003258954 -0.008475735 -0.0007327073 0.0384878 -0.042969894
-0.060505234 0.031304702 0.008029304 -0.06351514 0.06140606 -0.048079185 -0.017285882 0.0150653515
-0.032775912 0.045224417 -0.052746676 0.012992006 -0.1003058 0.01685154 0.018144986 -0.0022849957
-0.0708815 -0.03242634 0.021645136 -0.057021648 -0.050495423 -0.0013196634 0.024455417 0.0615786
0.032487057 0.061840817 -0.026915178 0.008023175 0.017479688 -0.040923197 -0.04775865 -0.03419156
0.006693352 0.019511726 0.023017222 -0.08718304 0.034366604 -0.02843066 0.0058701816 -0.041665472
0.00076603255 -0.015934745 -0.082237594 -0.07925315 0.0065814126 0.003175929 0.09941556 0.014477661
-0.018044323 -0.0070117377 -0.0024710104 0.06402472 -0.012311317 0.049839858 0.0039395066 0.04935766
0.029204572 0.03166888 -0.03436688 -0.037814207 -0.023717351 0.08778791 -0.016730098 -0.0498888
-0.010195104 -0.055485565 0.0120657915 0.0292386 -0.074546285 0.037618488 0.056192018 0.010157637
0.07104074 0.04805168 0.02013445 -0.005994821 0.09137323 -0.026854862 -0.10064263 0.00041649252
-0.031765282 0.009595222 0.0010645932 -0.016229868 0.08832182 -0.019912206 -0.061017595 0.025691321
-0.05434727 0.009381027 0.014418826 -0.018974924 0.0026022373 0.07311031 0.012318745 0.0030378124
-0.052007474 -0.0022520085 -0.036869656 -0.006590756 0.018097335 0.0333383 -0.057720866 0.035651404
00000000: 7fcc 54bc e7be 4d3d a004 1bbd 3af7 10bc
00000010: 96eb 0d3d 8b62 9ebc 0b74 bc39 d77b 02bd
00000020: e3b7 a7bd 36cb fabb 94cb 2dbd b285 a2bc
00000030: 2635 313d fb14 303d ccd4 7839 ebe4 d2bd
00000040: 542f 10bc e8d7 2bbd d514 c5bd 29f1 b33d
00000050: 5ae6 8bbc d30d 283c 6342 c53c 59be 063d
00000060: 3641 5f3c 490e 613d 1f76 8b3c 9d5a bcbc
00000070: 600d a7bc d27d 9f3d 4418 af3b 53a9 32bb
00000080: 1447 4cbb ab61 96ba 5e02 2bbd 729d 433c
00000090: 5635 40bd 798f dfbb 13c7 b8bb 817c 173d
000000a0: 9742 53bd bc07 353d 895e fc3c 8555 7d3c
000000b0: 93ea edbc 54ca 4abb 2624 cfbc dbb3 a53c
000000c0: a076 653d 2577 89bc 9835 073c 4afa 90bd
000000d0: 9a8e e8bb ea91 56bd f3cd 6a3d 7fcd f53b
000000e0: 543f 96bd 3055 f8bc fabc 8fbb adf0 523d
000000f0: c00d 68bc b243 893d 175e 663d a793 f23c
00000100: 02cb a23c 94cc 593d 0e97 81bd d7d4 e8bc
00000110: b8cd f23c b20b 0a3c b120 4d3c 27d0 b23c
00000120: 800e 4bbd 778b 2b3d 7e75 083d 3a69 433b
00000130: 67bb 47ba 55ae 293d d898 9abd dbef 883b
00000140: 6554 74bd e895 57bd 6724 ce3b 5779 9fbc
00000150: ac0d d63d 0079 bfbc ed2c 273d 1745 5ebd
00000160: 1f65 0a3d ff30 dabd 5f06 073b e967 573d
00000170: c846 1dbb daa4 febc 9197 b43b c655 203c
00000180: 7d4a 2fbd 0591 a6bd 2996 bf3b 7212 5bbb
00000190: e9c9 90bd cb15 0cbd 5d58 74b9 fc08 b6bc
000001a0: 45c2 44bd 58dd 0fbb 2f88 03bd a38d 87bc
000001b0: 437a bfbc c7e1 dcbc da8d 72ba b57c 52bc
000001c0: 05e7 5c3d 1b5e 0fbc f363 d7bb 057b 303d
000001d0: 830a 383c cea2 25bd 8cd0 0d3d 41b8 b5bd
000001e0: 7d95 b9bd bb62 e73b ac6a e4bc 31b8 603d
000001f0: 6d2c e93c 22c8 4cbc 8d2e 4bbb a1cd 86bc
00000200: a86d 56bb a9ce 3dbd f098 bf3c ba46 e83c
00000210: 9b3e f8bc 8758 0f3c 5430 58bd c8c2 543d
00000220: a01d 97bc 1dd4 0fbd b9bd 593d 57d2 413c
00000230: 5860 e73b fade 6a3c 8e97 be3d ff3b 65bd
00000240: 792a a63c 9b18 853d 3596 693d f1dc aa39
00000250: cfdd 0abc 2813 40ba 62a5 1d3d 3301 30bd
00000260: 56d4 77bd 5c39 003d 588d 033c 3a14 82bd
00000270: ec84 7b3d aeee 44bd 1f9b 8dbc aad4 763c
00000280: 0940 06bd 3d3d 393d e60c 58bd 6cdc 543c
00000290: 216d cdbd 3e0c 8a3c cba4 943c debf 15bb
000002a0: 522a 91bd 7bd1 04bd 2451 b13c 888f 69bd
000002b0: 4ad4 4ebd 8ef8 acba ba56 c83c d839 7c3d
000002c0: 2611 053d cc4c 7d3d 387d dcbc a373 033c
000002d0: 9031 8f3c 159f 27bd 939e 43bd 730c 0cbd
000002e0: e853 db3b 0ed7 9f3c 9d8e bc3c 068d b2bd
000002f0: ffc3 0c3d 6ae7 e8bc a75a c03b 6aa9 2abd
00000300: 93cf 483a 9589 82bc 2f6c a8bd 7a4f a2bd
00000310: e4a8 d73b 3f23 503b 639a cb3d b633 6d3c
00000320: b0d1 93bc b8c2 e5bb adf0 21bb 641f 833d
00000330: 68b5 49bc e124 4c3d fa16 813b 422b 4a3d
00000340: 6d3e ef3c 3ab7 013d 49c4 0cbd 12e3 1abd
00000350: e44a c2bc 26ca b33d 8f0d 89bc 3358 4cbd
00000360: 5e09 27bc d544 63bd 99af 453c ca85 ef3c
00000370: b9ab 98bd d815 1a3d 9a29 663d 386c 263c
00000380: cf7d 913d d7d1 443d 01f1 a43c 3470 c4bb
00000390: e321 bb3d bafe dbbc b91d cebd ae5c da39
000003a0: 501c 02bd 4735 1d3c d289 8b3a 80f4 84bc
000003b0: 12e2 b43d ec1e a3bc 96ed 79bd 9b76 d23c
000003c0: 3e9b 5ebd e1b2 193c f13c 6c3c 4d71 9bbc
000003d0: 4c8a 2a3b dcba 953d 90d4 493c 0916 473b
000003e0: ca05 55bd 6f96 13bb a304 17bd 45f7 d7bb
000003f0: dd40 943c be8d 083d b76c 6cbd 3507 123d

action_model._discrete_distribution.branches.0.bias f4 [2]
-0.007242085 0.0072420896
00000000: 034f edbb 0d4f ed3b

action_model._discrete_distribution.branches.0.weight f4 [2, 128]
-0.0050782436 0.02117795 0.0011812703 -0.0129012335 -0.00269422 -0.0041097975 -0.012674854 -0.003916683
-0.013875939 -0.027870009 -0.018957768 -0.0010271281 0.018726975 0.005580427 0.011383125 -0.010013092
-0.0015683011 0.022182336 -0.0018205066 0.0015189535 0.0066539957 0.0036027366 0.0152671235 -0.005331488
0.0099633355 0.022278594 -0.0006572065 -0.009207781 0.017754303 -0.010521357 0.003245865 -0.0017517204
-0.009014752 0.019595075 -0.025526026 0.011396691 -0.0040886984 0.006083077 0.013616124 0.017138923
-0.013461045 -0.0041681225 0.009891004 -0.0008807113 -0.03611791 -0.004357278 0.011197424 0.015949944
0.023431132 0.019850435 -0.0027408132 0.0011960485 0.013723925 0.0012700832 -0.012354552 -0.014279366
-0.00087254535 0.004978438 -0.017928926 -0.0046745553 -0.003278405 -0.0015944726 0.015841128 0.0001901734
-0.010379411 -0.015790131 -0.015269339 -0.0057596173 -0.0041261897 0.011313239 0.006558012 0.002649819
-0.008265661 0.010533795 -0.012279745 0.015851976 -0.011994191 0.009022579 0.0065227537 0.00029456255
-0.01124029 0.01116998 0.011364455 -0.012575862 -0.0014284267 0.002344739 0.015628222 -0.01722088
0.004622595 -0.004939498 0.0020490666 -0.0025330093 0.0059497594 0.020094 0.0032606586 -0.0017161535
-0.020522904 0.011660414 -0.008062394 0.009633516 -0.010386391 -0.00037470134 0.009785584 0.021389013
0.005706053 -0.0017515002 -0.012763919 -0.012805928 0.006463665 -0.0067698713 -0.0055237776 -0.0012128358
0.012674448 -0.01216966 0.0034652797 -0.003818698 0.011809236 0.0156233255 0.0044274344 0.011292012
-0.010825949 -0.00061959075 -0.0048241094 0.0048443577 -0.0035634425 -0.0009004117 -0.009840178 0.0026926126
-0.021095952 -0.006711264 -0.0024319328 0.008494267 0.0058716517 0.007337731 0.013470878 0.003328305
0.04113412 0.010191366 0.0034918785 -0.0022710336 -0.006206845 -0.012061587 -0.0033940827 0.015869906
0.0033821063 -0.015605978 0.008737411 -0.025693389 0.00021071565 0.00035172916 -0.01250017 0.0059999176
0.004483153 -0.02628108 0.0027132554 0.013673973 -0.004744401 -0.014763707 0.003903265 -0.007835635
0.016024696 -0.021610476 0.016689224 -0.010091408 0.009725828 -0.011155254 0.005275599 -0.017749278
0.017790383 0.010030838 -0.0077786474 0.00071023434 -0.0036700778 0.006472933 -0.014105933 -0.03405081
-0.018798405 -0.0051107095 -0.011435906 0.020066787 -0.017766792 -0.005125388 -0.0068680528 0.0073678056
0.009378522 0.01824612 0.002631931 0.010682693 -0.0018281026 0.014289961 -0.0031587263 -0.010386526
-0.010037546 0.004703886 0.015144975 0.008518006 -0.0040167025 -0.01576998 -0.023279382 -0.011228789
0.01213548 0.00070487586 0.026245365 -0.028833844 0.0069251405 -0.029466413 -0.0051996876 0.01876568
0.009783286 0.014711775 -0.0007782011 0.0005497589 -0.016539587 0.0038432379 0.007840395 0.016519168
-0.0074716047 0.018986955 -0.014696998 0.0023804368 0.01302457 -0.022105236 0.0028729183 -0.029716976
0.0027994888 0.0059171114 0.012148842 -0.0059384373 0.010315568 0.0067323684 -0.012477023 -0.026315875
-0.007202157 0.013214508 -0.0004241156 -0.02234164 -0.0032032232 0.003214991 -0.006394226 -0.018380132
-0.0021707802 -0.005532366 -0.0027258464 0.0027560657 -0.008616333 0.004169222 -0.00814194 0.0038469583
0.01650917 0.0023835471 0.01767341 -0.0016930324 -0.002201897 0.00548719 -0.0014769852 -0.012556613
00000000: 6567 a6bb 617d ad3c dbd4 9a3a b25f 53bc
00000010: 8391 30bb 7bab 86bb 31aa 4fbc 8557 80bb
00000020: e857 63bc a54f e4bc 524d 9bbc b3a0 86ba
00000030: 5069 993c 04dc b63b 4980 3a3c f40d 24bc
00000040: 748f cdba bbb7 b53c 119e eeba 9f17 c73a
00000050: c309 da3b e41b 6c3b f522 7a3c c3b3 aebb
00000060: 423d 233c 9981 b63c 6248 2cba 3cdc 16bc
00000070: 7971 913c c561 2cbc 94b8 543b fc99 e5ba
00000080: 9cb2 13bc da85 a03c f51b d1bc 30b9 3a3c
00000090: 7dfa 85bb 8c54 c73b 2a16 5f3c ed66 8c3c
000000a0: b78b 5cbc bf94 88bb e10d 223c 89df 66ba
000000b0: 60f0 13bd 7fc7 8ebb 6675 373c 75a9 823c
000000c0: a5f2 bf3c 619d a23c 379f 33bb bac4 9c3a
000000d0: 50da 603c ec78 a63a bf6a 4abc 00f4 69bc
000000e0: 87bb 64ba 2a22 a33b afdf 92bc 032d 99bb
000000f0: 82da 56bb 9ffd d0ba 41c5 813c 4969 4739
00000100: 680e 2abc 4e5a 81bc 402c 7abc 2cbb bcbb
00000110: fd34 87bb 2a5b 393c 98e4 d63b 96a8 2d3b
00000120: b26c 07bc f095 2c3c fc30 49bc 01dc 813c
00000130: 4983 44bc 70d3 133c d3bc d53b 846f 9a39
00000140: 3129 38bc 4b02 373c fb31 3a3c fd0a 4ebc
00000150: 0c3a bbba 31aa 193b c206 803c ce12 8dbc
00000160: 2379 973b 83db a1bb a249 063b d800 26bb
00000170: 33f6 c23b 2c9c a43c c6b0 553b 8ef0 e0ba
00000180: a61f a8bc 520b 3f3c 2218 04bc e5d5 1d3c
00000190: ae2b 2abc 9073 c4b9 b753 203c 0338 af3c
000001a0: d8f9 ba3b 9892 e5ba c21f 51bc f4cf 51bc
000001b0: 27cd d33b ccd5 ddbb ce00 b5bb 04f8 9eba
000001c0: 7da8 4f3c 4163 47bc bf19 633b 1f43 7abb
000001d0: 877b 413c faf8 7f3c 0314 913b 2202 393c
000001e0: 525f 31bc 086c 22ba 9013 9ebb 6bbd 9e3b
000001f0: a588 69bb 9b09 6cba b338 21bc 8b76 303b
00000200: 6bd1 acbc 2aea dbbb 1061 1fbb 8a2b 0b3c
00000210: fc66 c03b 5971 f03b f5b4 5c3c b11f 5a3b
00000220: 407c 283d b0f9 263c 00d8 643b 9fd5 14bb
00000230: ca62 cbbb f69d 45bc 426f 5ebb 9b01 823c
00000240: 54a6 5d3b 37b0 7fbc 5c27 0f3c f17a d2bc
00000250: 8df3 5c39 4a68 b839 83cd 4cbc f59a c43b
00000260: 6ae7 923b 6b4b d7bc dfd0 313b cd08 603c
00000270: ec76 9bbb 7ae3 71bc eccd 7f3b 0961 00bc
00000280: 3946 833c 7408 b1bc d7b7 883c 6f56 25bc
00000290: 1459 1f3c 87c4 36bc efde ac3b ef66 91bc
000002a0: 23bd 913c 6258 243c 06e4 febb 052f 3a3a
000002b0: b085 70bb e61a d43b 921c 67bc dd78 0bbd
000002c0: 1dff 99bc bd77 a7bb ab5d 3bbc 1a63 a43c
000002d0: aa8b 91bc dff2 a7bb 670d e1bb a26d f13b
000002e0: 5fa8 193c e378 953c 7a7c 2c3b 7606 2f3c
000002f0: f29c efba 7120 6a3c a202 4fbb 3f2c 2abc
00000300: 8574 24bc 0e23 9a3b a122 783c 1b8f 0b3c
00000310: 8b9e 83bb 0c30 81bc 67b4 bebc f4f8 37bc
00000320: e4d3 463c 6bc7 383a 8500 d73c f434 ecbc
00000330: 4aec e23b 8c63 f1bc 2462 aabb 7cba 993c
00000340: 134a 203c a809 713c 3100 4cba b21d 103a
00000350: 077e 87bc d5de 7b3b 0075 003c 3553 873c
00000360: 5dd4 f4bb 888a 9b3c adcb 70bc 1a01 1c3b
00000370: 0265 553c 0a16 b5bc 9247 3c3b 0471 f3bc
00000380: a177 373b 54e4 c13b f00b 473c 3997 c2bb
00000390: a102 293c 339b dc3b 6d6c 4cbc 6494 d7bc
000003a0: 1200 ecbb aa81 583c d55b deb9 d105 b7bc
000003b0: 2bed 51bb 99b2 523b a886 d1bb ee91 96bc
000003c0: a643 0ebb da48 b5bb 1da4 32bb 1c9f 343b
000003d0: 852b 0dbc f89d 883b c665 05bc 401d 7c3b
000003e0: 3d3e 873c 4935 1c3b d4c7 903c bee8 ddba
000003f0: b44d 10bb e3cd b33b 6697 c1ba 41ba 4dbc

network_body._body_endoder.seq_layers.0.bias f4 [128]
-0.008432186 0.03091748 0.013159219 -0.003627531 0.04307139 -0.04385321 0.04159603 0.041622065
0.010545818 0.036499973 -0.011441489 0.015044897 0.01731994 -0.009312812 0.005185249 0.0189661
0.038805306 -0.0075765345 0.00087231374 0.008199291 0.017195854 -0.042853013 0.026619794 0.034370497
0.07330016 0.007305131 0.04078497 0.027751576 0.0075410483 0.010079279 0.04139709 0.0063503576
0.028718455 0.01194203 -0.0077928784 0.015106437 0.032962568 -0.002088807 0.006528556 0.051959094
0.015308024 -0.005483836 0.04664789 -0.013952089 0.04167163 0.029795334 -0.01903447 -0.035890806
0.007765084 0.015002791 0.0082546035 0.0337265 -0.006345047 -0.0039182208 0.011857134 0.012421351
-0.01685956 -0.041968245 0.031698693 0.052136283 -0.00837525 0.023472976 0.009793239 0.07288084
0.027360296 0.03615225 0.020056622 0.029045671 0.013043549 0.018420236 0.0337753 -0.0067600547
0.065354735 0.021778604 0.0010006725 0.007417736 0.031451568 -0.009720399 0.03301773 0.026699906
0.0065407613 -0.045474805 -0.002263661 0.071065485 -0.0024735783 0.021615993 -0.0017858379 0.047844782
-0.04074071 -0.027472738 0.013716846 -0.019149516 0.020036204 0.016423678 0.025402639 0.05826412
0.0018713909 0.049269203 0.027841883 -0.016256299 0.010884806 -0.012436425 0.026498592 0.020100204
-0.01702914 0.040079005 0.011812594 0.0711921 0.036092576 -0.0007487266 0.023744386 0.021838943
-0.012646761 0.028026732 0.008074286 0.048426077 0.031519502 0.029681452 -0.033054467 0.022782423
-0.026762845 0.034586117 0.02898555 0.017980475 0.013908721 -0.022964932 0.05458865 0.04103945
00000000: 2727 0abc a846 fd3c c499 573c dfbb 6dbb
00000010: a06b 303d 6c9f 33bd 9960 2a3d e67b 2a3d
00000020: 5ec8 2c3c ff80 153d 1575 3bbc df7e 763c
00000030: 8ce2 8d3c c494 18bc 05e9 a93b cb5e 9b3c
00000040: 50f2 1e3d 9444 f8bb fcab 643a 5256 063c
00000050: 52de 8c3c a486 2fbd c111 da3c 14c8 0c3d
00000060: 651e 963d e15f ef3b 240e 273d 4657 e33c
00000070: e61a f73b 8f23 253c ff8f 293d a916 d03b
00000080: f742 eb3c 81a8 433c 675b ffbb fd80 773c
00000090: c203 073d 5ee4 08bb 7fed d53b 0fd3 543d
000000a0: 82ce 7a3c c0b1 b3bb dc11 3f3d 4d97 64bc
000000b0: dfaf 2a3d 5815 f43c 2dee 9bbc 3d02 13bd
000000c0: 3f72 fe3b 44ce 753c 513e 073c cc24 0a3d
000000d0: 1dea cfbb 6b64 80bb 6d44 423c ec82 4b3c
000000e0: 0f1d 8abc e5e6 2bbd 7dd6 013d db8c 553d
000000f0: 5838 09bc 664a c03c d273 203c 8d42 953d
00000100: b322 e03c 6214 143d c94d a43c 30f1 ed3c
00000110: 9cb4 553c 09e6 963c f857 0a3d 7383 ddbb
00000120: b4d8 853d 0b69 b23c ff28 833a 7b10 f33b
00000130: 5cd3 003d 4f42 1fbc 993d 073d c3b9 da3c
00000140: e253 d63b ca43 3abd ee59 14bb c88a 913d
00000150: c21b 22bb 0614 b13c c712 eaba e4f8 433d
00000160: bbdf 26bd 820e e1bc 9fbc 603c 72df 9cbc
00000170: f722 a43c f38a 863c 3219 d03c 5ca6 6e3d
00000180: 7549 f53a 81ce 493d a914 e43c ee2b 85bc
00000190: 2f56 323c 26c2 4bbc 9313 d93c 2fa9 a43c
000001a0: b280 8bbc e229 243d 9c89 413c 2acd 913d
000001b0: cfd5 133d 3146 44ba 9683 c23c 95e7 b23c
000001c0: 5c34 4fbc 5198 e53c 034a 043c 6c5a 463d
000001d0: 981a 013d 8426 f33c 1f64 07bd 34a2 ba3c
000001e0: c13d dbbc 2caa 0d3d 1b73 ed3c ca4b 933c
000001f0: 67e1 633c f420 bcbc 5998 5f3d fb18 283d

network_body._body_endoder.seq_layers.0.weight f4 [128, 31]
0.01957102 0.19553544 0.13739988 -0.074972875 -0.2480162 -0.16183221 0.121896386 0.032519598
0.074439004 0.05984179 0.039915916 -0.08458163 -0.110719666 0.017846325 0.029228473 -0.028540032
0.23299411 0.17698072 -0.1290414 -0.0040710093 -0.1758579 0.16879785 -0.08019993 0.36271375
0.13444246 -0.14622739 0.13029648 0.027148582 0.13943505 -0.31710765 -0.029635232 0.25654984
-0.09921546 -0.21887463 0.12783308 -0.017426824 0.0009886875 -0.2545851 0.1375047 -0.17956549
0.30197063 0.122502275 -0.07709839 0.05053853 -0.20591283 0.0013674665 0.030987142 0.123628266
0.26609838 -0.24631095 0.02198734 0.0421193 -0.030374786 -0.072534494 -0.34016344 0.03630281
0.12732542 0.27243543 0.12280629 -0.35487324 0.07904572 0.09661113 -0.08468658 0.027635183
-0.20014124 -0.16724853 0.16121733 0.29275674 0.19183514 -0.027677009 -0.039180197 -0.062950104
0.022992743 -0.051381703 -0.33563387 -0.05221956 -0.3227921 0.04587824 -0.18570931 0.30267233
0.09619895 -0.19142315 -0.3430933 0.1118818 -0.03349107 -0.061667293 0.02575534 0.18527992
-0.117799245 0.17390819 -0.15806551 0.19556148 -0.29669893 0.15773702 -0.08796702 0.18296699
-0.22410856 0.16792253 0.32671154 -0.029906264 -0.11112384 -0.3447057 -0.20686565 -0.15344134
0.16854607 0.118925616 -0.18920621 -0.0088696815 0.101638466 0.26635125 -0.06185294 -0.07317811
-0.049768917 0.11802688 0.36799124 0.3718186 0.19493139 0.089427695 0.0039951084 0.33949852
-0.016795887 -0.03739509 -0.042524002 0.16736083 -0.30319595 0.33129156 0.04915972 -0.013690751
-0.029239796 -0.31552276 -0.12082286 0.029566972 -0.42474177 0.2561401 0.16025636 0.13335302
-0.34669122 0.021011798 0.027100634 -0.22073276 0.4063618 0.15769395 -0.2490558 -0.21116945
-0.011881829 -0.09586107 0.031520728 0.16768521 -0.31541488 0.2068904 -0.16416313 0.09700243
-0.15443102 -0.32911184 0.035057127 0.010254308 -0.04338732 -0.044892944 0.027288895 0.14373282
-0.08765568 -0.004424686 0.013679767 -0.03433098 0.054811504 -0.15640278 0.17807408 -0.21716309
-0.16014448 0.017791951 0.045232825 -0.07876389 -0.11224976 -0.12516327 0.095141746 0.15106522
0.025731552 0.066984974 0.025366258 0.0248156 -0.23668912 0.33576593 0.28390527 0.3537672
-0.030827614 0.100719586 -0.05079686 -0.22482778 -0.19914238 0.13363053 0.03642542 0.022866245
-0.1292197 -0.15417859 0.061209075 0.19003999 0.1162546 0.083807625 0.005276467 -0.08910862
0.037501156 -0.16632317 0.117195606 0.14976147 0.33006772 0.077502996 0.16636953 -0.09204129
0.12697421 0.09942631 0.042740572 -0.25641346 0.12866235 0.2616695 -0.30203784 0.14993079
-0.29770947 0.49072132 0.27516142 0.09356511 -0.23009248 0.15406266 0.019849634 0.059415467
-0.025212443 -0.3497513 -0.025156463 -0.34378695 0.024425238 0.16742818 -0.08121801 -0.106312506
0.1625846 0.041031495 -0.13384208 -0.23434743 -0.10945087 -0.14015181 0.16351385 -0.20496567
-0.30701822 0.24938077 -0.2458426 0.123411864 0.07803674 0.2849318 -0.019593181 -0.19393118
0.20876604 0.018804621 -0.014632601 0.037166048 0.3803982 0.06472765 0.15283172 0.11365833
00000000: 6753 a03c 713a 483e 8eb2 0c3e 618b 99bd
00000010: f5f7 7dbe 58b7 25be d0a4 f93d 4533 053d
00000020: 7a73 983d aa1c 753d df7e 233d 2239 adbd
00000030: fec0 e2bd 7532 923c 8d70 ef3c c9cc e9bc
00000040: 0296 6e3e 6f3a 353e 6e23 04be 1a66 85bb
00000050: 1814 34be 58d9 2c3e dc3f a4bd 9eb5 b93e
00000060: 49ab 093e a2bc 15be 716c 053e b466 de3c
00000070: 10c8 0e3e ef5b a2be 96c5 f2bc 805a 833e
00000080: 7a31 cbbd ac20 60be ade6 023e b3c2 8ebc
00000090: d996 813a fa58 82be 08ce 0c3e 04e0 37be
000000a0: e59b 9a3e 79e2 fa3d c3e5 9dbd 7d01 4f3d
000000b0: d0da 52be 903c b33a bfd8 fd3c d130 fd3d
000000c0: 0c3e 883e f038 7cbe cb1e b43c 4a85 2c3d
000000d0: 8bd4 f8bc f78c 94bd e729 aebe 41b2 143d
000000e0: 9861 023e a87c 8b3e dd81 fb3d f2b1 b5be
000000f0: b9e2 a13d 0edc c53d 2870 adbd 2e63 e23c
00000100: d3f1 4cbe 3343 2bbe 2816 253e 36e4 953e
00000110: 6e70 443e e5ba e2bc 6a7b 20bd fceb 80bd
00000120: 475b bc3c 9f75 52bd 34d8 abbe 2de4 55bd
00000130: 0245 a5be d2ea 3b3d 952a 3ebe def7 9a3e
00000140: f503 c53d 6e04 44be eda9 afbe 4922 e53d
00000150: ef2d 09bd d896 7cbd ddfc d23c 05ba 3d3e
00000160: bb40 f1bd fd14 323e eddb 21be 4541 483e
00000170: ece8 97be d085 213e 0e28 b4bd b35b 3b3e
00000180: b77c 65be e2f3 2b3e bc46 a73e fbfd f4bc
00000190: e594 e3bd 447d b0be 97d4 53be ba1f 1dbe
000001a0: 5797 2c3e 468f f33d 46bf 41be 2452 11bc
000001b0: d427 d03d 315f 883e 8259 7dbd 68de 95bd
000001c0: 7eda 4bbd 14b8 f13d 5969 bc3e 025f be3e
000001d0: 189c 473e de25 b73d 66e9 823b c0d2 ad3e
000001e0: 8797 89bc 982b 19bd a62d 2ebd a360 2b3e
000001f0: 803c 9bbe 0c9f a93e b45b 493d 2c4f 60bc
00000200: 4c88 efbc 338c a1be fa71 f7bd 6f36 f23c
00000210: c177 d9be cc24 833e 3e1a 243e b28d 083e
00000220: 8381 b1be ef20 ac3c 2602 de3c c507 62be
00000230: a70e d03e 867a 213e 7c08 7fbe ce3c 58be
00000240: 01ac 42bc cf52 c4bd e11b 013d acb5 2b3e
00000250: 0f7e a1be 14db 533e 611a 28be 36a9 c63d
00000260: 2a23 1ebe 5981 a8be 1098 0f3d af01 283c
00000270: e7b6 31bd aae1 37bd f68c df3c b22e 133e
00000280: d284 b3bd f5fc 90bb 1a21 603c a49e 0cbd
00000290: 0782 603d 0d28 20be 0d59 363e 0060 5ebe
000002a0: eafc 23be 6dc0 913c 0e46 393d f64e a1bd
000002b0: 34e3 e5bd cd2a 00be add9 c23d d7b0 1a3e
000002c0: faca d23c 6b2f 893d e6cc cf3c 164a cb3c
000002d0: a25e 72be 83e9 ab3e 085c 913e f920 b53e
000002e0: 318a fcbc 1246 ce3d 5e10 50bd 4139 66be
000002f0: fbeb 4bbe 71d6 083e d232 153d fe51 bb3c
00000300: 2b52 04be fee0 1dbe 5eb6 7a3d d899 423e
00000310: e416 ee3d 55a3 ab3d 37e6 ac3b 957e b6bd
00000320: d09a 193d 9f50 2abe 4004 f03d 125b 193e
00000330: a3fe a83e e4b9 9e3d c65c 2a3e 2580 bcbd
00000340: 8705 023e 05a0 cb3d bd10 2f3d a048 83be
00000350: 10c0 033e 8bf9 853e b4a4 9abe 7587 193e
00000360: 606d 98be d33f fb3e f5e1 8c3e 109f bf3d
00000370: 5d9d 6bbe 9ac2 1d3e b39b a23c a25d 733d
00000380: 538a cebc 9a12 b3be ed14 cebc d804 b0be
00000390: 7017 c83c 4b72 2b3e a155 a6bd 5fba d9bd
000003a0: 947c 263e a410 283d e60d 09be c6f8 6fbe
000003b0: c727 e0bd f583 0fbe 2d70 273e 85e2 51be
000003c0: 7e31 9dbe ac5d 7f3e 2abe 7bbe 5cbf fc3d
000003d0: bad1 9f3d 95e2 913e e181 a0bc e595 46be
000003e0: c4c6 553e 260c 9a3c 94bd 6fbc 6d3b 183d
000003f0: 8ec3 c23e ee8f 843d eb7f 1c3e b3c5 e83d

network_body._body_endoder.seq_layers.2.bias f4 [128]
-0.017317222 0.022075487 0.0072385888 0.015683945 0.010222869 -0.004118387 0.010958908 0.01222516
0.0067007407 0.0011467426 0.041511208 -0.012068862 0.02716117 0.026348103 0.06276678 0.03719352
-0.006639994 0.019823754 0.02646106 0.06107825 -0.013373982 0.0022511703 0.032679 0.007442664
-0.0030542111 0.03737701 0.009816139 0.018676866 0.02229675 0.028330073 -0.0160123 0.00845197
-0.017464802 0.018209409 0.019896833 0.022418806 0.005265085 -0.0077754287 -0.0048160013 0.03171971
0.018457828 0.012168149 0.01612118 -0.0028571584 0.019361584 -0.019409286 0.0063575865 0.055392846
0.049923856 0.02310308 -0.0056063 0.0061174766 0.00081650825 -0.007248146 0.015956903 -0.0154022975
0.02122759 0.0074580386 0.014691422 0.009816027 0.005140343 0.028835211 0.047728535 0.006685793
0.009749146 0.01402228 0.0039296793 0.014527948 0.014733487 0.0045832875 0.04075088 0.012009636
-0.011484964 0.033444677 -0.0053838454 0.03150267 -0.01967522 0.017414045 0.011854776 0.02542
0.015223692 0.0058224103 -0.01196199 -0.015672026 0.04009681 0.050430395 0.024191616 -0.0061149565
0.014812815 0.0007792146 0.014138737 0.023964407 0.006766202 0.012211006 0.0149628725 0.02066219
0.03393255 0.025492737 -0.0027435452 -0.00682438 0.028113667 -0.011139297 0.037088364 -0.0017846145
-0.006580587 -0.015414642 0.008370003 -0.020056602 0.03229142 -0.013475508 0.025108194 0.008415305
0.019468939 -0.0034785091 -0.008973488 0.008719459 -0.0022025069 0.04132468 0.018228782 -0.0023345381
0.025327405 -0.0007852602 -0.0059901606 0.017878627 0.02725768 0.00698153 0.009114477 0.015888134
00000000: d9dc 8dbc a7d7 b43c af31 ed3b 9e7b 803c
00000010: d27d 273c 89f3 86bb fe8c 333c 0a4c 483c
00000020: e391 db3b 4c4e 963a a807 2a3d 7abc 45bc
00000030: 1a81 de3c fad7 d73c df8b 803d 3c58 183d
00000040: 4f94 d9bb 6d65 a23c ddc4 d83c 302d 7a3d
00000050: 8c1e 5bbc 5f88 133b 6ada 053d 97e1 f33b
00000060: 2929 48bb a318 193d dfd3 203c 3a00 993c
00000070: ada7 b63c 7814 e83c 3a2c 83bc 227a 0a3c
00000080: 5812 8fbc e62b 953c affe a23c a5a7 b73c
00000090: bc86 ac3b 06c9 febb 8ccf 9dbb 87ec 013d
000000a0: df34 973c eb5c 473c 9110 843c 2a3f 3bbb
000000b0: 2f9c 9e3c 3900 9fbc 4d53 d03b 9ce3 623d
000000c0: f57c 4c3d ac42 bd3c 0eb5 b7bb 1d75 c83b
000000d0: f10a 563a db81 edbb 0db8 823c eb59 7cbc
000000e0: 7ce5 ad3c 9062 f43b 4ab4 703c 67d3 203c
000000f0: 5370 a83b d237 ec3c ff7e 433d 7f14 db3b
00000100: e2ba 1f3c b5bd 653c 8ac4 803b a106 6e3c
00000110: b964 713c 672f 963b 65ea 263d 10c4 443c
00000120: 6e2b 3cbc 49fd 083d f86a b0bb f208 013d
00000130: ed2d a1bc e6a7 8e3c 893a 423c 9b3d d03c
00000140: cb6c 793c ebc9 be3b 39fc 43bc 9f62 80bc
00000150: 8d3c 243d 1a90 4e3d 7f2d c63c f95f c8bb
00000160: 73b1 723c 3544 4c3a 29a6 673c 0151 c43c
00000170: 04b7 dd3b ac10 483c d626 753c c143 a93c
00000180: dcfc 0a3d 25d6 d03c 0dcd 33bb 0c9f dfbb
00000190: a24e e63c 9981 36bc f8e9 173d bae9 e9ba
000001a0: f7a1 d7bb b28d 7cbc 5622 093c be4d a4bc
000001b0: 0244 043d 61c8 5cbc b3af cd3c 59e0 093c
000001c0: 537d 9f3c b3f7 63bb 8905 13bc 10dc 0e3c
000001d0: ef57 10bb 1144 293d 8754 953c 0dff 18bb
000001e0: 6b7b cf3c ecd9 4dba 1c49 c4bb 3376 923c
000001f0: 804b df3c 52c5 e43b e354 153c d527 823c

network_body._body_endoder.seq_layers.2.weight f4 [128, 128]
0.022793422 0.08571724 -0.13064218 -0.16003251 0.075973876 0.08560365 -0.024695199 0.10898899
0.0342982 0.0373349 -0.0334048 -0.10099017 0.066034056 0.13691734 -0.054324284 0.026154695
-0.101130545 0.07056287 -0.22874366 0.0973826 0.027512647 0.009705176 0.10319804 -0.008974873
-0.012809361 -0.12137934 0.032350373 0.11257513 -0.064108446 -0.01893694 0.16651867 -0.09189634
-0.0014310514 0.0776342 0.17962188 -0.1454966 -0.10481587 -0.012649394 -0.012285703 -0.054968596
-0.10654451 0.104200475 0.08480816 -0.06345192 0.03367981 0.014851774 0.12066362 0.10372044
0.039088417 -0.088201374 0.002240127 0.009459529 0.031091977 0.021388398 0.023763942 0.033659983
-0.07422047 -0.05601346 -0.012636944 0.0364056 -0.048546135 -0.027346667 0.1361984 -0.06400201
0.014465799 -0.22259611 0.08306173 0.15239339 -0.028391024 -0.037796978 0.09556221 -0.043761093
0.014577874 -0.016189164 -0.03625593 0.12161205 0.07096128 0.03902738 0.02696843 0.09561908
0.056317452 -0.11169666 -0.060980007 -0.0563634 -0.1743834 -0.08737955 -0.06884035 -0.101397246
-0.028860543 0.04461228 -0.004347244 -0.07298637 -0.11015253 -0.04851386 0.14945814 0.09099989
0.13212284 -0.19479072 -0.0040057786 0.20812109 0.048795845 -0.0922053 -0.056947842 -0.025866123
-0.03908239 -0.043025456 -0.04107807 0.044600163 0.07224385 0.05245165 0.12887806 -0.14602372
-0.040613405 -0.0057332967 -0.20309773 -0.114968374 0.06492508 0.13505764 0.22276284 0.06928265
0.1734515 0.047230948 -0.020598795 0.09831635 0.102122754 -0.05787055 -0.095901124 -0.0058343965
-0.008541051 -0.0074696685 -0.06770732 -0.024388948 0.016587771 -0.0044652987 0.042580657 -0.18485992
0.03701802 -0.060964067 -0.08988757 0.054694824 -0.03660897 -0.07204669 -0.14429748 0.08789151
-0.045146294 0.09786807 0.02320563 -0.071134076 0.0085647 0.06681924 0.14959383 0.23393235
0.027615013 -0.041249633 0.07370059 0.13025427 -0.028331053 -0.124161296 0.04150061 0.11488826
0.1660248 0.007387878 -0.024371177 -0.17118591 0.058553446 0.010754866 0.060977448 0.020348202
0.030903304 -0.051056046 0.07260504 -0.02046922 -0.059720524 0.01577783 0.097379334 -0.0882677
-0.024105536 0.1227064 0.046715338 0.03262241 -0.101376876 -0.0423929 0.07049416 -0.096332654
-0.09569605 -0.12787513 -0.06589078 -0.05065021 -0.15529755 0.0846108 0.117257304 0.035416577
-0.11826099 0.1806883 -0.07039671 -0.09650865 -0.04874003 -0.21062805 0.10851021 -0.013987247
0.07531277 0.059302945 0.026456444 -0.052874263 0.04991323 0.007917592 -0.014971534 0.13578345
0.018619893 0.07047314 0.10351304 -0.06297149 0.057303477 0.07656608 -0.17716256 -0.106874704
-0.1441385 -0.021528324 0.15904757 0.077934705 0.10715974 -0.06335041 -0.07603229 -0.021888103
0.13292491 0.0070072995 -0.17980495 0.05548789 -0.079517156 0.0022886598 0.028615702 0.25780836
-0.14561845 -0.120698504 -0.19868198 -0.13256103 0.005735875 -0.030801702 0.069741 -0.16279744
-0.111837834 0.18799302 0.03815744 0.08255572 0.06687833 0.04183869 -0.10048507 0.060953233
-0.028699918 0.043665014 0.07986485 0.102044344 0.08951613 -0.11302515 -0.14616096 -0.006650958
00000000: 45b9 ba3c 858c af3d 10c7 05be 90df 23be
00000010: 3198 9b3d f750 af3d 964d cabc 9f35 df3d
00000020: 457c 0c3d 7bec 183d 79d3 08bd efd3 cebd
00000030: dd3c 873d 0f34 0c3e 2483 5ebd 5f42 d63c
00000040: 881d cfbd 4483 903d c73b 6abe 8770 c73d
00000050: 3462 e13c 7502 1f3c 7e59 d33d 590b 13bc
00000060: 5bde 51bc bb95 f8bd d381 043d ca8d e63d
00000070: 4a4b 83bd a421 9bbc df83 2a3e 2634 bcbd
00000080: 1e92 bbba aefe 9e3d ccee 373e 10fd 14be
00000090: b4a9 d6bd 673f 4fbc f949 49bc c026 61bd
000000a0: 0234 dabd 0f67 d53d e7af ad3d 15f3 81bd
000000b0: d7f3 093d db54 733c 7d1e f73d 626b d43d
000000c0: 2d1b 203d eca2 b4bd 18cf 123b 24fc 1a3c
000000d0: 9ab4 fe3c b936 af3c 99ac c23c 0ddf 093d
000000e0: e700 98bd 5f6e 65bd 2f0b 4fbc 0a1e 153d
000000f0: 50d8 46bd 1e06 e0bc 9877 0b3e 7c13 83bd
00000100: f501 6d3c 3cf0 63be 451c aa3d 030d 1c3e
00000110: 4b94 e8bc 01d1 1abd 1fb6 c33d d53e 33bd
00000120: 09d8 6e3c 239f 84bc 1981 14bd bd0f f93d
00000130: 2654 913d 2ddb 1f3d e6ec dc3c f0d3 c33d
00000140: 21ad 663d 38c1 e4bd 2cc6 79bd 4fdd 66bd
00000150: 9091 32be 0df4 b2bd 2bfc 8cbd 5ca9 cfbd
00000160: f26c ecbc 5ebb 363d 5373 8ebb e179 95bd
00000170: a697 e1bd 78b6 46bd 8e0b 193e 265e ba3d
00000180: 364b 073e 3877 47be e842 83bb b21d 553e
00000190: 27de 473d 22d6 bcbd 2442 69bd 31e5 d3bc
000001a0: db14 20bd 763b 30bd 7a41 28bd a9ae 363d
000001b0: 95f4 933d 8bd7 563d 9cf8 033e 3e87 15be
000001c0: 3e5a 26bd 61de bbbb daf8 4fbe 8a74 ebbd
000001d0: 71f7 843d 8d4c 0a3e f11b 643e 10e4 8d3d
000001e0: 459d 313e 3d75 413d cebe a8bc 155a c93d
000001f0: bc25 d13d ab09 6dbd cf67 c4bd 772e bfbb
00000200: c4ef 0bbc 1fc4 f4bb 23aa 8abd 55cb c7bc
00000210: 14e3 873c a451 92bb 0e69 2e3d eb4b 3dbe
00000220: 35a0 173d 75b5 79bd f916 b8bd ae07 603d
00000230: 4af3 15bd 378d 93bd b8c2 13be 7700 b43d
00000240: 52eb 38bd 0e6f c83d bc19 be3c beae 91bd
00000250: f552 0c3c 87d8 883d 202f 193e f68b 6f3e
00000260: e138 e23c 60f5 28bd 56f0 963d 6061 053e
00000270: 8616 e8bc 4748 febd 8bfc 293d 894a eb3d
00000280: 6802 2a3e 0316 f23b 10a6 c7bc 5c4b 2fbe
00000290: bdd5 6f3d 2d35 303c 7dc3 793d 46b1 a63c
000002a0: ed28 fd3c 2520 51bd f4b1 943d 11af a7bc
000002b0: 829d 74bd 8240 813c d16e c73d b2c5 b4bd
000002c0: f978 c5bc 7e4d fb3d 9558 3f3d 149f 053d
000002d0: ae9e cfbd 2da4 2dbd 3e5f 903d 0e4a c5bd
000002e0: 4afc c3bd b3f1 02be bff1 86bd 9876 4fbd
000002f0: 5206 1fbe 6d48 ad3d 9924 f03d f910 113d
00000300: d132 f2bd 5b06 393e 262c 90bd 54a6 c5bd
00000310: a0a3 47bd e1ae 57be 9a3a de3d c42a 65bc
00000320: 953d 9a3d a5e7 723d 2fbb d83c af92 58bd
00000330: d171 4c3d cab8 013c 2a4b 75bc d10a 0b3e
00000340: bf88 983c 3954 903d a5fe d33d 32f7 80bd
00000350: 0db7 6a3d adce 9c3d 1a6a 35be 20e1 dabd
00000360: 0b99 13be 2b5c b0bc 5edd 223e 3b9c 9f3d
00000370: 9176 db3d dcbd 81bd d1b6 9bbd ae4e b3bc
00000380: 781d 083e 7d9d e53b ca1e 38be 4547 633d
00000390: e4d9 a2bd 57fd 153b 7a6b ea3c 75ff 833e
000003a0: 011d 15be c730 f7bd 4a73 4bbe 14be 07be
000003b0: 02f4 bb3b da53 fcbc 5fd4 8e3d 5fb4 26be
000003c0: 3c0b e5bd 3e81 403e fa4a 1c3d f912 a93d
000003d0: 82f7 883d 0c5f 2b3d 1ecb cdbd 19aa 793d
000003e0: 171c ebbc 16da 323d 2f90 a33d a0fc d03d
000003f0: 3c54 b73d bb79 e7bd 38ab 15be 48f0 d9bb
