Assets/Model/AttackMode0524.onnx (onnx, 293275 bytes, 13 tensors)

action_model._discrete_distribution.branches.0.bias f4 [3]
0	0x3de00501	0.109384544
1	0xbf02b08e	-0.5105065
2	0x3ea2438d	0.31692162

action_model._discrete_distribution.branches.0.weight f4 [3, 256]
0	0x3dda31bb	0.106540166
1	0xbdcb80fb	-0.099367104
2	0xbd92de7f	-0.07171344
3	0xbc8e2037	-0.017349346
4	0xbc9fdd28	-0.019514635
5	0x3cea7b9c	0.028623395
6	0xbd2aca60	-0.041696906
7	0xbd649e6c	-0.055815145
8	0x3b975ecd	0.0046194554
9	0xbcae7b04	-0.021298893
10	0x3cdcb1b9	0.026940214
11	0x3e1ad6cb	0.15121
12	0xbd2bc161	-0.041932467
13	0xbdc0fe52	-0.09423508
14	0xbbd2df18	-0.0064352863
15	0xbda8deb9	-0.08245606
16	0x3c4e83b5	0.012604644
17	0x3bb1bb19	0.005423915
18	0xbcaea90e	-0.021320846
19	0xbe04afad	-0.1295764
20	0x3d96256f	0.07331359
21	0x3b434097	0.0029793137
22	0xbda17466	-0.07883529
23	0x3d950fad	0.072783805
24	0x3d9e28f6	0.077226564
25	0xbcb31e4c	-0.021865033
26	0x3d2818a1	0.041039113
27	0xbd856ec9	-0.06515271
28	0xbc336b34	-0.010950852
29	0xbd5af6b7	-0.05345794
30	0xbe0e60ef	-0.13904165
31	0xbd928e76	-0.071560785
32	0xbccd1a2b	-0.025036892
33	0xbddcb4e0	-0.10776687
34	0xbcfcdaa6	-0.030865978
35	0xbdef259b	-0.116770945
36	0xbdfd2d9e	-0.123622164
37	0xbdc7a099	-0.097474284
38	0x3c9c8aeb	0.01910921
39	0x3d0b8d38	0.034070224
40	0xbda27df7	-0.07934182
41	0xbe163a38	-0.14670646
42	0x3c8aeb05	0.01695777
43	0x3d486472	0.048923917
44	0xbd121cce	-0.035672
45	0xbe011883	-0.12607007
46	0x3d03446b	0.03204767
47	0x3dd010ba	0.1015944
48	0x3d183b3a	0.037165858
49	0xbd12c973	-0.03583665
50	0x3de1c0f3	0.1102313
51	0x3caa4616	0.020785373
52	0x3c81ded3	0.015853321
53	0x3cc5cb73	0.024144864
54	0x3c16ca02	0.009203436
55	0x3bae8a7d	0.0053265677
56	0x3daf1dae	0.08550583
57	0xbcd1604a	-0.02555861
58	0x3d397ae9	0.045283232
59	0xbce9617c	-0.028488867
60	0xbda5c543	-0.08094265
61	0x3d217786	0.039420627
62	0xbd6a052f	-0.05713385
63	0xbdfa1076	-0.12210171
64	0xbe3783a5	-0.17921312
65	0xbcc00f3e	-0.023444768
66	0x3d9a49b4	0.07533589
67	0xbd6df7dd	-0.05809771
68	0x3c9d0463	0.01916713
69	0xbccb2084	-0.024795778
70	0xbc6b5e6b	-0.014365773
71	0xbd2078a9	-0.03917757
72	0xbd8abe20	-0.06774545
73	0x3b341c53	0.0027482703
74	0x3bc996f3	0.0061520278
75	0x3ceee68d	0.02916267
76	0xbdc10f2e	-0.094267234
77	0xbe0a906e	-0.13531658
78	0xbd47c9dc	-0.048776492
79	0xbbb799e5	-0.0056030625
80	0xbdeaa359	-0.11456937
81	0x3dfb608b	0.122742735
82	0xbc836e39	-0.01604377
83	0xbd90c344	-0.07068494
84	0xbd7c623c	-0.06161712
85	0xbd9bc66f	-0.076062076
86	0xbd2b6e0c	-0.041852996
87	0xbc1f9b54	-0.009741623
88	0xbd57ee01	-0.052717213
89	0xbcceb406	-0.025232326
90	0xbe374862	-0.17898706
91	0xbd80eba6	-0.06294946
92	0xbdfd0781	-0.12354947
93	0xbe41b197	-0.18915401
94	0xbdcfedfe	-0.10152815
95	0x3ccb4091	0.024811061
96	0x3c88d59a	0.016703416
97	0x3e23aa65	0.15982969
98	0x3dd6905f	0.10476755
99	0xbd951807	-0.072799735
100	0x3e22f424	0.15913445
101	0x3d30bfc3	0.04315163
102	0xbcc72085	-0.024307499
103	0x3c584f8d	0.01320256
104	0x3d991e14	0.0747644
105	0xbdd4ca99	-0.10390205
106	0x3d052846	0.03250911
107	0xbd2b2a6a	-0.041788496
108	0xbdc0f1fd	-0.094211556
109	0xbdb10fc6	-0.08645587
110	0xbbfb4a3e	-0.0076687625
111	0xbd826013	-0.06365981
112	0xbcfd53f4	-0.030923821
113	0x3d56fe36	0.05248853
114	0x3cd5bdd5	0.026091496
115	0x3ccd969d	0.025096232
116	0xbdc60518	-0.0966894
117	0x3d8727a3	0.06599357
118	0xbdbf52f9	-0.09341998
119	0xbadb5cc3	-0.0016736019
120	0x3d935620	0.071941614
121	0x3c19227d	0.009346602
122	0xbd1fdf81	-0.03903151
123	0x3c9b012a	0.018921454
124	0x3d9b3a19	0.075794406
125	0xbd0d39b4	-0.034478858
126	0xbdb95ec5	-0.09051279
127	0xbca28b73	-0.019841885
128	0x3dc13ef7	0.09435838
129	0x3ca7a70d	0.020465398
130	0x3c848e8b	0.016181251
131	0x3da18d05	0.078882255
132	0x3d9e971b	0.07743665
133	0x3d8bb43d	0.06821487
134	0x3d42507a	0.04744003
135	0x3da3ccd2	0.07998051
136	0xbde94881	-0.11390782
137	0x3c1423d9	0.00904175
138	0xbd8f2a61	-0.06990505
139	0xbd63af28	-0.055586964
140	0xbb8da6b3	-0.0043228506
141	0x3d72c369	0.05926839
142	0xbd54f5f9	-0.05199239
143	0x3da773d0	0.08176386
144	0xbdbb1287	-0.09134393
145	0x3c0362bb	0.008019145
146	0xbcfc6cc2	-0.030813579
147	0xbc577e43	-0.013152662
148	0xbdb92def	-0.09041964
149	0xbe15e68e	-0.14638731
150	0xbd714ca3	-0.058910977
151	0x3cb51bff	0.022108076
152	0xbdccd8c3	-0.100022815
153	0xbc55e908	-0.013056047
154	0xbe53eb49	-0.20695223
155	0xbcb14b1a	-0.021642257
156	0xbdcb2b34	-0.0992035
157	0xbda1ea60	-0.079060316
158	0xbc430d51	-0.01190503
159	0xbe0f5b23	-0.1399961
160	0x3d347ec8	0.04406622
161	0x3d42cb15	0.047556955
162	0xbdf3e28d	-0.119084455
163	0xba0c2810	-0.0005346546
164	0x3d4bcb13	0.049754214
165	0xbd4a896a	-0.049447455
166	0x3ce3a011	0.027786287
167	0xbe0dcebf	-0.13848399
168	0xbdcacbdd	-0.09902165
169	0x3d4cd3b5	0.050006587
170	0xbde9fa04	-0.1142464
171	0x3c6d8c22	0.014498742
172	0xbe3ff7b7	-0.1874684
173	0x3daf28df	0.085527174
174	0xbc259dd7	-0.010108433
175	0xbdb9d4c6	-0.090737864
176	0xbdb00aca	-0.08595808
177	0x3d3ef031	0.046615783
178	0xbddd70fd	-0.108125664
179	0x3c81091a	0.01575141
180	0xbb9c827a	-0.004776296
181	0xbd848976	-0.06471531
182	0xbdd4bcab	-0.10387548
183	0xbcb8eb5f	-0.022573171
184	0xbd75d2cf	-0.060015496
185	0x3dbfbebb	0.09362551
186	0x3d46be5a	0.048521377
187	0xbc769e57	-0.0150524
188	0xbda81da2	-0.08208777
189	0x3cf393c2	0.029733542
190	0x3cc181eb	0.02362152
191	0xbbab74cf	-0.0052324305
192	0xbd913350	-0.07089865
193	0xbe2e1961	-0.17001869
194	0xbe14f947	-0.14548217
195	0x3d93a964	0.07210043
196	0xbd9485a0	-0.072520494
197	0xbb2012cb	-0.0024425264
198	0xbdd85c01	-0.10564423
199	0xbd65cdef	-0.056104597
200	0x3dbba5e8	0.091625035
201	0xbd51d45f	-0.051227923
202	0x3d8e7c81	0.06957341
203	0x3d5b6393	0.05356176
204	0x3ca9f766	0.020747852
205	0xbcbe6475	-0.023241261
206	0xbd12de86	-0.035856746
207	0xbcbacb56	-0.022802036
208	0xbdaa0edc	-0.083036155
209	0xbcee26c4	-0.02907122
210	0xbe13dca5	-0.14439638
211	0x3ca83ecf	0.020537762
212	0xbde15caa	-0.110040024
213	0xbdcdc52a	-0.10047372
214	0x3e1021c1	0.14075376
215	0x3d449692	0.047995158
216	0x3d94deab	0.07269033
217	0xbcf9351d	-0.030420834
218	0xbdcb8454	-0.09937349
219	0xbd431499	-0.047627065
220	0x3ca845e0	0.020541131
221	0x3d34c596	0.044133745
222	0xbe1ec4d2	-0.15504768
223	0x3d552c70	0.052044332
224	0x3d39b706	0.04534056
225	0x3c5ce294	0.013481755
226	0x3de1ad98	0.110194385
227	0xbceff37e	-0.02929091
228	0xbd30e613	-0.043188166
229	0xbd694b19	-0.056956384
230	0xbdb38e18	-0.087673366
231	0xbe0a87f0	-0.13528419
232	0xbdfa58f3	-0.12223997
233	0x3bc2cf19	0.005945098
234	0xbd44639f	-0.04794657
235	0x3ab4adc9	0.0013784702
236	0x3d87ca2e	0.066303596
237	0xbb94c3f1	-0.0045399596
238	0xbc2fdf02	-0.010734322
239	0xbda7f134	-0.08200303
240	0xbd8aa1c3	-0.06769135
241	0xbdcaa911	-0.09895528
242	0xbdac2d11	-0.08407033
243	0x3d0b7795	0.03404959
244	0xbdeca88f	-0.115555875
245	0x3ced900c	0.028999351
246	0x3e0bf4d3	0.13667612
247	0xbdc6d63d	-0.097088315
248	0xbc8703a3	-0.016481226
249	0xbd365fef	-0.044525083
250	0x3d244ef0	0.040114343
251	0x3d9aec5d	0.07564614
252	0xbdb67ab4	-0.089101225
253	0xbd196c16	-0.037456594
254	0xbdc041fa	-0.09387584
255	0xb8d853e6	-0.0001031531

action_model._discrete_distribution.branches.1.bias f4 [3]
0	0xbe30321b	-0.17206614
1	0x3ee416e2	0.44548708
2	0xbf07b00d	-0.5300301

action_model._discrete_distribution.branches.1.weight f4 [3, 256]
0	0x3cbae3d7	0.02281372
1	0x3dd76929	0.105181046
2	0xbde67141	-0.1125207
3	0xbdb9b0cb	-0.09066924
4	0x3da8f853	0.08250489
5	0xbce04855	-0.02737824
6	0xbca9e54b	-0.020739218
7	0x3e2531f2	0.16132334
8	0x3bec914e	0.00721947
9	0xbbd90b39	-0.0066236523
10	0xbd75fd4e	-0.060056023
11	0x3d50814c	0.050904557
12	0x3da27221	0.079319246
13	0xbdbaecc2	-0.09127189
14	0xbcbd85ab	-0.023135027
15	0x3d2128e0	0.039345622
16	0x3d56f76b	0.05248205
17	0xbb77805f	-0.0037765724
18	0x3ddb548a	0.10709484
19	0x3de8e74e	0.11372243
20	0xbd28c4f4	-0.041203454
21	0xbbccbbf0	-0.00624799
22	0x3d093290	0.033495486
23	0xbbf1721f	-0.0073683406
24	0x3d2c17ac	0.042014763
25	0x3d977497	0.073952846
26	0xbd21840b	-0.039432567
27	0x3c94bc44	0.018156178
28	0x3cdf3e0e	0.02725127
29	0x3c8478d9	0.016170906
30	0x3dd8c4ae	0.10584389
31	0x3dfecd13	0.124414586
32	0x3c1d41db	0.009598221
33	0x3d9fd11e	0.07803558
34	0x3a413c5a	0.0007371359
35	0x3d4c5c2e	0.049892597
36	0x3d9a71f1	0.07541264
37	0x3d5e3b50	0.054255784
38	0xbb4e273b	-0.0031456489
39	0x3dab2f0e	0.08358584
40	0x3d4994a5	0.049214024
41	0x3df6418e	0.12024222
42	0x3cd07080	0.02544427
43	0xbe05f9bc	-0.13083547
44	0x3de442a7	0.111455254
45	0x3e18de09	0.1492845
46	0xbd5ef41c	-0.05443202
47	0x3b5cc0d3	0.0033684268
48	0xbb1a457f	-0.0023539958
49	0x3e288264	0.1645599
50	0xbe1968c2	-0.14981368
51	0x3d661c6d	0.056179453
52	0x3d2599ba	0.04042981
53	0x3d83d712	0.06437506
54	0xbce3b7b8	-0.027797565
55	0xbb8641c6	-0.0040971963
56	0xbd363aeb	-0.044489782
57	0x3ce16c0a	0.027517337
58	0xbd71d73b	-0.05904315
59	0xbbe0a175	-0.0068551847
60	0xbad85280	-0.0016504079
61	0x3de4726d	0.111546375
62	0x3cd884d3	0.026430523
63	0x3e1713b8	0.14753616
64	0x3ce5d21d	0.028054291
65	0x3dc4ba5e	0.09605859
66	0xbd29ee71	-0.04148716
67	0x3e336759	0.17519893
68	0x3cffebb5	0.031240324
69	0x3da39a3c	0.07988402
70	0x3c8e3095	0.01735715
71	0x3bdd24d9	0.0067487773
72	0xbdb78798	-0.08961409
73	0x3cc37d00	0.023863316
74	0xbd35f54c	-0.044423386
75	0x3e4b9248	0.1988002
76	0x3e4e93d9	0.20173587
77	0x3dd779f0	0.105213046
78	0xbd2a1332	-0.041522212
79	0x3e1f59e6	0.15561637
80	0x3ca6830a	0.020326156
81	0xbe2541f0	-0.16138434
82	0xbc89580a	-0.016765613
83	0x3d20344c	0.039112374
84	0x3daf1559	0.085489936
85	0xbcd2c3e7	-0.02572818
86	0xbd457a89	-0.04821256
87	0xbc9bf260	-0.019036472
88	0x3ca1e580	0.019762754
89	0xbcacee15	-0.02110962
90	0x3e0d88e4	0.13821751
91	0x3e38e3bf	0.18055628
92	0xbd47a003	-0.048736583
93	0xbd963479	-0.07334227
94	0x3e0c2c48	0.13688767
95	0x3d8e3169	0.06943018
96	0x3e19e267	0.15027772
97	0x3deee03d	0.11663864
98	0xbdaf67de	-0.08564733
99	0xbd9c043a	-0.07617994
100	0x3dba6980	0.09102154
101	0xbb80eaaf	-0.0039342265
102	0x3da262b8	0.07928985
103	0x3d48ecd5	0.049053986
104	0x3dea7454	0.11447969
105	0x3cf262a9	0.02958806
106	0x3df3fdb5	0.11913625
107	0x3de7d3de	0.11319707
108	0xbd825a44	-0.06364873
109	0x3ca6ff62	0.020385448
110	0xbdbf593c	-0.09343192
111	0xbdb602be	-0.08887242
112	0x3d100768	0.035163313
113	0xbcba87de	-0.022769865
114	0x3ca5b819	0.020229386
115	0x3d6b042c	0.057377025
116	0x3dc0afbe	0.0940852
117	0xbd74aaff	-0.059733387
118	0xbdecb090	-0.11557114
119	0xbc802ea4	-0.01564724
120	0x3d17c5c3	0.037053835
121	0x3d3a9111	0.045548502
122	0xbd487eee	-0.048949175
123	0x3dd0ea08	0.10200888
124	0xbc3c2db6	-0.011485508
125	0x3d0cccde	0.034375064
126	0xbe1f8236	-0.15577015
127	0xbcc14981	-0.02359462
128	0x3dc416fa	0.09574695
129	0x3d9f12b5	0.0776724
130	0x3da8102a	0.08206208
131	0x3e1eb6bd	0.15499397
132	0xbd27fc9c	-0.04101239
133	0xbdb1f4dd	-0.08689282
134	0x3dc724e1	0.09723831
135	0x3d566b4e	0.052348427
136	0x3b8c373e	0.0042790463
137	0xbd17884d	-0.03699522
138	0xbd82f7d8	-0.06394929
139	0x3dbed385	0.09317688
140	0x3d9d2ccd	0.07674561
141	0x3ddd745e	0.10813211
142	0x3d22d2bc	0.039751753
143	0x3d753250	0.059862435
144	0x3d6843bf	0.056705233
145	0x3dac6302	0.08417322
146	0xbd59317c	-0.053025708
147	0xbdacfa39	-0.08446164
148	0x3c42e2e1	0.011894912
149	0x3dad45c2	0.08460571
150	0xbaa2a285	-0.0012408054
151	0x3d5ce38e	0.05392795
152	0x3dc01a4e	0.09380017
153	0x3dc6165e	0.09672235
154	0xbc9659bc	-0.018353336
155	0x3df9f87d	0.122055985
156	0xbc995a5c	-0.018719845
157	0x3d399fc4	0.04531838
158	0xbdef2807	-0.116775565
159	0x3dc20703	0.09473994
160	0xbc882441	-0.01661885
161	0x3ce75cb9	0.028242456
162	0x3dab5dd1	0.083675034
163	0x3cbca097	0.023025794
164	0x3dc978d9	0.09837503
165	0x3d947ed2	0.072507516
166	0xbd86ca87	-0.06581598
167	0x3d903138	0.07040638
168	0x3d44c3da	0.04803834
169	0x3d0353ab	0.032062214
170	0xbc3dc365	-0.01158223
171	0x3e1da623	0.15395407
172	0x3e2d68a9	0.16934456
173	0x3c14d018	0.009082817
174	0xbd24096c	-0.040048048
175	0x3d87824a	0.066166475
176	0xbdad070f	-0.08448612
177	0xbc1ac468	-0.009446241
178	0x3d9f87f3	0.07789602
179	0xbd1d9148	-0.03846863
180	0x3dae10ac	0.08499274
181	0x3dbd3d3f	0.092401974
182	0x3df82e41	0.12118197
183	0xbe0e4335	-0.13892825
184	0xbc566068	-0.0130845085
185	0xbd414e06	-0.04719355
186	0xbe35ffd6	-0.17773375
187	0x3b098706	0.0020985021
188	0xbce54c7b	-0.02799057
189	0x3d5efdf2	0.0544414
190	0xbcc248d0	-0.02371636
191	0xbdbca8cf	-0.09211885
192	0xbd99a882	-0.075028434
193	0xbd68235d	-0.05667435
194	0x3ca565e1	0.020190181
195	0x3d14a633	0.036291312
196	0x3e30805d	0.17236467
197	0x3cb78bb2	0.02240548
198	0xbd62d4cc	-0.05537872
199	0x3cb05543	0.021525031
200	0x3d40360e	0.04692655
201	0xbdbeca92	-0.09315981
202	0x3deb5d8e	0.114924535
203	0x3dbbca80	0.09169483
204	0xbe240cc2	-0.16020492
205	0x3dcebe76	0.10094921
206	0xbd1051d5	-0.03523429
207	0x3d8a611d	0.06756804
208	0xbda7c973	-0.0819272
209	0xbc668aa6	-0.014071142
210	0x3cd75ba6	0.026288819
211	0x3d593e66	0.053038023
212	0x3db82f8b	0.08993443
213	0x3d941108	0.07229811
214	0xbe1b1541	-0.15144826
215	0x3c8be643	0.01707757
216	0xbd15690e	-0.03647714
217	0xbdac2375	-0.084052004
218	0x3d1a7ec7	0.03771856
219	0x3d173be8	0.036922365
220	0xbdd085d3	-0.10181775
221	0xbd43bbbf	-0.04778647
222	0xbe086189	-0.13318457
223	0x3ccc9d55	0.024977366
224	0x3d467a14	0.048456267
225	0xbb096ddf	-0.002097003
226	0xbd473e27	-0.048643257
227	0x3dfec89f	0.12440609
228	0x3d6423b1	0.0556981
229	0x3dfb4ea2	0.122708574
230	0x3c88052e	0.016604032
231	0x3e3b444e	0.18287775
232	0x3ddf4064	0.109009534
233	0xbcd4fe32	-0.026000116
234	0x3d6d5357	0.057940807
235	0xbd606fcf	-0.05479413
236	0xbe210433	-0.15724258
237	0x3d256504	0.04037954
238	0xbd9bf87b	-0.07615753
239	0xbc417b5e	-0.011809198
240	0xbd668dc5	-0.056287546
241	0xbde70d03	-0.11281779
242	0x3dba0e47	0.090847544
243	0x3d370e92	0.04469163
244	0x3deb8df8	0.11501688
245	0x3d9db742	0.07700969
246	0xbda09d70	-0.07842529
247	0x3de05390	0.10953438
248	0x3daf592a	0.085619286
249	0xbce26f19	-0.027640866
250	0xbc8ed85b	-0.01743715
251	0xbd06d0ed	-0.03291409
252	0x3d8d7834	0.069076926
253	0x3bdfc7e6	0.0068292497
254	0xbbfa8686	-0.007645431
255	0x3ce272a1	0.02764255

action_model._discrete_distribution.branches.2.bias f4 [3]
0	0x3e2a6efe	0.16643903
1	0xbd2d6718	-0.042334646
2	0xbe844144	-0.25831044

action_model._discrete_distribution.branches.2.weight f4 [3, 256]
0	0xbc544d64	-0.0129579045
1	0xbcec7fd0	-0.02886954
2	0xbe101a07	-0.14072429
3	0x3dfab066	0.122406766
4	0xbd5ee63f	-0.0544188
5	0xbe227f2b	-0.15868823
6	0xbda78a35	-0.08180658
7	0xbdce6533	-0.10077896
8	0xbdbd4ab9	-0.09242768
9	0xbccfa976	-0.02534936
10	0xbd847cd2	-0.0646912
11	0xbc2b0891	-0.010439054
12	0x3d616d9f	0.055036183
13	0xbda38266	-0.07983856
14	0xbdc4b05f	-0.096039526
15	0xbd69d3f9	-0.05708692
16	0x3de25b3f	0.1105256
17	0xbd9cbad1	-0.0765282
18	0x3d98e5b4	0.074656874
19	0xbd7cbb64	-0.061702147
20	0xbca353e5	-0.019937465
21	0x3da910f9	0.082551904
22	0xbe1a0259	-0.15039958
23	0xbda697bc	-0.0813441
24	0xbd7dc259	-0.061952922
25	0xbd3a2d73	-0.0454535
26	0x3e0726af	0.1319835
27	0xbe03e5e2	-0.12880662
28	0x3dbdf1fc	0.092746705
29	0x3e0d4d4a	0.13799015
30	0x3de56671	0.1120118
31	0xbc10e754	-0.008844215
32	0x3c8b6c02	0.017019276
33	0x3d897a79	0.06712813
34	0x3d011d46	0.031522058
35	0xbdccbe7a	-0.09997268
36	0xbdebd3f4	-0.11515036
37	0x3d3c2ec5	0.04594304
38	0xbc8882f1	-0.016664
39	0x3da54af5	0.080709375
40	0x3a15afd4	0.00057100994
41	0xbd253563	-0.040334117
42	0xbb9630d5	-0.004583458
43	0xbd2af39f	-0.04173624
44	0x3da64583	0.08118727
45	0xbd12b79d	-0.03581964
46	0xbe5f746f	-0.2182176
47	0xbe12baef	-0.14329122
48	0x3ba5d242	0.005060465
49	0x3d40a7da	0.047035076
50	0xbd2b8a09	-0.041879687
51	0xbdd3593c	-0.103197545
52	0x3da09473	0.078408144
53	0x3d1631af	0.036668476
54	0xbc9ac8f1	-0.018894644
55	0xbc8951e6	-0.016762685
56	0x3d43508a	0.04768423
57	0xbdd3c12a	-0.103395775
58	0x3bee00b5	0.007263268
59	0xbdd060f1	-0.1017474
60	0xbd1484c9	-0.036259446
61	0x3ca3cdd5	0.01999561
62	0x3cf5efb0	0.030021518
63	0xbdee43fa	-0.11634059
64	0xbcb2c3cb	-0.021821877
65	0xbd0c6ecd	-0.034285355
66	0x3d062c56	0.032757126
67	0xbdb5c5a2	-0.08875586
68	0x3d5e9845	0.054344434
69	0x3d8b7752	0.06809868
70	0x3c35ecee	0.011103852
71	0xbb9af0fd	-0.004728435
72	0xbd0be8a8	-0.034157425
73	0xbd39e08c	-0.04538016
74	0xbdfbaed5	-0.12289206
75	0x3cd2fc52	0.025755081
76	0x3cf6960b	0.030100843
77	0xbd3eda5d	-0.046594966
78	0x3c8003a2	0.015626732
79	0xbdace874	-0.084427744
80	0x3d7f0fc5	0.0622709
81	0x3ce12d1e	0.027487334
82	0x3d28b287	0.041185882
83	0x3e0cb3e4	0.13740498
84	0x3dba1d48	0.09087616
85	0xbdda61ee	-0.1066321
86	0xbd4985eb	-0.04919998
87	0xbdf8e1be	-0.12152432
88	0xbd99035c	-0.07471344
89	0x3d0920dd	0.033478606
90	0xbd92fde4	-0.07177332
91	0x3acaf9cc	0.0015485822
92	0xbda63912	-0.08116354
93	0xbdb7dc56	-0.089775726
94	0xbd9a40b7	-0.075318746
95	0x3ca51262	0.020150367
96	0xbd22582c	-0.03963487
97	0xbd3ffcae	-0.046871834
98	0xbd410de7	-0.0471324
99	0x3dbab4f4	0.09116545
100	0x3d4d7ba8	0.050166756
101	0xbc341d3c	-0.010993298
102	0x3e0a0e11	0.13481928
103	0x3d87147e	0.065957054
104	0xbda7a8ec	-0.08186516
105	0x3ce0f185	0.027458915
106	0xbd5f004f	-0.054443654
107	0xbd5251d7	-0.05134758
108	0xbb4f16c7	-0.003159927
109	0xbd689061	-0.056778315
110	0x3c188074	0.009307969
111	0xbcbd4636	-0.023104768
112	0xbe0cc1b8	-0.13745773
113	0x3ccd86cd	0.025088692
114	0x3d80a52f	0.06281506
115	0xbca96b89	-0.02068116
116	0x3e17065e	0.14748523
117	0x3d09b3d8	0.033618778
118	0xbd6aa693	-0.057287764
119	0xbd2560e9	-0.040375624
120	0xbd81484d	-0.063126184
121	0xbdd464d4	-0.10370794
122	0x3da8d27f	0.08243274
123	0x3de4879f	0.1115868
124	0xbd9e3a54	-0.07725969
125	0x3e30e51f	0.17274903
126	0xbccb2fff	-0.02480316
127	0xbd75323d	-0.059862364
128	0xbdc97256	-0.09836261
129	0xbd89eb54	-0.067343384
130	0x3c789c3c	0.015173968
131	0x3d09e35a	0.033664085
132	0x3d59fefa	0.05322168
133	0xbbe628f1	-0.0070239236
134	0xbdebb53a	-0.115091756
135	0xbd65420d	-0.055971194
136	0x3d5c682c	0.053810284
137	0xbd375224	-0.04475607
138	0xbdbb3b79	-0.09142203
139	0x3b4a575b	0.0030874822
140	0xbde7ac8a	-0.11312206
141	0xbd81f36f	-0.063452594
142	0xbc2ad5d9	-0.010426962
143	0x3d938d77	0.07204717
144	0xbdec8418	-0.115486324
145	0xbd4985fd	-0.049200047
146	0xbd412696	-0.04715594
147	0xbda5b3e5	-0.08090953
148	0xbcbaefd3	-0.022819435
149	0xbd8b1627	-0.067913346
150	0xbdb20690	-0.08692658
151	0xbcb05789	-0.021526115
152	0x3c7b1bb2	0.015326427
153	0x3b3f2f92	0.0029172641
154	0x3c95ee72	0.018302176
155	0x3a6b15e2	0.00089677994
156	0x3d734a27	0.05939689
157	0xbd86df53	-0.065855645
158	0x3c3f6fab	0.011684339
159	0x3e0aa84f	0.13540767
160	0xbc90f940	-0.017696977
161	0xbd91cfcf	-0.071197145
162	0xbcb66c6f	-0.022268502
163	0x3c94beac	0.018157326
164	0x3ba1f517	0.004942547
165	0x3d450c90	0.048107684
166	0x3c1ce827	0.009576834
167	0xbcf9f61f	-0.030512867
168	0x3d969a08	0.07353598
169	0xbdc5ca10	-0.09657681
170	0x3c3fcfe8	0.011707284
171	0x3de4e9d8	0.11177415
172	0xbd6d5f30	-0.057952106
173	0xbd841116	-0.064485714
174	0x3e3aacec	0.18230027
175	0xbc48f715	-0.01226594
176	0xbd0266fc	-0.031836495
177	0x3d16a5c3	0.036779176
178	0x3b92a73f	0.0044755037
179	0x3e524962	0.20535806
180	0xbd30b564	-0.043141738
181	0xbd2bc263	-0.04193343
182	0x3d40d8f3	0.0470819
183	0xbd50e156	-0.050996147
184	0xbe38c0f2	-0.18042353
185	0xb98c935a	-0.00026812666
186	0xbdd03ffd	-0.10168455
187	0xbcc5570a	-0.024089355
188	0x3d0ff349	0.035144124
189	0x3d61b508	0.055104285
190	0xbd1ad628	-0.03780189
191	0xbc9c3ae9	-0.01907106
192	0x3d46d074	0.04853864
193	0xbd908fdd	-0.0705869
194	0x3d760853	0.060066532
195	0xbe0b6c6d	-0.1361558
196	0xbd1551b5	-0.036454875
197	0xbe0aad5f	-0.13542698
198	0xbd0ae229	-0.03390709
199	0x3e2627ba	0.16226092
200	0xbcdd521c	-0.027016692
201	0xbda05678	-0.078289926
202	0x3ca3ec41	0.020010116
203	0x3db6d361	0.08927036
204	0x3df1571c	0.11784193
205	0xbabf39fd	-0.0014589425
206	0x3dc37c7b	0.09545227
207	0xbd939177	-0.072054796
208	0x3dae6192	0.08514704
209	0xbcca7381	-0.02471328
210	0xbb97cf8a	-0.004632895
211	0xbd26b476	-0.040699445
212	0x3c8eca9e	0.0174306
213	0xbdb172b8	-0.08664459
214	0xbdfc14aa	-0.12308629
215	0x3e281db8	0.16417587
216	0x3d7c1b3b	0.061549406
217	0xbc34cac6	-0.011034673
218	0x3ccd54a3	0.025064772
219	0xbd09af54	-0.03361447
220	0x3d5ac801	0.053413395
221	0x3e35851b	0.17726557
222	0x3db95182	0.090487495
223	0xbd93eaa3	-0.07222488
224	0x3da8ed7d	0.08248422
225	0x3be3c5e9	0.006951083
226	0xbcfc0ebd	-0.030768747
227	0x3e0693fc	0.13142389
228	0xbc0275c3	-0.007962647
229	0x3d6a9f20	0.05728066
230	0xbd745a1d	-0.05965625
231	0xbcd15b26	-0.025556158
232	0xbd8bba3a	-0.06822629
233	0x3df8865e	0.121350035
234	0x3db9ab7e	0.09065913
235	0xbdd7b467	-0.10532456
236	0x3ce6b1cb	0.02816095
237	0xbcd05b63	-0.025434202
238	0x3bd603d9	0.0065312204
239	0xbd53d7cf	-0.051719483
240	0xbd30f7c6	-0.043205045
241	0xbdd1bfd2	-0.10241665
242	0xbdadc10f	-0.08484089
243	0xbd4180b9	-0.0472419
244	0x3e471ca1	0.19444515
245	0xbddfb2bb	-0.10922762
246	0x3de8896f	0.113543384
247	0xbd7f717a	-0.06236408
248	0x3d7012b4	0.058611587
249	0xbd892c99	-0.066979595
250	0x3d37dc95	0.044888098
251	0xbce0feeb	-0.027465304
252	0x3dc59047	0.09646659
253	0xbd2083a2	-0.039188035
254	0x3d80a966	0.0628231
255	0x3dffa895	0.12483326

action_model._discrete_distribution.branches.3.bias f4 [2]
0	0xbe85b8b4	-0.2611748
1	0x3e85b8bb	0.261175

action_model._discrete_distribution.branches.3.weight f4 [2, 256]
0	0x3ce41a94	0.027844705
1	0x3c8dde31	0.017317863
2	0x3c377983	0.011198404
3	0xbdbac645	-0.09119848
4	0xbc187cac	-0.009307068
5	0x3c6d9742	0.014501395
6	0x3e31b1b0	0.17352939
7	0xbdab0d65	-0.08352164
8	0x3d83d228	0.064365685
9	0xbd428ab1	-0.047495548
10	0x3a987937	0.0011632805
11	0xbde59d48	-0.1121164
12	0x3e188bda	0.14897099
13	0x3dbb236e	0.09137617
14	0xb84af5da	-4.838952e-05
15	0xbb9a9844	-0.0047178585
16	0xbd390286	-0.045168422
17	0x3dc2e5b0	0.09516466
18	0x3d08a394	0.033359125
19	0x3ce4e214	0.027939834
20	0x3d0501c7	0.032472398
21	0x3c141566	0.009038305
22	0x3d81660f	0.06318294
23	0x3d01909f	0.031632062
24	0xbbd056fb	-0.006358025
25	0x3c3c2fda	0.011486018
26	0xbd552a3e	-0.05204224
27	0x3d4b6e54	0.049665764
28	0xbd4e991d	-0.05043899
29	0x3ded9b88	0.11601931
30	0xbd1a769c	-0.03771077
31	0x3d08af9f	0.03337061
32	0x3d206bb3	0.03916521
33	0x3cefc55d	0.029268915
34	0xbc90defb	-0.01768445
35	0x3d1d7c49	0.038448606
36	0x3dbd374a	0.09239061
37	0x3dda271a	0.10651989
38	0xbd907cd0	-0.07055056
39	0xbdabcb4c	-0.08388385
40	0x3d57630c	0.052584693
41	0x3d238b41	0.039927725
42	0x3dfa0018	0.12207049
43	0x3cc8269f	0.024432478
44	0x3d99b447	0.07505088
45	0x3d52a989	0.051431213
46	0x3c92f3e6	0.017938565
47	0x3c12843a	0.008942658
48	0x3bdd79e0	0.0067589134
49	0x3ce6e5b4	0.028185703
50	0xbc8ccf7a	-0.017188776
51	0x3d33682a	0.04380051
52	0x3d194034	0.037414744
53	0xbd846c9f	-0.0646603
54	0x3db7a3d6	0.08966796
55	0xbd0ef7e1	-0.034904364
56	0x3db248c3	0.087052844
57	0x3dbc7ef8	0.09203905
58	0x3e15a5c4	0.14614016
59	0x3cc97cee	0.024595704
60	0xbb8c370d	-0.0042790235
61	0x3d0eadcf	0.034833726
62	0xbb664e91	-0.0035142044
63	0xbd70675b	-0.058692317
64	0x3d9819bb	0.07426783
65	0xbd4306e0	-0.04761398
66	0x3d3be66f	0.045874055
67	0x3c7068ec	0.014673453
68	0xbdf3d3af	-0.1190561
69	0xbc9e3ca0	-0.019316018
70	0x3c5b92ff	0.013401746
71	0x3d44e48b	0.048069518
72	0x3b70ecde	0.0036762278
73	0x3d3e04f9	0.04639146
74	0xbe2f5d2d	-0.17125387
75	0xbd20c836	-0.039253436
76	0x3d65e45b	0.05612598
77	0x3d6f880e	0.05847936
78	0xbe06ad91	-0.13152148
79	0x3c998259	0.018738912
80	0xbc7f4ebc	-0.015582737
81	0x3d039b42	0.032130487
82	0x3d37ae75	0.04484411
83	0xbd198864	-0.037483588
84	0x3cc477d1	0.023982914
85	0x3d311332	0.043231197
86	0xbdd078a9	-0.10179264
87	0x3c502c8b	0.012705932
88	0xbca0d1ab	-0.019631227
89	0xbcb1ff2f	-0.021728126
90	0x3d0d1ca6	0.03445115
91	0x3c8312d9	0.016000198
92	0x3d2fc83c	0.042915568
93	0x3d621983	0.05520011
94	0x3c0aacfe	0.008464096
95	0xbd331a04	-0.043725982
96	0x3d5887b4	0.05286379
97	0x3d831cb9	0.06401963
98	0xbe1b326a	-0.1515595
99	0xbe1c4708	-0.15261471
100	0x3c8ae8d6	0.016956728
101	0xbdbe7781	-0.09300137
102	0x3e30286f	0.17202924
103	0xbdf75926	-0.120775506
104	0x3d6eea60	0.058328986
105	0xbcde9d71	-0.027174683
106	0x3c76e909	0.015070208
107	0x3cc81fd3	0.024429237
108	0xbc1adb15	-0.009451647
109	0xbc8b6855	-0.017017523
110	0x3c36953d	0.01114398
111	0xbbc9a84c	-0.0061540958
112	0x3c5f643e	0.013634739
113	0x3b9da78c	0.004811233
114	0x3d1afed5	0.037840683
115	0x3dbcf9cb	0.09227332
116	0xbde1138d	-0.10990057
117	0x3d56c14c	0.052430436
118	0x3b94483f	0.004525214
119	0xbd84da01	-0.064868934
120	0x3d20c4f2	0.03925032
121	0xbc0f7760	-0.008756489
122	0x3e16a799	0.14712371
123	0x3d49a93e	0.049233668
124	0x3be19b67	0.0068849805
125	0xbd9a2295	-0.07526127
126	0xbe277bb2	-0.1635578
127	0x3d94adbb	0.07259699
128	0x3cffd822	0.03123099
129	0x3d1e230d	0.038607646
130	0x3c69608d	0.014244211
131	0x3d6d5cff	0.057950016
132	0xbc8702a3	-0.01648075
133	0xbda931d7	-0.08261459
134	0xbd405b3a	-0.046962
135	0x3c2d13af	0.010563775
136	0x3c84c959	0.016209291
137	0x3deea35d	0.11652253
138	0x3d148490	0.036259234
139	0xbd5998f1	-0.053124372
140	0x3e01ed82	0.12688258
141	0x3cdd098e	0.026982095
142	0x3d600d28	0.054700047
143	0xbd4573e4	-0.048206225
144	0xbcd8b204	-0.026452072
145	0x3dd77092	0.10519518
146	0xbcaf8470	-0.021425456
147	0x3cbd306f	0.023094384
148	0xbe4c967b	-0.19979279
149	0x3d90bc42	0.07067157
150	0xbc7b62b5	-0.015343358
151	0x3ca179fa	0.019711483
152	0x3d9558d0	0.0729233
153	0xbc07a224	-0.008278403
154	0x3d177820	0.036979795
155	0x3e1fbe49	0.15599932
156	0x3b64176e	0.0034804004
157	0x3d38d6a5	0.045126576
158	0xbdae6bcc	-0.08516654
159	0xbe3ca41d	-0.18421979
160	0x3d602601	0.054723743
161	0x3d22e405	0.039768238
162	0x3d389e07	0.04507258
163	0x3cc058a9	0.023479776
164	0xbce8d4a4	-0.028421707
165	0xbd669f1f	-0.056304093
166	0xbcd45cea	-0.025923211
167	0x3d831808	0.06401068
168	0x3d3a2c67	0.0454525
169	0x3d2ca92a	0.042153515
170	0xbc46bd1d	-0.012130049
171	0xbd00fc6a	-0.03149072
172	0xbc0935c0	-0.008374631
173	0x3d361446	0.044452928
174	0xbcdab77d	-0.026698822
175	0xbe1dff12	-0.15429333
176	0xbd55b6ef	-0.052176412
177	0x3db6ebc8	0.089316905
178	0xbb96bdc9	-0.004600261
179	0x3d911d24	0.07085636
180	0x3d4b77c4	0.049674764
181	0x3ddb29cd	0.10701332
182	0x3de57270	0.11203468
183	0xbda1530c	-0.07877168
184	0x3d2b7aa4	0.041865006
185	0x3deaef82	0.11471464
186	0x3cb23733	0.021754837
187	0xba8d598d	-0.0010784135
188	0xbdf88181	-0.12134076
189	0xbde4b43b	-0.11167189
190	0x3c4a6dd5	0.012355288
191	0xbbca55f6	-0.006174798
192	0xbd21d08c	-0.039505526
193	0x3c8b7f43	0.017028457
194	0xbd56fac3	-0.05248524
195	0xbc003db4	-0.007827211
196	0x3d522c08	0.051311523
197	0x3cbd992d	0.023144329
198	0xbbe72589	-0.007054035
199	0x38c48045	9.3699e-05
200	0xbdc47545	-0.0959268
201	0x3c234f1c	0.009967592
202	0xbd0c0099	-0.034180257
203	0xbcb1088d	-0.021610523
204	0xbe4054af	-0.18782304
205	0x3d9c53b8	0.076331556
206	0x3b625fc2	0.003454194
207	0x3d0c8235	0.034303863
208	0xbd6d61d5	-0.057954628
209	0x3cb422d7	0.02198927
210	0xbcc546bb	-0.024081578
211	0x3c7cf81a	0.015440011
212	0x3d3e424b	0.04644994
213	0x3d98e6c5	0.07465891
214	0x3e043e19	0.12914313
215	0x3e16b339	0.14716806
216	0x3dd0d66f	0.1019715
217	0x3d772d9d	0.060346235
218	0xbd125865	-0.03572883
219	0xbdaf94e3	-0.0857332
220	0xbc834fc3	-0.016029244
221	0x3b280515	0.0025637795
222	0x3dde400e	0.10852061
223	0x3d700a0a	0.058603324
224	0x3cedcc0d	0.029027963
225	0x3df0c308	0.11755949
226	0xbb36a27c	-0.0027867844
227	0xbc79d558	-0.015248619
228	0xbd02ca11	-0.031930987
229	0xbd3fbeaa	-0.04681269
230	0x3d9a510e	0.07534991
231	0xbd5ad8d1	-0.05342943
232	0x3d8cbb33	0.06871643
233	0xbca469ad	-0.020069921
234	0x3d6344fa	0.055485703
235	0x3d39ce26	0.045362614
236	0x3dce42c1	0.10071326
237	0x3da5f4c4	0.08103326
238	0x3cb44046	0.022003304
239	0x3d2bbfc2	0.04193092
240	0x3cb2cbea	0.02182575
241	0xbcd30c04	-0.025762565
242	0x3d511885	0.051048774
243	0x3cc4928d	0.023995662
244	0x3c272479	0.010201567
245	0x3da5035e	0.08057283
246	0xbc97f58f	-0.018549709
247	0x3cbdc4fe	0.023165222
248	0x3cdd6e88	0.027030244
249	0xbd2a39a5	-0.04155888
250	0x3da012ba	0.07816072
251	0x3d312da5	0.04325642
252	0x3d8eb0e1	0.06967331
253	0x3cea0ab7	0.028569562
254	0x3be58435	0.0070042857
255	0xbc5a2ce2	-0.013316365

discrete_action_output_shape f4 [1, 4]
0	0x40400000	3.0
1	0x40400000	3.0
2	0x40400000	3.0
3	0x40000000	2.0

network_body._body_endoder.seq_layers.0.bias f4 [256]
0	0x3cc1e5d7	0.023669166
1	0xbe04183a	-0.12899867
2	0xbe2d822c	-0.16944188
3	0xbda9f5b1	-0.08298815
4	0xbe14d9f3	-0.14536266
5	0x3e1d1837	0.15341268
6	0x3e042483	0.12904553
7	0xbd2351da	-0.03987298
8	0x3e5c9e40	0.21544743
9	0xbe0ad2b7	-0.13556944
10	0xbd346500	-0.044041634
11	0x3e034337	0.12818609
12	0xbd4de5ec	-0.0502681
13	0xbda8659b	-0.08222505
14	0xbe0a9171	-0.13532044
15	0xbe0ba454	-0.13636905
16	0x3e387298	0.18012464
17	0xbe1cb800	-0.15304565
18	0xbe60a047	-0.21936141
19	0x3d6633a9	0.05620161
20	0xbe802377	-0.25027058
21	0xbddcf5d0	-0.107890725
22	0xbe260d14	-0.16215926
23	0xbe8b43e8	-0.27200246
24	0xbdd05750	-0.101729035
25	0x3cdb8b70	0.026799887
26	0xbcc3bfdf	-0.023895202
27	0xbd440fe7	-0.04786673
28	0x3e28a231	0.16468121
29	0x3dd8238d	0.10553656
30	0x3e57c6ce	0.21071932
31	0xbe80bd41	-0.2514439
32	0x3ddfbdb5	0.109248556
33	0x3dfc8651	0.12330306
34	0xbe85e1a3	-0.2614871
35	0x3e4541b9	0.19263352
36	0x3deaf1f7	0.114719324
37	0x3d7223eb	0.059116285
38	0xbddc12ff	-0.10745811
39	0x3dca7e02	0.09887315
40	0x3d9290b9	0.0715651
41	0xbe3bae7f	-0.18328284
42	0xbda30fb4	-0.079619795
43	0xbd57af8c	-0.05265765
44	0x3e067839	0.13131799
45	0x3c20bd80	0.009810805
46	0x3e1641f9	0.14673604
47	0x3da88069	0.08227617
48	0x3e5a15f4	0.21297437
49	0xbe1e49b1	-0.15457799
50	0xbd3a8664	-0.04553832
51	0xbe08c6a5	-0.13357027
52	0xbd378439	-0.04480383
53	0xbdd15f76	-0.10223286
54	0x3d5b6bd7	0.05356964
55	0xbe2bcca5	-0.16777284
56	0x3df73f4a	0.12072618
57	0xbda48ccd	-0.08034668
58	0x3de3803f	0.111084454
59	0x3e2794c6	0.16365346
60	0x3e0fbfcb	0.14038007
61	0xbe3d767b	-0.18502228
62	0xbe62fb93	-0.2216628
63	0x3e0a3f03	0.135006
64	0xbdee716b	-0.116427265
65	0xbdf549a8	-0.119769394
66	0x3d91cf12	0.07119574
67	0xbbde258a	-0.0067793773
68	0xbe8481db	-0.25880322
69	0xbe47188f	-0.19442962
70	0xbdcb4a0c	-0.09926233
71	0x3d8f355c	0.06992599
72	0xbdd33c52	-0.103142396
73	0xbe1af140	-0.15131092
74	0xbe37603e	-0.17907807
75	0xbdaf4eb2	-0.08559932
76	0xbe105e8c	-0.14098567
77	0xbd942873	-0.072342776
78	0xbe6840be	-0.22680947
79	0x3e123484	0.14277846
80	0xbd0d219c	-0.03445588
81	0xbd102382	-0.035190113
82	0xbdcd400a	-0.1002198
83	0x3e3eda69	0.18638004
84	0x3c13c7d5	0.009019812
85	0xbd49b389	-0.049243484
86	0x3e4c574e	0.19955179
87	0x3e1fd7ba	0.15609637
88	0x3e7d6d4e	0.24748728
89	0xbca65a51	-0.020306738
90	0xbb1bf838	-0.0023799073
91	0x3dad66b3	0.08466854
92	0xbd8233b0	-0.06357515
93	0xbe0116dd	-0.12606378
94	0xbd752f2d	-0.059859443
95	0xbcba1108	-0.0227132
96	0xbea76e67	-0.32701418
97	0x3d99fd0b	0.07518967
98	0x3dab333b	0.08359381
99	0xbd903c97	-0.070428066
100	0x3d592455	0.053013165
101	0xbdcc5022	-0.099762216
102	0x3dadd649	0.08488137
103	0xbe2e2f61	-0.17010261
104	0x3c633ee9	0.013869979
105	0xbe4ab918	-0.1979717
106	0xbe0ec7a1	-0.1394334
107	0xbbd1347e	-0.0063844314
108	0xbc8822b3	-0.016618108
109	0xbd2f2a30	-0.042764843
110	0x3bb1f3ec	0.005430689
111	0x3d28dad9	0.041224334
112	0xbe217ac4	-0.15769488
113	0xbe30483f	-0.1721506
114	0xbe0ac953	-0.13553362
115	0x3dc7fd42	0.09765102
116	0x3c6ae3e8	0.014336564
117	0x3dcde783	0.10053923
118	0x3da3a7f3	0.07991018
119	0xbe08ef29	-0.13372482
120	0xbbbcf819	-0.0057668802
121	0x3dce74b5	0.10080854
122	0xbd5f578d	-0.054526854
123	0x3dc9a59b	0.0984604
124	0xbdb5d786	-0.088789985
125	0xbe2d18dd	-0.16904016
126	0x3e8accee	0.27109474
127	0xbdda7362	-0.10666539
128	0xbe1b5456	-0.1516889
129	0x3cff2f9d	0.031150633
130	0xbe66b932	-0.22531584
131	0xbc442f5a	-0.01197418
132	0xbda04dfe	-0.07827376
133	0xbc43be59	-0.011947238
134	0xbdd6d3dc	-0.10489628
135	0xbdbc3f97	-0.09191816
136	0xbc5abde6	-0.013350939
137	0xbd9e0744	-0.077162296
138	0x3e1c7224	0.15277916
139	0x3cd1ed69	0.025625901
140	0xbdea9e43	-0.11455967
141	0xbe549586	-0.20760164
142	0x3d959404	0.07303622
143	0x3d6e849a	0.058231927
144	0xbdc59fa2	-0.09649588
145	0xbe23b312	-0.15986279
146	0x3b65d8b7	0.00350718
147	0xbe5d0b28	-0.21586287
148	0xbdc54645	-0.096325435
149	0x3c1f1428	0.0097093955
150	0x3d25665c	0.04038082
151	0x3d4a54e8	0.04939738
152	0xbdd0205b	-0.10162421
153	0xbe989858	-0.2980373
154	0x3dbeaffb	0.09310909
155	0xbdf8827a	-0.121342614
156	0xbde1a563	-0.11017873
157	0x3e22a767	0.15884171
158	0x3de7243f	0.1128621
159	0x3e22426e	0.15845653
160	0x3dd14937	0.10219043
161	0xbd111e6f	-0.035429414
162	0x3e0a93b4	0.13532907
163	0x3e05ee85	0.13079269
164	0x3dba077f	0.09083461
165	0x3e3a79a4	0.18210465
166	0xbd29a11a	-0.041413404
167	0xbd88646a	-0.066597775
168	0x3cb240e6	0.021759462
169	0xbe18cae7	-0.14921151
170	0x3d4e66d0	0.05039102
171	0xbd0de49a	-0.03464184
172	0xbdaeb67d	-0.085309006
173	0xbd22027d	-0.039553154
174	0x3d1b2dec	0.03788559
175	0xbd1934fa	-0.037404038
176	0xbd2f4e33	-0.042799186
177	0xbd6f43e4	-0.058414355
178	0xbe211817	-0.15731846
179	0xbd11389e	-0.035454385
180	0x3d58b7a2	0.0529095
181	0xbdb70de6	-0.08938198
182	0x3d621955	0.05519994
183	0xbe3dd152	-0.1853688
184	0xbdb2e0c6	-0.087342784
185	0x3be62df7	0.0070245224
186	0xbdbc4e78	-0.09194654
187	0xbe1bfb9d	-0.15232702
188	0xbd8a832e	-0.06763302
189	0xbd38ac1c	-0.04508601
190	0x3cbd789a	0.023128796
191	0xbe470624	-0.19435936
192	0x3e0ba14f	0.13635753
193	0xbe17f0ec	-0.14837998
194	0xbdfb7b89	-0.12279422
195	0xbe1103fe	-0.14161679
196	0x3ddfbb08	0.10924345
197	0x3c9289b3	0.017887926
198	0xbdf67429	-0.120338745
199	0xbcd41803	-0.025890356
200	0xbd807ecc	-0.062741846
201	0x3d233080	0.039841175
202	0x3cc823b1	0.024431081
203	0xbe3e28a2	-0.18570188
204	0x3d7c1e21	0.06155217
205	0xbda38371	-0.07984055
206	0xbe797e82	-0.24364665
207	0x3da4a289	0.080388136
208	0xbe323639	-0.17403497
209	0xbd1ac79f	-0.03778803
210	0x3d5dc717	0.054144945
211	0x3cd7a421	0.02632338
212	0xbe56e07d	-0.20984073
213	0x3de6da42	0.11272098
214	0xbcca12b1	-0.024667116
215	0xbdfdb474	-0.12387934
216	0xbe39e52a	-0.18153825
217	0xbd36f62d	-0.044668365
218	0x3c3b32b3	0.011425662
219	0x3d7f6cc0	0.06235957
220	0x3e1192a0	0.14216089
221	0x3d7d7970	0.06188339
222	0xbe78cb00	-0.24296188
223	0x3d3e6671	0.046484414
224	0x3c0b5041	0.008503021
225	0xbd76af24	-0.06022562
226	0xbe1bc7d5	-0.15212949
227	0xbdb9d45d	-0.09073708
228	0xbd943a8b	-0.07237729
229	0xbe561570	-0.20906615
230	0xbd88c025	-0.06677274
231	0x3e9f3532	0.31095272
232	0xbdb52b78	-0.08846182
233	0xbe2ba22f	-0.16761087
234	0xbdc28d55	-0.09499613
235	0xbd9d18ac	-0.076707214
236	0xbd971570	-0.07377136
237	0xbe2a4311	-0.16627146
238	0x3be6703c	0.0070324223
239	0x3dbd3425	0.092384614
240	0xbe0653af	-0.1311786
241	0xbdb07715	-0.08616463
242	0x3bb57c0c	0.005538469
243	0xbe207363	-0.15669017
244	0xbe3237dd	-0.17404123
245	0x3cf48787	0.02984978
246	0xbd0b16c3	-0.033957254
247	0xbca40489	-0.020021694
248	0x3e2e929c	0.17048115
249	0x3d111337	0.035418715
250	0xbde967c9	-0.113967486
251	0xbde42c6a	-0.11141284
252	0x3d453ccd	0.048153687
253	0xbcf53004	-0.029930122
254	0x3da5da7f	0.080983154
255	0x3e10327d	0.1408176

network_body._body_endoder.seq_layers.0.weight f4 [256, 13]
0	0x3db48cc6	0.08815913
1	0x3ef5c8fe	0.48004907
2	0xbf2c135b	-0.67217034
3	0x3f6fb6f3	0.93638533
4	0x3d19a1c1	0.037507776
5	0xbea98eca	-0.33116752
6	0xbd4292ca	-0.04750327
7	0x3ed30c9a	0.41220552
8	0xbe692c74	-0.22770864
9	0xbe7c04cb	-0.24611203
10	0x3f438e9f	0.763895
11	0x3e76b50b	0.240925
12	0xbd803eea	-0.06262
13	0x3f7614c3	0.9612543
14	0x3f10fb97	0.56633896
15	0xbef6866d	-0.48149434
16	0x4041c8f6	3.0278907
17	0xbe06fb72	-0.13181856
18	0xbf0c69d8	-0.54849005
19	0x3f744e77	0.9543223
20	0x3f24d66e	0.64389694
21	0x3eb74d85	0.3580133
22	0x3e1ed041	0.1550913
23	0x3f578e60	0.8420162
24	0x3d2f9e0b	0.04287533
25	0xbe3ccb17	-0.18436848
26	0x3ef1ee1f	0.47251984
27	0xbebc1a75	-0.36738935
28	0xbe808c3b	-0.25106987
29	0x3fa12071	1.2588025
30	0xbe961446	-0.29312342
31	0xbf6aae2c	-0.91672015
32	0x3dd50aef	0.10402476
33	0xbecdf6b2	-0.40227276
34	0xbf014600	-0.50497437
35	0x3e3524b0	0.17689776
36	0x3d4c0260	0.049806952
37	0xbefce318	-0.4939201
38	0xbdf7c95b	-0.120989524
39	0xbfe9e6c8	-1.8273554
40	0x3c468222	0.012115987
41	0xbe929428	-0.2862866
42	0xbf17d874	-0.59314656
43	0x3e4ab328	0.19794905
44	0x3d77ddaf	0.06051415
45	0xbf316d8e	-0.6930779
46	0x3b0d5424	0.0021565044
47	0x3ecc4c44	0.39901936
48	0xbc9427b8	-0.018085346
49	0xbda79936	-0.081835195
50	0x3cb7ef46	0.022452962
51	0x3eb1fdf7	0.34764072
52	0x3e95547d	0.29166022
53	0x3e64788f	0.22311614
54	0xbdafad3d	-0.085779645
55	0xbe297ddb	-0.16551916
56	0xbf30a09e	-0.6899508
57	0xbf2b31b5	-0.6687272
58	0x3e16036e	0.14649746
59	0xbdca530f	-0.098791234
60	0xbf107541	-0.56428915
61	0xbeec5d3c	-0.46164882
62	0xbdf6be38	-0.12048
63	0xbdf877c6	-0.1213222
64	0x3e2f3fa8	0.17114127
65	0xbfb48f3b	-1.410621
66	0x3e80c841	0.25152782
67	0x3e64f94d	0.22360726
68	0xc02183e2	-2.5236745
69	0xbe9044e8	-0.2817757
70	0x3f03e22f	0.51517004
71	0xbfaba8dd	-1.3410908
72	0x3dd3ead7	0.103475265
73	0x3f436d85	0.7633899
74	0x3da21971	0.07915009
75	0xbc03a08f	-0.008033886
76	0x3c773018	0.01508715
77	0xbd6529f1	-0.0559482
78	0xbf31af2e	-0.6940793
79	0x3ee0eef7	0.43932316
80	0x3d70febe	0.05883669
81	0xbf119a34	-0.5687592
82	0xbe8f55fd	-0.2799529
83	0x3e8ee863	0.27911672
84	0xbf9b1c9a	-1.2118104
85	0xbf004c92	-0.5011684
86	0x3d7d7faf	0.061889347
87	0xbe2798b0	-0.1636684
88	0xbdbda062	-0.09259106
89	0x3d44b322	0.048022397
90	0x3e32bf89	0.17455877
91	0xbea769c6	-0.32697886
92	0x3ec9b45d	0.3939542
93	0x3e1b8fea	0.15191618
94	0x3f799ff8	0.9750972
95	0x3e173b57	0.1476873
96	0xbf4cd702	-0.80015576
97	0x3d3f813b	0.046754103
98	0xbe8ea9af	-0.27863833
99	0x3f3a904f	0.7287645
100	0x3e11d3f2	0.14241007
101	0xbe240bc2	-0.1602011
102	0x3ce96aa1	0.028493227
103	0x3e1db79a	0.1540207
104	0xbf992ff7	-1.1967763
105	0xbe217ab2	-0.15769461
106	0x3eb18ff2	0.34680134
107	0xc0036cfb	-2.0535266
108	0x3f0dc992	0.55385697
109	0x3ec45e85	0.38353363
110	0xbf637018	-0.88842916
111	0xbef03fab	-0.46923575
112	0x3d3aa01e	0.045562856
113	0xbdbc078a	-0.091811255
114	0xbcb8c97c	-0.022557013
115	0x3d8fc02d	0.070190765
116	0x3d277172	0.040879674
117	0x3c7a4b33	0.015276718
118	0x3e5d2d9e	0.21599433
119	0x3e46aad3	0.19401102
120	0x3fe743eb	1.8067602
121	0x3dc91a18	0.0981943
122	0xbf86a985	-1.0520483
123	0xbf1c94ce	-0.6116456
124	0xbe2a91e6	-0.16657218
125	0x3e2e5662	0.1702514
126	0x3db0270e	0.08601199
127	0x3cb74008	0.0223694
128	0x3c930fad	0.01795181
129	0xbcf15218	-0.02945809
130	0x3f4e601c	0.806154
131	0x3eb0d6de	0.3453893
132	0xbe92b9fe	-0.28657526
133	0x3eea6288	0.45778298
134	0xbeaffb5b	-0.34371457
135	0x3c873f68	0.016509727
136	0x3f48444c	0.7822921
137	0xbed4e830	-0.41583395
138	0xbe7dfc1a	-0.248032
139	0x3d1226cd	0.035681535
140	0xbea6d508	-0.32584405
141	0xbea4d372	-0.3219257
142	0x3ee9b65c	0.45646942
143	0xbfb65588	-1.4244852
144	0xbe081cf4	-0.13292295
145	0x3ecb2bcd	0.39681855
146	0xc04d12eb	-3.2042797
147	0xbe23d29a	-0.15998307
148	0x3f106ad5	0.5641301
149	0xbf462a33	-0.7740814
150	0xbe1ae769	-0.15127338
151	0x3e1c41b2	0.15259436
152	0xbefb7741	-0.4911442
153	0x3e0c0ce9	0.136768
154	0x3e0edb7d	0.13950916
155	0xbdd87efc	-0.10571095
156	0x3f54ea8c	0.8317039
157	0x3ea7183e	0.32635683
158	0x3c1458cf	0.009054377
159	0x3fe78149	1.808633
160	0x3deb5482	0.11490728
161	0x3e835ad0	0.25655222
162	0x3f84dd28	1.0379992
163	0x3dc551b9	0.09634728
164	0xbf26474e	-0.6495255
165	0x3bc6c2cb	0.0060657016
166	0xbd6e792b	-0.058221024
167	0x3c37554a	0.011189768
168	0xbc18cdce	-0.009326411
169	0x3f94bf90	1.162096
170	0x3f40ead0	0.75358295
171	0x3e947668	0.28996587
172	0x403d35c1	2.9564059
173	0xbe9a579c	-0.30144966
174	0xbed545be	-0.41654772
175	0x3de51e08	0.11187369
176	0x3e90aaf9	0.28255442
177	0x3debb736	0.11509554
178	0x3e82fd5e	0.2558393
179	0x3f0c0586	0.5469593
180	0x3edce562	0.43143755
181	0xbeb60efa	-0.355583
182	0xbf1ebb3d	-0.6200445
183	0x3d77576e	0.060386114
184	0xbe218cd7	-0.15776382
185	0xbf362169	-0.7114473
186	0x3d75b610	0.05998808
187	0xbd80f1b1	-0.06296099
188	0x3ebafd8b	0.36521563
189	0xbf50b10f	-0.8152017
190	0xbf17c212	-0.592805
191	0x3cf45cc3	0.029829388
192	0xbea97ddf	-0.33103845
193	0xbec6a0e1	-0.38794616
194	0xbeb50d44	-0.35361683
195	0xbebaf0d9	-0.36511877
196	0xbd34e85d	-0.04416691
197	0x3e04300d	0.12908955
198	0xbf91b78f	-1.1384143
199	0xbecf9f1f	-0.40551087
200	0xbe6123b2	-0.21986273
201	0xbc82c1a8	-0.015961483
202	0xbe2ebd50	-0.17064404
203	0x3e64ef20	0.22356844
204	0xbe33ce32	-0.17559126
205	0x3e8dca17	0.27693245
206	0xbecc1309	-0.39858273
207	0xbd679523	-0.056538712
208	0xbde2d094	-0.11074939
209	0x3ee17d80	0.4404106
210	0xbf710b43	-0.9415781
211	0x3f34a346	0.70561635
212	0x3eb499d5	0.35273615
213	0xbf607055	-0.87671405
214	0x3e6a62b3	0.22889213
215	0xbe1c3196	-0.1525329
216	0xbe86a7ad	-0.262998
217	0xbca61c4e	-0.020277169
218	0xbe911e3f	-0.28343388
219	0xbe33badd	-0.17551751
220	0x3e646372	0.2230356
221	0x3f53c5d3	0.8272373
222	0x3e036d21	0.12834598
223	0x3d0becc9	0.034161363
224	0x3f95d0e2	1.1704371
225	0x3e87a3bb	0.26492104
226	0xbeafd84e	-0.34344715
227	0x3ef4180e	0.47674602
228	0xbf8ee7bc	-1.116447
229	0xbea656cb	-0.32488093
230	0x3e80edab	0.25181326
231	0xbe4aaf8b	-0.19793527
232	0xbee5e46f	-0.44900844
233	0xbd810db0	-0.06301439
234	0x3e4bcec8	0.199031
235	0x3e7ca738	0.24673164
236	0x3e08fb55	0.13377126
237	0x3f98b4e2	1.1930201
238	0x3f22e4e6	0.6363052
239	0xbf28053b	-0.6563298
240	0xbee961c2	-0.45582396
241	0xbe6ff6f8	-0.23434055
242	0x3f4aa957	0.7916464
243	0x3ef59806	0.47967547
244	0xbdfe8ee6	-0.124295995
245	0x3eac3d9b	0.3364075
246	0x3e2260f5	0.15857299
247	0x3d15d18c	0.036576793
248	0x3dade83a	0.08491559
249	0x3d9f33f7	0.077735834
250	0xbf699eb0	-0.9125776
251	0xbe8cf769	-0.2753251
252	0x3f42df2d	0.7612179
253	0x3f556164	0.8335173
254	0xbeb6db30	-0.35714102
255	0xbf194237	-0.5986666

network_body._body_endoder.seq_layers.2.bias f4 [256]
0	0xbdf73e54	-0.12072435
1	0xbe03ae70	-0.12859511
2	0xbd9d673a	-0.076857045
3	0x3c516788	0.012781031
4	0xbe40d233	-0.18830185
5	0xbd4cb5f4	-0.04997821
6	0xbba2ee0a	-0.004972224
7	0xbda2723b	-0.07931944
8	0xbdd468c1	-0.10371543
9	0xbc63cfa3	-0.013904485
10	0xbce8aa8f	-0.028401641
11	0x3dab4c03	0.083641075
12	0xbdcf208c	-0.1011363
13	0xbcc10fbe	-0.023567077
14	0x3be0010c	0.0068360623
15	0xbd550fd2	-0.05201704
16	0x3d98de02	0.0746422
17	0xbda0764c	-0.07835063
18	0xbda82f6f	-0.08212172
19	0xbd3d25cd	-0.046178628
20	0x3d742111	0.059601847
21	0x3dbd31d6	0.09238021
22	0xbd59970f	-0.053122576
23	0xbd9907ef	-0.07472216
24	0xbd0070a9	-0.03135744
25	0xbe08c4c8	-0.13356316
26	0xbd970209	-0.07373435
27	0xbd543d30	-0.051816165
28	0x3e825cba	0.2546137
29	0x3d33d9c9	0.043908868
30	0xbcaa79a4	-0.020809956
31	0xbd80d228	-0.06290084
32	0x3c9a90df	0.018867908
33	0xbcb4b43b	-0.022058597
34	0xbd508fbe	-0.050918333
35	0xbd11a6aa	-0.035559334
36	0xbd84d9ae	-0.064868316
37	0xbd1d1515	-0.038350184
38	0xbdd9e81d	-0.10639975
39	0xbdfc0832	-0.12306251
40	0xbd2f07ba	-0.042731978
41	0x397866af	0.00023689376
42	0xbcd1765b	-0.025569132
43	0xbd5793ec	-0.052631304
44	0xbe1835ce	-0.14864275
45	0xbdcbf1cc	-0.099582285
46	0x3a4e4c26	0.00078696234
47	0xbcec9e2e	-0.02888402
48	0xbdc17ff1	-0.09448231
49	0xbe015ee5	-0.12633856
50	0xbceb39b6	-0.028714042
51	0xbdab26e5	-0.08357028
52	0xbe033961	-0.12814857
53	0xbe129056	-0.14312872
54	0xbcf76e6c	-0.03020402
55	0xbd9404cb	-0.07227477
56	0xbd7e0b0d	-0.062022258
57	0x3bc94a09	0.006142859
58	0x3b6cf2d4	0.003615548
59	0xbce00030	-0.02734384
60	0xbda617ef	-0.08110034
61	0xbe256d61	-0.16155006
62	0x3d14732a	0.03624264
63	0xbc84dda5	-0.01621897
64	0xbd3b0a93	-0.04566438
65	0xbe3d70ca	-0.18500057
66	0xbd79badf	-0.06096923
67	0xbdb117c1	-0.08647109
68	0x3d58f95b	0.05297218
69	0x3c82475e	0.015903171
70	0xbd9ac90d	-0.07557879
71	0x3cc5a3ea	0.024126012
72	0x3d87bc54	0.066277176
73	0xbdd82ecb	-0.105558
74	0xbce84352	-0.028352413
75	0xbe17cff7	-0.14825426
76	0xbd715654	-0.05892022
77	0xbd16b2b5	-0.036791522
78	0x3d65f042	0.05613733
79	0xbdb11318	-0.0864622
80	0xbd90daf2	-0.070730105
81	0xbc1c8c56	-0.009554943
82	0xbcf12d00	-0.029440403
83	0x3ea5d57d	0.3238944
84	0xbd661a0e	-0.05617719
85	0xbd6b8b1c	-0.057505712
86	0xbe20f5b4	-0.15718728
87	0xbd403b77	-0.04693171
88	0xbcd712e7	-0.02625413
89	0xbd403759	-0.046927784
90	0xbcbd5dbe	-0.023115989
91	0xbda7c685	-0.081921615
92	0xbd66e8ca	-0.05637435
93	0x3b63f646	0.0034784242
94	0xbdaa648f	-0.08319961
95	0x3ddaa852	0.10676636
96	0xbe351986	-0.17685518
97	0x3c444c75	0.011981119
98	0x3a5962da	0.0008292623
99	0x3aeba694	0.0017978721
100	0xbe00c90c	-0.12576693
101	0xbe260c30	-0.16215587
102	0xbc4a9cce	-0.012366487
103	0x3d5628e0	0.052285075
104	0xbde8a569	-0.113596745
105	0x3d4320b9	0.04763863
106	0xbd46dda1	-0.048551206
107	0xbdb78adf	-0.089620344
108	0xbd4028cb	-0.046913903
109	0xbd59260c	-0.0530148
110	0xbd7db76f	-0.061942514
111	0xbb1f5c1b	-0.0024316374
112	0xbc9a63e1	-0.018846454
113	0x3bebbe37	0.0071943062
114	0xbd8b5823	-0.0680392
115	0xbd957a0a	-0.07298668
116	0xbdd2bd2b	-0.10289987
117	0xbddd1bac	-0.107962936
118	0xbc65b825	-0.014020954
119	0xbda5b8d8	-0.08091897
120	0xbd1c407b	-0.03814743
121	0xbdcb70d2	-0.09933628
122	0xbceed169	-0.029152589
123	0x3ade8648	0.0016977275
124	0xbb8337de	-0.0040044626
125	0xbd2d7db1	-0.042356197
126	0x3d495907	0.04915717
127	0xbe3a56c7	-0.18197165
128	0xbe028e78	-0.1274966
129	0x3cbb6b8e	0.022878435
130	0xbc8e85a4	-0.01739771
131	0xbd478f99	-0.04872093
132	0x3deddf0b	0.11614808
133	0x3da5447e	0.080697045
134	0xbd892252	-0.06695999
135	0xbce2c29d	-0.02768069
136	0xbdf632a6	-0.12021379
137	0xbc864615	-0.01639084
138	0xbde1d474	-0.1102685
139	0x3c1c9899	0.0095578665
140	0xbd778921	-0.06043351
141	0xbe01e457	-0.12684761
142	0xbd675df1	-0.056486074
143	0xbd09bb73	-0.03362603
144	0xbdcc17f7	-0.099655084
145	0xbdc279a7	-0.094958596
146	0x3d6a547d	0.05720948
147	0xbd80bd4d	-0.06286106
148	0x3d50d1e5	0.05098142
149	0xbd393aec	-0.045222208
150	0x3c404a70	0.011736497
151	0xbd8a5ba4	-0.0675576
152	0xbce78f59	-0.028266596
153	0xbd42afd3	-0.04753096
154	0xbbe6da4f	-0.0070450674
155	0xbd22eeca	-0.03977851
156	0xbd6e5ced	-0.05819409
157	0xbe1f234f	-0.15540813
158	0xbce48f3a	-0.027900327
159	0x3d9cd017	0.076568775
160	0xbdb9116f	-0.09036528
161	0xbdaf39d6	-0.08555953
162	0xbd709d4c	-0.05874376
163	0xbe205f85	-0.15661438
164	0xbc9eee4c	-0.019400738
165	0xbcf03846	-0.029323708
166	0xbda9163c	-0.08256194
167	0xbd6f2d48	-0.058392793
168	0xbd2cbeaf	-0.042174038
169	0x3c9e5579	0.019327866
170	0xbda50677	-0.08057874
171	0xbc131a32	-0.008978413
172	0xbc9625a2	-0.018328492
173	0xbd2bd23e	-0.04194855
174	0x3d3be013	0.04586799
175	0xbd09b22b	-0.03361718
176	0xbd1714a2	-0.03688491
177	0x3bd548a6	0.0065089045
178	0xbdfe96d4	-0.12431112
179	0x3c8fcbc0	0.01755321
180	0xbe03b55b	-0.1286215
181	0xbdbe4a4c	-0.09291515
182	0xbd274f42	-0.04084707
183	0xbcf53f68	-0.029937461
184	0xbdac1e7c	-0.08404252
185	0xbcbf4237	-0.023347003
186	0xbd22ca3d	-0.03974365
187	0xbce3f186	-0.027825128
188	0xbcb4c929	-0.022068577
189	0xbd5be5d5	-0.05368598
190	0x3de248b3	0.110490225
191	0xbe19b93a	-0.15012065
192	0xbdda914a	-0.10672243
193	0xbd692f8f	-0.05693012
194	0xbccf157c	-0.0252788
195	0xbd7942f3	-0.060854863
196	0xbd26ed91	-0.040753905
197	0x3cbc1fc6	0.02296437
198	0xbdce560e	-0.100750074
199	0xbd516c30	-0.051128566
200	0xbd0d037e	-0.03442716
201	0xbd9d5e89	-0.07684047
202	0xbd793030	-0.06083697
203	0xbe3d832a	-0.18507066
204	0xbd9a0626	-0.07520704
205	0xbcfb3dfb	-0.030669203
206	0xbcb5aa45	-0.022175917
207	0xbd56f20c	-0.052476928
208	0xbba13755	-0.004919926
209	0x3ba7e98a	0.0051242756
210	0xbbd51df1	-0.0065038134
211	0x3c6551f2	0.013996588
212	0xbd40c887	-0.047066238
213	0xbcb80c84	-0.022466905
214	0x3d148472	0.036259122
215	0xbcb1daf4	-0.02171085
216	0x3d44a4a8	0.04800859
217	0xbe02e65a	-0.12783185
218	0xbd856d7c	-0.06515023
219	0x3b825f20	0.003978625
220	0x3afb2ad1	0.001916254
221	0xbc708a67	-0.014681435
222	0x3db74588	0.08948809
223	0xbdd1ded3	-0.102475785
224	0xbcbf3f10	-0.0233455
225	0xbd3c80f6	-0.046021424
226	0xbdc0d70b	-0.09416016
227	0x3d0f52a2	0.034990914
228	0xbda4bf1b	-0.08044263
229	0xbd05e66a	-0.032690443
230	0xbd9dd722	-0.07707049
231	0xbdaef59c	-0.0854294
232	0xbdd189f0	-0.102313876
233	0xbbbcb493	-0.005758831
234	0xbc3313c0	-0.010930002
235	0x3b831642	0.004000456
236	0xbb4cd761	-0.0031256306
237	0xbdc91ae3	-0.09819581
238	0xbbe58c25	-0.007005232
239	0xbdb90437	-0.09034007
240	0xbcb7a25d	-0.022416288
241	0xbda9733b	-0.082739316
242	0xbde75ea7	-0.112973504
243	0xbd8b45fd	-0.068004586
244	0xbd7f624b	-0.0623496
245	0xbe1049c4	-0.1409064
246	0x3d700f5b	0.058608394
247	0xbcd69208	-0.02619268
248	0xbd8fccb0	-0.07021463
249	0xbe1f0b0e	-0.15531561
250	0xbddd2cfe	-0.10799597
251	0xbbff6153	-0.0077935844
252	0xbde747be	-0.112929806
253	0xbd2a7070	-0.041611135
254	0x3d0cc68a	0.03436903
255	0xbd9881e4	-0.0744665
