Assets/Model/AttackMode0523.onnx (onnx, 78157 bytes, 9 tensors)

action_model._continuous_distribution.log_sigma f4 [1, 2]
0.033002477 0.07672489
00000000: 9b2d 073d f021 9d3d

action_model._continuous_distribution.mu.bias f4 [2]
0.00040965795 0.0067282203
00000000: 5cc7 d639 6778 dc3b

action_model._continuous_distribution.mu.weight f4 [2, 128]
-0.03413208 -0.0068531255 -0.0062502166 -0.024668792 -0.028592492 0.015379342 0.020191958 -0.009154637
0.006198724 -0.037983485 -0.035501152 -0.041151285 -0.00011562473 -0.0066394657 0.016782666 -0.0008429105
-0.007601851 -0.022186385 9.909261e-05 0.015699409 -0.0010769692 0.014220515 -0.012581933 0.008003714
-0.03980182 0.038498 -0.01336082 -0.0069872574 -0.020738395 -0.0068394896 -0.010298062 0.012608626
0.009970879 0.023913963 0.041727547 -0.0081183985 0.004990724 -0.019684393 -0.0011917534 -0.014991587
-0.011937953 -0.0028690395 -0.002218727 -0.033513606 0.013511139 -0.015576284 0.011261603 -0.018528888
-0.011978611 -0.018565366 -0.007865425 0.020469103 -0.0035694453 0.014179637 -0.001426467 -0.0017271962
-0.028858695 0.02039277 -0.00027060715 -0.01116361 -0.015346933 -0.02263712 -0.022102067 -0.012348175
-0.0088897515 -0.0032691339 0.007116536 -0.011793207 -0.016821353 0.031387474 0.008703369 -0.020254213
-0.026199356 -0.0010184133 -0.022470135 0.0024907885 -0.025073506 0.004913457 -0.009669352 0.016141172
0.01878262 -0.017800642 0.012464212 0.0007716854 -0.021612536 -0.04005618 0.013411242 0.0010814165
-0.007808549 0.020439137 0.0052709384 -0.0021069925 0.018173467 0.022158796 0.012564629 0.018790726
0.003023803 0.026300201 0.0010735933 0.035549603 0.032997202 0.0019634594 0.029863285 -0.023664102
-0.001942118 -0.0019101332 0.0019663589 0.017095568 0.027112208 0.0042133615 -0.00067930325 -0.02122867
0.017354988 -0.025748393 -0.011072958 -0.009996818 0.009009337 -0.0024360258 0.024167834 -0.0075603174
-0.019088028 0.010905191 0.01845813 0.03766252 -0.010364866 -0.018113447 0.006966594 -0.01802473
-0.031105978 0.023947716 -0.014579358 -0.0042660413 0.043049574 0.009925336 0.0069296365 0.029983744
-0.0020589547 0.008969919 0.01000304 0.005488577 0.015053616 0.012802019 -0.026427543 0.009389162
-0.014486393 0.002287627 0.027366884 0.014403091 -0.0034111282 0.0016326866 0.028401462 -0.019418456
0.019793186 -0.008664094 -0.008647454 -0.023801506 0.005948014 6.4523156e-05 -0.0008841293 0.05447548
-0.0007157837 -0.05421394 -0.031405084 -0.037568465 0.009223321 -0.0077870176 -0.024532776 -0.019310169
0.0027672697 0.00020832094 -0.023072582 0.0048172725 0.03406674 0.01565095 0.008168353 0.008744136
0.0207166 -0.017704498 0.018883752 0.0064708213 -0.039210573 0.0059718257 0.012897493 0.0064566247
-0.004170152 0.013102937 0.029799249 -0.05995624 0.040893637 0.0005730466 -0.028870568 0.00972195
0.003857301 0.0134033905 -0.023451526 -0.0053270916 0.021017121 0.012806008 0.020267667 0.004880039
-0.040883787 0.004881499 -0.017996805 -0.003381502 -0.02055509 -0.0062098796 0.015069114 -0.019285947
0.0016149826 0.0059148264 0.016896505 0.02987819 0.0073864274 -0.02047192 0.027235232 -0.002499513
0.01947035 -0.022854397 -0.014048894 -0.037009522 -0.008202315 -0.00976971 0.019065328 0.012265473
-0.0406418 -0.0048710993 -0.007348568 -0.0076013585 0.0052737417 0.006144837 0.029609708 -0.0117989695
0.008025764 -0.0050751287 0.019275455 0.0009745815 -0.00377951 -0.0067265504 -0.008386193 0.0065365564
0.021631844 0.0023927125 0.013367059 0.007903161 0.024997296 -0.02165446 0.018341344 0.00033319794
-0.00696616 0.022043537 -0.0069333958 -0.0009054146 0.013842291 0.00040095934 -0.028389165 -0.025017947
00000000: 14ce 0bbd 2f90 e0bb 9ece ccbb 3516 cabc
00000010: cd3a eabc a3f9 7b3c 9b69 a53c 55fd 15bc
00000020: aa1e cb3b 9294 1bbd a869 11bd 408e 28bd
00000030: 8e7b f2b8 e08f d9bb cd7b 893c c4f6 5cba
00000040: f318 f9bb 39c0 b5bc f1cf cf38 0c9c 803c
00000050: 1729 8dba 2afd 683c 7424 4ebc 0222 033c
00000060: 3c07 23bd 14b0 1d3d 57e7 5abc 5df5 e4bb
00000070: 91e3 a9bc cc1d e0bb 34b9 28bc 6994 4e3c
00000080: e65c 233c 37e7 c33c 81ea 2a3d 0803 05bc
00000090: 3a89 a33b 2a41 a1bc 9c34 9cba 469f 75bc
000000a0: 6797 43bc 7f06 3cbb 1068 11bb 9045 09bd
000000b0: d35d 5d3c ac33 7fbc 9682 383c e5c9 97bc
000000c0: f041 44bc 6516 98bc fcdd 00bc d2ae a73c
000000d0: 5bed 69bb b551 683c 4af8 baba 1663 e2ba
000000e0: 1269 ecbc bd0e a73c 47e0 8db9 93e7 36bc
000000f0: b471 7bbc 7b71 b9bc 650f b5bc 0050 4abc
00000100: 52a6 11bc f73e 56bb d531 e93b 4c38 41bc
00000110: efcc 89bc 2790 003d 9398 0e3c 2aec a5bc
00000120: 08a0 d6bc 487c 85ba 4a13 b8bc 7f3c 233b
00000130: f466 cdbc 1101 a13b 346c 1ebc 7e3a 843c
00000140: 02de 993c a7d2 91bc b236 4c3c ee4a 4a3a
00000150: c60c b1bc f311 24bd d3ba 5b3c 51be 8d3a
00000160: dbde ffbb fa6f a73c d6b7 ac3b 7815 0abb
00000170: 86e0 943c 5d86 b53c e0db 4d3c 02ef 993c
00000180: ff2a 463b 8573 d73c d0b7 8c3a 769c 113d
00000190: 1328 073d 62ad 003b d9a3 f43c 38db c1bc
000001a0: ab8e feba 6f5d faba 07de 003b 010c 8c3c
000001b0: 6c1a de3c 3d10 8a3b 4513 32ba bfe7 adbc
000001c0: 0c2c 8e3c 4bee d2bc 5a6b 35bc b2c9 23bc
000001d0: e69b 133c bba5 1fbb 9ffb c53c 8abc f7bb
000001e0: 7f5e 9cbc b0ab 323c 8135 973c 0444 1a3d
000001f0: 66d1 29bc a762 94bc 0748 e43b 99a8 93bc
00000200: f7d1 febc 002e c43c 42de 6ebc 26ca 8bbb
00000210: c054 303d e09d 223c 0112 e33b 78a0 f53c
00000220: 87ef 06bb 91f6 123c cae3 233c 85d9 b33b
00000230: 71a3 763c 8fbf 513c 937e d8bc 00d5 193c
00000240: 5658 6dbc 03ec 153b 8430 e03c f1fa 6b3c
00000250: 3c8d 5fbb dfff d53a 2faa e83c 7413 9fbc
00000260: 5225 a23c d8f3 0dbc 0dae 0dbc 60fb c2bc
00000270: 8fe7 c23b 9b50 8738 eac4 67ba ae21 5f3d
00000280: 6ea3 3bba 700f 5ebd 9ea2 00bd 64e1 19bd
00000290: 6a1d 173c 3d2a ffbb f6f8 c8bc 5c30 9ebc
000002a0: 155b 353b ba70 5a39 b602 bdbc 36da 9d3b
000002b0: 9189 0b3d 6c36 803c 8ed4 053c 9143 0f3c
000002c0: dcb5 a93c 0609 91bc 19b2 9a3c 2f09 d43b
000002d0: 449b 20bd 4eaf c33b 0250 533c 1892 d33b
000002e0: c5a5 88bb b3ad 563c 8e1d f43c ad94 75bd
000002f0: 1680 273d 8238 163a f881 ecbc d048 1f3c
00000300: c6ca 7c3b e599 5b3c 6a1d c0bc e28e aebb
00000310: 192c ac3c 4ad0 513c 6108 a63c bce8 9f3b
00000320: c275 27bd fbf4 9f3b 096e 93bc 319c 5dbb
00000330: 2663 a8bc 3f7c cbbb 72e4 763c 90fd 9dbc
00000340: d3ad d33a 29d1 c13b 8a6a 8a3c 1bc3 f43c
00000350: d809 f23b bab4 a7bc 6c1c df3c dfce 23bb
00000360: 4980 9f3c 2539 bbbc 552d 66bc 4c97 17bd
00000370: 0163 06bc 2211 20bc e42e 9c3c 1ff5 483c
00000380: 0478 26bd be9d 9fbb 42cc f0bb d114 f9bb
00000390: 5acf ac3b a15a c93b 0f90 f23c 7750 41bc
000003a0: 7e7e 033c 444d a6bb 8fe7 9d3c 0f7b 7f3a
000003b0: a8b1 77bb 656a dcbb 3e66 09bc 9c30 d63b
000003c0: 4435 b13c 0ecf 1c3b 8201 5b3c 437c 013c
000003d0: 21c7 cc3c b264 b1bc 9640 963c 12b1 ae39
000003e0: 6344 e4bb a694 b43c 8a31 e3bb 5859 6dba
000003f0: c7ca 623c da37 d239 6590 e8bc 70f2 ccbc

action_model._discrete_distribution.branches.0.bias f4 [2]
-0.006679363 0.0066793617
00000000: 8fde dabb 8cde da3b

action_model._discrete_distribution.branches.0.weight f4 [2, 128]
0.03007895 -0.0075661233 0.0020000176 -0.0045054746 0.036943596 0.005206715 -0.0040278393 -0.006640866
0.005630409 0.008277029 -0.0037677574 0.012468862 0.0010820884 -0.0073902155 0.015589435 0.007859417
0.003420729 -0.014693708 0.021259045 0.005502505 0.008000838 0.007010302 -0.0031403385 0.005762842
0.0075797 -0.006551718 0.010234043 0.019671705 0.009259889 -0.017683042 9.2851296e-05 -0.03433785
-0.012777728 0.018462043 0.012095244 0.020444317 0.027567074 0.01052339 0.012121542 -0.016388578
0.0023183327 -0.0043663634 -0.008824596 -0.010195295 -0.0035262152 0.013191856 -0.0021943452 0.0086165145
0.011736239 -0.004939479 -0.003873518 -0.0038388157 0.001907918 -0.011435012 0.004207752 0.010688981
-0.0054569915 -0.005441117 -0.009025629 0.0033186562 -0.00052038464 0.0071497485 -0.018378738 -0.017127251
-0.009747987 -0.009078283 -0.007472892 -0.007799788 0.002317695 0.0048272186 -0.006391605 0.00913906
-0.022698274 0.0066078794 -0.022826571 0.022084624 0.019235937 -0.015057849 -0.006014175 0.009251625
0.013274646 -0.002819836 0.010368412 -0.0112912925 0.0025542106 9.240148e-06 -0.0043447507 0.0003476275
0.00064480753 -0.0063919323 -0.000102597034 -0.006342741 -0.011639672 0.016084949 0.0006851895 -0.008914314
0.006057998 -0.0032067287 0.0076903426 0.004462253 0.010855653 0.006263072 0.013875898 -0.0329778
0.00254872 0.0031786896 -0.016284354 -0.034150753 -0.0017480521 -0.010235294 -0.016057024 -0.013373415
-0.001973237 0.0018732819 0.006256575 0.018583994 0.024934981 0.011683859 -0.0075983466 0.0015836362
-0.0012524293 -0.004286409 -0.00875954 0.011422491 -0.012558238 0.009511783 0.0006449849 -0.0017750995
-0.02898542 -0.013350033 0.01447361 0.016257286 -0.010432636 0.013871625 -0.0032344083 0.011602292
-0.0031570725 -0.015934857 -0.0138054015 0.005411893 -0.008552317 -0.004153357 -0.003178916 -0.031111022
0.009439878 -0.014568921 -0.027797636 0.0009313254 0.00087181 0.019307684 -0.012742455 -0.0015520821
0.0011739517 0.004409135 0.00022905738 0.0052113943 0.004172565 0.0025741996 0.015800163 0.0038783206
0.0017239399 -0.023814896 0.005567216 -0.0030950431 -0.024965871 0.0020564918 0.0041991225 0.01904009
-0.011693495 -0.009899899 0.006482987 0.013941945 0.0016072922 0.0014628349 -0.0024775716 -0.0077012284
-0.009984395 -0.009106294 -0.0056681545 -0.019219775 0.0003728905 0.008648148 0.0034901656 0.0007396971
-0.007741835 0.0035758684 0.014725498 -0.011695898 -0.011128601 0.01172526 -0.0021635045 -0.010529832
0.017122457 0.00023813301 -0.004144473 0.0069764354 -0.0084780995 0.0025006863 -0.008937226 -0.008936686
0.018138018 0.0006493759 0.052719958 -0.028958162 -0.021040253 -0.0025041434 -0.008179331 -0.009231079
-0.0025177903 0.013877451 -0.015382356 -0.0004524463 -0.0066365465 -0.0022357085 0.0086270375 0.0017803377
0.0015116311 -0.0023658609 0.0029148082 -0.011725432 0.015846577 -0.021618098 0.009185135 0.00950475
-0.0021748997 0.0042821025 -0.0076709394 -0.008090907 -0.013742511 -0.009216054 -0.017284276 0.01860641
-0.01747735 -0.00034564285 0.008583133 0.054950744 0.00017784904 -0.00043533827 0.029201748 0.00538416
-0.019689836 -0.009790388 0.00095604634 -0.008064536 -0.03151007 -0.0035753427 0.0042197113 0.001343601
0.0055215424 -0.002318417 0.0141162565 0.0137240095 -0.0036373353 -0.0028725343 -0.010169165 0.009727398
00000000: 2168 f63c 3eed f7bb ba12 033b a9a2 93bb
00000010: 2b52 173d 179d aa3b f7fb 83bb 9f9b d9bb
00000020: 4b7f b83b 609c 073c 7bec 76bb 334a 4c3c
00000030: ddd4 8d3a 9f29 f2bb d46a 7f3c c9c4 003c
00000040: 4f2e 603b e1bd 70bc 7327 ae3c 5c4e b43b
00000050: f215 033c adb6 e53b 23ce 4dbb 39d6 bc3b
00000060: 225f f83b cbaf d6bb b0ac 273c 8e26 a13c
00000070: cab6 173c 07dc 90bc 29b9 c238 d8a5 0cbd
00000080: ad59 51bc b63d 973c 212b 463c d77a a73c
00000090: 58d4 e13c 4c6a 2c3c 6f99 463c 5741 86bc
000000a0: 2bef 173b b613 8fbb 0a95 10bc 2b0a 27bc
000000b0: 1318 67bb a822 583c 01cf 0fbb 482c 0d3c
000000c0: 5b49 403c 5adb a1bb d9da 7dbb a494 7bbb
000000d0: 1b13 fa3a eb59 3bbc 2fe1 893b d620 2f3c
000000e0: 90d0 b2bb 664b b2bb 3be0 13bc d07d 593b
000000f0: 6c6a 08ba 7048 ea3b 028f 96bc 734e 8cbc
00000100: 05b6 1fbc 14bd 14bc 29df f4bb 5d95 ffbb
00000110: 78e4 173b a52d 9e3b ab70 d1bb ffbb 153c
00000120: bbf1 b9bc e986 d83b cafe babc d0ea b43c
00000130: af94 9d3c 32b5 76bc 8e12 c5bb 2194 173c
00000140: e77d 593c ffcc 38bb 46e0 293c 1dff 38bc
00000150: 8b64 273b 2206 1b37 695e 8ebb c641 b639
00000160: 4d08 293a 6a73 d1bb 5d29 d7b8 c5d6 cfbb
00000170: 53b4 3ebc 95c4 833c 4a9e 333a 580d 12bc
00000180: 2c82 c63b fb27 52bb 45ff fb3b 1738 923b
00000190: e9db 313c 753a cd3b bc57 633c bb13 07bd
000001a0: 6d08 273b 9051 503b c466 85bc a9e1 0bbd
000001b0: e51e e5ba efb1 27bc 058a 83bc 2b1c 5bbc
000001c0: 6c51 01bb e988 f53a f503 cd3b 763d 983c
000001d0: 7244 cc3c a86d 3f3c 8dfb f8bb 0392 cf3a
000001e0: 8e28 a4ba 0175 8cbb 2c84 0fbc 6625 3b3c
000001f0: 11c1 4dbc 4fd7 1b3c 3414 293a 75aa e8ba
00000200: d572 edbc 19ba 5abc b822 6d3c 002e 853c
00000210: a6ed 2abc d045 633c 5ef8 53bb 8a17 3e3c
00000220: e3e6 4ebb d189 82bc 0d30 62bc 4056 b13b
00000230: 041f 0cbc e218 88bb 5c55 50bb 8bdc febc
00000240: b8a9 1a3c 7cb2 6ebc deb7 e3bc 3124 743a
00000250: 2e8a 643a 262b 9e3c bbc5 50bc 3c6f cbba
00000260: 48df 993a 817a 903b 1f2f 7039 58c4 aa3b
00000270: 03ba 883b e7b3 283b 586f 813c 6c2b 7e3b
00000280: d3f5 e13a 7517 c3bc 316d b63b 35d6 4abb
00000290: 3a85 ccbc 35c6 063b cb98 893b f6f9 9b3c
000002a0: 1396 3fbc 3033 22bc 3d6f d43b c16c 643c
000002b0: c7ab d23a 98bc bf3a c15e 22bb 965a fcbb
000002c0: 9695 23bc 9132 15bc edbb b9bb ca72 9dbc
000002d0: 8480 c339 f6b0 0d3c 43bb 643b 3be8 413a
000002e0: 38af fdbb 1e59 6a3b 3743 713c 27a0 3fbc
000002f0: bc54 36bc 4e1b 403c 95c9 0dbb 5185 2cbc
00000300: 6544 8c3c 58b3 7939 5cce 87bb 959a e43b
00000310: bae7 0abc 8ee2 233b 716d 12bc 2e6b 12bc
00000320: 2e96 943c e13a 2a3a e2f0 573d ab39 edbc
00000330: 9c5c acbc 8e1c 24bb 9a02 06bc f43d 17bc
00000340: 8301 25bb 405e 633c 4706 7cbc 5036 edb9
00000350: 6377 d9bb f784 12bb 6b58 0d3c 385a e93a
00000360: ec21 c63a 8f0c 1bbb 5e06 3f3b 071c 40bc
00000370: aed0 813c 7018 b1bc 407d 163c d0b9 1b3c
00000380: c388 0ebb e150 8c3b 815c fbbb b98f 04bc
00000390: 4528 61bc effe 16bc c197 8dbc 786c 983c
000003a0: a92c 8fbc 6637 b5b9 45a0 0c3c 0814 613d
000003b0: fd7c 3a39 1d3e e4b9 8138 ef3c 9c6d b03b
000003c0: 944c a1bc dd67 20bc 2f9f 7a3a 1e21 04bc
000003d0: b410 01bd 4c50 6abb 8145 8a3b c51b b03a
000003e0: 0eee b43b 95f0 17bb df47 673c abda 603c
000003f0: 5c60 6ebb 2141 3cbb 929c 26bc aa5f 1f3c

network_body._body_endoder.seq_layers.0.bias f4 [128]
-0.0044440427 0.00094690046 0.000879503 -0.0042043426 -0.0068764025 0.010089626 -0.0038120819 0.008566487
-0.0027096174 -0.014124112 -0.00032952437 -0.014421439 0.012585588 0.008001673 -0.0039743055 0.002634154
-0.011317724 0.002039877 -0.0027216694 0.0090062935 0.008383069 0.009550566 0.001428801 -0.007240479
0.0022708953 0.00843932 0.0009708547 0.07238024 -0.0072559603 0.004542857 -0.011759968 -0.015226017
-0.00958928 -0.010023561 0.012288109 -0.011591478 -0.003418584 -0.01202784 -0.009106438 -0.009249604
-0.0028795556 -0.00091281446 -0.004527044 0.004328354 0.014912487 -0.016677154 -0.0072676213 -0.004946856
0.0039670714 0.015895385 0.0041651255 0.00038658475 -0.006842562 -0.00039416683 -0.008950716 -0.004804167
0.008799554 0.0024610795 0.005578491 -0.010648788 0.0038561479 0.009258369 0.0025686135 0.0018132488
0.004960139 -0.0012331752 0.00053686433 -0.015963456 -0.006542989 -0.002563598 0.008222519 0.0024375909
-0.0022367532 0.002987438 -0.014160945 -0.007858084 -0.0015640685 0.0014482912 -0.0015395309 0.045225218
0.0037712457 -0.0075181085 0.030615743 -0.0013252344 -0.0054153283 0.0043891715 0.004936983 -0.0033029814
-0.006446396 -0.002087769 -0.010145609 -0.0053993673 0.05226696 0.0056786663 -0.026225854 -0.0042032064
0.0020807313 0.0019759887 0.0012548729 -0.0089446595 -0.002340546 0.0077900323 -0.004666771 -0.0042651636
-0.0035927389 -0.0020924672 -0.0016378684 -0.014031081 0.0033970273 -0.00436043 -0.012502775 0.009528813
-0.0015775635 -0.007274589 -0.010006996 -0.006132722 -0.0041250293 0.029030154 -0.023075553 0.016410913
-0.008352971 -0.0023136807 0.008184848 -0.01113104 -0.0074835774 -0.015992802 0.0039420333 0.0011453457
00000000: 559f 91bb 6a39 783a 728e 663a 95c4 89bb
00000010: 7253 e1bb f54e 253c 1fd4 79bb 735a 0c3c
00000020: d693 31bb d268 67bc 03c4 acb9 e647 6cbc
00000030: c833 4e3c 7319 033c e43a 82bb c5a1 2c3b
00000040: fa6d 39bc 75af 053b 095e 32bb 228f 133c
00000050: 2459 093c fa79 1c3c 9b46 bb3a 8a41 edbb
00000060: 4dd3 143b 1345 0a3c f580 7e3a 173c 943d
00000070: 68c3 edbb 3fdc 943b e1ac 40bc 8b76 79bc
00000080: 5b1c 1dbc dd39 24bc 1154 493c 2fea 3dbc
00000090: 520a 60bb 6b10 45bc 2b33 15bc a78b 17bc
000000a0: edb6 3cbb f149 6fba 9957 94bb ddd4 8d3b
000000b0: 8153 743c 879e 88bc 3a25 eebb 3c19 a2bb
000000c0: 35fe 813b 0a37 823c 9b7b 883b 87ae ca39
000000d0: 9237 e0bb 2da8 ceb9 06a6 12bc 466c 9dbb
000000e0: 012c 103c 104a 213b c6cb b63b 4178 2ebc
000000f0: 6db7 7c3b 6ab0 173c 2f56 283b 89aa ed3a
00000100: a988 a23b 7ea2 a1ba 5bbc 0c3a cbc5 82bc
00000110: 9266 d6bb 0a02 28bb bfb7 063c fdbf 1f3b
00000120: 7e96 12bb e5c8 433b 4f03 68bc 31bf 00bc
00000130: 6e01 cdba 97d4 bd3a 16ca c9ba 143e 393d
00000140: 0127 773b 775a f6bb decd fa3c 7db3 adba
00000150: 1173 b1bb 0ad3 8f3b 6ac6 a13b d576 58bb
00000160: 4a3c d3bb f4d2 08bb c539 26bc 2ded b0bb
00000170: e115 563d 1b14 ba3b 9ad7 d6bc 0dbb 89bb
00000180: e15c 083b 977f 013b 8c7a a43a 9f8c 12bc
00000190: d963 19bb 8743 ff3b b6eb 98bb c9c2 8bbb
000001a0: 2874 6bbb c621 09bb bead d6ba 9fe2 65bc
000001b0: a9a0 5e3b f0e1 8ebb 70d8 4cbc bd1e 1c3c
000001c0: 3fc6 ceba ad5f eebb 62f4 23bc 00f5 c8bb
000001d0: 412b 87bb a5d0 ed3c f108 bdbc 2e70 863c
000001e0: e6da 08bc 1fa1 17bb be19 063c f75e 36bc
000001f0: cc38 f5bb 5603 83bc 2c2c 813b 6d1f 963a

network_body._body_endoder.seq_layers.0.weight f4 [128, 13]
0.09771154 -0.33309212 -0.17629918 0.06359889 0.45164752 0.26575485 0.016786434 -0.09433892
0.03258119 -0.049948037 -0.49721405 -0.2534103 -0.24011657 -0.24955489 -0.15464677 0.05073046
0.15458085 0.22477065 -0.030531298 0.2548736 -0.21102543 -0.20664287 0.094781324 -0.055464678
0.25728545 -0.3236939 0.12492768 -0.30692238 -0.13587022 0.23563726 0.6812443 -0.02076115
0.056983095 -0.45091832 -0.23758715 -0.44810385 -0.04886735 -0.14563829 0.0865159 -0.008886374
-0.20341848 -0.0016112217 0.04441222 -0.035678685 0.020210702 0.49966618 -0.24668142 -0.3102691
-0.12977491 0.1981862 -0.2881902 0.20330995 -0.30144262 0.020376375 -0.16990644 0.24479006
-0.0971756 -0.29384914 -0.23249008 -0.047115956 0.4299412 0.29895675 0.35092548 0.21466032
0.24537145 -0.04821753 0.14360555 0.13791089 -0.17999688 0.04064915 0.4153342 0.12755159
-0.01269325 -0.20341338 -0.43551153 -0.42367673 0.7224955 0.078456596 -0.09671785 -0.36685842
0.09872599 0.10429039 0.011992567 0.02554236 -0.18839708 0.09139984 -0.42773098 0.82950133
0.3185044 0.46541247 0.20173822 0.46277645 0.35416928 -0.08952985 0.15268785 0.51218104
0.055076588 -0.319851 0.587417 -0.19990931 -0.15071326 -0.02282879 -0.0030076616 -0.38738748
-0.08237247 -0.25124714 0.18656778 -0.37814265 0.13838793 -0.12478122 -0.1335112 -0.10050699
0.44332018 -0.05660171 -0.014718636 -0.08766751 -0.08216538 0.5356519 -0.4987885 0.07360836
-0.050947655 -0.081263825 0.33868614 0.45045918 -0.08044599 -0.038416315 -0.3020777 -0.00047990883
0.09038313 -0.3277629 0.08307634 0.25431642 0.039772447 -0.046543334 -0.5380874 0.22625463
-0.24549736 -0.42417198 0.10083678 -0.22116756 0.11948498 -0.14846143 -0.4718958 0.23084249
-0.021534178 -0.1272456 -0.13688247 0.19893119 0.096021935 -0.17697874 -0.1538717 -0.19136095
-0.20600204 -0.2174998 0.14354768 0.33025637 0.6353843 -0.07675494 -0.2934723 -0.102951355
0.39286923 0.180783 0.16322531 -0.16684712 -0.19983779 0.2220357 0.3422532 -0.08497057
0.51604676 -0.15872982 0.23765177 0.4070218 0.31576693 -0.062485836 -0.30165744 -0.030688124
-0.1716669 -0.14734961 0.43727827 -0.09611643 0.6501366 -0.06304768 -0.2035527 0.018804008
0.06988234 0.10195974 -0.36011973 0.5055673 -0.12630196 0.00026181978 0.3524508 -0.07384196
-0.0019230609 0.023917636 0.27089143 0.6941535 -0.25373477 0.08033666 -0.3751494 0.09103561
0.019739736 0.16012602 -0.011728396 0.214915 0.14762442 0.12680092 0.147673 -0.033851113
-0.14604272 0.0015724226 0.1500631 0.31895864 -0.23077239 -0.33562925 0.14627175 0.10915469
0.41031793 -0.042022977 -0.15520605 0.20917198 0.21384628 -0.23674959 -0.6078083 -0.091893196
-0.18291737 -0.1292501 -0.14820583 0.24845825 0.07051213 -0.08035689 0.20825145 -0.38112003
0.14794342 -0.11452072 -0.13155283 -0.33106673 0.1163971 0.67039776 -0.020169903 -0.04730766
-0.4857831 -0.30846396 0.22356835 -0.21671593 -0.53868407 0.030387443 -0.10632954 -0.08208123
-0.14705206 0.26987252 0.5120978 -0.009674626 0.44367915 -0.12308118 -0.16670488 -0.2604475
00000000: fd1c c83d 0d8b aabe c687 34be 2340 823d
00000010: 583e e73e 0511 883e b483 893c c434 c1bd
00000020: db73 053d 5096 4cbd d792 febe ffbe 81be
00000030: 1ee1 75be 518b 7fbe b95b 1ebe beca 4f3d
00000040: 714a 1e3e 472a 663e c61c fabc cb7e 823e
00000050: 0d17 58be 309a 53be b61c c23d ee2e 63bd
00000060: ebba 833e 35bb a5be 15da ff3d ee24 9dbe
00000070: 9021 0bbe e54a 713e 0766 2e3f 4a13 aabc
00000080: 1b67 693d c4de e6be 0c4a 73be de6d e5be
00000090: 2129 48bd 3422 15be 402f b13d 2798 11bc
000000a0: ef4c 50be a12f d3ba 97e9 353d d023 12bd
000000b0: ea90 a53c 3fd4 ff3e 0e9a 7cbe 97db 9ebe
000000c0: b7e3 04be 53f1 4a3e aa8d 93be 7c30 503e
000000d0: b056 9abe 5bec a63c f4fb 2dbe 3faa 7a3e
000000e0: 0004 c7bd 6573 96be e111 6ebe a9fc 40bd
000000f0: 4121 dc3e dc10 993e 81ac b33e eacf 5b3e
00000100: a742 7b3e bf7f 45bd 550d 133e 8338 0d3e
00000110: 1a51 38be b97f 263d afa6 d43e e29c 023e
00000120: 59f7 4fbc 994b 50be 5efb debe 28ec d8be
00000130: 77f5 383f daad a03d 0214 c6bd ded4 bbbe
00000140: da30 ca3d 3396 d53d 797c 443c 363e d13c
00000150: 2aeb 40be d72f bb3d 8eff dabe 335a 543f
00000160: 0213 a33e 8b4a ee3e 7794 4e3e 09f1 ec3e
00000170: ad55 b53e 6d5b b7bd 345a 1c3e 4c1e 033f
00000180: fd97 613d 83c3 a3be f660 163f 07b5 4cbe
00000190: 9454 1abe 7103 bbbc 301c 45bb a757 c6be
000001a0: e6b2 a8bd 77a3 80be a00b 3f3e ea9b c1be
000001b0: 91b5 0d3e 4c8d ffbd 29b7 08be 9cd6 cdbd
000001c0: ddfa e23e 32d7 67bd 6f26 71bc 068b b3bd
000001d0: 5346 a8bd 7c20 093f 3561 ffbe fbbf 963d
000001e0: 7dae 50bd a66d a6bd 4568 ad3e 96a2 e63e
000001f0: dec0 a4bd 6d5a 1dbd eea9 9abe 469c fbb9
00000200: ca1a b93d 8ad0 a7be ee23 aa3d c335 823e
00000210: 6fe8 223d 39a4 3ebd 19c0 09bf 4baf 673e
00000220: a963 7bbe 122d d9be 8483 ce3d c079 62be
00000230: 8bb4 f43d 4606 18be 549c f1be f961 6c3e
00000240: 7268 b0bc ac4c 02be eb2a 0cbe 9eb4 4b3e
00000250: 26a7 c43d ea39 35be 8b90 1dbe 20f4 43be
00000260: 33f2 52be 44b8 5ebe 2afe 123e 5d17 a93e
00000270: 8ca8 223f b231 9dbd 0042 96be 29d8 d2bd
00000280: 2826 c93e 2e1f 393e 8924 273e f9d9 2abe
00000290: 47a2 4cbe 545d 633e d03b af3e 0d05 aebd
000002a0: a41b 043f 128a 22be fc5a 733e 2965 d03e
000002b0: 34ac a13e 26f1 7fbd d872 9abe a965 fbbc
000002c0: 73c9 2fbe d1e2 16be f0e2 df3e b1d8 c4bd
000002d0: 5a6f 263f 241f 81bd 1e70 50be dd0a 9a3c
000002e0: 791e 8f3d 45d0 d03d 9d61 b8be dc6c 013f
000002f0: 4d55 01be db44 8939 6e74 b43e 743a 97bd
00000300: 370f fcba ebee c33c 48b2 8a3e 0bb4 313f
00000310: 86e9 81be 8c87 a43d 9513 c0be e170 ba3d
00000320: 3ab5 a13c 13f8 233e 7528 40bc ae12 5c3e
00000330: db2a 173e 1ad8 013e 9737 173e 77a7 0abd
00000340: 398c 15be bf19 ce3a 24aa 193e 8c4e a33e
00000350: 994f 6cbe 99d7 abbe 43c8 153e 7e8c df3d
00000360: 3115 d23e 4920 2cbd 56ee 1ebe 2e31 563e
00000370: 85fa 5a3e 7c6e 72be 5399 1bbf 8032 bcbd
00000380: b14e 3bbe 235a 04be 45c3 17be d76b 7e3e
00000390: aa68 903d 2792 a4bd de3f 553e 2a22 c3be
000003a0: 7b7e 173e d789 eabd c9b5 06be 9481 a9be
000003b0: 9a61 ee3d 309f 2b3f 5a3b a5bc adc5 41bd
000003c0: 90b8 f8be fdee 9dbe 1aef 643e c8ea 5dbe
000003d0: 33e7 09bf 16ef f83c 4dc3 d9bd 341a a8bd
000003e0: d194 16be bb2c 8a3e d718 033f 5382 1ebc
000003f0: ea29 e33e fc11 fcbd afb4 2abe 6059 85be

network_body._body_endoder.seq_layers.2.bias f4 [128]
-0.00852523 0.0051648547 -0.0067974967 -0.002197036 0.034551553 0.0064797685 0.0023706567 0.01811547
-0.009632362 0.018459203 0.025832579 -0.0029919657 0.0044010025 0.007830398 -0.0059447815 0.003416938
0.0021341206 -0.0029911622 0.014340144 0.0045084236 -0.015165663 0.0011378924 -0.002684575 -0.007421043
0.03872094 -0.00087272614 -0.004450151 0.0006868106 0.012917624 0.0004836342 -0.0019635882 0.024601648
0.0006924001 -0.012082679 -0.0035108493 -0.022112291 -0.0054011093 -0.007577425 -0.014081748 -0.0072512985
-0.006158361 -0.0033549329 -0.014665886 0.00022328818 0.005495062 -0.0031094884 0.00478009 0.0008740967
-0.006078863 -0.0010586422 -0.0017441815 0.0015888965 -0.0033237687 0.006280218 0.004969279 0.00096145365
0.018144915 0.004022605 0.025736384 -0.011212968 0.011092945 -0.0022348831 -0.0063069537 0.0070533045
0.002244775 0.005120625 -0.0066246274 -0.00515089 0.0070104054 0.0022549864 0.0053412756 -0.001847246
-0.013951637 0.0039637336 0.010941777 -0.009963465 0.012121287 0.0007843584 0.003921401 -0.0053408328
-3.833272e-05 0.0011466009 0.009475568 0.011063727 0.0006479405 -0.004090548 0.008124522 -0.009694684
0.00853979 0.0015200252 -0.011526897 -0.006688738 0.0030048755 -0.021265304 0.004182661 0.0032044938
-0.00023006032 -0.0012711915 -0.020392165 -0.0013988 -0.006706965 0.0037368957 0.003685315 -0.0053078234
0.0028880332 -0.011217347 0.010274041 0.0040630037 -0.0007700043 -0.0069645415 -0.013613165 0.014530682
0.01536755 -0.0015820104 0.0031280902 0.0002537128 -0.01868146 -0.008006755 0.0045279698 -0.0027465695
-0.003564397 0.0080853095 0.020522475 0.0026456276 0.005879432 -0.0018297983 -0.011651494 0.005295222
00000000: 68ad 0bbc f13d a93b 89bd debb 26fc 0fbb
00000010: ee85 0d3d 3d54 d43b 055d 1b3b e566 943c
00000020: 0ed1 1dbc c137 973c d89e d33c db14 44bb
00000030: 4936 903b 124b 003c 71cc c2bb b5ee 5f3b
00000040: 9adc 0b3b 6007 44bb ecf2 6a3c 66bb 933b
00000050: 6779 78bc 5525 953a b2ef 2fbb 382c f3bb
00000060: d999 1e3d a9c7 64ba 93d2 91bb 140b 343a
00000070: 71a4 533c 4990 fd39 8baf 00bb 6589 c93c
00000080: 2f82 353a 6ef6 45bc 4716 66bb d624 b5bc
00000090: cafb b0bb 0c4c f8bb 22b7 66bc 4d9c edbb
000000a0: 14cc c9bb 6fde 5bbb 2f49 70bc 7722 6a39
000000b0: ec0f b43b 8fc8 4bbb 4da2 9c3b a323 653a
000000c0: 3331 c7bb 23c2 8aba 059d e4ba 8542 d03a
000000d0: 96d3 59bb 49ca cd3b 55d5 a23b 100a 7c3a
000000e0: a5a4 943c 0ed0 833b 1cd5 d23c 99b6 37bc
000000f0: 2fbf 353c 1e77 12bb 90aa cebb 681f e73b
00000100: 131d 133b eaca a73b 6713 d9bb ccc8 a8bb
00000110: 8bb7 e53b 65c8 133b de05 af3b 4a1f f2ba
00000120: 6895 64bc 35e2 813b 2445 333c cd3d 23bc
00000130: 5d98 463c 679d 4d3a 197f 803b 2702 afbb
00000140: 72c7 20b8 8b49 963a 6a3f 1b3c a244 353c
00000150: 8dda 293a 010a 86bb b71c 053c 74d6 1ebc
00000160: 7aea 0b3c 953b c73a 4fdb 3cbc 332d dbbb
00000170: 72ed 443b 9334 aebc b40e 893b 7c02 523b
00000180: 593c 71b9 1c9e a6ba 780d a7bc f157 b7ba
00000190: 1ac6 dbbb b5e6 743b 5385 713b 40ed adbb
000001a0: 2845 3d3b f7c8 37bc 7454 283c f222 853b
000001b0: 1dda 49ba cf36 e4bb c109 5fbc 1912 6e3c
000001c0: 2dc8 7b3c 765b cfba a500 4d3b c104 8539
000001d0: dc09 99bc c42e 03bc 5d5f 943b caff 33bb
000001e0: a998 69bb 3f78 043c c01e a83c 4462 2d3b
000001f0: 40a8 c03b d8d5 efba e8e5 3ebc 8b83 ad3b

network_body._body_endoder.seq_layers.2.weight f4 [128, 128]
0.027569624 0.05949682 0.0920792 0.07592066 -0.038245995 -0.0050880997 -0.14502177 0.105552554
0.08384335 0.031818524 0.1583886 -0.0993596 -0.00017608852 -0.090746485 -0.035619628 -0.04643904
-0.14882071 -0.14756076 -0.121474124 -0.120913655 -0.0042635645 -0.0011290011 -0.032239422 -0.047284927
-0.028172683 0.071832426 -0.13938326 -0.10609404 -0.051473837 -0.032531668 -0.073874384 0.02891809
-0.07747845 -0.025760807 -0.1607173 0.031231096 -0.12809688 -0.11771727 -0.109465666 -0.20936055
0.05672798 -0.06799543 -0.028632598 -0.0063253897 -0.07961368 -0.0516936 0.013204133 0.094029106
-0.09730155 0.026280697 -0.10256027 -0.22159384 -0.11096261 -0.091743104 0.06603522 0.17567721
-0.09092004 -0.036336724 0.014247405 -0.16630411 0.047963213 0.047564235 0.040844046 -0.16467091
0.1297375 -0.07801214 -0.12758322 -0.021508852 0.10308213 0.023341108 -0.11649787 0.08233053
0.17023724 0.07253375 -0.017285356 0.0056199715 0.0010321419 -0.029832432 -0.026751142 0.19050144
-0.17308772 -0.046659622 -0.013101549 0.14825112 0.046003442 0.15576452 -0.24527028 0.09514708
-0.060049422 0.18849422 -0.07090454 -0.069812976 0.20213036 0.025361245 0.00401542 0.08538336
0.022624066 -0.10795341 -0.17805962 0.013356733 -0.098284945 0.057099342 -0.008663447 -0.075796574
0.20130508 -0.055449225 0.07378099 0.081660315 0.23443945 -0.0511598 0.08993017 -0.18246998
-0.09973745 -0.06750537 -0.048935067 -0.1134405 0.103894755 -0.01878094 0.023218349 0.01886529
-0.026943445 -0.08512297 -0.07544953 0.07435686 -0.057702113 -0.021881755 -0.041953888 -0.02332711
-0.034468625 0.06221223 0.11556431 0.04677003 0.0014782276 0.12488093 -0.0024207896 0.06811637
-0.025042865 -0.122610696 0.2051903 -0.0007544024 0.1405425 0.061063733 -0.06001791 0.0684841
0.12122065 0.04854445 0.046874516 0.08239111 0.0879944 0.02759018 -0.18143451 0.0106850825
-0.07460892 0.13633013 -0.026411686 0.13613164 0.15211101 -0.061496656 0.08904147 0.11916805
0.043224614 0.10534241 0.07784824 0.061698146 -0.0014356388 -0.007393918 0.041620366 -0.09111334
0.027488362 0.048076466 0.0152279055 -0.17739527 -0.061793495 -0.07460319 -0.026190955 0.06280947
-0.03795205 -0.019951869 -0.14035878 -0.07083557 0.21562193 -0.08259239 -0.18305078 -0.08711253
0.09246389 0.21983762 -0.06653373 0.14017634 -0.038401946 0.16273063 0.04030279 0.0017295422
-0.027340358 0.11364709 -0.09477019 -0.039328087 0.01690491 -0.008223454 -0.08527104 0.06745911
0.075749755 0.1569435 -0.05580805 -0.049309406 -0.04215299 -0.053742614 0.029418308 0.1263089
0.15459935 -0.18435891 0.0030933411 -0.08491668 0.034678433 -0.032308206 0.1133829 -0.03666885
-0.06958363 0.15640536 0.11606442 0.07720121 -0.05361081 -0.074522175 0.15043281 0.03527247
0.18168812 -0.0011102963 0.011656244 0.051014956 0.142373 -0.11260546 0.0456509 -0.01415836
-0.07677667 -0.05621932 0.03591874 -0.1640849 -0.021732857 -0.002039774 0.07475391 0.08428558
-0.029358007 0.03016759 -0.053393688 0.0068592797 0.042258386 0.0017224048 -0.109923586 -0.0829372
0.04313222 0.005260722 0.028672332 -0.06512829 0.076823585 -0.021691874 0.040535398 0.08440763
00000000: b1d9 e13c f0b2 733d 0594 bc3d 4a7c 9b3d
00000010: d5a7 1cbd 13ba a6bb 9680 14be f02b d83d
00000020: 10b6 ab3d 2454 023d 9f30 223e 0c7d cbbd
00000030: 67a4 38b9 4bd9 b9bd e3e5 11bd dd36 3ebd
00000040: 7564 18be 2b1a 17be 6dc7 f8bd 94a1 f7bd
00000050: 5fb5 8bbb fefa 93ba 7c0d 04bd d7ad 41bd
00000060: 66ca e6bc e11c 933d 7cba 0ebe d547 d9bd
00000070: 3bd6 52bd ed3f 05bd 744b 97bd a1e5 ec3c
00000080: 06ad 9ebd 5408 d3bc 1393 24be 5bd8 ff3c
00000090: d42b 03be c115 f1bd 892f e0bd 9d62 56be
000000a0: 995b 683d 3041 8bbd e98e eabc 3745 cfbb
000000b0: 7f0c a3bd abbc 53bd 2656 583c 5592 c03d
000000c0: 0946 c7bd 9e4a d73c 1e0b d2bd 7fe9 62be
000000d0: 5d40 e3bd cfe3 bbbd 793d 873d bae4 333e
000000e0: 4934 babd d1d5 14bd f36d 693c a04b 2abe
000000f0: 1375 443d b7d2 423d 164c 273d 7e9f 28be
00000100: e8d9 043e d4c4 9fbd 2da5 02be 5533 b0bc
00000110: b91c d33d da35 bf3c 6f96 eebd e99c a83d
00000120: ac52 2e3e 938c 943d 059a 8dbc bd27 b83b
00000130: ef48 873a 2563 f4bc 3625 dbbc cf12 433e
00000140: e83d 31be 291e 3fbd e1a7 56bc 24cf 173e
00000150: 1b6e 3c3d bc80 1f3e 2228 7bbe 79dc c23d
00000160: 62f6 75bd a104 413e 6636 91bd 1bfa 8ebd
00000170: 43fb 4e3e 63c2 cf3c c993 833b 79dd ae3d
00000180: 1b56 b93c ad16 ddbd 4355 36be 33d6 5a3c
00000190: 9e49 c9bd 00e1 693d 21f1 0dbc 3c3b 9bbd
000001a0: eb22 4e3e ba1e 63bd 7d1a 973d 863d a73d
000001b0: e510 703e f08c 51bd 4f2d b83d 69d9 3abe
000001c0: 2643 ccbd 4140 8abd 2370 48bd 7e53 e8bd
000001d0: c6c6 d43d 7cda 99bc 6834 be3c 618b 9a3c
000001e0: 80b8 dcbc f454 aebd 4885 9abd 6948 983d
000001f0: 0d59 6cbd 5e41 b3bc d7d7 2bbd 7f18 bfbc
00000200: f92e 0dbd 40d2 7e3d fbac ec3d ee91 3f3d
00000210: 16c1 c13a 93c1 ff3d 1ca6 1ebb 9880 8b3d
00000220: b226 cdbc 511b fbbd 681d 523e 17c3 45ba
00000230: 60ea 0f3e f71d 7a3d 57d5 75bd 6441 8c3d
00000240: 8842 f83d 8cd6 463d 7eff 3f3d acbc a83d
00000250: 6836 b43d cd04 e23c f8c9 39be 7c10 2f3c
00000260: 90cc 98bd 209a 0b3e 525d d8bc 1866 0b3e
00000270: fdc2 1b3e ebe3 7bbd 605b b63d 610e f43d
00000280: 4b0c 313d c3bd d73d e66e 9f3d 32b7 7c3d
00000290: 0b2c bcba ae48 f2bb 1e7a 2a3d a199 babd
000002a0: 462f e13c d4eb 443d 777e 793c 1ba7 35be
000002b0: 2d1b 7dbd 8fc9 98bd 6a8e d6bc 40a2 803d
000002c0: 9c73 1bbd 1a72 a3bc 36ba 0fbe 3d12 91bd
000002d0: ffcb 5c3e 3326 a9bd aa71 3bbe 0e68 b2bd
000002e0: b55d bd3d 1d1d 613e d642 88bd 638a 0f3e
000002f0: 5c4b 1dbd dca2 263e 8a14 253d ceb1 e23a
00000300: e3f8 dfbc cebf e83d e016 c2bd 7d16 21bd
00000310: 2a7c 8a3c aabb 06bc 95a2 aebd 0028 8a3d
00000320: b022 9b3d ccb5 203e fb96 64bd a9f8 49bd
00000330: 9da8 2cbd 3721 5cbd aafe f03c 1f57 013e
00000340: 4b4f 1e3e 95c8 3cbe a7b9 4a3b cce8 adbd
00000350: f90a 0e3d 9c55 04bd 4b35 e83d 1332 16bd
00000360: dd81 8ebd ba28 203e 2fb3 ed3d ab1b 9e3d
00000370: 0297 5bbd 159f 98bd 0f0b 1a3e de79 103d
00000380: 730c 3a3e 5d87 91ba d5f9 3e3c 0ff5 503d
00000390: 3aca 113e b19d e6bd 70fc 3a3d 77f8 67bc
000003a0: 163d 9dbd 3b46 66bd 871f 133d df05 28be
000003b0: 1b09 b2bc bbad 05bb 9418 993d eb9d ac3d
000003c0: 3480 f0bc 0622 f73c 57b3 5abd cfc3 e03b
000003d0: 2117 2d3d 51c2 e13a 9e1f e1bd fbda a9bd
000003e0: 69ab 303d 2262 ac3b 3de2 ea3c fb61 85bd
000003f0: af55 9d3d 28b3 b1bc 7208 263d e8dd ac3d
