Assets/Model/AttackMode-4556.onnx (onnx, 295132 bytes, 15 tensors)

action_model._discrete_distribution.branches.0.bias f4 [3]
000000 c3 6c 2b 3b 5a b5 16 bb 64 84 d6 b9
       0.0026157356 -0.0022996278 -0.000409159

action_model._discrete_distribution.branches.0.weight f4 [3, 256]
000000 5a d3 4c 3c 51 a6 97 ba 3c c2 24 3c 19 c5 e2 bb
       0.012501562 -0.0011569952 0.010056075 -0.0069204685
000010 18 1d 7b bb b1 d7 59 38 79 d9 ea 3b f2 87 ac bb
       -0.0038316902 5.193771e-05 0.007167038 -0.0052652294
000020 7b ad ef bb ed eb 0f 3c 3d b5 a7 3b 4d 6c 2f bb
       -0.0073143817 0.008784276 0.005118041 -0.0026767433
000030 4a b6 63 bc d4 61 a4 bb 39 6c dc ba 59 25 78 bc
       -0.013898442 -0.005016545 -0.0016816921 -0.015145623
000040 f3 bd 86 bb 6d ca ed bb a8 99 f5 bb 11 69 d6 b9
       -0.004111999 -0.007256797 -0.007495124 -0.0004089554
000050 0e 8e d7 bb 16 d2 27 3b d8 25 59 3c 53 69 6d 3b
       -0.0065782135 0.0025607399 0.013253652 0.0036226108
000060 9f bd 2c bb aa 56 9e 3b 5e ed e6 bb 66 34 44 3c
       -0.002635814 0.0048321085 -0.0070473393 0.011975383
000070 a9 d0 ea 3b c9 33 1b 3b 23 49 df 3b 49 74 00 3c
       0.0071659875 0.002368199 0.0068141385 0.007840225
000080 12 02 2b 3c 53 9e 6c 3b 89 5d 87 bc 24 77 df 3b
       0.010437505 0.003610511 -0.016524093 0.0068196226
000090 21 88 1a bb cb c7 5e bc cb 1e b3 3b 86 83 e5 ba
       -0.0023579674 -0.013597439 0.0054663173 -0.001751051
0000a0 10 b9 39 3b e8 30 47 3b 9a ed 5f bc 81 e3 31 bc
       0.0028339066 0.003039414 -0.0136674885 -0.010857464
0000b0 b5 e4 74 3b cc 43 0c bb 16 31 68 bc 11 64 d5 bb
       0.0037367765 -0.0021402715 -0.014171859 -0.006512173
0000c0 f8 c3 47 ba 32 36 c7 bb 2b 76 69 3b 45 d8 4a bb
       -0.0007620449 -0.0060794586 0.0035623412 -0.003095166
0000d0 00 28 3c 3b 22 d2 13 3b 5d f1 9b ba 5e 6c f8 ba
       0.0028710365 0.002255567 -0.0011897493 -0.0018953194
0000e0 14 80 6c bb 29 dd 2e ba a2 3b 4d bc 6a 22 78 3a
       -0.0036087083 -0.00066705287 -0.012526425 0.00094655773
0000f0 9c 35 46 bc 67 24 3a bc 05 59 03 3c e8 ca 83 b9
       -0.012097742 -0.011361218 0.008016829 -0.00025137444
000100 dd 98 81 3b b4 e7 72 bb 6d a6 49 3c b3 7f 51 3c
       0.0039549903 -0.0037064375 0.012307745 0.0127867935
000110 80 e7 75 3a b6 49 cc b9 32 f1 2a 3b 96 01 44 3b
       0.00093805045 -0.0003896483 0.0026083705 0.0029908172
000120 21 28 3a bb da ad 35 bb d6 dc 2c 3c a5 91 3d bb
       -0.0028405266 -0.0027722032 0.010550698 -0.0028925922
000130 50 92 49 39 ff 70 a0 bb 80 44 d4 bb 0a 8e d3 bb
       0.0001922336 -0.0048962827 -0.0064778924 -0.0064561414
000140 f8 88 c0 ba 74 7b 16 3a 12 ed ba 3b a3 d7 d1 bb
       -0.0014689257 0.0005740442 0.0057045305 -0.0064038797
000150 c4 70 e5 bb b6 f7 ac bb 18 5c 04 bb dc dd 11 3b
       -0.007001968 -0.005278553 -0.0020196494 0.0022257483
000160 b1 11 06 3b 16 51 da 3b 3e 6d 09 bc 31 07 13 3c
       0.0020457322 0.006662498 -0.008387862 0.0089738825
000170 c9 5a 7e bb f9 d3 3e bb 77 b1 db ba 23 4d 31 3c
       -0.0038811436 -0.0029118045 -0.0016761263 0.0108216135
000180 e4 25 64 bb 3c 00 75 ba 10 e5 0f bb af ff 89 bc
       -0.0034812624 -0.0009346043 -0.00219566 -0.016845552
000190 ba 09 9c bb fa 24 a7 3b f0 e4 7a 38 50 c4 bc 3a
       -0.0047619017 0.0051008435 5.981786e-05 0.0014401767
0001a0 8b f0 07 3c a8 96 f9 3b 27 5d f4 bb f9 e5 b3 3b
       0.008297096 0.0076168366 -0.0074573937 0.0054900614
0001b0 09 33 90 3a 25 78 9c bb f5 70 95 bb fd d4 18 bc
       0.0011001538 -0.0047750645 -0.0045605847 -0.009328124
0001c0 5e 9f fa 3b 4f 62 f1 3b 58 0f a6 bb a8 27 06 3c
       0.0076483926 0.0073664556 -0.005067747 0.008188166
0001d0 4f c7 d9 bb 26 f3 15 ba 68 2f 13 bc 14 33 3b 38
       -0.006646074 -0.0005720131 -0.0089834705 4.4631845e-05
0001e0 83 58 b4 3b 0c 8f b2 39 67 60 00 3c 63 15 63 bb
       0.0055037155 0.00034057384 0.007835484 -0.0034650199
0001f0 67 f3 7d 3b bd ff 5d bb a4 4e 96 bb d2 d5 3c b9
       0.0038749815 -0.0033874356 -0.0045870114 -0.00018008731
000200 6b 79 19 3c bb b8 66 3b 87 80 d6 3b 49 ce 82 3b
       0.009367327 0.0035205323 0.0065460834 0.0039918763
000210 ba 4e 3e bb 3c 26 fa bb a9 46 80 bc 41 59 2d 3b
       -0.0029038624 -0.0076339524 -0.015658693 0.0026450905
000220 80 04 a7 bb b3 56 c6 bb a5 cd a0 ba e7 53 f4 bb
       -0.005096972 -0.006052816 -0.0012268318 -0.007456291
000230 70 b4 0a 3b 23 65 e0 38 d2 57 37 3c 3f 40 44 3b
       0.0021164678 0.000106999905 0.011190372 0.002994552
000240 dd 1b 56 bc ea a7 2b 3c a1 c9 5e 3b c6 0e bb 3b
       -0.013068167 0.010477046 0.0033994692 0.0057085482
000250 77 78 c2 3a 3a 3d 27 bc 40 4f 91 bb d4 72 9e 3b
       0.0014836927 -0.010207469 -0.004434496 0.004835466
000260 03 50 9b bb 67 d3 08 bc 10 e1 55 bb 69 20 0a 3c
       -0.0047397627 -0.0083511835 -0.0032635368 0.008430579
000270 0a 4c 1a bc a4 7f d6 3b b6 7a 0d bb 44 15 ee bb
       -0.009417543 0.0065459777 -0.0021588034 -0.0072657187
000280 21 fa ab bb 20 9c 10 bc cb 21 90 3c 14 40 89 3b
       -0.0052483235 -0.008826286 0.017594239 0.004188547
000290 b6 4a cb ba 55 2a 89 3a b3 76 ca 3a 1e 87 6a 3c
       -0.0015509936 0.0010464886 0.0015446752 0.014314441
0002a0 5c 4a ae bb 73 c1 fa 38 ea 2f bd 38 4f 2e 83 bb
       -0.005318923 0.00011956962 9.021147e-05 -0.004003323
0002b0 19 50 d2 ba f1 46 21 3b dc e5 a9 3b 4e f5 5f bb
       -0.00160456 0.0024608935 0.005184872 -0.0034173313
0002c0 92 0a 49 3c 75 b4 af 3b 96 10 b3 bb eb 0a 7e bb
       0.012270587 0.0053620883 -0.0054646237 -0.0038763832
0002d0 f6 51 df 3b 3d 55 cf 3b 84 8f 7d bc 2e 92 04 3c
       0.0068151904 0.0063273 -0.015476111 0.008091493
0002e0 eb 09 0f 3c 4a f3 01 bb a4 32 99 3b 30 d2 a1 3b
       0.008730392 -0.001982885 0.0046752263 0.0049383864
0002f0 92 c6 ce 3b ad 4d 8c 3b 6f d1 b5 3b 5b 53 63 bb
       0.0063102925 0.0042817206 0.005548648 -0.0034687135
000300 04 2d c0 3b 9e 67 12 3c 96 d1 76 ba ba c8 21 3c
       0.0058647413 0.008935837 -0.0009415386 0.009874517
000310 d7 25 21 bc ae 89 02 3c c4 4f 2e bc fa 28 8d bb
       -0.009835682 0.007967396 -0.010639135 -0.0043078633
000320 63 ad 8b 3a bb 7f 11 3b 05 29 f1 3b 36 9d e3 bb
       0.0010656532 0.0022201377 0.0073596262 -0.0069462312
000330 74 6a 14 bb d7 64 ce ba 41 00 58 3a ff bd bc 38
       -0.0022646459 -0.0015746605 0.0008239784 8.999928e-05
000340 df 66 91 3b 86 51 d6 3a 7b b3 e9 3a bc 2a 29 3c
       0.004437312 0.00163512 0.0017829979 0.01032513
000350 c9 ad 0a bc 89 0c c4 bb e7 9a c9 bb dd 56 e5 3b
       -0.008464285 -0.0059829396 -0.006152499 0.0069988803
000360 1b 2e 3c bb d5 17 11 3c cb 67 d2 3a a9 e7 45 bc
       -0.0028714004 0.00885578 0.0016052661 -0.012079158
000370 90 20 96 3b e3 12 02 bc 79 5b d4 ba fc cb 58 ba
       0.0045815185 -0.007939073 -0.0016201577 -0.0008270142
000380 c0 e4 8a 3a e7 da 15 bb a3 9c 19 bc 6e 4a f7 ba
       0.0010596737 -0.0022866072 -0.009375724 -0.0018866786
000390 38 f5 b7 3b e0 f0 9d bb bc a4 60 bb ec a7 01 bc
       0.005613949 -0.0048199743 -0.0034277877 -0.007913571
0003a0 69 e5 00 3c 33 4d 9d ba e9 03 00 3a f3 92 9d ba
       0.007867196 -0.0012001157 0.0004883395 -0.0012021944
0003b0 05 d4 12 bc ab 9f 7d bb 15 c7 81 bb a6 76 17 b9
       -0.008961682 -0.0038699906 -0.0039605 -0.00014444682
0003c0 1a e1 ba bb 9b 05 8a bb d3 75 27 bc fb 08 5c bc
       -0.0057031037 -0.004212094 -0.010220963 -0.0134298755
0003d0 dc 22 2a bc 02 1d b5 3a 0c bb ad 3b 78 81 17 bb
       -0.010384288 0.0013817849 0.0053018387 -0.002311794
0003e0 c4 b0 90 3b 0b e2 87 bb 01 d2 26 3b 2a 50 82 ba
       0.0044156034 -0.0041468195 0.0025454762 -0.0009942104
0003f0 eb fd 02 bc 15 62 b5 bb a2 8e 36 bb 31 fd 7a b9
       -0.007995109 -0.005535374 -0.0027856012 -0.00023936179

action_model._discrete_distribution.branches.1.bias f4 [3]
000000 9b 1a 36 bc b3 01 c8 3b 98 b6 b4 3b
       -0.011114742 0.006103718 0.005514931

action_model._discrete_distribution.branches.1.weight f4 [3, 256]
000000 08 7f 6a bc e7 3f 29 3b 76 6a 8a 3b 41 59 2b bb
       -0.014312513 0.0025825442 0.004224117 -0.0026145729
000010 a8 e7 5a bc 13 43 08 bc e5 34 0b 3a ba 8d 2a bc
       -0.013360895 -0.008316773 0.0005310311 -0.010409767
000020 d1 0e 48 3b 24 f3 50 3b be 08 2c 3c 69 11 f5 bb
       0.003052641 0.0031883204 0.010500131 -0.007478882
000030 f4 bd c6 ba d3 63 61 3b 82 ed 90 bc 74 cb f2 3b
       -0.0015162812 0.0034391775 -0.017691378 0.0074095074
000040 2d 6f 5f bb e0 ef 2c 3b b8 70 9c 39 b4 d6 61 bc
       -0.0034093366 0.0026388094 0.0002983862 -0.013784099
000050 8a ae 77 3c 90 7b 12 bc 08 bc 6d 3c b6 0e 3d 3c
       0.015117297 -0.008940592 0.014510162 0.011539152
000060 ae 6d 81 ba ec f9 c1 3b 8a 15 d6 3b 33 85 23 bc
       -0.0009874606 0.0059196856 0.0065333294 -0.009980488
000070 d3 90 97 3c b4 3c 22 bb 04 a2 03 3c a5 27 fa 39
       0.018501675 -0.002475542 0.008034233 0.00047713253
000080 0d 31 86 3b df 61 ad bb 67 82 93 bc 2e 6d 6b bc
       0.004095203 -0.005291208 -0.018006517 -0.014369292
000090 a9 fe c5 3b 44 f4 af 3b 22 a2 06 bc 70 95 4a 3c
       0.0060423207 0.005369695 -0.008217366 0.01236473
0000a0 2c 16 17 bc f0 6f 67 3c 76 5d 4f bc cd 1b fa bb
       -0.009221595 0.014125809 -0.01265656 -0.0076327086
0000b0 1c 6d 05 bc c2 ba df 3b 11 5d a7 bb 0f 09 47 bc
       -0.0081436895 0.006827683 -0.00510753 -0.012148156
0000c0 71 ab 92 ba 58 64 ae 3b 9a 13 05 bc b2 d1 4b ba
       -0.001119001 0.0053220205 -0.008122349 -0.00077750825
0000d0 af 96 23 3a 13 2e 2d 3c e7 40 f0 ba 39 76 02 3b
       0.000624041 0.010570067 -0.0018329889 0.0019906892
0000e0 00 54 17 3b a2 c6 62 bc 0b e3 be 3a 90 26 5c bc
       0.002309084 -0.013841303 0.0014563514 -0.013436928
0000f0 be 7d b6 3a 46 b0 14 3c 19 5e 96 bc 23 fd 50 bb
       0.0013922972 0.00907523 -0.018355416 -0.0031889162
000100 63 fa 72 3b 20 68 db 3a 53 bd 34 3c ac c5 c8 bb
       0.0037075512 0.0016739406 0.011031467 -0.00612708
000110 74 92 4e bb 96 7f 47 3a c1 6c 9a 3b b4 b3 2b b9
       -0.0031520398 0.00076102593 0.0047126715 -0.00016374775
000120 dc 13 73 3b f3 6b 21 bc 09 da 46 bc a2 25 49 bb
       0.0037090695 -0.009852397 -0.012136945 -0.0030692597
000130 f8 73 c5 3b c4 ec b9 3b c8 24 70 3c 03 1c cb 3c
       0.0060257874 0.0056739766 0.014657207 0.02479363
000140 81 14 04 bc 45 fe 8b bb b1 94 8e bc a7 69 1c 3b
       -0.008061529 -0.0042722546 -0.017404886 0.0023866685
000150 10 67 8f 3a 31 a7 08 3c a3 f8 b0 b9 a5 65 b7 bb
       0.0010940749 0.008340643 -0.00033754585 -0.005596834
000160 1f 57 36 bc cf 0f 9f 3b bb 3a 31 3c 2f 30 23 3c
       -0.01112917 0.0048541795 0.010817225 0.009960218
000170 b5 e3 d4 bb 16 4b d6 ba 5a cb 26 3c 76 55 fe 3b
       -0.0064968714 -0.0016349282 0.010180319 0.0077616526
000180 f1 a5 2c 3c 9a fc ac 3b 87 bd 3b bc 4c 80 af bb
       0.01053761 0.005279136 -0.011458761 -0.0053558704
000190 46 82 89 bb 5f 72 db 3b 1b 80 5c 3c c3 ad a6 bb
       -0.004196438 0.0066969837 0.013458277 -0.005086632
0001a0 c6 13 85 3b ba 6e ac bb cc 3b e6 3b 57 88 c7 3b
       0.004061195 -0.005262223 0.0070261713 0.006089251
0001b0 09 bb ca 3b 77 f6 a0 3b d7 5a 11 bb 61 8d a4 3b
       0.006186847 0.0049121934 -0.002217939 0.0050217365
0001c0 77 0a 84 3a d9 9c e1 bb 01 5b 1e 3c 72 93 09 3b
       0.001007392 -0.006885153 0.009665252 0.0020992425
0001d0 c8 27 34 bc dd 4b 40 3c 61 b0 23 bb 19 89 2c bb
       -0.010995813 0.011736837 -0.0024976956 -0.0026326834
0001e0 26 b5 ae ba 8f 00 e3 bc 5d 2d 9c bc 93 bd 93 3c
       -0.0013329133 -0.027710227 -0.0190646 0.018034732
0001f0 35 46 b3 bb 26 3b b5 3c bb a8 41 b8 6c 32 1d 3c
       -0.005471016 0.02212293 -4.617193e-05 0.009594541
000200 4d 46 5d bb 8a d9 cc ba 3d f8 e5 bb 5b 9d cf bb
       -0.0033763826 -0.0015628797 -0.0070181177 -0.006335897
000210 43 f4 a1 3b e9 2f b7 bb 4c 84 af bb 95 56 c2 bb
       0.0049424483 -0.005590428 -0.005356347 -0.0059307315
000220 14 40 cc bb 5c d3 b3 3b e9 0b 01 bc cc c0 3a bb
       -0.0062332246 0.0054878425 -0.007876375 -0.0028496264
000230 46 9d 58 bb 62 0a ab ba 68 73 16 3c 5f ad 9c bb
       -0.0033052727 -0.0013049359 0.009182788 -0.0047814096
000240 35 17 ae 3b 87 4e 28 bb 4a b3 a8 3b fa 68 e3 3b
       0.005312825 -0.0025681572 0.005148326 0.0069400044
000250 21 b6 b6 3b 8f fa b7 bb ef 62 0d 3b 49 be 8a 3c
       0.0055759107 -0.0056145857 0.0021573862 0.016936438
000260 9f 2f bf bb 4c 30 07 3c 20 b2 98 3b ee 86 4e bc
       -0.0058345343 0.008251261 0.004659906 -0.012605412
000270 79 92 4f 3c 42 9f 60 ba 5c 2f 40 3b 60 5f 78 bc
       0.012669199 -0.0008568653 0.0029325103 -0.015159458
000280 a3 8d da 3b 0f 3f 6f 3b ae 0b c1 3c 1c df 1f 3c
       0.0066697164 0.0036506092 0.02356514 0.009757783
000290 63 30 3f 3c 14 33 20 3c c7 68 14 bc ff 82 34 3c
       0.011669251 0.009777803 -0.009058184 0.01101756
0002a0 5d 15 49 bb 14 d7 b7 3b 01 40 3a bb 4d 7c 28 3a
       -0.00306829 0.005610356 -0.0028419497 0.00064272137
0002b0 b0 bf cb bb a0 76 c0 bb 27 28 c5 bb d0 3e f5 3b
       -0.0062179193 -0.005873516 -0.0060167494 0.0074842945
0002c0 30 70 5c 37 33 0d 60 bb 77 e4 52 bb 3a fa 8f bc
       1.31391425e-05 -0.0034187555 -0.0032179633 -0.017575372
0002d0 f1 bd f9 3a e7 e4 55 bc c2 90 a0 3b 92 fe e5 bb
       0.0019053799 -0.013055063 0.004900069 -0.0070188725
0002e0 ab c1 13 bc 4c 03 f9 ba 28 d3 36 ba e3 b3 27 bc
       -0.009018342 -0.0018998175 -0.0006974214 -0.010235759
0002f0 ea 65 2b bb ee 5a d2 bb ef ed 14 3c b7 01 aa 3b
       -0.0026153275 -0.006419531 0.009089931 0.0051881927
000300 6e d1 2c 3c 7a 95 e3 b9 78 49 56 3c 9a 94 44 bb
       0.010547979 -0.00043408183 0.01307904 -0.00299958
000310 5a da 83 3c b6 da 02 3c 7c 65 44 3a 5a e0 31 bc
       0.01609533 0.007986715 0.0007491929 -0.010856712
000320 a6 28 8d bb 52 1b 27 bc a0 4b a8 bb ef c4 03 bc
       -0.004307824 -0.010199385 -0.0051359683 -0.008042558
000330 eb 03 45 3a 59 8d 81 bb 61 31 a7 ba 56 7b 66 bb
       0.00075155374 -0.0039536175 -0.0012755805 -0.0035168729
000340 90 bb 7c bb 96 b5 cf 3a 95 b1 e1 3a 5c ce 12 bc
       -0.0038563944 0.0015846964 0.0017219061 -0.008960333
000350 2e f6 6e bb 65 90 7e 3c 51 ee b7 3b 30 62 a3 3a
       -0.0036462652 0.015537356 0.0056131263 0.0012465175
000360 14 07 17 3c d4 ea 93 3b 50 b4 76 3b 49 26 02 3c
       0.009217996 0.0045140777 0.0037644096 0.007943698
000370 05 cf 40 3c 00 9e e9 3b 1b dc aa ba 8b 02 2a 3b
       0.011768107 0.007129431 -0.0013035567 0.0025941457
000380 04 8d 0b 3c 1e 3b 85 bb 97 0c 90 bb 8c 4a 39 3b
       0.008517507 -0.004065885 -0.004396032 0.0028273193
000390 7b af f9 ba 3c 79 62 bc 85 2f 2c bb c4 9a 82 3b
       -0.001904949 -0.01382285 -0.002627344 0.0039857347
0003a0 3c 77 0c 3c 28 1c da bb 69 70 8b 3c 0a 42 ae bb
       0.00857335 -0.0066561885 0.017021375 -0.005317931
0003b0 30 ce f1 3b 54 6f 91 3c b7 54 81 3b 17 44 bc bb
       0.007379316 0.01775328 0.0039468664 -0.0057454216
0003c0 5c b1 03 3c ff e9 39 bb 1e fb 9a bc 52 26 9f bc
       0.008037891 -0.0028368232 -0.01891857 -0.019427452
0003d0 38 07 5c 3b 7e 36 3a bc 90 8a ad b9 d4 58 86 bc
       0.0033573639 -0.011365531 -0.00033100368 -0.016399778
0003e0 a9 31 ed bb d8 e1 0c 3c a2 f0 2f 3b da eb 97 bb
       -0.007238586 0.008598767 0.002684631 -0.00463627
0003f0 bc 06 9d bb 0e bc 68 bc 75 f1 1b 3b ef f1 29 3c
       -0.0047920626 -0.014204992 0.0023795043 0.010372623

action_model._discrete_distribution.branches.2.bias f4 [3]
000000 7e 6d 0a ba f1 7f 95 ba 04 c7 a0 3a
       -0.0005280598 -0.0011405927 0.0012266343

action_model._discrete_distribution.branches.2.weight f4 [3, 256]
000000 fc 7e 4f bb 5a b0 3d 3b cc f0 9f bc 58 b2 c5 3b
       -0.0031661382 0.0028944225 -0.019524 0.006033223
000010 27 7b b9 bb 5d 98 0d bc 8a 04 73 bb ab ff 35 bc
       -0.005660433 -0.008642283 -0.0037081563 -0.011108319
000020 87 e1 85 3b a8 95 e0 bb 8a 0e d9 3b 70 cf 04 bc
       0.004085723 -0.006853778 0.0066240476 -0.008106098
000030 c3 7f b2 bb 54 78 29 3b ee 2e 19 bb 5c a4 1e ba
       -0.0054473593 0.0025859075 -0.002337392 -0.0006051713
000040 73 c2 8b bb 09 41 e1 3a c2 d9 96 bb c3 41 ed 3a
       -0.0042651235 0.001718552 -0.0046035955 0.0018101264
000050 db 4b 34 bb 66 f9 7d 3a 04 6f 4d bc a5 98 2a bb
       -0.0027511034 0.00096883473 -0.012538675 -0.0026030925
000060 3f b2 8e ba 07 e0 9b 3b 40 fe ab bb 69 62 d0 bb
       -0.0010886862 0.0047569307 -0.005248815 -0.0063593877
000070 ad 5b 21 3b 84 54 04 bc aa ed 3b 3c b5 ca 78 3b
       0.0024621293 -0.008076791 0.011470238 0.003796262
000080 1a 8e d1 3b bd 79 99 3b e5 3f f3 39 06 1a e4 3b
       0.0063951137 0.004683702 0.00046396177 0.00696111
000090 0a 0e 7a bb 72 f1 9e bb 15 78 bb 3a 63 74 00 bb
       -0.003815534 -0.00485056 0.0014302755 -0.0019600622
0000a0 1b 9e dd bb 63 42 7b bb 59 ab e6 3b ae c1 9d bb
       -0.0067632324 -0.003833913 0.007039469 -0.004814348
0000b0 18 8a 92 3c 5b a7 75 3b e9 d0 80 3b ca 04 b8 bb
       0.017888114 0.0037483785 0.003931154 -0.0056158053
0000c0 d0 aa 9f bb 73 46 19 bc 41 7a 46 bb 41 25 e0 bb
       -0.0048726574 -0.009355175 -0.0030285271 -0.0068403785
0000d0 d1 12 34 3c a4 57 0c 3b 6c f8 6b bc 72 38 42 3b
       0.010990814 0.0021414543 -0.01440249 0.0029635695
0000e0 c2 29 bb 3b 99 6b 05 3c 08 7a 62 bb 9c 54 4f bc
       0.005711765 0.008143329 -0.00345576 -0.01265445
0000f0 50 d8 b1 bb e7 99 58 bc ff 55 01 3c 5b 37 b6 3a
       -0.005427398 -0.013220287 0.007894038 0.0013901995
000100 f5 24 d0 3b a8 29 bc 3b fe 45 1f bc 27 02 02 3c
       0.006352062 0.0057422705 -0.009721277 0.0079350835
000110 eb bd bd 3b 08 b5 05 bc 6b 41 d1 3b cc b3 17 bc
       0.0057904623 -0.008160837 0.0063859723 -0.0092591755
000120 22 78 9d 3b 13 b6 2f 3b 0a b6 7d 3b 7c 66 83 3a
       0.0048055807 0.0026811406 0.003871324 0.001002505
000130 58 49 8d 3b 1a 6f 52 bb 6e f1 c9 3b e6 11 40 3b
       0.004311722 -0.0032109679 0.006162814 0.0029307543
000140 18 33 56 bc 4e 2d 0b 3c d2 b8 a5 bb 4e ab 5e bb
       -0.013073705 0.008494688 -0.0050574327 -0.0033976617
000150 75 11 fb ba 4f f8 7c 3b 55 ad 00 bb 75 ad c8 bb
       -0.0019154983 0.0038600152 -0.0019634564 -0.0061241933
000160 92 37 01 3b f2 fe 3d 3a de 08 61 bc 3d ef b3 3b
       0.001971696 0.00072477676 -0.013735024 0.005491166
000170 06 14 21 3c 38 fb 3e bb f0 3b a6 39 3d dc 97 ba
       0.009831434 -0.0029141437 0.00031706644 -0.0011586022
000180 68 a1 e8 3b d1 dd 04 3c 41 af 3c bb 89 da 07 bc
       0.0070993192 0.008109526 -0.0028790983 -0.008291849
000190 76 9e e8 3b e5 5b 4d 3b 15 49 e4 bb bc 7f fd bb
       0.007098968 0.003133529 -0.00696672 -0.0077361744
0001a0 dc 25 93 3b 7f af 7e bc 81 ca 42 3a 1a ae 9d 3a
       0.004490597 -0.015544771 0.0007430688 0.0012030036
0001b0 37 ca b1 ba fa 14 c2 3a ef eb f9 bb 62 94 0f 3c
       -0.0013564293 0.0014807277 -0.0076270024 0.008763405
0001c0 a1 3f 5d bc 24 96 cd b9 dc 4d 93 bb 4a 45 a0 bb
       -0.01350394 -0.0003921251 -0.0044953655 -0.0048910724
0001d0 d1 8e 32 3c 8b 07 2f bc 03 5f d5 3a 02 52 84 bb
       0.010898308 -0.010682951 0.0016278926 -0.0040380964
0001e0 71 c2 1d bc 2d 23 26 bc ee f8 bb 3b 4f 2e f2 bb
       -0.009628878 -0.0101402225 0.005736462 -0.0073907743
0001f0 02 4d a8 bb 66 9f fe b9 f1 fe 8f bb d2 c4 43 3b
       -0.005136133 -0.00048565416 -0.004394405 0.0029871953
000200 94 1c e8 3b c0 41 41 3b 0a 31 1e 3c 01 43 88 3c
       0.007083485 0.0029488653 0.0096552465 0.016633512
000210 76 13 69 bb 94 33 26 bb 99 0e de 3a a7 6c 93 bb
       -0.0035564578 -0.0025360333 0.0016941606 -0.0044990364
000220 cf bf e8 bb c0 ed a7 3b f2 cc ac ba 3e 23 79 3b
       -0.0071029435 0.0051247776 -0.0013183637 0.003801539
000230 c4 e8 37 bc 24 88 12 bc fb 52 19 3b 86 f3 d9 3a
       -0.011224929 -0.008943591 0.0023395407 0.0016628362
000240 ec 62 d9 3b 63 b5 86 3b fd 6b 7c bb 31 5c 68 bb
       0.006634107 0.0041109785 -0.0038516514 -0.003545534
000250 1f c6 b0 3b e5 c4 2b bc 0f ba 37 3c 5b 44 5c ba
       0.0053947116 -0.010483955 0.011213793 -0.000840252
000260 83 21 d6 ba d5 07 10 bc 47 ec 0c 3a 5f 0c 71 3b
       -0.0016336892 -0.00879093 0.0005375784 0.0036781055
000270 66 dc 2d 3b bc 42 91 3b 22 31 cc bb cd a7 78 bc
       0.0026529073 0.004433004 -0.006231443 -0.015176726
000280 d8 42 30 3b a0 b8 ac ba 70 be d8 bb 6d 92 c1 bb
       0.002689531 -0.0013177581 -0.006614499 -0.005907348
000290 10 85 ec 3b a0 d7 11 bc 97 71 d4 bb 5b 78 4d 3b
       0.0072180107 -0.008901507 -0.0064832675 0.0031352255
0002a0 4c 3b 74 ba 58 69 c0 bb b7 17 01 3b cf 39 fd bb
       -0.0009316697 -0.005871933 0.0019697973 -0.0077278386
0002b0 1d 6b 10 3a 30 1a 61 3b 5e 04 05 3c 01 51 bd 3b
       0.0005509125 0.0034347884 0.008118717 0.0057774787
0002c0 5a 01 63 bb 75 77 4d bb 0f 64 9d bb e1 ad 39 ba
       -0.0034638257 -0.003135172 -0.0048031877 -0.00070831
0002d0 86 a1 26 3b 5a e1 25 3b 64 ec 01 bc ad 89 5e 3b
       0.0025425865 0.0025311322 -0.007929895 0.0033956573
0002e0 eb 7e 9c 3b 66 4b 5a 3b 9c c1 9a 3b 81 5a 79 3b
       0.004775872 0.00333091 0.004722787 0.003804833
0002f0 7b a4 2e bc 4d e4 6f bc ca ee e6 bb 16 83 8c bc
       -0.010659332 -0.0146418335 -0.007047509 -0.01715235
000300 fa 6f 73 3b ca 3d 2f 3c 8f d8 0b bc 2f 7a 35 3c
       0.00371456 0.010695884 -0.008535518 0.011076494
000310 66 b0 0e 3c ec 54 bb 3b 4c a7 8f 3c 03 e4 95 bb
       0.008709049 0.0057169106 0.017535828 -0.0045743003
000320 dc d1 47 ba 36 04 17 bc 94 ac 77 3a 04 27 78 bb
       -0.0007622519 -0.009217313 0.00094480184 -0.0037865052
000330 bc 1e 82 3a 50 dc 7d ba cc a5 8a bb 5b 1f 07 3c
       0.0009927372 -0.0009684013 -0.0042311903 0.008247222
000340 a3 6a 64 3c 2d af d8 b9 dc 44 57 3b 14 ec 2c bc
       0.01394144 -0.00041329247 0.003284744 -0.010554332
000350 c3 71 93 3b 51 b1 ac bb fd 44 87 bb 36 de 49 3b
       0.0044996454 -0.005270161 -0.004128097 0.0030802614
000360 bf 5c 0e bc b3 f8 7e bc f9 f2 07 3c b1 8a 4f bb
       -0.008689105 -0.015562224 0.008297675 -0.003166836
000370 83 d7 3b bc 00 39 2e bc 6a dd 9d 3b 64 08 cd bb
       -0.011464956 -0.010633707 0.0048176544 -0.0062571038
000380 69 25 61 3b cb 37 41 bc f0 06 21 bb 5c d8 f3 3b
       0.0034354574 -0.011793087 -0.0024570785 0.0074415635
000390 40 4e ca bb ff 99 44 3b e3 02 51 bb e2 69 db 3b
       -0.006173879 0.0029999015 -0.003189259 0.006695972
0003a0 cc e6 a2 bc bd 2b a4 bb 71 25 15 3c 0d 48 cc 3b
       -0.019885443 -0.005010097 0.009103165 0.006234175
0003b0 6e 3d 3d 3c dd 41 1f ba 38 18 96 3b 69 2a 06 3c
       0.0115502905 -0.0006075183 0.004580524 0.008188822
0003c0 53 21 ed bb a9 0a 8d bb b8 63 14 bb 17 23 17 3b
       -0.0072366386 -0.0043042493 -0.0022642445 0.0023061687
0003d0 e3 e0 a0 bb 8b 42 9e 3b a3 fc 26 3b 32 e3 f7 bb
       -0.004909621 0.00482971 0.0025480173 -0.0075649256
0003e0 35 d9 52 3c 7c f7 1c bc 5a fe ec ba fd f6 1f bc
       0.012869169 -0.009580489 -0.0018081174 -0.009763476
0003f0 4c fa a6 bb 8f 6a 49 bc fd bc 50 bc 24 7f 55 3b
       -0.0050957557 -0.012293472 -0.012740371 0.0032577002

action_model._discrete_distribution.branches.3.bias f4 [2]
000000 ec b4 12 bb ee b4 12 3b
       -0.002238567 0.0022385675

action_model._discrete_distribution.branches.3.weight f4 [2, 256]
000000 97 90 53 bb 53 14 66 3c 45 45 04 bb 63 1d b1 3c
       -0.0032282227 0.014042932 -0.002018289 0.021620458
000010 f3 d4 03 bb d6 40 9c bb 67 de fd ba c6 b2 8d bb
       -0.0020115941 -0.0047684712 -0.0019368649 -0.00432429
000020 a8 26 b5 3b c4 c1 05 3c 34 a3 7c 3c 6a 54 f7 3b
       0.00552829 0.008163873 0.01541977 0.0075479047
000030 ef ff 9f 3b 35 06 24 bb e4 4f f7 3a 71 e5 ff bb
       0.0048828046 -0.0025028114 0.0018868414 -0.007809334
000040 73 ff 2f bb 55 a3 07 bc d4 c9 fa 3a 8e a1 19 bc
       -0.002685514 -0.0082786875 0.0019133636 -0.009376897
000050 25 90 e7 3b de ee 34 bb 49 c6 1a bc 2e 9b e1 3b
       0.007066744 -0.0027608196 -0.009446689 0.006884954
000060 4e 8f 73 bc ee 62 9a 3c c6 7a 0e bc 4b 70 a4 bb
       -0.0148657095 0.018846001 -0.008696264 -0.005018269
000070 06 2b 97 bc 44 77 7c bc 9a 33 0d bc e1 72 6d 3b
       -0.018453132 -0.0154092945 -0.00861826 0.0036231803
000080 98 7d 2a 3c 12 da 85 bb 77 b5 f6 3a 8a 63 38 39
       0.01040592 -0.004084834 0.0018822391 0.00017584689
000090 a6 92 0e 3a d9 b7 3a bc 41 9b 9b ba 61 97 35 bc
       0.00054387224 -0.011396372 -0.0011871831 -0.011083455
0000a0 a5 6d 5b bc d9 c7 21 3b 6d ae 45 3b 66 75 6d bb
       -0.0133928405 0.002468577 0.003016378 -0.0036233305
0000b0 4a 0f d7 3b 91 d8 c1 ba 40 52 8a bc fe ff 12 ba
       0.006563102 -0.0014789273 -0.016884923 -0.0005607604
0000c0 c5 93 2d 3c 13 c3 56 3a b3 5a 83 bb 6e 5e a9 ba
       0.010594313 0.00081925205 -0.004008615 -0.0012921819
0000d0 75 7a 2e bb 64 58 56 3c 97 91 bf bb 26 72 54 3c
       -0.0026623283 0.013082597 -0.005846213 0.012966668
0000e0 17 55 bc 3b 6f b1 2d 3c 04 cd 70 3b 0e db bd bb
       0.005747448 0.0106013855 0.0036743293 -0.0057939356
0000f0 42 75 ce bb 8c e7 55 bb 71 09 74 3b e6 3c 75 bc
       -0.0063005993 -0.0032639233 0.0037237073 -0.014968133
000100 b3 55 d1 3b 82 a6 84 3c c4 c9 0a bc 5f 27 5a bc
       0.00638839 0.016192678 -0.008470956 -0.013315051
000110 f7 6a 60 3c bd 89 94 3a d0 60 57 3b 87 0a 55 3b
       0.013697377 0.0011332553 0.0032864101 0.0032507495
000120 ed 21 2b 3b 16 3a d4 b9 58 58 69 bc 42 13 4e bb
       0.002611275 -0.00040479068 -0.014242254 -0.0031444584
000130 74 dc d4 3b 2b dd 61 3b 4d e9 e0 bb 72 37 ce 3b
       0.0064960066 0.0034464102 -0.006863749 0.0062932307
000140 58 53 09 3c 5e c8 b8 bb 48 4d 2f 3b ec 7f 4c 3b
       0.008381687 -0.00563912 0.0026748944 0.0031204177
000150 9e 62 c3 3a b3 93 05 3a ea 04 a3 3b 0f 98 6f ba
       0.001490671 0.0005095556 0.004974951 -0.0009139785
000160 55 d6 31 3c b2 ee 21 3a eb 84 3b 3b 36 f4 77 bb
       0.010854323 0.0006177231 0.002861316 -0.003783477
000170 a9 96 08 3c 10 ff 6f 3b 6c 0d 58 3b 7c 9a 3b ba
       0.008336701 0.0036620535 0.0032966984 -0.0007156504
000180 fe f9 04 3c 1f 45 0d 3c dc fd bf 3b 44 e2 61 bc
       0.008116243 0.008622437 0.00585912 -0.013786856
000190 bc 30 95 bb 9f 23 07 bb ce c3 0c bb 87 df 19 bb
       -0.0045529287 -0.0020620597 -0.0021479013 -0.002347918
0001a0 bd 31 e0 3b 6b 99 b4 3b bd fb a7 ba df bd a6 bb
       0.0068418668 0.005511453 -0.0012816113 -0.0050885524
0001b0 f4 e2 8f 3c d8 a5 cf 3a 8b 42 24 bc f0 05 18 ba
       0.017564274 0.0015842272 -0.010025631 -0.00057992246
0001c0 c2 5d c9 bb 0a 5b a8 bb d7 24 d1 bb 52 d7 0e bc
       -0.00614521 -0.005137806 -0.0063825655 -0.008718329
0001d0 a3 7c 01 3c 9c 34 cf bb 2f 1b ca bb ea 4e f2 ba
       0.007903251 -0.00632341 -0.0061677913 -0.0018486653
0001e0 ec 30 b3 3a 17 20 7d bb 91 fb 27 3b 40 c2 21 3c
       0.0013671196 -0.0038623863 0.0025632123 0.009872973
0001f0 1d 11 af 3b 5f ff 2d bc eb 30 aa 3b 18 c6 1e 3b
       0.0053426162 -0.010619967 0.0051938198 0.002422696
000200 18 52 b7 bb 0a b6 90 bb 23 a1 28 3c 9a dc 8b bb
       -0.005594503 -0.004416232 0.010292324 -0.004268241
000210 80 b4 fb bb 3f 74 0f 3b 74 e0 96 ba 8d 2e ed bb
       -0.0076814294 0.0021889356 -0.0011510984 -0.0072382153
000220 2d 08 09 ba 08 37 80 3a b5 7d 25 3c 3a 16 4d 3c
       -0.00052273535 0.0009782026 0.010100772 0.012517506
000230 af ff b4 3b 2b 26 bd 3b 88 5e 75 3b bf d8 c3 bb
       0.005523644 0.0057723722 0.0037440378 -0.005976766
000240 b7 f4 bc bb f1 ec 14 bc c3 7f c2 3b d9 31 2a 3b
       -0.005766477 -0.009089694 0.0059356405 0.0025969653
000250 12 dc 3a 3c 0b 43 9b bb 28 fd cf 3b ab cf 0f 3c
       0.011405008 -0.0047382168 0.0063473172 0.008777539
000260 2d 03 a1 bb 0e 06 30 bc 40 57 8e 3c 84 3c 88 3b
       -0.0049137087 -0.010743631 0.017375588 0.0041576046
000270 f6 8b 2a 3c 1c e2 e7 3a 08 48 42 bc 66 12 d5 bb
       0.010409346 0.0017691287 -0.011857994 -0.0065024374
000280 c5 17 12 3c df 98 18 3c 8b b4 bc ba 0b 77 b5 bc
       0.0089168 0.009313791 -0.0014397068 -0.02215149
000290 ec 12 1a 3c 7c c9 34 bc bb b6 dd bb 60 17 35 bb
       0.009403925 -0.011034366 -0.006766168 -0.002763234
0002a0 4c af af 3c 21 27 0f 3c a6 c1 41 3c d3 7f 31 bc
       0.021445893 0.008737356 0.011825955 -0.010833698
0002b0 a3 34 c0 3b 73 98 22 bb 76 0c 9f 3c 5a 5e 16 bb
       0.00586565 -0.0024810105 0.019415122 -0.0022944422
0002c0 4c 69 d5 bb 19 2a 74 3b 79 68 a7 bc cc 0b db bb
       -0.0065127965 0.0037256537 -0.020435559 -0.006684756
0002d0 ff 94 50 ba 7e 63 b4 3b fa 2d 3a bc b5 47 70 3c
       -0.00079567725 0.0055050245 -0.011363501 0.014665534
0002e0 1c 6e c4 3b 9e 9f f9 3b bb de d3 ba ef 01 8f 3b
       0.0059945714 0.007617905 -0.0016164401 0.004364244
0002f0 12 9a 75 bb a7 ab 44 ba 53 23 29 3c f3 ea 09 bb
       -0.0037475866 -0.0007502385 0.010323363 -0.0021044582
000300 26 e7 74 3b 76 b7 4a 3c 32 a6 93 bb 4f af 99 3b
       0.003736922 0.012372842 -0.004505896 0.004690088
000310 12 09 91 3b 96 15 3f 3c 1c ba 83 39 68 ae 84 3b
       0.00442613 0.011662861 0.0002512493 0.004049111
000320 a3 4d 0b bc 8e 19 d5 ba ae aa 28 3c 2a 39 a1 bc
       -0.008502397 -0.0016258226 0.010294599 -0.019680578
000330 8e 9f 63 bb 1a 80 49 3b 5d 98 b0 bb c6 c5 34 bb
       -0.0034732553 0.003074652 -0.005389257 -0.0027583702
000340 fc 99 3b 3b ad d5 db 3b 9f 70 6c 3c cc c7 fa 3a
       0.0028625717 0.0067088217 0.014431148 0.001913303
000350 a4 f5 8c bb 4f a9 ad ba 67 6c 4c 3c 3c b1 7c bb
       -0.0043017436 -0.001324931 0.012477017 -0.0038557788
000360 18 96 cf bb de 73 0e bb fa a3 b7 3b fe a3 65 bc
       -0.0063350312 -0.0021736543 0.0056042643 -0.01401615
000370 ca 7b ed 3b a7 34 88 3b 21 ba d6 3b 30 70 5e 3a
       0.007247423 0.0041566673 0.00655295 0.0008485345
000380 d1 59 37 3c 5f 52 2b ba 34 47 a9 bb 97 42 04 3c
       0.0111908475 -0.00065354066 -0.005165959 0.008072517
000390 b3 b3 84 bc 59 12 91 3b fb 7b 0d bb fe d8 35 3b
       -0.016198969 0.004427236 -0.002158879 0.0027747746
0003a0 13 f8 54 ba e2 54 18 ba 04 10 2e bc e2 45 4e bb
       -0.0008124124 -0.00058109884 -0.010623936 -0.003147476
0003b0 a9 2e 26 3c 25 8d b6 ba dc 8c 66 bb 3b 84 11 bc
       0.010142961 -0.0013927562 -0.0035179174 -0.008881624
0003c0 ba 27 99 3a 77 78 17 3c 72 a1 6d 3b 9e f5 09 3c
       0.0011684813 0.00924503 0.003625956 0.008420376
0003d0 30 7f 31 bc 8f a8 4a b9 a1 ae a1 3b d2 0d a2 3b
       -0.0108335465 -0.00019327014 0.0049341475 0.004945495
0003e0 0e 0d 26 3c 87 26 cf 3a 44 16 17 bc 86 80 06 bb
       0.010134948 0.0015804329 -0.009221617 -0.0020523383
0003f0 e2 7a 83 3b 4f ae c4 bb df 9a 20 bc c1 a5 95 bb
       0.0040124515 -0.0060022245 -0.009802549 -0.0045668785

action_model._discrete_distribution.branches.4.bias f4 [2]
000000 6d 90 75 bb 6e 90 75 3b
       -0.0037470118 0.003747012

action_model._discrete_distribution.branches.4.weight f4 [2, 256]
000000 dc 67 ab ba e0 6a 07 3c cd d7 40 3c 57 d3 71 3c
       -0.0013077217 0.008265227 0.011770201 0.01475986
000010 7e 10 3a 3b 24 20 8e bb f0 88 d0 b9 7e a2 1f 3c
       0.0028391178 -0.0043373276 -0.00039774878 0.009743331
000020 cb 1e 24 bb 4b 09 b0 bb ef 7b 40 3c 46 e9 84 bb
       -0.0025042768 -0.0053722016 0.011748298 -0.0040561287
000030 ad c1 ad b9 45 63 29 bc 71 a3 4a 3c db 42 11 bc
       -0.0003314143 -0.010338609 0.012368069 -0.008866037
000040 c3 1e d9 bb 27 0f f6 3b 0b 71 15 bb 51 14 61 3b
       -0.0066259815 0.0075091305 -0.0022802975 0.0034344385
000050 08 8a 1f 3c 9e e5 66 3a ff af 81 ba 5e 00 34 bb
       0.009737499 0.00088080193 -0.000989437 -0.002746604
000060 b3 a4 e6 ba 6a fb d4 3b 10 73 aa bb 3b c8 ac 3a
       -0.0017596692 0.0064996975 -0.005201705 0.0013182232
000070 68 d2 08 bc 36 5b 2c 3a 96 6c 12 bc c9 65 e0 ba
       -0.008350946 0.0006574871 -0.008937022 -0.0017120178
000080 ab 49 a4 3b 7c 26 76 bb b7 f8 e1 bb ba 8d af ba
       0.0050136647 -0.003755956 -0.006896104 -0.0013393678
000090 6c 73 3b bc f4 04 ad ba 55 a1 da 3b 8c 5e f7 bb
       -0.011441093 -0.0013200329 0.0066720643 -0.0075491127
0000a0 2f f5 00 3c 81 74 c6 bb a2 12 6e 3b f2 8e 0d ba
       0.007870956 -0.006056369 0.0036327024 -0.00054000237
0000b0 de 6f 09 3c 1b ea 23 bc 87 b5 28 3c 47 ad 60 bc
       0.008388488 -0.010004546 0.010297186 -0.013713188
0000c0 94 0e e6 3b 8b 72 1e 3c aa 2a 27 bb 9f 73 f9 3b
       0.007020781 0.009670864 -0.0025507607 0.00761266
0000d0 1f 1a 0f 3c f8 f7 4b 3c 44 ae b6 3a 37 07 bf 3b
       0.008734255 0.012449257 0.0013937433 0.0058297175
0000e0 88 3a bc 3b c0 e3 35 3b 92 9a ba ba ae e9 ab ba
       0.005744282 0.0027754158 -0.0014236739 -0.0013115907
0000f0 ad dd c8 ba d7 51 10 3a 1b d0 91 ba cb 4c 72 3a
       -0.0015324854 0.0005505359 -0.0011124642 0.00092430104
000100 b9 bf 59 bb ba b3 b4 3b 27 95 17 bc ec a6 13 3a
       -0.0033225848 0.005514589 -0.009251869 0.0005632478
000110 ec 26 86 bb 61 6e 91 bb 50 8a 44 3c c3 31 22 bc
       -0.0040939953 -0.004438207 0.011995867 -0.009899559
000120 95 d9 07 bc 52 4a 8f bb 76 a8 37 3c d2 a6 29 3b
       -0.008291622 -0.0043728733 0.011209598 0.0025886786
000130 a3 57 3d 3a cb cb ee bb ed 27 91 3b fe 20 f2 b8
       0.0007222837 -0.0072874776 0.0044298084 -0.000115456045
000140 f2 14 ae bb f4 02 11 bb a9 a5 13 bb 4b 71 2f 3c
       -0.0053125555 -0.0022127004 -0.002252916 0.0107081635
000150 47 87 21 3c c1 a2 b3 ba 3d a9 0d bc 4e 64 57 bb
       0.009858913 -0.0013705121 -0.008646307 -0.0032866183
000160 c8 d9 b7 3a 65 70 bb b9 63 9b 65 bc 2a 90 04 bb
       0.0014026696 -0.0003575116 -0.014014098 -0.002022753
000170 13 27 c8 3b 90 f7 63 3c 25 2b 57 3c 05 9e 86 3b
       0.0061081736 0.013914004 0.013132845 0.004108193
000180 d5 6f fe bb 54 b2 e6 ba c0 0b 89 3b 8b 59 8c bc
       -0.0077647963 -0.0017600753 0.004182309 -0.017132541
000190 63 0c 1d 3c 80 db 63 3a 27 1e c0 3a a7 69 29 3c
       0.009585473 0.0008692071 0.0014657424 0.010340131
0001a0 ea 13 de 3b 50 a0 70 3b 8f 03 64 3c 2e 18 c1 bb
       0.0067772763 0.0036716647 0.013916864 -0.005892775
0001b0 b9 8b c5 3b 48 96 61 3c a3 b3 f0 bb bf 20 09 bb
       0.006028619 0.01376874 -0.007345633 -0.002092406
0001c0 1a da e0 3b e5 39 7e ba 80 7d 83 3c 55 29 8e 3a
       0.006861937 -0.0009697958 0.016051054 0.0010846058
0001d0 84 45 81 bb c5 c0 66 3b c4 a4 a1 39 b3 44 ee bb
       -0.0039450545 0.0035210114 0.00030831073 -0.007271373
0001e0 62 4a a9 bc ad d4 ab 3b 28 8f 42 bb 44 00 ad 3b
       -0.020665351 0.005243859 -0.0029687379 0.0052795727
0001f0 bf e8 fa bb da a6 8d bb 47 da 4b 3b d1 f9 13 bb
       -0.00765714 -0.004322869 0.0031105445 -0.0022579322
000200 db 81 8f 3a 3e 85 a6 3b c9 f5 9d 3a 23 a3 fd 3b
       0.0010948734 0.0050818017 0.0012051399 0.0077403947
000210 3a 11 fc ba 41 f7 cf bb ae 64 03 3b e0 14 7a bb
       -0.0019231208 -0.0063466136 0.0020049023 -0.0038159415
000220 71 16 cb bb ce 42 81 3c 9f ba 40 3c c3 0e 75 3c
       -0.0061977436 0.015778925 0.011763244 0.014957133
000230 8a 9a 1b bc 94 b5 25 bb 17 fc bf 3a fc a2 f6 bb
       -0.009497294 -0.002528523 0.0014647272 -0.0075267535
000240 af 37 54 bb 01 c4 29 bc 1d 15 e1 3b bc d0 c9 3a
       -0.0032381823 -0.010361672 0.006868972 0.0015397291
000250 61 91 8b 3a 10 c8 47 bb fc 60 77 3b d7 19 06 3b
       0.0010648185 -0.0030484237 0.0037747016 0.002046218
000260 c6 6e 83 3c 69 9f 04 bc 8d 9b ab bb 9c e7 cb 3b
       0.016044032 -0.008094647 -0.005237049 0.0062226783
000270 c9 ff 93 b9 4f ed aa 3c 1f 4b 97 37 45 01 ac bb
       -0.000282286 0.02086511 1.8035584e-05 -0.005249175
000280 6b bd d8 bb 3a 7d 63 3c 16 19 33 bc 20 48 53 bb
       -0.0066143773 0.013884837 -0.010931274 -0.0032239035
000290 e3 c9 3c bc 09 5a 24 3c 5c a0 1d bc ae dc 8a bb
       -0.011522743 0.010031232 -0.009620752 -0.004237733
0002a0 93 f4 23 ba 12 76 d9 39 5d 60 3d 3b ad 0c b6 bb
       -0.0006254401 0.00041477435 0.0028896548 -0.0055557103
0002b0 c6 af 3e bb d8 46 2c 3b 84 48 d4 3a 58 ec 2c 3c
       -0.0029096468 0.0026287343 0.0016195928 0.010554396
0002c0 ba 79 6f bb e4 4d 39 3a a0 33 85 bc a3 d5 fb bb
       -0.003654106 0.00070687965 -0.016259968 -0.0076853796
0002d0 3a cc 45 bb 93 28 3a bb c6 39 82 3b 75 0c e7 bb
       -0.0030181543 -0.0028405532 0.0039741723 -0.0070510455
0002e0 1b b4 5b bc a4 47 31 bb b3 ee 61 3c fe 2f 19 bc
       -0.01340964 -0.0027050758 0.0137898205 -0.009349821
0002f0 61 9a 3e bb c0 ed 95 bb f5 24 86 bb 54 1b bd bc
       -0.0029083716 -0.004575461 -0.004093761 -0.02308432
000300 9a 7d c2 ba 10 67 e1 3a 68 c8 e4 3b ac 21 8b bb
       -0.0014838458 0.0017196853 0.006981898 -0.0042459574
000310 1d 0b de 3a fa 24 1e 3a 20 39 14 3b 7e f1 05 b9
       0.0016940568 0.00060327316 0.0022617057 -0.00012773831
000320 bd ab 56 3b e8 dd aa bb 93 38 19 bc 6b d5 13 3b
       0.0032756173 -0.0052144416 -0.009351867 0.0022557627
000330 d5 bd af bb 6b fd 25 bc c0 94 88 bb 40 39 e4 3b
       -0.005363206 -0.01013122 -0.004168123 0.0069648325
000340 d2 3c 85 3c 19 4c c6 3a 55 28 b1 3b 43 35 bc 3b
       0.016264353 0.001512888 0.0054064193 0.005743654
000350 dd 2d 17 3a 1d 08 42 3b 47 e7 a3 ba 36 a1 c4 3b
       0.0005767027 0.0029606887 -0.0012504839 0.006000663
000360 00 f0 fa 3a ad 2a 95 bb ad 96 54 3b d4 24 18 bc
       0.0019145012 -0.0045522065 0.0032438443 -0.009286124
000370 dc 88 dc 3a 88 d7 7a ba 69 e6 f8 3a 36 dd 9c bb
       0.0016825455 -0.000956886 0.0018989566 -0.0047871126
000380 81 39 01 3b f0 a0 fd 3b 48 3f a7 3c 5c 17 4d 3b
       0.0019718113 0.0077401325 0.020415917 0.003129444
000390 7a f8 c1 bb b8 57 a3 3a 68 f6 12 3c d7 eb 6c bb
       -0.0059195133 0.0012462055 0.008969881 -0.0036151314
0003a0 f1 f9 a1 bb a6 23 a5 3b a3 c4 0e 3c 9c 85 8e 3b
       -0.0049431254 0.00503965 0.008713874 0.0043494236
0003b0 3a 5d d3 39 93 c0 27 3c 84 48 db ba e4 0c 4f bb
       0.00040314515 0.010238784 -0.0016729985 -0.0031593377
0003c0 9f 59 f3 3b cb 46 85 3b 08 44 de 3b b5 dc d6 3b
       0.007426455 0.004067277 0.0067830123 0.006557072
0003d0 f9 e3 30 bc 56 03 25 bc bc bc f0 3b 1c 3e 28 3c
       -0.01079654 -0.010071596 0.0073467176 0.010268714
0003e0 b6 67 f2 ba c1 5e 43 3c 53 9a a3 bb b2 75 26 bb
       -0.0018494043 0.011924447 -0.004992762 -0.0025399742
0003f0 57 e9 00 bc 50 8f 7a 3b 4c 39 20 bb b5 75 1c 3c
       -0.007868133 0.0038232394 -0.0024448214 0.009549548

discrete_action_output_shape f4 [1, 5]
000000 00 00 40 40 00 00 40 40 00 00 40 40 00 00 00 40
       3.0 3.0 3.0 2.0
000010 00 00 00 40
       2.0

network_body._body_endoder.seq_layers.0.bias f4 [256]
000000 56 fa 07 3c 62 f8 83 3a 69 82 f2 b8 4d f8 03 3b
       0.008299431 0.0010068531 -0.0001156375 0.0020137012
000010 ef 9d 01 bb 7a 6b d4 ba 49 3f 70 bb 47 d4 31 3b
       -0.0019777974 -0.0016206347 -0.0036658815 0.0027134584
000020 05 51 8d 3a f0 df d8 ba 94 d6 df 3a 3e 58 1b bc
       0.0010781592 -0.0016546231 0.0017077499 -0.009481488
000030 a3 ba 7c ba f3 5e 39 3b 98 05 5d bb 53 a5 a8 ba
       -0.0009640848 0.0028285354 -0.0033725258 -0.0012866653
000040 2a a5 ed bb 18 b8 b7 bb 12 34 bb 3b f8 c8 91 3b
       -0.007252355 -0.0056066625 0.0057129944 0.004449006
000050 49 2c 32 3b b8 dd 84 3b 8a 10 01 3b 9e a5 2b 3a
       0.002718704 0.0040547512 0.0019693696 0.0006547811
000060 cb 8b 9a 3a 2e f5 94 ba 1d 86 b6 bb 8a da f8 ba
       0.0011790929 -0.0011364573 -0.005570187 -0.0018986028
000070 bb de 4d bb fe fe 09 3c e8 11 05 3c fd bf af 3a
       -0.0031413275 0.008422611 0.008121945 0.0013408657
000080 1b 0d e2 3b 38 b0 14 3c 6d b2 f0 b9 1d 84 6d 3a
       0.006898535 0.009075217 -0.00045909305 0.0009060519
000090 ac c4 c0 bb ac 1d cb bb c5 f6 c5 3b a7 0e 67 3a
       -0.00588282 -0.0061986055 0.00604138 0.0008814134
0000a0 21 91 0a bb 9b 02 83 3b bb a4 f2 3a f3 c6 c0 ba
       -0.0021143632 0.0039981133 0.0018512228 -0.0014707729
0000b0 a9 65 83 ba 0f cb 9e 3b 7f f0 2d 3b 8a 87 f3 3b
       -0.0010024804 0.004845984 0.0026541052 0.007431929
0000c0 1f c9 b3 3a 9d 89 44 bc ef 7a a3 3b 57 72 88 bb
       0.0013716555 -0.0119957 0.00498902 -0.004164021
0000d0 2a a4 27 3a 01 de 9e ba ff e6 22 bb 24 bf c5 bb
       0.0006395007 -0.0012120606 -0.0024856923 -0.0060347486
0000e0 e0 cf 96 bb 33 9c 33 3b 3c 63 ab bb b6 2c a2 3b
       -0.0046024173 0.0027406334 -0.0052303355 0.0049491776
0000f0 1c 9c be 38 99 4e d7 bb 53 49 d2 3b ea b6 9c 3a
       9.088984e-05 -0.006570649 0.0064174323 0.0011956368
000100 c7 83 7e ba cd 38 ed bb 87 8c 83 ba 91 e4 0a 3c
       -0.00097089674 -0.007239437 -0.0010036387 0.008477346
000110 05 68 90 3b e2 46 47 bb f4 90 ab 3a dd 6f 9c 3b
       0.0044069313 -0.003040724 0.0013089464 0.0047740773
000120 73 25 22 3c b0 dc 41 39 f9 9a b9 39 3f 34 93 39
       0.009896624 0.00018488127 0.00035401413 0.0002807695
000130 b2 3b 44 bb b4 8d 30 bb 71 8b fd bb e8 92 9d 3a
       -0.0029942808 -0.002693993 -0.00773757 0.0012021931
000140 a6 9d c1 bb ac 0f 84 39 5d ec 23 ba 6d 8f 46 3a
       -0.0059086857 0.00025188678 -0.00062531774 0.00075744727
000150 fd 46 da 3a d3 27 53 3a 2d 73 06 bb b0 1a 96 3b
       0.0016653236 0.00080549455 -0.0020515427 0.004580818
000160 7c fe 4f 3a a7 44 62 b9 18 2f bb 3b 35 ed 09 3c
       0.00079343445 -0.00021578615 0.005712401 0.008418371
000170 43 55 ac ba 56 8c 6d b8 27 82 ea 3b 13 69 15 bb
       -0.0013147969 -5.66359e-05 0.0071566286 -0.0022798225
000180 13 e2 dd 3b f8 48 de ba 32 4a d9 3b 5f 32 f6 bb
       0.006771335 -0.0016959002 0.006631159 -0.007513329
000190 91 7f 93 bb 09 ae 15 bb ac e4 14 3b b0 c3 b2 3b
       -0.004501291 -0.0022839329 0.0022719307 0.0054554567
0001a0 3d e3 59 3b 67 98 0f 3b 58 e7 df ba 10 5a 34 3b
       0.0033247017 0.0021910907 -0.0017082496 0.0027519502
0001b0 71 d5 4d bb 29 c9 8f bb 98 22 cb bb e9 31 c5 ba
       -0.0031407739 -0.004387994 -0.0061991923 -0.0015044782
0001c0 97 1d 81 3b 11 b4 89 ba f5 aa 24 3b d1 ad d7 3b
       0.003940295 -0.0010505934 0.0025126312 0.006582
0001d0 e7 26 a5 3b bb 10 c5 3b 87 c6 f0 3b 6d 89 58 ba
       0.005040038 0.0060139573 0.007347885 -0.0008260224
0001e0 41 7a 57 bb 30 40 ac 39 b0 12 63 3b 7e c3 a5 3b
       -0.0032879265 0.0003285422 0.003464859 0.005058705
0001f0 ab da 86 ba 3f a7 85 ba e9 18 79 3a 14 74 ef 38
       -0.0010288557 -0.0010196938 0.0009502308 0.00011418029
000200 38 0f d3 3a c2 10 3e ba 86 d1 82 bb a4 e1 b1 b9
       0.0016102558 -0.0007250422 -0.0039922623 -0.00033928186
000210 ec 1e fa 3a 28 6e 9f bb 2a c9 03 3b 8c 20 1b 3b
       0.0019082702 -0.0048654266 0.0020108917 0.0023670522
000220 aa 80 97 3b 21 0a ab 3b b2 50 a7 bb 50 83 6a ba
       0.0046234922 0.0052197133 -0.005106055 -0.00089459587
000230 05 b8 b9 3b 11 d9 91 3b ba d2 9b 3b 50 df 93 3b
       0.005667689 0.004450925 0.004755345 0.004512705
000240 18 0e d5 3a 05 68 78 3b 21 3c 2b 3b 98 71 3a 3b
       0.0016254811 0.0037903797 0.002612837 0.0028449055
000250 32 e0 bf ba 40 d7 60 ba a2 3c e5 39 51 14 f0 3b
       -0.0014638959 -0.00085769966 0.0004372346 0.0073266407
000260 a0 91 0a 39 49 97 c3 3b 27 2a 39 3b 09 01 0c 3b
       0.00013214955 0.0059689623 0.0028253885 0.0021362922
000270 e0 44 ab 3b cc 79 ac 3b 4c 67 9d bb 50 48 bf bb
       0.0052267164 0.0052635428 -0.0048035737 -0.0058374777
000280 df d1 2c ba 7f 78 df 3b 4e a9 44 3a 18 9a f1 3b
       -0.00065925525 0.006819784 0.0007502035 0.0073731057
000290 2e d9 d5 3b 01 08 88 3a 3f 3a ba 3b 95 13 7c bb
       0.006526134 0.0010378362 0.005683213 -0.003846382
0002a0 e2 ed 99 bb 49 ce 35 ba b7 50 de bb 6c 6a c0 3b
       -0.0046975473 -0.0006935341 -0.0067845243 0.0058720615
0002b0 10 46 b9 bb fb ae 29 bb 69 0b b6 ba 27 37 e6 3b
       -0.005654104 -0.002589165 -0.0013888899 0.0070256176
0002c0 25 6c 23 bb 5a 22 8a bb 95 35 be bb d3 db 5b bb
       -0.0024936285 -0.004215521 -0.0058047273 -0.0033547773
0002d0 28 36 c8 3a 59 3d fc 3b 46 ce d1 3a c4 ec 2e 3c
       0.0015274929 0.007697743 0.0016006909 0.0106765665
0002e0 8d f2 72 bb 8f 11 f0 3b 6f 09 01 3c 91 b2 16 3b
       -0.003707084 0.007326312 0.007875784 0.0022994617
0002f0 4b ec fe 3b f3 56 9b 3b 36 8c d8 3b 16 2d d7 3a
       0.007779633 0.0047405898 0.0066085113 0.0016416635
000300 df 16 23 39 28 c6 53 3a 4c 58 c7 3b 73 ad 85 b9
       0.00015553412 0.0008078539 0.006083524 -0.00025496967
000310 9c f7 7c bb 27 7d 2c bb 59 09 2c 3c 7c 47 28 3b
       -0.0038599735 -0.0026319714 0.0105002755 0.0025677374
000320 4f bc c1 bb 7a 81 65 ba cd 5c 5b 3a 38 10 2e bb
       -0.0059123407 -0.000875495 0.00083680154 -0.002655996
000330 a5 75 71 bb c8 9e 53 bb aa 7c a1 3b 2d 5c c4 3b
       -0.0036843803 -0.0032290686 0.004928191 0.0059924335
000340 3a 51 7b 3b d5 24 87 3b fa 4e 8c bb 1a 84 16 bb
       0.0038347975 0.0041242638 -0.0042818757 -0.0022966922
000350 e2 de 0a 3c 33 8b 4b 3b ba 4e 5e 3b ed 2a 78 3b
       0.008475991 0.003105831 0.0033921436 0.0037867383
000360 14 ae 89 bb 5b 96 bb bb f2 02 13 3c 8c 9b 17 3c
       -0.00420166 -0.005724711 0.00897287 0.009253394
000370 f8 b9 d6 3b fc 8f f0 3b 74 f2 0f bc 2d 0f 3f bb
       0.006552931 0.007341383 -0.008785833 -0.0029153333
000380 28 7a 59 3b 23 6f f2 bb 91 a0 81 bb 5a 06 77 3b
       0.0033184383 -0.0073985024 -0.0039559086 0.0037692995
000390 d6 7a d6 3b 67 d2 74 bb fa 93 d5 bb 66 e8 0f 3a
       0.006545405 -0.0037356855 -0.0065178843 0.0005489647
0003a0 0c a9 09 3c 15 a9 fc ba 40 7f 13 3c 68 dd 90 39
       0.00840212 -0.0019276465 0.009002507 0.0002763078
0003b0 98 dd db 3b b1 a8 4e ba 76 76 2a ba f2 dc c5 3a
       0.0067097656 -0.00078834133 -0.00065026374 0.0015095754
0003c0 dc 18 b5 3b fe b2 59 bb d2 fc 6a 3b ba 2a 85 3b
       0.005526645 -0.003321826 0.003585626 0.0040639313
0003d0 64 27 34 bb de 77 59 bb 1e 11 9d bb d5 e9 7a 3b
       -0.00274893 -0.0033183019 -0.0047933003 0.0038286347
0003e0 59 89 a0 bb 55 5b c0 3b 0f 0a 09 3c 12 b8 fb bb
       -0.0048991856 0.0058702626 0.008364215 -0.007681855
0003f0 87 dc 3d ba d3 ee e8 bb 56 e2 cd 3b d4 99 40 3b
       -0.0007242639 -0.007108548 0.006283085 0.0029388564
