Assets/Model/AttackMode0526.onnx (onnx, 294299 bytes, 13 tensors)

action_model._discrete_distribution.branches.0.bias f4 [3]
0	0x3db508e5	0.08839587
1	0xbd49a4a3	-0.049229275
2	0xbd40083b	-0.04688285

action_model._discrete_distribution.branches.0.weight f4 [3, 256]
0	0x3d06800d	0.032836962
1	0xbb92a716	-0.0044754846
2	0x3d4f2111	0.050568644
3	0xbd5277cc	-0.05138378
4	0x3d1b39b5	0.03789683
5	0x3bbe962a	0.005816241
6	0xbcb4da3f	-0.022076724
7	0x3d22a500	0.039708138
8	0xbd0be4d7	-0.034153786
9	0x3cf6c054	0.030121006
10	0x3dc87036	0.097870275
11	0x3d94fbf5	0.072746195
12	0x3d346528	0.044041783
13	0xbc6bd448	-0.0143938735
14	0xbd6739a2	-0.056451447
15	0xbca1368a	-0.019679327
16	0xbda027e8	-0.078201115
17	0x3aa551dc	0.0012612897
18	0xbd2ba140	-0.041901827
19	0x3c6e6584	0.01455057
20	0x3d13145a	0.03590808
21	0xbd0203f5	-0.031742055
22	0xbcd24e6f	-0.025672166
23	0xbd17ccda	-0.037060596
24	0x3bac0d3e	0.005250602
25	0x3d8b00b6	0.06787245
26	0xbda667b0	-0.081252456
27	0x3ca46cea	0.020071466
28	0xbc08166d	-0.008306128
29	0x3b37521c	0.0027972525
30	0x3d2b843d	0.04187416
31	0x3cb9fe3f	0.022704242
32	0x3c8c8c2c	0.017156683
33	0x3d277b29	0.04088894
34	0xbcd804bc	-0.026369445
35	0xbd89da38	-0.06731075
36	0x3c52da95	0.012869497
37	0x3c35bfeb	0.01109312
38	0x3cbc16b9	0.022960054
39	0xbcb27e18	-0.021788642
40	0x3d975c4a	0.073906496
41	0x3d22e486	0.03976872
42	0x3d962c65	0.07332686
43	0x3cc42b08	0.0239463
44	0x3d401308	0.04689315
45	0x3d65bdd1	0.056089226
46	0xbc92eb25	-0.017934391
47	0x3d2635d9	0.040578697
48	0xbd0441b0	-0.032289207
49	0x3ce31b2c	0.027722917
50	0xbd52b036	-0.05143758
51	0xbc35f4ae	-0.011105699
52	0x3c98127b	0.0185635
53	0x3d0a2d31	0.033734504
54	0xbd139b95	-0.036037046
55	0xbc2cd261	-0.010548205
56	0xbcbee000	-0.02330017
57	0xbc34a3ee	-0.011025412
58	0x3d947fc1	0.072509296
59	0x3c3f8b0a	0.011690864
60	0x3c26d477	0.0101824915
61	0xbcbb43e6	-0.022859525
62	0x3d1da815	0.038490374
63	0x3cd09acc	0.025464438
64	0xbb589462	-0.0033047427
65	0x3d02e04a	0.03195218
66	0xbd3d783c	-0.046257243
67	0xbc6628ca	-0.014047811
68	0x3c1eef1c	0.009700563
69	0xbc50242f	-0.012703939
70	0x3b075c44	0.002065436
71	0xbd0b133c	-0.03395389
72	0xbd4b4090	-0.04962212
73	0xbcf9bec4	-0.030486472
74	0xbdd47d64	-0.10375479
75	0x3da42568	0.08014947
76	0x3d47676b	0.04868261
77	0xbd7f1d4c	-0.0622838
78	0x3c9439de	0.018094
79	0x3d5136d1	0.051077668
80	0xbcb9ef37	-0.022697074
81	0x3ba66ceb	0.005078902
82	0x3bd23214	0.006414661
83	0x3d0c15cc	0.034200475
84	0x3d8b7a3d	0.068104245
85	0xbc83c742	-0.016086224
86	0xbd0c8cdf	-0.034314033
87	0x3b571023	0.0032816015
88	0xbc51f4e3	-0.012814733
89	0xbce14646	-0.02749933
90	0x3c257855	0.01009949
91	0x3bef5a28	0.0073044486
92	0x3ce2e974	0.02769921
93	0x3bba2fe6	0.0056819795
94	0xbd9adbaf	-0.075614326
95	0xbd1b644d	-0.03793745
96	0xbc9598b8	-0.018261299
97	0x3ce7dabb	0.028302541
98	0x3c846af7	0.016164286
99	0xbc5ea841	-0.01358992
100	0x3d2441db	0.040101867
101	0xbc055586	-0.008138066
102	0x3ce67752	0.028133068
103	0xbd893e7c	-0.06701371
104	0xbb0bca36	-0.0021330244
105	0x3d3089fa	0.043100335
106	0x3df15bff	0.11785125
107	0xbcab4f32	-0.020911787
108	0x3ba82b28	0.0051320978
109	0x3afa646a	0.0019103412
110	0xbc14239f	-0.009041696
111	0x3cdcda3f	0.026959537
112	0x3d0aa1de	0.033845775
113	0xbcd0832e	-0.025453176
114	0x3cbeb356	0.023278873
115	0x3b20608b	0.0024471607
116	0x3c84ce86	0.01621176
117	0x3c571db9	0.013129645
118	0x3c220e43	0.009891096
119	0xbc25776c	-0.010099273
120	0xbc5e48a7	-0.013567126
121	0x3c4eb7c3	0.012617054
122	0x3d156dec	0.036481783
123	0x3ca577f9	0.020198809
124	0x3c2ab4c5	0.010419075
125	0x3db88c03	0.0901108
126	0x3c6bdd93	0.014396089
127	0x3d125aeb	0.035731237
128	0x3d31a166	0.043366812
129	0xba5616dd	-0.0008166859
130	0x3b9cfed9	0.0047911224
131	0xbcc68794	-0.02423457
132	0x3cefc09c	0.029266648
133	0x3cc23168	0.0237052
134	0x3ca5027f	0.020142792
135	0x3bfc2eb1	0.0076959957
136	0xbc8d22fa	-0.017228592
137	0x3bcc174d	0.0062283636
138	0x3dc5e8ba	0.0966353
139	0x3c0c7428	0.008572616
140	0x3c9839bf	0.018582223
141	0x3cc56a25	0.024098465
142	0xbb8e4d0e	-0.0043426817
143	0xbccfb379	-0.025354134
144	0x3d80ab25	0.06282643
145	0xbd97903b	-0.07400557
146	0xbc0fa59f	-0.0087675145
147	0xbc52925c	-0.012852278
148	0x3b366072	0.0027828482
149	0xbd0001d2	-0.031251736
150	0x3d0747b7	0.033027377
151	0x3d20c9e4	0.039255038
152	0xbd3565ef	-0.044286665
153	0x3cf99d7a	0.030470598
154	0x3cca9e29	0.02473362
155	0x3d931fc2	0.07183792
156	0xbae2684d	-0.0017273516
157	0x3c86b6d8	0.016444609
158	0xb9eb4183	-0.00044871503
159	0x3db8a3ec	0.090156406
160	0x3ce54150	0.027985245
161	0x3c519bda	0.012793506
162	0xbd336591	-0.043798033
163	0xbc8b367a	-0.01699375
164	0x3d5c0b6c	0.05372183
165	0x3d017f61	0.03161562
166	0xbcd898d1	-0.026440056
167	0x3c4323cc	0.01191039
168	0xbc49fbe1	-0.012328119
169	0x3bed9d88	0.007251445
170	0x3d96933c	0.073523015
171	0x39d8631d	0.00041272576
172	0x3d6969ac	0.056985542
173	0x3d25bcea	0.040463366
174	0xbdc3a892	-0.095536366
175	0xbb12cb37	-0.0022398958
176	0x3b35d932	0.0027747867
177	0xbc653125	-0.013988768
178	0xbcb68ebe	-0.022284862
179	0x3d8e19ab	0.069384895
180	0xbb0b0e40	-0.002121821
181	0x3c92a030	0.017898649
182	0xbd21ebf1	-0.039531652
183	0x3cb23bd1	0.021757038
184	0xbc82512d	-0.015907848
185	0x3cdee379	0.027208077
186	0x3d80e782	0.062941566
187	0xbd40f8a3	-0.04711212
188	0x3cb3a433	0.021928882
189	0xbc04eb9a	-0.008112812
190	0xbba56909	-0.0050479216
191	0x3d727fcf	0.05920392
192	0x3d3098d4	0.0431145
193	0xbb965aa4	-0.004588442
194	0xbc86430b	-0.01638939
195	0x3c0c3e0e	0.008559717
196	0x3d1df699	0.038565252
197	0x3c67440e	0.014115347
198	0xbcdf0bba	-0.027227271
199	0xbcb3474b	-0.021884581
200	0x3d8133f9	0.06308741
201	0x3d01902b	0.03163163
202	0xbcf441ea	-0.029816587
203	0x3cccb614	0.024989165
204	0x3ce3c929	0.027805882
205	0xbd91c07d	-0.07116792
206	0x3c944fe8	0.018104509
207	0xbc1ae6e7	-0.0094544655
208	0x3ca0702c	0.019584738
209	0x3cccd34b	0.025003096
210	0x3c366f66	0.011134958
211	0xbc947b53	-0.018125212
212	0xbc78fecb	-0.015197466
213	0x3d0b83c3	0.034061205
214	0xbb953478	-0.004553374
215	0x3bc7f34f	0.0061020027
216	0xbcf5e5ce	-0.030016806
217	0x3d053f7b	0.032531243
218	0x3d2007b3	0.039069843
219	0xbd564258	-0.052309364
220	0x3d000797	0.03125724
221	0xbc64c092	-0.013961928
222	0xbb364f4e	-0.0027818265
223	0xbd33411a	-0.043763258
224	0x3d9d6e8d	0.076871015
225	0x3d204202	0.03912545
226	0xbb5eb66d	-0.0033983246
227	0x3ba7ced3	0.005121091
228	0x3cf08807	0.029361738
229	0xbb4aca96	-0.0030943505
230	0x3d40b20f	0.04704481
231	0x3c574812	0.0131397415
232	0x3c20aad9	0.009806358
233	0x3d1e101f	0.038589593
234	0xbd4636ad	-0.048391987
235	0x3c82e9a2	0.015980545
236	0xbd3c481d	-0.04596721
237	0x3d4244d9	0.04742894
238	0xbc74fba9	-0.014952579
239	0x3d78bdca	0.060727872
240	0x3b77a27a	0.0037786053
241	0x3cb1a3fd	0.021684641
242	0x3cbbf7af	0.022945253
243	0x3b53cc21	0.0032317715
244	0x3cf73f9f	0.030181704
245	0x3cf9190c	0.030407451
246	0x3cdc823e	0.026917573
247	0x3c433e2c	0.011916678
248	0xbc91cdfc	-0.017798416
249	0x3c22eabf	0.009943663
250	0xbc537218	-0.01290562
251	0x3bd3bf5a	0.00646202
252	0x3c9f92c0	0.019479156
253	0x3dc5445e	0.09632181
254	0xbc706acb	-0.014673899
255	0x3d406a25	0.046976227

action_model._discrete_distribution.branches.1.bias f4 [3]
0	0x3bb76ee8	0.005597938
1	0x3c0a6f2d	0.008449358
2	0xbc006a98	-0.007837914

action_model._discrete_distribution.branches.1.weight f4 [3, 256]
0	0x3d5ff278	0.054674596
1	0x3bdfda87	0.0068314704
2	0xbd38d46a	-0.04512445
3	0xbd756370	-0.059909284
4	0xbde4a0b3	-0.111634634
5	0xbdb0d988	-0.08635241
6	0x3d3b510f	0.0457316
7	0xbb2d43e7	-0.0026438178
8	0xbd52ff14	-0.051512793
9	0xbd954d38	-0.07290119
10	0xbe04388a	-0.12912193
11	0xbd988c3e	-0.07448624
12	0x3c2ecf0e	0.010669483
13	0xbbdb0df6	-0.006685014
14	0x3b10fea5	0.0022124436
15	0xbd1f73b4	-0.038928702
16	0xbcac46d7	-0.021029873
17	0x3cef8f7a	0.02924322
18	0x3d656d4f	0.056012448
19	0xbb813bc9	-0.0039438945
20	0xbc938467	-0.01800747
21	0xbdd959d0	-0.106128335
22	0xbce4c455	-0.02792565
23	0xbcaa8094	-0.020813264
24	0xbdc2b304	-0.09506801
25	0xbd990614	-0.074718624
26	0xbd4573b2	-0.04820604
27	0xbd647c0e	-0.05578237
28	0x3b785ae9	0.0037895984
29	0x3c38de8b	0.011283527
30	0xb8f67b43	-0.000117531534
31	0xbbe31b3e	-0.0069307378
32	0xbc8d190d	-0.01722386
33	0xbd5d40fa	-0.054017045
34	0xbd885a59	-0.066578574
35	0xbca02bc8	-0.019552127
36	0x3cf878fa	0.030331124
37	0xbe0b23c6	-0.13587865
38	0xbd6cc6cd	-0.05780678
39	0x3c5138cc	0.012769889
40	0xbd4f52dd	-0.050616134
41	0xbd2be3e1	-0.04196537
42	0xbcf69ffb	-0.030105582
43	0xbd472600	-0.048620224
44	0xbc087108	-0.00832773
45	0xbd55eb04	-0.05222608
46	0xbd82872b	-0.063734375
47	0xbd85bf78	-0.065306604
48	0x3d5ec1de	0.054384105
49	0xbd0b96d9	-0.034079406
50	0xbd929f62	-0.07159306
51	0xbda17078	-0.0788278
52	0xbdda73cf	-0.1066662
53	0xbd8c2f79	-0.06844992
54	0xbde81ade	-0.113332495
55	0x3d08e2a8	0.03341928
56	0xbd94b65b	-0.07261344
57	0xbc475ef7	-0.0121686375
58	0xbdb1a758	-0.086744964
59	0xbd248fbe	-0.040176146
60	0x3cfbf2c6	0.030755412
61	0xbdac4c00	-0.08412933
62	0xbca60168	-0.020264342
63	0x3c47e8ac	0.012201469
64	0xbda653e1	-0.081214674
65	0xbc56b0d3	-0.013103682
66	0x3b6ae9a6	0.0035844832
67	0x3cf48b51	0.029851587
68	0xbd4d5659	-0.050131176
69	0xbd72cbe6	-0.059276484
70	0xbd9f1109	-0.07766921
71	0x3dc0db52	0.09416832
72	0xbd403c77	-0.046932664
73	0xbdf0493a	-0.11732717
74	0x3d72328c	0.059130237
75	0x3be881f2	0.007095569
76	0xbdb96ae4	-0.09053591
77	0xbd0c8d40	-0.034314394
78	0xbc8fc788	-0.017551199
79	0xbbb744df	-0.005592927
80	0xbe0e5c89	-0.13902487
81	0xbd432437	-0.04764196
82	0xbd158cd8	-0.036511272
83	0xbd0dbc12	-0.034603186
84	0xbe074022	-0.13208058
85	0xbceecb1d	-0.029149586
86	0x3c0a8de2	0.008456679
87	0xbcffa983	-0.03120876
88	0xbcdbda79	-0.026837574
89	0xbd3fee80	-0.04685831
90	0xbd8cdd8d	-0.06878195
91	0xbd118fb9	-0.035537455
92	0x3c825a20	0.015912116
93	0x3b8c9029	0.004289646
94	0xbd9c655e	-0.07636522
95	0xbc16c475	-0.009202112
96	0xbd1b0818	-0.037849516
97	0xbcc5d3e8	-0.024148896
98	0xbe1e234d	-0.15443154
99	0xbcef4f86	-0.029212724
100	0xbd1097a3	-0.035300862
101	0xbcba34d2	-0.022730265
102	0x3cb8adb3	0.022543764
103	0xbdde847d	-0.10865114
104	0x3d0c5ffc	0.034271225
105	0xbcf8fe7b	-0.030394783
106	0xbdb79c17	-0.08965319
107	0x3b7dccb0	0.003872674
108	0xbd8e74f1	-0.069558986
109	0xbcda7b59	-0.026670145
110	0xbdd6f96d	-0.10496793
111	0xbdbddb30	-0.09270322
112	0xbcc76d42	-0.02434409
113	0xbc375e0d	-0.011191857
114	0x3ce1aa83	0.027547127
115	0x3bc574ed	0.0060259015
116	0xbd7540b0	-0.059876144
117	0xbe214064	-0.1574722
118	0xbd324132	-0.043519206
119	0xbda50143	-0.08056881
120	0xbc9dacb2	-0.019247387
121	0xbdbe25b1	-0.09284533
122	0xbdea4415	-0.11438767
123	0xbbdee898	-0.0068026297
124	0xbda642f7	-0.08118241
125	0x3c87fcee	0.016600098
126	0x3d65fd12	0.05614955
127	0xbccd4caa	-0.02506097
128	0xbd66fdff	-0.056394573
129	0xbdc99ef7	-0.09844773
130	0xbdae5a2d	-0.085132934
131	0xbdbf0b43	-0.0932832
132	0xbd05059c	-0.032476053
133	0xbd7bda72	-0.061487623
134	0xbd922701	-0.07136346
135	0xbd9d362d	-0.07676349
136	0xbdb17266	-0.08664398
137	0xbc8e8a7e	-0.017400023
138	0xbe09f5b0	-0.13472629
139	0x3c734887	0.014848835
140	0xbd0e7205	-0.034776706
141	0xbcdb39fd	-0.02676105
142	0xbd0bae49	-0.03410176
143	0xbe28311e	-0.16424987
144	0x3c4b5fdb	0.01241299
145	0xbce6a19d	-0.028153235
146	0xbcedad37	-0.02901326
147	0xbe496dca	-0.19670787
148	0xbd95a27f	-0.07306384
149	0xbcd8eb8b	-0.026479503
150	0xbd60c164	-0.05487193
151	0xbe06b7fe	-0.13156125
152	0xbda2f445	-0.07956747
153	0xbd210f6e	-0.039321356
154	0xbd1c8043	-0.038208257
155	0xbd8c506d	-0.068512775
156	0x3ca6ede5	0.020377109
157	0xbde4fa67	-0.11180573
158	0xbda27ec8	-0.07934338
159	0xbe1215c4	-0.14266115
160	0xbcd4bdae	-0.025969353
161	0xbda4368e	-0.08018218
162	0xbd781be7	-0.060573485
163	0x3bac110b	0.005251055
164	0x3cdf8196	0.027283471
165	0xbc8aca65	-0.016942212
166	0xbdb8f99d	-0.09031985
167	0x3ceb6289	0.028733509
168	0x3c8b647d	0.01701569
169	0xbd01b070	-0.031662405
170	0xbe082c58	-0.13298166
171	0xbd26a4c7	-0.040684488
172	0x3b28be64	0.0025748247
173	0xbd03bfd4	-0.032165363
174	0x3d80c68f	0.06287872
175	0x3c934c69	0.017980771
176	0x3c28173d	0.010259447
177	0x3dac8405	0.08423618
178	0xbd49c2de	-0.049258105
179	0x3d25ae78	0.04044959
180	0xbbf645c0	-0.007515639
181	0x3daafa41	0.083485134
182	0xbd4b4442	-0.049625643
183	0x3c844ff4	0.016151406
184	0xbd5dae4b	-0.054121297
185	0x3b664939	0.003513886
186	0xbd1e73bc	-0.03868459
187	0xbd2d4ac4	-0.04230763
188	0xbd55d462	-0.052204497
189	0xbd890f7d	-0.06692407
190	0xbd9d8573	-0.07691469
191	0x3a29760c	0.0006464429
192	0x3d896e0d	0.06710444
193	0xbdcc14b2	-0.09964885
194	0xbddbdb80	-0.10735226
195	0x3b71f689	0.0036920628
196	0xbd965b96	-0.073416874
197	0x3d021074	0.031753972
198	0x3bd52455	0.0065045753
199	0xbd03847d	-0.032108773
200	0xbd59c12f	-0.05316275
201	0xbd34253a	-0.043980815
202	0xbdd7feb1	-0.105466254
203	0xbc32b4ab	-0.010907332
204	0xbdb8e4e5	-0.09028033
205	0xbca10157	-0.01965396
206	0xbde40634	-0.11133996
207	0xbc14c8d0	-0.009081081
208	0xbd87709d	-0.06613276
209	0xbdae3b3b	-0.08507391
210	0x3d8a0084	0.067383796
211	0xbc9448fc	-0.018101208
212	0x3b8a9ec5	0.0042303526
213	0xbdd1a03b	-0.1023564
214	0xbd9e4dc7	-0.077296786
215	0xbc865dba	-0.016402114
216	0xbb5ad51f	-0.003339119
217	0xbc14bd09	-0.009078273
218	0xbd60e8f7	-0.054909673
219	0xbcb9fdb8	-0.02270399
220	0xbd048be3	-0.03235997
221	0xbcf2b6b3	-0.029628133
222	0xbcf7558e	-0.030192163
223	0xbd6c926d	-0.05775683
224	0xbc8f26c7	-0.017474545
225	0xbbb5a855	-0.0055437484
226	0xbd12fc40	-0.035885096
227	0xbd01f384	-0.031726375
228	0xbd5a6751	-0.053321186
229	0xbd069ed1	-0.032866303
230	0xbd0bacf1	-0.034100477
231	0xbd4f6f1c	-0.05064307
232	0x3c91a872	0.017780516
233	0xbc1eff01	-0.009704352
234	0x3c98fdc1	0.018675687
235	0xbe37d854	-0.17953616
236	0xbd0eec5a	-0.03489337
237	0xbdccb5b2	-0.09995593
238	0xbdb13d28	-0.08654243
239	0xbda9c6e3	-0.08289888
240	0xbd95626a	-0.072941616
241	0xbd32abd7	-0.04362091
242	0xbdee3836	-0.11631815
243	0x3c663b51	0.014052228
244	0x3d83f54a	0.064432696
245	0xbe0d6548	-0.13808167
246	0xbd99de2e	-0.075130805
247	0xbd8d787e	-0.06907748
248	0x3bd9fc2e	0.0066523766
249	0xbd82e1be	-0.06390713
250	0x3d3368bc	0.043801054
251	0xbd95b4fc	-0.07309911
252	0x3d14ac0f	0.0362969
253	0xbd3b88c2	-0.04578472
254	0x3c8a5cda	0.016889978
255	0xbbdf5c12	-0.0068163956

action_model._discrete_distribution.branches.2.bias f4 [3]
0	0xbcc6d8f0	-0.024273366
1	0x3cccdeb3	0.025008535
2	0x3c4fd87a	0.012685889

action_model._discrete_distribution.branches.2.weight f4 [3, 256]
0	0x3be983dd	0.007126315
1	0xbd76598f	-0.060144003
2	0xbc869ade	-0.016431268
3	0x3c71873f	0.014741718
4	0xbde13a96	-0.109975025
5	0xbbd8d94a	-0.0066176997
6	0xbc48ac68	-0.012248136
7	0xbca122a2	-0.019669835
8	0xbd995e3a	-0.074886754
9	0xbd9add00	-0.07561684
10	0x3ca6062c	0.020266615
11	0xbd02e6cd	-0.03195839
12	0xbc3eefde	-0.0116538685
13	0xbcc2a7c8	-0.023761645
14	0xbd16830d	-0.036746074
15	0x3c4519ff	0.012030124
16	0x3d1eac32	0.038738437
17	0xbdc9d4a6	-0.098550126
18	0xbcca0433	-0.024660205
19	0x3d29db87	0.041469123
20	0x3c443421	0.011975319
21	0x3d115549	0.035481725
22	0x3cdb4f37	0.026771171
23	0xbd5a6018	-0.0533143
24	0xbba7159d	-0.005099012
25	0xbd98d413	-0.07462325
26	0x3cfa32db	0.030541828
27	0xbd88b5f9	-0.066753335
28	0xbd70bd9a	-0.05877457
29	0xbd87aadc	-0.06624386
30	0xbcb94542	-0.022616033
31	0x3d344c61	0.044018153
32	0xbd0d5a27	-0.034509804
33	0xbd4894de	-0.048970096
34	0xbd238982	-0.03992606
35	0xbd509dbb	-0.050931673
36	0xbd2ec668	-0.042669684
37	0x3c6ca167	0.014442778
38	0xbd5255db	-0.05135141
39	0x3c60922b	0.013706724
40	0xbd9f85c0	-0.07789183
41	0x3d1e03e2	0.03857792
42	0x3bded374	0.0068001095
43	0xbd9604fe	-0.07325171
44	0x3c0d941b	0.008641268
45	0xbc4ed071	-0.0126229385
46	0xbd6ac450	-0.057316124
47	0xbd160fef	-0.03663629
48	0xbd25349c	-0.040333375
49	0xbcc89660	-0.024485767
50	0xbd6651e1	-0.05623043
51	0xbde5e740	-0.11225748
52	0xbb548817	-0.0032429749
53	0xbd272336	-0.040805064
54	0xbc7872d2	-0.015164094
55	0xbc893ae6	-0.016751718
56	0xbd872058	-0.06597966
57	0xbb626948	-0.0034547616
58	0xbd9212e1	-0.07132507
59	0x3c8a9e30	0.016921133
60	0xbcc730f1	-0.02431533
61	0xbde47908	-0.111558974
62	0x3bd521c2	0.0065042684
63	0xbdfef747	-0.12449508
64	0xbcbd8aff	-0.023137568
65	0xbdc97fce	-0.0983883
66	0xbcf4115d	-0.029793436
67	0xbd27c8c2	-0.040962942
68	0xbcae764b	-0.02129664
69	0xbc0a24dd	-0.00843164
70	0xbd471b37	-0.04860994
71	0xbdcb3ded	-0.09923921
72	0x3cea7264	0.028618999
73	0xbd106b4f	-0.035258587
74	0xbd06d928	-0.03292194
75	0xbccf37c4	-0.025295146
76	0xbd21f5c0	-0.039541006
77	0xbca995eb	-0.02070137
78	0xbdfc1445	-0.123085536
79	0xbd882952	-0.06648506
80	0xbb1b4a3a	-0.0023695366
81	0xbd322f04	-0.04350187
82	0x3cae6178	0.021286711
83	0xbd7a534d	-0.061114598
84	0x3cf1b642	0.029505853
85	0xbd7024d6	-0.05862888
86	0xbcd2f2f5	-0.025750617
87	0x3c6422b2	0.013924288
88	0xbe14c857	-0.14529549
89	0xbd647474	-0.05577512
90	0xbdc11b35	-0.094290175
91	0x3cf75463	0.030191606
92	0xbc1378ef	-0.009001001
93	0xbd79833b	-0.060916167
94	0xbce291e2	-0.027657453
95	0xbc391281	-0.011295916
96	0xbd845571	-0.06461609
97	0xbc76671d	-0.015039233
98	0xbdc352f8	-0.095373094
99	0xbd83eee7	-0.064420514
100	0xbd44243d	-0.047886122
101	0xbd37132b	-0.044696014
102	0xbc683970	-0.01417385
103	0xbdf4ce56	-0.11953418
104	0x3caa7b36	0.020810705
105	0xbd11ccf0	-0.035595834
106	0xbdab77cb	-0.08372458
107	0xbd7e1085	-0.062027473
108	0x3b9d58e5	0.004801857
109	0xbd92c74f	-0.07166921
110	0xbbdadf8b	-0.0066794804
111	0xbd298600	-0.041387558
112	0xbcaea6b4	-0.021319725
113	0xbd91ac61	-0.07112957
114	0x3cf143d5	0.02945129
115	0xbcc398fc	-0.02387666
116	0xbc1ac739	-0.009446912
117	0xbccd3cb9	-0.025053369
118	0xbda94cfc	-0.08266637
119	0xbd2cd27c	-0.04219292
120	0xbd7ec25d	-0.062197078
121	0xbd5c172e	-0.053733043
122	0xbbdcf5df	-0.0067431773
123	0xbd027c62	-0.031856902
124	0xbdb1414a	-0.08655031
125	0x3d40ea9b	0.047098737
126	0xbaa6ed1a	-0.0012735457
127	0xbc8e48a6	-0.017368626
128	0xbd5f7d7e	-0.054563038
129	0xbd0c3a9f	-0.034235593
130	0xbd131727	-0.03591075
131	0xbd568dcf	-0.052381333
132	0x3b15607a	0.00227931
133	0xbc55f9bb	-0.013060029
134	0xbd7fda51	-0.062464062
135	0xbd78fc7b	-0.06078766
136	0xbd9b021e	-0.07568763
137	0x3a10f409	0.0005529528
138	0xbd9d3dbc	-0.076777905
139	0xbd103323	-0.035205018
140	0xbd68e63c	-0.056860194
141	0xbcbe0ca5	-0.023199389
142	0xbd3079c7	-0.043084886
143	0x3d0bf2f2	0.034167238
144	0xbda6aae0	-0.081380606
145	0xbbbd8e62	-0.0057847956
146	0x3caad336	0.020852666
147	0x3d15ca75	0.03657003
148	0xbd1cc41c	-0.038272962
149	0xbcadb292	-0.021203313
150	0xbd58d82e	-0.05294054
151	0xbdbe1c60	-0.09282756
152	0x3baa98a4	0.0052061845
153	0xbd07cbeb	-0.033153456
154	0x3c972f51	0.01845518
155	0xbe1e7d04	-0.15477377
156	0xbd8429e4	-0.064533025
157	0xbdd0d766	-0.10197334
158	0x3c82e453	0.015978014
159	0xbd4eaeaf	-0.05045956
160	0xbd6c7404	-0.05772783
161	0x3d04c296	0.032412134
162	0xbcdcc0ae	-0.026947346
163	0x3bb8adb8	0.0056359433
164	0xbd389aac	-0.04506938
165	0xbce3bc10	-0.027799636
166	0xbda1bd28	-0.07897407
167	0xbda9908f	-0.082795255
168	0xba8ff807	-0.0010983952
169	0xbd057667	-0.03258362
170	0xbd4339e8	-0.047662646
171	0xbd22bd86	-0.039731525
172	0xbdab5ef3	-0.083677195
173	0xbd3a8a67	-0.045542147
174	0xbc0dfbc7	-0.008665985
175	0xbd2c64bf	-0.042088266
176	0xbdd27cbe	-0.10277699
177	0xbd15c0b3	-0.036560725
178	0xbddc3de8	-0.10753995
179	0xbc0c8ec4	-0.00857896
180	0xbcf79ad6	-0.030225199
181	0x3d2f4ac1	0.0427959
182	0xbd848019	-0.06469745
183	0xbcdaddde	-0.026717123
184	0xbd7b4365	-0.06134357
185	0x3c7da17c	0.015480395
186	0x3d0335c2	0.03203369
187	0xbcd6d30b	-0.02622368
188	0xbd95e20d	-0.073185064
189	0xbcf3727f	-0.029717682
190	0xbce491c3	-0.027901536
191	0xbdd97416	-0.10617845
192	0xbd38bd03	-0.04510213
193	0xbc3a4ab9	-0.011370354
194	0xbc5a7aa7	-0.013334907
195	0xbd6cf617	-0.057851877
196	0xbdb157a0	-0.08659291
197	0x3c21ead0	0.009882644
198	0xbc534937	-0.012895874
199	0xbd6393ba	-0.055560805
200	0xbd9715fe	-0.073772416
201	0xbda8009c	-0.08203241
202	0xbda2376d	-0.07920728
203	0xbd888c2d	-0.066673614
204	0xbdc9190b	-0.0981923
205	0x3cc8829f	0.024476347
206	0x3d899d0d	0.06719408
207	0xbe03fcb0	-0.12889361
208	0xbd59193b	-0.053002577
209	0xbd2aa13d	-0.041657675
210	0xbd883e4b	-0.066525064
211	0x3c9a069d	0.018801982
212	0xbd879785	-0.06620697
213	0xbcfd3c14	-0.030912437
214	0xbd837d4b	-0.06420382
215	0x3bac8d16	0.005265842
216	0xbd0ac028	-0.03387466
217	0x3dce6582	0.10077955
218	0xbdccc6cc	-0.09998855
219	0xbcbfb1d5	-0.023400227
220	0x3bff9069	0.0077991975
221	0xbd3f2bb0	-0.046672523
222	0x3d21de49	0.03951863
223	0xbd193ed4	-0.037413433
224	0xbd8f1baa	-0.069876984
225	0xbd186689	-0.03720716
226	0xbc950872	-0.018192504
227	0xbd01c107	-0.031678226
228	0xbdd17c2b	-0.10228761
229	0xbd8eddc0	-0.06975889
230	0xbcc9877b	-0.024600735
231	0x3da7a001	0.08184815
232	0xbd2f08e6	-0.042733096
233	0x3d0c9bae	0.034328155
234	0xbc992e27	-0.018698765
235	0xbb9dedbf	-0.0048196013
236	0x3d61ab9f	0.05509531
237	0xbcfc86d4	-0.03082601
238	0x3d258d03	0.040417682
239	0xbc846cfb	-0.016165247
240	0xbcf39d35	-0.029738048
241	0xbc95a578	-0.018267378
242	0xbd0566a5	-0.032568593
243	0xbc7aeee9	-0.01531575
244	0x3b4cebfd	0.003126859
245	0xbc5f846f	-0.0136424145
246	0x3adcc08c	0.0016842051
247	0xbcf9029f	-0.030396758
248	0xbd25b565	-0.040456194
249	0x3beac09d	0.0071640746
250	0xbd007359	-0.031360004
251	0xbd9e8182	-0.077395454
252	0xbb21b607	-0.0024675147
253	0xbd9a184f	-0.07524168
254	0x3d47d5f0	0.04878801
255	0xbcc05e54	-0.02348248

action_model._discrete_distribution.branches.3.bias f4 [2]
0	0xbd2d75ff	-0.042348858
1	0x3d2d7618	0.04234895

action_model._discrete_distribution.branches.3.weight f4 [2, 256]
0	0x3d209e4b	0.03921346
1	0x3d717ce7	0.058957007
2	0xbca25813	-0.019817388
3	0x3ca25c98	0.019819543
4	0x3d8f6d1e	0.07003234
5	0x3d3cf891	0.04613549
6	0xbd5b1bb3	-0.053493213
7	0x3dc3d849	0.095627375
8	0x3d8a4cd8	0.06752938
9	0x3bd6e52d	0.0065580816
10	0x3db3bda8	0.087764084
11	0x3d1d165c	0.0383514
12	0x3ceb2491	0.02870396
13	0x3cc0cd06	0.023535263
14	0x3be22fa1	0.0069026505
15	0x3d408a52	0.047006913
16	0xbcab7299	-0.020928668
17	0x3c0a1a06	0.008429056
18	0x3ce3ebe7	0.027822448
19	0x3cf71698	0.03016214
20	0x3c0ee8fe	0.008722542
21	0xbd1622f1	-0.036654416
22	0x3c229511	0.0099232355
23	0x3d411ef9	0.04714868
24	0x3bab1079	0.0052204696
25	0x3dcacb54	0.09902063
26	0x3bc144f9	0.0058981148
27	0x3db2694b	0.08711489
28	0x3d4bfe2f	0.049802955
29	0x3dc2426e	0.09485327
30	0x3da22400	0.07917023
31	0x3d1f879e	0.038947694
32	0x3aeb99bb	0.0017974892
33	0x3db81c30	0.08989751
34	0x3d68f7ac	0.056876823
35	0x3d00a79e	0.031409852
36	0xbd275757	-0.04085478
37	0xbc852572	-0.016253207
38	0x3bbbd31b	0.005731953
39	0xbd3cad79	-0.046063874
40	0xbc8119f9	-0.015759455
41	0xbd78903b	-0.060684424
42	0x3ca84f54	0.02054564
43	0x3d5e7cbe	0.054318182
44	0x3d8b01a1	0.0678742
45	0x3cd3dee9	0.025863128
46	0x3bb4d2a4	0.0055182744
47	0x3c278768	0.010225154
48	0x3d599f8a	0.053130664
49	0x3e205e4e	0.15660974
50	0x3b544e4b	0.00323953
51	0x3d323fb8	0.0435178
52	0x3d11f81b	0.035637002
53	0xbd1cf651	-0.038320843
54	0xbc3d02de	-0.011536328
55	0x3ca7c6b1	0.020480486
56	0x3d3ce598	0.046117395
57	0x3c795f0d	0.015220416
58	0x3d88a730	0.066725135
59	0x3d96d6a3	0.073651575
60	0xbd14a646	-0.036291383
61	0x3da0123d	0.07815979
62	0xbc82e1f0	-0.015976876
63	0x3d2b51c4	0.041826025
64	0x3d8b977d	0.068160035
65	0x3d07b391	0.033130232
66	0xbb68e59a	-0.0035537244
67	0x3d12ae26	0.035810612
68	0x3d854c36	0.06508677
69	0x3ce5f111	0.028069051
70	0x3d62d8af	0.055382427
71	0x3a8f0ab3	0.0010913223
72	0x3e026ff6	0.12738022
73	0x3b80c2f3	0.0039294898
74	0xbcf1d22a	-0.02951916
75	0xbd701aa6	-0.058619164
76	0x3d8d51c4	0.06900361
77	0xbd28cd08	-0.041211158
78	0x3db49c8d	0.08818922
79	0xbd33cc5a	-0.043896057
80	0x3c90bc99	0.017668055
81	0x3ca4d953	0.02012316
82	0x3e2091ff	0.15680693
83	0xbc15a9b9	-0.009134703
84	0x3d6ec1b7	0.05829021
85	0x3cd62183	0.026139027
86	0x3d71cf19	0.059035394
87	0xbcd8ab37	-0.02644883
88	0x3cd59e21	0.026076378
89	0x3d4900d9	0.049073074
90	0x3de4ce8d	0.11172209
91	0xbdad18c9	-0.08451993
92	0x3df23fb9	0.118285604
93	0x3d975ac8	0.07390362
94	0x3cde19fe	0.027112003
95	0x3cab2c00	0.020895004
96	0x3dc850d4	0.09781042
97	0x3d85f8f7	0.06541627
98	0xbd07a9b9	-0.033120845
99	0x3b6fcb2c	0.0036589606
100	0x3da580e0	0.080812216
101	0xbd661b61	-0.056178454
102	0x3d91377a	0.070906594
103	0x3d3e7490	0.04649788
104	0xbc6ffda4	-0.014647875
105	0x3c1c71cc	0.009548616
106	0xbce7ddab	-0.028303942
107	0x3cf97899	0.030453013
108	0x3c2883d6	0.010285338
109	0x3d059685	0.03261425
110	0x3cab0f5b	0.020881345
111	0x3d03ee9d	0.03220998
112	0xbcc63d62	-0.024199191
113	0x3c67ee07	0.014155871
114	0x3bbbf81b	0.0057363636
115	0x3d884d8d	0.06655417
116	0xbd85ec6b	-0.06539234
117	0x3c5adfcc	0.013359021
118	0x3d8b8889	0.068131514
119	0xbcd5c05b	-0.026092699
120	0xbc35b83a	-0.011091286
121	0x3d738df6	0.059461556
122	0x3c609d2c	0.013709348
123	0x3e0369f2	0.12833384
124	0x3dad74ff	0.08469581
125	0x3ba7e1d5	0.005123357
126	0xbc02a26c	-0.007973295
127	0xbc6eb24e	-0.014568878
128	0x3d5ad404	0.05342485
129	0x3d0e1ce0	0.034695506
130	0x3de5656f	0.112009875
131	0x3dfa4971	0.12221039
132	0x3cd69630	0.026194662
133	0x3c2f6c93	0.010707038
134	0x3ca0ec5f	0.01964396
135	0x3c8d2c14	0.017232932
136	0x3d8b58fe	0.06804083
137	0x3bee2a76	0.0072682453
138	0x3d56b80e	0.052421622
139	0xbca7c341	-0.020478847
140	0x3b9e0490	0.0048223212
141	0x3e04b7b3	0.129607
142	0x3a4916e5	0.0007670953
143	0x3d1154de	0.035481326
144	0xbc5e710f	-0.01357676
145	0x3cb4def7	0.022078974
146	0x3d95616e	0.07293974
147	0xbd0ea2ff	-0.034823414
148	0x3d6de8c9	0.05808333
149	0x3c92870b	0.01788666
150	0x3c55fe40	0.013061106
151	0x3da0cb40	0.07851267
152	0x3c90fa52	0.017697487
153	0x3ab98f03	0.0014157001
154	0xbb6e4b57	-0.0036360824
155	0xbdd4959b	-0.103800975
156	0x3c3cbb78	0.011519305
157	0x3cd9b99b	0.026577761
158	0x3c107eed	0.008819324
159	0x3d63be28	0.05560127
160	0x3e0871c9	0.13324656
161	0x3d8a3d23	0.06749942
162	0x3c63aa26	0.013895547
163	0xbd5e5d93	-0.054288458
164	0x3cef0c9f	0.029180823
165	0xbb979135	-0.0046254643
166	0x3d4f90d0	0.050675213
167	0x3ce0178f	0.027354984
168	0xbc2043b8	-0.00978177
169	0x3d347697	0.04405841
170	0x3c478441	0.012177528
171	0x3da92f22	0.08260943
172	0x3d5869ee	0.052835397
173	0x3ddc49a7	0.107562356
174	0x398d0367	0.0002689615
175	0xbccbc850	-0.02487579
176	0x3d55c178	0.05218646
177	0x3d09eb71	0.0336718
178	0x3dc463f5	0.09589378
179	0xbd041a12	-0.032251425
180	0x3cd5d5d0	0.02610293
181	0x3c85e10b	0.01634266
182	0x3d025b23	0.031825196
183	0xbb87f976	-0.004149611
184	0x3daa05bb	0.08301874
185	0xbc909392	-0.017648492
186	0x3ce3898f	0.027775554
187	0x3cbe1b6d	0.023206437
188	0x3dd34308	0.103155196
189	0x3da1a04e	0.07891904
190	0xbd9a468a	-0.075329855
191	0xbc625ed4	-0.013816554
192	0x3cc23218	0.023705527
193	0x3d0cd6e0	0.03438461
194	0x3ce6b258	0.028161213
195	0x3cc47526	0.023981642
196	0x3d04160b	0.032247584
197	0xbd758934	-0.0599453
198	0x3cedc591	0.029024871
199	0x3c77a858	0.01511582
200	0x3d435328	0.047686726
201	0x3d851e54	0.06499925
202	0x3d986f85	0.07443146
203	0x3d40ecaa	0.0471007
204	0x3dfc1d8f	0.12310325
205	0x3d19ee3a	0.037580706
206	0x3c8d7331	0.017266842
207	0x3d2b37b5	0.041801173
208	0x3ce79843	0.028270846
209	0x3d96ef42	0.073698536
210	0xbd1cf18d	-0.0383163
211	0x3ab1769f	0.001353938
212	0x3d1da114	0.038483694
213	0x3dcb7c17	0.09935778
214	0x3d35ee64	0.0444168
215	0xbd2489b3	-0.040170383
216	0xbcf18bc8	-0.029485598
217	0x3c3b81ee	0.011444552
218	0x3dc3ba67	0.09557038
219	0xbcc07f2c	-0.02349814
220	0xbd69f231	-0.057115737
221	0x3cf0d6b7	0.029399259
222	0x3aedbbca	0.001813763
223	0x3b982e08	0.004644159
224	0x3d246929	0.04013935
225	0x3b800142	0.0039064
226	0x3c4b5b78	0.012411945
227	0xbc158d65	-0.009127949
228	0x3e02d0f2	0.12775019
229	0x3e0e651f	0.13905762
230	0xbd5853a2	-0.052814133
231	0x3b77cd12	0.003781144
232	0x3de2ed02	0.11080362
233	0xbd64f2b3	-0.05589552
234	0xbcdcbc20	-0.026945174
235	0xbaf88f08	-0.0018963525
236	0x3df62f06	0.12020688
237	0xbd35a0e2	-0.044342883
238	0xbd0edece	-0.03488045
239	0x3ca7f80d	0.020504022
240	0x3d711d82	0.05886603
241	0x3de1fdf1	0.110347636
242	0x3d2626ae	0.04056423
243	0xbcb47a2a	-0.022030909
244	0x3b7ae5dc	0.003828398
245	0xbc629299	-0.013828897
246	0x3d06ea24	0.032938138
247	0x3d8e9b71	0.06963242
248	0x3e5726af	0.2101085
249	0x3c4c3f5c	0.012466278
250	0xbd6a5707	-0.057211902
251	0x3d392f33	0.04521103
252	0x3d1788ef	0.036995824
253	0x3ce248b6	0.027622562
254	0x3dca3cbf	0.09874868
255	0x3d9dc458	0.07703465

discrete_action_output_shape f4 [1, 4]
0	0x40400000	3.0
1	0x40400000	3.0
2	0x40400000	3.0
3	0x40000000	2.0

network_body._body_endoder.seq_layers.0.bias f4 [256]
0	0x3c96df0c	0.018416904
1	0xbdf39fb8	-0.11895698
2	0xbd43fbfa	-0.047847725
3	0x3d36e3b2	0.04465074
4	0xbdc53d62	-0.096308485
5	0xbdc2229b	-0.09479257
6	0x3c09467e	0.008378623
7	0x3d13097f	0.035897728
8	0x3ce7582a	0.028240282
9	0xb94830af	-0.00019091622
10	0xbc85becf	-0.016326336
11	0x3c70a0d1	0.014686779
12	0x3c1f686d	0.009729487
13	0xbdc18705	-0.09449581
14	0xbda6502c	-0.0812076
15	0xbd9240d9	-0.07141275
16	0xbe08cadc	-0.13358635
17	0xbd01f78b	-0.031730216
18	0xbd092aae	-0.03348797
19	0xbdf66638	-0.120312154
20	0xbdc43364	-0.095801145
21	0xbbfd5b83	-0.0077318563
22	0x3dc65055	0.09683291
23	0x3d9f21a0	0.07770085
24	0xbd8278e8	-0.06370717
25	0xbbefa60e	-0.0073134964
26	0xbe1d87f6	-0.15383896
27	0xbcb59953	-0.022167837
28	0x3bab96a8	0.0052364655
29	0x3bddac63	0.006764935
30	0xbc62d9a1	-0.013845832
31	0xbd8d18ad	-0.06889472
32	0xbd31fc41	-0.04345346
33	0x3c5bd1fe	0.013416765
34	0x3c940082	0.018066648
35	0xbdae4bc7	-0.08510547
36	0xbd924081	-0.071412094
37	0xbd9ae312	-0.075628415
38	0xbdb9bb45	-0.09068922
39	0x3aabda04	0.0013111238
40	0x3d5ffeb6	0.05468627
41	0x3c45507f	0.012043118
42	0xbdec7c3f	-0.115471356
43	0xbd44e102	-0.048066147
44	0x3d3f37b8	0.046683997
45	0xbdf7ab5d	-0.12093232
46	0x3d4b4d4b	0.04963426
47	0xbe0e5f47	-0.13903533
48	0xbe03cd7b	-0.12871353
49	0xbd799ea9	-0.060942326
50	0xbe02a477	-0.12758051
51	0xbd403229	-0.046922836
52	0x3c9a9a3a	0.01887237
53	0x3ce16654	0.027514614
54	0xbd8c8903	-0.068620704
55	0xbdfc7f48	-0.123289645
56	0xbd3b8907	-0.045784976
57	0xbd4ddd53	-0.0502599
58	0xbbbf23e9	-0.0058331382
59	0xbb5d948b	-0.0033810462
60	0xbd34f285	-0.044176597
61	0x3d954125	0.07287816
62	0xbe02d380	-0.12775993
63	0xbd22e8f0	-0.039772928
64	0xbdde8ffd	-0.10867307
65	0x3bf10838	0.007355716
66	0xbd27ae5b	-0.040937763
67	0xbc52c7b2	-0.012864994
68	0x3c2b03f5	0.010437955
69	0xbd523101	-0.051316265
70	0x3cc7f20f	0.024407415
71	0xbcb51915	-0.022106687
72	0x3d2d2260	0.04226911
73	0xbdd56342	-0.104193226
74	0x3cb6f199	0.022332
75	0x3c08f09f	0.00835815
76	0xbb4ad36e	-0.0030948776
77	0xbd8f7a12	-0.07005705
78	0xbc470466	-0.012147045
79	0xbd288c5a	-0.041149475
80	0xbb0e6b3f	-0.0021731404
81	0xbce08a44	-0.02740968
82	0xbd0f0e09	-0.034925494
83	0xbd66fd69	-0.056394015
84	0xbcfb9b01	-0.03071356
85	0xbcdbe907	-0.026844515
86	0x3ce52c48	0.027975217
87	0x3d2acc90	0.041698992
88	0x3daa48a3	0.083146356
89	0x3c8530d3	0.016258633
90	0x3d63c484	0.055607334
91	0xbc90ad07	-0.01766063
92	0x3d3b79f6	0.045770608
93	0xbd89eae9	-0.06734259
94	0x3b8f2a47	0.0043690535
95	0x3d1da206	0.038484596
96	0x3d36fa13	0.044672083
97	0xbe02a219	-0.12757148
98	0xbda95427	-0.08268004
99	0xbda95a66	-0.08269195
100	0x3bbb32e8	0.0057128556
101	0x3d03f100	0.032212257
102	0xbbdcaf78	-0.0067347847
103	0xbc2b0125	-0.010437285
104	0xbd6459c6	-0.055749677
105	0x3d19646c	0.037449285
106	0xbd911843	-0.07084706
107	0x3c6b0a35	0.014345695
108	0xbb4ba883	-0.0031075783
109	0xbce1e4f4	-0.027574994
110	0xbdd8b4ab	-0.10581335
111	0xbd87de2a	-0.06634171
112	0x3d7d135d	0.061786044
113	0xbe10085e	-0.14065692
114	0x3b6746ea	0.003529007
115	0xbd550cfc	-0.052014336
116	0x3b202d9c	0.0024441248
117	0xbd8ad942	-0.0677972
118	0xbdbb0625	-0.09132031
119	0xbdbdf741	-0.092756756
120	0xbdea1d2e	-0.11431347
121	0xbd85e30c	-0.065374464
122	0x3ce71d35	0.02821217
123	0xbd94fc03	-0.0727463
124	0xbd1a58fb	-0.037682515
125	0x3cb99df3	0.022658324
126	0x3d5c88e9	0.053841505
127	0xbc064201	-0.0081944475
128	0xbd504436	-0.0508463
129	0xbe0abb54	-0.13548023
130	0xbd5b395a	-0.05352149
131	0xbd966522	-0.07343508
132	0x3d9a4d78	0.07534307
133	0xbcbe9381	-0.023263695
134	0xbd4c4bd7	-0.049877014
135	0xbd8e5b21	-0.06950975
136	0xbd974aa1	-0.07387281
137	0x3d816a9d	0.06319163
138	0xbd9ec137	-0.077516966
139	0xbd0e99fe	-0.034814827
140	0xbad3e82a	-0.0016167213
141	0xbd9445ce	-0.07239877
142	0x3c4921e2	0.012276145
143	0xbd199680	-0.037497044
144	0xbda653d1	-0.081214555
145	0xbdbaa771	-0.09113968
146	0xbd7c502d	-0.0615999
147	0x3db4957c	0.088175744
148	0xbd965c7c	-0.07341859
149	0xbda94d03	-0.08266642
150	0xbddc6f33	-0.10763397
151	0x3d043986	0.03228142
152	0x3d99e75e	0.07514833
153	0x3bee2dac	0.007268628
154	0xbd87e2ac	-0.06635031
155	0xbb84f229	-0.004057188
156	0xbb43e605	-0.002989174
157	0xbd68cdb2	-0.05683679
158	0xbdbd7252	-0.092503205
159	0xbd983327	-0.074316315
160	0xbd92d206	-0.07168965
161	0xbd2c73e0	-0.042102695
162	0x3d9598bc	0.073045224
163	0xbd88d079	-0.06680388
164	0xbd9ad4b9	-0.07560105
165	0xbcfad9be	-0.030621406
166	0xbd389070	-0.04505962
167	0xbdd7fdde	-0.10546468
168	0xbd82ea85	-0.06392387
169	0xbd8ece2a	-0.069729164
170	0xbe096727	-0.13418256
171	0xbe0317bd	-0.12802024
172	0xbdf80ec6	-0.12112193
173	0xbd50f3ce	-0.05101376
174	0xbd15e497	-0.036594953
175	0x3d20e268	0.039278418
176	0xbb161a85	-0.002290399
177	0xbda38f38	-0.07986301
178	0x3d82e2b7	0.06390899
179	0xbd975fbe	-0.07391308
180	0xbdf4ad28	-0.119470894
181	0xbcaca577	-0.021074994
182	0x3c2e1144	0.010624234
183	0xbdd75250	-0.10513747
184	0xbc383f90	-0.011245623
185	0xbd8124eb	-0.0630587
186	0xbdf5e313	-0.120062016
187	0x3c532dab	0.012889306
188	0xbd99efa0	-0.07516408
189	0x3d278327	0.04089656
190	0xbd83acb2	-0.064294234
191	0xbd1b39af	-0.03789681
192	0x3acd5991	0.0015666952
193	0xbd129d06	-0.03579428
194	0x3c84fcc6	0.016233813
195	0x3cbd4e9e	0.023108777
196	0xbcba0a8d	-0.02271011
197	0xbba26159	-0.0049554524
198	0xbdf097db	-0.11747714
199	0xbd911e29	-0.07085831
200	0xbd780582	-0.060552128
201	0x3dd2e99a	0.10298462
202	0xbbfa2f83	-0.0076350584
203	0xbbf29900	-0.007403493
204	0xbc1860c7	-0.009300417
205	0xbd0cb3c1	-0.034351114
206	0x3d380e17	0.044935312
207	0x3d96a77b	0.07356163
208	0xbdd209fa	-0.10255809
209	0x3dafc2ae	0.08582054
210	0x3b0df79d	0.0021662482
211	0xbe091cf5	-0.13389952
212	0xbc887e7a	-0.016661871
213	0xbccd41e8	-0.02505584
214	0xbdef4900	-0.116838455
215	0xbd0bccf7	-0.034131017
216	0xbd7910d9	-0.060807083
217	0xbdac7afd	-0.08421896
218	0xbc56da62	-0.01311359
219	0xbd0d7988	-0.03453973
220	0xbc241974	-0.010015834
221	0xbd43f9ac	-0.047845528
222	0xbe16670e	-0.1468775
223	0xbd0b2e94	-0.033979967
224	0x3d8346bb	0.06409975
225	0xbcb983f3	-0.022645926
226	0x3ba194a4	0.0049310494
227	0xbda626a2	-0.081128374
228	0xbdbad137	-0.09121936
229	0xbd68d548	-0.056844026
230	0xbcfcba94	-0.030850686
231	0xb8966633	-7.1715935e-05
232	0x3dcd0c79	0.100121446
233	0xbc08f7ae	-0.008359833
234	0xbc557bdd	-0.01303002
235	0x3c3c1aba	0.0114809815
236	0x3bd7d781	0.0065869694
237	0xbc9c0504	-0.01904536
238	0x3c2137cf	0.009839966
239	0xbd19e43d	-0.03757118
240	0xbd857d7f	-0.06518077
241	0xbd8a58a6	-0.067551896
242	0xbdaf3921	-0.08555818
243	0x3b6f7da6	0.0036543398
244	0xbcbd2de8	-0.023093179
245	0xb86d24e3	-5.6539557e-05
246	0x3c779a38	0.015112452
247	0xbd8fe4d5	-0.07026068
248	0xbd96ab58	-0.073569
249	0xbddc7732	-0.10764922
250	0xbd387521	-0.045033578
251	0xbdb884e0	-0.09009719
252	0x3d60953d	0.054829825
253	0xbd8c87b2	-0.06861819
254	0xbdc6da66	-0.09709625
255	0xba2f9a0c	-0.0006698675

network_body._body_endoder.seq_layers.0.weight f4 [256, 14]
0	0xbf30c7a7	-0.69054645
1	0x3d1694ba	0.03676293
2	0xbd3f66bf	-0.046728846
3	0x3ebe168c	0.37126577
4	0xbe205195	-0.15656121
5	0x3d6b72ec	0.057482645
6	0xbeeae33b	-0.45876488
7	0x3e557c56	0.20848212
8	0xbf1739f1	-0.59072787
9	0xbf00ec40	-0.5036049
10	0xbe7c00b8	-0.24609649
11	0x3e685932	0.22690275
12	0x3ce7c497	0.028291984
13	0x3eb06827	0.34454462
14	0xbdb0986e	-0.08622824
15	0x3e876569	0.26444557
16	0xbde26221	-0.11053873
17	0x3f296e4c	0.66183925
18	0x3e24137c	0.16023058
19	0xbf41028a	-0.753945
20	0xbe9eb835	-0.30999914
21	0xbe0ad2c3	-0.13556962
22	0xbdd7b619	-0.10532779
23	0xbe69bf9e	-0.22827002
24	0x3e9f8a57	0.31160232
25	0x3e4176f0	0.18893027
26	0xbd48ec04	-0.049053207
27	0x3e016801	0.1263733
28	0xbe1e0397	-0.15431057
29	0x3ed8a077	0.42309925
30	0xbe683ede	-0.22680232
31	0xbeaae8da	-0.33380777
32	0x3e1b72fa	0.15180579
33	0x3db7e65d	0.08979485
34	0xbe309671	-0.17244889
35	0x3e4a29cf	0.19742511
36	0xbe58afe3	-0.21160845
37	0x3e3dc8bf	0.1853361
38	0x3e26ada5	0.16277178
39	0x3dba8ad8	0.091085136
40	0xbdf97b6e	-0.121817455
41	0x3dddd5bb	0.108317815
42	0x3e313f8e	0.173094
43	0xbe0e79d4	-0.13913661
44	0xbe35bb91	-0.17747332
45	0xbd4eec2e	-0.050518207
46	0xbe09813a	-0.13428202
47	0x3ee60ff0	0.44934034
48	0xbe910815	-0.2832648
49	0x3e6cab51	0.23112227
50	0xbf1a99eb	-0.6039111
51	0xbc8917ff	-0.016735075
52	0x3eb80e11	0.35948232
53	0x3f050cac	0.5197246
54	0xbe634ad5	-0.22196515
55	0xbddad49d	-0.10685084
56	0x3f57977b	0.84215516
57	0x3e36a70c	0.17837161
58	0xbe803bac	-0.25045526
59	0x3e73d587	0.23811923
60	0x3d9f1d6c	0.07769284
61	0xbe39b750	-0.18136334
62	0x3f2c3eb7	0.67283195
63	0x3dde804b	0.10864314
64	0xbe0ca564	-0.13734967
65	0xbdfb7275	-0.1227769
66	0xbe174065	-0.14770658
67	0x3e0f48fe	0.13992688
68	0xbe437651	-0.19088103
69	0x3f0043eb	0.50103635
70	0xbe0b521b	-0.1360554
71	0x3f0b1482	0.5432817
72	0xbe98620f	-0.29762313
73	0xbec6213d	-0.38697234
74	0xbe67a3be	-0.22621056
75	0xbd7d0f52	-0.06178219
76	0x3e91cc63	0.28476247
77	0xbe92b9cc	-0.28657377
78	0x3da01d3b	0.07818075
79	0x3f2a59a3	0.66543025
80	0x3df3b0c7	0.11898952
81	0x3c6a1a9c	0.014288571
82	0x3e49b631	0.19698407
83	0xbe8f6b39	-0.28011492
84	0xbefe2909	-0.49640682
85	0xbd6be95b	-0.057595592
86	0xbe8036f2	-0.2504192
87	0xbea689ad	-0.32526913
88	0xbd667cf1	-0.056271497
89	0x3d3c10b5	0.04591437
90	0xbe8e393d	-0.27778044
91	0x3eb30581	0.34965137
92	0xbd1e308a	-0.03862051
93	0x3ec5bb02	0.38619238
94	0xbcc7010c	-0.024292491
95	0x3d76a9f1	0.060220663
96	0xbcd1ec7d	-0.025625462
97	0x3d8def50	0.06930411
98	0x3d09b6a8	0.03362146
99	0x3e11d192	0.14240101
100	0x3ed401b2	0.41407543
101	0x3c198288	0.0093695
102	0x3ecdea2a	0.40217716
103	0x3e3d4975	0.18485053
104	0x3e0944d7	0.13405167
105	0x3ee889e5	0.45417705
106	0xbf07eb0f	-0.53093046
107	0xbe96ee7f	-0.29478833
108	0x3e74643b	0.2386636
109	0xbdda3e3d	-0.10656402
110	0xbd87adaf	-0.066249244
111	0xbd2cb78b	-0.042167228
112	0xbe3a11fb	-0.18170922
113	0xbd31c8d0	-0.0434044
114	0x3e99e3f0	0.30056715
115	0xbe061224	-0.13092858
116	0xbeb5c174	-0.35499156
117	0x3ec7bbbf	0.39010426
118	0xbe7cce6e	-0.24688122
119	0x3d8b8fcd	0.06814537
120	0xbd1b18e7	-0.037865546
121	0x3e9fe8ea	0.31232387
122	0x3f116d4e	0.5680741
123	0x3e9ba022	0.3039561
124	0x3e8587a6	0.26080054
125	0x3ddaf77e	0.10691737
126	0xbd5ac6e3	-0.05341233
127	0xbdb85a25	-0.09001569
128	0x3e9e9496	0.30972737
129	0xbecfa1a6	-0.40553015
130	0x3e576d68	0.21037829
131	0x3dd37666	0.10325317
132	0x3e04ced7	0.12969528
133	0x3eb82a55	0.35969797
134	0xbeb1a764	-0.3469802
135	0xbda8fc0b	-0.082511984
136	0xbd04944f	-0.032368
137	0xbe1fa20d	-0.15589161
138	0xbe4cffb2	-0.20019415
139	0xbf2430ca	-0.64136946
140	0x3ed35f6d	0.41283742
141	0xbbae7ecd	-0.0053251744
142	0x3e890767	0.2676346
143	0xbe1e3d04	-0.15452963
144	0x3d36e67b	0.044653397
145	0x3cf2636a	0.02958842
146	0x3e488ed7	0.19585739
147	0x3ed6edb4	0.41978228
148	0xbda9abb0	-0.082847
149	0x3dfd9253	0.12381425
150	0xbe20e273	-0.15711384
151	0x3da9606f	0.082703464
152	0xbd583f95	-0.05279501
153	0xbd7b9856	-0.061424576
154	0x3eab1506	0.33414477
155	0xbe830350	-0.25588465
156	0x3dec5846	0.11540274
157	0x3e86ab8d	0.26302758
158	0xbeb08d3e	-0.3448276
159	0x3b4df1eb	0.0031424712
160	0xbea06709	-0.3132861
161	0xbf3cf3fd	-0.73809797
162	0x3cbe9a27	0.023266865
163	0x3e977d5f	0.29587838
164	0xbe9e3e5e	-0.30906957
165	0xbee308bf	-0.4434261
166	0x3f0a29d1	0.53970057
167	0xbe6408d4	-0.22268993
168	0x3e686dd3	0.22698145
169	0x3d5fd1a7	0.0546433
170	0x3e581022	0.21099904
171	0xbe611974	-0.21982366
172	0x3f146ce5	0.5797866
173	0xbee5e7c4	-0.44903386
174	0x3d7ea62c	0.062170193
175	0xbed25b42	-0.4108525
176	0x3e4edc03	0.20201115
177	0x3f1fee91	0.624734
178	0xbea39184	-0.31946957
179	0x3dd84b8b	0.10561284
180	0xbe96a20b	-0.29420504
181	0x3e46008d	0.19336148
182	0x3e537bfd	0.20652767
183	0xbe2198ae	-0.15780899
184	0xbd84d8d9	-0.06486673
185	0x3e29c1f5	0.16577895
186	0x3d1dac80	0.038494587
187	0x3df7ea1f	0.12105202
188	0x3e09d69b	0.13460772
189	0xbf222ae9	-0.63346726
190	0xbf58c8ee	-0.84681594
191	0xbf068f84	-0.5256274
192	0x3dc6a1a2	0.09698798
193	0x3d9edb9f	0.07756733
194	0x3e721de4	0.23644215
195	0xbee3bdd9	-0.4448078
196	0x3ea62fab	0.32458243
197	0x3e9f67e9	0.31133965
198	0x3cc51f36	0.024062734
199	0xbda29447	-0.07938438
200	0xbeb493c7	-0.35268995
201	0x3e966b77	0.29378864
202	0xbec2666a	-0.3796876
203	0x3e506c42	0.20353797
204	0xbe8fbb66	-0.2807266
205	0x3e538eeb	0.20659988
206	0x3f151b29	0.5824457
207	0x3c2edea0	0.010673195
208	0x3e258f5f	0.16167973
209	0xbd9cc466	-0.076546475
210	0x3e0e71fd	0.1391067
211	0x3e6c7c4f	0.23094295
212	0xbe1e59e9	-0.15463986
213	0xbe907af2	-0.282188
214	0x3d8f4216	0.06995027
215	0x3ec22400	0.3791809
216	0x3e00bef1	0.12572838
217	0x3d85646f	0.06513297
218	0x3bdc5537	0.0067240256
219	0x3d9a544c	0.075356096
220	0x3ca29e74	0.019850947
221	0xbf150198	-0.58205557
222	0x3e244a01	0.16043855
223	0xbe452246	-0.19251356
224	0x3e3621f1	0.17786385
225	0xbddb2e0d	-0.10702143
226	0xbf06e15b	-0.52687615
227	0xbea15d9b	-0.31516728
228	0xbec50650	-0.3848138
229	0xbdb7ce5a	-0.08974905
230	0x3df689b3	0.12037983
231	0x3e8ca6ac	0.2747091
232	0x3e640f69	0.22271504
233	0x3e3f60ad	0.18689223
234	0x3c485cb8	0.012229137
235	0x3edf3bef	0.43600413
236	0x3e342eaf	0.17595933
237	0x3da6a7bf	0.08137464
238	0xbdf7fa3b	-0.121082745
239	0x3eb1a256	0.34694165
240	0x3e5ad57a	0.21370497
241	0xbe6600c2	-0.22461227
242	0x3dc2304d	0.09481869
243	0x3dedc1a4	0.116092
244	0xbe492a74	-0.19645101
245	0x3e30d143	0.17267327
246	0xbd9471b0	-0.07248247
247	0x3e4df21f	0.20111893
248	0x3e3952f6	0.18098053
249	0xbe8c713e	-0.27430147
250	0x3de3676f	0.11103713
251	0xbe1cfc2b	-0.1533057
252	0xbe8511ae	-0.2599005
253	0x3e372703	0.17885976
254	0x3c5dd891	0.013540403
255	0xbeb84e5e	-0.3599729

network_body._body_endoder.seq_layers.2.bias f4 [256]
0	0x3cc1558a	0.023600359
1	0xbd1b492c	-0.03791158
2	0x3ce57ace	0.02801266
3	0x3d48ba70	0.049005926
4	0x3cd4b01c	0.025962882
5	0x3d0ae15a	0.03390632
6	0x3d37cef1	0.04487509
7	0xbcc928aa	-0.024555523
8	0xbd1c62f6	-0.038180314
9	0x3cf102ba	0.029420245
10	0x3b311733	0.0027021884
11	0xbadc3430	-0.0016800221
12	0xbcbcc643	-0.023043757
13	0xbb39677f	-0.0028290448
14	0xbcd446e5	-0.025912711
15	0xbd8d5033	-0.069000624
16	0x3bf90d0f	0.0076004337
17	0x3c4c92a2	0.012486132
18	0x3c61af62	0.013774725
19	0xbd80269e	-0.06257366
20	0xbd296c2b	-0.041362923
21	0x3d1f05ba	0.03882382
22	0xbc95bed1	-0.018279465
23	0xbca4fff8	-0.020141587
24	0xbc7bb1a6	-0.015362179
25	0x3c1dba3d	0.009626922
26	0x3d7d5ee8	0.061858088
27	0xbc8e264b	-0.017352244
28	0x3bd474bd	0.006483643
29	0xbd8c33a6	-0.06845789
30	0x3ca1e397	0.019761844
31	0x3ba92bb7	0.005162682
32	0xbcc3873f	-0.023868201
33	0x3b8109d1	0.003937938
34	0xbcc2ff39	-0.02380334
35	0xbd2aeb2c	-0.041728184
36	0xbad8c35c	-0.0016537714
37	0x3bc4a66d	0.006001285
38	0xbcece185	-0.02891613
39	0x3bbde1df	0.005794748
40	0xbd086a1e	-0.033304326
41	0xbd0694bb	-0.032856684
42	0xbc014dfb	-0.007892127
43	0xbd30e584	-0.043187633
44	0x3c204c9a	0.009783888
45	0x3d060822	0.0327226
46	0xbb8cafb7	-0.004293408
47	0x3cdbece3	0.026846355
48	0x3dcd1ae8	0.100148976
49	0x3d20ef33	0.03929062
50	0xbc558d57	-0.013034186
51	0x3bf17909	0.007369165
52	0xbd7d22eb	-0.06180088
53	0xbd37bd66	-0.04485836
54	0xbccc82a1	-0.024964632
55	0x3c0ffc01	0.00878811
56	0xbbc66724	-0.006054776
57	0xbc938227	-0.018006397
58	0xb98455ee	-0.00025241025
59	0x3c74af49	0.014934369
60	0xbc2dcbea	-0.010607699
61	0x3a019908	0.0004943763
62	0x3b7d0641	0.0038608464
63	0x3cbdb705	0.02315856
64	0xbd1301b3	-0.035890292
65	0xbcb055bb	-0.021525254
66	0xbcfdb828	-0.030971602
67	0xbd45b5ac	-0.04826896
68	0x3b11e983	0.0022264428
69	0xbd2df75d	-0.042472232
70	0xbbddcfe0	-0.0067691654
71	0x3df63c2f	0.12023198
72	0xbc1215fb	-0.008916373
73	0xbd058494	-0.03259714
74	0x3d09b6b8	0.03362152
75	0x3d063e44	0.032774225
76	0xbc602974	-0.013681758
77	0x3b58dca4	0.0033090496
78	0xbc9aefc8	-0.018913165
79	0x3cfb30ab	0.030662855
80	0xbcaa8e78	-0.020819888
81	0x3cbe6a60	0.023244083
82	0x3d9fccf0	0.078027606
83	0xbce4107d	-0.027839893
84	0x3cb3cdaa	0.021948654
85	0xbd957d87	-0.07299333
86	0xbcfd7e30	-0.03094396
87	0xbbb8fcb7	-0.0056453603
88	0x3beec4ba	0.007286635
89	0x3c6cab07	0.014445073
90	0xbba384e4	-0.004990207
91	0x3d8b81f8	0.06811899
92	0xbc9dc016	-0.019256633
93	0xbd1608b8	-0.03662941
94	0x3c5da532	0.013528155
95	0xbb088a7b	-0.0020834494
96	0x3c33b033	0.010967302
97	0x3d238b02	0.03992749
98	0x3ceba041	0.028762938
99	0xbc903347	-0.017602576
100	0xbd6477fb	-0.055778485
101	0xba21d2f1	-0.00061730953
102	0x3d28b556	0.04118856
103	0x3c0ed640	0.008718073
104	0xbcdca9ee	-0.026936498
105	0xbc0dd2a9	-0.008656182
106	0x3ccaf10a	0.02477314
107	0xbd1132c9	-0.035448823
108	0x3c312f5b	0.010814513
109	0xbd3c4d2e	-0.04597204
110	0xbd0d9ac6	-0.03457143
111	0xbcaf5e7a	-0.021407355
112	0x3bc1676e	0.0059022224
113	0xbd083ff0	-0.0332641
114	0x3d92a059	0.0715949
115	0x3c63500b	0.013874064
116	0x3cc4586f	0.02396795
117	0xbd395071	-0.04524273
118	0x3ba8fb6e	0.005156926
119	0xbcdd5975	-0.027020195
120	0xbc5b4d74	-0.0133851655
121	0xbce3b337	-0.027795417
122	0xbc24c238	-0.010056071
123	0xbc815853	-0.015789187
124	0xbab3d6be	-0.0013720614
125	0xbd9abb21	-0.07555223
126	0x3cf5b412	0.02999309
127	0xbc94ab9d	-0.018148238
128	0x3c49638c	0.0122918
129	0xbd14ecfa	-0.03635881
130	0xbbff968d	-0.0077999295
131	0x3c82c03b	0.015960803
132	0xbb249e9b	-0.002511895
133	0xbd367629	-0.04454628
134	0x3c5d69c5	0.013513987
135	0xbd10f9c4	-0.035394445
136	0x3c260f1d	0.010135439
137	0xbd79d8a5	-0.060997624
138	0x3d7bfeae	0.06152218
139	0x3da1fd84	0.079096824
140	0xbc6c1941	-0.014410318
141	0xbb27a74c	-0.0025581894
142	0xbcd41f79	-0.025893914
143	0x3d21a470	0.03946346
144	0x3c42fef1	0.011901603
145	0x3c2814b1	0.0102588395
146	0xbc0ac44b	-0.008469651
147	0x3c47b90b	0.012190114
148	0xbcace8f2	-0.02110717
149	0xbd8b8760	-0.0681293
150	0x3b2f11c5	0.0026713472
151	0x3c480829	0.012208977
152	0x3d27759c	0.040883645
153	0x3b670704	0.0035251984
154	0xbba75908	-0.005107049
155	0x3d55c9ed	0.052194525
156	0xba9f50be	-0.00121548
157	0x3ca976ad	0.020686472
158	0x3b4169f3	0.0029512614
159	0x3d64ed85	0.05589058
160	0x3d0298a8	0.031883866
161	0x3cf6c38a	0.030122537
162	0xbcc5c909	-0.024143713
163	0x3c1a56e3	0.0094201295
164	0x3cc40bd6	0.023931425
165	0xbcacb94b	-0.021084448
166	0xbd0ea4a0	-0.034824967
167	0x3cde5d6b	0.027144155
168	0xbc8aba88	-0.016934648
169	0xbc2372e5	-0.009976123
170	0xbc86b409	-0.01644327
171	0x3d6a0cc3	0.057141077
172	0xbae7eb16	-0.0017693962
173	0xbc3ed991	-0.011648552
174	0x3d446ef8	0.04795739
175	0x3d161f59	0.03665099
176	0x3c160808	0.009157188
177	0x3bf435db	0.007452709
178	0x3d405a17	0.046960916
179	0x3c31bf8c	0.010848891
180	0xbd82a2ca	-0.06378706
181	0x3d7cfc86	0.061764263
182	0x3cf80537	0.030275924
183	0xbd4dcea2	-0.05024589
184	0xbb86cf85	-0.0041140937
185	0x3c62c495	0.013840814
186	0x3d34c452	0.04413254
187	0x3b0a654f	0.0021117514
188	0x3d220fd4	0.039565876
189	0xbb2fd3f5	-0.0026829217
190	0xbcb2f57b	-0.02184557
191	0x3db66dd9	0.089076705
192	0x3da82b6c	0.08211407
193	0xbae77ba2	-0.0017660747
194	0x3c640e88	0.01391948
195	0x3d7da80e	0.061927848
196	0xbb542861	-0.00323727
197	0x3c05ce95	0.008166929
198	0x3c81092d	0.015751446
199	0x3ab2fe29	0.0013656068
200	0x3d445ea3	0.047941815
201	0x3c7c0d00	0.015383959
202	0x3b49c03c	0.0030784747
203	0xbccdd82f	-0.025127498
204	0x3c8276b3	0.01592574
205	0xbbe288c4	-0.0069132764
206	0x3ce833ed	0.028345073
207	0xbd4ba1e5	-0.04971494
208	0xbc6d0b03	-0.014467957
209	0xbc82649a	-0.015917111
210	0xbc3f9327	-0.011692799
211	0xbc1dfafe	-0.009642361
212	0x3a9dadea	0.001202998
213	0x3d443d0c	0.04790978
214	0xbd0839c1	-0.033258203
215	0x3c9c8628	0.01910694
216	0x3d8aa2b0	0.067693114
217	0xbbca4859	-0.0061731753
218	0xbab45b2b	-0.001376008
219	0xbcdcaa66	-0.026936721
220	0x3d38fceb	0.045163076
221	0xbc8d7471	-0.017267438
222	0x3c6ae8b2	0.014337705
223	0x3b9071ab	0.0044080815
224	0xbcaf5aaa	-0.021405537
225	0x3b76456a	0.0037577995
226	0xbd0c8942	-0.034310587
227	0xbda224f6	-0.07917206
228	0x3d14341d	0.03618251
229	0xbcd1d775	-0.025615433
230	0x3bc156a6	0.005900222
231	0xbd46fa96	-0.04857882
232	0xbca20ba4	-0.019780941
233	0x3b0cbf6d	0.0021476403
234	0xbd8e88b8	-0.06959671
235	0x3c8b9a99	0.017041491
236	0x3d6d9de1	0.058011893
237	0x3c1348c5	0.008989518
238	0x3d00d678	0.031454533
239	0xbda81df9	-0.08208842
240	0xbbd6fc06	-0.0065608053
241	0x3c0c77eb	0.008573513
242	0xbc49d386	-0.0123184975
243	0xbc60e9ef	-0.013727649
244	0xbc00a95f	-0.007852881
245	0x3d293fe4	0.041320696
246	0x3d73d26d	0.05952685
247	0x3d092615	0.033483583
248	0x3ceca845	0.02888883
249	0x3ce5b1d9	0.028038906
250	0x3d5a26ac	0.053259537
251	0x3bf8308b	0.007574146
252	0x3da1a574	0.07892886
253	0x3ce672b5	0.028130868
254	0x3cf9fb4d	0.030515337
255	0x3c8128b4	0.01576648
