Assets/Model/AttackMode0525.onnx (onnx, 293275 bytes, 13 tensors)

action_model._discrete_distribution.branches.0.bias f4 [3]
0	0x3ea169cd	0.31526032
1	0xbe8d41be	-0.2758922
2	0xbdf3bc34	-0.11901131

action_model._discrete_distribution.branches.0.weight f4 [3, 256]
0	0xbd9613dc	-0.073280066
1	0xbd910c11	-0.070823796
2	0xbbcc5518	-0.00623573
3	0xbca0d9c8	-0.019635096
4	0x3c29bf40	0.010360539
5	0xbd31cbc8	-0.04340723
6	0x3d74e5f8	0.059789628
7	0x3dae398b	0.08507069
8	0x3dad5a99	0.08464546
9	0xbd1db933	-0.038506698
10	0xbd6207c0	-0.055183172
11	0x3d1e4bd8	0.03864655
12	0xbd13b212	-0.036058493
13	0xbd11fbd6	-0.03564056
14	0xbdc0106f	-0.093781345
15	0x3d1ff78f	0.03905445
16	0xbdaf1d03	-0.085504554
17	0xbbab14f7	-0.005221005
18	0xbd24aeb5	-0.040205676
19	0xbccb148f	-0.024790077
20	0xbd8c1cac	-0.06841406
21	0x3b4cc7ca	0.0031247013
22	0x3cac87c7	0.021060837
23	0x3d256630	0.040380657
24	0xbcf58603	-0.029971128
25	0xbccd8046	-0.02508558
26	0xbd581525	-0.05275454
27	0xbd83a85e	-0.06428598
28	0xbd5f5d7d	-0.054532517
29	0xbcec3ed3	-0.02883855
30	0x3dd1571d	0.10221694
31	0xbd5e8253	-0.054323506
32	0x3c7ae054	0.015312273
33	0xbd6d304c	-0.057907388
34	0x3c199b91	0.009375469
35	0xbc9de7be	-0.019275542
36	0xbd2e2f29	-0.042525444
37	0xbd5eafc6	-0.05436685
38	0xbd4a267f	-0.04935312
39	0xbd28427f	-0.04107904
40	0xbd30bbd4	-0.043147877
41	0xbe01f31c	-0.12690395
42	0xbddf9b96	-0.109183475
43	0xbe0bb40e	-0.13642904
44	0xbbbd431b	-0.005775822
45	0x3d219dfa	0.0394573
46	0x3dc72cd0	0.09725344
47	0xbc8adcf3	-0.01695106
48	0xbcc4c1dd	-0.024018222
49	0xbdd1b59f	-0.102397196
50	0xbc78e3f5	-0.015191068
51	0xbd270276	-0.04077383
52	0xbda2e8d8	-0.07954568
53	0xbdf8e323	-0.12152698
54	0xbd62ea0b	-0.055398982
55	0x3d9916c0	0.07475042
56	0xbd9e4fd4	-0.0773007
57	0xbb9e0ee5	-0.004823553
58	0xbd51bcbb	-0.051205378
59	0xbd733e3e	-0.05938553
60	0xbd2142bf	-0.039370295
61	0xbd67a240	-0.056551218
62	0x3d92ac15	0.07161728
63	0x3b3da898	0.00289396
64	0xbdb0f070	-0.0863961
65	0xbdaaf831	-0.0834812
66	0xbc367d0a	-0.01113821
67	0x3d4708a6	0.048592232
68	0x3cbaea26	0.022816729
69	0xbdb424cd	-0.08796082
70	0xbd403335	-0.046923835
71	0xbd94f370	-0.072729945
72	0x3d6a0a4f	0.057138737
73	0x3d20fdf3	0.039304685
74	0xbd4507f2	-0.04810328
75	0xbd8db917	-0.06920069
76	0x3c85c3c6	0.016328704
77	0xbd59c4e4	-0.053166285
78	0xbd428178	-0.047486752
79	0xbdbbc5df	-0.091686
80	0xbd355f8c	-0.044280574
81	0xbd12ab1d	-0.035807718
82	0xbd16da03	-0.036829006
83	0xbd9991eb	-0.07498535
84	0x3c0618a3	0.008184585
85	0xbd35577a	-0.044272877
86	0xbd5a6081	-0.05331469
87	0xbdce7eff	-0.10082816
88	0x3c8f9a4f	0.017529635
89	0x3e2e0418	0.16993749
90	0x3dc94e0d	0.0982934
91	0x3ca0e5cc	0.019640826
92	0x3cc5d783	0.024150616
93	0x36dad431	6.5216086e-06
94	0xbdd5ebf7	-0.10445397
95	0x3d5bc8f6	0.05365845
96	0xbc2c09d0	-0.010500386
97	0x3cd47416	0.02593426
98	0x3cd00683	0.02539373
99	0xbb4e9830	-0.0031523816
100	0xbd483409	-0.04887775
101	0x3c7b44e3	0.015336248
102	0xbd35079a	-0.044196703
103	0x3bd17db2	0.006393158
104	0x3dc7027c	0.09717271
105	0xbd4fd3da	-0.050739147
106	0xbd8a3d1b	-0.06749936
107	0x3bfc374d	0.007697022
108	0xbd9a72d5	-0.07541434
109	0x3b88e952	0.0041782046
110	0xbcf4fb8e	-0.029905107
111	0x3d7948ce	0.060860448
112	0x3bbcdd06	0.0057636527
113	0xbc1210ed	-0.008915168
114	0x3dc69ede	0.0969827
115	0xbd31a8cc	-0.043373868
116	0xbab07a88	-0.0013464252
117	0x3ccafce5	0.024778793
118	0xbd64b51f	-0.055836793
119	0xbca6ef9f	-0.020377932
120	0x3d168e65	0.03675689
121	0xbd3d8767	-0.046271708
122	0xbe03ce86	-0.12871751
123	0xbd760347	-0.06006172
124	0xbd18873a	-0.037238337
125	0x3a192bb0	0.0005842997
126	0x3cf0cbc8	0.029394045
127	0xbd2d214d	-0.042268086
128	0xbd14e8a5	-0.03635468
129	0x3d029d75	0.031888444
130	0xbc0c178c	-0.008550536
131	0x3ced9ac1	0.029004456
132	0xbd4bfb79	-0.04980037
133	0xbdda709e	-0.10666011
134	0xbd5f970c	-0.05458741
135	0xbde6276f	-0.1123799
136	0x3e011d7d	0.12608905
137	0xbd2b92ba	-0.041887976
138	0xbd25884f	-0.040413197
139	0xbd9a34a0	-0.07529569
140	0x3d5f666f	0.054541048
141	0x3cd71f81	0.02626014
142	0xbd59bffd	-0.05316161
143	0xbd9da4d4	-0.07697454
144	0x3e0aff67	0.13573991
145	0xbda0054c	-0.0781351
146	0xbc2785e7	-0.010224796
147	0x3d18bb74	0.037288144
148	0x3d433680	0.047659397
149	0x3c501c2d	0.01270203
150	0xbda2895f	-0.07936358
151	0x3d48b37d	0.0489993
152	0xbd04b024	-0.032394543
153	0x3c82183c	0.015880696
154	0xbd0cdefb	-0.03439234
155	0xbd0c7cd3	-0.03429873
156	0xbd741de4	-0.05959882
157	0xbd79a958	-0.060952514
158	0xbd2ce759	-0.042212818
159	0xbe016c50	-0.12638974
160	0xbdad18b5	-0.08451978
161	0xbda88469	-0.0822838
162	0xbc5bb76e	-0.013410432
163	0xbb169f74	-0.0022983225
164	0xbd894487	-0.06702524
165	0xbca6bad6	-0.020352762
166	0x3db19633	0.08671226
167	0x3cb2fa58	0.021847889
168	0x3c07597f	0.008261084
169	0xbcf1c0c3	-0.029510861
170	0xbacd0cf9	-0.0015644125
171	0xbc48ce0b	-0.012256156
172	0x3ca4f3f7	0.020135863
173	0xbabdddc5	-0.0014485648
174	0xbd819186	-0.063265845
175	0xbce6e705	-0.02818633
176	0xbcf9addd	-0.030478412
177	0xbcad0c2e	-0.021123972
178	0x3cb1e666	0.021716308
179	0xbc35d8cf	-0.0110990545
180	0x3e0c3423	0.13691764
181	0xbe15ac3e	-0.14616486
182	0x3c8bffd8	0.01708977
183	0xbdad01b4	-0.084475905
184	0xbd9c3b6f	-0.076285236
185	0x3d612d85	0.05497505
186	0xbd89cf26	-0.067289636
187	0xbd4671e4	-0.04844846
188	0xbd479f70	-0.048736036
189	0xbd96a21c	-0.07355139
190	0xbd65ecef	-0.05613416
191	0x3d380533	0.044926833
192	0xbd08b128	-0.033372074
193	0xbd23cb27	-0.039988663
194	0xbbd2583d	-0.00641921
195	0xbd8247b7	-0.06361335
196	0x3c48975a	0.012243116
197	0x3cb2be9c	0.021819405
198	0x3c8ba886	0.017048132
199	0xbe166a11	-0.14688899
200	0xbdae6425	-0.08515195
201	0xbd714c02	-0.058910377
202	0x3bb31416	0.005465041
203	0xbc425823	-0.011861834
204	0xbcb5539d	-0.022134596
205	0x3cba3554	0.022730507
206	0xbd034999	-0.03205261
207	0xbd07beb7	-0.033140864
208	0xbd23a308	-0.0399504
209	0xbdd24abe	-0.10268162
210	0x3d17ba82	0.037043102
211	0x3dbf7184	0.09347823
212	0xbd457aa6	-0.04821267
213	0xbd58eeaa	-0.052961983
214	0xbcae8a5b	-0.021306207
215	0x3c4aa68b	0.0123688085
216	0xbd8cfdef	-0.068843715
217	0xbd27c4bb	-0.0409591
218	0xbd86887d	-0.06569002
219	0xbc2e49d4	-0.010637719
220	0xbdaf41cb	-0.08557471
221	0xbd29f222	-0.04149068
222	0xbdab07c4	-0.083510906
223	0x3b885de8	0.004161585
224	0x3d69506a	0.056961454
225	0xbbf41d3e	-0.007449775
226	0xbadebd3f	-0.0016993656
227	0x3c0dd9e6	0.008657908
228	0xbdaf670e	-0.08564578
229	0xbcc450ad	-0.02396425
230	0x3c2dace4	0.010600302
231	0xbd08fbe8	-0.03344336
232	0xbd4b2b6c	-0.049601957
233	0x3cdb475d	0.026767427
234	0xbcb49456	-0.022043388
235	0xbd9d4102	-0.07678415
236	0xbde03b24	-0.1094878
237	0x3c354559	0.011063897
238	0x3d9ea200	0.07745743
239	0x3bc83f26	0.0061110435
240	0xbd1a10da	-0.037613727
241	0xbcc2b90d	-0.02376988
242	0xbd4c7552	-0.049916573
243	0xbda6f087	-0.08151346
244	0xbd8736aa	-0.06602223
245	0x3b83313a	0.004003671
246	0xbd807db9	-0.0627398
247	0xbc67d07f	-0.01414883
248	0xbe0a254c	-0.1349079
249	0x3dc20a08	0.094745696
250	0xbcdd559c	-0.02701836
251	0xbcbb8ce1	-0.022894325
252	0xbd2edaa7	-0.042688992
253	0xbd885d03	-0.066583656
254	0xbc514d1d	-0.012774733
255	0xbcb8185c	-0.022472553

action_model._discrete_distribution.branches.1.bias f4 [3]
0	0x3c789071	0.015171156
1	0xbc9a4d7a	-0.018835772
2	0x3d41c42a	0.047306217

action_model._discrete_distribution.branches.1.weight f4 [3, 256]
0	0xbdf37aad	-0.11888633
1	0xbd8faa17	-0.07014864
2	0x3c0bfa53	0.008543569
3	0xbdb63057	-0.08895939
4	0xbbf5fb12	-0.0075067366
5	0x3d511ee8	0.051054865
6	0xbdfee832	-0.124466315
7	0xbd4492f6	-0.047991715
8	0xbc5655e2	-0.0130819995
9	0x3d0d2b3b	0.034465056
10	0xbb834f01	-0.0040072207
11	0xba9f1636	-0.0012137357
12	0xbd762fb7	-0.0601041
13	0xbd227b5a	-0.03966842
14	0xbd70776d	-0.058707643
15	0xbd7df52b	-0.06200139
16	0xbc8542d2	-0.016267214
17	0x3cf75273	0.030190682
18	0xbd84d2bd	-0.06485508
19	0xbd21f38f	-0.039538916
20	0xbced082e	-0.028934564
21	0xbd9d5aa9	-0.07683308
22	0xbd2ff53c	-0.042958483
23	0xbcf37ab7	-0.029721601
24	0xbd5bf9cc	-0.05370502
25	0xbcd7b552	-0.026331577
26	0xbd1092d9	-0.035296295
27	0xbd9e7616	-0.07737367
28	0xbd8112af	-0.06302392
29	0xbbab5f24	-0.0052298475
30	0xbd4de2e0	-0.050265193
31	0xbdb06f4a	-0.08614977
32	0x3db25b2c	0.08708796
33	0xbb3c679c	-0.002874828
34	0xbd12afdf	-0.035812255
35	0xbd164b39	-0.03669283
36	0xb9756a73	-0.00023404676
37	0xbdd6eab0	-0.10493982
38	0x3c599167	0.0132792955
39	0xbc0fb38c	-0.008770835
40	0xbcc852a9	-0.024453478
41	0x3b9de70f	0.004818804
42	0xbd2004ed	-0.039067198
43	0xbb4570d5	-0.0030127068
44	0xbd40f86b	-0.04711191
45	0xbd32e4d2	-0.04367525
46	0xbd357940	-0.044305086
47	0xbdaf4417	-0.08557909
48	0xbcf621ac	-0.030045353
49	0xbd8a5308	-0.06754118
50	0xbd0865fa	-0.033300377
51	0xbc55122b	-0.01300482
52	0xbdae5636	-0.08512537
53	0xbcd4e9e9	-0.025990443
54	0xbd6da5aa	-0.058019318
55	0x3d03bb00	0.03216076
56	0xbd76dbd0	-0.060268223
57	0x3d816d6a	0.06319697
58	0x3d1f2773	0.03885598
59	0xbdd2de2a	-0.10296281
60	0xbd409f60	-0.04702699
61	0x3c18c70e	0.009324802
62	0xbd9c49c7	-0.076312594
63	0xbdffc430	-0.12488592
64	0xbccebfc0	-0.025237918
65	0x3d83b8d6	0.06431739
66	0xbc66e8f0	-0.014093623
67	0xbd3e71cd	-0.046495248
68	0xbdc313a6	-0.09525232
69	0x3d44b01f	0.048019525
70	0xbccc4ef7	-0.024939997
71	0xbd4312e8	-0.047625452
72	0xbd2d0a8d	-0.04224639
73	0x3d509dbc	0.050931677
74	0xbce4c862	-0.027927581
75	0xbc8d50bd	-0.017250413
76	0x3d0e2b08	0.034709007
77	0xbcea1ba0	-0.028577626
78	0xbb1b45b5	-0.0023692672
79	0xbe176ae3	-0.14786868
80	0xbd850718	-0.06495494
81	0xbd3dc0e5	-0.046326537
82	0x3c2ce999	0.010553741
83	0xbc29a9b2	-0.0103554
84	0xbdab4b63	-0.08363988
85	0xbc77597d	-0.015097019
86	0xbd336405	-0.043796558
87	0x3d12f9d9	0.035882805
88	0xbd706fa4	-0.05870022
89	0x3c19ff0b	0.009399186
90	0xbdd1e6aa	-0.10249074
91	0xbdf65a95	-0.12028996
92	0x3cb494a5	0.022043535
93	0xbb70ec40	-0.003676191
94	0xbd960578	-0.07325262
95	0xbd7e74f2	-0.062123246
96	0xbccee48c	-0.025255464
97	0xbe077b17	-0.13230549
98	0x3c65225c	0.013985243
99	0xbd0e7cde	-0.03478705
100	0xbd48496c	-0.048898146
101	0xbbb4bc09	-0.0055155796
102	0xbd7c8def	-0.061658796
103	0xbd861cca	-0.0654846
104	0xbd4599c8	-0.04824236
105	0xbd9f1662	-0.07767941
106	0xbd8c7174	-0.06857577
107	0xbcc28c5c	-0.02374857
108	0x3d79b2fa	0.0609617
109	0x3d46d891	0.048546378
110	0x3d68a5d0	0.056798756
111	0xbd18bc94	-0.037289217
112	0xbc967b84	-0.018369444
113	0x3a8b0116	0.0010605182
114	0x3d17beff	0.037047382
115	0xbd859c70	-0.06523979
116	0xbd091734	-0.033469394
117	0x3c903a42	0.017605904
118	0xbd75d13d	-0.060014
119	0xbdb89ba1	-0.09014059
120	0xbdad8fe6	-0.08474712
121	0x3da66571	0.08124817
122	0xbd9f70f5	-0.07785217
123	0xbc9832d9	-0.018578934
124	0xbd2d32f9	-0.04228494
125	0xbcf15115	-0.029457608
126	0x3c9d4322	0.01919705
127	0xbda32ad2	-0.07967152
128	0xbd8d5265	-0.06900481
129	0xbde0f4ea	-0.10984214
130	0xbce9a44f	-0.028520731
131	0xbdaa80ae	-0.08325325
132	0xbd194b99	-0.03742561
133	0xbc91f774	-0.01781819
134	0xbc670cbe	-0.014102159
135	0x3d16af3b	0.036788207
136	0x3cffdbeb	0.031232795
137	0xbd16f103	-0.03685094
138	0xbccdf346	-0.025140416
139	0xbdd08fc3	-0.1018367
140	0xbd37ecca	-0.044903554
141	0xbd913f53	-0.07092156
142	0xbd4043ae	-0.046939544
143	0x3d5fe849	0.054664884
144	0x3c0642c0	0.008194625
145	0xbdbe96c4	-0.093061
146	0xbd09de64	-0.033659354
147	0x3d1c0cef	0.038098272
148	0xbd0dfb18	-0.03466329
149	0x3da68a4a	0.08131845
150	0xbd552c9f	-0.052044507
151	0xbdb38c22	-0.087669626
152	0xbc7b6446	-0.015343731
153	0x3c91bb59	0.01778953
154	0xbd120b89	-0.035655532
155	0xbcee985f	-0.02912539
156	0xbc2efd10	-0.010680452
157	0x3bcd1c5c	0.006259484
158	0x3bbcb329	0.0057586622
159	0x3ce25dd5	0.027632633
160	0xbe066707	-0.1312524
161	0x3d2d94d4	0.04237826
162	0x3c0d58af	0.008627101
163	0xbbaaee8f	-0.0052164267
164	0xbd832f90	-0.06405556
165	0xbc87927c	-0.016549341
166	0xbd6f4fbe	-0.058425657
167	0xbc841436	-0.016122919
168	0xbccc637c	-0.024949782
169	0x3d29978b	0.04140429
170	0xbd361429	-0.04445282
171	0x3cfbf000	0.03075409
172	0xbdd36d67	-0.10323601
173	0xbaf822cf	-0.0018931272
174	0xbcfb7825	-0.030696938
175	0xbdcd0b23	-0.1001189
176	0xbd3d413b	-0.046204787
177	0xbc6d6390	-0.01448907
178	0xbdaec858	-0.08534306
179	0x3b1b34ed	0.002368267
180	0x3bb9c751	0.0056695123
181	0xbd23f749	-0.04003075
182	0x3c6b6aed	0.014368755
183	0xbc879c0c	-0.016553901
184	0xbca48637	-0.02008353
185	0x3ca591c3	0.020211106
186	0x3c2678ae	0.010160608
187	0xbd93aa8d	-0.07210264
188	0xbc962cc7	-0.018331898
189	0xbbe47705	-0.006972196
190	0xbd9e421d	-0.07727454
191	0xbd37ff05	-0.04492094
192	0xbc824eb4	-0.01590667
193	0x3c8b4178	0.016998991
194	0xbd7e8e89	-0.06214765
195	0x3bb08595	0.005387018
196	0x3cacb5cc	0.021082781
197	0xbd8f9e04	-0.07012561
198	0xbde39fde	-0.111144766
199	0x3c3ae61b	0.0114074005
200	0x3cc4e42d	0.024034584
201	0xbc8fd754	-0.017558731
202	0xbd960730	-0.0732559
203	0xbd00bd6b	-0.031430643
204	0xbd761c1c	-0.0600854
205	0xbd528a9b	-0.051401716
206	0xbd14d0fc	-0.036332116
207	0xbdb88885	-0.09010414
208	0xbd103de8	-0.03521529
209	0xbd8a8095	-0.06762806
210	0xbdfe4b0c	-0.12416658
211	0xbd3caa70	-0.04606098
212	0xbd4864ac	-0.048924133
213	0x3d397cee	0.045285158
214	0xbd0579a0	-0.032586694
215	0xbcf3b04f	-0.029747156
216	0xbc9403a3	-0.01806814
217	0x3c82d33d	0.015969867
218	0xbd8cda1a	-0.06877537
219	0xbc9c179a	-0.019054223
220	0x3bc8e353	0.006130615
221	0xbda0804d	-0.078369714
222	0xbca8f990	-0.020626813
223	0xbdbb0b28	-0.09132987
224	0xbaec4916	-0.0018027152
225	0xbb7e8d59	-0.0038841574
226	0xbcb27e5a	-0.021788765
227	0xbdb6ffe9	-0.0893553
228	0x3cf8ed0f	0.030386476
229	0xbdb1b199	-0.08676452
230	0xbc982a58	-0.018574879
231	0xbdc281f0	-0.0949744
232	0xbd6bc40d	-0.057560015
233	0xbd0cf602	-0.0344143
234	0xbd0fcfb5	-0.035110194
235	0x3c1bbd82	0.009505631
236	0xbdf8f086	-0.12155251
237	0xbd2ff4c6	-0.042958044
238	0x3d021569	0.0317587
239	0xbc15fe31	-0.009154842
240	0x3c2ff3b6	0.010739258
241	0xbd3a47da	-0.04547868
242	0xbbdddc8b	-0.0067706755
243	0xbd12757d	-0.035756577
244	0x3ab29084	0.0013623391
245	0xbd885c91	-0.06658281
246	0x3c914747	0.017734183
247	0xbd815c11	-0.063163884
248	0xbc37c469	-0.011216261
249	0xbd1a3a0e	-0.03765302
250	0xbc51a7fe	-0.0127964
251	0xbc8b25cf	-0.016985802
252	0xbc7b55cf	-0.015340283
253	0xbd911564	-0.07084158
254	0xbd605442	-0.054767855
255	0xbd7b5ac3	-0.061365854

action_model._discrete_distribution.branches.2.bias f4 [3]
0	0x3ea0c8c3	0.3140317
1	0xbeb11d13	-0.34592494
2	0xbc93e068	-0.018051341

action_model._discrete_distribution.branches.2.weight f4 [3, 256]
0	0x3d5fec1d	0.054668535
1	0xbd5706ce	-0.052496724
2	0x3d701b97	0.05862006
3	0xbd06b96b	-0.032891672
4	0xbd7720a4	-0.060333863
5	0x3dcc642b	0.09980043
6	0xbc827021	-0.015922608
7	0xbd98ca39	-0.07460446
8	0x3d4cee48	0.05003193
9	0xbd7781e1	-0.060426597
10	0x3cc4f747	0.024043692
11	0xbd664d5a	-0.056226112
12	0x3d87b721	0.06626726
13	0x3d9ee0c8	0.07757717
14	0x3c22ac6c	0.009928804
15	0x3de1a5d0	0.11017954
16	0x3b860c20	0.004090801
17	0x3b6be2d6	0.003599336
18	0xbdc686e0	-0.09693694
19	0xbd316ee6	-0.04331865
20	0x3ab004d2	0.0013429171
21	0xbd015260	-0.0315727
22	0x3a5549a1	0.0008136277
23	0x3d4b8943	0.04969145
24	0x3c8c83dd	0.017152721
25	0xbd1b21e8	-0.037874132
26	0xbd646b32	-0.055766292
27	0xbd88cb5b	-0.06679412
28	0xbd3d4a03	-0.04621316
29	0x3d8a1f73	0.0674428
30	0xbe04e55a	-0.12978116
31	0xbcea58a6	-0.028606724
32	0x3cc05197	0.023476405
33	0xbc37d9d8	-0.011221372
34	0xbbec3e81	-0.0072095995
35	0x3bbb00be	0.0057068756
36	0xbd88494c	-0.06654605
37	0x3a02d51f	0.0004990864
38	0xbcf09c0b	-0.029371282
39	0xbdb2c697	-0.08729284
40	0xbd846947	-0.064653926
41	0xbc91514c	-0.01773896
42	0xbc929708	-0.017894283
43	0xbd255fd2	-0.040374584
44	0x3b4502ee	0.003006156
45	0x3b86ec31	0.0041175117
46	0xbde1e506	-0.11030011
47	0xbdd95b6f	-0.10613143
48	0x3d7aa3dc	0.061191425
49	0xbda53217	-0.080661945
50	0x3c45dc3e	0.012076436
51	0xbc7460f1	-0.014915691
52	0x3d3982d8	0.045290798
53	0x3cae95f5	0.02131174
54	0x3ce9c019	0.028533982
55	0x3d928cfe	0.071557984
56	0x3caf28d0	0.021381766
57	0xbda5f03c	-0.08102462
58	0xbe00c9d7	-0.12576996
59	0xbcb4e61f	-0.022082387
60	0xbd09c9e3	-0.0336398
61	0xbd9c8f69	-0.07644541
62	0xbdb2cdca	-0.087306574
63	0xbd4c70b2	-0.049912162
64	0xbd544d7d	-0.05183171
65	0x3ba76861	0.0051088785
66	0xbd800b78	-0.062521875
67	0x3d613afa	0.054987885
68	0xbcb02202	-0.021500591
69	0xbb64a6fe	-0.0034889574
70	0xbdd01ac5	-0.10161356
71	0xbcf9e4ea	-0.030504663
72	0xbd52ee99	-0.051497076
73	0xbd70bf3d	-0.05877613
74	0x3d2aefd0	0.04173261
75	0xbdcabdb4	-0.09899464
76	0x3d94fd6b	0.07274898
77	0xbde720aa	-0.11285527
78	0xbd41a5ea	-0.04727737
79	0xbd8b0fbe	-0.06790112
80	0x3d1050ba	0.035233237
81	0xbd31734a	-0.04332284
82	0xbcee1e2d	-0.029067123
83	0x3d0ffb18	0.03515157
84	0xbd3738b6	-0.04473182
85	0x3d030f02	0.031996734
86	0xbe62c24e	-0.22144434
87	0x3c8e5723	0.017375534
88	0xbd6fb2eb	-0.05852024
89	0x3e040dd4	0.128959
90	0xbe497e3f	-0.19677065
91	0xbd423141	-0.047410253
92	0xbdf57acf	-0.119863145
93	0xbd55801c	-0.052124128
94	0xbdc063aa	-0.093940094
95	0x3dce3f80	0.100707054
96	0xbccf22ca	-0.025285143
97	0xbdb1fc67	-0.0869072
98	0xbddc4fca	-0.10757406
99	0xbd015f8b	-0.031585258
100	0xbd97cf53	-0.07412591
101	0x3da6ab38	0.08138126
102	0xbd29fe7e	-0.04150247
103	0xbd90e5af	-0.07075059
104	0xbd1ebec5	-0.03875615
105	0xbcd12bb2	-0.02553353
106	0xbc797f6b	-0.015228133
107	0x3cedfebf	0.029052136
108	0xbd42a065	-0.047516245
109	0x3e16cbb5	0.14726146
110	0xbd0d7681	-0.034536842
111	0x3e0cc487	0.13746844
112	0xbd70d1ee	-0.058793955
113	0xbc292c4d	-0.010325504
114	0xbe0cf115	-0.1376384
115	0xbdb37b24	-0.087637216
116	0x3d015310	0.031573355
117	0xbd3603c0	-0.04443717
118	0xbd032ae4	-0.032023326
119	0xbdee302f	-0.11630284
120	0xbbe336e1	-0.0069340323
121	0xbd777b9e	-0.060420625
122	0xbcdd1a9b	-0.026990226
123	0xbd6dedf8	-0.058088273
124	0x3c094271	0.008377657
125	0xbd930105	-0.07177929
126	0x3cc6c877	0.024265511
127	0xbd1f0776	-0.038825475
128	0xbdf250c4	-0.11831811
129	0x3ca3ba82	0.019986395
130	0xbd8e8a7c	-0.069600075
131	0x3d1a3b18	0.037654012
132	0xbbf0cf47	-0.007348928
133	0xbbe7a270	-0.0070689246
134	0xbd5c2a4b	-0.05375127
135	0xbc86efcb	-0.016471764
136	0xbd53a0ed	-0.051667143
137	0xbdb1de48	-0.08684975
138	0xbbb5318c	-0.005529588
139	0x3c319c9e	0.010840563
140	0xbb7e1b09	-0.0038773438
141	0xbcde316e	-0.02712318
142	0xbda595e0	-0.08085227
143	0xbda23589	-0.07920367
144	0xbceca6bc	-0.028888099
145	0x3cacb831	0.021083923
146	0xbcc2de30	-0.023787588
147	0x3d9dcc17	0.07704943
148	0x3c67d942	0.014150919
149	0x3b9102cd	0.0044253827
150	0xbb9ea72a	-0.004841705
151	0xbdd06f8d	-0.101775266
152	0xbc624884	-0.013811234
153	0xbd9a6e6b	-0.07540592
154	0xbc71b8bd	-0.014753518
155	0xbd86cb44	-0.065817386
156	0xbcb4bfa2	-0.022064034
157	0xbbf6f8c4	-0.0075369794
158	0x3d148315	0.036257822
159	0x3bf0e135	0.0073510655
160	0xbd3b7fff	-0.045776363
161	0xbc8e2302	-0.017350677
162	0xbd30a648	-0.04312733
163	0xbc76df00	-0.015067816
164	0xbcfce0d4	-0.030868925
165	0xbdc99529	-0.09842903
166	0xbc833d57	-0.01602046
167	0x3db2d5ba	0.08732171
168	0x3e07c423	0.13258414
169	0x3cdc5500	0.026896
170	0xbcfabbaf	-0.030607073
171	0xbd01b93c	-0.031670794
172	0x3b5492b2	0.003243607
173	0xbca01f2b	-0.019546112
174	0xbc94b599	-0.018152999
175	0xbd7810ba	-0.060562827
176	0xbcf0645c	-0.02934473
177	0xbc1e72df	-0.009670942
178	0xbdacbd89	-0.084345885
179	0x3db9c38c	0.09070501
180	0x3dec3549	0.11533601
181	0xbd3b8e20	-0.045789838
182	0xbd78a0b8	-0.06070015
183	0xbd443b37	-0.047908034
184	0x3d81d168	0.06338769
185	0x3c4601f1	0.012085424
186	0xbc41a71f	-0.01181963
187	0xbde915d4	-0.113811165
188	0xbdaed6fa	-0.08537097
189	0xbc04f49f	-0.008114963
190	0xbd02a127	-0.031891968
191	0xbe187b98	-0.14890897
192	0x3bd2ba28	0.006430883
193	0xbda3e4f0	-0.08002651
194	0x3d626971	0.055276338
195	0xbd2c1af4	-0.042017892
196	0xbc2a3887	-0.010389454
197	0x3de06325	0.1095641
198	0x3d832dfe	0.06405257
199	0xbde76cda	-0.11300059
200	0xbd6fca34	-0.058542445
201	0xbd5c4382	-0.053775318
202	0xb8e32a12	-0.0001083204
203	0xbd710252	-0.058840103
204	0xbdc73dda	-0.09728594
205	0xbcb931c3	-0.022606736
206	0xbd1f592f	-0.03890341
207	0xbd2fceeb	-0.04292194
208	0xbd027f7a	-0.031859852
209	0xbc687c62	-0.014189811
210	0x3cb94c70	0.022619456
211	0xbd0b7f07	-0.03405669
212	0x3db71768	0.08940011
213	0x3c0ee83b	0.00872236
214	0xbd6987d5	-0.057014305
215	0x3d3b252f	0.045689758
216	0x3d032b2a	0.032023586
217	0xbdc4fcd5	-0.096185364
218	0xbc51ff1c	-0.0128171705
219	0xbd54e2b6	-0.05197402
220	0xbd7b7971	-0.061395112
221	0x3d922919	0.07136745
222	0xbc6bdf56	-0.014396509
223	0xbcb0bf34	-0.021575548
224	0xbdda39cb	-0.106555544
225	0x3d65d91a	0.056115247
226	0xbd4d12d5	-0.050066788
227	0x3da6e76d	0.0814961
228	0xbe18d78b	-0.14925973
229	0x3dc480aa	0.09594853
230	0xbd0ffdac	-0.03515403
231	0x3c5826ef	0.013192876
232	0xbcf52388	-0.02992417
233	0xbbd9aa8f	-0.0066426466
234	0xbd521004	-0.051284805
235	0xbc9324c6	-0.01796187
236	0x3d07a380	0.03311491
237	0xbc9d01dd	-0.019165928
238	0xbdce9559	-0.100870796
239	0xbd1f73dc	-0.03892885
240	0xbdaef185	-0.0854216
241	0xbc1dce2e	-0.009631677
242	0xbd30cda8	-0.04316488
243	0xbd0d7fbe	-0.034545653
244	0x3c413081	0.011791349
245	0x3d4bea6d	0.049784113
246	0xbaca6bcd	-0.0015443504
247	0x3e012aa8	0.12613928
248	0xbdbac1ff	-0.09119033
249	0xbe04c238	-0.12964714
250	0xbd159aac	-0.03652446
251	0xbc89298d	-0.016743446
252	0xbd2ac84c	-0.041694924
253	0x3d3975c9	0.045278344
254	0xbd51cdb5	-0.05122157
255	0xbe07072a	-0.13186327

action_model._discrete_distribution.branches.3.bias f4 [2]
0	0xbdd75b90	-0.10515511
1	0x3dd75b87	0.10515504

action_model._discrete_distribution.branches.3.weight f4 [2, 256]
0	0xbd31f53b	-0.04344676
1	0x3c30c146	0.0107882675
2	0xbd86b354	-0.06577173
3	0x3e085f77	0.13317667
4	0x3d46f74b	0.04857568
5	0xbcf3635e	-0.029710468
6	0xbc92c75f	-0.017917333
7	0x3d0cf5a7	0.03441396
8	0xbab67a04	-0.0013921862
9	0xbda154fe	-0.07877539
10	0xbd30d0a4	-0.043167725
11	0xbd9772f0	-0.073949695
12	0xbdd856df	-0.10563444
13	0xbd88c176	-0.06677525
14	0xbc2fabe6	-0.010722136
15	0xbd12a834	-0.035804942
16	0xbcc24c7e	-0.023718115
17	0x3d018137	0.03161737
18	0x3b377858	0.0027995314
19	0xbdaa5940	-0.08317804
20	0xbca5936e	-0.020211902
21	0x3c41ad46	0.011821097
22	0xb9cad058	-0.0003868367
23	0x3dd064b2	0.10175456
24	0x3ab67e63	0.0013923164
25	0xbc439bd7	-0.011939011
26	0x3d841d51	0.06450904
27	0x3dbda88d	0.09260664
28	0x3c8d9715	0.017283956
29	0x3d995f5b	0.07488891
30	0x3c9dc389	0.019258277
31	0xbd13cc4b	-0.0360835
32	0x3be4a056	0.0069771213
33	0xbcd85cd1	-0.026411446
34	0x3e0c9040	0.13726902
35	0x3d1fa56b	0.038976114
36	0x3c07e1aa	0.008293549
37	0x3d699bd8	0.05703339
38	0xbda4a3df	-0.080390684
39	0xbd0d906f	-0.03456157
40	0xbd4f7f2c	-0.05065839
41	0x3d613b12	0.054987974
42	0x3c790426	0.015198743
43	0x3d913e7f	0.07091998
44	0x3a5d1a39	0.00084343884
45	0xbd857cf0	-0.065179706
46	0x3ce30977	0.027714474
47	0xbdbde47d	-0.09272096
48	0x3c09c6cd	0.008409214
49	0xbe0146ea	-0.12624708
50	0xbb4b99f8	-0.0031067114
51	0x3cf0fe50	0.02941814
52	0x3d23f5fe	0.04002952
53	0x3af52ff5	0.0018706309
54	0x3d6005b8	0.054692954
55	0x3c31d6a5	0.010854398
56	0x3d3f1049	0.04664639
57	0x3c8d2a45	0.01723207
58	0x3e088bcb	0.13334577
59	0x3c695560	0.014241546
60	0xbbf3b1dd	-0.0074369744
61	0x3d744857	0.0596393
62	0x3d53f249	0.051744733
63	0x3d2ca41c	0.042148694
64	0xbd80d3b7	-0.062903814
65	0xbe57390d	-0.21017857
66	0x3ddd8164	0.10815695
67	0x3bf9ebe4	0.0076269973
68	0x3d53fab1	0.05175275
69	0xbdcec1bd	-0.100955464
70	0x3cc7d018	0.024391219
71	0xbc1f7c82	-0.009734275
72	0x3d6f3231	0.058397476
73	0x3d855732	0.06510772
74	0x3dc2d78f	0.09513771
75	0x3d9848fd	0.074357964
76	0xbd06530f	-0.032794055
77	0x3c3b8258	0.011444651
78	0xbdb775a1	-0.08957983
79	0xbc17e5c8	-0.009271093
80	0xbcacb2c6	-0.02108134
81	0xba993b24	-0.0011690599
82	0xbcd9a65b	-0.026568582
83	0xbd9fb212	-0.07797636
84	0x3db09aa5	0.08623246
85	0xbd6f88ed	-0.058480192
86	0x3cbf1e20	0.023329794
87	0xbcca051a	-0.024660636
88	0x3cffd91a	0.031231452
89	0xb9987999	-0.00029082297
90	0xbd54fa7e	-0.0519967
91	0xbdf5c602	-0.120006576
92	0xbda448c2	-0.0802169
93	0xbd6a2f34	-0.057173923
94	0x3d53eea0	0.051741242
95	0xbd971b71	-0.07378281
96	0xbc4ba643	-0.012429777
97	0xbc3c5c54	-0.011496622
98	0xbd6bc931	-0.057564918
99	0x3d58053d	0.05273937
100	0x3d64be81	0.05584574
101	0xbd7961b0	-0.060884178
102	0x3c4f7bd9	0.012663805
103	0x3c9a3807	0.018825544
104	0x3b9c2acf	0.0047658454
105	0xbdcd8034	-0.100342184
106	0xbcf9a9b4	-0.030476429
107	0xbdf93b3a	-0.121695
108	0xbe39a5af	-0.1812961
109	0x3b6b4138	0.0035897028
110	0xbd6c5ec2	-0.057707556
111	0x3bf6512d	0.007517001
112	0xbccdb0e1	-0.025108756
113	0xbdcf795b	-0.101305686
114	0xbdd07df5	-0.101802744
115	0x3c585120	0.013202935
116	0x3cf33516	0.0296884
117	0xbd8b91a6	-0.068148896
118	0x3c536e50	0.0129047185
119	0x3df4d80a	0.11955269
120	0xbcebdfa2	-0.02879316
121	0x3d586cdd	0.052838195
122	0xbd85ccf1	-0.0653323
123	0x3df75474	0.12076655
124	0xbd3c513e	-0.045975916
125	0xbd0707a2	-0.032966264
126	0xbd044471	-0.032291833
127	0x3bcbdedf	0.0062216367
128	0xbd13a8a4	-0.0360495
129	0x3c592142	0.013252558
130	0xbbecbba4	-0.007224517
131	0x3d08877b	0.03333233
132	0xbcab608e	-0.020920064
133	0xbbbbd40b	-0.0057320646
134	0xbd2ce8eb	-0.042214315
135	0x3ce674b5	0.028131822
136	0x3c38f0c1	0.011287869
137	0xbb92b268	-0.004476834
138	0xbd8873b3	-0.06662693
139	0xbd243362	-0.040088065
140	0x3d5e0168	0.05420056
141	0x3ac01a4a	0.0014656272
142	0xbd234f2b	-0.039870422
143	0x3e0637dd	0.13107248
144	0xbcb4b01c	-0.022056632
145	0x3d65f1f5	0.05613895
146	0xbd2d7e76	-0.04235693
147	0xbc6befcb	-0.014400433
148	0xbd817658	-0.063214004
149	0x3c41cb82	0.011828305
150	0xbda71dd9	-0.0815999
151	0xbbd654e8	-0.0065408833
152	0xbd5eb457	-0.054371204
153	0x3cb03f27	0.021514488
154	0x3c231629	0.009954014
155	0x3d2060ae	0.0391547
156	0x3cf5628e	0.029954221
157	0xbd91828b	-0.07104977
158	0x3ca4717a	0.020073641
159	0xbc436983	-0.011927011
160	0xbca82997	-0.020527644
161	0x3daaf904	0.08348277
162	0xbc9db798	-0.019252583
163	0xbd3e906b	-0.046524446
164	0xbcc7f433	-0.024408435
165	0xbd85a4ef	-0.06525599
166	0xbdaa02d8	-0.08301324
167	0x3b739e51	0.0037173221
168	0xbd298e1b	-0.041395288
169	0xbd3206d4	-0.043463543
170	0xbd933d42	-0.071894184
171	0x3db52537	0.08844989
172	0x3d4430f2	0.04789824
173	0x3d732779	0.059363816
174	0x3de7d3e9	0.113197155
175	0xbca3e227	-0.020005299
176	0x3d0b31bb	0.033982974
177	0x3cb27003	0.021781927
178	0xbddd173d	-0.10795448
179	0xbc99a684	-0.018756159
180	0x3ae2f617	0.0017315772
181	0x3d1b2d68	0.0378851
182	0xbd8aea28	-0.06782943
183	0x3cb7f074	0.022453524
184	0xbd584e20	-0.05280888
185	0xbd12c1b4	-0.03582926
186	0x3d886776	0.066603586
187	0xbd1d6572	-0.038426824
188	0x391635f0	0.00014325208
189	0xbc5889a3	-0.013216409
190	0x3d104e64	0.03523101
191	0xbd314802	-0.043281563
192	0xbd81661d	-0.06318305
193	0xbd920086	-0.07129006
194	0xbde95150	-0.11392462
195	0xbbb6d0e0	-0.005579099
196	0xbd225798	-0.039634317
197	0xbca860db	-0.020553997
198	0xbd18c0b9	-0.03729317
199	0xbe03ffc7	-0.1289054
200	0xbc53056c	-0.012879711
201	0xbd87a71f	-0.06623673
202	0xbd054e55	-0.032545406
203	0xbd5229ac	-0.051309273
204	0x3cab4e7f	0.020911453
205	0x3d1ca927	0.038247254
206	0xbcc9ef6e	-0.024650302
207	0x3d9b771f	0.0759108
208	0xbc8b4f13	-0.017005479
209	0xbd30cbf5	-0.04316326
210	0xbc66a437	-0.014077238
211	0x3d4e61dc	0.050386295
212	0xbdff9dde	-0.12481283
213	0xbcd2bad3	-0.02572385
214	0x3d1c5092	0.038162775
215	0xbd2fe95d	-0.042947162
216	0xbe0bff7a	-0.13671675
217	0xbafb9e1d	-0.0019196902
218	0xbdc8aac1	-0.09798194
219	0x3dc79eb5	0.09747068
220	0xbdd80b5f	-0.10549044
221	0xbd3b5811	-0.045738284
222	0xbd82f2f5	-0.063939966
223	0xbd3e0322	-0.046389706
224	0xbdab1532	-0.08353652
225	0xbc993e9d	-0.018706614
226	0x3c9d4a74	0.019200541
227	0xbdc22f4b	-0.09481677
228	0xbe13a374	-0.14417821
229	0xbd191217	-0.037370767
230	0x3c4f73b1	0.01266186
231	0xbb538857	-0.003227731
232	0xbdcae952	-0.099077836
233	0xbd8d71f8	-0.069065034
234	0x3dc40d7f	0.09572887
235	0xbe08f377	-0.13374124
236	0xbce70774	-0.028201796
237	0x3b08b4eb	0.0020859789
238	0x3b9f8b44	0.0048688967
239	0x3cc83b4c	0.024442337
240	0xbddfcbff	-0.10927581
241	0xbd4fcad8	-0.050730556
242	0xbdb2d3bd	-0.08731792
243	0xbd67b499	-0.056568716
244	0xbd3a6264	-0.04550399
245	0x3d7d99e5	0.061914343
246	0x3c75c629	0.015000858
247	0xbd0fa837	-0.03507253
248	0xbd6effc5	-0.05834939
249	0xbc0888db	-0.00833341
250	0xbdf0890d	-0.1174489
251	0x3d462f88	0.048385173
252	0x3cab335b	0.020898512
253	0x3c8f21fb	0.017472258
254	0xbc5bbed4	-0.013412196
255	0xbd796a2a	-0.06089226

discrete_action_output_shape f4 [1, 4]
0	0x40400000	3.0
1	0x40400000	3.0
2	0x40400000	3.0
3	0x40000000	2.0

network_body._body_endoder.seq_layers.0.bias f4 [256]
0	0xbdd6775a	-0.10471983
1	0xbda4a304	-0.08038905
2	0x3da33557	0.07969158
3	0xbd8124d0	-0.063058496
4	0xbd72d61c	-0.05928622
5	0xbd5860b6	-0.052826606
6	0x3d0f8393	0.03503759
7	0x3decb426	0.11557798
8	0x3dd2330e	0.10263644
9	0x3cd870b6	0.026420932
10	0xbd21811f	-0.03942978
11	0x3d2013a1	0.03908122
12	0xbe411d08	-0.18858731
13	0xbc6aace0	-0.014323443
14	0xbc2607b5	-0.010133673
15	0xbda28cec	-0.07937035
16	0x3c9d754f	0.019220976
17	0xbdaef2e2	-0.0854242
18	0x39ca3635	0.0003856883
19	0xbd87ae5e	-0.06625055
20	0x3db07855	0.086167015
21	0x3d5e8a2d	0.054330993
22	0xbd54ad2c	-0.051922962
23	0xbd97b872	-0.07408227
24	0x3d5ba021	0.053619508
25	0xbe1790da	-0.1480135
26	0xbe05f9cc	-0.13083571
27	0xbda182c6	-0.07886271
28	0x3d238c61	0.039928798
29	0x3d94c5b9	0.07264275
30	0x3c862f7e	0.016380068
31	0xbd8e2923	-0.0694144
32	0xbd948273	-0.07251444
33	0xbe17bd68	-0.14818347
34	0xbd87b532	-0.06626357
35	0xbe6c0256	-0.23047766
36	0x3d7a9444	0.061176553
37	0x3cc896aa	0.024485905
38	0xbc83b1b4	-0.016075946
39	0x3d72e71c	0.059302434
40	0xbe1e1e28	-0.15441191
41	0x3c926a02	0.017872814
42	0xbb4459c3	-0.0029960729
43	0x3db2870e	0.08717166
44	0xbdb761c6	-0.08954196
45	0x3c4fb89f	0.012678294
46	0xbd7b2257	-0.061312046
47	0xbbc4be90	-0.006004162
48	0x3d81fc0c	0.06346902
49	0x3dd23bdd	0.10265324
50	0x3e18ed78	0.14934337
51	0xbd73bf14	-0.0595084
52	0xbd070c89	-0.03297094
53	0x3de4c307	0.11170011
54	0x3d0a4ee9	0.03376666
55	0xbe017cd1	-0.1264527
56	0xbd8d0dd1	-0.06887401
57	0xbd805977	-0.06267064
58	0xbe02e638	-0.12783134
59	0x3e3dc87c	0.1853351
60	0x3dcc9c41	0.099907406
61	0x3c3d1743	0.011541191
62	0xbd776a56	-0.060404144
63	0xbde3bd81	-0.111201294
64	0x3d30cb10	0.043162405
65	0xbd982d43	-0.07430508
66	0xbddcee1e	-0.10787605
67	0xbbff1726	-0.007784742
68	0xbe050004	-0.12988287
69	0xbd8700b9	-0.06591935
70	0xbd1547cc	-0.036445424
71	0xbce03664	-0.027369685
72	0xbdba95e8	-0.091106236
73	0xbcaa2eda	-0.020774294
74	0x3c51abd6	0.012797317
75	0xbd028862	-0.031868346
76	0xbd6a0107	-0.057129886
77	0x3d133baa	0.035945572
78	0xbcfa2efe	-0.030539986
79	0xbd80bfde	-0.06286596
80	0x3d9831d4	0.07431379
81	0xbd9bd959	-0.07609815
82	0xbdb190fa	-0.0867023
83	0x3c09483b	0.0083790375
84	0x3def17ce	0.11674462
85	0xbd18ede0	-0.03733623
86	0x38a70199	7.963478e-05
87	0xbe2e8254	-0.17041904
88	0xbcc1de7d	-0.023665661
89	0xbe14db03	-0.14536671
90	0xbe1a0b65	-0.15043409
91	0xbd6732da	-0.05644498
92	0x3d441b57	0.047877636
93	0x3cd2b4e4	0.025721021
94	0xbd2e80bd	-0.042603243
95	0xbcf250ed	-0.029579604
96	0xbd70d819	-0.058799837
97	0xbdea4bfb	-0.114402734
98	0x3e114d30	0.14189601
99	0xbd804e01	-0.06264878
100	0xba8c1783	-0.0010688159
101	0xbdf9defd	-0.12200735
102	0xbe1cc531	-0.15309598
103	0xbcdf0d86	-0.027228128
104	0xbc217b50	-0.00985606
105	0x3d506384	0.050876155
106	0x3b104ee1	0.0022019672
107	0x3d2e9e87	0.042631652
108	0x3d9af4a4	0.07566193
109	0x3ce01080	0.027351618
110	0x3d6e02d7	0.058108177
111	0x3bc500f8	0.0060120784
112	0x3d1153ab	0.035480183
113	0xbcc4bd4f	-0.02401605
114	0xbd23a680	-0.03995371
115	0xbe27e2fd	-0.16395183
116	0xbe297602	-0.16548923
117	0x3cf2471a	0.02957492
118	0xbcacd1c8	-0.021096125
119	0xbcf8730d	-0.030328298
120	0x3d52f3ca	0.051502027
121	0xbaab372b	-0.0013062706
122	0xbcbc1f5b	-0.02296417
123	0x3c9b90ac	0.018989883
124	0x3c861d3a	0.016371358
125	0xbe460ebb	-0.19341557
126	0xbe078f5b	-0.1323828
127	0x3dacc2a1	0.0843556
128	0x3d862783	0.06550505
129	0xbd1c07c7	-0.038093355
130	0x3dd53117	0.10409754
131	0xbd241391	-0.040057722
132	0xbdceb54d	-0.10093174
133	0xbd546165	-0.051850695
134	0x3da2e6ae	0.07954155
135	0xbd0d25ad	-0.03445976
136	0x3c85a29b	0.016312888
137	0xbdc8afb7	-0.0979914
138	0xbb0e0edb	-0.0021676335
139	0xbc659044	-0.014011446
140	0xbd896676	-0.06708996
141	0xbdc44ee9	-0.095853634
142	0x3d7f6ffc	0.062362656
143	0x3d4b1966	0.04958477
144	0xbc4b96b4	-0.012426067
145	0xbd1a896a	-0.037728705
146	0xbd987901	-0.07444955
147	0x3c3b0511	0.011414782
148	0xbc64a5e1	-0.013955564
149	0xbddc8023	-0.10766628
150	0xbcca3d2a	-0.024687368
151	0xbd576922	-0.052590497
152	0x3d573aaf	0.0525462
153	0xbd8a0eb1	-0.067410834
154	0x3df7109a	0.12063713
155	0x3d62bab1	0.055353824
156	0xbdb037b5	-0.08604375
157	0xbd90f0e9	-0.070772
158	0xbd1ebfc9	-0.03875712
159	0x3d7a4fae	0.061111145
160	0x3cc3b5ba	0.023890365
161	0x3db30524	0.08741215
162	0x3d6d4bdb	0.05793367
163	0x3b7b464c	0.003834146
164	0x3c56b2d3	0.013104158
165	0xbe166d8b	-0.14690225
166	0xbcf204a5	-0.02954323
167	0x3d993033	0.074798964
168	0xbde166db	-0.11005946
169	0x3cc888bd	0.024479264
170	0xbdc1c7a3	-0.09461906
171	0xbdb07c51	-0.086174615
172	0x3d8ee69c	0.06977579
173	0x3d901d28	0.07036811
174	0xbe032644	-0.12807566
175	0xbe1192ec	-0.14216202
176	0xbdf6f911	-0.120592244
177	0xbde77bed	-0.11302934
178	0xbe0db8c6	-0.13840017
179	0xbbf588aa	-0.0074930983
180	0xbb605290	-0.0034228899
181	0x3d7d9ea3	0.061918866
182	0xbcba3728	-0.022731379
183	0xbdbe5de9	-0.09295256
184	0xbd858c37	-0.065208845
185	0xbe274650	-0.16335416
186	0xbde474e5	-0.11155108
187	0x3cbdd5f7	0.023173315
188	0xbdbd5a4b	-0.09245738
189	0xbe14527c	-0.1448459
190	0xbd0b5c2b	-0.034023445
191	0xbc8698c8	-0.016430274
192	0xbc60154e	-0.013676954
193	0xbdb6629d	-0.08905528
194	0x3badc5ea	0.005303134
195	0xbe0da9b8	-0.13834274
196	0xbd9cc647	-0.07655006
197	0xbd0b4392	-0.033999987
198	0xbab9b53f	-0.0014168395
199	0xbdce2381	-0.100653656
200	0xbaaa0221	-0.0012970605
201	0xbdbfd25e	-0.09366296
202	0x3dd9447a	0.10608764
203	0x3bba77a2	0.005690531
204	0xbd922f9d	-0.07137988
205	0xbd3fad1f	-0.04679596
206	0xbdbf317e	-0.09335612
207	0x3d9134bd	0.07090137
208	0xbda83f5f	-0.08215212
209	0xbe0c286b	-0.13687293
210	0xbdd22095	-0.10260121
211	0x3ca8cef0	0.020606488
212	0x3cfe538d	0.0310457
213	0xbd1ad0d6	-0.037796818
214	0xbdd81865	-0.10551528
215	0xbba1b788	-0.0049352087
216	0xbd48c14d	-0.04901247
217	0xbd8174cb	-0.063211046
218	0xbe450a2b	-0.1924216
219	0xbdbfe58c	-0.093699545
220	0xbd7f8bcc	-0.06238918
221	0xbc5952af	-0.013264342
222	0x3d4bfd08	0.049801856
223	0xbdacd2e8	-0.08438665
224	0x3d2d5f08	0.042326957
225	0xbc4bbf79	-0.012435787
226	0xbd3fd8c1	-0.046837572
227	0x3d70d9ba	0.05880139
228	0xbd0d1b7e	-0.034450047
229	0xbe6b23e1	-0.22962905
230	0xbd394f1a	-0.045241453
231	0xbbe0cf90	-0.006860681
232	0x3ce17793	0.027522838
233	0x3df5e824	0.12007168
234	0xbd55f234	-0.052232936
235	0xbd8bfd80	-0.06835461
236	0x3e2b35c2	0.16719726
237	0x3d23594e	0.03988009
238	0xbb977dc4	-0.0046231467
239	0x3e06d057	0.13165413
240	0x3def30ff	0.11679267
241	0xbd7ef2f4	-0.062243417
242	0xbe293754	-0.16525012
243	0xba2a0a63	-0.0006486533
244	0xbdab2c01	-0.083580025
245	0xbdee73f6	-0.116432115
246	0x3da2f23d	0.079563595
247	0xbdd1708d	-0.102265455
248	0xbdd883e1	-0.10572029
249	0x3c998ce2	0.018743936
250	0x3e1e53b7	0.15461622
251	0x3c7bd4cc	0.015370559
252	0xbc9cd9a1	-0.019146742
253	0x3cc8b1d5	0.02449886
254	0xbccf8db5	-0.025336126
255	0xbde6ffbd	-0.11279247

network_body._body_endoder.seq_layers.0.weight f4 [256, 13]
0	0xbd833460	-0.06406474
1	0xbe8609f2	-0.26179463
2	0xbecb5cef	-0.3971934
3	0xbeb4fd01	-0.35349277
4	0x3e0b6f8b	0.13616769
5	0xbd81c35c	-0.0633609
6	0x3d39d99c	0.045373544
7	0x3e9329e6	0.28742903
8	0xbe612542	-0.21986869
9	0x3e0d6e6a	0.13811651
10	0x3c51b40a	0.012799272
11	0xbf03cf36	-0.51488054
12	0xbdc2eae2	-0.095174566
13	0x3f57e0d4	0.84327435
14	0xbec10781	-0.37701038
15	0xbf1fdeb8	-0.62449217
16	0x3f39b30f	0.72538847
17	0xbe4053f5	-0.18782027
18	0xbcf03180	-0.029320478
19	0x3cd9bff6	0.026580792
20	0xbdef7930	-0.116930366
21	0xbb9d7a6f	-0.004805855
22	0x3e46c4c1	0.19410993
23	0xbccb43d6	-0.02481262
24	0x3eeb517b	0.45960602
25	0x3e9a42d0	0.301291
26	0x3cd6a335	0.02620087
27	0xbe98d364	-0.29848778
28	0x3d992d76	0.07479374
29	0x3f397816	0.7244886
30	0x3ef17745	0.47161308
31	0x3ddc2f3a	0.10751195
32	0x3ea4b70f	0.32170913
33	0x3e71882c	0.23587102
34	0x3eee3a09	0.46528652
35	0xbcdcb059	-0.026939558
36	0x3e35da7b	0.17759125
37	0xbc37f70f	-0.011228337
38	0xbe65c6f5	-0.22439177
39	0x3dcb72d7	0.09934013
40	0x3d8f1c41	0.06987811
41	0x3f1d63cc	0.614804
42	0xbe52b43a	-0.20576563
43	0x3df58dd2	0.11989941
44	0x3ed47121	0.4149256
45	0xbd60aa46	-0.054849885
46	0x3f0090c4	0.50220895
47	0xbf35cd3c	-0.7101629
48	0x3e835292	0.25648934
49	0x3d146a57	0.036234226
50	0xbdc9846c	-0.098397106
51	0xbd9d9af9	-0.07695574
52	0x3eedc04f	0.46435782
53	0x3e2ca1b6	0.16858563
54	0xbed2b7f0	-0.41155958
55	0xbd8247d1	-0.06361354
56	0x3ecb9de3	0.39768896
57	0x3d86a4d4	0.06574407
58	0xbdc73925	-0.09727696
59	0xbe1374f2	-0.1440008
60	0x3eb7ac72	0.35873753
61	0xbe63fda3	-0.22264723
62	0x3d7afa63	0.061273944
63	0xbeb82dd4	-0.35972464
64	0xbea3eed8	-0.3201816
65	0x3ea8089e	0.32819074
66	0xbef42b6c	-0.47689378
67	0xbf0b2077	-0.5434641
68	0x3f19061c	0.5977495
69	0xbe17955f	-0.14803074
70	0xbf378616	-0.71688974
71	0xbe5de51c	-0.2166943
72	0xbea877b1	-0.32903817
73	0xbdbe20ec	-0.09283623
74	0x3b97d1cb	0.0046331636
75	0x3eaf0ecc	0.34190977
76	0xbe2e8972	-0.17044619
77	0x3e1047de	0.14089915
78	0xbecc42e7	-0.39894792
79	0xbe19be2c	-0.15013951
80	0x3f00009b	0.50000924
81	0xbd691054	-0.056900337
82	0x3dd70d31	0.10500563
83	0x3f17d461	0.5930844
84	0xbed8ab25	-0.42318073
85	0x3e95ab8d	0.29232445
86	0x3e26c4c4	0.16285998
87	0xbd0ca9e6	-0.034341715
88	0x3e96726b	0.2938417
89	0x3e46fd5d	0.19432588
90	0x3baf30f7	0.0053464132
91	0x3ef6505a	0.48108178
92	0xbe79d71a	-0.24398461
93	0xbef98a8c	-0.48738515
94	0x3ead10ec	0.33801973
95	0xbf271d4c	-0.6527908
96	0xbde2413b	-0.11047598
97	0xbeae9a1d	-0.34101954
98	0x3db7e164	0.08978537
99	0x3e930fb7	0.28722927
100	0x3e985ab8	0.29756713
101	0xbcd26c18	-0.025686309
102	0xbe59cf30	-0.21270442
103	0x3d52bb5f	0.051448222
104	0xbec8218a	-0.39088088
105	0x3f0a5823	0.54040736
106	0x3e389796	0.18026575
107	0x3e8a6379	0.27029017
108	0x3e021cd8	0.12706316
109	0x3e17efe6	0.14837608
110	0x3e07d128	0.1326338
111	0x3e8fa1c7	0.28053114
112	0x3edf61e9	0.43629387
113	0x3d282dab	0.041059177
114	0x3e617f19	0.2202114
115	0x3da83e52	0.08215012
116	0xbe1efdbc	-0.1552648
117	0x3e6a3251	0.22870757
118	0xbee92eb6	-0.4554345
119	0xbe4b3ddb	-0.19847815
120	0x3f35cf23	0.7101919
121	0x3e3a3de7	0.18187676
122	0x3dafe3a6	0.08588342
123	0x3ef3e758	0.4763744
124	0x3e67262d	0.22573157
125	0xbed6dd83	-0.41965875
126	0x3d81a7e9	0.063308544
127	0x3e1226d4	0.14272624
128	0xbe80d21b	-0.25160298
129	0xbd5b6aee	-0.053568773
130	0x3e0846ee	0.13308308
131	0x3ee7b2c0	0.45253563
132	0x3d935ca9	0.07195408
133	0x3e86d553	0.26334628
134	0xbe95466e	-0.29155296
135	0xbd839b11	-0.06426061
136	0xbf110bfa	-0.566589
137	0x3e38bf9f	0.18041848
138	0x3f037c58	0.5136161
139	0x3e2b81d7	0.16748749
140	0x3dc349bc	0.09535548
141	0xbec88f34	-0.39171755
142	0xbda5b90f	-0.08091938
143	0x3baadea6	0.00521453
144	0x3db7b9d9	0.089709945
145	0x3e9fddde	0.3122396
146	0xbf5ab6c5	-0.85435134
147	0xbe29fd95	-0.1660064
148	0x3d077355	0.033068974
149	0x3e1a9343	0.15095238
150	0xbd9b9eaf	-0.07598626
151	0x3e442de0	0.19158125
152	0x3d694601	0.056951527
153	0x3e4c6ce2	0.1996341
154	0xbcb7d8d7	-0.022442264
155	0xbe8894f0	-0.2667613
156	0xbe3a0950	-0.18167615
157	0x3dd0bc64	0.10192183
158	0x3d1eab46	0.038737558
159	0xbe95c5b4	-0.29252398
160	0x3e29ef94	0.16595298
161	0xbeb7ebb7	-0.35922024
162	0xbeb0902a	-0.34484988
163	0xbdadb485	-0.08481697
164	0xbf61a2d0	-0.8813906
165	0x3ea57f98	0.3232391
166	0xbf0a7c9d	-0.54096395
167	0xbd078afc	-0.03309153
168	0x3e103945	0.14084347
169	0xbc32d6e7	-0.0109154945
170	0xbd8983d2	-0.06714596
171	0xbed741da	-0.42042428
172	0xbecb627d	-0.39723578
173	0xbd38f650	-0.045156777
174	0xbf13f63b	-0.5779759
175	0xbe676292	-0.22596195
176	0x3ddfc635	0.10926477
177	0xbf7b9f53	-0.98289984
178	0x3e560044	0.20898539
179	0xbe3c1005	-0.18365486
180	0x3e1f9d4d	0.15587349
181	0xbe408ef9	-0.1880454
182	0x3ee1261e	0.43974394
183	0xbd6bd9f6	-0.05758091
184	0x3e736b25	0.23771341
185	0x3f05d74e	0.52281654
186	0x3efe0b64	0.49618065
187	0xbe86805a	-0.262698
188	0xbf0ff538	-0.5623355
189	0x3e9c705a	0.30554467
190	0x3e60b5d1	0.21944357
191	0xbc96c89b	-0.018406203
192	0x3dfff7a5	0.12498406
193	0x3e94f826	0.29095572
194	0xbd45b44f	-0.04826766
195	0x3f2ad888	0.6673665
196	0xbd7a73de	-0.061145656
197	0xbea9c0b4	-0.33154833
198	0xbe847d85	-0.25877014
199	0xbe67fe06	-0.22655496
200	0xbe653fa1	-0.22387554
201	0x3ed78db0	0.42100286
202	0xbc9e2fdb	-0.019309929
203	0xbece7c05	-0.40328994
204	0x3eaf413a	0.3422945
205	0xbe3950f4	-0.18097287
206	0xbdd7995c	-0.10527298
207	0xbd12106e	-0.0356602
208	0x3d35942f	0.044330772
209	0xbe6b96ef	-0.23006795
210	0xbdafbab3	-0.08580532
211	0x3e784692	0.2424567
212	0xbebf2b73	-0.37337837
213	0xbd972783	-0.07380583
214	0xbef27486	-0.47354525
215	0xbf24f285	-0.64432555
216	0x3e1f7960	0.15573645
217	0xbf15a224	-0.5845053
218	0x3ef4e7e2	0.47833163
219	0xbe0142c6	-0.12623128
220	0xbe6f4de6	-0.2336956
221	0x3cda7f8e	0.026672151
222	0x3eb6c55a	0.35697442
223	0x3dcf6bfc	0.10128018
224	0x3e8e4f9c	0.27795112
225	0xbed2f152	-0.41199738
226	0xbee07b64	-0.4384414
227	0xbe4f981f	-0.20272873
228	0x3e8442c5	0.2583219
229	0x3ef65094	0.4810835
230	0x3d6132e7	0.054980185
231	0x3e729297	0.23688732
232	0x3ecf9b4a	0.40548164
233	0x3e483b97	0.19553982
234	0xbd3708e8	-0.044686228
235	0x3dd8ad3e	0.10579918
236	0xbe46fcad	-0.19432326
237	0x3e4b69a3	0.19864516
238	0x3e9c8b81	0.30575183
239	0xbdcecc7b	-0.10097595
240	0xbd31bec4	-0.04339482
241	0x3ce9e581	0.028551819
242	0x3f0fdc7c	0.5619581
243	0xbe0c9867	-0.13730012
244	0x3d9315e4	0.0718191
245	0xbebc1aa8	-0.36739087
246	0xbe038164	-0.12842327
247	0x3e246098	0.16052473
248	0x3ee0334a	0.4378913
249	0xbe74b764	-0.23898083
250	0x3db0d412	0.08634199
251	0x3da38604	0.07984546
252	0xbeb22bc2	-0.3479901
253	0xbdf504d2	-0.1196381
254	0xbd7c1f0c	-0.061553046
255	0xbe9764e6	-0.29569167

network_body._body_endoder.seq_layers.2.bias f4 [256]
0	0xbe07ae4b	-0.13250081
1	0xbde867a1	-0.11347891
2	0xbc8fefd5	-0.017570416
3	0x3d55c6c2	0.052191503
4	0xbb869810	-0.0041074827
5	0xbd1af97e	-0.03783559
6	0x3c60e685	0.013726835
7	0xbba67f82	-0.005081118
8	0x3cc61dbd	0.024184102
9	0xbdb81d3e	-0.089899525
10	0xbb84e90c	-0.0040561017
11	0xbd8f9c2c	-0.07012209
12	0xbd9e4e0e	-0.077297315
13	0xbd9b825a	-0.07593222
14	0xbb803b09	-0.0039132875
15	0xbca0d6da	-0.0196337
16	0xbe47d985	-0.19516571
17	0xbd6c64d3	-0.05771334
18	0xbcfe63e7	-0.031053497
19	0xbe15e3c5	-0.14637668
20	0xbe12c19d	-0.1433167
21	0xbe0969ec	-0.13419312
22	0xbb46f186	-0.0030356362
23	0xbc2f06b7	-0.010682753
24	0xbd84ae2e	-0.06478535
25	0xbe19ae80	-0.15007973
26	0xbdea1612	-0.11429991
27	0xbd4fa7ef	-0.050697263
28	0xbe161163	-0.1465507
29	0x3a037eae	0.000501613
30	0xbd747068	-0.05967751
31	0xbdcdc56d	-0.100474216
32	0x3d0669d3	0.032815766
33	0xbe44a42c	-0.19203252
34	0x3da486c8	0.0803352
35	0xbde30d1b	-0.11086484
36	0x393bceef	0.00017910798
37	0x3c1ba85f	0.009500592
38	0xbdb583b1	-0.08863009
39	0xbdbbb490	-0.09165299
40	0xbdca8e88	-0.09890467
41	0x3b88b84d	0.004172361
42	0xbdcf21e0	-0.10113883
43	0xbdc2bf8a	-0.095091894
44	0xbd49cff4	-0.049270585
45	0xbe00d933	-0.12582855
46	0xbc49b52a	-0.012311259
47	0xbdb0fae0	-0.086416006
48	0xbcc2b207	-0.02376653
49	0xbc875a67	-0.0165226
50	0xbde26688	-0.110547125
51	0xbd2d3c40	-0.042293787
52	0xbe23c790	-0.15994096
53	0xbcbaff77	-0.022826893
54	0xbd025de9	-0.03182784
55	0x3c2135b9	0.009839469
56	0xbdb2b38b	-0.08725651
57	0x3d806fbe	0.06271313
58	0x3d02c75e	0.031928413
59	0xbcb90b50	-0.022588402
60	0xbd8c0097	-0.0683605
61	0xbb28054d	-0.0025637925
62	0x3d093858	0.033501
63	0xbb98da5e	-0.0046647033
64	0xbdf999ee	-0.12187563
65	0xbb819a6e	-0.003955177
66	0xbd817afe	-0.06322287
67	0xbd026d3d	-0.03184246
68	0xbd34b143	-0.044114362
69	0xbdd4c524	-0.10389164
70	0xbc97761d	-0.018488938
71	0xbd5a37b7	-0.05327579
72	0xbd79dcf3	-0.06100173
73	0x3d404c24	0.046947613
74	0xbd9161fc	-0.07098767
75	0xbc90ad7c	-0.017660849
76	0xbc93e6cd	-0.01805439
77	0xbc8d3969	-0.01723929
78	0xbcf07d44	-0.029356606
79	0xbe240078	-0.16015804
80	0xbe173465	-0.1476608
81	0xbd8ee890	-0.069779515
82	0xbddf318e	-0.10898124
83	0xbd9650f8	-0.07339662
84	0x3c5e9805	0.013586049
85	0xbdb28103	-0.08716013
86	0xbcf9585c	-0.03043764
87	0xbd890fac	-0.06692442
88	0x3c94f83a	0.01818477
89	0x3d651a48	0.055933267
90	0x3d7cb644	0.06169726
91	0xbd96157e	-0.07328318
92	0xbb3277fd	-0.0027232163
93	0xbe19b4f6	-0.15010437
94	0xbcb6e992	-0.022328172
95	0xbd571b22	-0.05251611
96	0xbdaca7da	-0.08430453
97	0xbd538e1e	-0.051649205
98	0xbcf56230	-0.029954046
99	0x3afd218b	0.0019312365
100	0xbddc20a3	-0.107484125
101	0xbd7c0468	-0.06152764
102	0xbbc7823e	-0.006088524
103	0xbc9cbbfa	-0.019132603
104	0x3d052b2b	0.03251187
105	0xb999df47	-0.0002934879
106	0xbe33b7f6	-0.17550644
107	0xbe1164f8	-0.14198673
108	0x3d84264f	0.06452619
109	0x3cda6659	0.026660131
110	0x3c9e9324	0.019357271
111	0x3d25d9b2	0.040490814
112	0xbd9b4511	-0.07581533
113	0xbe552e9a	-0.20818558
114	0x3bfe76b7	0.0077656168
115	0xbd461adf	-0.04836547
116	0xbda70280	-0.08154774
117	0xbdd4c58c	-0.103892416
118	0xbdc202e0	-0.094732046
119	0xbca51130	-0.020149797
120	0xbd61b30c	-0.055102393
121	0xbc3326c1	-0.010934533
122	0xbe20fed1	-0.15722205
123	0x3d314df7	0.043287244
124	0xbe41c6c3	-0.18923478
125	0x3d272d87	0.040814903
126	0xbdd94bbe	-0.1061015
127	0xbdbc1635	-0.09183923
128	0xbd405b6c	-0.046962187
129	0xbd9b8786	-0.075942084
130	0xbd21ad48	-0.039471895
131	0xbde1e4eb	-0.11029991
132	0xbdc42a95	-0.095784344
133	0xbd389138	-0.045060366
134	0xbdafd183	-0.08584883
135	0xbdefe2b2	-0.117131606
136	0xbb428632	-0.0029682037
137	0xbd56ff1e	-0.052489392
138	0xbe375b36	-0.17905888
139	0xbdfd4a6d	-0.12367711
140	0xbd78fe7a	-0.060789563
141	0xbc88779a	-0.016658593
142	0xbd9aaef0	-0.07552898
143	0xbc5927dd	-0.013254133
144	0xbd54eb14	-0.051982
145	0xbcc53f9b	-0.024078181
146	0xbd3b36c1	-0.045706514
147	0xbd87adb0	-0.06624925
148	0xbd590348	-0.052981645
149	0x3b61bec2	0.0034445976
150	0xbd3b9577	-0.045796838
151	0xbc9b035f	-0.018922506
152	0xbdf3f8dd	-0.11912701
153	0xbd202164	-0.039094344
154	0xbc09cc0a	-0.008410463
155	0xbcc44cc4	-0.023962386
156	0xbd9889bc	-0.07448146
157	0xbd3983f7	-0.045291867
158	0xbd4403c9	-0.047855172
159	0xbe2bf048	-0.16790879
160	0xbd8d56dc	-0.06901333
161	0xbc9f2c78	-0.019430384
162	0xbdd7846a	-0.10523303
163	0xbd608307	-0.054812457
164	0xbdc5ff73	-0.09667864
165	0xbdb1be11	-0.086788304
166	0x3c2d81e0	0.010590047
167	0xbd62e9e5	-0.05539884
168	0xbd8d17d7	-0.06889313
169	0xbd369e61	-0.044584636
170	0xbe111890	-0.14169526
171	0x3d3fce45	0.046827573
172	0xbcb5e804	-0.02220536
173	0x3ae3def0	0.0017385166
174	0xbca67eed	-0.020324195
175	0xbe0a4563	-0.13503031
176	0xbdcdd73d	-0.10050819
177	0xbd56d33e	-0.05244755
178	0xbc8468bf	-0.016163228
179	0xbd736d35	-0.05943032
180	0x3c362ec1	0.011119545
181	0xbdae9ac2	-0.085256115
182	0xbdea1eab	-0.11431631
183	0xbc8ce9df	-0.017201362
184	0xbe5a4b0c	-0.2131769
185	0xba8ba91d	-0.0010655258
186	0xbdc4755a	-0.095926955
187	0x3cbdb978	0.023159727
188	0xbdfa9490	-0.12235367
189	0xbdb5ac98	-0.0887081
190	0xbcbc8881	-0.023014309
191	0x3c9c6d5b	0.019095114
192	0xbe278266	-0.16358337
193	0xbd8611ce	-0.06546365
194	0xbdaca9ea	-0.08430846
195	0xbde7ac6b	-0.11312183
196	0xbd9679a3	-0.07347419
197	0xbd53ccec	-0.0517091
198	0xbd840600	-0.06446457
199	0xbd153cb1	-0.036434833
200	0xbcc78e6a	-0.0243599
201	0xbdf5ea8e	-0.120076284
202	0xbd96ebed	-0.07369218
203	0xbd7b73bc	-0.06138967
204	0xbc3e6e4f	-0.011622979
205	0xbdd90372	-0.1059636
206	0xbd86f153	-0.06588998
207	0xbd9527bb	-0.072829686
208	0xbdb022a9	-0.08600361
209	0xbe2a79a5	-0.16647966
210	0xbd0580b8	-0.03259346
211	0xbc8afb72	-0.016965602
212	0xbcf351f3	-0.029702162
213	0xbd593021	-0.053024415
214	0xba98cd70	-0.0011657905
215	0xbda4c2ba	-0.08044954
216	0xbdfcfd0c	-0.12352952
217	0xbc1e9906	-0.009680038
218	0xbde41721	-0.11137224
219	0x3cb06491	0.021532329
220	0xbd6f31da	-0.05839715
221	0xbdcf8bd0	-0.10134089
222	0xbe15321c	-0.14569896
223	0xbcd27b51	-0.025693567
224	0x3b9e4756	0.0048302813
225	0xbde4105d	-0.111359335
226	0xbd5dca2b	-0.05414788
227	0xbc87deb8	-0.016585693
228	0xbc50a590	-0.012734786
229	0xbd3d80ce	-0.046265416
230	0xbda24812	-0.079239026
231	0xbdbe8a3b	-0.09303709
232	0xbda7ac9e	-0.08187221
233	0xbde796f2	-0.113080874
234	0xbdc8e37f	-0.098090164
235	0xbda3e27a	-0.08002181
236	0xbd180d22	-0.0371219
237	0xbda3ed38	-0.0800423
238	0xbdb9d887	-0.090745024
239	0xbda99363	-0.08280065
240	0xbdc29f61	-0.09503055
241	0xbe58cc58	-0.21171701
242	0xbe4aeef8	-0.19817722
243	0xbd598ac5	-0.053110857
244	0xbe1cd94e	-0.1531727
245	0xbd1d76a8	-0.038443238
246	0xbd9da11c	-0.07696745
247	0xbda67bf1	-0.08129109
248	0x3d0688e1	0.03284538
249	0xbd19365f	-0.037405368
250	0xbe1aecd9	-0.15129413
251	0xbc87a6a6	-0.016558956
252	0x3c0588cd	0.008150292
253	0xbc914f66	-0.017738055
254	0xbd88ffc3	-0.06689408
255	0x3d4f0b96	0.05054816
