Assets/Model/battletest1.onnx (onnx, 86349 bytes, 9 tensors)

action_model._continuous_distribution.log_sigma f4 [1, 2]
00000000: 2267 413d 89c1 9d3d
0.047217496 0.077029295

action_model._continuous_distribution.mu.bias f4 [2]
00000000: 307c 3d3c 274a 623c
0.011565253 0.013811625

action_model._continuous_distribution.mu.weight f4 [2, 128]
00000000: 954b 06ba 95e1 723c fd7d 643c 9675 13bd
00000010: 18c8 4ebc c9a2 49bd 53ae 2bba a967 1abd
00000020: f3ca 2ebd e908 a4bc 8431 24bd 5b83 03bd
00000030: 0739 80bc d61c b43c 10f5 973c ebf6 58bd
00000040: 9299 29bd e9a5 c5bb a0b9 16bd 8942 5abd
00000050: d2c4 983c 1325 823c 1a48 21bd 9df7 58bd
00000060: f05b 523d 4bab 933c 9f2a adbc 3b5f 04bd
00000070: 2476 87bc 97e7 813c 7d3e cfbd c964 823b
00000080: e9c6 d2bc 67a3 343c db24 23bd b6e6 553c
00000090: 1c1f 58bd cb6c d03a c6b9 babc cb32 81bb
000000a0: cd40 c03c 7680 92bb 9b5c 5e3c e40f d43c
000000b0: 0d19 0f3d 108c 03bd 408d 09bd a9fc 6b3a
000000c0: d4d5 423c 0c4d b33c 5189 c63b 17f2 78bc
000000d0: ac6f 2ebd 606d 42bc 82e1 9abc a639 01bc
000000e0: 8a74 62bc 639f a03c 3c0b 8f3d 7cb3 11bd
000000f0: 9bbc 89bc d715 ed3c eb96 f1bb e9db efba
00000100: 316d 0dbd 08c7 163d 119d 5abc e370 953c
00000110: c551 a0bd a5f1 05bd 0d52 a33c 2f45 0ebc
00000120: 4c06 e43c a5cf d43c db31 723d 30a4 623d
00000130: ec58 dfbc bdfc f23c 1680 3dbc 6a79 ca3c
00000140: 9181 0b3d e30c 873c 98b6 f7bb 754f 1f3c
00000150: 05dd bd3c 7a94 233a 1cc3 173c 5a1f 52bc
00000160: 92e3 dc3c 555b 53bd 3394 1b3d 4eef f9bb
00000170: 7fa6 b0bc 3e45 003d b31a bebc 0719 fcb7
00000180: de56 08bc 3e5f 8bbc 2358 033d 10c6 47bc
00000190: 43c1 33bd c281 71bd 6d14 25bd 0c97 123d
000001a0: 8cac 0bbd 669b afbc 0eb4 94bd db09 803d
000001b0: db48 58bb b7a4 283d b95a 1ebd edcc 0d3d
000001c0: 6cc6 f4bb 814f d9bc 501e 693d af31 a4bb
000001d0: ff6d adbc ecb1 a3bb e5cc 053d 7ed4 853c
000001e0: 4ad9 7f3c b63b 3dbd 88c2 6d3d 3e07 1abc
000001f0: e04c 813d 8f78 cf3d eef9 803d 52ba 993d
00000200: 564b 603d 28e0 d0bc f816 21bd 5132 f2bb
00000210: b028 713d 4689 57bd b9af 18bd 42eb 98bd
00000220: 080d 16bd a108 a43c 67c4 ce3d 48c3 14bd
00000230: 34fe e03c cdd2 b23d 340d 06bd b906 1bbd
00000240: ad3e 5cbd 573e 8dbd 035a 0f3d 496f 8dbd
00000250: 1505 c33d 2b28 a9bc 566e bebc 9b44 8fbc
00000260: 10a3 783d 1f6d 42bd bb0b d0bc da0a 14bd
00000270: 332f 36bd 60f0 46bd 2c83 383d 3c63 86bd
00000280: 4a72 7f3d 589d acbc c3a7 923d d374 9d3b
00000290: f7a6 05bd cf1f 383d ffca 5bbd 475b 21bc
000002a0: 74d7 e43b 9818 75bd 34f9 77bd 5064 abbb
000002b0: 9ab3 813d 21fc 0d3d 3ffe 33bd 10e2 9ebc
000002c0: e872 02bd 4aab dfbc 75ce d33d c580 a13d
000002d0: 40f2 24bd 09a1 bfbd 27a9 29bc 5ba5 4bbc
000002e0: 5820 1a3d 633e b33d 476e 273d ca66 333d
000002f0: 5d8c 68bd cc62 edbc c432 76bb 7685 a73d
00000300: 3a16 e8bc d8c1 b3bc 0c6e ce3c 1737 2c3d
00000310: cd3c 83bb 5b57 b53b e3d8 b33d 2ac0 f93d
00000320: adae 3cbc c377 cd3c 290c 6339 5c19 2abc
00000330: be77 79bd a85c aeb9 4755 4a3d f907 5e3d
00000340: 8c75 123d d418 613d 4285 523d aef0 813d
00000350: e07c 9eba d8d2 5a3d 1ac6 743b f342 863c
00000360: 6df5 19bc 9af0 ae3c 431b 943d 3a76 1cbd
00000370: 437f 29bc a868 583d e7a6 b0bc 5c3a 2e3d
00000380: 5936 e5bc feb2 bebc 2cab 5a3d 839d 73bd
00000390: dc7e 293c a905 173d 0168 5c3d 4ca1 973d
000003a0: 3e0e 00bd 8ddb 37bd 78db 9dbb 5b45 0d3c
000003b0: d30a 5b3d 01da 983d 7636 87bd 63f4 9dbd
000003c0: 6cfd dabc d21c 16bd 3018 3d3d a306 12bd
000003d0: d98b 7b3c 4675 683d d8b8 d73a bf36 773d
000003e0: 50b5 223d 7fc2 8b3c 9c47 babb ddb1 11bc
000003f0: 9d45 9cbc d089 393d 00fa 893c 93f9 523c
-0.0005122957 0.014824291 0.013946054 -0.03600081 -0.012620948 -0.04922751 -0.00065491087 -0.037696514
-0.042674016 -0.02002378 -0.040086284 -0.032107692 -0.015652193 0.021986406 0.018549472 -0.052969854
-0.04140622 -0.006031741 -0.03679812 -0.05328611 0.018648539 0.015886819 -0.039375402 -0.052970517
0.05135721 0.018026015 -0.021138487 -0.03231738 -0.016535826 0.015857501 -0.101193406 0.0039792997
-0.025729613 0.011025286 -0.03983007 0.013055494 -0.052764043 0.0015901563 -0.022793662 -0.0039428226
0.0234684 -0.00447088 0.013571884 0.025886483 0.034936 -0.032115996 -0.033581972 0.0009002188
0.011891801 0.021887325 0.00605885 -0.0151944375 -0.042586967 -0.011866897 -0.018906359 -0.00788728
-0.01382173 0.019607252 0.06984565 -0.03557156 -0.016813567 0.028941078 -0.007372727 -0.0018299791
-0.03452796 0.036810905 -0.013343112 0.018242305 -0.07828096 -0.032701153 0.019936586 -0.008683487
0.027835034 0.025977919 0.059129577 0.055332363 -0.027264081 0.02966153 -0.011566183 0.024716098
0.03405911 0.016485637 -0.0075596087 0.009723534 0.02317668 0.0006240081 0.009262826 -0.012824858
0.026963983 -0.051600773 0.03798313 -0.0076274043 -0.021563767 0.031316034 -0.02320609 -3.0052395e-05
-0.008321492 -0.017013188 0.032066476 -0.012193218 -0.04388548 -0.058961637 -0.040302683 0.03578858
-0.0341001 -0.021436404 -0.07260905 0.0625188 -0.003300241 0.04117271 -0.03866074 0.03461926
-0.007469943 -0.026527168 0.056913674 -0.0050108056 -0.021170614 -0.004995575 0.032666106 0.016336676
0.015615771 -0.046199523 0.058046848 -0.009401141 0.06313491 0.101304166 0.0629767 0.07506241
0.054759346 -0.025497511 -0.039328545 -0.007391252 0.058876693 -0.05262115 -0.037276957 -0.07466747
-0.03663352 0.020023646 0.100960545 -0.036319047 0.027464963 0.08731613 -0.032727435 -0.037848208
-0.05377071 -0.06896656 0.03499795 -0.069059916 0.09522454 -0.020649036 -0.023245972 -0.017488768
0.060702384 -0.047467347 -0.025396219 -0.03614316 -0.044478606 -0.048569083 0.04504697 -0.06561896
0.062364854 -0.021071121 0.07160904 0.0048051863 -0.032629933 0.04495221 -0.05366039 -0.009848422
0.006983692 -0.059837908 -0.060540393 -0.005230464 0.063330844 0.034664277 -0.04394364 -0.019394904
-0.031847864 -0.027303357 0.10342113 0.07885889 -0.04027009 -0.09356887 -0.0103552705 -0.012429561
0.0376285 0.08752134 0.040876653 0.0437992 -0.056774486 -0.028977774 -0.003756688 0.081797525
-0.028330911 -0.021943018 0.025198959 0.042044725 -0.0040050508 0.005534095 0.08781602 0.121948555
-0.011516255 0.02508152 0.00021652937 -0.010382023 -0.06090521 -0.000332569 0.049397733 0.054206822
0.035756633 0.05495532 0.051396616 0.06344734 -0.0012091659 0.053423733 0.0037349523 0.016389346
-0.009396893 0.021354962 0.07231762 -0.038198687 -0.010345283 0.052834183 -0.02156396 0.042536125
-0.027980017 -0.02327871 0.0533859 -0.059476387 0.010345187 0.036870632 0.053810123 0.07403812
-0.031263582 -0.044887114 -0.0048174225 0.008622493 0.05347712 0.07463456 -0.066021845 -0.07712629
-0.02673217 -0.03664858 0.046165645 -0.03565086 0.0153531665 0.056752466 0.0016458286 0.060354944
0.039723694 0.017060516 -0.005684806 -0.008892504 -0.019076163 0.045297444 0.016842842 0.012876886

action_model._discrete_distribution.branches.0.bias f4 [2]
00000000: fdc9 4dbc 04ca 4d3c
-0.012560365 0.012560371

action_model._discrete_distribution.branches.0.weight f4 [2, 128]
00000000: 173b cb39 1711 883c 0602 8cbb 77c8 7b3c
00000010: de46 b9bb 0aaf 973c 5ddc e13c 2368 103d
00000020: 4b91 b73c 79ec 16bc 282b 90bb 5862 2cbc
00000030: 16e6 9fbc 7a83 a4bc d2df d43a 3037 65bc
00000040: 082d 8e3b 6823 863c e563 dabb f9dd c43c
00000050: f648 afbc 568b c7bc 0344 073d b6b8 8fba
00000060: 5bc8 5ebd 8cfe 3dbc 01cb ce3c 4967 d93c
00000070: 49c2 603b 790f 2e3d 25f4 483b 6baf 0bbc
00000080: 5303 98bc 91cf 21bc f602 26bc e705 553c
00000090: d5eb 263d 10de afbb 6117 923c 74c4 3f3c
000000a0: 0f90 d5bb 4a2b 173b 491b 553c 7bbf bc3b
000000b0: b6e2 e8bc 1a4a 69bc b537 403c a508 233c
000000c0: 2123 1a3d 20cb 2c3c 1656 b63b 49ab 66bc
000000d0: d151 a2ba af19 853c 7c16 52bb 19bc 9dbc
000000e0: c627 8fba e195 9dbc 0a1b 38bc 0981 59bc
000000f0: d27c a23c fdfc 133c 57b9 dfbb fc30 8bbb
00000100: 058a 193b 5b37 193b f000 41bc e8e2 e7bc
00000110: bc43 ef3b a695 2fbc e824 58bd 1cd8 80bc
00000120: cc42 243c ee8a 7dbc 78bd a43c b98c b83b
00000130: 761c d1bc 67a8 35bc b5ad 8cbc 5b7c dabb
00000140: 33da 213c 68b8 02bd f949 b8bc 9197 c1bc
00000150: 8e7a f0bc bb1d 073b f142 7d3c 609b fb3b
00000160: 4adf e2bb 1b5b 5a3c 72d5 b7bc ffc2 61bb
00000170: e99e 23bb 4461 19bc 74bd d7bc 1167 2e3b
00000180: 8371 1b3d 8079 e73c c309 58bc faed 38bc
00000190: 6ef8 823b fb2b 4d3c 39a7 423a b7a6 17bb
000001a0: 352d 1e3d ea75 fa3b 6158 06bc 3c21 f8bc
000001b0: 1bfa 9e3c eba5 95bc 3b98 8c3c a411 213d
000001c0: ea16 77bc 39d5 6bbb 32da ccbc da83 713c
000001d0: caf8 0abc 0f5b 12bd 39d8 fbba 5f59 5039
000001e0: 820d 2f3c 42b3 e73b 5ec4 1dbc fd99 213c
000001f0: 64ba 2f3c eab9 9dbc 9ee0 203b 1405 223b
00000200: cf55 a73b 62f8 8fbc 70d7 163c adc3 06bd
00000210: a2f3 a83c eb52 d0bc 160e 3abb 9cca 1ebd
00000220: a33b a5bc 8f73 a5ba 6358 7dbb 7adb 133b
00000230: 088e 863c 020f ea3c 231e 88bc 7eec cb3b
00000240: 86a5 523c 5dd0 f8bc af44 b83b d5ab fdbc
00000250: c342 e23c 79af 16ba 0d1c d0bc 9790 c83a
00000260: e361 173d 9ffe 1d3b 247f dfbc 5217 0ebd
00000270: 4069 743c 402c 87bc 5313 563b 85d5 f13c
00000280: 0448 963c 4ad1 5e3c 2c30 5d3b c764 b6bc
00000290: 28e6 02bd 78e7 913c 6114 b8bb 936d 1bbc
000002a0: 8127 6f3c 7ef4 d3bb 3d80 8fbc c955 c63b
000002b0: f0cd bc3c 397c a0ba 3c60 a3bb d02e 7fbc
000002c0: 4c63 0dbc b3cf 97bc a7cc 863b 616a c8bb
000002d0: 5887 8bbc 386e bdbb d9b1 2c3c 826a 2e3d
000002e0: d950 c6bb 596f e33c cb4b 9b3c d947 9d3c
000002f0: 3caa 48b9 99ba 8bbb 4b7c d0bb b16f 923c
00000300: 12c9 22bc e05b 0abb 0d2d 2a3c 2fd8 ae3c
00000310: def3 aeba 2dcc 6e3b d79c c03c 3117 d53c
00000320: e7c8 543b 6868 0f3b 3d46 1cba 046e d23a
00000330: 335f f93b e4c5 063c e6ad ce3c 4d79 cf3b
00000340: c0d0 1fba 115f 193d 3897 f63c e322 0a3d
00000350: adda c13c efcb 53bc d693 893b 135e 8bbc
00000360: d6f6 d13c 45ac bbba ce4b ee3c d52b c53c
00000370: 410d 9d3a a5a7 233c 3d7a 943c 2693 503b
00000380: b294 24bc 636f 1a3b d544 333c 69a9 903c
00000390: d6a4 afbc 5cdb 51bc a5bd afba 169a abba
000003a0: 66b3 e2bc 8a15 31bb 83c4 36bb d938 023c
000003b0: 2994 bb3b 0835 293d 47d3 0abc 115f d2bc
000003c0: 25c0 d33c 82fa ea3b 3980 c23c a7a7 79bc
000003d0: 17b4 34bb 6e2a 0a3d 1338 853b 546e c2bb
000003e0: 8921 47bc d2b5 623b 7d67 ab3b e0ad 533a
000003f0: 39f9 1dbc 3a1e 033c 0821 1abc 68bb 8c3c
0.00038763203 0.016609712 -0.004272702 0.015367619 -0.0056542 0.018516082 0.027570898 0.035255563
0.022408148 -0.009211653 -0.004399676 -0.010521494 -0.019518893 -0.020082224 0.001624102 -0.0139902085
0.0043388642 0.016374305 -0.0066647404 0.024031626 -0.021397095 -0.024358433 0.033023845 -0.0010965082
-0.054390293 -0.011596333 0.025243284 0.026538508 0.003429549 0.042495225 0.00306631 -0.00852571
-0.018556273 -0.009876148 -0.010132542 0.0130018955 0.04075225 -0.005367048 0.017833414 0.011704553
-0.0065174173 0.0023066574 0.013006994 0.005760131 -0.028428417 -0.014238859 0.011732032 0.0099507915
0.037631158 0.010546476 0.0055644615 -0.0140789235 -0.0012384002 0.016247598 -0.0032056859 -0.019254731
-0.0010921888 -0.019236507 -0.011236915 -0.013275393 0.01983491 0.009032485 -0.006827514 -0.0042477828
0.0023428213 0.0023378942 -0.011780009 -0.02830644 0.0073017757 -0.010716831 -0.05276957 -0.015728049
0.010025691 -0.015475018 0.020109877 0.00563201 -0.025526267 -0.0110875135 -0.017172674 -0.0066676564
0.009878683 -0.031914145 -0.02249621 -0.023631843 -0.029355314 0.0020617086 0.015457855 0.0076784343
-0.006923591 0.013327385 -0.022440646 -0.0034448502 -0.0024966544 -0.009361569 -0.026335455 0.0026611725
0.03795005 0.028256178 -0.013185921 -0.011287207 0.0039969003 0.012522693 0.0007425431 -0.0023140141
0.03861733 0.007643451 -0.008199782 -0.030289285 0.019406369 -0.018267592 0.017162433 0.039323464
-0.015081147 -0.0035985245 -0.025006387 0.0147409085 -0.0084821675 -0.03573137 -0.001921422 0.00019869719
0.010684373 0.0070709297 -0.009629337 0.009863374 0.010725591 -0.01925369 0.0024547945 0.0024722265
0.0051066647 -0.017574493 0.009206638 -0.032901455 0.020623986 -0.025430163 -0.0028389744 -0.038767442
-0.020170039 -0.001262294 -0.003865742 0.0022561238 0.016425148 0.02857161 -0.016615933 0.0062232604
0.012856847 -0.030372793 0.005623422 -0.030965725 0.027619725 -0.00057481934 -0.025404 0.001530188
0.036958586 0.0024108065 -0.027282305 -0.03469021 0.014917672 -0.016500592 0.0032665327 0.02952076
0.018344887 0.013599703 0.0033750637 -0.022264851 -0.031957775 0.017810568 -0.0056176637 -0.009486574
0.014596821 -0.0064683547 -0.017517203 0.006052707 0.023047417 -0.0012244052 -0.0049858373 -0.015575126
-0.008629631 -0.018531656 0.004113752 -0.006116197 -0.01703231 -0.0057809614 0.010540449 0.042582043
-0.0060521183 0.027763056 0.01895704 0.019199299 -0.00019136904 -0.0042641875 -0.006362473 0.017875524
-0.009935634 -0.002111189 0.0103867175 0.021343319 -0.0013347825 0.0036437616 0.023512287 0.026012035
0.003246838 0.00218823 -0.0005961394 0.0016054516 0.0076102256 0.008225892 0.025229406 0.006331599
-0.0006096475 0.037444178 0.030101404 0.033724677 0.023663843 -0.0129270395 0.0041985316 -0.017012632
0.025630396 -0.0014318308 0.02908888 0.024068752 0.0011982099 0.0099887 0.018124694 0.0031825989
-0.010045217 0.0023564927 0.010941704 0.017658906 -0.021440905 -0.012808647 -0.0013407959 -0.0013092186
-0.027673434 -0.0027020895 -0.0027888126 0.007948124 0.005724449 0.04131034 -0.008473224 -0.025680097
0.025848458 0.007170976 0.023742782 -0.015237725 -0.0027573162 0.03373187 0.0040655225 -0.0059335623
-0.0121539915 0.0034593237 0.0052308426 0.00080749206 -0.009641939 0.008002812 -0.009407289 0.017179206

network_body._body_endoder.seq_layers.0.bias f4 [128]
00000000: 3630 2e3b 28db cd3b 0534 683d e611 a3bc
00000010: 18bd a73d 0b0b cb3d e077 49bb 02e9 5cbc
00000020: 8aea 01bc dbfb f0bc d15a 56bc 8e42 b0bc
00000030: a957 a8bc 146e 673c 3c0c dd3c fb34 163c
00000040: 5e47 143d 1941 e5bc adfc 403c 9e1e a2bc
00000050: db29 8a3d cdcc 103c 8184 9bbb ab20 0a3d
00000060: 849f 19bd 8baf eebb 47bc 263d b625 ce3c
00000070: e123 acbc 657f 473d d13f 8bbc 9f58 033d
00000080: a884 713d cdd4 3abc 716d 5a3a eeb0 55bc
00000090: d382 0bbb 9914 ddbc a917 b7bc e7e1 1f3c
000000a0: 4760 f13c 178f 8e3d b23b 533d 5213 d5bb
000000b0: d879 efbc 461f be3c c9bf fa3b bde1 91bc
000000c0: b810 4bba 25b7 183c e5f4 c4bc 9162 eebb
000000d0: 18b3 81bb 2703 2dbc 3491 a8bc add3 3bbc
000000e0: 1086 8bbc d5b8 bc3c 640e e93c 7b4a a3bc
000000f0: 9f7b e23a 3c28 193d a328 443c c5c2 03bd
00000100: 3ba1 8e3d 622c 97bc 7a4a 2bbd 8334 db3c
00000110: ef2a 923c b77b 083c 88bf 8abc a4dd 903c
00000120: 9657 133d 2bc4 deba 1dd9 e93c f770 d73c
00000130: e91e 843c 2ea9 ce38 9e6a 31bc 1be2 b8bc
00000140: f0fb 85bc 6df8 1cbc 19ee 253d 30a9 b63c
00000150: d574 40ba 9912 e7bb 9250 943c 9a9d fe3c
00000160: 3691 1d3d 1446 a1bb fcd1 97bc ba2d b13d
00000170: df9c 87bc 443f 30bc 97a7 9bbc b431 d9bc
00000180: ecbf 0f3c c76c 11bd fccf d53c 6062 fcbb
00000190: 349f 17bd e3a7 a2bc 1c04 3f3d eefe 3b3d
000001a0: 3c32 0a3d b5aa 583c ea69 083d 0774 763c
000001b0: e755 7b3d 5118 b3bc 287b 22bb 3b90 96bb
000001c0: 9887 b4bc c348 b73d 285c 9fbc 1a61 183d
000001d0: ffad 243d c53a 993c 1904 9b3c 778c 27bc
000001e0: 948f 013d 801c a2bc f6cf dcbb 9b12 37bc
000001f0: ca9c 9d3d 4d0c 543d 695c 063d ff03 bd3b
0.002657903 0.006282229 0.056690235 -0.019905996 0.08190364 0.09914216 -0.0030741617 -0.013483288
-0.007929454 -0.029416969 -0.013083176 -0.02151611 -0.020549612 0.014125366 0.026983373 0.009167905
0.036200874 -0.027985143 0.011778993 -0.01978999 0.067462645 0.008837891 -0.0047460203 0.03372256
-0.03750564 -0.00728411 0.0407069 0.025164466 -0.021013202 0.048705477 -0.016998203 0.032066938
0.0589644 -0.011403275 0.0008332348 -0.013042672 -0.0021287694 -0.02698736 -0.02235015 0.009758449
0.029464854 0.06960886 0.0515706 -0.0065025473 -0.029232904 0.023208272 0.007652257 -0.017807836
-0.0007746327 0.009321009 -0.024042556 -0.0072749336 -0.003958117 -0.010559834 -0.02057705 -0.011464042
-0.0170317 0.023037354 0.028449245 -0.019932976 0.0017279274 0.037391886 0.011972579 -0.03216817
0.06964346 -0.01845378 -0.041819073 0.026758438 0.017842738 0.008330277 -0.016937032 0.017683811
0.0359722 -0.0016995718 0.02854591 0.026298983 0.01612802 9.8543576e-05 -0.010828642 -0.022568753
-0.016355485 -0.009580714 0.04051027 0.022297472 -0.0007341628 -0.0070517776 0.018104825 0.03108101
0.038468562 -0.004921684 -0.018532746 0.086513 -0.016554294 -0.010757271 -0.019000812 -0.026512958
0.008773785 -0.03550413 0.026100151 -0.007702157 -0.037017062 -0.019855445 0.04663478 0.045897417
0.033739313 0.0132242935 0.033304133 0.0150423115 0.06136122 -0.02186218 -0.0024792645 -0.0045948303
-0.022037312 0.08949425 -0.019453123 0.03720198 0.040204998 0.018704781 0.018922852 -0.0102263605
0.031631067 -0.01978898 -0.006738658 -0.0111738695 0.07695921 0.051769543 0.032802973 0.0057682986

network_body._body_endoder.seq_layers.0.weight f4 [128, 29]
00000000: 0471 a23d 6928 7a3d fb6f 22be d6dd 723e
00000010: 59cf f63d 4aa9 2abe 02ce ecbe 4391 ee3d
00000020: 766e 56bd 8d41 583e c86c 88bc ed95 16be
00000030: 5b98 8bbd 6462 a6be 7296 70bd 29c7 83be
00000040: d9f8 5d3e 0860 cc3d 929b 84bd a692 16be
00000050: b0d6 cb3d 439b 323e 87aa 383d e849 9e3e
00000060: 9aed 903d f53a 61be 0c87 843e 84fe cabe
00000070: 0e92 61be 5408 103e 6800 003d fab9 8b3c
00000080: 31b7 c9bd 4e00 1e3e 77bf d13d dd01 9abd
00000090: c335 2ebd 6ed4 953e 9379 c2bd 588e 46bc
000000a0: 8db6 d4be e1cc ee3d 5f8d 7bbe c1f1 d3bd
000000b0: 9777 e73d 34f1 a6be 60e7 d1be a525 85be
000000c0: 5936 c23c d584 00be f149 68be 990a 3e3e
000000d0: cdd4 7dbc 3d15 92bd 336a 8c3d 3550 42be
000000e0: f5a6 8c3d 65a7 fe3c 37c6 3b3d bb31 c03c
000000f0: a636 f6bd 36a3 733e 482e a13e 7543 03bf
00000100: 46a7 1f3e 2805 35be 4fca d9bd 5a16 37be
00000110: 4e6f ba3e 80a7 2f3e 39ff bfbe f3ec 3abe
00000120: 9e59 3d3e ca5c 9c3e a9d0 97be 51fa 573e
00000130: c943 1fbe c145 903d 28c8 c73e 698d 423d
00000140: f81b 9e3d 33d3 72bd 0692 1a3d 451e 30be
00000150: 2b4f b2be f926 87be 4c8c 3c3d de95 c5bd
00000160: 25d0 533e 8b10 74be 7b0b 053e 895f ce3e
00000170: cd11 053e 1aad 0abe 75cb 593e 6c5a 75be
00000180: 9088 13be 03e2 223e 2971 853d 78d2 743e
00000190: 8d8c 69be dfdc a63d 5bbf 443e f5f4 66be
000001a0: 1406 69bd aaea 2439 4dec 6d3e d4fb 1bbe
000001b0: 63df f4bd 444f 4f3d dd81 c1bd d3cf 013e
000001c0: 5fdb 413e 3510 093e cb4b 223e 46fa 883d
000001d0: 1931 b7be a2f8 cabe 15b2 22bf b9ab b53c
000001e0: 6290 b2be 810a 77bc 3ab2 ac3d ebea 02be
000001f0: bffc 99be a994 553d 5bfe 553d 0f8f 923d
00000200: 2e56 413e 9ac7 08be a29a 1ebe f2c3 f7bd
00000210: a196 70bd a845 a8be e88e 9e3d 8750 433e
00000220: b276 8b3e 4c94 33be 2357 ebbc 25b9 ec3c
00000230: bbe6 363e b2f9 463e a678 7c3e 3001 e1bd
00000240: d171 31be 4290 073e 40cc 283d ced9 963d
00000250: 1dcb 39bd 0fe4 62be 60a8 403d fa2e 85bc
00000260: 0be5 993e 405a c6bb 1f9a 0f3d 3725 cbbd
00000270: f03f bebe 80f8 91be e725 b3be 8eb0 2bbe
00000280: 2fad 9fbe aae6 093e 371c d13e 60f4 83be
00000290: 8d97 36bd 9458 5bbd f7c8 9bbe 5433 153d
000002a0: fe57 68bd e83e a63d 0632 6bbe 5232 afbd
000002b0: 2f7a 733c edf7 20be 2d89 e63e f9fe cebe
000002c0: a020 67be 51e6 d53d 58ba 2a3e 41a0 a83c
000002d0: 0cc4 703e f5e9 c53d e7a1 83bc 6368 803e
000002e0: 969f 113e b226 603e 799a ddbc fbdc 2d3e
000002f0: c2b0 66be ed5b bf3d 8848 adbe 0a3e 813d
00000300: 85c9 4abc a4c6 a23b 598c ffbe 38a7 1e3e
00000310: f11b 9e3d 9d8e 5f3d 1da5 413d a99e 5bbe
00000320: 2a13 c83e 47ad d93e dd2b adbb efec 79bd
00000330: de8a 92bc 61bb b63d 6431 fe3c b4d6 afbc
00000340: 28d3 f73d 7195 ec3d 22d6 78bc e938 1c3d
00000350: 4921 a53e 04f3 233d 638a ca3d 7090 fd3d
00000360: 92af f93e fffa 17be 1f20 813d 71f3 aebe
00000370: 6739 86be 8856 813d f48d 91be 0d42 83bc
00000380: 82e1 503e 81df 683e 7412 df3d b1d8 3abe
00000390: 8faf 62bd 6392 2e3e d570 983d 54c6 b43d
000003a0: 4caa bd3d dbed 0e3e b6c8 b73c ef23 93bd
000003b0: aec4 e0bd a968 9f3d 57a0 603e 6418 0dbd
000003c0: f10e 0dbe beed f4bd 411d 2c3e 6848 bcbe
000003d0: f2e2 163e 1c38 fa3d 887e 043e 5a27 7a3d
000003e0: 8532 25be 5d23 92bd b345 493e 5000 f7bd
000003f0: cb44 bebe a3ad d239 bcf7 d6bd 0b8a 3cbd
0.07931712 0.061073694 -0.1586303 0.23717436 0.12051267 -0.16666141 -0.4625092 0.116488
-0.052351438 0.21118756 -0.016653433 -0.1470563 -0.06816169 -0.3249694 -0.058737226 -0.25737885
0.21676959 0.09979254 -0.06474985 -0.1470438 0.09953058 0.1744204 0.045084503 0.3091576
0.07076569 -0.21995147 0.25884283 -0.39647305 -0.22028372 0.14065677 0.031250387 0.017056454
-0.09849394 0.15429804 0.10241597 -0.07519887 -0.04253174 0.29263633 -0.09495845 -0.012118898
-0.41545525 0.11660171 -0.24565648 -0.10348845 0.11302107 -0.32605898 -0.40996838 -0.26005283
0.023707556 -0.12550671 -0.22684456 0.1855873 -0.01549263 -0.07132957 0.068561934 -0.18975909
0.06867782 0.03108568 0.04584333 0.023461213 -0.12022142 0.23792729 0.31480622 -0.51274806
0.15591154 -0.17677748 -0.106342904 -0.1787962 0.36413044 0.1715374 -0.37499407 -0.18254451
0.18491217 0.30539542 -0.29651383 0.21091582 -0.15553202 0.070445545 0.39019895 0.04749814
0.07720178 -0.059283447 0.037736915 -0.17199047 -0.34826025 -0.2639692 0.046032235 -0.096477255
0.2068487 -0.23834436 0.1299266 0.40307263 0.12995072 -0.13542596 0.21269019 -0.23960274
-0.14407563 0.15906529 0.06515724 0.23908412 -0.22807522 0.081475966 0.19213621 -0.22554381
-0.056890562 0.00015727678 0.23234673 -0.15232784 -0.1195667 0.050612703 -0.094485976 0.12676935
0.1893134 0.13385089 0.15849225 0.06688361 -0.35779646 -0.39642817 -0.6355298 0.02217661
-0.3487578 -0.015078188 0.084324315 -0.12784927 -0.30075642 0.052143726 0.052244525 0.071561925
0.18880531 -0.13357392 -0.15488675 -0.120979205 -0.0587374 -0.32865644 0.07742101 0.19073687
0.27238995 -0.1753704 -0.028728073 0.028896878 0.17861454 0.19431189 0.24655399 -0.109865546
-0.17328574 0.13238624 0.041210413 0.07365762 -0.04535972 -0.2215731 0.047035575 -0.016257752
0.30057558 -0.006053239 0.03505909 -0.099192075 -0.37158155 -0.28509903 -0.34989855 -0.16766569
-0.31186816 0.13466898 0.4084184 -0.2577238 -0.044578124 -0.05355127 -0.30426762 0.036425903
-0.05672454 0.08117467 -0.22968301 -0.0855452 0.014860674 -0.15719576 0.45026532 -0.40428904
-0.22571039 0.1044432 0.16672647 0.020584228 0.23512286 0.096637644 -0.016068412 0.2507964
0.14221033 0.21889761 -0.027051197 0.16978829 -0.22528365 0.09343705 -0.338444 0.06310661
-0.012377148 0.0049675275 -0.49911764 0.15493476 0.07720173 0.054579366 0.047276605 -0.21447243
0.3907712 0.42515013 -0.00528477 -0.061016973 -0.017888483 0.089224584 0.03102941 -0.021464683
0.12100822 0.11551941 -0.015187772 0.03814021 0.32251957 0.04002668 0.098896764 0.12381065
0.48766762 -0.14841841 0.06304955 -0.34170106 -0.2621567 0.06315333 -0.28428614 -0.016022706
0.20398524 0.2274151 0.108921915 -0.18246724 -0.055343207 0.1704803 0.07443396 0.088268906
0.09260997 0.13957922 0.022434574 -0.07184588 -0.10975014 0.07783634 0.21936165 -0.03444709
-0.13775231 -0.11959408 0.16808034 -0.36773992 0.1473501 0.12217733 0.12938893 0.061072685
-0.16132553 -0.07135651 0.19655494 -0.120606065 -0.3716186 0.0004018369 -0.1049647 -0.046030086

network_body._body_endoder.seq_layers.2.bias f4 [128]
00000000: 8b91 3e3c d7fd 8bbc 41cd f7ba 6895 c8bb
00000010: e61f 1a3d 5699 0bbc 2ad0 b2bc 7015 75bb
00000020: 4f28 a2bc 998d 27bb 4f82 0c3d 6481 22bc
00000030: e5ea 263d eb37 2f3d 20af 75bc 8217 f7bb
00000040: 2d81 45bc ac03 07bc a346 3d3c 8695 0cbc
00000050: 3ca8 3d3d 87a3 12bc 45f9 35bc 7710 41bc
00000060: d7f9 3a3d 9bbf 00bc ab60 93bc 36c3 bdbb
00000070: f928 98bc 4dd1 7cbc 8780 0e3c 0f2f 383b
00000080: ef63 043d 624d 95bc c42b a23c 8f2d e83b
00000090: 3f28 32bc d1eb 1a3d 9aa7 9fbc 9caa adbb
000000a0: 238a 353d 24dc 20bc 04f3 04bc dc52 e93b
000000b0: 288b 2d3d 0e41 bf3b c563 98bc c9bf adbc
000000c0: 6b94 05bc 20e7 47bc 5a15 4a3d 36a4 153d
000000d0: 5e08 66bb 5b5d 0cbb 4ac0 87bc d5c3 953b
000000e0: 13aa 903c 6dbc 1b3d 506a 0c3d 932f ec3c
000000f0: 2d44 28bc f5b8 39bc edaa 74bb 2262 923c
00000100: 2c86 73bc a366 833b 774b 8d3c 30ab a83c
00000110: c5fc 0dbc 6ba2 2cbc 0828 1c3d 186e 3e3d
00000120: 2f64 d5bb 6c7c d63c 74d4 4a3c 6aab f03b
00000130: 16b3 07bc 8eab 093c 788c 503c e69b 0a3d
00000140: e2af d73c 54e3 dd3c fa86 993c 344b 1e3d
00000150: ea83 363b 09ed d33c 41be 14bc f9b9 6b3c
00000160: 6c20 853b 128b 233c dd4c 073d 8755 1abc
00000170: ac4e 2bbc b551 243d 6f05 4cbc c2eb a53c
00000180: 840b 11bc 014a c6bc cc83 d03c 289d 80bb
00000190: 0d23 7bba 0fce 5c3c 9570 fa3c 794d 143d
000001a0: a498 8bbc 1c9f a2bc a920 99bb ad3a 9b3c
000001b0: 5ab0 103d b77e 1a3d 2ea1 14bc 63a4 dbbb
000001c0: ec2c 3ebc 75b7 30bc b286 cc3c e709 95bc
000001d0: 8421 deba b365 c73c 4b6f 323d bee4 243d
000001e0: 3ebe 8d3c a7a4 2c3c 8b70 f73b e097 5c3a
000001f0: cba1 463b 4341 f23c 978c 9e3c 4cab d43c
0.01163138 -0.017088814 -0.0018905775 -0.0061213262 0.037628077 -0.008520445 -0.021827776 -0.003739681
-0.019794611 -0.0025566577 0.03430396 -0.009918544 0.040751357 0.042777937 -0.014995366 -0.007540644
-0.012054724 -0.008240622 0.011552486 -0.008580571 0.04630302 -0.008950121 -0.011106794 -0.011783711
0.045648422 -0.007858182 -0.01799043 -0.005791093 -0.018574225 -0.015430761 0.0086976355 0.002810422
0.032321867 -0.018225376 0.01979626 0.007085509 -0.010873853 0.03782255 -0.019489098 -0.0052998792
0.04432119 -0.009818111 -0.00811458 0.0071204733 0.042369038 0.0058366125 -0.018602261 -0.021209614
-0.008153061 -0.012201101 0.04933677 0.036533557 -0.0035100202 -0.002141795 -0.016571183 0.004570464
0.017659223 0.038021494 0.034281075 0.028831279 -0.010270161 -0.011335601 -0.0037333325 0.017869059
-0.014863532 0.004010038 0.017247899 0.020589441 -0.008666222 -0.01053677 0.038124114 0.046491712
-0.006512187 0.026182376 0.012379754 0.007344653 -0.0082824435 0.008402718 0.012728803 0.033840083
0.026328985 0.027085938 0.01874112 0.038645938 0.0027849623 0.025869863 -0.009078563 0.014387601
0.004062703 0.009981887 0.033032287 -0.009419805 -0.010455769 0.040116984 -0.012452467 0.02025402
-0.008852843 -0.02420521 0.02545347 -0.0039249845 -0.0009580113 0.013476863 0.030571261 0.036206696
-0.017040558 -0.01985126 -0.004673083 0.018948877 0.035324432 0.0377185 -0.009071631 -0.006702946
-0.01160739 -0.010785927 0.024966571 -0.018193198 -0.0016947244 0.024340486 0.04356317 0.040257208
0.017302629 0.010537303 0.007551258 0.0008414965 0.0030308838 0.029572135 0.019354148 0.025960587

network_body._body_endoder.seq_layers.2.weight f4 [128, 128]
00000000: d50c c83d 94ec 1fbe 25fc a13d 4991 9d3c
00000010: 0839 c43d 708e da3c 2488 28bc 989d 903c
00000020: e530 29bd 11a8 553d 8b03 f83c 53e7 bfbd
00000030: 5ff6 abbc 8ec0 943d ec9f 483e a53d 803e
00000040: a738 333d 41a8 da3c bcad 713b 8812 833d
00000050: ebe6 a4bd f07a 87be 597c 02bc 3453 4dbd
00000060: ef05 333d 23ae 8f3d af84 5a3c e2ee c13d
00000070: 8822 77bd 4726 89bd 37a2 0b3d e52c 073e
00000080: 64a8 603d e981 513d 9de7 e4bb 65b8 e53d
00000090: 1460 3cbe 8c93 cdbd 7f2e 9f3c c471 f63b
000000a0: 62f3 c63d 2a8c cd3b 72ef 023e a7c9 20be
000000b0: b288 673d 04a5 56bd bdf0 88bd 77f0 0cbe
000000c0: a0c0 d23b d8e6 f1bd 6369 193d e6b4 623b
000000d0: ad6a 51be 8945 49be 7f65 c8bb 1e09 bb3d
000000e0: c3d0 73bc 7e1b 943d 7fa0 a1bd 0112 68bd
000000f0: fae4 31bd 9f09 82bd 741b 9b3d 3b9a 0cbe
00000100: bab9 703d f263 953d 0a77 f1bd c934 fd3c
00000110: de7e 523e 3212 c93d 4228 68bd 7ee0 e23d
00000120: b5ec c2bd 5540 583d e0c4 d4bd 1ac6 0d3e
00000130: e953 a8bd 2d28 abbc c470 26be 2c27 7bbd
00000140: fe3f 4b3c 1ad6 fbbd ead8 233c ef6f ab3d
00000150: 9d4b afbd 557c f2bc 5fb2 29bc 952b 7dbd
00000160: 6e15 04bb b361 c93c f912 723c 8b45 ecbd
00000170: 5046 07be 6329 0dbe b799 363d a0a8 183e
00000180: f4b9 81bd 969f 063d f587 bc3c 854b 60bd
00000190: 4ad4 95bc a6ea a0bd f038 6b3e 27fd ac3d
000001a0: f748 2abd 7913 02be b6b4 3d3e 382a 33be
000001b0: 5bcd 883c c3b7 09be 72aa fabd d349 ab3d
000001c0: 39fc 8a3d a9c3 d8bc a04a b23d 0c98 083e
000001d0: 49c0 9d3d 0c30 e83c 74e5 573e 432b 88bd
000001e0: d249 dd3d c21e f6bd bdda 11bd 3ec5 36be
000001f0: c29b 87bd 1bb8 e33d 35bc 13bd a0ab e53d
00000200: 70ef 8c3d c578 873c 0b1a ac3a fd31 5abd
00000210: 9782 ecbc 935e 493d d403 d53d 3e2d 68bb
00000220: 96c5 b4bd 138e e33c df4b 5fbd f86c 203e
00000230: 0e55 cb3d 5919 aa3d fb2a 7fbd 5639 933b
00000240: e6be a8bd eab7 c8bd ad3b 4fbe 36ed 893b
00000250: f195 bdbd f8d5 3b3d 9bb0 a83d 3f5f b3bc
00000260: eec6 80bd df5e e7bc 1797 a5bc c597 12bc
00000270: 4501 d4bd 74e5 f53d dce4 5f3d 1926 cfbc
00000280: 3632 bcbd f0c5 e53d 3b9a 763d 1a64 e6bd
00000290: 458a bebd 8762 e9bd 468b 07be 0b86 db3d
000002a0: c82b d8bd 6c64 b2bc 6005 1e3d 0ae3 a2bc
000002b0: 2d6a f4bd 7ef8 aa3c e3c6 7cbd 444d 05be
000002c0: 6f0b 033d 0f90 51be e42b 933d c0b1 eebd
000002d0: 0630 16be 0095 173e 53fe bc3d 8a49 8f3d
000002e0: f82b 5abd 0c3a d239 5f2b c93c a3d3 d7bc
000002f0: d895 103c 1bc9 883d b2cc 3dbb 487e 003e
00000300: d31d bcbc 4b73 e1bd 355c 773d b3ce 5e3c
00000310: c88d fc3c 326e 3bbb 8a56 9d3b e3ec 37be
00000320: d266 b3bd 6487 51bd 623b 3a3e 73b8 9bbc
00000330: f622 09be d498 243d 1d65 39be 1a7b a1bc
00000340: e40a 0a3e 969e d5bd 960d 27bb b4d7 44bb
00000350: 3871 193e 5b1f c1bc af16 eebc 6992 07bd
00000360: 072e f7bd 7675 903d 90ed 8d3c 086d e9bd
00000370: c96c 01bd 6043 ce3d 8b9a 70bd dafd a3bc
00000380: 3f83 e9bd 5255 a73d cc16 c43d fdc6 423d
00000390: 42cd b73d e41a 033d c007 bcbd 33d9 ac3d
000003a0: 20f4 4cbe 1400 ef3d 8bd5 1ebe d47c 93bd
000003b0: 1583 dabc 43b1 7cbb 0978 0cbd db14 e2bd
000003c0: 4a8f 02bd 45fb 82bd 25df fb3d ec24 b4bd
000003d0: da84 8cbd 5779 8f3d e3a5 10bd 6c34 da3d
000003e0: 5d0f 19be 8dc9 5a3d 83b9 0dbe f79d ab3d
000003f0: df4b 47bd ffb4 89bc cca3 323d e4b6 303d
0.097680725 -0.15617591 0.07909421 0.019234316 0.0958119 0.026679248 -0.010286365 0.017653272
-0.041306395 0.052162234 0.030275127 -0.093702935 -0.020991502 0.072632894 0.19592255 0.2504703
0.0437552 0.026691558 0.0036877235 0.06400019 -0.080518566 -0.2646098 -0.007964217 -0.050128177
0.04370683 0.07015636 0.013337298 0.094693914 -0.060335666 -0.06696754 0.034090247 0.1320072
0.05484809 0.051149283 -0.0069856183 0.11216811 -0.18396026 -0.10037908 0.01943135 0.007520886
0.0971439 0.0062728124 0.12786654 -0.15701924 0.056526847 -0.052403465 -0.06686542 -0.13763605
0.006431654 -0.11811608 0.03745402 0.0034592687 -0.2045085 -0.19655432 -0.006115615 0.09132598
-0.014881316 0.07231806 -0.0789194 -0.056657795 -0.04343126 -0.06349491 0.07573596 -0.13730709
0.058770873 0.07294454 -0.11790283 0.030908959 0.20556208 0.098179236 -0.056679018 0.11077975
-0.095178045 0.052795727 -0.103891134 0.13845101 -0.082191296 -0.02089318 -0.16253954 -0.061316654
0.012405394 -0.12296696 0.010000447 0.08370959 -0.08559344 -0.029600302 -0.010357468 -0.06180914
-0.0020154375 0.02458272 0.014775031 -0.11536702 -0.13210416 -0.13785319 0.044580188 0.14908075
-0.06334296 0.032867037 0.023014048 -0.05475952 -0.018289704 -0.07857256 0.22970939 0.084467225
-0.04157349 -0.1270274 0.18525967 -0.17496574 0.016699484 -0.13449006 -0.12239541 0.0836369
0.06786389 -0.026460486 0.0870564 0.13339251 0.07702691 0.028343223 0.21083623 -0.066488765
0.10805096 -0.12017585 -0.035608996 -0.1784868 -0.06621505 0.111191 -0.03606816 0.112143755
0.068816066 0.01653708 0.001313032 -0.05327033 -0.028870864 0.04916246 0.10401121 -0.0035427357
-0.08826749 0.027777707 -0.054515716 0.15666568 0.09928332 0.08305616 -0.06229685 0.004492919
-0.08239536 -0.09800704 -0.20237608 0.004209186 -0.09257115 0.045858353 0.0823681 -0.021896003
-0.06287943 -0.02824348 -0.020213647 -0.0089473175 -0.10351805 0.12006655 0.054661617 -0.025286721
-0.091892645 0.11219394 0.06020568 -0.112495616 -0.093037166 -0.11395746 -0.13236722 0.10718926
-0.105552256 -0.0217764 0.038579345 -0.019883651 -0.11934314 0.020870443 -0.06171311 -0.13017756
0.031993326 -0.2046511 0.07186106 -0.11654997 -0.14666757 0.14802933 0.09228196 0.06996448
-0.053264588 0.0004009757 0.024556814 -0.026346033 0.008824788 0.06678983 -0.002896112 0.12548172
-0.02296344 -0.110083185 0.06039067 0.013599086 0.030829325 -0.0028599617 0.004801576 -0.17961459
-0.08759846 -0.05115451 0.18186715 -0.01900885 -0.13392243 0.04018481 -0.18104978 -0.01971202
0.13480717 -0.104306385 -0.0025490276 -0.0030035796 0.14984596 -0.023574522 -0.02906355 -0.033098612
-0.12069326 0.07053654 0.017325193 -0.11397749 -0.031597886 0.100714445 -0.058741134 -0.020018507
-0.11401986 0.081705704 0.09574661 0.04755305 0.08974697 0.032008067 -0.09181166 0.08439865
-0.20015001 0.11669937 -0.15511148 -0.072015435 -0.026673833 -0.0038557805 -0.034294162 -0.11039134
-0.031874932 -0.06395582 0.12298421 -0.08796105 -0.06861277 0.070055656 -0.035314452 0.1065453
-0.14947267 0.05341487 -0.13840298 0.08379739 -0.04865634 -0.016809938 0.04361324 0.043143168
