Assets/Model/ChaseMode-36397.onnx (onnx, 295132 bytes, 15 tensors)

action_model._discrete_distribution.branches.0.bias f4 [3]
00000000: 1ec5 84ba 8779 023b 9f59 2b3a
-0.0010129546 0.0019908862 0.0006536487

action_model._discrete_distribution.branches.0.weight f4 [3, 256]
00000000: 2122 90ba f6fe 8a3b 887d be3b 436c 9c3b
00000010: 707e 98ba ec9b bdba 604c e7ba 716c 7f3b
00000020: 97b5 cdba bfdb 1b3c e7fb c5bb 3ed3 8a3b
00000030: 5013 17bc 95d2 deba 498d 78bc 8120 653a
00000040: 71e4 f63b d941 4b3c 0e1f fcbb 1619 1b3c
00000050: 2d65 073c c9c6 12bb 60ec c83b d67c 09bb
00000060: dff0 9e3b 7a36 a43b b0ff ab3b 81ab 533b
00000070: 1d9a ff39 e282 dfba 6b22 4bbc eea2 ddbb
00000080: 00a4 97bb 2f7d 11bb 7146 243c d0c7 02bb
00000090: 762f fbbb 6c78 2c3a 3626 3fba f94f 3abb
000000a0: 33fb 183c 8000 883a f353 8dba 057d 4db8
000000b0: 6c6a 783a 97bc 703b 230a 3ebb 2c2c 54bc
000000c0: 4066 783c bb63 38bb 070b d63b d33d 0a3c
000000d0: ba92 193c afcd dfba 174e ce3b 83a1 d63b
000000e0: 4146 49bb 248e 603b b38d eebb 7da4 34b8
000000f0: 6fc9 9a3b b367 a2bb 2195 aa39 4edd 623c
00000100: 526a 193b 314e 033c f4fb af3b fc5a c8bb
00000110: e0df 433c 3247 403c 172a 243b 4bbd 72bb
00000120: 4364 b2bb 9dcd 1d3b 9669 f93b 1184 d33b
00000130: 26d6 333c 5f03 873a 9252 bf3b 23aa 33bc
00000140: 2102 c63b fcdb 213b c223 7c3c b8a3 84bb
00000150: 4e32 223b 4b8b 01ba 7fcf e1ba 9193 073a
00000160: 1645 b6ba 766f 07bb 48f5 9abb 978e 47bc
00000170: c901 d83b fd91 82bb 6843 5fba b66b 1139
00000180: af8b 93ba 4a38 993c 81c4 1a3c f636 99bb
00000190: d691 11bc dc59 cebb e5af 0639 7fd1 c0b9
000001a0: 74a4 1ebb 7f2a 893a dc4f 093c 0bec e0ba
000001b0: 64c0 9d3b a829 c13b 77a0 583c e71b 283c
000001c0: 1ea5 ea3b 25d3 be3b a110 99b9 8d0f ceb8
000001d0: 671e 853b 9c64 033c 970e 7fbb 7228 0f3b
000001e0: 36ce 413b 103e 37bc d7bd 6f3b 7558 893b
000001f0: 4207 3d3b 62cb bdba 6568 683c a764 053b
00000200: 6bd4 56ba 0a2f 82bb b5ac 993a c283 ab3b
00000210: cea6 e83b 8c93 b839 81ef c03a 101f c3bb
00000220: e052 d53b a21a 743b d858 d83b a475 8ebb
00000230: d110 603b 4f0e 2bb8 f589 2a3c 1621 b73a
00000240: 787c 4d3b 2053 aebc 8b2b 9cbb 26b0 b53b
00000250: 00e4 883b db69 eabb 29ed 30bb ed78 813c
00000260: 85e4 3ebb f45e 183c e89b 753b 7d2e e0b9
00000270: f55c b8ba e18d f53a 0adb bd3a d1ab 093c
00000280: ea99 fd3a 9d97 b1bb 7d8c 4d3c 459a 1539
00000290: 829b d23a d69b a63b a0d7 49ba bae7 9fba
000002a0: 7409 3f3c d3b9 383b f435 9dbb 091f 623b
000002b0: 0493 1b3b 76ae 6bbb 7190 06bc a3d5 d2bb
000002c0: 7a0a 163c a1ab b53b 1c96 b83b 5485 cabb
000002d0: 3136 dabb 4b8a 1abc d9da 033c 365d d6ba
000002e0: 69c5 e73b e656 3c3c 98d9 e63b 21fb b23b
000002f0: b25f 41bb 2e37 003c fb6e fd3a 76ad 4e3b
00000300: 96b0 5d3b 4aea c0bb 768b 4a3c cacb 1a38
00000310: 86a6 543a cad6 4dbc 407c e6ba 7e44 623b
00000320: 7c2f ed3b 1472 c93b 911c fe3c cb52 0e3b
00000330: 254c debb 36e2 72bb 4e57 57bb 577d 203b
00000340: a8e4 f73b 584b 93bb dce7 913b bd77 2c3c
00000350: f104 51bb b725 833a e609 393b 4c39 563b
00000360: c482 933b efeb bcbb 4348 bd3b dd0e ca3b
00000370: 87c6 59bb 7fba 883c d979 963b 456d c63b
00000380: fc4b 33bb f6ac b4bb af4f 323c 1a1b 513b
00000390: 23ef 303c c34e 92ba 128c 183c 5c0c a5ba
000003a0: 7598 75bb cb83 8a3c 27f7 fe3a 16f6 d43b
000003b0: 5914 80bb 7673 cb3b d533 6039 4bff 1cbc
000003c0: 2ab3 733a 03b1 b03a 749e 4c3b e570 05bb
000003d0: 756d cdbb 1c7d c5bb 1e3d d4bb 3d09 29bc
000003e0: 5e97 ff3b 8737 113c aad1 93ba af53 06bc
000003f0: 1250 5bbb 3bbb e63a b2c5 303b c43d 123c
-0.0010996499 0.0042418195 0.0058133043 0.004773648 -0.0011634361 -0.0014466024 -0.0017646663 0.0038974548
-0.0015694377 0.009512841 -0.006041992 0.004236608 -0.009220913 -0.0017000014 -0.015170404 0.00087405
0.0075345566 0.012405836 -0.0076941317 0.00946643 0.008263868 -0.0022396317 0.0061316937 -0.002097895
0.0048504914 0.005011377 0.005248986 0.003229827 0.00048752213 -0.0017052556 -0.012398343 -0.0067638075
-0.0046277046 -0.002219986 0.01002656 -0.0019955523 -0.00766557 0.00065792236 -0.00072917657 -0.0028429015
0.009337234 0.0010376126 -0.0010782465 -4.8992242e-05 0.00094763073 0.0036733502 -0.0028997741 -0.0129499845
0.015161097 -0.0028135616 0.0065320763 0.008437592 0.009373361 -0.0017074848 0.00629593 0.0065500154
-0.003071204 0.003426441 -0.0072800755 -4.3068536e-05 0.00472372 -0.0049562096 0.00032536036 0.013846708
0.002340932 0.008014248 0.0053706113 -0.006114362 0.011955231 0.011735724 0.0025049502 -0.0037039097
-0.005444081 0.0024078854 0.007611464 0.0064549525 0.01097635 0.0010300687 0.0058387006 -0.010965857
0.0060427343 0.0024697771 0.015389385 -0.004047837 0.0024749222 -0.0004941716 -0.0017227976 0.00051718304
-0.0013906087 -0.00206658 -0.004728947 -0.012179992 0.0065920097 -0.0039846883 -0.0008516819 0.00013868403
-0.0011256839 0.018703599 0.009446264 -0.0046757413 -0.008884868 -0.006297333 0.00012844762 -0.0003677718
-0.0024206908 0.0010464935 0.008380856 -0.001716019 0.0048141945 0.0058948584 0.013221852 0.010260559
0.007160797 0.0058235102 -0.00029194824 -9.825742e-05 0.004062462 0.008019593 -0.0038918608 0.0021844176
0.0029572374 -0.01118423 0.003658166 0.004191453 0.0028843437 -0.0014480168 0.014185046 0.0020354183
-0.0008195105 -0.0039728926 0.0011724444 0.0052342126 0.007099963 0.00035205146 0.0014719815 -0.0059546307
0.0065101236 0.003724732 0.006602388 -0.00434752 0.003418971 -4.0782903e-05 0.010408868 0.0013971652
0.0031354707 -0.021279871 -0.004765933 0.00554468 0.0041775703 -0.0071537322 -0.0026996827 0.015804732
-0.0029127907 0.009299982 0.003747696 -0.00042759246 -0.0014065789 0.00187343 0.0014484834 0.008402781
0.0019348238 -0.005419685 0.012545702 0.00014267217 0.0016068073 0.005084495 -0.0007699672 -0.0012199797
0.011659969 0.0028186932 -0.0047976915 0.0034503362 0.0023738751 -0.003596214 -0.008213148 -0.006434159
0.009157771 0.0055441414 0.005633129 -0.0061804447 -0.006659292 -0.009432386 0.008047783 -0.0016354683
0.0070730937 0.011495328 0.007044982 0.005462066 -0.0029506502 0.007825656 0.0019335443 0.0031536496
0.0033827177 -0.0058873044 0.012362352 3.6906255e-05 0.0008111972 -0.012563417 -0.0017584637 0.0034525688
0.0072383266 0.0061476324 0.03101948 0.002171683 -0.0067839795 -0.0037061102 -0.0032858434 0.002448877
0.0075650997 -0.0044950657 0.0044526886 0.010526595 -0.0031893814 0.0010005747 0.002823466 0.003268796
0.0045016725 -0.00576543 0.0057764365 0.0061663226 -0.0033229904 0.01669049 0.004592162 0.0060555064
-0.0027358523 -0.0055137826 0.010883256 0.0031907023 0.010799202 -0.0011162389 0.009310739 -0.0012592184
-0.0037474905 0.016908547 0.0019452319 0.0064990623 -0.0039086756 0.0062088324 0.00021381614 -0.009582351
0.0009296412 0.0013480488 0.0031222375 -0.002036148 -0.006269152 -0.006026877 -0.0064770123 -0.010317144
0.007800027 0.008863336 -0.0011277695 -0.008198663 -0.0033464474 0.0017603406 0.0026973304 0.008925859

action_model._discrete_distribution.branches.1.bias f4 [3]
00000000: 5e0a cabb 5db7 613a 3aeb 9a3b
-0.0061657866 0.0008610392 0.004727748

action_model._discrete_distribution.branches.1.weight f4 [3, 256]
00000000: 5a99 e93b 6abc 253b dda9 093c 0ed9 953c
00000010: f8fe 19bc ecf6 4438 3dc7 d53a 402a 713c
00000020: dd9d 3c3c b600 713c 87a3 be3a c5cf 15bc
00000030: cfb5 163c 3b6e 063b b408 20bb 5b90 5e3b
00000040: b707 913b c16f abbb 5aa6 a83b 7306 fc3b
00000050: 5ba7 1bba 5b85 d43b 17af 0e3b 0eb1 a9bb
00000060: 3d64 dcbb 5cfd cfbb 040c 7b3b f513 faba
00000070: e454 f03b 2e60 83b9 0eab b2ba b1be 1e3c
00000080: 4331 08bc a93a 193b 459a 6a3b 79f3 5e3c
00000090: 7edb edbb 4e2a 3b3b 7380 10bb 6b0e 5cbb
000000a0: 5606 c2ba 907f 13bb 1ff6 15bb 999b 9a3b
000000b0: 33c2 0dbb 8dcb 57ba 8608 e9b9 8541 d83a
000000c0: 7c90 79bb c82e 113a ba86 ebbb 7a98 01ba
000000d0: 37e3 463b 5ed8 513b 8fdf b5bb be1a 0b3c
000000e0: 97a5 24bc 81da 013b 405c 803b 1969 ec3a
000000f0: 71a4 f23b e3cc 3b3b 1f2e a6ba 849a b83b
00000100: 57cc 3e3a a54c 6b3a 40bc ecb9 a52e 533b
00000110: 9148 98bb a555 b53b b801 0b3b 24a1 b8bb
00000120: a12c 7b3b 3ba3 983b fc50 45bc 224f b5bb
00000130: 5d9b a23b a00b 213b d1a4 5bbb 9976 19ba
00000140: 39a1 6c3b 6028 a13b efe6 a0b8 c9e2 e9bb
00000150: 7a49 003b 8ff5 a3bb 6317 72bc e993 3d3c
00000160: b019 e73b f584 e1bb 568f ac3b 87e2 cbba
00000170: e1d5 213c 94d5 c5bb c292 833b 1903 82b9
00000180: c76e 11b8 28cf 773b 0d91 23bb eee7 de3b
00000190: 7cbe 053b 438d ed3b a77b 3fbb 4c49 b13b
000001a0: 9af3 5ab9 3de2 d4ba e569 39bc 7f4a 0fbb
000001b0: 3ba5 cb3b 1cb7 83bb ab5f a1bb 1131 9d3b
000001c0: 0376 0cba 43fc f7b9 b025 143c bb49 e23a
000001d0: 2d0c 0eba b4ad 9d3b 9a48 553b 92e6 2cba
000001e0: b630 5b3c 8feb d43b ee33 3bba 7d0d 94bb
000001f0: 774b a6bb 0bb8 08bb 3c3a 2d3a 8f19 e53b
00000200: 4527 2fba 62e0 953c 7621 b1ba 8a13 24bb
00000210: 3103 4fbb 3bc5 913b 1464 f03b 6a1d fe3b
00000220: 7d2b 023c 28fd 473c fa51 ccba 0f00 e03b
00000230: 70f6 c5bb 88cd 843b d51d 84bb 88b0 e0ba
00000240: 86a7 993a c414 933c ffeb 653a 843a 823a
00000250: 5e66 0d3b be14 f2bb 6758 f239 f29f 5e3c
00000260: 76a0 3fbc 10fe b13b 9c30 b1ba d410 1a38
00000270: fbba 15bc 7c9e bebb 9204 4bbb ce11 873b
00000280: f7c5 ae3b 16d3 123b b489 fe3a 4aa1 883a
00000290: dac6 393b e52c 31bb 0655 acbb 73dd 5e3a
000002a0: 16d6 df3b 0469 473b e10e 113b 299c e43a
000002b0: 7f2a 6abb 6186 1b3b 2913 edba d45a 753b
000002c0: 823c 04bc 9213 08bc 5722 c73b 5884 59ba
000002d0: cde5 903b 4a2b 98ba 3ac5 493b fc86 703c
000002e0: 70b4 093c 2199 173a e2a3 0dba 23d0 313c
000002f0: f6bc e13b af73 75bb 819a c1bb 0520 953b
00000300: ac80 9ebb 0208 c03b b724 18bc 87d0 0c38
00000310: c249 55bc 1946 8e3a f7a0 2c3c 5833 b63a
00000320: b17e 0a3c 60b0 f43a 03a5 f73a 7e33 54bb
00000330: 9f57 073c 5b5c f63a 10b6 1e3c f479 d1bb
00000340: d77b 31bb 34df 3bbb 9e42 ac3b c5d0 7e3b
00000350: e11e 4e3a d46a 193c a0cc ffb9 3140 8e3b
00000360: 64e1 db3b 8264 0a3c 5571 303c 17d7 a8bb
00000370: 3e01 733b 88d2 0fbc 5877 0cba 0296 02bb
00000380: 1a01 073c 5e25 a0b9 7db5 c03b 4672 d0bb
00000390: 70b3 653c eea6 e5bb fbce 46bb 9c9e d9b9
000003a0: 4dc4 82bb 4a97 1cbc ac15 163c ec42 14ba
000003b0: af85 1aba 4e6a 15bc 6415 bcba 20d1 1aba
000003c0: d2c3 d83a adcf 2dbb 9f39 243a ef16 4239
000003d0: d960 a4bc 6bae 2d3c b826 bd3a 21f6 5fb9
000003e0: d7c9 243b 20c8 383a 714d f53b 3458 b5bb
000003f0: 9ef2 d8bc 7086 c73b a40f cb3a 603c d9bb
0.0071288766 0.0025289305 0.008402315 0.018291976 -0.009399168 4.6960005e-05 0.0016309988 0.014719546
0.011512247 0.014709642 0.0014544585 -0.009143774 0.00919862 0.002051248 -0.002441925 0.0033960554
0.0044259685 -0.005231828 0.005146784 0.0076911985 -0.00059377187 0.006485624 0.0021771842 -0.0051785773
-0.0067258165 -0.0063473415 0.0038306722 -0.0019079434 0.0073343385 -0.00025057927 -0.00136313 0.009689019
-0.008312526 0.0023380911 0.0035797518 0.013607853 -0.0072588315 0.002855915 -0.0022049218 -0.003357793
-0.0014802914 -0.0022506453 -0.0022882295 0.0047182557 -0.0021630644 -0.00082319306 -0.00044447574 0.0016499019
-0.0038080504 0.0005538282 -0.0071876915 -0.000494368 0.0030347833 0.0032019834 -0.005550332 0.008490263
-0.010049245 0.0019814076 0.003917247 0.0018036693 0.007404857 0.0028656058 -0.001267854 0.005633654
0.0007278374 0.00089759595 -0.00045153685 0.0032223847 -0.0046473225 0.0055338913 0.0021210741 -0.005634444
0.0038326161 0.0046581305 -0.012043234 -0.005533115 0.0049623684 0.002457358 -0.0033514986 -0.0005854159
0.0036106838 0.004918143 -7.672409e-05 -0.0071376306 0.0019575045 -0.005003638 -0.014776084 0.011570909
0.0070526227 -0.006882305 0.0052661104 -0.0015555181 0.009877653 -0.0060374234 0.0040152976 -0.0002479784
-3.4673863e-05 0.0037812684 -0.0024958283 0.0068025505 0.0020407727 0.0072495057 -0.002921799 0.005410349
-0.00020880849 -0.0016241741 -0.011316751 -0.0021864471 0.0062147654 -0.004019631 -0.0049247346 0.004797109
-0.0005358161 -0.0004729946 0.0090421885 0.0017264405 -0.00054186844 0.004811967 0.0032544495 -0.0006595637
0.013378313 0.0064978073 -0.0007141222 -0.0045182095 -0.005074914 -0.0020861651 0.0006608104 0.006991572
-0.0006681572 0.01829547 -0.0013514 -0.002503606 -0.0031587596 0.0044485605 0.007336149 0.0077549713
0.007944939 0.012206353 -0.0015588396 0.0068359445 -0.0060413405 0.0040528215 -0.0040318766 -0.0017142454
0.00117229 0.017954238 0.0008770823 0.0009935652 0.0021575908 -0.0073877266 0.00046223702 0.013587939
-0.011695972 0.005431898 -0.0013518515 3.6732134e-05 -0.009138818 -0.0058172327 -0.0030978066 0.0041219955
0.005333658 0.002240365 0.0019419701 0.0010424044 0.0028347285 -0.0027034816 -0.005259159 0.00085016264
0.006830941 0.0030427584 0.0022134113 0.0017441559 -0.0035730896 0.002373122 -0.0018087375 0.003743817
-0.008071067 -0.008305447 0.0060770917 -0.0008297614 0.0044219256 -0.0011609581 0.0030787722 0.01468062
0.008404836 0.0005783011 -0.00054031436 0.010852846 0.006888981 -0.0037452986 -0.005908311 0.004550936
-0.004837116 0.0058603296 -0.009286097 3.3572807e-05 -0.0130180735 0.0010854631 0.010536424 0.00139008
0.008453057 0.0018668287 0.0018893782 -0.0032379325 0.008260637 0.0018795835 0.009686962 -0.006392712
-0.002708187 -0.0028666975 0.005256965 0.003888176 0.00078628777 0.009363849 -0.00048789848 0.0043411483
0.0067102183 0.0084468145 0.010769208 -0.005152594 0.0037079598 -0.008778222 -0.000535836 -0.0019925837
0.008240009 -0.0003054542 0.00588101 -0.0063612787 0.014019832 -0.007008425 -0.0030335772 -0.00041507639
-0.003990686 -0.0095575545 0.00916044 -0.0005655724 -0.0005894554 -0.009119583 -0.0014349637 -0.0005905796
0.0016537851 -0.002652149 0.000626469 0.00018509825 -0.020065712 0.0106006665 0.0014431095 -0.00021358627
0.002514472 0.0007048864 0.0074860384 -0.0055341963 -0.026482876 0.0060890242 0.0015492332 -0.0066295117

action_model._discrete_distribution.branches.2.bias f4 [3]
00000000: de52 473b 9140 9d3a 56a4 93bb
0.0030414383 0.0011997392 -0.0045056744

action_model._discrete_distribution.branches.2.weight f4 [3, 256]
00000000: ec0f 9c3b 1410 eb3a 2dff 61bc 5587 42bc
00000010: 47e5 583a e6e8 f53b 443a 6bbb 6959 a1bb
00000020: 4a7d 5c3a f782 7d3b fdda 77bb 46b6 b33a
00000030: 178b 0bbb e801 3a39 bc63 9fbb 189b 883b
00000040: a74f 68bb 1ca6 143b 83c0 153b 5d62 253c
00000050: c8d7 bd3b e79d 583b 5ddb c63b 66d0 aa3a
00000060: bb61 2a3b 94b4 c2bb 0501 03bc e9c7 c2bb
00000070: c616 193a 6753 4e3a 596c 153c d50d 5abb
00000080: e3ec 2b39 f750 e23c 375e b73b d916 18bc
00000090: a61d 3dbc 2c64 76b9 6e38 46b9 7671 b8bb
000000a0: ef96 b0bc 70ae a13a ecfb f23a 13e5 07bc
000000b0: e6c1 d3bb ce90 95ba b281 5fbb dded 173a
000000c0: 0fcf 40bb 96aa fa3b 36e6 c23a 6f67 6a3b
000000d0: 4a3d 86bc a715 f13b c7eb a63b d165 d9bb
000000e0: 9ac5 af3b e663 113c ff8b d4b9 1155 adbb
000000f0: eeb2 353c 05bc b1bb a9d7 083a 264b 19bc
00000100: 8fd7 cabb 20ee e93a da0f 3b3c 021f 843b
00000110: 7d3e 7bbc 502c 63ba a2d8 09bc a6f2 ff3a
00000120: 687a 86bb f3e1 4c3a 7a7f ebba 115f 333b
00000130: d6ff 6a39 1e0f 24bc b470 af3b 1d79 11bc
00000140: e65a a5bc 8b18 f2bb 3072 053c 753e 30bc
00000150: 35a4 893a fca0 1b3b 3af8 2cbb e03f 993a
00000160: 55b4 c63b 6bcf 84bb 58fe c4bb 22c3 dbbb
00000170: 6f37 49bc 7121 0b3b b961 08bc cc2d 7c3b
00000180: 73e4 573c 1175 a93a d762 113c 9675 d63a
00000190: b16f 613a 9e19 393b aded 0d3b 292b f5b9
000001a0: e583 863b 1b3b 833b 1796 adbb 8d08 cb3a
000001b0: 48a1 4f3b fec3 ddbb a3ab 8dbb 36ae 13bb
000001c0: ac5b 9439 cf9c 1b3b 48b0 b3ba a1d8 c33b
000001d0: c8c0 d6bb cc82 c13b c4dc cebb d15b a4ba
000001e0: b0a6 8b3c c63c 3abc d4a0 2cbc b05d 57ba
000001f0: 5793 d8ba 943d ad3b 77c1 38ba 2ac9 7a3b
00000200: 6406 21bc 7ef2 fabb 9ba2 65bb f2d2 da3a
00000210: 6a84 963c aa61 2dba 4b5b 6f3c be64 643b
00000220: ec37 86bb e19e f539 23f7 3fbc cdcf 67bc
00000230: a7ca 8ebb 60da 463b af8f 25bb be7d a4bc
00000240: fc87 3dbc 809a 75bc 0dd5 a638 2b84 f3bb
00000250: 70f6 01bb 29db 243b 594a 7139 02a0 83bb
00000260: 6961 473a c714 36bc 2eec 153c e477 85bb
00000270: 6638 8838 cac8 2f3c 47a6 1fbb cb0d a9ba
00000280: e6ae 923a ac15 34bc 33c4 1bbc 76d7 2e3c
00000290: 5333 823b cbbf a635 91e7 243b 6060 77ba
000002a0: 4e8c a2bb 82ec 0a3c 9009 e8ba e062 fa3b
000002b0: 26cc d9bb 6330 9ebb 394a 513b df34 453b
000002c0: fd34 ccbb f9b1 943b 4741 773c ec8a 5b3b
000002d0: dd37 9bbb 2732 aa3a e62e 4f3b 6bb9 43bb
000002e0: 600e 7d3b 070a 3d3b 3e9d b2ba 4cd5 d93b
000002f0: cd85 9dbb 80fa 03ba 72c0 57bb 07a3 d93b
00000300: 52e6 ab3a 1fb8 e1bb 6499 9e3b ae80 10bb
00000310: 00b8 853b f6e7 1f3b f7e5 d63a 22bf b2ba
00000320: 5cd1 45bc 85fd b2bb 043f 32bc e06e fb3a
00000330: 9435 a3bb 0a4c b9bb 36fc 4b3c 29df 26bc
00000340: 7162 81bb cffc 313b 9cb3 65bb a2ec 083c
00000350: 18f2 28bb b49e 273b ac0f 803b 9e10 0b3b
00000360: 1421 703b e773 11bc 505b b1ba 4512 e3bb
00000370: 32c9 343b e1ab 3bbc 5045 1b3b 7429 83bb
00000380: b19e 403c f68d 33bb 6279 0e3c 3684 89bb
00000390: d371 b23b fd20 813a 8fce 71bb 4917 883b
000003a0: bacb 933b d343 1a3c 14c6 50bb 9ae0 89bb
000003b0: 2a65 173c 7aa8 99bb 3e62 afbb 7285 89ba
000003c0: 64b1 223c b7a7 8cbb d42d 8b38 ff7b 593b
000003d0: c30a 423a 073b 00bc 9afa 45bb d097 1d3c
000003e0: 4394 2c3b ebf0 283c c481 433b ab69 50bb
000003f0: f4c7 373c d3e7 b03b 20a2 20bc 7732 20bc
0.00476264 0.0017933869 -0.013793749 -0.011873086 0.0008273911 0.0075045703 -0.0035892883 -0.0049239886
0.00084110035 0.0038682797 -0.0037819736 0.0013710938 -0.002129262 0.00017739052 -0.004864184 0.0041688792
-0.0035447867 0.0022682017 0.0022850342 0.010094252 0.0057935454 0.0033053102 0.0060686306 0.0013032078
0.0025998193 -0.0059419367 -0.007995849 -0.0059442413 0.00058398803 0.0007870704 0.00912007 -0.0033272405
0.00016396078 0.027626498 0.005595948 -0.009282791 -0.011542713 -0.00023497705 -0.00018903773 -0.00562876
-0.021556346 0.0012335312 0.0018538213 -0.008294362 -0.0064623235 -0.0011410953 -0.0034104404 0.0005795637
-0.0029420292 0.00764973 0.0014869634 0.0035767218 -0.016386647 0.0073573175 0.005094025 -0.006634452
0.005364132 0.008873915 -0.00040540096 -0.0052896817 0.011090023 -0.005424025 0.0005220124 -0.009356296
-0.0061902474 0.0017847456 0.0114173535 0.0040320167 -0.015334723 -0.0008665966 -0.008413466 0.0019527271
-0.0041039474 0.00078156515 -0.0017967068 0.0027369896 0.00022411285 -0.01001337 0.0053540114 -0.008878973
-0.020184945 -0.0073881797 0.0081449 -0.010757078 0.0010501208 0.0023747077 -0.0026393072 0.001169201
0.0060639777 -0.0040530465 -0.0060117655 -0.0067066113 -0.012281283 0.002122965 -0.00832408 0.0038479446
0.013177025 0.0012928565 0.008873663 0.0016361948 0.0008599712 0.0028244029 0.0021656558 -0.00046762198
0.0041050785 0.0040048487 -0.005297433 0.0015490219 0.0031681824 -0.006767749 -0.004323439 -0.0022534258
0.0002829706 0.0023744588 -0.0013709152 0.005976752 -0.006553743 0.005905485 -0.0063129384 -0.001253957
0.017047256 -0.011367029 -0.010536391 -0.00082155596 -0.0016523403 0.0052868817 -0.00070478715 0.0038266876
-0.009828184 -0.007658302 -0.0035039547 0.0016694947 0.018373687 -0.00066139793 0.014609168 0.0034850086
-0.004096022 0.00046848416 -0.011716637 -0.014148665 -0.004357654 0.0030342564 -0.0025262644 -0.02007949
-0.011568066 -0.014990449 7.9551806e-05 -0.007431527 -0.0019830726 0.0025155044 0.00023011248 -0.004016877
0.0007605763 -0.011113352 0.009150548 -0.00407313 6.4954904e-05 0.010729024 -0.0024360584 -0.0012897787
0.001119104 -0.010991495 -0.009507227 0.010671487 0.0039734035 1.2423783e-06 0.0025162438 -0.0009436663
-0.0049605733 0.008479239 -0.0017703045 0.0076411813 -0.006646651 -0.0048275455 0.003193511 0.0030091328
-0.0062319026 0.0045378176 0.015091247 0.0033499552 -0.004736884 0.0012984917 0.0031613647 -0.0029865156
0.0038613304 0.0028845088 -0.0013627184 0.0066477414 -0.00480721 -0.0005034581 -0.0032921103 0.006641749
0.0013114905 -0.006888404 0.004840063 -0.0022049355 0.0040807724 0.0024399734 0.0016395439 -0.0013637284
-0.012073841 -0.005462351 -0.010879282 0.0019182824 -0.0049807522 -0.0056548165 0.0124502685 -0.010185041
-0.0039485027 0.0027158742 -0.0035049682 0.008357199 -0.0025779065 0.0025576772 0.0039081182 0.0021219621
0.003664081 -0.008877731 -0.0013531242 -0.006929668 0.0027585742 -0.011454553 0.0023692437 -0.0040027443
0.011756585 -0.0027397848 0.008695932 -0.004196669 0.005445698 0.000985175 -0.00368968 0.0041531664
0.00451037 0.009415585 -0.0031856345 -0.004207683 0.009240428 -0.0046892734 -0.0053522876 -0.001049204
0.0099299885 -0.004292454 6.636573e-05 0.003318548 0.00074021163 -0.007826573 -0.0030209185 0.009618714
0.0026333488 0.010311346 0.0029831985 -0.0031801264 0.011217106 0.0053987294 -0.009804279 -0.009777657

action_model._discrete_distribution.branches.3.bias f4 [2]
00000000: 670b 793a 3f0b 79ba
0.0009500295 -0.0009500272

action_model._discrete_distribution.branches.3.weight f4 [2, 256]
00000000: 31ec 3e3b 3f3c d63b 7449 9b3b dc93 06bc
00000010: 3f50 37ba 39dc ed3b 1ea7 b3ba 289a 863b
00000020: d050 053c 7b00 423c 378c 44bb af13 eebb
00000030: d335 203c 9bfb ebba c4b5 a33a cef0 4fbb
00000040: 8785 3dbb e860 a6bb 08ad f43b 9ee5 19bc
00000050: 5532 9e3a 8d00 ab3a e180 2bbc f1b4 f33a
00000060: 64ec 483b b129 dfbb 102e 083a 1441 2c3c
00000070: 583e 3bba 6e49 2f3c eb3a c23b 11c9 5d3b
00000080: 5ea7 0dbc ab53 c1bc 999c 223b afed 2fbc
00000090: f521 39bc 89aa d3bb b6e5 12bc 1172 b3bb
000000a0: 405b 28bc a003 1ebc 7a0a 003c 09a8 a639
000000b0: dfdc 233b 3d77 a23b c38d 54bb 85bf 883b
000000c0: 6c43 8e3b 6333 7e3b 687b ecbb ba7e 9eba
000000d0: b9c4 e33b bfeb 2fbc baf1 923b 7562 b8bc
000000e0: 6a6e dcba e0ac 1abc 4ffa fa3b 2395 d0b9
000000f0: f422 b6bb 92cf 1dbc fb00 21bc 4431 1d3c
00000100: 7148 003c 0922 7f3b 358e 1a3a 6981 44bb
00000110: 15ff 59bc 5000 523b eb7f 3fbb 9655 4b3a
00000120: 3a04 ceba be7c d0bb 5b0f 4b3b b858 e8bb
00000130: 74ce 003b 2a72 833b 46c3 a53a 3a10 d13b
00000140: 40fd 5fbb a61a 38ba 650e d3ba 39bb 10bb
00000150: 38ba d7b9 50f3 7b3b 3cc7 5abb a357 4ebc
00000160: 4e6e 57bc c827 47bb 382c a8ba b703 ae3a
00000170: 2376 8139 11e5 613b 50e0 b6ba 1e34 4f3c
00000180: 3ebe 3f3c d307 a8bb b1db acbb 11c7 01bc
00000190: 1502 9eba ec23 21bb 47fb 763b e4a7 50bb
000001a0: 98c7 663b 54be d738 da35 263c 5276 ecba
000001b0: 4d21 483c bad6 0b3b 1e60 f23b c320 4f3c
000001c0: 1e5f 8f3b 7997 42bc 9553 24ba cbf1 60bb
000001d0: 05a6 dd3b 74f4 0bbc 6963 0a3c 0990 acba
000001e0: 2cac 3ebc aa68 26bc a322 283b 2856 96bb
000001f0: 8b89 f7bb 191f 83bc 6bf0 463c a1f0 7cbc
00000200: a066 7039 742a 1fbb 164d 00bb d9a3 8f3a
00000210: 87f8 c6bb 365d bc3b 7843 5dbc b274 f83b
00000220: 8ebf 9ebb 1b4b d1bb 479a a13b 0dad 583b
00000230: 8508 3e3c 7047 d6bb 0b25 4ebb 8581 8dbb
00000240: 9d58 4ebc 731b 973a 9cbb 6f3b c03e 7eb8
00000250: 4356 843a 6bf1 c0bb 182a c3bb 59a9 34bb
00000260: 79d5 74bb e051 8bbc 77ce fabb dff8 293c
00000270: df68 34bc e805 9bba f410 173c 238d 5b3b
00000280: 35c1 6d3c 84a2 d53b a7e7 dc3a 626c c5bb
00000290: d548 29bb 3128 f13a 819c 8a3c 25e7 28bb
000002a0: 3b58 80bb c0a0 a53b 756d a13b d8bf d83b
000002b0: f6a2 963b 04a4 313b 0ac2 373b 55cc cf3a
000002c0: fc4f 9d3a fc20 b2ba 3e05 a1bc 7252 1a3c
000002d0: 8d21 7bbb 06cc c5ba 24b5 8aba 469c 2ebc
000002e0: b07a 563b 485f b03b ae16 47b9 1d84 a13c
000002f0: f2cb 013c f565 34bc 06f4 20bb 4bbd 1e3c
00000300: 7888 2d3b ff14 cf3b 9e3c d63b 3755 3fbb
00000310: d7ac de3b 3edd 113b f6d3 e4bb 1421 23bc
00000320: 05a1 50bc 59b6 193b 679b fa3b b118 41bb
00000330: 2c85 75bb b1eb 853b 5b1d 933b 7093 9e3b
00000340: bb3e 773b 1905 d4bb 3c94 32bb 3b85 b1bb
00000350: 560a 9c3b 3b52 32bc 6d42 29b9 e03e 713b
00000360: 5b23 c93b 872a 103c ceb5 19bc ccc1 ab3b
00000370: 3dc6 f3bb 6253 bdbb eb84 90bb e658 f03a
00000380: 57a0 823b 818b c537 67d3 06bc ffa9 28bc
00000390: ccc5 2a3b 546d 473c 3802 093a a5b4 94bb
000003a0: 7e7e 733a 4bca 653c 23a9 8d3a f2d7 63bb
000003b0: aa79 8fbc 7cb2 153b 97bb acbb b580 363c
000003c0: 3421 043c cc79 01bc eeb0 b03b 6475 9a3b
000003d0: 393c 35bb 5d4a 033b 2a1c 253c f194 aebb
000003e0: a4ea 473b 2080 8337 bdbd d6bb 67fa 70bb
000003f0: 69f9 efbb 1edc 24bc 0a4c 05bc bda2 38bc
0.002913248 0.0065379436 0.004738981 -0.008213963 -0.00069928536 0.0072589186 -0.0013706421 0.0041077323
0.008136943 0.011840935 -0.00299908 -0.00726553 0.009778458 -0.0018004061 0.0012490083 -0.0031729224
-0.00289187 -0.00507747 0.007466916 -0.009393124 0.0012069443 0.0013046429 -0.010467739 0.0018593353
0.0030658478 -0.00681039 0.0005194852 0.010513563 -0.0007142774 0.010698659 0.0059274337 0.0033841769
-0.0086458605 -0.023599466 0.0024812578 -0.0107378205 -0.0112996 -0.0064595384 -0.0089659 -0.0054762443
-0.010275662 -0.009644419 0.007814998 0.00031787183 0.0025003476 0.004958062 -0.003243313 0.0041732215
0.0043415334 0.0038787953 -0.0072168596 -0.0012092211 0.0069509414 -0.010737359 0.0044843825 -0.022507885
-0.0016817574 -0.009440631 0.0076592336 -0.00039783967 -0.005558366 -0.009632008 -0.009826894 0.009594265
0.007829771 0.0038930199 0.0005895824 -0.002998436 -0.013305445 0.0032043643 -0.0029220532 0.0007756589
-0.0015717812 -0.0063625267 0.0030984494 -0.007090654 0.0019654306 0.004011412 0.0012646697 0.006380108
-0.0034178048 -0.0007023014 -0.0016102312 -0.002208425 -0.0004114674 0.0038444586 -0.0033382913 -0.012594136
-0.013148857 -0.0030388702 -0.0012830561 0.0013276254 0.00024692816 0.003446881 -0.0013952348 0.012646703
0.011703072 -0.005127886 -0.0052752127 -0.007920996 -0.0012055064 -0.0024588061 0.0037686394 -0.0031838352
0.0035214182 0.0001028745 0.010144675 -0.0018040633 0.012214971 0.0021337704 0.007396712 0.012642088
0.0043753525 -0.011876934 -0.0006268558 -0.0034323807 0.006764176 -0.008542169 0.008446553 -0.0013165484
-0.011637729 -0.01015679 0.002565541 -0.0045879073 -0.007554238 -0.01600604 0.012142281 -0.01543823
0.00022926414 -0.0024286779 -0.0019577197 0.0010958865 -0.0060721072 0.0057484163 -0.013504855 0.0075822705
-0.0048446124 -0.006387127 0.0049317214 0.003306213 0.011598711 -0.0065392777 -0.0031455185 -0.0043184184
-0.012594369 0.0011528566 0.003658033 -6.061676e-05 0.0010096509 -0.0058881543 -0.0059559457 -0.002756676
-0.0037358685 -0.017006814 -0.007654007 0.010374277 -0.011011331 -0.0011827322 0.0092203505 0.0033500872
0.014511396 0.0065196175 0.0016853706 -0.006024883 -0.0025830765 0.0018398819 0.01692033 -0.0025772539
-0.003916768 0.0050545633 0.0049263784 0.0066146664 0.004597063 0.0027105818 0.002803924 0.0015853742
0.0012001987 -0.0013590152 -0.01965582 0.009419071 -0.0038319558 -0.0015090711 -0.0010582549 -0.010657376
0.0032726936 0.005382452 -0.00018986568 0.019716317 0.0079221595 -0.011010637 -0.0024559512 0.009688686
0.0026479047 0.0063196416 0.006537988 -0.002919508 0.0067955065 0.0022257115 -0.0069832755 -0.009956617
-0.012733703 0.0023454635 0.00764792 -0.002946418 -0.003746341 0.0040869345 0.0044895834 0.0048393533
0.00377266 -0.0064703343 -0.0027249 -0.0054174936 0.0047619743 -0.010883863 -0.00016141841 0.0036811158
0.006138248 0.008799202 -0.0093817245 0.0052416082 -0.0074394033 -0.0057777623 -0.0044103763 0.0018337041
0.003986399 2.3549192e-05 -0.008229113 -0.0102944365 0.0026057838 0.012172062 0.0005226466 -0.004538136
0.0009288563 0.014025281 0.0010807853 -0.0034766165 -0.017514069 0.002284198 -0.005271386 0.011139085
0.008064557 -0.007902574 0.0053921854 0.004713701 -0.0027654304 0.0020033338 0.010077516 -0.005327814
0.0030504847 1.567608e-05 -0.0065533803 -0.0036770345 -0.007323433 -0.010062246 -0.008135805 -0.011269269

action_model._discrete_distribution.branches.4.bias f4 [2]
00000000: 8949 ecba 8a49 ec3a
-0.0018027286 0.0018027287

action_model._discrete_distribution.branches.4.weight f4 [2, 256]
00000000: 0488 96bb fac9 02bc b303 81bb 13a6 e1bb
00000010: c708 fb3b 2faa 973b a5ae 333b 44ee 02bb
00000020: 9bf7 ffbb 3c83 a4bb c3b5 eabb fc49 133c
00000030: d916 4d3b 8096 4f3a 247e 27bc 4315 373b
00000040: 36a7 b2ba 4b66 793c 2f71 823c 4ee7 553c
00000050: 4da7 bbb9 f847 0c3a 489b d23b 943a 60bb
00000060: 9e9d b73b 9451 83bb 8e6d 63bc d88d b5bb
00000070: 1c7d 8a3b 805e 90bc 9178 55bc 0a75 1b3b
00000080: c60f aabb c66f 40bb a568 08bc d963 56bc
00000090: 90ec 0cbc a302 393c 511c 113c 51e9 753b
000000a0: f9a9 6e3c 1f90 013c e8e4 6ebc 5ce2 bdbb
000000b0: 7e7c 3c3b ed9c 103c bc53 4b3b ce93 5f3c
000000c0: 10bb 503b fe6e 8abb 13c5 35bc 2d46 be39
000000d0: 62a1 293c 07ce aabb def1 d43b e26d 313c
000000e0: 0636 d63b bb1a b739 8306 113b 977b 8fbb
000000f0: 5798 d03b a1ed 073b ff04 97bb b6f4 2fba
00000100: 9959 28bc 0168 c939 34b3 e3ba 429f f13b
00000110: 2e16 e83c 5656 20bb 4789 fdbb 7079 98bb
00000120: c358 2a3c 10c3 cd3b be97 ec3b 3576 00bb
00000130: 62ab e33a 6f0e 3a3b 7a64 c83b b3e1 043c
00000140: ffa6 adbb b1b1 32bc 297a 06bb cc6b 06bb
00000150: 42b9 75bc d051 543a b869 983a 10c5 393b
00000160: d3c9 a4bb c57f 2f3c b1a2 03bb 6602 a13b
00000170: 2be9 e03b 70bf 4c3b 2821 f53b 388b 1ebb
00000180: be3e aa3b 2529 db3a def4 2c3c 364d 8fbb
00000190: 8e9b b7bb 7ab0 783b 5b87 fb39 033e 24bc
000001a0: 8f05 97bb d183 d43b 2824 debb 143d 90bb
000001b0: 2cb1 ceba 8f8d 823c dec9 a9b9 11c6 3abc
000001c0: 457e e53b 3a23 853c 9b82 8dbb e23b debb
000001d0: 27af 863a 2599 b8ba e0b4 893b e0c1 0ebc
000001e0: 686d 0b3c a21b e3b9 d1f4 e4ba 9280 33bc
000001f0: 3c18 b03b f6f8 42ba 296c 65bc aa9c 90ba
00000200: f71d 8f3a 00ed 573c a1aa 283c fe6e 2a3b
00000210: 923a cb3b 6a2b 543b ff18 033c 5884 65bc
00000220: b694 213a 9fc8 193c cead 903b 164b 923b
00000230: 39ca 063c 15de 333b 261d 8239 b5b5 383c
00000240: 4518 0aba 6e5b 483c 66f7 853c c96e c7ba
00000250: 1ff4 a1bb bc60 aabb dbb8 19ba bebc 0c3a
00000260: 4939 56ba 3310 8a3c b60c 883a fec8 20bb
00000270: 4e7c 693b 7d7f 293b 3f3f 0fbb 7261 cb3b
00000280: de47 91ba 9e60 22bb de0c c63b 1865 8cba
00000290: 078f c63b a10e 37bb 1e2c 083c b7c2 0d3c
000002a0: 1ac6 7fbb 236d 733c 4076 36bc 99ef fe3a
000002b0: 5aea 11bc b86d 853b 935e 34ba 9b0b 54ba
000002c0: 2bc7 f6bb 0aef a7bb a5cf 3c3b 2ad5 96bc
000002d0: c988 263c a384 3c3a 9469 de3a 05c9 cd3a
000002e0: 884f 0e3a b70a 34bc 38c3 873b 6d01 46bc
000002f0: d5b3 de3a ea58 333b aec2 17bc 0074 aebb
00000300: c396 3abb db9a 24bc 78e3 283c 6429 8c3a
00000310: dcbc bd3c 5b7c bd3b 3c51 fe3b d881 b9ba
00000320: 4ca5 a83c 1c93 01bc 0a28 033c 9f39 0bbc
00000330: 8a01 5c3b 5291 08bc 5605 d7ba a8a4 443b
00000340: a8e1 6e3c 3a94 aebb 69d6 513b 5dd7 36bb
00000350: 9307 f5bb 137a 76ba 9377 9d3b cecb 00b9
00000360: bd80 d33b c073 633a c080 8d3c 8457 d83b
00000370: e4c0 823c 7ab3 3b3b 5b3a 703b e9bc 6abc
00000380: 1a39 70bc 7991 b3bc 3a4a 9c3b cc64 063c
00000390: 5549 8639 8b1a 34bc cb8a 84bb 635c 5e3b
000003a0: 7269 dcbb d396 aebc 9353 39bc 1077 103c
000003b0: b4e2 2e3c f904 cdbb 3b1c ab3b 3136 48bc
000003c0: acde 08bc 7f50 d33b c501 ebba 7d7c 11bb
000003d0: 6cea a53b 0f55 d8bb 7939 a2bc aa68 a1bb
000003e0: a3bf a3ba de6f b73a 1b2b a93c 79fb b6bb
000003f0: 54c7 39ba 3065 f4b9 b8e0 b83c db91 853b
-0.004593851 -0.007982725 -0.0039372086 -0.0068862527 0.0076609585 0.0046284418 0.0027417329 -0.0019978443
-0.0078114993 -0.005020527 -0.007162781 0.008989807 0.0031294136 0.00079188496 -0.010222945 0.0027936257
-0.0013630155 0.015222142 0.01592311 0.013055636 -0.00035792068 0.00053513004 0.0064272024 -0.0034214603
0.005603506 -0.0040075276 -0.0138811 -0.0055405907 0.00422634 -0.017623186 -0.013029234 0.0023720884
-0.0051898686 -0.0029363497 -0.00832573 -0.013085329 -0.008601323 0.011292133 0.008856849 0.00375231
0.014566892 0.007907896 -0.014580943 -0.0057948064 0.0028760727 0.0088264765 0.0031025251 0.013646079
0.003184978 -0.004224657 -0.011094349 0.0003629191 0.010353418 -0.0052125487 0.0064985594 0.010829421
0.006537202 0.00034924396 0.0022129125 -0.0043787467 0.0063658166 0.0020741003 -0.00460875 -0.0006712185
-0.010275268 0.00038415196 -0.0017372132 0.0073737213 0.028330889 -0.0024465523 -0.007737312 -0.0046531484
0.010397139 0.006279357 0.0072202375 -0.0019601707 0.0017369802 0.002838995 0.0061154934 0.0081104515
-0.0052994485 -0.010906623 -0.002051959 -0.002051103 -0.014997782 0.0008099349 0.0011628186 0.0028346218
-0.005028942 0.010711615 -0.0020085985 0.004913616 0.0068637333 0.0031242035 0.007480759 -0.0024191868
0.0051954677 0.0016720636 0.010556428 -0.004373218 -0.0056032604 0.0037946985 0.00047975298 -0.01002455
-0.004608817 0.0064854403 -0.0067792125 -0.0044018123 -0.0015769354 0.015936641 -0.00032384595 -0.011399762
0.007003578 0.016252149 -0.004318548 -0.006782041 0.0010275588 -0.0014083727 0.00420247 -0.008713216
0.008509971 -0.00043317402 -0.001746798 -0.0109559465 0.0053739827 -0.0007437611 -0.014002838 -0.0011033018
0.0010918964 0.013179064 0.010294587 0.0026006098 0.0062020505 0.003237451 0.008001565 -0.014008604
0.0006163822 0.009386211 0.0044152504 0.0044645173 0.008226925 0.0027445604 0.0002481725 0.011273791
-0.00052678987 0.01222883 0.01635332 -0.0015215512 -0.0049424316 -0.00519952 -0.00058640324 0.0005368701
-0.00081719883 0.016853428 0.0010379765 -0.0024533863 0.003562707 0.0025863342 -0.0021857766 0.0062066847
-0.001108404 -0.0024776827 0.0060440144 -0.0010711281 0.0060595307 -0.0027932303 0.0083113 0.008652381
-0.003902799 0.014857563 -0.011136591 0.0019450068 -0.008905971 0.0040719174 -0.0006880548 -0.00080888876
-0.007531067 -0.005124931 0.002881029 -0.018412191 0.010164448 0.0007191395 0.0016968721 0.0015700167
0.0005428721 -0.010988883 0.004143145 -0.012085301 0.001699085 0.002736623 -0.009262724 -0.005323887
-0.0028471209 -0.010046686 0.010308139 0.0010693488 0.023161344 0.0057826466 0.0077611487 -0.0014153076
0.020586632 -0.007908609 0.0080051515 -0.008497625 0.0033570253 -0.008335428 -0.0016404788 0.003000537
0.014580168 -0.0053277286 0.0032018668 -0.0027899363 -0.0074777096 -0.0009402346 0.004805514 -0.00012282954
0.006454556 0.0008676611 0.017273307 0.0066022296 0.015961118 0.0028640912 0.0036655876 -0.014327266
-0.014662052 -0.021919953 0.0047695907 0.008202743 0.00025613108 -0.010992656 -0.0040448657 0.0033929578
-0.0067264372 -0.021312153 -0.01131143 0.008817449 0.010674167 -0.0062566963 0.005221871 -0.0122199515
-0.00835387 0.006448805 -0.0017929605 -0.0022199445 0.0050633457 -0.0066019366 -0.019802796 -0.004925807
-0.0012493025 0.0013995131 0.020650437 -0.005584177 -0.0007086892 -0.00046614697 0.022568092 0.004076225

discrete_action_output_shape f4 [1, 5]
00000000: 0000 4040 0000 4040 0000 4040 0000 0040
00000010: 0000 0040
3.0 3.0 3.0 2.0 2.0

network_body._body_endoder.seq_layers.0.bias f4 [256]
00000000: 4275 fbba f26a 8e3a 290f 32bc fb22 b9b9
00000010: 6b4a cc3b b6af eebb fe59 2ebb 5830 01bc
00000020: a066 00bb c39c 11b9 d91a a2ba c405 ea3a
00000030: c9bc 043a ef51 d83a a7d8 42bc a9df cfbb
00000040: 3b3a dbbb b5de c23b 329d aebc 2bcb 72bb
00000050: 7164 66bc 1c8f 37bc 6811 1ebc a291 52b9
00000060: 003a 9fbb e029 50bc b74e ecba 8f98 89bc
00000070: 3ac5 b3bb 6724 25bc 9283 70bc 1581 183c
00000080: 342c cbba b33f cc3b 7ecb 10bc 0ec8 a8b9
00000090: a6fb 0d3c 4ff4 7abb 386d 123c 8fbb 08bc
000000a0: 6ddd c5bb 820e ae3b db70 43bc 178b 8bbb
000000b0: 7457 19bc d6c3 723b 4444 19bc 78c9 82bb
000000c0: efe3 12bc 7665 26bc 700b d1bb 234d a8bb
000000d0: 5404 84bc 6a07 6bbc 1406 bc3b 71d8 a7bb
000000e0: faa7 82bc d4c0 d1bb 2bf0 2abc 9bb2 21bb
000000f0: 8656 db3b 45e3 dbbb 0c15 e03b 2f00 e3bb
00000100: 7311 eebb df1c ca39 6d11 93ba b017 153c
00000110: b21e 1bbc 5a9f 753b 8b30 97bb eec3 18bb
00000120: e120 97ba 4c9a 6cbc 9b30 e8bc 50f3 a8bc
00000130: c717 0abc de89 8cbb c12b a1bb b5e5 58bc
00000140: c5d3 02bc 100b 7fbc a822 333b bb76 b239
00000150: a57b 1fbc 5ef7 313c f152 5cbc 3028 523a
00000160: 0a96 2d3b 35da febb f0de dbba 3b2e ccbb
00000170: 6027 f0ba a43b 2f3b 602c 91bb 93e9 67bb
00000180: 7efc 0dbc 573e 123c 335b 1ebb b06b 1ebc
00000190: f2b3 54bb 7bdc 4cbc 19f3 0abc e40c 533b
000001a0: 7397 9e3b a920 85b8 9d1d 12bc 6956 b4bb
000001b0: 38a1 62bc 5e23 113a 948b 52bb 3817 33bc
000001c0: cab9 55bc abdf 07bc 38d3 f7bb e918 a7b9
000001d0: f1c0 b5ba 3f9b 96ba da95 14bc 0f02 e8bb
000001e0: ea2a 1aba 727d 43bc c760 75bb f069 27bc
000001f0: 0526 51bb 507d afbb e39f 4dbb fb1a 8dbb
00000200: 6dc6 c139 dc5b a2bb 683f 2a3b 25d2 073c
00000210: cbb0 19bc e927 35bc 61ef bc3b 1e14 86bc
00000220: c2a1 59bc ff62 56bc 058d b0bc 1890 7cbc
00000230: 87af 69bb cb9c f1bb 12d3 00bc 962b f4ba
00000240: 4530 e3bc f88d 633b f8dc 23bc e0ba 0dbc
00000250: 1a7a f9bb ef96 33bc ce16 c5ba 37b6 2eba
00000260: 61c9 24bb 9fc2 b2bb 04a1 12bb 0d28 d3bb
00000270: b840 24bb 8d7b cc3a 1859 023a 8a95 6b3b
00000280: 5f35 cabb 18c7 e03b b602 d9bb 2484 92bb
00000290: 4a46 c6bb 3edf 43bc e682 d3bb b860 b6ba
000002a0: ae86 09bc fa37 7abc b56f 9bbc 9631 8dbb
000002b0: 21e2 1ebc 9626 f0bb b087 acbb f49b 013b
000002c0: 0903 64bc 6f2b acbb 204b 8dbc 7e7e 33bc
000002d0: 8194 843a 4cda 9cbc 1ae8 dd3a e4b3 b839
000002e0: d0cb 18bc 1dd4 333b 6324 2dbc 1858 2ebc
000002f0: 62f2 7bbc 2e76 82bc 8970 253a 8cdb 24bc
00000300: e6eb cfbb 0a82 993c 8ad9 983b e555 2abc
00000310: 3449 22bb 0933 73bb af95 f13a 62bf b13b
00000320: 7d06 edbb dce0 0d3b e1ee 69bc 7a50 8bbb
00000330: c4a5 1c3b d4f4 82bc 05d7 1cbc ea7a 8bbb
00000340: 13ef 91bc 7839 d53a e568 87bb 2865 e4bc
00000350: 9cb1 45bc dcd8 25bc 2518 aabb 93e8 c83b
00000360: 4281 9e3b 3025 673b a7fe 3bbc 70d3 83bc
00000370: f103 de3b 2b2c e9ba e779 08bc 6e00 7ebc
00000380: ece0 5d3c 8eb7 27bc 68e9 1ebc e4f8 62bb
00000390: c236 5ebb 2b27 453a 6d0c 53bc 2042 a3bc
000003a0: d0a5 543b 52e7 4cbc a6c4 183c 9a6d 85bc
000003b0: 63cf cd3b 2fdd 89bb c320 1c3a 4081 bebc
000003c0: c7bb a03b 3c5d 363b d98d 223b b31e 293a
000003d0: 1c65 82bb 8b31 be3b f281 c8bb 3ccf 9d3a
000003e0: 2324 b7ba 05e3 13bc ec95 54bb 105f 99bb
000003f0: 3ae7 683b 1442 ecbb a8f9 803a e006 a5bb
-0.0019184726 0.0010865612 -0.010867872 -0.00035312012 0.0062344573 -0.00728413 -0.0026603932 -0.007885061
-0.001959242 -0.00013886676 -0.001236762 0.0017854501 0.00050635316 0.001650391 -0.011892474 -0.006343801
-0.006690291 0.005946959 -0.021315191 -0.0037047367 -0.014062033 -0.0112035535 -0.009647705 -0.00020081413
-0.004859209 -0.012705296 -0.001802883 -0.016796378 -0.0054861577 -0.01007948 -0.014679806 0.009308119
-0.0015500844 0.0062331795 -0.008837579 -0.0003219251 0.008665955 -0.0038292592 0.008937173 -0.008345499
-0.006038359 0.005311788 -0.011928762 -0.004258524 -0.009359229 0.0037042997 -0.009354655 -0.003991302
-0.008965476 -0.010156026 -0.0063795373 -0.0051361485 -0.016115345 -0.014345029 0.0057380293 -0.0051222374
-0.015949238 -0.0064011607 -0.010433237 -0.0024673108 0.006693664 -0.0067104422 0.0068384465 -0.006927512
-0.0072652637 0.00038549953 -0.0011220403 0.009099886 -0.009467768 0.0037479014 -0.004613941 -0.0023310143
-0.0011530184 -0.014441084 -0.02834349 -0.020623833 -0.0084285205 -0.004288896 -0.004918546 -0.01323836
-0.00798506 -0.015566602 0.002733389 0.00034039267 -0.009734069 0.0108622 -0.013447509 0.00080168527
0.0026487135 -0.007777477 -0.0016774815 -0.006231097 -0.0018322282 0.002673843 -0.0044303387 -0.0035387024
-0.008666156 0.008925996 -0.0024163246 -0.009669229 -0.0032455889 -0.0125037385 -0.008480811 0.0032203728
0.0048398315 -6.3480176e-05 -0.008918193 -0.005503465 -0.013832383 0.0005536581 -0.0032126652 -0.010930829
-0.013044784 -0.008293073 -0.007563021 -0.00031871282 -0.0013866705 -0.0011490359 -0.0090689305 -0.0070803235
-0.00058810285 -0.011931764 -0.0037441717 -0.010218129 -0.003191353 -0.0053555146 -0.0031375817 -0.004306195
0.00036959667 -0.004954798 0.0025977734 0.008289848 -0.00938053 -0.011056879 0.005765841 -0.016367014
-0.013283195 -0.013085126 -0.021551618 -0.015415214 -0.00356576 -0.0073734275 -0.007862823 -0.0018628712
-0.027732978 0.003472207 -0.0100014135 -0.0086505115 -0.0076134326 -0.010961278 -0.0015036704 -0.00066647254
-0.0025144445 -0.0054553295 -0.0022373805 -0.0064439834 -0.002506299 0.0015600786 0.00049723824 0.0035947287
-0.006170913 0.0068596713 -0.0066226376 -0.004471319 -0.0060508596 -0.011955081 -0.0064548133 -0.0013914322
-0.008393927 -0.015272135 -0.018974165 -0.0043088896 -0.009697468 -0.0073288186 -0.0052651986 0.0019776793
-0.013916739 -0.005254201 -0.017247736 -0.010955451 0.0010115058 -0.01914706 0.0016930134 0.00035229244
-0.009325936 0.0027439662 -0.010567757 -0.01064112 -0.015377613 -0.015925493 0.00063110195 -0.01006211
-0.00634526 0.018738765 0.0046646046 -0.010396455 -0.002476287 -0.0037109277 0.001843145 0.005424426
-0.0072334395 0.002164892 -0.014278145 -0.004251537 0.0023902515 -0.015985884 -0.009572749 -0.004256596
-0.017814195 0.0016267737 -0.0041323774 -0.027880266 -0.012066271 -0.010122504 -0.0051908665 0.0061312406
0.004837186 0.0035269968 -0.011474288 -0.016092032 0.006775372 -0.0017789652 -0.008329845 -0.015503032
0.013542395 -0.010236634 -0.009699203 -0.0034633214 -0.003390715 0.000752079 -0.0128813805 -0.019928992
0.0032447465 -0.012506323 0.009324228 -0.016287614 0.006280826 -0.0042072753 0.00059558096 -0.02325499
0.0049051973 0.0027826568 0.0024803786 0.0006451413 -0.0039793383 0.005804246 -0.0061190063 0.001203991
-0.0013972562 -0.009026294 -0.0032437993 -0.004680522 0.0035538212 -0.0072100256 0.0009840028 -0.00503622

network_body._body_endoder.seq_layers.0.weight f4 [256, 12]
00000000: 4c44 cf3e 15a8 95bd a0bd 8dbe d348 773d
00000010: 476c 1f3f 26c5 bcbd c1f4 58be 99f3 f23e
00000020: c5af 27bf 499c 51be b7f3 9c3d 4d3f 2b3d
00000030: 9fb1 643e b5f5 003e 490e ee3d 0a21 87bd
00000040: 663f e33d 2e2a 83be 28fa cf3e 11eb f3ba
00000050: ca2b cd3b a11f 10be 7233 753e ab14 653e
00000060: bc41 1cbe f5c0 56bd 384b 15bf 3901 563e
00000070: ae79 473f 7ec5 663d e0b6 65bd 048a c83e
00000080: 6959 63be bc57 3ebe 876e 1abf 696f 8d3d
00000090: 7e58 bf3e afc6 673d 3b40 353e 871f 09be
000000a0: 21b1 393f b627 ecbc b015 29be 9960 9bbe
000000b0: 3814 eb3c fcc1 843e 5706 383d 6018 c03e
000000c0: 3fba 0c3e e1f7 27bc 1d61 48be fecc 92be
000000d0: a5bc b1bd e75e 53be 3fdb 1f3f a731 f3be
000000e0: 7845 133f 02ad b9be a7e9 393c 6dd7 babe
000000f0: 650a 673e 1352 62bd 4bc9 17be d57b 913d
00000100: 3e02 1d3e 10dd 8bbe d8a5 903e 7352 ca3d
00000110: 1275 4e3e de01 933e fe60 873e 1218 0d3d
00000120: 47ad 27be 404a bb3e d5f6 e4be 6459 7cbe
00000130: f59f 28be fc62 bb3e d2a4 513e ee46 d03e
00000140: 5589 3ebe 7182 27bd 050d 40be f440 463e
00000150: 9c7b 143b 1011 9ebd 877b 52be f4c4 913e
00000160: 4ec8 363e f835 bbbe ad3e 87b9 4022 d3be
00000170: fef1 96be 188c 5d3e 8c09 d0bd 11ed 97be
00000180: 2140 90be f1cd c9bc 5a2b b93d adfe b63e
00000190: a5d6 d3bc bd24 2cbe 4e42 88be 8c6d a83d
000001a0: 0bb6 a63e 2509 20be 4f75 4b3e 596e 053f
000001b0: 647a ed3e f7d8 21be 4566 153e 37a7 963e
000001c0: eeb3 94bd 7934 143d 4f9c aabe 02c6 27bd
000001d0: 2eda 0b3e f977 8abe 5851 b1bd c37f 56be
000001e0: e26d 55bd 375f ef3d 66d2 c23d 6efd e03d
000001f0: b484 803e 9e4c ff3d c14c 55be cb9d 0d3e
00000200: 86e3 adbe edc9 bebe de29 92bd 3d08 873b
00000210: 82a5 99be 92ef 41be e360 53be 129e c13a
00000220: 7bfe e1be e481 123d ab8d b6bb 1d25 1d3f
00000230: b0d6 863e f022 e4bc 47eb 883e 87f8 5ebe
00000240: f44e a33e 3523 bbbd e971 b13d a57e b5be
00000250: 424f 1b3d 8d7f 553e 8079 993d 43ac bfbd
00000260: e556 c2be 612c a7bd 4536 cf3e 3934 a43e
00000270: 63b7 403d 1691 07be d381 963d 629b 673d
00000280: b001 663e c67c c3be 98a8 b63d 231d 233e
00000290: 66fe de3c cc5f dcbd cdce a9be a164 d5bc
000002a0: 9581 43bc 402d 3f3d bc69 46be 6893 ee3e
000002b0: a935 753e 3787 753e e73b 163f ca14 3d3b
000002c0: 2096 a53d 720b 613e 0229 73be 49ab f2be
000002d0: 2569 4cbf 8b7d 5fbd f539 ce3e f9f1 0f3f
000002e0: 9628 083f d482 cc3d 1676 b5be e738 c23d
000002f0: 588a bb3d 21de b0be f608 aa3d 062a 83bd
00000300: c444 c7bd b7e4 273e a417 92bd c2d1 8fbc
00000310: a35c bb3d d96c 5fbd c3a0 28be 6975 d7bd
00000320: 5f39 42be e2a6 a13e 43e1 29be fed4 c4be
00000330: 57e9 4d3e d519 933d 0b1b 6c3e 4323 4c3d
00000340: 220f 20bf 19a8 6e3c 0a14 7abe fd0e 21be
00000350: b29f 1cbe 4cf3 0abe c7fd 33be a3f3 e53e
00000360: 2507 7bbd 4f0c 74bd c1d4 2abe c3c5 9ebd
00000370: 5e40 8cbe b0c7 8cbe 17c8 0d3f 27ca 11bf
00000380: 6c05 e53e 9eaa 25bf f7c0 cabe 25c0 20bd
00000390: 1230 b03e 8937 8bbd 16b1 103f a9e1 2dbe
000003a0: 98d7 7bbe ee4a 35be f8eb 25be aa48 6cbd
000003b0: 8c57 6b3f cc1d 1ebd 0b9a a73e d10e e73e
000003c0: 3bc8 ffbd 4c2f b0be e9e5 ba3d c1dc 043f
000003d0: 44b2 c33e 5013 063e bcb5 d3be 7d4b 03be
000003e0: bcdf bb3e 4076 5c3f 3e93 fbbd c2b9 893e
000003f0: ee83 babd 1e1a 1a3e e8c8 b9bd d25f fb3c
0.40481794 -0.0730745 -0.27683735 0.060372185 0.62274593 -0.092172906 -0.21187116 0.47451475
-0.6550258 -0.20469774 0.076636724 0.041808415 0.22333382 0.1259373 0.116238184 -0.065980986
0.11096077 -0.25618118 0.40620542 -0.0018609484 0.0062613236 -0.14074565 0.23945406 0.22371165
-0.1525945 -0.052430112 -0.583179 0.20898904 0.77920043 0.056340687 -0.056082606 0.39167798
-0.22202076 -0.18588156 -0.603249 0.069060154 0.37372202 0.056585964 0.17700283 -0.13390933
0.725359 -0.02882753 -0.1651218 -0.30347136 0.028696164 0.25929248 0.04492792 0.37518597
0.13742922 -0.01025197 -0.19568296 -0.28672022 -0.08678559 -0.20641671 0.6244392 -0.4749882
0.57527876 -0.36264807 0.011347211 -0.36492482 0.22562559 -0.055254053 -0.14822881 0.07103697
0.15332887 -0.27317095 0.2825153 0.09879007 0.20161846 0.28712362 0.26441187 0.034446783
-0.16374694 0.36580086 -0.44719568 -0.24643475 -0.16467269 0.36598957 0.2047303 0.40679115
-0.18607076 -0.040895883 -0.18754967 0.19360715 0.0022656685 -0.07718098 -0.20554934 0.28470576
0.17849848 -0.36564612 -0.00025795904 -0.41237068 -0.294815 0.21635473 -0.10158071 -0.29673055
-0.28173926 -0.024634333 0.09041472 0.35741177 -0.025859186 -0.1681089 -0.26613086 0.082240194
0.32560763 -0.15628488 0.19868968 0.521215 0.4638244 -0.15805422 0.14589794 0.2942445
-0.07260881 0.036182854 -0.3332238 -0.04096032 0.13657448 -0.27044657 -0.08658093 -0.20947175
-0.052106746 0.11688083 0.095127866 0.10985838 0.25101244 0.124657854 -0.2083006 0.13829724
-0.3396265 -0.37263432 -0.07136892 0.004120855 -0.30009085 -0.18939045 -0.20642428 0.001477184
-0.44139466 0.035768405 -0.0055710874 0.61384755 0.2633567 -0.02784869 0.26742002 -0.21774493
0.31896174 -0.091375746 0.08664305 -0.35448185 0.037917383 0.20849438 0.074938774 -0.09359028
-0.3795692 -0.081627615 0.40471092 0.32071093 0.04704989 -0.1323894 0.07348981 0.05654467
0.22461581 -0.38181132 0.089188755 0.15929084 0.027220916 -0.10760459 -0.3316559 -0.02604896
-0.01193275 0.046674013 -0.19376272 0.46596837 0.23946251 0.23977362 0.58685154 0.0028851503
0.08085275 0.21977022 -0.23746112 -0.47396305 -0.7984794 -0.054563086 0.40278593 0.56228596
0.5318693 0.09985891 -0.35441655 0.094835095 0.09157246 -0.3454447 0.083024904 -0.064045
-0.09729913 0.16395842 -0.07133415 -0.017556075 0.091485284 -0.054547165 -0.16467576 -0.10520441
-0.18967198 0.31572634 -0.16589837 -0.3844375 0.20108543 0.071826614 0.23057191 0.049838316
-0.6252309 0.014566445 -0.24421707 -0.15728374 -0.15295294 -0.13569373 -0.17577277 0.44912443
-0.06128611 -0.05958205 -0.16682722 -0.07752564 -0.27392858 -0.274961 0.5538344 -0.56949085
0.447307 -0.64713466 -0.39600345 -0.039245743 0.34411675 -0.06797702 0.5652021 -0.16980614
-0.24593961 -0.17704365 -0.16203296 -0.057686485 0.9193046 -0.038602635 0.32734713 0.45128492
-0.12489363 -0.34411085 0.09125883 0.51899344 0.38221943 0.13093305 -0.4134959 -0.12821765
0.36694133 0.86117935 -0.122839436 0.26899534 -0.09107195 0.15049025 -0.09071523 0.03068534
