Assets/Model/ChaseMode0526.onnx (onnx, 294299 bytes, 13 tensors)

action_model._discrete_distribution.branches.0.bias f4 [3]
00000000: fedd f7bc 605f 283c cce1 9e3c
-0.030257221 0.010276645 0.019394778

action_model._discrete_distribution.branches.0.weight f4 [3, 256]
00000000: 07d1 e03c d206 0abc b4a1 6e3d 4eaa 663d
00000010: 9b55 343d 0474 f0bc 8b84 0fbc 3f63 ea3d
00000020: b2ce 623d 2c3e d8bc 4b5c dcbd 71ce 373d
00000030: e158 91bd 3920 2e3d 44e6 c6bc a3fc b53c
00000040: 29f5 4e3b 108c 743d 90b5 5e3b de96 09bc
00000050: ced0 c13c b308 253d 8b87 20bd d28c 1d3d
00000060: 9218 82bd 874d b73c 4b39 ddbc 5958 613d
00000070: a456 0b3d 477c f9bb cc40 0ebc 6611 f73b
00000080: 8b93 f13b 38d3 893c 4eb4 003c da98 1c3d
00000090: 2b38 ae3b 194f 793d c98c 1b3d 5984 183c
000000a0: 65e6 f83a 5c64 5f3d e9ef da3a f4a8 82bd
000000b0: 5ecb 6b38 7881 953d 40b1 a1bb 7457 acbb
000000c0: d3bd d2bd 5513 6fbd 89c2 96bc 1022 88bc
000000d0: 8c50 fb3b fc79 febb 4680 87bc 1c11 0b3d
000000e0: 8ff9 eabb f560 c63b beba a43c 7db7 123d
000000f0: a6a6 cfbc 5392 f53c d22d 873d 902d 61bb
00000100: 2c5d 583d 8638 8bbc 98a7 aebc 26ce 9f3c
00000110: ca9f 11bc 2f76 de3a e092 b23c 2b63 dabc
00000120: 79cd 3e3d f4e0 ce3a eb7f 4cbc da8a f53d
00000130: 7dc0 d13c a30b 8e3d 3566 7dbc a45c 243c
00000140: db8b f43c ec12 293d 86ca 84bc 3e8d f53c
00000150: 550f 0abd 2e45 273d 7d47 3fbc 31ac 2d3b
00000160: ddc0 d03d 6eb3 d03b 6764 b7bb 2567 153d
00000170: 498d 653c 156f 403d 7733 c8bd 3318 4abc
00000180: 304c 0f3d 5a46 673c a513 f3bc 3ea0 ed3c
00000190: 4373 0b3d 126a 45bd 985d 30bc fc9a d43c
000001a0: fa7a 47bd 1ab1 6bbc 7eed 0abc 423a d73b
000001b0: 06b9 7cbc c164 3ebc 78f4 b13d 6d8f 2f3d
000001c0: 5031 66bc fcee 023d b616 40bb 028e 983b
000001d0: 5981 79b9 0744 973a c639 463d 02a4 40bb
000001e0: 0ec4 8abc 62c4 febc 3a00 d43b c2f0 d9bd
000001f0: d88d b8bd 0f83 8d3b 6c7e 9e3c cdcf c6bd
00000200: ae57 403c 5fdf 353c 77c1 10bc d27f 4a3c
00000210: e680 ccbc 0d66 4f3d af79 e83d 1878 983d
00000220: fb39 b0bc a2d3 3abc 1ae3 aa3d 17da 223d
00000230: 07b1 5a3c aeb8 ddbc 259f 2b3c fe05 83bd
00000240: 2520 c23c 59d4 2fbd 90db 503d 8848 f43c
00000250: c638 583d 20df c13d 6f97 593d 149d db3c
00000260: 3dae 3bbb 29eb 1ebd bcd0 afbc 983b df3b
00000270: d3f8 bb39 807c ad3c 0784 893c a5a7 723d
00000280: d91d 2a3d a71f 6a3c f73f a5bb 6dd7 91bc
00000290: a96b e23c 4ab8 053d 9ca4 9f3c 2976 d13c
000002a0: 1bb3 6f3c 1c23 efbc 3114 f2b8 12ca 49bc
000002b0: 038e 173d ef3f 20bc d558 773d 2e9c 363c
000002c0: d1b7 053d 9f69 333b 5e01 503b 2084 b9bd
000002d0: 9f43 1c3c 8bac 9ebc 9753 a6bc 22bb 243d
000002e0: 67fd 793c 72b1 8cbc 77db 95bc 92d4 803d
000002f0: 07c7 8bbd 92b5 a73d 8ba4 f23c 5798 583d
00000300: 16c7 85bc b630 1b3a b826 953d 8023 26bd
00000310: 5015 beba e572 293c 4a59 3e3d bcec 3cbd
00000320: dde2 353d e3c7 6d3d 4d62 a5bc 67b6 ac3c
00000330: f9a9 a23c 1132 553c b3eb f1bc f769 023d
00000340: 97f7 973d 79d1 a3bc 580a 1cbd 9e2e f33b
00000350: 1886 1bbc cef1 df3b 69f4 90bd 2dc3 d53d
00000360: 23eb 2b3c e578 99bc ff85 cbbc be6e 8cbc
00000370: 43ee f83a 3c19 2a3b ad0d 46bd d958 393d
00000380: 46f7 ae3c 80d6 c9bc f1f0 b4bb 6365 53bc
00000390: a020 eebb a571 d73c 0e83 bc3c aefe ba3c
000003a0: a6c1 60bd 5d83 343d 0e7c b63d cc56 c83d
000003b0: 1cd2 f3bc d1e1 a53d b367 133d cccd b93d
000003c0: 350e 0c3d ae9f 31bd e780 143d c61b 6f3d
000003d0: e333 2a3d 9940 403d 274c 43bb 7280 1fbd
000003e0: ddb1 a03d 2100 8abd fdd7 d03c 7de4 7b3c
000003f0: d7c3 1f3d 3608 b1bb 945c 833d d2e5 763d
0.027443422 -0.008424478 0.05825968 0.05631476 0.044026952 -0.029352196 -0.008759628 0.11444711
0.0553729 -0.026396833 -0.10759791 0.044874612 -0.070970304 0.0425112 -0.024279721 0.022215193
0.0031579232 0.059703887 0.0033982731 -0.008397786 0.023659136 0.0402915 -0.039191764 0.038464375
-0.06352343 0.022375835 -0.027004858 0.055015896 0.034018174 -0.007613692 -0.008682441 0.007539916
0.007372325 0.01682435 0.007855488 0.038231708 0.0053167543 0.06086645 0.03797606 0.009308898
0.0018989561 0.05453907 0.0016703579 -0.063798815 5.6217767e-05 0.07300085 -0.00493446 -0.0052594487
-0.10290112 -0.058368046 -0.018403308 -0.016617805 0.007669514 -0.0077660065 -0.016540658 0.033951864
-0.007170863 0.0060540386 0.020108577 0.03581952 -0.025348019 0.029977 0.066005364 -0.0034359433
0.05282323 -0.016994726 -0.02132015 0.019507479 -0.008888194 0.0016972477 0.021798551 -0.026658615
0.046582673 0.0015783594 -0.01248167 0.119893745 0.02560448 0.06935813 -0.015466263 0.010031853
0.029851845 0.04127781 -0.016209852 0.029974576 -0.033706028 0.04083746 -0.011674759 0.002650034
0.10193036 0.006369046 -0.0055966857 0.03647532 0.014010736 0.046980936 -0.09775441 -0.012334871
0.034984767 0.014115894 -0.029672453 0.029007073 0.03404547 -0.04819686 -0.010764502 0.025952809
-0.048701264 -0.014385486 -0.008479474 0.006568224 -0.015424972 -0.011620701 0.08689207 0.04286139
-0.014049843 0.031966195 -0.0029310412 0.0046556005 -0.00023794676 0.001154066 0.04839494 -0.0029394631
-0.01693919 -0.031099502 0.0064697536 -0.10641624 -0.090114295 0.004318602 0.019347392 -0.097076036
0.0117396545 0.011100619 -0.008835188 0.012359576 -0.024963807 0.050634433 0.11351334 0.07444781
-0.021512022 -0.011402996 0.083440974 0.039758768 0.013347871 -0.027065601 0.010474955 -0.06397627
0.023696968 -0.04292712 0.05099064 0.029819742 0.05278852 0.09466386 0.053122934 0.0268083
-0.002863779 -0.038798485 -0.021461837 0.006812524 0.00035852808 0.02117753 0.016786588 0.05924191
0.04153237 0.014289773 -0.0050430256 -0.017802918 0.027639227 0.032646455 0.019487672 0.025569038
0.014630104 -0.029191546 -0.0001154322 -0.012316244 0.037000667 -0.009780868 0.06038745 0.011145635
0.032646004 0.0027376187 0.0031739096 -0.09058404 0.0095376065 -0.019369384 -0.02030353 0.040217526
0.01525817 -0.017174456 -0.018293126 0.062905446 -0.06825071 0.08188929 0.029619476 0.052879658
-0.016330283 0.0005920039 0.07282776 -0.0405612 -0.0014502201 0.010342334 0.04647187 -0.046124205
0.044405807 0.058051955 -0.020188475 0.02108307 0.01985644 0.013012425 -0.029531335 0.031839337
0.07420271 -0.019997345 -0.038095802 0.0074213287 -0.00949242 0.0068342453 -0.070778675 0.104376175
0.010493073 -0.018734405 -0.024844168 -0.01714265 0.0018991906 0.0025954982 -0.048352886 0.045250747
0.021358144 -0.024638414 -0.0055218865 -0.01290259 -0.007267073 0.026299307 0.02301171 0.022826519
-0.054872178 0.04407059 0.0891038 0.0978218 -0.029763274 0.08099712 0.035987567 0.09072456
0.034193236 -0.043365173 0.036255743 0.058376096 0.04155339 0.046936605 -0.002980003 -0.038940854
0.07846425 -0.06738306 0.025493616 0.0153743 0.039005127 -0.00540259 0.06414142 0.060277767

action_model._discrete_distribution.branches.1.bias f4 [3]
00000000: cdb2 523c 59f7 12bc 6298 3f3b
0.012860012 -0.008970105 0.0029235114

action_model._discrete_distribution.branches.1.weight f4 [3, 256]
00000000: 39bc 933d 51a9 243d d658 7dbd b352 b63d
00000010: a716 643c 6475 133c 1707 14bb 1f95 0c3d
00000020: cd00 4a3c b736 113d 4664 12bd c41f 713d
00000030: c481 82bb c976 c93c 6a0e d83c 5262 8c3d
00000040: 4264 57bb a34b 2fbd 4959 51bc d01f 573d
00000050: 4193 be3b 06d9 823c c5eb 8dbd ceec e13c
00000060: bdb8 433d 5b19 36bc 9258 85bc 434a 363d
00000070: ab9f 0bba 0de4 e03c c66c e03d 8fe8 e03a
00000080: 5e0b e03c 9338 ba3c c509 0bbd 61a3 56bd
00000090: 6e22 1f3d 68ed be3d c923 9ab9 90a1 8a3d
000000a0: 7258 0dbc df11 043d 6e1d 883d 4cc0 4fbc
000000b0: 6580 bdbc 3459 123d 5d44 ba3b 27d7 583c
000000c0: 6cfe 033c ba99 fbba bb31 a6bc 5814 b4bd
000000d0: b056 123d a80f d23c c4d0 7bbd a5c0 383d
000000e0: 8207 4c3b 5584 b83c 391f 2f3d 49be f3ba
000000f0: 2b84 0a3d 0290 a8bc bef3 0b3c 65e5 0e3c
00000100: be66 653d 6376 2c3d b9d2 143d cfef 09bd
00000110: 1c39 b1bc 88db 883c f501 173d 2ba7 b7bc
00000120: 80d6 813d ddc2 ad3c 1692 6b3c 309b 57bb
00000130: 3b29 653c 8881 303c ccad e2bb 07af 3d3c
00000140: 1340 953c 9f9b 1d3d 319b 243d 412a cc3c
00000150: ae65 9dbc efc5 903d d37a a4bd 7c90 2bbd
00000160: 39cb 5dbc 6289 c5bb ee7d 5c3c 4032 7b3c
00000170: 3f6a 99bc c1e6 cabc 9fa3 22bd 4e59 d63b
00000180: e272 33bc 0a25 b13d b0f1 1dbd ebe2 753d
00000190: 1308 7e3c 35a0 e73c 2139 2f3d 0558 43bd
000001a0: 4624 963a 63cc 673d 6a1e b93d a72a 313d
000001b0: 4dc6 a8bc a524 073c d40c b33d a4e2 793c
000001c0: 33da b83d 3246 9ebc 0db9 013d 694b 2c3c
000001d0: 86f3 463c ee74 3cbc 7501 a73d e3ce 79bc
000001e0: 011a 953c edc2 1dbc 066a 393d 4cf3 8dbb
000001f0: 044d 24bc e271 b8bc f379 34bd b24f 17bd
00000200: c0c1 d13c 9719 e6bc 52b1 d73c 65b2 863d
00000210: 626b 283d fec8 673c f586 8ebc 140a 0dbb
00000220: 1d61 ecbc 2ead 203d e54a 693d 3e23 d83d
00000230: b82b 493d 6da1 8b3a add0 b63a f2ed babc
00000240: 37da db3d 3233 073d 43be 693d 3f73 a33c
00000250: 03fa 50bc 4382 69bb f5f8 583d 3565 e73b
00000260: 7e97 273d 976f cf3c 2758 de3c 6214 2dbd
00000270: 0ba9 3d3b 2b95 1c3d b3de 693c 7928 d63c
00000280: d0aa d3bc 59ef 5c3c 9780 43bd 1db2 6fbc
00000290: b715 9a3d fe5d ba3d ff7f 27bd 0cc3 e03c
000002a0: df61 3dbd 472f 843c 272b 82bc ec0d b73d
000002b0: 673b 803d e1e5 90bc 277c 4c3d b3c5 7bbc
000002c0: 2321 f43c d042 ee3c 5f2e b0bc e105 93bb
000002d0: 9cc9 a83c a185 76bb 8094 4f3b 9d76 0e3b
000002e0: eda3 9fbd 20bd 87bc c901 5b3c d18d da3b
000002f0: 22f9 db3b dce4 f33c 7af1 003d 48a8 2c3c
00000300: 2957 043d ca1d cfbb e2a0 8dbc a684 12bd
00000310: ead9 cbba a580 05bc 6482 6dbd 457b 883d
00000320: 6c07 ecbc 21d0 d83c 551a d9bb d954 043b
00000330: 7bf2 8d3c de25 27bd c49d 8ebb 341d 68bd
00000340: 0b91 4bbc 7c02 a93c 3980 7b3c ce95 69bd
00000350: 5c96 4cbc 060f 9c3d 06aa c23d 4f97 8a3c
00000360: 1f65 36bd f6b9 f03c 249a 273d 062f a93d
00000370: ea93 953c 1706 6d3b 30a9 8e3c 8c0a 0bbd
00000380: 700d 7dbc 4570 ff3b 04f7 a0bc f75c ccbc
00000390: 9651 823c da94 5a3d 09a8 fd3c be0e 22bd
000003a0: cefa f0bb 0fbe 423b 5247 473d d463 803d
000003b0: 57ed 0d3d 5e88 a53d 4739 3e3c 9e0a 823d
000003c0: 76c9 103c 7195 f83b 4397 3ebb 1ea5 cb3c
000003d0: 5e80 973d de04 86bc 0593 0abd 8457 a13c
000003e0: f6c7 99bb ee33 a7bb ff27 723c dda6 da3c
000003f0: 4428 273d 0fbb 703d 4ba6 0ebd 3358 273d
0.07213635 0.040200535 -0.0618523 0.089024924 0.013921416 0.009000156 -0.0022587234 0.0343219
0.0123292925 0.03545257 -0.03574016 0.058868185 -0.0039827544 0.024592774 0.02637406 0.068546906
-0.0032866155 -0.042796742 -0.012777635 0.052520573 0.005815894 0.015972625 -0.06929735 0.027578738
0.047783602 -0.011114444 -0.016277585 0.044504415 -0.00053262216 0.027452493 0.10958247 0.0017159152
0.02734917 0.022732055 -0.033944864 -0.052401904 0.038851194 0.093226254 -0.0002939983 0.06769097
-0.008627044 0.032243606 0.06646238 -0.0126801245 -0.023132512 0.035729602 0.005684419 0.01323489
0.008056264 -0.0019195594 -0.020287385 -0.08792943 0.035727203 0.025642231 -0.06147839 0.045105595
0.0031132405 0.022524038 0.042754386 -0.0018596138 0.03381745 -0.02057648 0.008541999 0.008721684
0.056006186 0.04210509 0.036333773 -0.033675965 -0.021633677 0.016706243 0.0368671 -0.02241858
0.06339741 0.021211082 0.014378091 -0.0032898895 0.013986881 0.01077307 -0.006917691 0.011577374
0.01821903 0.03847849 0.040187065 0.024922492 -0.019213524 0.07069003 -0.08031239 -0.041885838
-0.013537222 -0.00602834 0.013457758 0.015331805 -0.01872742 -0.024768235 -0.039706822 0.0065414077
-0.010952683 0.08649643 -0.03856057 0.06003086 0.015504855 0.028274635 0.04277909 -0.047691364
0.0011454902 0.056591403 0.09039004 0.043253567 -0.02060237 0.008248483 0.08742681 0.015251789
0.09025993 -0.019320581 0.03167062 0.010516026 0.012143021 -0.011502488 0.08154575 -0.01524708
0.018200876 -0.009628993 0.045267127 -0.0043319818 -0.010028128 -0.022515241 -0.044061612 -0.036941238
0.025605083 -0.028088374 0.02632967 0.06576995 0.041118033 0.014147041 -0.017398337 -0.00215209
-0.028854901 0.039227657 0.05695619 0.10553597 0.04911396 0.0010652967 0.0013947688 -0.02281854
0.107349806 0.033007808 0.057066213 0.019952415 -0.01275492 -0.003563062 0.0529718 0.0070616254
0.04091596 0.025321765 0.027141644 -0.042255767 0.0028939869 0.038228195 0.014274287 0.026142346
-0.025838286 0.013484799 -0.047730055 -0.014629868 0.07523673 0.09099959 -0.04089355 0.027436756
-0.046235915 0.016135825 -0.015889717 0.08938202 0.0626133 -0.01768774 0.04992309 -0.015366959
0.029800957 0.029084593 -0.021506486 -0.004486785 0.020603947 -0.003761627 0.0031674206 0.002173818
-0.07794938 -0.016569674 0.013367125 0.006669738 0.0067130486 0.029772215 0.03148029 0.010538168
0.032309685 -0.00632069 -0.017288629 -0.035771035 -0.0015552614 -0.008148347 -0.05798568 0.06664137
-0.028812133 0.026466431 -0.0066254535 0.0020192175 0.017327538 -0.040807597 -0.004352303 -0.056668475
-0.012424718 0.020631067 0.015350395 -0.05702763 -0.01248702 0.07620053 0.09505086 0.016917853
-0.04453003 0.029385548 0.040918484 0.08260922 0.018259007 0.003616696 0.01741466 -0.033945605
-0.015445098 0.007795366 -0.019649036 -0.024946673 0.015908044 0.053364612 0.030963914 -0.03956484
-0.007354117 0.0029715335 0.048652 0.06269041 0.034650173 0.080826506 0.011610336 0.06349681
0.0088370945 0.007586174 -0.0029081858 0.024859007 0.07397531 -0.016359743 -0.033831615 0.019695051
-0.0046930267 -0.005102626 0.014780044 0.026690895 0.040809885 0.058772143 -0.034826558 0.040855598

action_model._discrete_distribution.branches.2.bias f4 [3]
00000000: 6c19 ec3c e72f 7cbd 6bc8 2a3d
0.028820716 -0.06156912 0.04169504

action_model._discrete_distribution.branches.2.weight f4 [3, 256]
00000000: d5af 31bd dd72 e23d 7e58 33bd 92dd 64bd
00000010: fcf0 0d3c 1d2f 283d 9469 8b3c d5a5 6e3d
00000020: e43d 00bd a2d5 923c be26 3e3d a1ee 593b
00000030: 7dfb d23c 180f 1dbd a219 14bc c1af 5abd
00000040: 4ad0 8a3c ee41 fc3c eb9b 133c 22ce 78bd
00000050: a1a6 df3c c1e6 bfbd 74a9 6c3d 36a9 72bc
00000060: 60a3 e33b 57a9 3d3d 1285 a43c 402c 603c
00000070: 4a6a 173d c4c4 9fbd b386 4bbc dc52 333d
00000080: 639f 29bd e703 83bc 133c 893c b877 28bc
00000090: 508b 23bd 211d fd3c 0dde 8a3c f082 ac3d
000000a0: 524c 30bc e2d1 463d 13ef a33c 966f cd3c
000000b0: 1eca 27bc 302f 8e3b 18e0 013d 5451 043d
000000c0: 2a51 023d 6bce 283c 25a6 a53c 213a efbc
000000d0: d559 71bd e926 863d 5f23 22bb e76a b93a
000000e0: edba 473c c363 2cbd 49fc 043d 485d 203d
000000f0: 406a ab3d 3e33 db3a 9dff e0bd 15c6 003d
00000100: a29a 81bd 55ff f73b efa7 873d cd90 c73c
00000110: cbe6 46bc 2011 25bd ded9 9eba d4b8 b5ba
00000120: d92d d2bd ee86 7e3d 9a76 61bd f87f 97bc
00000130: b363 9c3c 60e1 e03c 0420 1a3c 757c 073d
00000140: 6d33 51bd 933a ffba 9abd b8ba 8808 15bd
00000150: dd43 7c3c ad7d 8f3d 634b 9c3c afbe e5bc
00000160: 059c 61bd 9538 673d a3e7 1539 663f e1bb
00000170: 42a4 3b3c fcb4 b0bd bb0d 6bbd 4a94 eebc
00000180: d018 efbb df8b a73c 056f fe3c 9150 0fbd
00000190: 9aed 0f3d 6878 783d f43e 0abe 4e64 78bc
000001a0: 5662 b7bc 2dcd 57bd 788a 58bd 3198 f4bc
000001b0: cc3c ca3d 47ad 01bd e54d 62bc 327e 9bbd
000001c0: 8a23 38bd 75d3 813c 188b dfbc efb9 a83b
000001d0: 75db 39bd 2960 dc3c 5b96 9ebd f147 64bd
000001e0: b16e 4f3c 06ff 183d fc55 7d3c fe8b 98bb
000001f0: 0496 08bd c01c 513c 3aed 61bc 65a0 1abd
00000200: a314 97bd e9f2 863d 3c77 67bd ae90 9f3c
00000210: b44b 50bd 7ce8 7ebd e8a2 acbc 86a4 283d
00000220: a82e 8e3b 6a43 9dbc 0037 253d 0d75 01bd
00000230: c5d8 e6bb d92b b83c 58c8 423d affe 313d
00000240: 7836 473c be6b 8e3c 9341 9dbd 7e94 7c3c
00000250: 92c7 bf3c fda3 683c d085 0dbc 9179 5bbc
00000260: bbae 84bd 31b1 243c 17ac 253d 948a 03bd
00000270: 595e 143c 415c bf3c ef6f 383c 0195 5dbd
00000280: a4f1 b4bc 2fe7 e83c 35d2 17bd 2e4a b73c
00000290: 9328 74bc 1f46 95bd a56a a6bd 0e8b 51bd
000002a0: 2152 013c 6255 83bc 1e38 04bd 6cd6 3439
000002b0: e04f 813d 0985 29bc c8c4 68bc 757d 04bd
000002c0: 4f3d 003d 6a56 143b 812e d33c 6c28 53bd
000002d0: 64d6 a1bd 03d2 463d bb77 733c 7c72 0dbb
000002e0: 63b9 10bd 2ac4 1ebd 3c41 163d 802f 6e3d
000002f0: da2b 933c fa0d bdbc 937c b4bb 975e adbd
00000300: 26b6 70bb 7bd5 9fbd 1454 43bd dbe6 e73c
00000310: 8313 b53c bfbc 133d 7e3e e13c 305a 193a
00000320: 4beb 4a3b 55cc 6e3c a517 313a cd9e b53b
00000330: 49db 923d a73b 8fbc 3785 3ebb 771f 48bc
00000340: b833 463d 96c1 7d3d c8b6 f43b 3aec 253d
00000350: ba41 4d3c 52ad 28bc 52a4 0d3c 6d1e 00bc
00000360: 708f a73c 194e bdbd f8b5 623c d805 d5bb
00000370: 1cde 17bc b008 533d 608f 29bc 771e 7b3d
00000380: 8751 793d 317d 48bb e1b5 763d 8e73 803c
00000390: 9fd1 2c3b 2906 c7bc 8cc0 ad3c 4c63 8a3d
000003a0: c197 62bd 3c68 12bd 7b8a 503d 5476 a03b
000003b0: 6851 52bc 613a a43c 64d5 14bd 7e85 96bd
000003c0: edfd abbd e55b 8b3c 30f4 4b38 ee0f c8bc
000003d0: 8e60 abbd f089 0bbd 81a1 1c3b 43fa acbb
000003e0: 37fc 0d3d fee3 ddbc a1cd bf3c ad0d 24bd
000003f0: 0f29 a9bd 543f 983b 94e7 e3bc af09 1cbc
-0.043380577 0.11057065 -0.043785565 -0.05587537 0.008663412 0.041060556 0.017018117 0.05826362
-0.031309023 0.017924134 0.046423666 0.0033253806 0.025754685 -0.038344473 -0.009039314 -0.05339027
0.016945023 0.030793156 0.009009342 -0.06074346 0.027301135 -0.09370185 0.05777879 -0.014810851
0.006946966 0.046304073 0.020082984 0.013682425 0.0369666 -0.07801202 -0.0124222515 0.043780193
-0.04141177 -0.015993072 0.016752278 -0.010282449 -0.03992778 0.030897679 0.016951585 0.08423412
-0.010760384 0.048540004 0.02001146 0.025077622 -0.01024106 0.0043391213 0.031707853 0.032304123
0.031815685 0.01030312 0.020220825 -0.029202523 -0.05892356 0.0655039 -0.002474032 0.0014146239
0.012190563 -0.042087328 0.03246716 0.03915146 0.08369875 0.0016723645 -0.10986254 0.031438906
-0.06328322 0.0075682797 0.06623828 0.024361039 -0.012139986 -0.040299535 -0.0012119373 -0.0013864287
-0.10262651 0.062140398 -0.055044748 -0.018493637 0.019090509 0.027451217 0.009407047 0.033077676
-0.051074434 -0.0019472413 -0.0014094592 -0.03638509 0.015397039 0.07006393 0.019078916 -0.028045027
-0.055080432 0.056450445 0.00014296039 -0.0068740128 0.011452736 -0.0862827 -0.05738614 -0.029123444
-0.007296659 0.020452438 0.031058798 -0.034988943 0.035138704 0.060661703 -0.13500577 -0.015160633
-0.022385757 -0.052685905 -0.05286643 -0.029857727 0.09874877 -0.03165939 -0.013812517 -0.07592429
-0.044955768 0.0158479 -0.027288005 0.005149118 -0.045375306 0.026901321 -0.07743522 -0.05573267
0.012660668 0.037352584 0.015462395 -0.0046553602 -0.03334619 0.012763202 -0.013789469 -0.03775062
-0.07376983 0.065893 -0.056510195 0.019478168 -0.050853446 -0.062233433 -0.021073774 0.041172527
0.004339058 -0.019197185 0.040335655 -0.03160577 -0.007044884 0.022481846 0.047554344 0.043455776
0.012158982 0.01738536 -0.07678523 0.015416263 0.023410592 0.014199254 -0.00863786 -0.013395683
-0.0647864 0.010052011 0.04044732 -0.03211458 0.009055697 0.02335942 0.011257156 -0.05409718
-0.02208788 0.02843055 -0.037065703 0.022374239 -0.014902252 -0.07288765 -0.081258096 -0.051158004
0.007893116 -0.016031925 -0.03228008 0.00017246016 0.06314063 -0.010346659 -0.014207073 -0.032346208
0.03130847 0.0022634515 0.02577901 -0.05155222 -0.0790222 0.048540127 0.014860089 -0.002158313
-0.03533305 -0.038761295 0.036683306 0.05815077 0.017965246 -0.023077954 -0.0055080145 -0.08465307
-0.0036729663 -0.0780439 -0.047687605 0.028308323 0.02210403 0.036068674 0.027495619 0.0005849926
0.0030963 0.014575084 0.00067555375 0.005542612 0.071707316 -0.0174845 -0.0029071101 -0.012214533
0.048389167 0.061952196 0.0074680783 0.040508486 0.012527877 -0.010295229 0.008645134 -0.007819754
0.020454139 -0.092434116 0.01383733 -0.006500941 -0.009269264 0.051521957 -0.010349125 0.06130835
0.060868766 -0.0030592198 0.060232047 0.0156801 0.002637006 -0.02429493 0.021209978 0.067572206
-0.055320505 -0.035743937 0.050913315 0.0048969183 -0.012836792 0.020047368 -0.036336318 -0.0734968
-0.08398042 0.017011592 4.862639e-05 -0.024421658 -0.08368026 -0.034067094 0.0023899975 -0.005278857
0.03466436 -0.027086254 0.023413481 -0.040052105 -0.082597844 0.004646221 -0.027820386 -0.009523793

action_model._discrete_distribution.branches.3.bias f4 [2]
00000000: 9a14 e4bc a214 e43c
-0.027841855 0.02784187

action_model._discrete_distribution.branches.3.weight f4 [2, 256]
00000000: 4dab 013e 34be b83c d97a 253d 9b1a 5d3d
00000010: 9f5a bc3c bc83 3bbd 850a 843d 01bf 733d
00000020: 6eb3 e9bc a20e a3bc 0843 da3c b21c c83c
00000030: b16d 2dbd 2b06 e93d a258 dbbc b0d8 893c
00000040: 218e f73c 79d8 0d3d a768 263d 1265 a43d
00000050: 9ca0 e1bc c5c3 553d 78d7 203c 8e5c bf3c
00000060: fb5d cab9 ad72 e73c 93cc 953c 7700 49bc
00000070: c8f0 4d3d 26a1 7c3d 174f c2bc 48f5 0e3d
00000080: b9bd d43b bba9 893a 66b3 5bbd 578d 8d3d
00000090: 4f3b 223d 4200 efbc 11d6 62bd e403 c03c
000000a0: d9a5 8b3c 29d4 cdbc cfe3 f73c fabc 943d
000000b0: 7218 003d f33a fbbc c93f 733d 98c2 24bd
000000c0: cdc4 34bd 6bcf 623c a178 353d 1649 9b3c
000000d0: 554b ed3c 0acf 7bbc b332 d13b b651 d4bc
000000e0: d00c 953b bd62 6a3d 96d6 26bd d2b5 883c
000000f0: f611 3c3d 88ce 113d d1c0 223d 9142 da3c
00000100: a958 0f3e 9fd3 bebb 4cbf 0139 73e2 6bbb
00000110: dddb 373d ee65 7c3a 764f e3bc 9714 3dbc
00000120: ea55 443d 1e19 09bd 1434 153c feb7 58bd
00000130: 6661 57bc 5613 313c 1c20 0f3d 1f25 203c
00000140: d377 afbc b8ef c7bc 5997 113d 76f4 c63c
00000150: 8b2e f73b e49c da3c ae89 d43b c697 8c3c
00000160: 8a40 263d 30bc 05bd dd0c c83c a055 723d
00000170: c3c1 ab3b 411d 843c e08b 683d 7a3a 0cbc
00000180: 427a 01bd 1860 1abd c086 79bc e963 f53c
00000190: fd93 3b3c 9aaa c33c 3004 443d 995e 363d
000001a0: a396 8f3c ce72 7b3c aabc 8b3c 2faf ecbb
000001b0: 118d 88bc 397f 42bd 4d0d f43c 4196 993c
000001c0: 9ca7 0f3e 8fc1 9abb 8b91 10bd 8c7f 493c
000001d0: 51db 083c 3372 473c 9015 903c 63f5 b0bc
000001e0: 0489 553c 6092 0bbb 5add 523d b9e7 ed3c
000001f0: eaf1 96bc 3c8e dcbc 09aa 4c3b a45d aebc
00000200: 6ac0 25bc e855 c63b 641d bf3d e822 5abd
00000210: e0a4 763d 1c76 d83b 30ac a83d a19c e53c
00000220: 76e2 db3c 7baf ad3c e00d 71bd 0c2f 15bd
00000230: 384b 913d f174 c53c ea24 83bd 78a6 4bbc
00000240: 4c23 71bd 5b38 07bd 7b91 b43b b134 51bb
00000250: ce53 03bd 8976 ce3b a1e0 02bd 1d7e 523b
00000260: 7236 e9bc d81e 78bd b048 c63c ff10 ee3c
00000270: 6d1f 193c f1b1 0c3d a335 4cbd bf26 853d
00000280: 61f2 243b 7732 b63b 39f2 f23b a384 24bd
00000290: 4a3f ab3d 4e0e babc 8297 3c3c ae14 853b
000002a0: e9b9 a73c ba9d 5abd 36d4 eb3b f56e cb3b
000002b0: 0eb2 483d d879 6c3c 154b 913d 7f7f 9a3d
000002c0: 5437 babc 80b3 8cbc d563 9bbd dc46 3fbd
000002d0: 8236 5c3c bb48 8dbb 23ab c63c f78b 653c
000002e0: df88 663d 22b1 c03d 8368 953c 0634 593a
000002f0: d49f f73b 7d2a cb3c 33b7 15bd 758b de3b
00000300: 5a92 353d 72b2 583d 9a0e 883c 3470 bcbd
00000310: d55f dcbb 923f be3c b05d 963b cc1e 27bd
00000320: 48d5 83ba 30ed 05bd 3abc 9dbc 6f30 33bc
00000330: 899f b23d 03dd 3c3d 8290 a9ba 17ca 353d
00000340: faf6 1abd fe2d 213d 6654 273d fd5e 1e3c
00000350: 8bfb 60bd 930d 623d 25f2 c23c 780c d4bc
00000360: 13f6 edbc f118 923d fd7f 443d 54dd ee3c
00000370: 122b 69bc d5fb 0dbc 76d5 86bc d537 c23b
00000380: 7b54 afbc 7cbf dcbc 29d0 283d d721 05bd
00000390: c5a1 60bc 8c5d 893d 57e8 9139 9c8b 9b3c
000003a0: 7c42 843d 492f 5c3d cf00 91bb 09b2 8b3a
000003b0: e3c8 ef3c dbc7 7b3d ae79 fabc 4421 30bd
000003c0: bf78 863d 9523 f53c 3c3c 4bbc 4261 783d
000003d0: d919 fd3c e9c3 563d be0f 4b3d e84e 493c
000003e0: 0b90 2bbd 2ea5 493d d2e7 323d ffda aa39
000003f0: 1150 0abc d6d8 6a3b 11cf 12bc 0c35 483c
0.12663002 0.022551633 0.04040036 0.05398045 0.02299243 -0.04577993 0.06447319 0.059508327
-0.028527942 -0.019904438 0.026643291 0.024427745 -0.042340938 0.113781296 -0.026775662 0.016826957
0.03021914 0.034630273 0.040627148 0.0802709 -0.027542405 0.052188653 0.009816997 0.023359563
-0.00038598463 0.028252924 0.018286025 -0.012268177 0.050278455 0.06167712 -0.023719354 0.034901887
0.0064923433 0.0010502854 -0.053637885 0.06911724 0.039607342 -0.029174928 -0.05537993 0.023439355
0.017046856 -0.02512558 0.030259995 0.07262607 0.031273313 -0.030667758 0.059387002 -0.04022464
-0.044132996 0.013843398 0.044304494 0.018955749 0.028966585 -0.015369186 0.0063842176 -0.025917869
0.0045486465 0.05722307 -0.04073199 0.016688261 0.045915566 0.035597354 0.039734665 0.02664307
0.13998665 -0.005823567 0.00012373662 -0.0035993129 0.044887412 0.0009628226 -0.02774785 -0.0115405535
0.047933497 -0.03347122 0.009106655 -0.052909844 -0.01314578 0.010807833 0.03494273 0.009774475
-0.021419441 -0.024406299 0.035544727 0.02428649 0.00754339 0.02668614 0.0064861393 0.017162215
0.040588893 -0.032650173 0.024420196 0.05916369 0.005241604 0.01612723 0.05677402 -0.008558864
-0.031610735 -0.0376893 -0.015229881 0.029954867 0.011448857 0.02388506 0.047855556 0.04452381
0.017527884 0.015347196 0.017057735 -0.007223032 -0.016668828 -0.04748461 0.029791499 0.018748404
0.14028782 -0.004722781 -0.03529505 0.012298476 0.00835307 0.012173223 0.017588407 -0.021601385
0.013033155 -0.0021296963 0.05148063 0.029041158 -0.0184259 -0.026923291 0.0031229279 -0.021284886
-0.010116676 0.0060527213 0.09331778 -0.053255945 0.06021583 0.0066058766 0.08235967 0.028028788
0.026841383 0.02120184 -0.058851123 -0.03642182 0.07094425 0.024103614 -0.06403525 -0.012429826
-0.058871552 -0.03301273 0.0055105067 -0.0031922276 -0.032062344 0.0063007516 -0.031952504 0.0032118626
-0.028468344 -0.06057629 0.024204582 0.029060839 0.009345871 0.034349386 -0.04985584 0.06501531
0.0025168883 0.005560215 0.007414129 -0.040165555 0.08361681 -0.0227119 0.011510732 0.004061303
0.020474391 -0.053373076 0.0071969284 0.0062082955 0.04899793 0.014433347 0.07094399 0.07543849
-0.02273146 -0.017175436 -0.07587401 -0.046698436 0.01344073 -0.0043116487 0.024251526 0.014010421
0.056282874 0.094087854 0.018238312 0.0008285645 0.007556895 0.024800533 -0.036551666 0.006791527
0.044329025 0.052904554 0.016608525 -0.092010885 -0.0067252913 0.023223672 0.004588805 -0.040800855
-0.001005807 -0.032696903 -0.019254792 -0.01093684 0.08721835 0.04610921 -0.0012936743 0.04438218
-0.03783319 0.039350502 0.040851973 0.009666202 -0.05492739 0.055188727 0.023797104 -0.025884852
-0.029048001 0.071336634 0.04797362 0.029158272 -0.01423146 -0.0086659985 -0.016459208 0.005927066
-0.021402588 -0.026946776 0.041214142 -0.032502975 -0.013710444 0.06707296 0.00027829662 0.01898747
0.064579934 0.053756032 -0.004425145 0.0010657917 0.029270595 0.061469894 -0.0305756 -0.043000475
0.06565999 0.029924193 -0.012404498 0.060639627 0.030896114 0.05243293 0.04957556 0.012286879
-0.041885417 0.049229793 0.043678112 0.00032588092 -0.008441941 0.003583481 -0.008960501 0.012219679

discrete_action_output_shape f4 [1, 4]
00000000: 0000 4040 0000 4040 0000 4040 0000 0040
3.0 3.0 3.0 2.0

network_body._body_endoder.seq_layers.0.bias f4 [256]
00000000: d102 b03d ab56 25bd 7d18 713d 9ac6 95bd
00000010: 0548 9bbc e2e9 fa3d f75c 733d 8013 babd
00000020: bd7c 04bb 322b ecbb 7a45 30bd 4531 6eb9
00000030: c897 37bc 4218 0cbd 3133 1f3b 8243 513c
00000040: 93e4 6dbd 89bf 47bd a9a9 243c 8e0c 5a3d
00000050: 51c2 12bd 0489 0ebd 9353 1ebd d6da 2ebd
00000060: 9715 02bd 676d bbbd 5a7b 253c be96 48bd
00000070: 4690 6ebb 6048 5ebb a5ce 853c 2b9e 1dbd
00000080: 1ee3 8c3d cd92 933d 61c3 b8bd 482d 6e3d
00000090: dbff c63c f4b6 a83d 722a be3b 3910 41bd
000000a0: 8bda bebd 422b 83bc 9ba9 bbbc ccd9 743a
000000b0: 1117 f5bc c5e5 b43c 620f e0bc fecb 9ebd
000000c0: 49c5 bcba baeb cebd 3343 2fbd 78b6 d03b
000000d0: 6527 4d3b b93d bfbb 4cfc 0abe 0e42 953b
000000e0: 707a 6d3d 4e95 72bd df71 bcbd 3831 5b3c
000000f0: 4b1c a73d 8ae4 ae3d 15cc 7f3c a687 2cbc
00000100: 7302 2dba 0651 c9bd b808 72bd 95de 8b3b
00000110: 6fbc 6abc 3ac5 803c 39d9 8abd 6db4 eebd
00000120: bb6b 93bd 2b06 91bd 7f20 3c3d 803d 233d
00000130: 090b b33c 4fdb a5bb b0ae 9ebb b1e7 56bd
00000140: 9429 3a3c 7b75 06bd 4558 19be cd51 023d
00000150: 9927 c6bc 8360 27bd 4d24 99bd 9708 973c
00000160: b66e c3bc ffc1 6ebd 5e58 563d f141 c8bd
00000170: c4bc 9ebd 28b5 dbbb b89d b8bd c754 cbbc
00000180: ccc0 74bd e63d adbc a2f6 cfbc a936 ccbd
00000190: dd1e e2bc 6876 0bbe f229 a0bd 84de 88bd
000001a0: 9ceb 353a ad40 413d 74cc bcbc 3c66 b83c
000001b0: 8e10 78bd 988d 82bd 4270 993d 3556 083d
000001c0: 2aa8 80bd bdaf b8bc 0d11 e0bc e757 57b9
000001d0: de38 953c edd5 11bd 59e8 2b3d a1b2 3dbd
000001e0: 9c6d 12ba 7836 483b 6e60 ce3d 4132 cebd
000001f0: e579 213b 1565 87bd a441 9fbd 8c37 be3c
00000200: 19fc a5bd b378 ab3c 3524 923d 58e5 9d3d
00000210: eba7 bfbc 8a29 b6bd 73aa 373d 73e2 c03b
00000220: c473 59bc e411 353d 46fb eeb9 52df 59bc
00000230: 4cd5 163d 0cd9 6ebd 4ea2 873d 2985 bcbd
00000240: 818d 85bd bc0f 743d 947c 97bd e063 8fbc
00000250: e85a 7ebd 0976 dbbc 9efe 6dbd 2f83 dfbb
00000260: ce64 353d 6d92 88bd be1f 94bd 0801 e1bc
00000270: 85cc 82bd a8ba 67ba fa24 80bb 9b3b fb3c
00000280: d284 da3b 2bc8 8e3d 0b2f 0dbd 1cd3 c3bc
00000290: 0eaa a0bd e902 00bd 34be 62bc 81f4 a5bd
000002a0: 0091 97bd 93eb 723d 31e5 64bd 10a6 963d
000002b0: a666 333d 85b7 8dbb ade9 f8ba 0a51 c0bc
000002c0: 50a6 6cbd 9cb4 e4bd 05c6 d4bd 53b5 fbbc
000002d0: b545 bcbd bed6 21bd 3999 0abd b735 063c
000002e0: 3214 63bb d2e5 b83c 4487 aebd 7f20 67bc
000002f0: 96d2 8dbc a721 403d e844 893d d0b8 d2bd
00000300: 9920 d7bc efb1 9abd 6e6c 473c 9c73 19bd
00000310: bfb9 5c3d fb01 f939 d9f4 093e 5767 943d
00000320: ea19 103b a307 a4bd 3d74 353d da82 323d
00000330: 7ced d2bd db2b f4ba 3b0e 903c 7220 05be
00000340: 86c7 cfbc 33b6 3c3d 8bb5 88bd cd30 55bd
00000350: 7ed5 d8bd 970c 3cbc c2d2 91bd 8151 11bd
00000360: 53f9 14bd b9eb c93d 0f88 1e3d 3a5c 9fbd
00000370: 5b4c 843b 1420 b6bc db32 0e3d b525 c33d
00000380: 6e04 73bc cdb1 33bc d5b5 febd cb87 e4bc
00000390: 3c7e 41bd 539a 81bd 829e 13bd 61be 603d
000003a0: 3f3c d0bd f801 dc3b 48f6 91bd a395 7ebc
000003b0: 6ebc 043d 1f74 73bd 9712 233d 96f7 c0bc
000003c0: 28a2 85bd 21a3 483d 9edb a9bd 863d 11bd
000003d0: ab3f a53d cd96 41bc ee9c 63bd f407 bfbd
000003e0: 0650 d03c 834a 9dbd 46f5 2bbc 2ae3 283d
000003f0: 2f52 9ebd fb05 b9bb b94a 4f3c 5809 e3bb
0.08594287 -0.040365856 0.058861244 -0.07313271 -0.01895524 0.12251641 0.05941483 -0.090857506
-0.0020215951 -0.0072072977 -0.043035008 -0.00022715803 -0.011205621 -0.03420282 0.0024291987 0.012772443
-0.058079313 -0.048766647 0.010050216 0.05323463 -0.035829846 -0.034798637 -0.03865392 -0.042689167
-0.03175887 -0.09151726 0.01010021 -0.048971884 -0.0036401912 -0.003391765 0.016333887 -0.03848092
0.06879257 0.072057344 -0.090216406 0.058148652 0.024291923 0.082380205 0.0058033997 -0.04713461
-0.093190275 -0.016011838 -0.022908023 0.00093403156 -0.029918225 0.022082219 -0.027351085 -0.07753752
-0.0014402057 -0.10103555 -0.042788696 0.006369408 0.0031303999 -0.0058362153 -0.13572806 0.0045549935
0.057978094 -0.05922442 -0.09201407 0.013378434 0.08159693 0.08539684 0.015612622 -0.010530388
-0.0006599791 -0.09829907 -0.059090346 0.004268477 -0.014327153 0.015719045 -0.06779713 -0.11655507
-0.07198282 -0.070812546 0.04592943 0.039853573 0.021855848 -0.005061544 -0.0048426017 -0.052467052
0.011362452 -0.03282688 -0.14975078 0.031816293 -0.024188804 -0.040863525 -0.07477627 0.018436713
-0.023856502 -0.058290478 0.052330367 -0.09778202 -0.07750848 -0.006704945 -0.090144575 -0.024820698
-0.059754178 -0.02114768 -0.025386158 -0.09971363 -0.027602607 -0.13619387 -0.078205004 -0.066830665
0.00069397106 0.04718082 -0.02304671 0.022509687 -0.060562663 -0.06374663 0.074921146 0.03328534
-0.06282075 -0.022544736 -0.02735188 -0.00020536744 0.018215593 -0.035604406 0.04196963 -0.046312932
-0.0005585791 0.0030550044 0.10076986 -0.10068179 0.0024639305 -0.06611077 -0.07776192 0.023219846
-0.081047244 0.020931577 0.07135812 0.077097595 -0.0233955 -0.08894642 0.044840287 0.00588637
-0.01327223 0.044206515 -0.0004558211 -0.013297873 0.03682451 -0.05831246 0.06622754 -0.09205086
-0.0652113 0.059585318 -0.07396808 -0.017503679 -0.062098414 -0.026789682 -0.05810415 -0.006821058
0.044285588 -0.066685535 -0.07232617 -0.027466312 -0.06386665 -0.00088397646 -0.003910658 0.03066807
0.0066686654 0.06971773 -0.03446869 -0.023904376 -0.07844935 -0.031252775 -0.013839293 -0.08103276
-0.074007034 0.059306692 -0.055882636 0.07355893 0.043799065 -0.0043248557 -0.0018990539 -0.023476142
-0.057775795 -0.11167261 -0.10389332 -0.03072611 -0.09192983 -0.039511435 -0.03383753 0.008191518
-0.0034649489 0.022570524 -0.085218936 -0.014106869 -0.01731233 0.046907093 0.06702596 -0.102891564
-0.026260661 -0.075534694 0.012171848 -0.03746377 0.05388808 0.00047494457 0.13472308 0.07246273
0.0021988102 -0.08009269 0.044300307 0.04358182 -0.10299203 -0.0018628793 0.01758491 -0.13000658
-0.025363695 0.046072196 -0.066752516 -0.052048493 -0.105875954 -0.011477611 -0.07120277 -0.03547812
-0.036370587 0.09859414 0.038703974 -0.07781263 0.0040374226 -0.022232093 0.03471647 0.095286764
-0.014832599 -0.010967684 -0.124370255 -0.027896782 -0.047239527 -0.06328263 -0.036039837 0.05486906
-0.10167741 0.006714102 -0.071270525 -0.015538606 0.032406263 -0.059436914 0.03981265 -0.023555558
-0.065250695 0.048983697 -0.08293842 -0.035459064 0.08068784 -0.011815739 -0.05556958 -0.09327689
0.025428783 -0.076802276 -0.010495489 0.041232266 -0.07730519 -0.005646465 0.012652093 -0.006928604

network_body._body_endoder.seq_layers.0.weight f4 [256, 14]
00000000: 06dc 02bc 17d3 953e 4e3c e5be 61a5 e8bd
00000010: 37b7 b93e 3a53 5fbe caf7 f3bd b12c 813e
00000020: 1fe7 413e f92f 5fbe 4664 10be 27e2 b33d
00000030: dba5 b9bd 8345 abbe 5abe 043e 4c63 4abe
00000040: 23ff 8fbe 720a 003f 63ff c8be 5324 f23d
00000050: e188 81be da8a c13d cbee 0dbe 0b8c 473d
00000060: daf9 873e 3a3c 593e 5a51 a4be 27d7 f93c
00000070: bce1 39be 07d6 9f3e 7d89 cc3d 94b9 a3be
00000080: af73 b63d 9980 503e 877b 01bf 5fbb 213e
00000090: b52b 723d 6d95 3cbd 94ac 1f3c a5a2 533c
000000a0: 0709 963e 0c03 b3be 374a f73d 933a 3fbe
000000b0: 6705 59be e58b 9bbe 4aab 95be c74a 04bf
000000c0: 7917 c9be 1f5a 75be 5b9f 683f 1b69 503e
000000d0: fe93 74be 8b42 813e 9efb 34bd 584c b43e
000000e0: 7fc9 513e deab 903e 2c72 2a3e b1f4 58be
000000f0: fd8c da3e d90e 753b 4fa1 dabc b9dd 8cbe
00000100: 2ae9 b63e 9413 183e b674 75be 5450 1dbe
00000110: a2e2 61bd b7ea 923c e7e5 e83e bfd0 b8be
00000120: 1e12 7f3e adb3 00bf f529 6abd 79d8 a4bd
00000130: ecad e7bd 937c 753e 4f33 5d3b fc5e 4abe
00000140: aadf 8dbe a012 e23d 324d 4abd 6c37 b9be
00000150: a757 23bc 3ed0 19be bc92 fabd 04f5 a8be
00000160: ffe4 37be 69a0 8c3e 7bed b73d e7df 8fbe
00000170: 3615 073d aeac 46be 3a95 8b3c a5e1 fd3d
00000180: a8ad 893e 348a ca3d d398 d8bc aac8 623b
00000190: 2433 64be 2960 5dbe f7c8 44be 3875 ba3e
000001a0: b581 693d cdd7 b3bc 5bf9 86be 7e25 963e
000001b0: c1ce 8ebe 0f3c b8bd 79b5 83be 77e0 163e
000001c0: dc18 68be 4020 533d b87e f33e 2848 b43e
000001d0: bfbf df3d d63e 5a3d 1f5b e4be a65b cd3c
000001e0: b7bb c9bc 19d9 073f 2b9e 0fbe 658c 203c
000001f0: 9ccf 05bf ec51 cc3e 6be3 a9bd c72f c83e
00000200: 4de1 aa3d 786e dc3e 906e 2f3d 1f4a 99be
00000210: d46b 63be a64f 56bd 1659 7abe 5f19 a0be
00000220: e9f5 223d 18d8 7fbe f5c0 99bd 6c22 893d
00000230: 84a1 8fbe b873 1c3e 3443 d6bd 1bc6 c0be
00000240: 8728 723c 3586 d9be 65aa 0e3e 92f9 5cbe
00000250: 8153 89be e96f a83e 7fae ccbe 1a23 37be
00000260: a7a0 25bd e2de fdbd fc3c 22be d809 37be
00000270: 9d6e d6be fcef ac3e 1272 b7be acd1 2bbf
00000280: a895 cd3e 7a0c d2be f17b fa3e 980a 8d3d
00000290: ef12 7a3c 7c10 7e3e 7611 94bd e667 a0be
000002a0: d518 6cbd c905 fc3d 741a 4abe f35b d43e
000002b0: 68ec dc3d 371a a73e e8c5 f4be 3f11 da3e
000002c0: ee6f a3bb 2096 d3bd c60a 5a3e c16e 083f
000002d0: 773e 43bd e4f9 bbbd b363 6ebd 55b3 2fbf
000002e0: 2621 01be 1c64 b1be 138f 99bd 4522 eebc
000002f0: fed5 2c3f b862 cf3e 07ec 4cbe ced7 5f3e
00000300: fb0b b4bd 0e1b 5d3e 0d98 dfbd 4628 81bd
00000310: 17a6 14be c61e 993e 3df0 a6be 601b 61be
00000320: e84f 803c 4cda 13be 4738 00be e3ae 29be
00000330: 5736 6dbe ea82 6c3e 7a77 843e ab77 733e
00000340: 8614 16be 3b17 f93d af64 e43e 9ea9 bb3e
00000350: 30bd abbe 0f64 a2be faf6 293f cc91 b13d
00000360: eddf d9bc 6ac7 48be 34e6 9c3d f932 c33d
00000370: 3595 18be c5af 69be dff9 c83d e972 5fbe
00000380: f7cd 4bbd 97bd 83bd 2a65 7dbe fd91 e83d
00000390: c29d 65bd 14ba b3be a88d 0d3f 01aa 8b3d
000003a0: 49fa 913d 837a 44bd fe7a 7c3e 6935 a33e
000003b0: 0fa8 08be 28f0 92be 0f1b 463e 87f0 8e3d
000003c0: a79a e73d ece1 ec3e db98 8dbe 49d2 cd3e
000003d0: 541c d7be 9702 b7be 7065 013f 7c46 1a3f
000003e0: f9da ffbe 98d3 7a3e a2a8 21be f0aa 84be
000003f0: ea4a 7a3d 2a32 87bd d346 343e 6dff 1d3d
-0.007987028 0.2926261 -0.4477257 -0.113596685 0.36272594 -0.21809092 -0.119124964 0.2522941
0.18935822 -0.21795644 -0.14100751 0.087833695 -0.090648375 -0.3345147 0.12963238 -0.19764441
-0.2812434 0.5001594 -0.39257345 0.118233345 -0.25299743 0.09450312 -0.13860624 0.04871754
0.2655781 0.21214381 -0.32093316 0.0304981 -0.18152517 0.31217977 0.09987161 -0.31977522
0.08908784 0.20361556 -0.5057911 0.15794133 0.059123714 -0.04604094 0.009745736 0.012917195
0.29303762 -0.34963262 0.12074702 -0.18674688 -0.21193467 -0.3038017 -0.29232246 -0.516766
-0.3927572 -0.2396016 0.9086816 0.20352595 -0.2388458 0.2524608 -0.044185273 0.35214496
0.20487021 0.28256124 0.16645116 -0.21187092 0.4268569 0.0037392883 -0.026688246 -0.2751291
0.35724765 0.14851218 -0.23970303 -0.15362674 -0.055147775 0.017934186 0.45487902 -0.3609676
0.24909255 -0.50274163 -0.05716892 -0.080491014 -0.1131247 0.23973303 0.0033752506 -0.19762796
-0.27709705 0.11038709 -0.049390025 -0.36175096 -0.009969628 -0.15020844 -0.122350186 -0.32999432
-0.17958449 0.27466133 0.08980843 -0.2810051 0.032979213 -0.1940181 0.01703893 0.12396554
0.26890302 0.098896414 -0.02644006 0.0034604468 -0.22285134 -0.21618713 -0.19217287 0.36417556
0.057008464 -0.021953488 -0.26362118 0.2932548 -0.27892116 -0.0899583 -0.2572439 0.14734064
-0.22665733 0.051544428 0.47557616 0.352113 0.109252445 0.05328258 -0.4460077 0.025068115
-0.024625642 0.5306564 -0.1402518 0.009799098 -0.5226991 0.3990625 -0.0829533 0.3909895
0.08343754 0.4305303 0.04283005 -0.29939362 -0.22209102 -0.052322052 -0.24448046 -0.31269357
0.0397853 -0.24984777 -0.07507507 0.066960186 -0.28052914 0.15278518 -0.10462037 -0.37651142
0.01478017 -0.42485204 0.13932188 -0.21579579 -0.2682152 0.3289788 -0.3997688 -0.17884484
-0.040436413 -0.12396027 -0.15843576 -0.17874849 -0.41881266 0.33776844 -0.35829216 -0.6711681
0.4015324 -0.41025144 0.48922685 0.06886786 0.015263303 0.24810976 -0.07229893 -0.31329268
-0.05764087 0.12305791 -0.19736654 0.41476402 0.107872784 0.32637188 -0.4780724 0.42591283
-0.0049877083 -0.103313684 0.21293172 0.53294 -0.047666993 -0.09178522 -0.05820055 -0.68633014
-0.12610301 -0.3464669 -0.07497992 -0.029069075 0.67514026 0.40505004 -0.20011912 0.21859667
-0.087913476 0.21592352 -0.10917673 -0.0630651 -0.14516483 0.2990629 -0.32605162 -0.21983099
0.015663102 -0.14438742 -0.12521468 -0.1657062 -0.2316526 0.23096815 0.25872403 0.23776118
-0.14656267 0.12162634 0.44608065 0.36652845 -0.33542776 -0.31716964 0.6639248 0.08670387
-0.026596034 -0.1960732 0.07661095 0.09531207 -0.14900668 -0.22820957 0.09813284 -0.21821178
-0.04975697 -0.06432646 -0.24745622 0.1135597 -0.056058653 -0.35102904 0.55294275 0.06819535
0.07127816 -0.0479684 0.24656293 0.31876686 -0.1334536 -0.2869885 0.1934626 0.06979471
0.113087945 0.46266115 -0.27655682 0.40199497 -0.420138 -0.35744163 0.50545406 0.602638
-0.4997175 0.24494779 -0.15786985 -0.25911665 0.0611066 -0.06601365 0.17605142 0.03857367

network_body._body_endoder.seq_layers.2.bias f4 [256]
00000000: c701 ffbc 33d8 1f3d ca95 fe3c 618f 84bd
00000010: 1759 5b3d 1929 f23d a100 da3c ea75 023d
00000020: 1dec 033c 5f88 09bd d097 b239 a621 863d
00000030: d597 ad3c 8b2b a83c 89e7 febc 6afd 0a3d
00000040: 1879 48bd 386e c8bc 8301 f0bb 6ab7 54bc
00000050: bce5 90bc 2219 003d e806 343d 436a 34bd
00000060: ec02 173b 062e cd3c c4bf 01bd edda 9abb
00000070: bbaf 5ebc 88d7 a6bc eba8 15bd 28b2 b8bc
00000080: 38dd bd3c 76ac 81bd 3e2e 83bb 69f5 1fbb
00000090: 0dde 72bc 17e5 b13d 07a2 8abc a184 b0ba
000000a0: 7c62 56bd f16c 883b 3d25 32bd 5079 b63d
000000b0: e6fd 14ba 0ec1 f2bc 7be4 cf3b 3272 febc
000000c0: 07ac 043d 6d28 df3c ab2b 0dbd 0423 9dbc
000000d0: 0c82 9fbd a2a8 7cbc 630f ebbc 3386 2cbd
000000e0: 86ef de3c 459e 8fbc 3527 a5bc 3582 89bd
000000f0: 2fc0 693d 192f 2e3a 6cdb 983c 57e0 b2bc
00000100: b161 973c 5e6e 813a 3fd2 6abd df20 8dbc
00000110: 42fb 043d 94e5 7b3d 6ab0 ac3b 6404 1cbc
00000120: 7538 273d abdb 623d 2bf6 2abd e89b e53c
00000130: 99d0 7bbd b810 2c3d a800 6dbc 2d10 0cbd
00000140: 18f9 cdbc ec3b 52bd 685d 4c3c 9970 fe3b
00000150: 2094 31bd 22a1 52bd 2b04 d93c bea5 ca3a
00000160: be1d 50bc 1b0a 99bc a405 adbc c85a 0dbd
00000170: 8f73 c6bd 981a ff3c 5213 893b 86f4 bbbd
00000180: d250 43bd d76b f5bc ac7d 4ebd 64d5 06bd
00000190: 198d 1dbb 279b 2abd 376e 20bd 2efd 113c
000001a0: b0ce ffbb 81ed 483d 0d23 35bd 6001 d0bc
000001b0: 838c cf3c 6c5b 8abc 70d1 fe3a 50ed 3bbd
000001c0: 8746 003c feed 0fbd dc47 d03c 86bf 0c3c
000001d0: 2b29 823c 6a81 82bd c18f 60bc 8040 9b3d
000001e0: 70b8 20bd 3b9e 42bd 91b0 40bc d2ce a13d
000001f0: 77e8 073d e0eb b2bc 4959 2cbd 5724 fd3c
00000200: b040 87bd 686f 5bbc 340e 29bd 7535 3d3d
00000210: c1bf 0b3d be29 89bd fdc2 50bd c3d1 41bd
00000220: 79d6 36bc a361 143c 62e3 0ebd 0d9f 5f3b
00000230: c89a 5e3d e744 1bbd 9807 c33d 679d 17bd
00000240: f817 76bc 32ad 7b3c 68f8 5ebd aff1 2f3c
00000250: 7b2a e0bc 8a64 73bc cb4b 4eb7 bd21 39bd
00000260: c0b0 98bd 6203 413d 6afb 08bd 9f51 fdbc
00000270: e656 95bd 5979 d23a 3f32 90bd 80ae 68bd
00000280: bf74 02bd ccb7 093b 41e1 253d 27e0 80bc
00000290: 121e e83c d581 38bd aa82 07bb bd4b b83c
000002a0: eab6 4e3d 6c15 fd3c d78c d9bc a1aa 593d
000002b0: 5d7c a6bb e781 28bd 8a32 cbbc d0e5 613c
000002c0: 89a4 993d d4cc 5cbd 3542 e83b a632 2abd
000002d0: 7022 a1bd 203a 19bd cdb1 633d 64f9 8dbd
000002e0: 0961 f43d 3d31 21bb 9e21 06bd f3ee 8dbc
000002f0: 6106 203b a550 843c ab3e 0dbb f0e3 7f3c
00000300: fe38 323c a903 d9bc 1487 64bd d02d 123b
00000310: e273 39bc 208c 03bc 75eb 4cbb d25b d2bb
00000320: 6eaf 49bc c333 0bbd d535 9c3c c5a2 56bd
00000330: f42e 1d3d 00d1 873c dcd6 07bb b4a8 07bb
00000340: e9a8 e73c 1082 6e3d 51ae 7cbd 10a4 533d
00000350: 8eb5 1dbc d442 7a3c fd67 a83d 3242 b73d
00000360: 9440 f33c 3a47 453c 7665 8c3d e2f0 963d
00000370: 935f 993c 4e22 653d 04cd 97bd 1b51 16bc
00000380: 9b78 6bba ea62 183d c557 423c a5f8 ca3c
00000390: 2e59 f1bb 8924 0dbd 4b26 2fbc 2be0 ffbb
000003a0: 2452 903d 50b6 c03b f24a c3bc ddea 9abb
000003b0: f15a 983b ccc2 d1bc 8ea1 34bc 6cbd c93c
000003c0: ed15 f4ba 17ee 6c3a 99b7 ecbc 2f71 e1bc
000003d0: af8e 0ebd 1fe8 613b 1ad7 6b3d 168d 3f3d
000003e0: 2cc1 ddbc 5225 05bc 6780 bb3b 457b 9abd
000003f0: a45a 0dbc e940 c83d e1b5 ae3c a6e9 8abc
-0.031128777 0.039024543 0.031077284 -0.0647266 0.05355176 0.11824245 0.026611628 0.031850733
0.008051899 -0.03357732 0.00034063915 0.06549387 0.021190563 0.020528575 -0.031116264 0.03393308
-0.04894361 -0.024466619 -0.007324399 -0.012983182 -0.01768767 0.03127397 0.0439519 -0.04404665
0.0023042513 0.02504636 -0.031677023 -0.004725805 -0.013591702 -0.020366445 -0.036538046 -0.022545889
0.023176774 -0.063317224 -0.004003315 -0.002440775 -0.014823449 0.086862735 -0.016922964 -0.0013467261
-0.052340016 0.0041633775 -0.043492544 0.08909857 -0.0005683586 -0.029633071 0.0063443757 -0.031060312
0.03239062 0.027240956 -0.034465473 -0.019181736 -0.07788476 -0.015421065 -0.02869386 -0.04212017
0.027213823 -0.017531523 -0.020160297 -0.06714288 0.057068046 0.00066445913 0.018659316 -0.02183549
0.0184792 0.0009874811 -0.057329413 -0.017227588 0.03246618 0.06149824 0.0052700536 -0.009522531
0.040825326 0.055385273 -0.04173867 0.028028443 -0.06147823 0.04200813 -0.0144654885 -0.034195114
-0.025143191 -0.051326677 0.012473442 0.0077648875 -0.043354154 -0.0514232 0.026491245 0.0015460772
-0.012702404 -0.018681576 -0.021120854 -0.034510404 -0.0969001 0.03114061 0.0041832114 -0.091774985
-0.047684498 -0.029958649 -0.05041282 -0.03291835 -0.00240404 -0.04165187 -0.03916761 0.00891046
-0.0078066215 0.049054626 -0.04422288 -0.02539128 0.025335556 -0.016889296 0.0019441079 -0.045880616
0.007829315 -0.035139076 0.02542489 0.008590585 0.015888771 -0.0637234 -0.013706149 0.07580662
-0.039238393 -0.04751418 -0.011760847 0.07900776 0.03318068 -0.02184099 -0.042077336 0.030901117
-0.06604135 -0.013393261 -0.04127331 0.04619356 0.034118418 -0.06697415 -0.050967205 -0.047319185
-0.011159533 0.0090564815 -0.034884818 0.0034121901 0.05434683 -0.037907507 0.09522933 -0.037015345
-0.015020363 0.015361117 -0.054436117 0.010738774 -0.027364006 -0.014855513 -1.2296204e-05 -0.04519819
-0.074555874 0.047122367 -0.033442892 -0.030922709 -0.07291965 0.0016057893 -0.07040834 -0.05680704
-0.03184962 0.0021014092 0.040498022 -0.015731884 0.028334651 -0.045045692 -0.0020677247 0.022497052
0.05046741 0.030894004 -0.026556415 0.05314124 -0.005080743 -0.04113951 -0.024804372 0.013787702
0.07502086 -0.053906277 0.0070879706 -0.04155221 -0.078678966 -0.037408948 0.055589486 -0.06932333
0.119325705 -0.0024595999 -0.032746904 -0.017325854 0.0024417865 0.016151736 -0.0021552246 0.015618309
0.010877846 -0.026491003 -0.055792883 0.0022305138 -0.0113191325 -0.008029014 -0.0031268273 -0.0064196372
-0.012309892 -0.03398491 0.019068638 -0.052401323 0.038374856 0.016579151 -0.0020727431 -0.002069992
0.028278785 0.058229506 -0.06168968 0.051670134 -0.009625806 0.015274722 0.08222959 0.08948173
0.02969388 0.0120409075 0.0685529 0.073701635 0.018722331 0.05594092 -0.074121505 -0.0091746105
-0.000898251 0.037203707 0.011861746 0.024776766 -0.0073653674 -0.03445867 -0.010690282 -0.0078087053
0.07046917 0.0058811083 -0.023839448 -0.004727705 0.004649513 -0.025605582 -0.011024846 0.024626456
-0.0018622257 0.00090381637 -0.02889614 -0.02751979 -0.034804042 0.003447063 0.057578184 0.04676541
-0.02706965 -0.008126574 0.005722094 -0.07543043 -0.008627567 0.09778006 0.021326961 -0.016957115
