Assets/Model/ChaseMode0523.onnx (onnx, 78157 bytes, 9 tensors)

action_model._continuous_distribution.log_sigma f4 [1, 2]
000000 7c c0 94 3d 9d 62 1e 3e
       0.07263276 0.15467305

action_model._continuous_distribution.mu.bias f4 [2]
000000 0c c7 37 3a 04 02 df 38
       0.00070105563 0.00010633844

action_model._continuous_distribution.mu.weight f4 [2, 128]
000000 47 2e 32 bc 67 8d 11 3b df 75 ba bb 63 d0 bf 3c
       -0.010875291 0.0022209527 -0.005690321 0.023414796
000010 bf da 9c 3b e7 54 91 3c f2 fc 6a 3c 10 8b d7 bc
       0.0047868188 0.01774068 0.014342533 -0.026311427
000020 66 b7 51 bc 63 8e 7e 3c b1 89 2d bc 7b bc a7 bc
       -0.012800073 0.015536877 -0.01059191 -0.020475617
000030 7f 44 c3 3c c0 1e 79 bc 9c f9 d2 ba 7c 1c e9 3b
       0.023836372 -0.015205085 -0.0016096118 0.0071139913
000040 dc 0a 93 3c 9b 8b a2 bc 98 63 d0 3c dc 15 95 bc
       0.017949514 -0.01984196 0.025438115 -0.0181989
000050 21 30 c4 bc 80 71 3d bd 92 55 a4 3b bb 14 40 3c
       -0.02394873 -0.04625082 0.0050150836 0.0117236925
000060 e9 30 d9 3b bf f9 b6 3c 7f dd 08 3c 6e 7d d8 bb
       0.006628145 0.022335885 0.00835359 -0.0066067493
000070 28 6d 01 3c c4 2e 89 3c 28 a0 8a 3c cb de ba 3c
       0.00789956 0.016745932 0.016922072 0.022811314
000080 fd 71 df bb e7 bf d3 3b e5 f2 ef 3b 9f 35 d0 3a
       -0.0068190084 0.0064620855 0.0073226565 0.0015885121
000090 34 5c 40 3b 3d 46 0e bd 65 fe ba 3b 7d b7 ce 3c
       0.0029351832 -0.034734953 0.0057065957 0.025233978
0000a0 78 c1 d0 3c eb 3d 60 ba 13 8f c9 3b a6 0d 3c bc
       0.025482878 -0.00085541484 0.006151089 -0.011477863
0000b0 55 ed 8e bb cf d8 18 3b f8 c9 16 ba eb 15 a7 bc
       -0.0043617883 0.0023322587 -0.00057521416 -0.020396193
0000c0 be d6 bb bc 9a 64 4e bc d1 56 96 bc 11 c8 60 bc
       -0.022929545 -0.0125972275 -0.018351944 -0.013719575
0000d0 dd 0b a0 bc 6d 6b 8b bb 23 fb 0b bb 39 89 85 bc
       -0.019536907 -0.0042547495 -0.0021359406 -0.016300784
0000e0 9f 9d 4b 3c 84 10 ac 3c 3a 5b 3c bd 99 e2 44 3d
       0.0124277165 0.021003969 -0.045985438 0.048067663
0000f0 b1 dc 36 bc 48 4b 37 3c ca 66 a0 39 c2 e2 1a 3c
       -0.011161015 0.011187382 0.00030594162 0.009453477
000100 4b 6b 84 bc d9 a6 50 3c da 34 6f bc 2d 47 45 3c
       -0.016164443 0.012735092 -0.014600003 0.012040895
000110 ee f8 09 bd b9 58 be 3b c4 b9 9d 3b f5 05 41 bb
       -0.033684663 0.0058089164 0.0048134048 -0.0029453014
000120 1a cc bf 3c f4 2c d6 3b 45 e1 f1 3b 09 24 13 bd
       0.023412753 0.0065361205 0.0073815905 -0.035923038
000130 e1 af 7f bc 8e 43 b1 3c 16 80 c2 3c eb 6d 71 bc
       -0.015605898 0.021638658 0.023742717 -0.014735679
000140 de 7a 9f 3b 67 04 1d bc 99 f1 93 bd 8a ff 15 bd
       0.004866942 -0.009583569 -0.072238155 -0.036620654
000150 ef ae a4 3c 9d d9 e6 ba 6e f4 9e 3d e8 c9 15 3d
       0.020102946 -0.0017612461 0.07761465 0.036569506
000160 a8 1d 82 3a 80 2c 91 bb 0a 0f 48 3d 0e a7 8f 3b
       0.0009927051 -0.0044303536 0.048842467 0.004383928
000170 cc db 84 3d f7 59 cb 3c 4f b9 38 ba 9c 33 0c 3c
       0.064872354 0.024823172 -0.0007046656 0.0085572265
000180 f7 f2 f6 bb c7 42 3f 3b 18 05 d0 39 0a 1b 04 3c
       -0.007536288 0.002918409 0.00039676647 0.008063087
000190 1b d3 1d 3c a8 28 d0 3c 87 92 1b 3d bf 44 a1 bb
       0.009632851 0.025410011 0.037981536 -0.0049215253
0001a0 3b d7 b7 3b b5 de 32 3c 68 02 db ba aa 83 f7 3c
       0.0056103743 0.010917355 -0.0016709091 0.03021415
0001b0 53 d8 02 3c f9 32 9f ba 16 29 0f ba f0 f4 27 bd
       0.007986146 -0.0012145928 -0.00054611394 -0.041005075
0001c0 01 65 2a 3c 40 3f 29 3c dd db ae bc f6 cd 00 3d
       0.010400058 0.010330021 -0.021345073 0.03144642
0001d0 c2 33 a3 3c 5d 4b fc bc 91 dc 4f 3d d4 ba 31 bc
       0.019922141 -0.030797655 0.050747458 -0.010847766
0001e0 89 e1 59 bc 09 13 97 3b cc 09 b2 3b 4f 5c 76 bb
       -0.013298401 0.0046104235 0.005433297 -0.0037591641
0001f0 51 4d 66 bd ce ef 0b bd ee a5 ad 3c ab 7f 85 3c
       -0.05622608 -0.034164242 0.021197286 0.016296228
000200 63 f0 e2 3c 66 dd 44 bc 8f a9 6a bd 4e db 83 bb
       0.027702516 -0.012015676 -0.05729061 -0.004023946
000210 da 8b 08 bb a2 9a 5e 3b 69 06 a5 bc 45 63 0d 3c
       -0.002083531 0.003396668 -0.020144658 0.008629625
000220 ae 5c db bb 60 39 af 3b 0d 89 dd bc da fa 24 3d
       -0.006694398 0.005347416 -0.02704289 0.040278293
000230 00 09 9b bc 10 2a 91 3d 45 ee ba bc f8 c9 ad 3b
       -0.01892519 0.07088101 -0.022818694 0.0053036176
000240 dc 63 5d 3b 88 1c 42 3c eb 26 a8 3a 9f db bb 3c
       0.0033781445 0.011847623 0.0012828981 0.022931872
000250 1c 62 5e bb 5e 29 5e bc 0c 31 85 3b 2d db d9 bc
       -0.003393299 -0.013559667 0.0040646847 -0.026593769
000260 5f c7 70 3b f9 68 9c bd 20 ee 26 bc 6e af 18 3c
       0.0036739928 -0.076372094 -0.010188609 0.009319169
000270 b9 d0 68 bb 05 04 e3 bb ff 2d 90 ba 99 de d6 bb
       -0.00355248 -0.0069279694 -0.0011000036 -0.0065572974
000280 54 5e a7 b9 40 8f 67 bc df 01 0c 3d b2 e8 cb bc
       -0.00031923002 -0.014133275 0.034181472 -0.024891231
000290 27 d4 73 bd 53 64 17 bd 35 9a a7 3c 28 6e 45 3a
       -0.059528496 -0.03696091 0.020459274 0.0007531368
0002a0 74 eb cc 3c 30 80 79 b9 81 f0 d9 bc 96 6c 2e 3c
       0.025014617 -0.00023794244 -0.026603939 0.010646006
0002b0 f5 7e f0 ba 66 b9 29 bc 82 8c 4c 3c 42 4b b7 bc
       -0.0018348383 -0.010359144 0.012484672 -0.022374753
0002c0 eb de 07 3d 93 d8 f3 3b c1 0c 50 bc eb 06 a4 3c
       0.033171576 0.007441589 -0.012698353 0.02002283
0002d0 b8 52 90 3c 4a 8b 92 bc 2a 80 ab 3c 2e 9e a9 ba
       0.017617568 -0.017888684 0.020935137 -0.0012940818
0002e0 f2 25 86 bc 42 1f 45 bc 6f ce dc ba ba f2 36 bd
       -0.016375516 -0.012031378 -0.001684619 -0.044665076
0002f0 b3 e0 e2 bc 48 18 cd ba 0a 2a 6e bc eb 42 6c bc
       -0.027695036 -0.0015647495 -0.01453639 -0.014420251
000300 fe a6 d4 3c 2e 39 66 3c 2a bc 04 3c ae ff 5d 3d
       0.025958534 0.014051719 0.008101502 0.054198913
000310 aa d5 9d 3c 2b 3f 15 bc b5 24 14 bc 57 07 91 3c
       0.019266922 -0.009109299 -0.009041955 0.017703695
000320 dc 97 57 bb 04 b8 9d bb 77 ba 6b bc 90 f2 d3 3c
       -0.0032896912 -0.004813196 -0.014387718 0.025872499
000330 f2 6a 95 3c d6 1e b4 3c c6 66 a4 3c 7e ff 27 bc
       0.018239472 0.02198736 0.020068537 -0.010253785
000340 53 93 2a b9 0b dc 60 bc b7 93 57 bc 6f 54 b5 bc
       -0.00016267346 -0.013724337 -0.013157777 -0.022134988
000350 2e 63 47 3b fd 8b 27 3c 8b 57 68 bd 2f a6 1a ba
       0.0030424106 0.010226247 -0.056724112 -0.0005899397
000360 24 b6 59 3b 8f 3c 2a 3d 06 18 33 3d 4f eb 7b 3c
       0.0033220137 0.04156166 0.043724082 0.015375926
000370 ef 64 89 bc a3 e9 85 3d 27 5c b5 bb 78 87 70 bc
       -0.016771762 0.06538703 -0.005534667 -0.014680736
000380 06 92 f3 bb 4b 3f 33 3d 15 d1 d3 bc 9f 49 43 bc
       -0.007433179 0.043761533 -0.025856534 -0.011919408
000390 d7 b1 4e ba 34 99 40 3a 24 a7 33 3d 13 78 73 bc
       -0.00078847766 0.0007347048 0.04386057 -0.014860171
0003a0 05 5a 0a 3d 20 ec dd 3c bd 79 9a ba 76 1e ec bc
       0.033777256 0.027090132 -0.0011785548 -0.028823119
0003b0 05 c2 d4 bb 54 5e 7a 3b 41 01 22 3c 45 f5 b5 3b
       -0.0064928555 0.0038203197 0.009887994 0.00555292
0003c0 a5 7b ad 3b af 16 5c 3c 15 19 12 ba e3 79 9f 3b
       0.0052942806 0.013433143 -0.00055731955 0.004866825
0003d0 46 f0 94 3c cb ca a8 bc d8 ac 34 bd 6b 46 8d 3a
       0.018180978 -0.020604512 -0.04411015 0.0010778432
0003e0 d4 e9 0a 3c 0d 7e 95 bc 76 79 0e bc 5d 8d dc ba
       0.0084786005 -0.018248582 -0.008695951 -0.0016826798
0003f0 65 37 3b 3c c8 f8 15 3c 27 4f b0 bc 90 8a bf bc
       0.011426781 0.009153552 -0.021522118 -0.023381501

action_model._discrete_distribution.branches.0.bias f4 [2]
000000 6d 8f e4 ba 29 91 e4 3a
       -0.0017437764 0.0017438281

action_model._discrete_distribution.branches.0.weight f4 [2, 128]
000000 9b 91 3a bd 96 94 b9 3b 9f b6 19 3d f2 3f eb 3c
       -0.045549016 0.005663465 0.037527677 0.028717015
000010 d7 b3 91 bc a4 c0 4e 3b 01 8b c3 b9 12 0e 56 bd
       -0.01778595 0.0031547928 -0.00037296864 -0.052259512
000020 c8 77 5b bc e2 f5 da bc 26 9f ed 3a 36 5f 39 3c
       -0.013395257 -0.026728574 0.0018129095 0.011314204
000030 a2 fb ab 3c f6 dd 3c 3b 58 de 20 bc ec 5b 1e 3c
       0.020994011 0.0028818822 -0.009818636 0.009665471
000040 a5 7c e2 bc 1b 3a e6 3b a4 ef 29 3b 62 ca a5 bc
       -0.027647326 0.0070259697 0.002593019 -0.020238105
000050 53 c4 2a 3b 54 78 87 3c 41 60 ef 3a 8d ed 9b 3c
       0.002605696 0.01653687 0.0018262939 0.019034171
000060 86 75 e4 bb 1e 67 d6 3b bd d9 73 3c 9a 86 69 3c
       -0.0069720177 0.0065430542 0.014883456 0.014253283
000070 9c 73 06 bc 9b 4b 8c b9 df 18 d8 bb aa c8 7b 3c
       -0.008206274 -0.0002675921 -0.0065947617 0.015367666
000080 00 36 c0 bb 1b 30 d2 3a cd 28 df ba 9d 09 9c bb
       -0.0058658123 0.0016036065 -0.0017025709 -0.004761888
000090 5b 63 a7 3c 33 82 0e 3d 21 92 fb bc 2e 19 c0 bb
       0.020433119 0.034792136 -0.030709328 -0.0058623767
0000a0 90 50 97 bb b8 c1 f2 ba 0c 77 2b 3c 3c 45 02 bc
       -0.004617758 -0.0018520867 0.010465395 -0.007951077
0000b0 0d e4 3a 3c 82 a2 1f 3c 1a 07 ed bc b5 9c 58 3c
       0.011406911 0.009743335 -0.02893405 0.013220956
0000c0 fd 9e 75 bc d0 49 a7 3c fc 96 f8 bb b6 a0 fe bb
       -0.014991519 0.020420939 -0.007586358 -0.007770623
0000d0 50 b8 01 3c f3 e9 e6 3b 15 7f 88 bb 2e f6 34 3c
       0.007917479 0.007046932 -0.00416554 0.011045022
0000e0 d4 d2 e4 bb 5c 86 47 bc 1b 46 02 3d 5d 4b 90 3d
       -0.0069831405 -0.01217803 0.03180514 0.070456244
0000f0 38 a7 1a 3c ae ef 8c 3c 65 c0 08 3c f0 b6 3c ba
       0.009439282 0.017204132 0.008346652 -0.00071988907
000100 bf f8 6f bd 95 29 1d bb 35 9e ba 3c 4e 8b 11 3b
       -0.058586832 -0.0023981084 0.022780517 0.0022208276
000110 f3 20 19 bb 3e 77 34 bc 82 1a e0 3b 5e f4 13 3c
       -0.0023365587 -0.011014758 0.0068390975 0.00903043
000120 57 a9 9a bc 89 83 85 bb 53 25 ef bb f8 73 11 3d
       -0.018879576 -0.004074518 -0.0072981506 0.035510987
000130 0f 45 ad 3b ca bb 4b 3c 72 17 28 bb 35 27 2e 3c
       0.0052877734 0.012434909 -0.002564874 0.010629465
000140 c4 2c 92 3c 47 f3 0c bc 28 98 48 3c 92 07 b4 bc
       0.017843612 -0.008602924 0.012243308 -0.021976266
000150 61 28 2b 3c 2d 3d 76 bb ba b7 92 3d 62 90 60 bb
       0.010446639 -0.0037573085 0.07163949 -0.0034265746
000160 21 1a ac 3b 65 2c e2 3b 32 45 90 bd 81 bf 0e bc
       0.0052521382 0.006902265 -0.07044448 -0.00871265
000170 63 0f 32 3d fa 32 41 bd b5 41 f0 3a 8b ec a6 3c
       0.043471705 -0.047167756 0.0018330129 0.020376464
000180 37 1e 79 bc 00 37 80 3c 81 05 f0 3b eb 20 9b 3b
       -0.015204958 0.015651226 0.007324875 0.0047341487
000190 04 d2 5d 3b 0e 4a 20 bb ea 2b 7e bd 27 03 47 bc
       0.0033847103 -0.0024458203 -0.0620536 -0.012146748
0001a0 a4 4c a9 bb bd c0 9c 3b 35 de e9 bb d9 3e 3b bc
       -0.005166607 0.0047837184 -0.007137085 -0.011428558
0001b0 3f dd 9e bd ef 77 67 bc e6 7f 5c bc cf 39 60 bb
       -0.07757043 -0.0141277155 -0.013458228 -0.0034214144
0001c0 d4 0a 8a 3b 7a e2 b3 bc 2e 9b 34 3c 4d 94 e4 3b
       0.0042127166 -0.021958578 0.011023326 0.0069756866
0001d0 da 90 67 bb e1 d0 87 bc 9c 9f 10 3d cf 56 40 3c
       -0.003533414 -0.016579093 0.035308465 0.011739447
0001e0 cd d6 01 bc 60 0b 00 bb 76 6a 30 3c 29 5c 99 3a
       -0.007924748 -0.001953803 0.01076757 0.001170044
0001f0 bb 5d 13 bd 29 e6 62 3b 9c fc 18 bb 80 9b e9 3a
       -0.03597806 0.003462205 -0.0023343926 0.0017822832
000200 b2 97 31 3d af f7 a6 ba 6e 3b 2c bd 34 d8 e1 bc
       0.04335756 -0.001273861 -0.042048864 -0.027568914
000210 b2 7e e9 ba cc 6b 88 bc 9f 67 02 bc f9 8f 1a 3d
       -0.0017814247 -0.016652964 -0.0079592755 0.03773496
000220 66 90 22 3c eb 35 f3 3b 6b 1f 8b bc 0c db 4f 3c
       0.009922123 0.007422199 -0.016982755 0.012686502
000230 2a 23 1d bd 64 e8 72 3a 69 d9 68 3a cc 8a 20 bc
       -0.038363613 0.0009266196 0.00088824943 -0.009798717
000240 93 89 af bb 3f aa 20 3c 17 13 15 bb 2e 83 73 3a
       -0.0053569763 0.009806215 -0.0022746974 0.00092892617
000250 69 b4 fb bc 05 3d c8 bc 54 cf cd bb 6a 4b 0d bc
       -0.030725675 -0.024443159 -0.006280819 -0.008623937
000260 06 a4 81 bb ee f1 98 bb 46 77 71 bc dc 34 af bc
       -0.0039563207 -0.004667512 -0.01473791 -0.02138751
000270 f0 d0 9b 3c fa 66 9e bc 7d 76 a4 3c c6 81 32 bc
       0.019020528 -0.019336212 0.02007603 -0.010895198
000280 be f8 12 bb ae 10 0d bb 41 ec 22 3c c5 e2 2e 3b
       -0.0022426094 -0.0021524834 0.009944023 0.0026685458
000290 4f d8 06 bd c0 83 30 bd 5e c5 2d 3d 70 d5 71 bc
       -0.03292113 -0.043094397 0.042424552 -0.01476036
0002a0 2b 6e 88 ba 38 d9 53 3a 01 50 8d 3c 8b b2 f1 3b
       -0.0010408809 0.00080813793 0.017250063 0.0073760203
0002b0 8b 2e 2d 3c eb 95 df 3a 34 19 ea 3c de da 8e bb
       0.010570179 0.0017058229 0.02857647 -0.004359587
0002c0 3c 1d 3f 3b fc d7 c3 3b e2 da 2b bc 78 ed 9d bb
       0.0029161712 0.005976675 -0.010489197 -0.0048195682
0002d0 d8 dc ba bc 25 0c 40 3c 6a 20 9e bb 00 53 dc ba
       -0.022810385 0.0117216455 -0.0048256414 -0.0016809404
0002e0 2f 82 f7 3a 9d 04 d6 3c d3 b8 18 bd ca ee 76 bd
       0.0018883402 0.026125247 -0.037285637 -0.06028632
0002f0 3c fd 19 bb 2c d7 a0 ba 7d 20 e7 bc 70 c7 f7 bb
       -0.0023496887 -0.0012271157 -0.028213734 -0.0075616166
000300 34 f0 2d 3d 9c 05 4d bc 89 68 02 bd 0a fd bf 3b
       0.042465404 -0.012513544 -0.031837974 0.005859022
000310 18 00 9f bb ec 4c 05 bb 6f 78 ef bb 09 d8 83 3b
       -0.004852306 -0.0020340038 -0.007308058 0.004023556
000320 a3 f2 5a bb a0 ce 39 bb af dc 35 3c 78 57 d6 bc
       -0.0033408783 -0.0028351918 0.011099978 -0.026164755
000330 77 33 2f bc 12 cf 66 ba 0c cb 05 bc e6 81 1e 3c
       -0.0106934225 -0.00088046596 -0.008166086 0.009674525
000340 e4 7b f3 3b 15 f6 97 3c 62 ec 42 bc 86 06 aa 3b
       0.0074305404 0.018549958 -0.011897178 0.005188766
000350 41 f9 53 bc 8f 52 32 3c e7 63 82 bd 3f 19 05 bb
       -0.012937845 0.010883941 -0.06366711 -0.0020309237
000360 b5 53 93 bb 04 3c 88 bb 3d 4c b5 3d a0 d1 3d bc
       -0.0044960626 -0.004157545 0.08852432 -0.011585623
000370 53 2f d0 bc d4 84 72 3d 2f 58 32 3c 18 a9 a5 3b
       -0.025413191 0.059208706 0.010885282 0.005055558
000380 19 fe 50 3b 8e cd e5 3b 34 34 37 3c e2 9d 17 3a
       0.0031889735 0.0070130294 0.01118188 0.0005783719
000390 ef c4 44 3c b6 21 b0 bb 8e 18 ac 3d 07 99 c5 3c
       0.012009843 -0.0053751124 0.08403121 0.02412082
0003a0 89 c0 25 3a d4 05 1c bb 19 00 50 ba 9f 04 89 3c
       0.00063229405 -0.0023807185 -0.0007934585 0.016725836
0003b0 2d dc b4 3d 81 63 f5 bb eb 9f ca 3c c7 25 9e 3b
       0.08831058 -0.0074886684 0.024734458 0.0048262808
0003c0 44 2b c6 ba 31 55 51 3c fb 4a 63 3c 3d b7 8c bb
       -0.0015119095 0.012776659 0.013872857 -0.0042943046
0003d0 ed 18 40 3c e1 a4 22 bb 8d 3e 26 bd 47 77 5e 3a
       0.011724693 -0.0024817514 -0.040586997 0.00084864016
0003e0 85 83 2c bb db 67 e4 bb 66 bb 06 3a 12 b2 14 3c
       -0.002632351 -0.0069703883 0.0005139619 0.009075658
0003f0 76 90 62 3d a8 e3 08 3b 8b 35 94 3b e5 58 f0 3b
       0.05531355 0.0020887647 0.0045229844 0.007334816

network_body._body_endoder.seq_layers.0.bias f4 [128]
000000 5e 76 26 bc cf 25 3f bc e1 2e dd bb e8 39 46 3b
       -0.010160057 -0.011666729 -0.006749973 0.0030246917
000010 80 81 05 3c 0d 77 68 3d af c7 82 ba b7 74 36 3d
       0.008148551 0.05675416 -0.0009977723 0.0445449
000020 29 0a d9 bb 9f 49 e1 3c 3f f4 4d ba 56 44 90 bb
       -0.0066235256 0.027500926 -0.0007856525 -0.0044026775
000030 3e 23 07 ba fa 85 cf 3b bd c9 cc bb c1 9b dd ba
       -0.0005155093 0.00633311 -0.006249635 -0.001690738
000040 d6 4a ff 3b 23 cb 8c 3c 06 71 21 bc fc 10 72 3d
       0.0077909036 0.017186707 -0.009853607 0.05909823
000050 4d da e0 3a 27 5f 4d bc 42 69 a4 bb 3b 8e 29 3d
       0.0017154902 -0.012534893 -0.0050174305 0.041395407
000060 f5 9c 08 3c 19 1d 1e bb 46 80 af bc cd 1d ac bb
       0.008338203 -0.002412623 -0.02142347 -0.005252576
000070 eb 45 5a 3d cd cb 96 3c e0 96 c7 bb 77 b7 3e 3b
       0.053289335 0.018407727 -0.0060909837 0.0029101053
000080 9d c6 30 bb ff c0 cf 3c 2c 71 c5 3b ca 3f 43 3b
       -0.0026973851 0.025360582 0.006025454 0.002979266
000090 2b b1 8e bb c4 45 b2 bb 09 81 ef bb 98 bd 61 bc
       -0.004354616 -0.0054404456 -0.0073090834 -0.013778113
0000a0 7e bc da bb 48 1f 94 ba fa 92 57 bc 7d a1 c6 bc
       -0.006675302 -0.0011300826 -0.013157601 -0.024246925
0000b0 55 e6 3e bb 45 57 5d 3c 5d 47 98 3c 78 12 95 3b
       -0.0029128988 0.013509576 0.018588716 0.004549321
0000c0 32 47 55 bb a9 57 5f bb 12 f8 de bb cc c3 72 ba
       -0.0032543656 -0.003407935 -0.0068044746 -0.00092607434
0000d0 09 c8 28 bd 00 47 f8 bb fe 1a a5 bc fd b0 21 bb
       -0.041206393 -0.0075768232 -0.020154472 -0.0024672144
0000e0 e0 e9 25 bc ea e6 75 bb 57 ac 89 3c c7 17 bf bc
       -0.010126561 -0.0037521669 0.01680581 -0.023326768
0000f0 f2 81 a0 bb d2 64 73 3b a2 78 2e bc 89 92 cb bb
       -0.004898303 0.003713895 -0.010648878 -0.0062125367
000100 b1 65 1e 3d 8f 39 c1 bb f7 e1 3a bc 2b 29 eb ba
       0.0386712 -0.005896754 -0.011406413 -0.0017941346
000110 00 1a 0a 3d 8f af 21 bb e0 56 53 bc c4 8f 89 bb
       0.0337162 -0.0024671291 -0.012899131 -0.0041980464
000120 8d ba a3 bb d6 60 99 39 8c 1c 7a 3b 10 c4 8c bb
       -0.004996604 0.00029254582 0.0038163988 -0.0042958334
000130 d3 20 b1 3d 51 c3 30 bc fb d0 97 bb 81 c7 a5 bb
       0.08648839 -0.010788755 -0.0046330667 -0.005059183
000140 d6 7c 83 bc 54 ef 65 bc e8 53 d7 3c 73 61 de bb
       -0.016050737 -0.014034111 0.026285127 -0.006786519
000150 8e 57 85 bc 8f b4 82 bb d8 b2 37 3d 97 c1 4a bc
       -0.0162771 -0.0039888094 0.044848293 -0.012375257
000160 b2 f0 47 bb e4 4d 41 3c 0d 3f cb 3c b4 83 c1 bb
       -0.0030508456 0.011798356 0.024810338 -0.005905593
000170 b4 ca cc ba 29 61 80 bc d8 1f a0 39 41 00 c0 bb
       -0.0015624375 -0.01567133 0.00030541304 -0.0058594053
000180 96 54 38 bc 1a 3a 4f bc c9 86 96 3d ac 63 5a 3c
       -0.011250636 -0.01264813 0.07349927 0.013329428
000190 1c 95 a0 bb b5 05 ab bc f1 b5 04 3d 28 92 14 3d
       -0.0049005877 -0.020876745 0.032400075 0.036272198
0001a0 ee 7c 86 3d 39 26 8d bc b7 4a c7 3b a4 d0 2b 3d
       0.06566797 -0.01723014 0.0060819048 0.041947022
0001b0 fc a0 d6 3b fc a4 8e bb e8 92 31 3d a6 6d 28 bb
       0.0065499526 -0.0043531638 0.04335299 -0.0025700121
0001c0 28 e1 2a bc 97 4e 68 bc b8 78 84 3b be e1 8d 3d
       -0.010429658 -0.0141788935 0.004042711 0.069278225
0001d0 98 bc 15 3c 78 1b 20 bc 6f 58 92 3b 7f 26 72 bc
       0.009139203 -0.009772174 0.0044661085 -0.014779686
0001e0 5e d4 25 bc fa 56 75 3c c7 3c 8c ba 3b f8 85 bc
       -0.010121433 0.01497435 -0.0010699265 -0.016353717
0001f0 bc db 7e 3d 45 c0 19 3c fc e0 a7 bb b3 0e c9 3b
       0.062221274 0.00938422 -0.005123256 0.0061357855

network_body._body_endoder.seq_layers.0.weight f4 [128, 13]
000000 21 fe 14 be 3c 42 58 3e 48 5d 9b be d0 6f c5 bd
       -0.14550067 0.21119016 -0.30344605 -0.09640467
000010 5a 8e 99 bd 95 d1 20 3c cc 9a 58 be 84 3d 73 be
       -0.074978545 0.009815593 -0.211528 -0.23753935
000020 16 ab dc bc 9b 1d aa 3e 58 43 0d bd 6a 9a 22 bd
       -0.026937049 0.33225712 -0.034488052 -0.039698042
000030 08 71 da bd 7a 03 a5 3b d7 3d fb 3d a4 ec 49 3d
       -0.1066609 0.005035815 0.122676544 0.049297944
000040 ee 47 a5 be 2f 6d 69 3e 3e 25 03 be 8f 0c 91 be
       -0.3228144 0.22795556 -0.12807176 -0.28329894
000050 ad cc 8f 3e 22 a1 96 bd a7 a5 8b 3e a5 af 23 be
       0.28085843 -0.073549524 0.2727482 -0.15984972
000060 76 c9 87 3e c3 2b 3b bd 16 63 0f be fe 68 fc bc
       0.2652089 -0.04569603 -0.14002642 -0.030811783
000070 7e d5 0f 3c 74 4d a8 bd 45 80 c8 3d e6 a8 fc bd
       0.008778928 -0.08217898 0.097900905 -0.12336902
000080 10 17 24 3f b0 ef ba be f6 51 44 3e 65 ad 0d 3e
       0.6409769 -0.36510992 0.1917189 0.13835676
000090 7e de 67 3d 54 26 05 3e 2a 71 1b 3f cb 02 4f 3e
       0.05660867 0.13002902 0.6071955 0.20215909
0000a0 96 f4 3b 3f e3 99 4f 3e 7c 69 12 3f 5d 24 59 be
       0.73420084 0.20273547 0.57192206 -0.21205278
0000b0 86 26 bc 3e 04 81 9b be 58 f8 3e 3e 61 ce 5a be
       0.3674814 -0.3037187 0.18649423 -0.2136779
0000c0 e6 48 a7 3e 71 50 81 bd 0c 9e d5 bb a0 d7 6d bb
       0.32672805 -0.06314171 -0.006519085 -0.0036291853
0000d0 c8 db 6a be cc 39 10 be 4f 7f eb 3e 84 ec 90 3e
       -0.22935402 -0.14084548 0.45995566 0.28305447
0000e0 23 25 bd be 34 d6 15 bf 79 73 04 be 7b dd eb be
       -0.36942396 -0.58529973 -0.12934674 -0.46067414
0000f0 f5 4a 1c bd dd 36 08 be ca a0 47 be 49 75 ba be
       -0.038157422 -0.13302179 -0.1949493 -0.36417606
000100 99 0e c5 3e e1 69 a0 bc 21 07 2b be 36 bb f1 bc
       0.384877 -0.019581737 -0.16701938 -0.029508214
000110 86 69 a7 be e0 dd e6 3c 03 d6 f9 3d 84 66 94 3e
       -0.32697695 0.02818197 0.121990226 0.28984463
000120 c7 da c7 be 11 a9 2b be e8 70 d5 3e 08 f7 c8 be
       -0.390341 -0.16763712 0.41687703 -0.3925097
000130 c5 12 0a be 56 4e 8c 3e 9c 3b a9 be 38 76 91 be
       -0.13483723 0.27403516 -0.3305329 -0.28410506
000140 71 52 80 3e 59 09 a7 3d 59 4d ef 3d da 0a 0c bf
       0.25062898 0.0815608 0.11684675 -0.5470406
000150 27 1c 66 bc c9 89 4e 3d a5 b3 5e be 9f 65 e0 3e
       -0.014044798 0.05042437 -0.21748216 0.4382753
000160 7d 69 40 be 65 34 ee 3e e9 51 0c 3f 27 fe 36 be
       -0.1879024 0.4652435 0.54812485 -0.17870389
000170 a0 14 db 3e 3b ca 97 3c 2f 62 8e 3e 9c 82 73 bd
       0.42789173 0.018529048 0.27809283 -0.05945073
000180 be bb b8 3d ac a7 c0 be 04 70 f1 3d 0d 67 6f 3b
       0.09020184 -0.37627923 0.117889434 0.003652993
000190 d1 b1 14 be e0 7f 0b 3f bf 31 12 be f2 c8 f0 3c
       -0.14520957 0.54491997 -0.14276789 0.029392693
0001a0 27 94 d8 be 57 ce e1 be 4b a4 82 3e 21 e4 57 3d
       -0.4230053 -0.44102737 0.2551597 0.052707795
0001b0 18 a4 91 bd 33 9a fe 3d 43 31 42 be 66 d9 99 be
       -0.071113765 0.12431755 -0.18964104 -0.30048674
0001c0 f5 79 00 3e f9 67 89 3d e9 3b 07 be 43 5c 12 be
       0.12546523 0.06709284 -0.13206448 -0.14293008
0001d0 61 30 a4 be 28 24 b2 3e 1d f7 1a 3f 89 12 b4 3e
       -0.3206816 0.3479321 0.60533315 0.3517039
0001e0 f4 91 0e be bf d3 1e bd 79 3e e1 3e 87 d6 b7 be
       -0.13922864 -0.038776156 0.43992975 -0.3590586
0001f0 b1 ec 74 be d0 86 37 3e d4 c1 e1 be b5 ee a4 bd
       -0.23918416 0.1792252 -0.44093192 -0.08053342
000200 f3 1c 8f bd 23 e0 70 3e 26 e7 8e 3e 61 73 8c 3d
       -0.069879435 0.23523001 0.27910727 0.06857944
000210 b9 ef 54 3e 84 ab f1 be 30 2f 91 3d 5a 52 f8 bc
       0.20794572 -0.4720117 0.070890784 -0.030312706
000220 56 37 aa bd 9c 13 2f 3f bb a3 fc be 89 03 63 3e
       -0.08311336 0.68389297 -0.49343666 0.22169317
000230 42 2c cb bd ca e0 6f 3c c6 7c 3f be 45 fc c3 bd
       -0.09920551 0.014640996 -0.18699941 -0.09569601
000240 88 7e 19 be 77 e2 0f 3e 65 e9 54 bd 92 a4 3c 3e
       -0.14989674 0.14051233 -0.051980395 0.18422154
000250 03 f8 da be be ed a2 3c 13 0c d5 3d c5 e7 ea bc
       -0.42767343 0.019888755 0.104026936 -0.02867497
000260 35 ec fd be 85 78 a8 bc 4c f3 83 3e d3 11 52 bc
       -0.49594274 -0.02056528 0.25771558 -0.012821632
000270 0d 4f 29 be af 55 71 3e a4 56 8d bd 58 06 5c 3c
       -0.16534062 0.23567842 -0.06901291 0.013429247
000280 c1 d8 a2 3e 31 df 69 3d 9a f6 db 3e 2c 63 6d be
       0.31805995 0.057097618 0.4296158 -0.23182362
000290 11 c2 c2 3d e5 0e d5 3e 3e f5 85 3c 38 68 0e 3f
       0.095096715 0.41612926 0.016352292 0.55627775
0002a0 94 93 19 be 29 62 da be 55 40 ce 3d e9 56 d7 bd
       -0.14997703 -0.42653015 0.10070864 -0.10514624
0002b0 ed 05 0f bd 1e 3f 50 be e9 21 8a be f2 b2 9a 3e
       -0.03491776 -0.20336577 -0.26978996 0.3021465
0002c0 be 42 e5 bd 19 94 9f 3e dc c0 4d be 32 55 9a ba
       -0.11194371 0.31167677 -0.20093101 -0.0011774658
0002d0 e8 24 aa be 59 e1 b4 bd 85 f5 2f 3e 85 26 e4 bd
       -0.33231282 -0.08832044 0.17183502 -0.111401595
0002e0 c9 fc a4 be f8 fe 99 be 2c 07 ec 3e 7d 54 21 be
       -0.3222411 -0.30077338 0.46099222 -0.15754886
0002f0 e5 f7 54 bd 03 bb 72 be d2 08 01 3f 6c 74 c8 bd
       -0.051994223 -0.23704152 0.50404084 -0.09787831
000300 e8 d0 dd be 32 49 aa be 5a be 34 be 16 79 dc bd
       -0.43323445 -0.3325897 -0.17650738 -0.10765283
000310 4f 42 ac 3d ec 19 db 3e b5 f4 b2 3e 58 2c ad 3e
       0.08411085 0.42793214 0.34952322 0.33822894
000320 ee cf fd be 39 d3 49 3e c4 b2 32 bc 25 0a c8 ba
       -0.495727 0.19709481 -0.010906879 -0.0015261812
000330 5d a3 8b be 07 89 4e be ed 81 26 3d 6e 2b cc 3d
       -0.27273074 -0.2016946 0.04065125 0.09969221
000340 fd 76 97 3e 5a 87 9f 3e 41 52 06 3f 4b d3 11 bd
       0.29582968 0.31157953 0.5246926 -0.035601895
000350 9f 50 02 3e a8 5b f2 3e e9 48 93 3d 80 a7 f5 3c
       0.12726067 0.47335553 0.07191641 0.029987097
000360 70 5b 99 bc 83 9c 63 3e f3 72 b7 3c a1 e7 46 3e
       -0.018720359 0.22227673 0.02239368 0.19424297
000370 29 47 44 3f 00 09 41 bf 29 99 04 3e b4 f3 38 3d
       0.7667108 -0.7540436 0.12949051 0.04515429
000380 c0 fe 97 be 63 04 76 3e 05 36 1a 3d 9b 81 5f 3e
       -0.29686546 0.24025111 0.037649173 0.21826784
000390 fe 17 b8 3d 72 22 a1 3c d6 06 c9 3e 2e 06 dc bc
       0.08988951 0.019669745 0.39263028 -0.026858415
0003a0 26 9c 95 3e ad d6 83 ba d9 16 26 be 59 c5 75 bd
       0.29220694 -0.0010058485 -0.16219653 -0.06000266
0003b0 7c ab 81 bd 3c ed a5 bd f9 ec 10 bb 2f 11 c9 be
       -0.06331536 -0.081018895 -0.0022113903 -0.39270923
0003c0 57 ad 17 bd 58 bb a8 3e 93 a1 fa bd e7 71 b3 be
       -0.037030544 0.32955432 -0.12237849 -0.35047838
0003d0 e3 4f 89 bd 74 df d3 3d 35 96 e0 be e3 51 43 be
       -0.0670469 0.10345355 -0.438646 -0.19074206
0003e0 3c 7a bd bb f7 cc 75 3e a6 6e a1 3e 8d e6 c5 3c
       -0.0057823937 0.24003969 0.3152973 0.024157787
0003f0 5f c7 c1 be 3a de 6c 3e b8 8e 81 3a 19 55 2f be
       -0.3784742 0.23131648 0.0009884452 -0.17122306

network_body._body_endoder.seq_layers.2.bias f4 [128]
000000 7e 73 7a bc 38 4b d5 bb 0a 7f ea 3c b6 52 76 3d
       -0.015286325 -0.006509211 0.02862503 0.060137473
000010 dd 34 34 bc 20 9c 08 bb d6 be 28 bb 6f 53 b6 bc
       -0.010998932 -0.002084501 -0.0025748513 -0.022256581
000020 1a d7 bb 3a b0 15 3f bc f1 4f 69 bc 49 35 ee bb
       0.0014331073 -0.011662886 -0.014240251 -0.0072695357
000030 06 77 84 3c 46 8b 41 3c 0d 85 99 3a b0 d3 b8 bb
       0.016170036 0.0118129905 0.0011712626 -0.0056404695
000040 a7 1f 83 ba 39 c6 51 bb 39 fc ea ba 14 24 10 bc
       -0.001000394 -0.003200902 -0.0017927951 -0.008797664
000050 55 6f 07 3c eb 39 de 3c 18 d9 cc bb 49 1b 52 3a
       0.00826629 0.027127227 -0.0062514655 0.000801493
000060 61 d1 d0 3b 10 57 8a 3d 32 dc c0 ba 12 f7 c1 3a
       0.006372616 0.06754887 -0.0014714061 0.0014798364
000070 56 69 85 bb 39 3f 42 bb e6 46 24 3a db 43 d0 ba
       -0.004071395 -0.0029639734 0.0006266668 -0.0015889363
000080 74 aa 46 bb 9b 0d 85 bb c5 ec f7 bc 41 68 59 bc
       -0.0030314 -0.00406046 -0.030264268 -0.013269485
000090 b2 39 4d 3d d3 f8 3e 3d f7 34 10 bc 2a 3d f4 ba
       0.05010385 0.046624016 -0.00880169 -0.0018633951
0000a0 cf a4 cc ba ae 40 52 bb da 12 22 bb bf 42 6c bb
       -0.0015613082 -0.003208201 -0.0024730475 -0.0036050526
0000b0 b5 3d c6 bb 88 0b 84 3b c7 2e 63 3c f9 ee b9 bb
       -0.0060498365 0.004029695 0.013866133 -0.0056742397
0000c0 45 aa a8 bb 5e 89 01 bc 01 23 34 bb 0c f8 7b b9
       -0.005147251 -0.007906286 -0.0027486684 -0.0002402963
0000d0 b5 21 3a 3c 22 18 57 bb f1 79 25 bb ff 6e 19 bb
       0.011360575 -0.003282078 -0.0025249685 -0.0023412106
0000e0 5c f2 7e bb b4 fe 88 bb ea 20 32 3d 69 cd 6c 3d
       -0.0038901782 -0.0041807536 0.04348842 0.057813082
0000f0 fa c5 36 bb 15 bf 98 bb 96 d9 82 bb c9 76 2f bb
       -0.0027889 -0.0046614506 -0.0039932234 -0.0026773682
000100 14 41 51 bd 19 91 1a bb 6b 58 35 3c a5 b9 53 bc
       -0.051087454 -0.002358502 0.011068444 -0.012922679
000110 a9 8b 27 ba fc 0c 92 bb e4 1f b6 ba 63 6a f9 b9
       -0.00063913554 -0.0044571143 -0.0013895002 -0.00047572245
000120 f1 08 7a b9 7d d0 35 bb 57 23 80 bb 78 2a cb bc
       -0.00023845189 -0.0027742677 -0.003910463 -0.024800524
000130 b4 e8 5a 39 81 07 b0 bb b2 d6 b5 ba 3b 2f 03 bb
       0.00020876789 -0.0053719883 -0.0013873188 -0.0020017165
000140 dd b8 29 bb 92 66 40 bc 4f 96 c9 3c 5e 8e 89 3c
       -0.002589754 -0.011743205 0.024607806 0.016791519
000150 4a 7b 80 bb 87 c4 99 ba bb 72 e2 3d 32 bb 9d ba
       -0.003920947 -0.0011731543 0.11057039 -0.0012033938
000160 e0 3f ed bb 8e 76 f0 ba 0c 11 c0 3c 56 c3 1c bb
       -0.0072402805 -0.0018345879 0.023445629 -0.002392014
000170 10 8b 71 3d 7b d4 d8 bc 00 9b 16 bc 50 f4 d3 bb
       0.05897051 -0.026468506 -0.009192228 -0.0064683333
000180 28 b4 9d bc f7 d3 e1 b9 5e 15 a7 3a f4 ac 3f bb
       -0.019250944 -0.0004307327 0.0012747457 -0.0029247375
000190 1a 2c 75 bc da d5 7b b9 99 cd 4a bb 6d 2f 65 3c
       -0.014964128 -0.00024016891 -0.00309453 0.013988358
0001a0 c5 69 14 3c 3a ba 30 3c 66 fa 0a bc a1 c4 83 3b
       0.009058421 0.010786587 -0.008482551 0.0040212427
0001b0 e6 83 56 bd cb 85 93 bb 3b 6d 74 bd 42 dd f7 bc
       -0.052371882 -0.0045020333 -0.059674483 -0.030256871
0001c0 a2 b4 be bb 44 80 b8 bb de 71 91 ba 9d 64 fc bb
       -0.005819873 -0.005630525 -0.0011096557 -0.0077024237
0001d0 b3 8c ed b9 50 0e 9b ba 67 16 47 3d 0a 16 13 bb
       -0.00045308992 -0.0011829827 0.04860535 -0.0022443556
0001e0 8e 68 ea bb 4a d8 14 bb 82 16 37 bc 17 db 02 bc
       -0.007153577 -0.0022711926 -0.0111748 -0.007986805
0001f0 8a c7 2c bd b2 10 97 b8 bf 23 fb bb 68 b6 f5 ba
       -0.042182483 -7.203351e-05 -0.0076641734 -0.0018746378

network_body._body_endoder.seq_layers.2.weight f4 [128, 128]
000000 60 86 b7 bb ba 7d d2 bd 39 65 d5 3c b8 d0 a2 3c
       -0.0056007355 -0.10277887 0.026049243 0.019874915
000010 07 bf 89 bc e9 01 fa bd 6f 7a d4 bd f8 b0 dc bc
       -0.016814722 -0.122073956 -0.10374915 -0.026939854
000020 7b d2 b2 3c c8 56 19 3d 92 fc c1 bd eb 90 08 3e
       0.02182888 0.037436277 -0.09472002 0.13336532
000030 07 b7 cb bd 44 8a d6 bd c5 21 19 bd 8e f3 7d be
       -0.09947019 -0.10475591 -0.03738572 -0.2479994
000040 9a 1c a5 bd f6 a8 aa bd cf f7 0c 3e ac 02 ca 3d
       -0.08062096 -0.08333008 0.13766406 0.09863791
000050 b5 bd fa bd 0c bc f9 3b ba d0 e7 3c d6 a4 34 bc
       -0.12243215 0.007621294 0.02829777 -0.011025628
000060 4e 78 a8 bd b8 c3 db 3d 86 73 51 3d b9 8e d3 3b
       -0.08226071 0.1073069 0.051135562 0.006456223
000070 e2 c0 48 3d 03 0a 88 bd b9 a8 2e 3d cd f4 a7 3d
       0.049012072 -0.066425346 0.042641375 0.08200989
000080 ad 23 97 3b fc a6 0b bc 4d 1c 8a bd 47 f7 86 3d
       0.004612407 -0.008523699 -0.06743679 0.06590133
000090 44 7b 41 bc 97 e0 27 3d 55 47 6b ba 49 ca 79 be
       -0.011809174 0.04098567 -0.0008975168 -0.24393572
0000a0 40 4c 69 3a 78 f4 2c bd 1e 71 10 3e da 63 30 3d
       0.0008899607 -0.04222533 0.14105651 0.043063976
0000b0 35 64 c1 bd b9 88 1e be b2 08 5b be 87 a9 09 3c
       -0.09442941 -0.15481843 -0.21390036 0.008402235
0000c0 e1 a4 d5 3d 2b ec 12 bd 7b 83 c9 bc 7e 7f f5 bc
       0.10431839 -0.03586976 -0.024598828 -0.02996802
0000d0 3b 3d d5 3b 66 90 a4 bc db 2a b5 ba dc 9d fa 3d
       0.0065075434 -0.020088386 -0.0013821976 0.122371405
0000e0 ca 12 a6 3d ef 2e e4 bc 80 18 41 be 21 72 b5 bd
       0.081090525 -0.027854411 -0.18857002 -0.08859659
0000f0 dd f8 c1 3a da 1f 60 3d c6 85 52 3d 72 e7 d6 bb
       0.0014798898 0.054717876 0.051397108 -0.006558352
000100 bf c8 38 3e 64 75 c2 3d 6e 74 73 3a 59 ee 8f 3b
       0.18045329 0.09495047 0.0009287064 0.004392427
000110 a1 bb 45 3d 15 b1 1e 3d f0 30 72 be 87 33 77 3d
       0.04827464 0.038743097 -0.2365148 0.060351875
000120 04 3e 35 be 9a c5 c6 3b 99 54 23 3d 02 d6 2d bd
       -0.17699438 0.0060660364 0.0398756 -0.042440422
000130 06 a8 34 bd ba 07 ff 3d 4a 36 49 bd ab 06 12 be
       -0.044105552 0.124526456 -0.04912404 -0.14260356
000140 84 75 97 bd a2 9f b2 3d c8 19 e9 bb 68 73 25 bd
       -0.07395461 0.08721854 -0.007113669 -0.040393263
000150 5a b4 0c 3d a8 9c be 3d c7 eb f7 bb 35 00 4c bd
       0.034351684 0.093072236 -0.0075659486 -0.049804885
000160 59 5e 47 3c be 23 c4 3b 99 c6 b6 bd 5e 55 ea ba
       0.01216849 0.005985706 -0.08924598 -0.0017878225
000170 45 b8 fd bb fd 5e 21 3e 19 7d 13 bb 48 cb bc 3d
       -0.007742914 0.15758891 -0.0022504984 0.0921846
000180 8d 28 54 be c0 c9 08 be 4c 08 15 be 3a 56 0a 3d
       -0.20718594 -0.13358212 -0.14553946 0.03377364
000190 16 3a 4d 3e ee 25 26 3d 5a ff 40 3d d0 4c 40 bd
       0.2004169 0.040563516 0.047118522 -0.046948254
0001a0 44 4a 5d bd 5e f6 5a bd 52 03 8e bd d2 d0 4c 3d
       -0.054025903 -0.05345761 -0.06934227 0.050003834
0001b0 d4 64 e4 3b b3 d3 23 3c 7f b4 39 bc 5c 9b d0 bc
       0.0069700275 0.0099992035 -0.0113345375 -0.025464706
0001c0 26 d9 62 be d5 4c 60 3b 7d 83 85 3d 70 7c e7 bd
       -0.22153148 0.0034225483 0.0651922 -0.113030314
0001d0 6d ee eb 3a 24 f2 98 bd 9f 56 f4 bd c7 ee 2f 3d
       0.0018000134 -0.0746806 -0.11930584 0.042952325
0001e0 92 10 8c 3c 29 1f 5a 3d 60 15 3e 3d 15 f0 5b bb
       0.017097745 0.053252373 0.046407104 -0.0033559848
0001f0 ca 1d 89 bd dd 35 cf bd 68 24 20 3d cd 0a e8 3b
       -0.06695135 -0.101176955 0.03909722 0.0070813657
000200 0d 8b b0 3d 58 f2 14 3b fa 40 dd 3c 1b c3 c1 3d
       0.08620272 0.0022727456 0.027008522 0.094610415
000210 39 34 d1 bd b8 e8 e4 3c 91 73 33 3d b4 3d d2 3d
       -0.10215039 0.027943 0.043811385 0.10265675
000220 b0 04 e0 bc 56 56 a7 bd b9 95 78 3d de 31 03 3e
       -0.027345985 -0.08170764 0.06068966 0.12811992
000230 eb 7a a6 3d 48 e5 6d bd 2d 0c 12 3d 93 c1 c6 3c
       0.081289135 -0.058079988 0.035656143 0.024262225
000240 28 78 ce 3d 59 1d 3b 3d be 3f 79 3d 40 70 03 bc
       0.10081512 0.045682285 0.060851805 -0.008022368
000250 72 91 30 be 99 c1 dd bb 79 06 55 bc ff 7f f7 bd
       -0.17242983 -0.0067674634 -0.0130020315 -0.1208496
000260 46 05 1f 3d 35 8b 74 bd 19 cb 26 3e 22 78 48 3d
       0.03882339 -0.05970307 0.16288413 0.048942693
000270 79 e7 87 bd 58 43 23 bb b7 7e 2b 3c 72 9a 47 3d
       -0.06635947 -0.0024911966 0.010467223 0.048731275
000280 e4 88 a2 bb 00 ec 71 3d 72 71 34 3e e6 91 cc bd
       -0.0049601663 0.059062958 0.17621401 -0.099887654
000290 f5 b6 60 3c b2 e6 ca bd 04 75 b5 3d 8d eb dc 3d
       0.013715495 -0.09907283 0.088602096 0.10787115
0002a0 65 ff ab 3d 4c 2b 5d bd 34 4c d9 3d ad a2 8d bd
       0.08398322 -0.05399637 0.10610238 -0.069157936
0002b0 e3 24 c9 bd cf 0e 93 be 2e 8d 40 3e ce fd 12 3e
       -0.09821489 -0.28722236 0.18803856 0.14354631
0002c0 16 53 53 ba d8 4b 3d bd 2b b1 9e bd fd 0a 9c bd
       -0.0008061392 -0.04621491 -0.07748636 -0.07619283
0002d0 99 29 95 3c 02 e3 f6 3d c3 86 d8 bc 3b 46 07 be
       0.018208312 0.12055017 -0.026431447 -0.13210385
0002e0 76 c4 14 3d 27 29 fb bd dd 8b 96 3d ba 8d 67 bd
       0.036320172 -0.122637086 0.073508956 -0.056531645
0002f0 b9 db 43 3d 47 83 1c bd f6 2a 82 bd 3b 1d 8a ba
       0.047816966 -0.038211133 -0.063558504 -0.0010537276
000300 55 33 69 be f0 89 57 3d 56 c0 07 3e dc 7e 33 3d
       -0.22773488 0.05262178 0.13256964 0.043822154
000310 c0 f0 44 3d de a6 c0 bd 64 e7 a2 ba 09 bd 26 3e
       0.04808116 -0.094068274 -0.0012428579 0.16283049
000320 95 0b 9b 3d ea 4f 6b 3c 79 43 3a 3d 94 45 82 bc
       0.075705685 0.014362315 0.045474503 -0.015902318
000330 79 73 45 bd 91 7d 46 bd 10 15 b5 bc 2b 92 33 bd
       -0.048205826 -0.048459593 -0.02210477 -0.04384057
000340 12 24 5f 3d c2 ba 83 3d 15 16 42 be 60 b0 71 3d
       0.05447776 0.064321056 -0.18953736 0.059006095
000350 6b d7 cd bc db e5 2d 3c 98 36 24 be ed a9 43 3d
       -0.025127133 0.010613884 -0.16036451 0.047769476
000360 69 11 49 3d 68 b4 72 bc c8 f0 47 bd fb ba a1 3d
       0.04908887 -0.01481352 -0.04881361 0.07896992
000370 43 8d 33 3d 78 46 91 3c 87 fc d2 bd 53 6c 52 be
       0.04383589 0.017733797 -0.10302072 -0.20549135
000380 59 cd a9 bd 71 3d 2f 3b 4b a2 0e be ed 6d d6 bd
       -0.0829112 0.0026739503 -0.13929097 -0.104701854
000390 46 53 84 3c dc dd d1 bd e1 1c 07 3b 64 6b 19 3e
       0.01615299 -0.102473944 0.0020616578 0.14982373
0003a0 74 cc 3f be 11 2c 42 bd f5 d6 2b 3b 79 3b fd bd
       -0.18730336 -0.047405306 0.0026220654 -0.12364859
0003b0 ed 54 4f 3d 4e a2 4c 3d 37 23 de bc 73 c7 90 bd
       0.0506181 0.049959473 -0.027116401 -0.07069292
0003c0 2e 3f 01 3a 9a 36 f0 3d c3 66 8b 3d 84 42 b9 bc
       0.0004930374 0.117291644 0.068067096 -0.022614725
0003d0 42 29 2b bd 31 fa f9 3d 07 8a b2 3d 91 08 08 bd
       -0.041787393 0.12205923 0.08717733 -0.033211295
0003e0 d4 b7 b3 39 d2 07 d0 bc da 45 c8 bb ba 80 42 bc
       0.00034278503 -0.025394354 -0.0061118426 -0.011871511
0003f0 49 52 eb bc 42 f5 80 bd 4b 6b 8b 3d 47 e0 ab bc
       -0.02872576 -0.06296779 0.06807574 -0.020980967
