Assets/Model/ChaseMode0524.onnx (onnx, 293275 bytes, 13 tensors)

action_model._discrete_distribution.branches.0.bias f4 [3]
0.07682288 -0.07037179 -0.0125904465
00000000: 5055 9d3d 161f 90bd 2948 4ebc

action_model._discrete_distribution.branches.0.weight f4 [3, 256]
-0.032118596 0.03511032 0.11396541 0.2625088 -0.0044498867 -0.13672477 0.17147595 -0.016308986
-0.01060546 0.13347644 0.0074245194 -0.0509587 0.06857453 -0.14820181 -0.12633328 0.07756115
0.14629069 0.015707694 -0.038031634 -0.023894321 0.15456058 -0.12656927 -0.1793296 0.027268736
0.05462764 0.13406196 -0.032052208 -0.031874828 0.03240376 -0.10289124 -0.07327781 -0.0506296
0.09668867 0.012231051 -0.120011136 0.03175875 -0.17254907 0.24768165 0.0948058 0.062549725
0.06942584 -0.045218226 0.016784655 0.060025502 0.09530398 0.114892446 0.17486134 -0.0073262565
0.08451308 -0.04222166 0.016211048 0.077428676 0.114237785 -0.028850354 -0.0050712023 -0.06366994
0.08606433 -0.053754754 -0.023054773 0.12673196 0.062219422 0.28392223 0.1522831 -0.021349756
0.061878003 -0.047080304 0.118855126 0.06619631 0.09624543 -0.0047311345 -0.002082401 0.097373694
0.17651133 -0.00030562954 -0.059329763 0.19325884 0.0725308 0.030132359 0.11180641 0.16519855
-0.005640064 -0.06273918 0.18969412 -0.046920344 0.04520836 -0.038315527 0.050863378 -0.040356778
0.07855738 -0.10935229 0.1417864 -0.06253667 0.02729291 0.011575096 -0.0056656264 0.05948165
-0.088605925 0.16885452 0.15445895 -0.12233728 0.064182825 -0.035593294 0.11442869 0.01951559
0.08246971 -0.059083153 0.03779887 -0.001529958 0.09383328 -0.045970216 0.24320264 -0.011715593
-0.013724411 -0.047399774 0.05720001 -0.03252914 0.13332136 0.12549427 -0.13005182 -0.100568466
0.19583924 0.027025424 0.00069653476 -0.052421756 -0.0019189375 0.05932355 -0.004138747 -0.01752671
-0.05016356 0.0025686221 -0.008104616 0.14901952 -0.15780187 -0.018134464 0.05520963 0.11160651
0.1493735 -0.014365645 -0.008482343 -0.09551949 0.09404211 0.076266706 0.16719311 -0.1347031
0.04970933 -0.026723491 0.17051151 0.08090288 -0.0932569 -0.030499509 -0.108743235 -0.055542625
0.13260375 0.06191406 -0.03020997 -0.13424012 0.056079578 -0.111768596 0.17683835 0.1656669
0.08112619 0.04651369 0.07479325 0.023531657 -0.06525139 -0.04929012 0.033655375 0.10465468
0.13831879 0.059992317 0.081181414 -0.09252296 0.010627019 -0.07988994 0.07691066 -0.0010925804
0.0069030146 -0.13140666 0.0030029062 -0.0719522 0.059870716 0.15754262 -0.02423215 -0.03104151
0.10558989 -0.009530965 0.065980665 -0.030872867 0.031203358 0.04478489 -0.05305105 -0.09015083
-0.082337685 -0.02807897 0.007146244 -0.05170642 -0.013305857 0.020520737 0.07255581 -0.13740608
0.081649095 0.037953317 -0.1430223 0.06200804 0.07959304 0.028569803 0.18333907 0.013859679
0.020578366 -0.023804303 -0.015411181 0.08660942 0.10173358 -0.12241155 0.099663064 0.06718126
-0.008729658 0.103193045 0.09086296 0.0050449274 0.057115246 0.13111354 -0.08649471 0.071715996
-0.11550603 0.008223922 0.042497374 -0.0699212 0.0117659895 0.10259103 -0.085099265 0.058544666
0.03126769 0.043963626 0.07119812 0.11089224 0.009438759 0.13439316 0.06347137 0.0058439514
-0.06396272 -0.024874303 -0.07768064 0.08914032 -0.076612785 0.053408455 0.0069281706 -0.001483519
0.12272783 0.06151393 -0.041257888 0.055153016 0.034022015 -0.0048569213 0.08521215 0.12581824
00000000: ca8e 03bd d7cf 0f3d b266 e93d 8e67 863e
00000010: 5bd0 91bb 9401 0cbe 6497 2f3e 6c9a 85bc
00000020: 86c2 2dbc 0cae 083e 6249 f33b 12ba 50bd
00000030: ce70 8c3d 37c2 17be 835d 01be 61d8 9e3d
00000040: 3acd 153e 6cad 803c 0fc7 1bbd 06be c3bc
00000050: 2145 1e3e 609b 01be 2ea2 37be af62 df3c
00000060: 3bc1 5f3d 8a47 093e 2d49 03bd 2e8f 02bd
00000070: ceb9 043d a4b8 d2bd ad12 96bd fc60 4fbd
00000080: b604 c63d bf64 483c 66c8 f5bd 7715 023d
00000090: b4b0 30be 42a0 7d3e 8b29 c23d 121a 803d
000000a0: 232f 8e3d bf36 39bd f97f 893c 4ddd 753d
000000b0: bc2e c33d bb4c eb3d da0e 333e 1811 f0bb
000000c0: 3215 ad3d 9ff0 2cbd 08cd 843c ed92 9e3d
000000d0: 80f5 e93d 9457 ecbc 542c a6bb 6365 82bd
000000e0: 7f42 b03d f22d 5cbd 5ddd bcbc 06c6 013e
000000f0: cbd9 7e3d 415e 913e 1af0 1b3e afe5 aebc
00000100: ca73 7d3d 47d7 40bd 516a f33d ee91 873d
00000110: 531c c53d a207 9bbb e478 08bb dc6b c73d
00000120: 63bf 343e e73c a0b9 c403 73bd a5e5 453e
00000130: 078b 943d 23d8 f63c c2fa e43d cf29 293e
00000140: 49d0 b8bb 667d 80bd 2d3f 423e 8c2f 40bd
00000150: 672c 393d bef0 1cbd 1e56 503d 264d 25bd
00000160: b1e2 a03d 18f4 dfbd 7430 113e 3a13 80bd
00000170: 6195 df3c 79a5 3d3c b8a6 b9bb 08a3 733d
00000180: 0677 b5bd 33e8 2c3e 7d2a 1e3e f88b fabd
00000190: 4972 833d 46ca 11bd 9759 ea3d 29df 9f3c
000001a0: e1e5 a83d 2d01 72bd fdd2 1a3d df88 c8ba
000001b0: aa2b c03d 444b 3cbd 1d0a 793e c2f2 3fbc
000001c0: 5adc 60bc 4426 42bd 8f4a 6a3d 473d 05bd
000001d0: 6585 083e 9281 003e 4e2c 05be d7f6 cdbd
000001e0: 158a 483e 6c64 dd3c a897 363a 32b8 56bd
000001f0: dc84 fbba 40fd 723d 549e 87bb 2d94 8fbc
00000200: 4e78 4dbd 5456 283b 39c9 04bc 9398 183e
00000210: d096 21be ba8e 94bc 7e23 623d f491 e43d
00000220: 5ef5 183e e25d 6bbc 86f9 0abc b99f c3bd
00000230: 2699 c03d b831 9c3d ac34 2b3e 9cef 09be
00000240: 039c 4b3d 39eb dabc 929a 2e3e 69b0 a53d
00000250: 79fd bebd 1bda f9bc c6b4 debd aa80 63bd
00000260: 47c9 073e 9999 7d3d e67a f7bc 3e76 09be
00000270: b3b3 653d efe6 e4bd 1d15 353e 95a4 293e
00000280: 7d25 a63d 2485 3e3d 342d 993d 76c5 c03c
00000290: 85a2 85bd 70e4 49bd 38da 093d 3155 d63d
000002a0: 71a3 0d3e 81ba 753d 7142 a63d ad7c bdbd
000002b0: f31c 2e3c 569d a3bd 5683 9d3d ea34 8fba
000002c0: af32 e23b 788f 06be 68cc 443b ad5b 93bd
000002d0: ff3a 753d da52 213e 8082 c6bc c44a febc
000002e0: 833f d83d c427 1cbc df20 873d 18e9 fcbc
000002f0: 2f9e ff3c 5c70 373d 0f4c 59bd 00a1 b8bd
00000300: a9a0 a8bd de05 e6bc 0a2b ea3b 1cca 53bd
00000310: cf00 5abc 1b1b a83c 2498 943d 2eb4 0cbe
00000320: a437 a73d f074 1b3d 7074 12be 24fc 7d3d
00000330: ad01 a33d 380b ea3c 3dbd 3b3e b513 633c
00000340: f693 a83c 3e01 c3bc 2e7f 7cbc 4860 b13d
00000350: b259 d03d e8b2 fabd 261c cc3d 5496 893d
00000360: d706 0fbc e056 d33d 5c16 ba3d eb4f a53b
00000370: adf1 693d a142 063e 2324 b1bd d6df 923d
00000380: 6d8e ecbd a1bd 063c ba11 2e3d d932 8fbd
00000390: 23c6 403c 3f1b d23d 8648 aebd 88cc 6f3d
000003a0: 8d12 003d 3413 343d 52d0 913d 791b e33d
000003b0: 06a5 1a3c 5c9e 093e 47fd 813d 9e7e bf3b
000003c0: e3fe 82bd 32c5 cbbc 0717 9fbd 338f b63d
000003d0: 2ae7 9cbd d3c2 5a3d b505 e33b a372 c2ba
000003e0: bb58 fb3d 08f6 7b3d 08fe 28bd 21e8 613d
000003f0: ab5a 0b3d cf26 9fbb b583 ae3d 7fd6 003e

action_model._discrete_distribution.branches.1.bias f4 [3]
-0.12691686 -0.09661724 0.20146601
00000000: 7ef6 01be 42df c5bd 1b4d 4e3e

action_model._discrete_distribution.branches.1.weight f4 [3, 256]
-0.13664354 0.011238645 0.13664435 0.04579141 0.09146405 -0.02837422 -0.08003486 0.07224588
-0.10545771 0.020887055 0.013986812 -0.1258669 -0.29114518 0.01967745 0.09913409 -0.04694938
-0.029227627 -0.110439084 -0.051516186 -0.332921 0.013476002 -0.13391118 -0.02327252 -0.035167415
0.06477935 0.057887543 -0.03770238 0.088381775 -0.009898353 -0.1647349 -0.06639264 -0.14564967
-0.020506088 -0.08449016 0.10309686 -0.2214534 -0.019413497 -0.0045621097 -0.083775096 -0.1449287
-0.05536622 -0.03197794 0.034048118 -0.06691949 -0.0016283898 0.10039872 -0.09018696 -0.06957779
-0.14519016 -0.025136003 -0.048011243 -0.027375048 0.026771205 0.10163658 -0.035156474 0.08967167
0.016990863 -0.22796997 -0.11554841 -0.1904454 -0.111113794 -0.024576347 -0.09886989 -0.025672738
0.034088712 0.048219603 -0.11498978 -0.14649802 -0.07437601 -0.10147345 -0.12854812 0.012264844
-0.05806675 0.027998483 -0.06306146 0.04886351 -0.18546383 -0.0069658775 0.022065524 -0.0090705
-0.038101926 0.02875469 0.070638075 -0.07395195 -0.024629477 0.0034642294 -0.06507066 -0.03764862
0.014935664 -0.043063994 -0.08155264 -0.105471216 -0.11989121 -0.040361796 -0.14093502 -0.20517203
-0.11639636 -0.083045594 -0.055579267 0.05350777 -0.17531815 0.0885942 -0.044137623 0.03840227
-0.049744993 -0.20396145 0.019510683 -0.07854155 -0.16208138 -0.069847226 -0.10990783 0.04771363
-0.05647684 0.017684817 0.016736804 0.014056377 0.017733146 -0.007500593 0.051811296 0.1408922
-0.12087578 -0.12603414 -0.13988586 0.062259212 0.015981257 -0.109075725 -0.04929585 0.00033715524
-0.08530879 0.07835016 -0.09365472 -0.15125962 -0.037573185 -0.33545622 -0.1898211 0.06949199
0.02270304 0.0394324 -0.13825876 0.026134826 -0.022336202 0.034013756 -0.056959007 0.082961924
-0.18409212 0.10976697 0.040398996 0.0060766 -0.052172996 -0.09999532 0.0440862 -0.07995302
-0.08599404 0.10215712 -0.09645744 -0.041441105 -0.0074072913 -0.097747274 -0.09514293 -0.04609087
-0.087679334 0.04359857 -0.27535608 0.024800438 -0.025521712 -0.08876114 -0.059115205 0.014542461
0.07574055 0.05224003 -0.052837435 -0.113206655 -0.23648766 -0.16018416 0.03797439 -0.07640336
-0.058303352 -0.05767956 0.06631886 -0.08356367 -0.019721122 -0.13906543 0.07952498 -0.022725606
-0.19334158 -0.047886975 -0.18923278 0.056677263 -0.02235227 -0.13639827 -0.1449604 -0.054197244
0.04761088 0.036536027 -0.21041611 0.02499406 0.00025929578 0.08099306 0.050847333 -0.032683842
0.02196017 -0.011504291 0.0032471644 -0.05071515 -0.022615995 0.018672979 -0.031743594 -0.15923747
0.061217595 0.12941012 0.06996423 -0.044399142 -0.15084939 -0.018046413 -0.08268187 0.0192414
-0.0065281275 0.045325566 -0.046072874 -0.009842942 0.01982347 -0.04669772 0.052166495 0.014822187
-4.073377e-05 -0.1386749 0.004829393 -0.033945538 -0.021328619 0.018894577 0.06807751 -0.050786488
0.0029778238 0.11277692 -0.13222794 -0.11992958 -0.15136024 0.004101334 0.0049039493 -0.090392865
0.043098804 -0.06396266 -0.033407893 -0.076811954 0.10793224 -0.15833606 0.0252822 0.11363509
-0.043608274 -0.035852093 -0.024677292 0.029451095 -0.2969261 0.053552974 -0.0534373 0.008028675
00000000: 49ec 0bbe 4b22 383c 7fec 0b3e c68f 3b3d
00000010: 8151 bb3d 0d71 e8bc 51e9 a3bd a6f5 933d
00000020: 36fa d7bd 541b ab3c f128 653c 41e3 00be
00000030: fb10 95be 9b32 a13c d006 cb3d fe4d 40bd
00000040: c76e efbc e32d e2bd a302 53bd 9f74 aabe
00000050: 73ca 5c3c 0320 09be 03a6 bebc b50b 10bd
00000060: 09ab 843d 7d1b 6d3d d06d 1abd 8101 b53d
00000070: b42c 22bc 44b0 28be ddf8 87bd 3025 15be
00000080: 62fc a7bc 2d09 adbd 7224 d33d aec4 62be
00000090: 0e09 9fbc c07d 95bb 4792 abbd 3068 14be
000000a0: b1c7 62bd 4dfb 02bd 0a76 0b3d 160d 89bd
000000b0: b26f d5ba d89d cd3d f1b3 b8bd cd7e 8ebd
000000c0: bbac 14be 05ea cdbc 70a7 44bd a341 e0bc
000000d0: 494f db3c d726 d03d 3c00 10bd c8a5 b73d
000000e0: 6c30 8b3c f670 69be a5a4 ecbd 1e04 43be
000000f0: a18f e3bd 5654 c9bc 4c7c cabd a24f d2bc
00000100: 9ba0 0b3d eb81 453d c37f ebbd 9403 16be
00000110: 7352 98bd 50d1 cfbd 1ea2 03be 7cf2 483c
00000120: 67d7 6dbd 135d e53c 5e26 81bd 1b25 483d
00000130: 3bea 3dbe 0442 e4bb c2c2 b43c 6f9c 14bc
00000140: c410 1cbd f58e eb3c b2aa 903d 1f74 97bd
00000150: c2c3 c9bc 2008 633b c443 85bd 7035 1abd
00000160: b7b4 743c df63 30bd 1205 a7bd 4b01 d8bd
00000170: 8689 f5bd 6952 25bd 4551 10be 9e18 52be
00000180: 3761 eebd cf13 aabd 16a7 63bd f72a 5b3d
00000190: 9a86 33be e070 b53d a7c9 34bd b34b 1d3d
000001a0: 68c1 4bbd 45db 50be ded4 9f3c 64da a0bd
000001b0: a9f8 25be 100c 8fbd 5b17 e1bd 5e6f 433d
000001c0: 4254 67bd c0df 903c 9f1b 893c b84c 663c
000001d0: 1a45 913c 89c7 f5bb 1538 543d 0b46 103e
000001e0: b98d f7bd 180f 01be 3d3e 0fbe 8403 7f3d
000001f0: 20eb 823c 1863 dfbd 72ea 49bd 36c4 b039
00000200: 60b6 aebd 0c76 a03d 0cce bfbd cde3 1abe
00000210: 57e6 19bd ebc0 abbe 7660 42be d151 8e3d
00000220: bafb b93c de83 213d b493 0dbe b418 d63c
00000230: 69fa b6bc 0252 0b3d d94d 69bd f1e7 a93d
00000240: a582 3cbe 81cd e03d 6b79 253d 371e c73b
00000250: 5ab3 55bd 59ca ccbd bb93 343d 69be a3bd
00000260: a51d b0bd c137 d13d 7a8b c5bd 26be 29bd
00000270: ddb8 f2bb b92f c8bd 4cda c2bd c8c9 3cbd
00000280: 3991 b3bd 6a94 323d 79fb 8cbe 4a2a cb3c
00000290: e912 d1bc 67c8 b5bd c922 72bd 8143 6e3c
000002a0: dd1d 9b3d a4f9 553d 116c 58bd e4d8 e7bd
000002b0: d229 72be 5107 24be 098b 1b3d 5d79 9cbd
000002c0: 7fcf 6ebd 6741 6cbd 2fd2 873d 6e23 abbd
000002d0: 318e a1bc 2b67 0ebe fedd a23d 0d2b babc
000002e0: 56fb 45be 2225 44bd 3dc6 41be 6b26 683d
000002f0: 1c1c b7bc fdab 0bbe 8070 14be eefd 5dbd
00000300: a003 433d cda6 153d 5277 57be 58c0 cc3c
00000310: 17f2 8739 b0df a53d 4b45 503d 7edf 05bd
00000320: d0e5 b33c 7e7c 3cbc 61ce 543b b0ba 4fbd
00000330: 2e45 b9bc 13f8 983c 9205 02bd 260f 23be
00000340: 4dbf 7a3d 1684 043e 6849 8f3d e0db 35bd
00000350: 4378 1abe 12d6 93bc 1d55 a9bd 24a0 9d3c
00000360: e7e9 d5bb 4da7 393d e9b6 3cbd 4a44 21bc
00000370: d464 a23c 1c46 3fbd 89ac 553d c2d8 723c
00000380: 8dd9 2ab8 cb00 0ebe e23f 9e3b 7a0a 0bbd
00000390: 5bb9 aebc cdc8 9a3c 396c 8b3d 7e05 50bd
000003a0: 9827 433b 96f7 e63d c366 07be a49d f5bd
000003b0: 2efe 1abe 7c64 863b 4fb1 a03b e51f b9bd
000003c0: 5f88 303d dbfe 82bd b7d6 08bd 964f 9dbd
000003d0: 940b dd3d d922 22be 9e1c cf3c 84b9 e83d
000003e0: 979e 32bd a5d9 12bd 0828 cabc 6c43 f13c
000003f0: b306 98be 5d5a 5b3d 12e1 5abd b48a 033c

action_model._discrete_distribution.branches.2.bias f4 [3]
-0.03994125 -0.044059727 0.066391215
00000000: 7099 23bd f977 34bd 1ef8 873d

action_model._discrete_distribution.branches.2.weight f4 [3, 256]
-0.029775146 -0.09860755 -0.025170758 0.040629428 -0.056862235 0.048803218 0.1496819 -0.021084841
-0.17669395 -0.06919009 -0.13512066 -0.058442958 -0.026598878 -0.007905736 0.046238605 0.17707568
0.021620156 0.05800123 0.056463256 0.09073394 0.085832834 0.025172735 -0.011704272 -0.06259592
0.010888059 0.0089432895 0.059332937 0.07360064 0.07049094 0.015509182 0.10391843 0.051756825
0.056037474 -0.1295535 0.02862482 0.048316095 0.082674935 -0.009574397 -0.074060105 -0.056206156
-0.04828445 -0.030578721 -0.012956113 -0.016367022 0.073521614 -0.061642095 -0.112191394 0.074129626
0.07980385 -0.06670024 -0.026986353 -0.023962565 0.021238131 -0.0014619686 -0.024810867 -0.02171088
0.12006506 0.054955937 -0.11544038 -0.047768947 -0.05974668 -0.01700512 0.08296915 -0.022414397
0.08675777 0.06441049 0.23419611 0.102835424 -0.027854264 0.053222824 0.08697892 0.09028594
-0.034885406 0.05083234 0.07497776 0.047286335 -5.0833965e-05 -0.1679062 -0.052291065 0.021607269
-0.041040596 -0.074605584 -0.13604786 -0.0043102144 0.048974585 0.023600183 -0.008559664 0.04097701
-0.16646238 -0.012015878 0.02946945 -0.022313096 0.17919834 -0.08237907 -0.009291657 0.04053242
0.15364021 0.05384252 -0.009673504 0.105886 -0.0710348 0.22552787 -0.048843637 0.06392475
0.002012323 -0.044544775 -0.07498426 0.053562652 -0.051884815 0.072096795 0.08686169 -0.07752159
0.06330589 0.025293622 0.051897515 0.083005525 0.056567643 -0.14617313 -0.13063069 0.103375085
0.049111325 -0.16203845 -0.06090554 0.07888425 -0.03796094 -0.054507084 -0.0007972873 0.00078874204
0.029180663 -0.08688802 0.07308829 0.05315704 0.08901251 0.016676147 0.12195968 -0.015482861
-0.15536286 0.02767749 0.05527265 0.04528007 0.10785961 -0.038311526 0.05391296 -0.02436612
0.088322885 -0.03792351 0.064768784 0.06092563 0.2502087 0.07860428 0.1611723 -0.005599581
0.076919846 -0.05117251 -0.0019279883 0.033435155 0.17472242 0.10842857 -0.025624411 0.031888768
0.053054992 0.15772429 -0.023788193 -0.09614728 -0.031942263 0.14343002 0.05151768 0.051818315
-0.07405598 0.09115477 0.008512738 -0.01953163 0.016780058 0.102516256 -0.07192786 -0.08142716
0.08664927 -0.08071327 0.06630712 -0.016446168 -0.09222151 -0.0060084607 0.07706759 0.01588899
-0.028418196 0.052700736 0.056295186 -0.0061536105 0.16948292 0.011274724 0.014919291 0.05025512
0.007003526 0.102177545 -0.0060768174 -0.069266886 -0.16351734 0.03850115 -0.1459251 0.0882092
0.0857229 -0.08667988 -0.013809358 0.0023390886 0.021939354 -0.050801508 0.1302576 0.12647653
0.10208609 0.09523715 0.08671727 -0.096975915 -0.08367315 0.02222163 0.028666029 0.0808878
-0.11655772 0.108566664 0.03958059 0.102462925 0.055242155 0.0085320715 -0.02160428 0.1846125
0.082378656 0.077731065 0.05158424 0.013008223 -0.115435235 0.1338673 0.06968583 0.1411273
0.06112322 0.076989315 0.13924974 0.05659023 0.0663567 0.09239518 -0.11348517 -0.019255793
-0.17709175 0.113316104 0.08663034 -0.059088837 0.070960104 0.15125336 0.052713495 0.015753457
-0.06407333 0.051372968 -0.06789321 -0.06985489 0.13615847 -0.027850457 0.01977177 0.2938802
00000000: 02eb f3bc c1f2 c9bd e832 cebc 0b6b 263d
00000010: 60e8 68bd e2e5 473d 3646 193e 1eba acbc
00000020: 42ef 34be 89b3 8dbd 125d 0abe e261 6fbd
00000030: e4e5 d9bc 0f87 01bc b164 3d3d 5453 353e
00000040: c11c b13c b392 6d3d 0446 673d b7d2 b93d
00000050: 20c9 af3d 0d37 ce3c 46c3 3fbc 4a32 80bd
00000060: d463 323c e086 123c 1807 733d efbb 963d
00000070: 8e5d 903d 391a 7e3c 30d3 d43d f7fe 533d
00000080: 8d87 653d aca9 04be 997e ea3c 19e7 453d
00000090: 7a51 a93d eedd 1cbc d3ac 97bd 6d38 66bd
000000a0: eac5 45bd 3a80 fabc e045 54bc 2214 86bc
000000b0: 8092 963d 6c7c 7cbd 9ac4 e5bd 46d1 973d
000000c0: 3370 a33d 239a 88bd 7c12 ddbc 244d c4bc
000000d0: 97fb ad3c 879f bfba 2940 cbbc 04db b1bc
000000e0: ace4 f53d 7a19 613d 026c ecbd 5fa9 43bd
000000f0: efb8 74bd 524e 8bbc bbeb a93d 669e b7bc
00000100: 0fae b13d a6e9 833d 1bd1 6f3e 619b d23d
00000110: a02e e4bc 2d00 5a3d 0122 b23d d6e7 b83d
00000120: 00e4 0ebd 9235 503d f18d 993d 51af 413d
00000130: 8e36 55b8 9aef 2bbe 282f 56bd ba01 b13c
00000140: 2f1a 28bd d0ca 98bd 2150 0bbe b33c 8dbb
00000150: 9399 483d 2c55 c13c d53d 0cbc 82d7 273d
00000160: 1d75 2abe 3fde 44bc ea69 f13c f4c9 b6bc
00000170: c57f 373e 5cb6 a8bd 093c 18bc 5305 263d
00000180: dc53 1d3e f989 5c3d 9e7d 1ebc c2da d83d
00000190: b17a 91bd c7f0 663e 4410 48bd fbea 823d
000001a0: 2de1 033b 9574 36bd 5991 99bd 8364 5b3d
000001b0: 2c85 54bd 7ca7 933d 8be4 b13d a4c3 9ebd
000001c0: 85a6 813d 9234 cf3c 7d92 543d cdfe a93d
000001d0: 79b3 673d 69ae 15be 0dc4 05be 51b6 d33d
000001e0: f528 493d 68ed 25be 1678 79bd 118e a13d
000001f0: ee7c 1bbd d242 5fbd 0c01 51ba 95c3 4e3a
00000200: 490c ef3c 59f2 b1bd 50af 953d 32bb 593d
00000210: 314c b63d 6a9c 883c ffc5 f93d d3ab 7dbc
00000220: 7117 1fbe e7bb e23c 9365 623d 9877 393d
00000230: 80e5 dc3d 8cec 1cbd d6d3 5c3d 759b c7bc
00000240: a1e2 b43d af55 1bbd 7fa5 843d 278d 793d
00000250: 5b1b 803e 48fb a03d 5a0a 253e b17c b7bb
00000260: 2788 9d3d 449a 51bd 8db4 fcba 4df3 083d
00000270: 6fea 323e cc0f de3d 49ea d1bc cc9d 023d
00000280: 3150 593d 7a82 213e 75df c2bc dde8 c4bd
00000290: e4d5 02bd 52df 123e 3404 533d 713f 543d
000002a0: a9aa 97bd 5aaf ba3d 0379 0b3c cc00 a0bc
000002b0: 5576 893c 0bf4 d13d ea4e 93bd 48c3 a6bd
000002c0: 2c75 b13d 004d a5bd 07cc 873d 1dba 86bc
000002d0: a2de bcbd 9fe2 c4bb 9dd5 9d3d a129 823c
000002e0: 47cd e8bc badc 573d c895 663d 3aa4 c9bb
000002f0: ee8c 2d3e 9fb9 383c 0b70 743c 50d8 4d3d
00000300: d67d e53b 7642 d13d 0a20 c7bb ccdb 8dbd
00000310: 1771 27be 62b3 1d3d 646d 15be 06a7 b43d
00000320: 7d8f af3d 3985 b1bd a540 62bc 654b 193b
00000330: 29ba b33c 3e15 50bd 4062 053e 1083 013e
00000340: 8312 d13d b20b c33d d398 b13d 4f9b c6bd
00000350: d45c abbd 230a b63c 05d5 ea3c 81a8 a53d
00000360: d0b5 eebd 3358 de3d 421f 223d 15d8 d13d
00000370: 9945 623d 1aca 0b3c 76fb b0bc 0f0b 3d3e
00000380: 24b6 a83d 7731 9f3d ff49 533d 7120 553c
00000390: 4f69 ecbd 8214 093e 72b7 8e3d ad83 103e
000003a0: 575c 7a3d 93ac 9d3d 7c97 0e3e 28cb 673d
000003b0: 06e6 873d af39 bd3d ea6a e8bd 53be 9dbc
000003c0: 8a57 35be 4612 e83d 3f6b b13d 2307 72bd
000003d0: 8853 913d 29e2 1a3e 1bea 573d 650d 813c
000003e0: e138 83bd 766c 523d 980b 8bbd 1510 8fbd
000003f0: 206d 0b3e a426 e4bc 68f8 a13c 7777 963e

action_model._discrete_distribution.branches.3.bias f4 [2]
-0.041558705 0.0415588
00000000: 7639 2abd 8f39 2a3d

action_model._discrete_distribution.branches.3.weight f4 [2, 256]
-0.006430594 0.09773556 0.09447328 0.08506827 0.16971864 -0.24115075 0.02008935 -0.070336424
0.022260057 0.03519609 -0.009054784 -0.079485424 0.19346504 0.014569213 -0.020038644 -0.13040094
0.050168443 0.10970137 -0.020058965 -0.06572441 0.067028284 -0.033460613 -0.007897078 0.0700523
-0.017323853 0.17001756 -0.10970611 0.1244443 0.072380364 0.15522298 0.0523328 0.027462935
-0.009662932 -0.03191613 -0.06699772 0.050113942 -0.09731933 -0.040090896 -0.005453998 -0.039538715
0.105009325 0.09510911 0.16435234 -0.04607696 0.14743717 0.010568363 0.05060904 -0.037462283
-0.09217064 -0.01039218 -0.009221898 0.034159455 -0.052509457 0.06193186 -0.05643305 0.07421677
-0.035072513 0.07891249 0.011255053 0.083486065 -0.05875584 -0.09261751 -0.17056437 0.005941184
0.11584807 0.0049821516 0.11216682 0.06098153 -0.14765649 0.0006774757 -0.01326502 -0.018887904
-0.0012141682 0.04211023 -0.08690662 -0.12525254 0.07751755 0.053577285 -0.0070189615 0.051349312
0.042623997 -0.04672445 -0.046307754 -0.053701565 0.13865891 -0.022858314 0.021858739 0.04727275
0.04131547 0.027183792 0.083739735 -0.06697939 0.0026538793 0.04276932 -0.03370605 0.05063811
-0.026585892 -0.03953069 0.017454287 -0.11430881 -0.087876774 -0.04465137 0.008138096 0.10856307
-0.056746367 0.1015661 0.192442 -0.0010192171 0.19667082 -0.11017899 -0.11601618 -0.0705994
0.008032653 0.03897163 -0.013387459 0.09449162 -0.07447168 -0.09696226 0.0068162903 0.18691196
-0.021656107 0.02355544 -0.033674322 0.1169153 -0.11891866 -0.059374664 -0.04948366 -0.03552371
0.07927119 0.05157195 0.0051931883 -0.038772117 0.21188504 -0.1117313 0.075482205 0.08627391
-0.06402141 -0.016027637 0.03383527 -0.043965306 -0.03939367 0.08233644 -0.051687174 0.010024195
-0.15039647 0.05353317 -0.140288 -0.07880357 -0.082655676 -0.056387838 -0.071870975 -0.046203557
-0.03888961 0.0049603446 0.090445705 0.11342834 -0.004596889 -0.055349264 0.085448004 0.0050889314
-0.10805826 0.00965343 -0.06097179 -0.020118259 0.013397981 0.041061893 -0.08835695 0.03719094
0.019417135 -0.033503357 -0.05042301 -0.021878513 -0.19658644 0.110964425 0.096490584 0.021826718
-0.11869477 0.048742548 0.0017528955 0.037145834 0.004686604 0.020704452 -0.06805084 -0.00049464323
-0.05983166 -0.13209842 -0.000993179 0.0062190867 0.014381523 0.09230691 -0.015649242 -0.07834818
0.027028786 0.11204876 -0.01738682 -0.051960573 -0.15252079 0.07687559 0.0117266495 -0.06724577
-0.06231298 -0.06372371 -0.041598793 -0.12538302 -0.00023746029 0.005512478 -0.02667122 -0.08657953
0.11541585 0.005501727 -0.043394636 0.06253663 0.059505746 0.112009525 0.06133146 -0.06743135
-0.10286055 0.07044931 -0.024718286 0.07124534 0.03592249 -0.12219094 0.0737369 0.035206188
-0.025944961 -0.11095202 -0.06254265 0.06373918 0.00756029 -0.029395804 9.849622e-05 -0.04492965
-0.012047466 0.05121951 0.0760154 -0.016682059 -0.030413628 -0.094365284 0.031094167 0.17949152
0.037351366 -0.0017021961 -0.07574718 0.0016500142 0.04574722 -0.05839093 0.036616966 0.030354766
0.087467596 0.10147614 -0.1902086 -0.025670461 -0.046379663 0.077649236 0.03391655 -0.025767934
00000000: bbb7 d2bb 9529 c83d 357b c13d 4638 ae3d
00000010: b9ca 2d3e 39f0 76be 6c92 a43c 8b0c 90bd
00000020: b95a b63c c629 103d 845a 14bc 41c9 a2bd
00000030: b31b 463e b5b3 6e3c 1528 a4bc d387 05be
00000040: 6d7d 4d3d 1dab e03d b352 a4bc 859a 86bd
00000050: 2046 893d ff0d 09bd bf62 01bc 9577 8f3d
00000060: c1ea 8dbc 1519 2e3e 99ad e0bd a7dc fe3d
00000070: 283c 943d c6f2 1e3e eb5a 563d f3f9 e03c
00000080: 4651 1ebc 7dba 02bd 1a36 89bd 4744 4d3d
00000090: 5b4f c7bd 5a36 24bd 74b7 b2bb 59f3 21bd
000000a0: 210f d73d 91c8 c23d fb4b 283e 32bb 3cbd
000000b0: c5f9 163e ed26 2d3c 6d4b 4f3d 0d72 19bd
000000c0: f6c3 bcbd f643 2abc 7217 17bc c9ea 0b3d
000000d0: 2814 57bd 43ac 7d3d 5826 67bd f6fe 973d
000000e0: 32a8 0fbd df9c a13d 1d67 383c befa aa3d
000000f0: f7a9 70bd 40ae bdbd 6da8 2ebe 43ae c23b
00000100: c141 ed3d 5141 a33b b8b7 e53d c5c7 793d
00000110: 4333 17be a098 313a 8755 59bc ceba 9abc
00000120: b924 9fba c77b 2c3d 19fc b1bd 3442 00be
00000130: 85c1 9e3d db73 5b3d 51ff e5bb a853 523d
00000140: 8096 2e3d 2362 3fbd 33ad 3dbd 2cf6 5bbd
00000150: 9afc 0d3e 5c41 bbbc 1911 b33c 12a1 413d
00000160: 693a 293d 8bb0 de3c bd7f ab3d 7e2c 89bd
00000170: b5ec 2d3b e22e 2f3d 5b0f 0abd e869 4f3d
00000180: a8ca d9bc efea 21bd 4bfc 8e3c bd1a eabd
00000190: bdf8 b3bd 5be4 36bd a655 053c 5156 de3d
000001a0: e16e 68bd e301 d03d 840f 453e 4097 85ba
000001b0: 1364 493e 86a5 e1bd e499 edbd 6b96 90bd
000001c0: 639b 033c b7a0 1f3d 1357 5bbc d384 c13d
000001d0: 9c84 98bd 2694 c6bd 305b df3b d965 3f3e
000001e0: 2668 b1bc 57f7 c03c 16ee 09bd 4a71 ef3d
000001f0: a08b f3bd d932 73bd 61af 4abd 4f81 11bd
00000200: ef58 a23d 1c3d 533d 9f2b aa3b 83cf 1ebd
00000210: 64f8 583e 61d3 e4bd 6a96 9a3d 60b0 b03d
00000220: a81d 83bd 644c 83bc da96 0a3d f714 34bd
00000230: 425b 21bd 02a0 a83d eeb5 53bd 853c 243c
00000240: 8801 1abe 9945 5b3d a8a7 0fbe c463 a1bd
00000250: 6147 a9bd eff6 66bd 1731 93bd f13f 3dbd
00000260: b64a 1fbd 638a a23b 993b b93d 1e4d e83d
00000270: 80a1 96bb e9b5 62bd 5dff ae3d 0dc1 a63b
00000280: a64d ddbd 6c29 1e3c 8ebd 79bd 0ccf a4bc
00000290: 3583 5b3c 8430 283d 7df4 b4bd 8755 183d
000002a0: af10 9f3c d13a 09bd 5c88 4ebd 913a b3bc
000002b0: f54d 49be 5141 e33d db9c c53d f2cd b23c
000002c0: 3e16 f3bd 44a6 473d 6ac1 e53a 3b26 183d
000002d0: 1592 993b 629c a93c 3d5e 8bbd f2aa 01ba
000002e0: 0b12 75bd cf44 07be 8f2d 82ba 7bc9 cb3b
000002f0: 7ba0 6b3c 680b bd3d d732 80bc 0375 a0bd
00000300: 796b dd3c d279 e53d ce6e 8ebc 9cd4 54bd
00000310: 692e 1cbe f370 9d3d 2221 403c 26b8 89bd
00000320: e53b 7fbd 9481 82bd 7f63 2abd 6864 00be
00000330: c3fe 78b9 04a2 b43b 9a7d dabc 9c50 b1bd
00000340: 255f ec3d d547 b43b 93be 31bd 3413 803d
00000350: 4cbc 733d 4065 e53d b236 7b3d 7319 8abd
00000360: 8da8 d2bd ba47 903d 017e cabc 14e9 913d
00000370: 7623 133d 3e3f fabd 5f03 973d 5d34 103d
00000380: 878a d4bc d03a e3bd 5c16 80bd b089 823d
00000390: 4fbc f73b 78cf f0bc c18f ce38 2708 38bd
000003a0: bc62 45bc 8dcb 513d f6ad 9b3d d0a8 88bc
000003b0: 0026 f9bc 9642 c1bd 32b9 fe3c a0cc 373e
000003c0: bffd 183d 391c dfba 5621 9bbd 4a45 d83a
000003d0: 7061 3b3d 542b 6fbd acfb 153d 8faa f83c
000003e0: 3622 b33d b9d2 cf3d 0bc6 42be dc4a d2bc
000003f0: 9af8 3dbd 9006 9f3d 15ec 0a3d 4617 d3bc

discrete_action_output_shape f4 [1, 4]
3.0 3.0 3.0 2.0
00000000: 0000 4040 0000 4040 0000 4040 0000 0040

network_body._body_endoder.seq_layers.0.bias f4 [256]
0.05364026 0.00940685 0.045120507 -0.037164513 -0.008207945 0.033341415 0.06431356 -0.11780004
0.08530307 0.20304741 -0.18112063 0.18918869 -0.08046448 -0.059365958 -0.03976213 -0.08171967
-0.17685457 0.04819758 -0.102055006 -0.2451569 0.04708021 0.062482007 -0.009775856 0.0687213
0.03229612 -0.13559924 0.18445088 0.026733367 -0.07523858 0.032197237 -0.07732631 0.024008026
0.06620276 -0.06679557 0.056953378 -0.12461309 0.01680143 0.017035387 -0.2191472 0.049511127
-0.0236344 0.14315048 0.24130529 0.08732042 0.18296744 -0.17201854 -0.10584338 -0.10648232
0.19016987 -0.07799962 -0.13171157 -0.037036818 0.17375705 -0.13519353 0.03645616 -0.1466664
-0.052961137 -0.09000196 -0.10247839 0.080841795 -0.032110196 0.12855314 0.038035743 0.19189917
-0.18939325 -0.20817226 -0.26873562 0.12859525 -0.004687485 -0.016634878 -0.059268985 0.07892418
-0.0676651 0.04049637 0.044322688 -0.008443443 -0.079999454 -0.32151234 0.019835126 0.13938068
-0.12242251 0.07396303 -0.1818889 -0.25712243 -0.02290364 -0.1926292 -0.06410889 0.025799902
-0.01603794 0.13692833 -0.035044953 -0.19956549 -0.06753979 0.060864814 0.08053746 0.09314856
-0.053957224 0.01027874 -0.0784515 0.16044024 0.051412936 -0.07384096 0.07636335 -0.05212739
0.09992776 -0.06929445 -0.061292782 0.17938349 -0.14582507 -0.19429165 0.039098267 0.083193704
0.055051215 -0.1624544 0.15243712 0.009300009 -0.09217872 -0.16585521 -0.23854294 -0.00032449092
0.21428314 0.14425814 -0.08336517 -0.083444 0.12890622 -0.051829476 -0.3760258 0.1600857
-0.26474524 0.0727106 0.05222624 -0.15911283 -0.20737964 0.02836768 0.23299372 0.09938946
-0.19466275 -0.12800746 0.006376813 -0.18083021 -0.22478785 0.034522228 -0.056088034 -0.020806404
-0.13030837 -0.15240552 -0.0035935203 0.03847652 0.012073602 -0.040294584 -0.02693666 -0.2646623
0.13373385 0.193505 -0.04131219 -0.12560621 0.15970851 -0.14489025 -0.0067348843 -0.07206244
-0.09103383 0.074081995 0.15776955 -0.08795944 -0.02149433 0.082402684 0.015965289 -0.026871257
-0.17304745 -0.1754241 -0.15267898 -0.07863501 0.10772189 0.076965705 0.006710834 -0.19456363
-0.0103131635 0.038747415 -0.01649284 -0.19936767 -0.075152434 -0.042079702 -0.22118393 0.10846029
-0.032531884 -0.16588798 -0.03174343 -0.14755873 0.10238723 0.09190093 -0.01596003 0.16783077
0.14487782 0.24947634 0.14962128 0.09584364 0.111498356 -0.046072457 0.022107784 0.062384944
0.12159459 -0.03942944 -0.1126263 0.101501435 0.093345575 0.3096998 -0.1330451 -0.17739071
-0.09777392 -0.043512806 -0.26594585 -0.20305496 -0.05907349 -0.037438326 -0.0689783 -0.08649776
-0.0758414 -0.080281615 -0.23481691 -0.10259701 0.22364464 0.0014110103 0.104878575 0.042192042
0.09021043 -0.005720339 -0.10896476 -0.060205113 0.097039364 -0.10105859 0.025685215 0.20970914
0.17456278 -0.16713496 -0.006870528 -0.11795276 0.14662346 0.15944527 0.09499614 0.22873302
0.03396771 0.043085568 0.07452192 -0.154181 -0.16409566 -0.11538812 0.005213924 -0.1555116
-0.3165554 0.05889533 -0.16419338 -0.097836286 0.021062015 -0.014237261 0.016275521 0.16177034
00000000: e4b5 5b3d 301f 1a3c 48d0 383d d139 18bd
00000010: 9e7a 06bc 0291 083d d4b6 833d 2641 f1bd
00000020: 60b3 ae3d a9eb 4f3e b077 39be aeba 413e
00000030: 90ca a4bd b829 73bd 9ddd 22bd a45c a7bd
00000040: 5d19 35be d36a 453d 3702 d1bd 690a 7bbe
00000050: 2ed7 403d 22ed 7f3d e92a 20bc c1bd 8c3d
00000060: f048 043d 87da 0abe b1e0 3c3e efff da3c
00000070: af16 9abd 40e1 033d 425d 9ebd 7bac c43c
00000080: 5095 873d 1ecc 88bd f247 693d 2635 ffbd
00000090: 27a3 893c cc8d 8b3c 2068 60be 2ecc 4a3d
000000a0: ee9c c1bc 0a96 123e bc18 773e 0cd5 b23d
000000b0: d15b 3b3e a125 30be 6ac4 d8bd 6713 dabd
000000c0: e4bb 423e 44be 9fbd 66df 06be ebb3 17bd
000000d0: 5eed 313e 2c70 0abe 0e53 153d b72f 16be
000000e0: c7ed 58bd f352 b8bd 31e0 d1bd 6290 a53d
000000f0: fb85 03bd 6fa3 033e 5ecb 1b3d 3781 443e
00000100: 4ef0 41be 1c2b 55be b797 89be 79ae 033e
00000110: 7999 99bb de45 88bc 09c4 72bd 00a3 a13d
00000120: 0094 8abd 86df 253d b58b 353d 5e56 0abc
00000130: c1d6 a3bd 449d a4be 467d a23c cfb9 0e3e
00000140: a7b8 fabd ee79 973d 1541 3abe 8da5 83be
00000150: 6aa0 bbbc 9740 45be 864b 83bd 515a d33c
00000160: ff61 83bc f136 0c3e 4c8b 0fbd e55a 4cbe
00000170: 4d52 8abd 624d 793d d3f0 a43d acc4 be3d
00000180: 4002 5dbd 2968 283c 2eab a0bd 724a 243e
00000190: 5f96 523d ee39 97bd 6364 9c3d 8883 55bd
000001a0: eda6 cc3d 40ea 8dbd 240e 7bbd 4eb0 373e
000001b0: 2b53 15be 64f4 46be 8125 203d 7661 aa3d
000001c0: 627d 613d 725a 26be 7a18 1c3e 115f 183c
000001d0: 32c8 bcbd f3d5 29be 9a44 74be 6f20 aab9
000001e0: 0a6d 5b3e 68b8 133e 5cbb aabd b0e4 aabd
000001f0: feff 033e 254b 54bd 7486 c0be 81ed 233e
00000200: b08c 87be 4ce9 943d 2feb 553d 79ee 22be
00000210: 545b 54be 5663 e83c e895 6e3e b48c cb3d
00000220: ac55 47be 6314 03be 96f4 d03b 8e2b 39be
00000230: c92e 66be 2e67 0d3d 91bc 65bd 3172 aabc
00000240: 8f6f 05be 3110 1cbe 4481 6bbb 8e99 1d3d
00000250: 5bd0 453c ef0b 25bd 45aa dcbc d181 87be
00000260: 87f1 083e 2d26 463e f936 29bd ea9e 00be
00000270: a18a 233e 1c5e 14be 4eb0 dcbb 7995 93bd
00000280: f26f babd 4db8 973d 578e 213e 1424 b4bd
00000290: e114 b0bc bdc2 a83d a3c9 823c 1c21 dcbc
000002a0: 5a33 31be 60a2 33be e157 1cbe 640b a1bd
000002b0: 4b9d dc3d 32a0 9d3d 8ee6 db3b b03b 47be
000002c0: 8bf8 28bc 9cb5 1e3d fe1b 87bc 0a27 4cbe
000002d0: 85e9 99bd c45b 2cbd 0a7e 62be 6e20 de3d
000002e0: 2740 05bd 8ade 29be 6605 02bd a319 17be
000002f0: 65b0 d13d 8e36 bc3d 9cbe 82bc d4db 2b3e
00000300: da5a 143e ba76 7f3e 5236 193e ac49 c43d
00000310: 4059 e43d 79b6 3cbd 621b b53c 5b87 7f3d
00000320: 9606 f93d c480 21bd 9ea8 e6bd fcdf cf3d
00000330: f72b bf3d f990 9e3e fa3c 08be e9a5 35be
00000340: b13d c8bd 7c3a 32bd 0e2a 88be a4ed 4fbe
00000350: 0bf7 71bd ee58 19bd 7f44 8dbd bd25 b1bd
00000360: bc52 9bbd b06a a4bd d873 70be 621e d2bd
00000370: 1a03 653e a6f1 b83a 94ca d63d 90d1 2c3d
00000380: 3fc0 b83d ae71 bbbb eb28 dfbd a399 76bd
00000390: 93bc c63d cef7 cebd cd69 d23c febd 563e
000003a0: 96c0 323e 6d25 2bbe 2b22 e1bb 3791 f1bd
000003b0: 7624 163e 9f45 233e 568d c23d fd38 6a3e
000003c0: ba21 0b3d 7e7a 303d f39e 983d a0e1 1dbe
000003d0: b108 28be 9b50 ecbd 91d9 aa3b 6f3e 1fbe
000003e0: 8d13 a2be 3b3c 713d 4f22 28be 645e c8bd
000003f0: 3f8a ac3c 6743 69bc 3e54 853c 20a7 253e

network_body._body_endoder.seq_layers.0.weight f4 [256, 13]
0.18674769 -0.41275835 0.26448667 -0.08170111 0.09499446 -0.047071796 0.27021852 0.22614561
0.61575365 0.10174128 -0.0047932924 -0.32276264 -0.021178246 0.16403471 0.20534377 0.6076137
-0.2530579 0.5230555 0.75007296 -0.1774756 -0.026993532 -0.19026521 0.028624281 -0.07827825
-0.040348183 0.060617484 0.40339622 -0.41986957 -0.5896457 0.3824196 0.09179631 -0.6180141
0.46277314 -0.5060378 -0.31211713 0.007296128 0.034657996 -0.1023766 0.09586912 0.19911152
0.08812444 -0.13304242 0.15096211 -0.14250481 0.21851736 -0.13181108 0.056660563 0.10894419
0.018318763 -0.12925355 -0.10491883 0.17855683 -0.8012979 0.38711995 0.11549878 -0.61614704
-0.005497388 0.19699973 0.15343603 0.06631954 0.2873692 0.07260576 -0.07117539 0.0074311798
0.09485621 0.2854449 0.50776017 0.39410585 -0.43979743 -0.04644062 -0.05660389 -0.033113167
0.5037276 0.23276675 0.23889099 0.31882238 0.24971564 -0.33943596 0.6197223 0.10983518
-0.35966724 0.74328315 -0.7000675 0.25375834 -0.23328952 -0.13239394 -0.42273343 -0.041626457
-0.11062432 0.04163532 0.24557358 -0.26806104 -0.3782093 -0.29037836 -0.050734963 0.089401774
0.046010222 0.047647797 -0.26060387 -0.2812828 -0.16556652 -0.35393563 0.37813434 -0.1287964
-0.060872026 -0.11038409 -0.47339386 -0.022882577 0.42082042 -0.20704679 -0.2932732 0.21235064
0.26119295 0.010903605 0.75699174 0.22563311 -0.37483925 -0.15582342 0.84632534 -0.17128198
0.22350489 -0.52659523 -0.60267484 -0.10322525 -0.16398458 -0.5633854 0.0074550565 -0.07833132
-0.76174057 -0.017488873 0.6808564 0.31774038 0.15337934 0.37403324 -0.27582577 -0.21618311
-0.12379267 -0.52057827 0.14660335 0.5041923 -0.29022506 -0.13962658 0.2940472 -0.4761504
0.42468253 0.28666344 -0.50051385 -0.21830699 0.48554802 0.22562693 0.023410512 0.38779792
0.07348799 0.24867046 -0.25880045 -0.22891162 0.7369919 -0.22582944 -0.066982485 0.687186
-0.2923992 -0.34079295 -0.5707344 -0.38928887 -0.23957391 -0.48777288 0.0029109947 -0.1695284
0.089483015 0.34852174 0.7274807 -0.18007147 -0.05641123 -0.27175978 0.1284247 0.50017804
-0.10178217 -0.3484672 0.3282095 -0.15631984 -0.18293746 0.012775931 -0.40607855 0.9623574
0.61430055 -0.29945728 -0.37406352 0.5185025 0.09694975 -0.11179058 -0.155398 0.030017558
-0.08463906 0.05059685 0.19103776 0.2841939 -0.09123054 -0.29904088 0.5287032 0.08622114
-0.4201138 0.31786045 -0.45397866 0.16905911 -0.040317796 -0.07204435 0.088939115 0.16300496
0.17444952 0.20653689 -0.1980749 0.047212493 0.04776888 0.15159608 -0.35637972 0.3486284
-0.58771473 -0.29951844 0.028983464 0.17188719 0.46095628 0.17156866 -0.43201557 0.20077875
0.12571213 -0.29159617 0.5985521 0.08867968 -0.18925592 0.002139513 -0.34340203 0.2812336
0.33124185 -0.040803447 -0.03749963 0.10552829 0.14396878 -0.8695009 -0.15210295 0.14028071
-0.0054807444 0.5323538 -0.24343522 0.022566732 0.11464212 -0.1066651 0.19087926 0.29419577
0.135123 0.42634374 0.18686561 0.17475356 0.019238314 0.13317622 -0.75598365 -0.6897282
00000000: c93a 3f3e 1055 d3be cc6a 873e e952 a7bd
00000010: 758c c23d 5bce 40bd 155a 8a3e b792 673e
00000020: 08a2 1d3f bb5d d03d 0d11 9dbb 2541 a5be
00000030: 007e adbc b7f8 273e a345 523e 928c 1b3f
00000040: ce90 81be f7e6 053f c804 403f 2abc 35be
00000050: 8a21 ddbc e2d4 42be 787d ea3c 5950 a0bd
00000060: 2344 25bd 0a4a 783d f389 ce3e 25f9 d6be
00000070: 05f3 16bf 80cc c33e b4ff bb3d 2c36 1ebf
00000080: 9af0 ec3e b18b 01bf d1cd 9fbe 5c14 ef3b
00000090: 8bf5 0d3d d3aa d1bd 0757 c43d e4e3 4b3e
000000a0: 967a b43d 463c 08be d095 1a3e c8ec 11be
000000b0: 04c3 5f3e 7cf9 06be e814 683d 221e df3d
000000c0: 3b11 963c 0b5b 04be afdf d6bd 9ad7 363e
000000d0: dc21 4dbf 9634 c63e a08a ec3d d0bb 1dbf
000000e0: 6f23 b4bb 4cba 493e 561e 1d3e 8ad2 873d
000000f0: 0e22 933e 54b2 943d 67c4 91bd 4181 f33b
00000100: f943 c23d d525 923e 92fc 013f 3ec8 c93e
00000110: 212d e1be 8538 3ebd 7bd9 67bd aca1 07bd
00000120: 4bf4 003f 685a 6e3e d79f 743e b03c a33e
00000130: 75b5 7f3e 8dca adbe 1fa6 1e3f 44f1 e03d
00000140: 4e26 b8be ce47 3e3f a037 33bf 9dec 813e
00000150: 73e3 6ebe 4792 07be 8470 d8be 8180 2abd
00000160: 018f e2bd cc89 2a3d a477 7b3e 4c3f 89be
00000170: a6a4 c1be 79ac 94be 77cf 4fbd 4718 b73d
00000180: 3775 3c3d 562a 433d df6d 85be 4d04 90be
00000190: 458a 29be 0d37 b5be d39a c13e 34e3 03be
000001a0: f254 79bd 0e11 e2bd ae60 f2be 3e74 bbbc
000001b0: c675 d73e 1304 54be e827 96be 7272 593e
000001c0: 15bb 853e 09a5 323c 36ca 413f 5e0c 673e
000001d0: eeea bfbe 2d90 1fbe c7a8 583f 8b64 2fbe
000001e0: 77de 643e f2ce 06bf e648 1abf c367 d3bd
000001f0: 93eb 27be 073a 10bf 8c49 f43b 2c6c a0bd
00000200: 6e01 43bf d344 8fbc 9b4c 2e3f deae a23e
00000210: 790f 1d3e 4981 bf3e 0939 8dbe 1b5f 5dbe
00000220: 0387 fdbd 9e44 05bf 301f 163e bf12 013f
00000230: 6198 94be 45fa 0ebe 5b8d 963e fcc9 f3be
00000240: fd6f d93e 8dc5 923e ad21 00bf de8b 5fbe
00000250: c099 f83e bf0a 673e 67c7 bf3c 738d c63e
00000260: df80 963d 78a3 7e3e 7e81 84be cf67 6abe
00000270: 80ab 3c3f d53f 67be 1d2e 89bd 6ceb 2f3f
00000280: 59b5 95be 6a7c aebe a61b 12bf df50 c7be
00000290: dd52 75be 5ebd f9be 63c6 3e3b da98 2dbe
000002a0: df42 b73d 7171 b23e 2d3c 3a3f a864 38be
000002b0: 760f 67bd 1924 8bbe c481 033e ab0b 003f
000002c0: 2c73 d0bd 4b6a b2be 130b a83e 4f12 20be
000002d0: f553 3bbe 2352 513c 87e9 cfbe 0e5d 763f
000002e0: cd42 1d3f 7752 99be 4185 bfbe 94bc 043f
000002f0: 978d c63d 76f2 e4bd a720 1fbe 62e7 f53c
00000300: 3e57 adbd a53e 4f3d 679f 433e dd81 913e
00000310: 14d7 babd e31b 99be 1859 073f b694 b03d
00000320: 2819 d7be 9bbe a23e e46f e8be d51d 2d3e
00000330: 4624 25bd fd8b 93bd b625 b63d c6ea 263e
00000340: e5a2 323e 687e 533e 26d4 4abe e361 413d
00000350: 4da9 433d 013c 1b3e 6777 b6be 6c7f b23e
00000360: 7974 16bf 7b5a 99be bb6e ed3c 3203 303e
00000370: 7602 ec3e b2af 2f3e 2531 ddbe f298 4d3e
00000380: aeba 003e 184c 95be b63a 193f b19d b53d
00000390: 4ecc 41be 1237 0c3b 64d2 afbe dafd 8f3e
000003a0: 8898 a93e 8421 27bd 3699 19bd 371f d83d
000003b0: 8d6c 133e 9c97 5ebf e0c0 1bbe bfa5 0f3e
000003c0: d197 b3bb 5748 083f 1547 79be dedd b83c
000003d0: 7dc9 ea3d 3b73 dabd da75 433e d4a0 963e
000003e0: af5d 0a3e ba49 da3e b359 3f3e 99f2 323e
000003f0: ab99 9d3c 595f 083e 2588 41bf 0792 30bf

network_body._body_endoder.seq_layers.2.bias f4 [256]
-0.02691021 -0.027544022 0.13942674 -0.012398647 0.051558644 0.009747768 -0.15474394 0.03333554
-0.14923011 -0.08727323 -0.11705261 -0.07035673 -0.05937827 -0.00559221 -0.013699359 -0.08300891
-0.18886486 -0.13331439 -0.081843995 -0.0047479123 -0.10992583 0.027466225 0.042669408 0.022948297
-0.039671525 -0.025101947 -0.083428554 -0.007740077 -0.030090563 -0.01701462 -0.036501057 -0.097439036
-0.1034364 -0.0001804772 0.055782713 -0.06290166 0.0073358146 -0.08050088 -0.077320516 -0.008022521
-0.08825193 -0.11784945 -0.028622251 0.021662284 -0.112124264 -0.06576912 0.013384522 -0.029623156
-0.05099648 0.026524462 -0.17266344 -0.12546405 0.0022161764 -0.09406397 -0.09118449 -0.04076824
-0.047557563 -0.13206261 0.12246178 -0.06465136 -0.14373013 -0.14445503 -0.05121243 -0.3065335
-0.09912604 -0.050863013 -0.050035167 -0.04039372 0.024343956 -0.06994549 -0.08498116 -0.10829056
-0.068959616 -0.07608953 -0.10262222 -0.075068705 -0.06846284 -0.037143707 -0.0030324864 -0.12071564
-0.08811629 0.036227472 0.019989982 -0.07025537 -0.040073723 -0.16516963 -0.14995663 -0.11490654
-0.086414345 -0.0373052 -0.059315745 0.06194464 -0.07933905 -0.02965887 -0.12343761 -0.0581905
-0.13182908 -0.030137148 -0.15131311 -0.07791958 0.007299969 0.06680248 -0.079058364 -0.10946807
0.016330916 -0.04111112 -0.017861674 -0.09903679 -0.050460346 0.025543006 0.008622866 -0.05203494
-0.09170908 -0.014755351 -0.085903205 -0.02908832 -0.036955144 0.10506885 0.00917698 0.02916472
0.012853247 -0.11993447 -0.06384339 -0.109539576 -0.094380304 -0.00985613 -0.18301032 -0.10268793
-0.19093756 -0.08991988 -0.08181639 -0.07437922 0.05072374 0.063081875 -0.06263724 -0.10759737
-0.08923561 -0.116678566 -0.013460804 -0.13088799 -0.022210702 -0.038188513 -0.006066079 -0.050565872
-0.044521455 0.05186524 -0.10449765 -0.12530649 0.030289209 -0.03393776 -0.08556666 -0.051854987
-0.052661266 -0.03738268 -0.027164338 -0.07636224 -0.04981344 -0.016040886 -0.07190362 -0.044191428
0.008546904 -0.073899455 -0.065521024 0.07233763 0.029396646 0.025026305 -0.078941226 -0.052502703
0.0024863891 0.0076788026 -0.09079481 0.05205606 0.014877917 0.0068251477 -0.10481739 -0.02622515
-0.11301279 -0.123203464 -0.14272383 -0.1329774 0.0026407558 0.016465478 0.04659973 -0.020451542
-0.021505665 0.05138127 -0.024532601 -0.04832012 -0.06719197 -0.09624937 -0.07614416 -0.034638666
-0.08323424 -0.0028616372 -0.08303619 -0.06337321 0.040222038 -0.12947872 0.042009626 -0.023855047
-0.16385233 -0.035640676 0.050289527 -0.094670326 -0.11913565 -0.013695433 -0.06439485 -0.14041959
-0.116401784 -0.10597401 -0.05734279 -0.14072548 -0.021126125 -0.04850696 -0.041917086 -0.108592175
-0.09253545 -0.090268075 -0.0031734926 0.06325584 -0.1423274 -0.10113782 -0.024115792 -0.085592635
0.018823002 -0.063784845 -0.13197702 -0.110683054 -0.009308232 -0.16448328 0.03284333 -0.048530724
-0.1799344 -0.04164328 -0.17302825 -0.08998486 -0.028963272 -0.017284365 -0.056853045 -0.03382935
0.09222391 0.005563595 -0.0629904 -0.030940738 0.021641513 -0.020263128 -0.104479104 0.057803478
-0.08638322 -0.04604778 -0.0011264406 -0.13122104 0.044912267 -0.031688076 -0.0838525 -0.01497
00000000: cd72 dcbc 00a4 e1bc e2c5 0e3e b223 4bbc
00000010: 282f 533d 1ab5 1f3c 3275 1ebe d98a 083d
00000020: c7cf 18be 4fbc b2bd 47b9 efbd 3017 90bd
00000030: a136 73bd dc3e b7bb 4773 60bc 9300 aabd
00000040: ca65 41be 9183 08be d39d a7bd 6094 9bbb
00000050: cb20 e1bd d900 e13c 1ec6 2e3d 11fe bb3c
00000060: 9c7e 22bd 99a2 cdbc 97dc aabd 79a0 fdbb
00000070: 7c80 f6bc 3f62 8bbc 2282 15bd 1e8e c7bd
00000080: 77d6 d3bd 7b3e 3db9 6a7c 643d 96d2 80bd
00000090: 4661 f03b a5dd a4bd 385a 9ebd e470 03bc
000000a0: 6ebd b4bd 0d5b f1bd 3679 eabc 1a75 b13c
000000b0: 68a1 e5bd f6b1 86bd c14a 5b3c 43ac f2bc
000000c0: afe1 50bd d449 d93c afce 30be a679 00be
000000d0: 453d 113b 9ca4 c0bd efbe babd 99fc 26bd
000000e0: b8cb 42bd 6c3b 07be 3ecd fa3d ef67 84bd
000000f0: fe2d 13be 05ec 13be 20c4 51bd f5f1 9cbe
00000100: 9802 cbbd bc55 50bd adf1 4cbd e373 25bd
00000110: fa6c c73c 953f 8fbd 9a0a aebd 71c7 ddbd
00000120: b33a 8dbd d4d4 9bbd 992b d2bd 9fbd 99bd
00000130: 3f36 8cbd 0024 18bd aebc 46bb c339 f7bd
00000140: 5076 b4bd 4263 143d 08c2 a33c 0ce2 8fbd
00000150: 5824 24bd 3a22 29be 3b8e 19be 1f54 ebbd
00000160: 01fa b0bd 56cd 18bd 11f5 72bd aab9 7d3d
00000170: 837c a2bd 29f7 f2bc dccc fcbd 2959 6ebd
00000180: 34fe 06be 2ee2 f6bc d3f1 1abe 4d94 9fbd
00000190: 9434 ef3b bdcf 883d 5ae9 a1bd cc30 e0bd
000001a0: 6ac8 853c 2264 28bd a552 92bc cdd3 cabd
000001b0: 82af 4ebd 913f d13c ec46 0d3c 9722 55bd
000001c0: f8d1 bbbd 6dc0 71bc 05ee afbd a14a eebc
000001d0: 475e 17bd 562e d73d 0b5b 163c daea ee3c
000001e0: 6d96 523c 34a0 f5bd 53c0 82bd 4956 e0bd
000001f0: 764a c1bd 9b7b 21bc 0f67 3bbe 0d4e d2bd
00000200: 2385 43be ea27 b8bd 5a8f a7bd 2254 98bd
00000210: b2c3 4f3d 1231 813d f447 80bd 035c dcbd
00000220: 29c1 b6bd 2cf5 eebd b48a 5cbc 8007 06be
00000230: 38f3 b5bc 8f6b 1cbd f5c5 c6bb 291e 4fbd
00000240: 215c 36bd a570 543d dd02 d6bd 5850 00be
00000250: 1321 f83c 5202 0bbd 933d afbd e565 54bd
00000260: 57b3 57bd 951e 19bd bf87 debc ce63 9cbd
00000270: 2d09 4cbd 2d68 83bc 3542 93bd 1202 35bd
00000280: 5008 0c3c 9958 97bd e32f 86bd c025 943d
00000290: 3cd1 f03c f703 cd3c f0ab a1bd 130d 57bd
000002a0: b0f2 223b 779e fb3b a1f2 b9bd bc38 553d
000002b0: 82c2 733c 7da5 df3b 80aa d6bd 20d6 d6bc
000002c0: 4073 e7bd 1952 fcbd 3226 12be 3a2b 08be
000002d0: 8810 2d3b 9ce2 863c 5cdf 3e3d fe89 a7bc
000002e0: a62c b0bc 2b75 523d 98f8 c8bc 51eb 45bd
000002f0: f29b 89bd 641e c5bd 78f1 9bbd 46e1 0dbd
00000300: b776 aabd 4e8a 3bbb e10e aabd d0c9 81bd
00000310: ddbf 243d 1296 04be 4912 2c3d a96b c3bc
00000320: e8c8 27be f5fb 11bd 64fc 4d3d 84e2 c1bd
00000330: 64fd f3bd cf62 60bc 72e1 83bd 27ca 0fbe
00000340: 0f64 eebd e708 d9bd 46e0 6abd 571a 10be
00000350: b210 adbc 3caf 46bd 40b1 2bbd 9365 debd
00000360: 3a83 bdbd 78de b8bd 5ffa 4fbb 478c 813d
00000370: 46be 11be 5821 cfbd 7b8e c5bc 314b afbd
00000380: b232 9a3c a1a1 82bd fc24 07be ccad e2bd
00000390: 8e81 18bc 4e6e 28be ba86 063d 27c8 46bd
000003a0: b940 38be 2592 2abd 512e 31be fb49 b8bd
000003b0: 6244 edbc f197 8dbc bdde 68bd a590 0abd
000003c0: e4df bc3d d14e b63b 1c01 81bd 6e77 fdbc
000003d0: 8b49 b13c dcfe a5bc 24f9 d5bd 57c3 6c3d
000003e0: b0e9 b0bd 999c 3cbd 13a5 93ba cf5e 06be
000003f0: edf5 373d 5bcb 01bd dcba abbd bb44 75bc
