Assets/Model/ChaseMode0525.onnx (onnx, 293275 bytes, 13 tensors)

action_model._discrete_distribution.branches.0.bias f4 [3]
000000 e6 48 05 3d b8 3f ce bc ae e8 a8 bb
       0.032540224 -0.025176868 -0.0051546907

action_model._discrete_distribution.branches.0.weight f4 [3, 256]
000000 9e 09 8e bc 5f 57 a1 3d 10 1a 91 3c 75 39 94 3d
       -0.01733857 0.07877993 0.017712623 0.072375216
000010 d6 88 57 3d 62 14 0f bd b9 c7 e7 b9 26 94 19 3b
       0.05262073 -0.034931548 -0.00044208558 0.002343425
000020 29 d9 1c 3e 31 46 49 bd da 3e 02 3e 9f 35 39 bb
       0.15317215 -0.049139205 0.12719288 -0.002826072
000030 c0 e8 d9 bd 7c 64 6b bb f0 20 93 bc 17 be 55 bd
       -0.10640097 -0.0035918048 -0.017960042 -0.052183237
000040 67 1d 8f bc 9d e4 d6 3c 0f 03 49 bd a6 90 83 bc
       -0.017470075 0.026232058 -0.049075183 -0.016060185
000050 68 66 45 bd 8a ec 19 3d 07 ad 65 bc 1c cf 1b 3d
       -0.048193365 0.037579097 -0.014018304 0.03803931
000060 83 10 06 3d 72 73 16 bc a2 67 75 bc 41 44 3e ba
       0.03273059 -0.009182798 -0.014978321 -0.00072580954
000070 f3 6d 58 3c 08 5f 30 bd 4e e5 04 3d c8 91 9e bc
       0.013209808 -0.04305938 0.032445244 -0.019356623
000080 87 c8 05 3c 39 d8 aa bd 48 c8 c9 bd 70 56 4c bd
       0.008165485 -0.083420224 -0.09852654 -0.04988712
000090 63 b0 39 bd ec 89 a2 3d 5e fa 88 3d 5b c8 17 bd
       -0.04533423 0.07936463 0.06688379 -0.03705631
0000a0 f9 02 d9 bd 3d 70 10 3c d4 5f fd bc b9 65 80 3d
       -0.1059627 0.008815822 -0.030929483 0.06269402
0000b0 fd 59 28 bd f8 b3 dd 3c 75 87 37 bb b8 86 35 3e
       -0.041101445 0.027063355 -0.0028004323 0.17727172
0000c0 b0 68 69 bd f0 0f 94 bd 2e ab 93 3c 63 6d 38 3d
       -0.056984603 -0.07229602 0.01802596 0.045026194
0000d0 d5 87 ee bb 43 ae 3e 3d 75 eb 08 bd 74 c7 f4 3d
       -0.007279376 0.046552908 -0.033427674 0.11952105
0000e0 d4 d1 72 3d 50 ba 2f 3d 19 83 d1 39 29 01 7e 3d
       0.05928214 0.04290229 0.00039961262 0.062012825
0000f0 53 7e a1 3d 53 58 e7 bd c4 ab 42 3c 4b ea 2a 3d
       0.078854226 -0.112961434 0.011881772 0.041727345
000100 2b 18 4d bd 87 35 cb 3d 02 9c 96 3d ef ed 0d bc
       -0.050071876 0.09922319 0.07353975 -0.008662685
000110 a0 77 dd 3d 74 6f e8 3d f0 bd ac 3b b3 9c 82 bc
       0.10813832 0.11349383 0.0052716658 -0.01594386
000120 06 76 e9 bd 2d 9f 28 3d e1 b9 b4 3c 06 d1 cd ba
       -0.11399464 0.041167427 0.02206129 -0.0015702553
000130 f6 9a c3 3d 58 bd 01 bd b8 97 af bc ee 9d 59 bd
       0.09551041 -0.031674713 -0.02143465 -0.05312913
000140 d1 dc d4 bc 86 87 b0 bc 8a b6 9d 3d bb 2a 0b 3d
       -0.0259842 -0.021548998 0.07700832 0.033976298
000150 d6 ec 76 3d 9e a9 a4 bc 37 fb 4d 3d fe 6c bd bc
       0.060284458 -0.020100411 0.050288405 -0.02312326
000160 6d 22 81 bc 3f 67 67 3b 9a 3c 7b 3d 0f 14 6c 3b
       -0.015763486 0.0035309342 0.06133709 0.0036022698
000170 22 75 16 bd 6e ec 1d bd 51 3e c4 ba c1 91 da 3a
       -0.0367328 -0.038555555 -0.0014972185 0.0016675518
000180 46 fc 99 3d 7e 0d 08 bd 09 57 75 3c e6 23 80 3d
       0.075188205 -0.033215992 0.014974364 0.06256847
000190 a7 9f 8f 3d 9d 16 69 3d c9 73 5c bc 41 70 5e bd
       0.07012873 0.05690633 -0.01345534 -0.054306272
0001a0 66 f6 38 3d b2 99 aa 3c 91 e7 2d 3d 07 df f9 bd
       0.04515686 0.02082524 0.042457167 -0.12200742
0001b0 d6 1d 7c bb f1 ce 16 be 90 78 87 bc d9 3a ac 3d
       -0.0038469932 -0.1472738 -0.01653698 0.08409662
0001c0 38 56 4c 3d cc 20 e9 3d 25 e8 21 bd 58 d7 88 3d
       0.049886912 0.11383209 -0.03952803 0.066816986
0001d0 95 c9 86 bc 43 e1 a9 3c b1 4a fe 3d 45 3a ca bb
       -0.016453544 0.020737296 0.1241659 -0.006171497
0001e0 24 0d 21 bc 27 d8 b2 bd e7 15 cb bd 29 80 9a 3c
       -0.009829793 -0.08732634 -0.09916287 0.01885994
0001f0 77 40 57 be a5 86 fc 3c 67 0b 9d bd d5 2c 43 bc
       -0.21020685 0.030825922 -0.076681904 -0.011912544
000200 34 9f 98 bd 43 94 df 3c dd e1 9f 3d 17 ca 19 3d
       -0.074522406 0.027292376 0.07806752 0.037546244
000210 ca b1 81 3b b0 7d 60 bd cf c5 41 bd c7 20 8c bd
       0.0039579617 -0.054807365 -0.047307786 -0.06842189
000220 04 03 80 bd 2c 52 51 3d 96 54 59 bd c7 69 80 bd
       -0.06250575 0.051103756 -0.053059183 -0.062701754
000230 8a 86 b2 bd 27 e3 0c bc bc b6 59 3d d5 97 01 3e
       -0.087170675 -0.008599079 0.053152785 0.12655576
000240 ea 00 21 3d 90 4e 62 3d 12 00 5a bd 1a cb 0c bd
       0.039307512 0.055250704 -0.053222723 -0.03437338
000250 95 f4 83 3d d0 fe 8e 3d 5f 21 e0 bc a2 2f 23 3e
       0.06443135 0.069821954 -0.027359663 0.15936139
000260 aa 4c 0c be 56 65 c0 3b 3a 17 16 3c 7a d8 1b 3d
       -0.1370112 0.005871455 0.009160811 0.038048245
000270 06 7c 0d bd 97 3c 28 3c db 3c 49 3d a1 eb 21 bd
       -0.034542106 0.010268352 0.049130302 -0.039531354
000280 92 ed 9f 3d 95 a1 24 3b a1 be c1 bb c2 8f 53 bd
       0.07808985 0.0025120724 -0.0059126173 -0.05165077
000290 ef ce d5 3c 8d ff bf 3d 74 8e 4d bb b3 51 c0 bd
       0.02609965 0.09374914 -0.0031365426 -0.09390583
0002a0 ab e8 cd 3c f7 9d bc bc 4f 7a 57 bc c8 57 04 bd
       0.025135359 -0.023024542 -0.013151719 -0.032310277
0002b0 17 07 a0 3d ab a2 df 3b e3 f6 16 bd f9 87 c4 3c
       0.07813852 0.0068248115 -0.036856543 0.023990618
0002c0 fe dd 95 bd 75 c4 4a 3d 4f 6d 12 3c 06 c7 08 bd
       -0.07317732 0.049503762 0.008937194 -0.03339293
0002d0 33 44 7b 3d ea e6 fc 3c 99 44 9d bd 0e ec 27 3c
       0.061344337 0.030871827 -0.076790996 0.010249151
0002e0 3f c9 82 3d 7e d9 69 3d ca 01 95 bd b2 8a 8a 3d
       0.06386041 0.057092182 -0.07275732 0.06764735
0002f0 13 a2 c2 3b 00 1d 55 bd d9 6a 84 3a 26 50 9e 3c
       0.005939731 -0.05202961 0.0010102644 0.019325327
000300 76 36 db 3d 0f 6f 2d 3d 1c 94 f8 3c 51 00 9f 3d
       0.10703747 0.04234224 0.030344062 0.07763732
000310 57 d1 fd 3c f2 64 50 3d 81 cc 1d 3d e7 ec 1a bd
       0.03098361 0.05087752 0.03852511 -0.037823584
000320 f6 3a 86 bb da 60 5a 3d 72 7f 8e 3d a2 ee 7e bc
       -0.004096384 0.05331502 0.06957902 -0.015559824
000330 13 c2 1a bc 7f 60 f9 3d 8d 5d dd bc 84 22 e6 3d
       -0.009445685 0.12176608 -0.027022148 0.11237052
000340 0c 78 c4 bc e8 43 8e 3b 84 e6 dd 3c 07 75 8b 3c
       -0.023983024 0.004341591 0.027087457 0.017023576
000350 d4 b1 70 3c ef 3f b4 3c 8a f0 fc 3c 67 1d d2 3c
       0.014690835 0.022003142 0.030876417 0.025648786
000360 41 8e 9f 3d 39 e9 cb 3d 6d 71 0e 3d 5b 26 9a 3d
       0.07790805 0.09956593 0.03477614 0.07526847
000370 bd d5 be bd 45 c6 92 bd 01 11 b4 3c c1 5a b9 3c
       -0.09318111 -0.07166723 0.021980764 0.022626283
000380 c5 e8 f8 3d 47 33 e4 bd 40 23 03 3d 2e b8 e6 ba
       0.12153772 -0.11142593 0.03201604 -0.0017602497
000390 a2 2f 7f bd 1f be c4 bc 34 f1 5b 3c 76 1d 3b bd
       -0.062301286 -0.024016438 0.0134242065 -0.045682393
0003a0 d2 58 11 bd a9 bb a8 3d ce 97 f0 3c 12 e1 68 3b
       -0.035485096 0.08238918 0.029369261 0.0035534543
0003b0 ea d1 81 bc c6 3d 85 3d 76 85 78 bc aa 2c c5 3c
       -0.015847165 0.06505923 -0.015168538 0.024069149
0003c0 af 4e 63 bb 06 ca 14 3e 9c f0 a5 ba a7 57 e2 3d
       -0.003468435 0.14530191 -0.0012660208 0.110518746
0003d0 cb 60 2b 3d b0 02 2d 3d 09 6e 82 39 b7 0e 13 bd
       0.041840356 0.04223889 0.00024877515 -0.035902705
0003e0 5b 01 1f 3d e7 8c 4d 3d 53 6c 03 bd 92 d0 1c 3d
       0.038819652 0.050183203 -0.032085728 0.038284846
0003f0 0c ea 96 3d e8 38 c5 3d 12 e6 84 3d 80 fc 4a bd
       0.0736886 0.09629995 0.06489195 -0.04955721

action_model._discrete_distribution.branches.1.bias f4 [3]
000000 dc 72 c1 bd bf 64 93 3d bb f4 dd 3c
       -0.09445736 0.0719695 0.027094236

action_model._discrete_distribution.branches.1.weight f4 [3, 256]
000000 6a 8c bb ba b5 7c f2 bc 89 6b 3a bc 7f 6b 8b bc
       -0.0014308814 -0.02960048 -0.011378177 -0.017019032
000010 4a 1b 3b bc 6a f7 b7 3c aa 73 26 bc e6 04 ff 3b
       -0.01142008 0.022456843 -0.010159412 0.0077825664
000020 1a 09 b9 3d 6f 2b 0c 3c 72 cb 06 bd 51 11 b0 bd
       0.09034939 0.008555277 -0.032908864 -0.08597053
000030 40 18 64 bd 6f 72 be 3c 91 31 7b 3c 31 83 02 3d
       -0.05568719 0.023247926 0.015331642 0.031863395
000040 6a f8 22 bd 60 3c 8c 3d 27 81 33 3c 3d 6e b2 3c
       -0.039787687 0.06847453 0.010956085 0.021781081
000050 0d 7b d5 3d 44 b4 6c 3c 72 f1 0c 3d a9 77 b6 3d
       0.10423861 0.014447276 0.034409948 0.08909542
000060 02 9c 6a bd 12 39 58 bd 77 22 1b bc d1 2c 74 bb
       -0.057277687 -0.0527888 -0.009468666 -0.0037258158
000070 5a 7a b0 3c 1f 2e d9 3d 8c 2f a7 3c 1f ed 62 bd
       0.021542717 0.106045 0.020408414 -0.055401918
000080 d1 4e b8 3c 55 5a 2e 3b c9 dc 4e 3d 4c 5d 77 3c
       0.02249852 0.0026604135 0.050503526 0.015097927
000090 4e ba ed 3d 44 b0 c2 3d 5b 95 20 3d 7d a4 91 3c
       0.116078004 0.09506276 0.039204936 0.01777863
0000a0 32 d5 e8 bb 8d c7 c5 3d a5 37 42 bd 2e c0 c9 ba
       -0.007105493 0.09657202 -0.047416348 -0.0015392357
0000b0 fe 42 fb 3b 35 58 e5 3c a0 b0 57 bd be c3 02 bd
       0.007667898 0.027996162 -0.052658677 -0.031924956
0000c0 43 20 be 3c a0 37 8e 3d c3 7b e0 bc e1 af a0 3d
       0.023208743 0.069442034 -0.027402764 0.07846046
0000d0 ca 87 40 3c 8e 81 a0 bd aa 7b 21 bd a2 04 d0 3b
       0.011751125 -0.078372106 -0.039424576 0.0063482085
0000e0 6e 21 0a 3c ac 76 22 3d a3 b2 b9 3d 87 60 e7 3c
       0.008430822 0.039663956 0.090672754 0.02824427
0000f0 99 25 5a 3d 50 ca f0 3b e3 7b a5 bb 86 72 14 bc
       0.053258512 0.0073483363 -0.005050169 -0.009060508
000100 7f 8d 58 3b 87 a4 34 3d fe bf 4e 3d e7 a4 04 3c
       0.0033043323 0.044102218 0.050476067 0.008095956
000110 d1 b2 ea 3d aa 2e 01 3d 7d 75 95 3d ba d1 b9 3d
       0.11459888 0.031538643 0.072978 0.09073205
000120 64 6a f5 3d 52 a3 db 3c 27 b5 9b bd 32 e1 31 bd
       0.11983183 0.026811276 -0.076029114 -0.043427654
000130 a2 84 3b 3d 4c 05 35 3d 9f f4 b6 3c 9b db 0d 3d
       0.045780785 0.044194505 0.022333441 0.03463326
000140 f4 04 1a 3d 60 df b5 3c a3 ba 96 bc 6c ca 9a bd
       0.03760238 0.02220124 -0.018399542 -0.0755814
000150 40 8b a9 3d de fb 69 3d 13 82 14 be 7e 1c b3 3d
       0.08278513 0.057124965 -0.14502744 0.08745669
000160 51 d5 4e 3d a7 8e 5c 3d dc 6d 2d 3d 46 dd d2 3c
       0.050496403 0.05384698 0.0423411 0.025740277
000170 b4 67 33 bd df 89 df 3c ba 50 eb bd 4d e6 c5 3d
       -0.04380007 0.027287422 -0.11490007 0.09663067
000180 46 65 65 39 b5 0d 9b bc ff 7b 13 bd fe 15 da bb
       0.00021876869 -0.018927434 -0.036006924 -0.0066554537
000190 6c 52 98 bd 27 a1 82 3d d5 35 dd 3d c8 a5 10 be
       -0.07437596 0.063783936 0.10801283 -0.1412574
0001a0 f9 d8 e6 bc 00 b5 28 3c 22 ff 61 bb dd 8a cd 3d
       -0.028179632 0.01029706 -0.0034484346 0.10036252
0001b0 2e ae 4b bb 35 19 67 3d 68 c4 09 be de a2 81 bd
       -0.003107916 0.056420524 -0.1345383 -0.063298926
0001c0 e4 51 d8 bb c6 53 1e bd 6c d7 29 3d fd 7b 11 3d
       -0.006601559 -0.03865411 0.041465208 0.035518635
0001d0 3b 95 66 3c 44 db d3 3d 35 7b 29 3d 0f 5e da bc
       0.014073665 0.10344556 0.041377265 -0.026656179
0001e0 73 05 35 3d 48 cc 33 3d 6f 65 ab 3a a8 75 37 3d
       0.04419465 0.04389599 0.0013076494 0.04478994
0001f0 92 d9 40 bd 9a c9 8e 3d 49 ed 5f 3c 83 b0 d4 3c
       -0.04708249 0.06972046 0.013667413 0.025963074
000200 4e e4 93 3d c1 50 38 bd 21 92 9d bb e1 10 a7 3d
       0.0722128 -0.044998888 -0.0048086797 0.08157516
000210 45 20 6d bd 3a 5d c9 39 d8 5e 8b bd 30 24 b8 3c
       -0.057892103 0.00038407167 -0.068051994 0.022478193
000220 40 84 56 bd cb f6 36 3c f2 b6 9b 3b f3 d2 eb 3c
       -0.052372217 0.0111672385 0.0047520334 0.028787112
000230 3c 51 90 3d 52 6d 1d bd dc 53 d3 3c ae 47 f4 bc
       0.07046744 -0.038434334 0.025796823 -0.029819336
000240 12 d1 be 3c 63 ca e3 3c 72 30 27 3d c3 1a c2 3c
       0.023293052 0.027806466 0.040817685 0.023694402
000250 69 0f a0 3c 44 ac 50 bd 90 02 0c 3c 02 11 e7 3b
       0.019538598 -0.050945535 0.008545533 0.007051588
000260 7d f4 65 bc 5c fa 82 bd 1e 32 9d 3c 91 5d 11 be
       -0.014035341 -0.063954085 0.019188937 -0.14195849
000270 2b f0 f2 bb 6f aa c6 bd 1d f5 b6 3c 53 a6 49 bd
       -0.007413884 -0.097004764 0.022333676 -0.049230885
000280 b7 ea 1a bd e1 c9 f6 bc 39 ed 07 bd de fd 98 bb
       -0.037821498 -0.03012556 -0.033185218 -0.004668935
000290 1d 8d 2f 3d bd ec db bb 77 9f ea 3c 03 c9 bb bc
       0.042859185 -0.006711571 0.028640492 -0.022922998
0002a0 4f 22 10 bd b2 75 8b bd a2 86 67 bc 24 ee ee bd
       -0.03518897 -0.06809558 -0.01413122 -0.116665155
0002b0 c2 51 2e bd 82 bf 00 be 46 44 2f 3d 72 7b 1a bd
       -0.04255844 -0.12573054 0.04278972 -0.037715383
0002c0 4e 75 1b 3d 10 ea de 3a cb 0f c9 3d 4b 89 a3 3d
       0.037953667 0.0017007012 0.098174654 0.07985171
0002d0 45 c1 90 3d b4 1a c4 3c 7c b6 57 3d c4 fd e2 bc
       0.07068113 0.023938514 0.052664265 -0.027708896
0002e0 f5 1d 23 3d ac 5b 8a bc 27 30 b9 bd e7 e4 70 bd
       0.03982349 -0.016889416 -0.090423875 -0.05881205
0002f0 a0 d3 88 3d c4 d6 ae 3d 89 ea 50 bc d3 b2 84 3d
       0.06680989 0.08537057 -0.01275123 0.064794205
000300 ab b7 cf bd a5 d5 de 3c 43 b1 83 3d 50 64 a9 3d
       -0.10142454 0.027201483 0.06430294 0.08271086
000310 59 14 87 3d f3 04 b8 3c 92 1d f3 bc f0 e9 9f 3c
       0.06595678 0.022463297 -0.029677186 0.01952073
000320 50 2d f8 bc f1 20 aa 3c 44 ae d5 3d a8 fb d9 bb
       -0.030295044 0.02076766 0.10433629 -0.006652314
000330 90 0e e4 3c 17 4e 1c 3d 48 7b 54 bc fc 82 6a 3d
       0.027838975 0.03816041 -0.012968846 0.057253823
000340 7b 25 a5 3c be 3e 67 3c 53 b9 0d 3c 6c e2 6d 3c
       0.020159474 0.01411408 0.008650142 0.014519315
000350 35 9a 95 3c c9 f2 17 3d bb de f9 3c a8 6a 9c bc
       0.018262008 0.037096772 0.030501714 -0.019093826
000360 58 a0 a3 3d c2 34 fa 3b ee 73 a9 3c e1 a6 35 3d
       0.079895675 0.0076356838 0.020685162 0.0443486
000370 51 66 a7 bc ee a6 d2 3c 9d c7 14 be 85 97 d1 3c
       -0.02043453 0.025714364 -0.14529271 0.025584945
000380 95 37 e0 3b bf cf 2e bd 5b e6 a6 3d 5f 4d fa bd
       0.0068425634 -0.04267859 0.081494056 -0.122217886
000390 cf e2 35 be 2d f5 08 bd f2 db e9 3b 7b 0e 8a bd
       -0.17762302 -0.033436943 0.007136815 -0.06741043
0003a0 c2 80 75 bc 72 2c 96 bd 80 cf 99 3d f2 31 24 bb
       -0.014984312 -0.07332696 0.075102806 -0.0025054184
0003b0 e9 05 9f 3a a9 a1 08 bd 2f 8a ca 3c 9e 0c 80 ba
       0.0012132499 -0.033357296 0.024724094 -0.0009769385
0003c0 19 64 0f bd 53 3e e9 3a a1 2c 39 3d fb 11 57 3d
       -0.03500757 0.0017795063 0.045208577 0.052507382
0003d0 6f a8 c9 bd 97 95 0e bd 42 08 d6 3d a9 ad 4a be
       -0.09846579 -0.03481063 0.10450794 -0.19792809
0003e0 ea 4c 6b 3d 2f d9 2d 3c a9 0d 43 3c fb 03 9c bc
       0.057446398 0.010610863 0.011905112 -0.019044867
0003f0 5b a4 e5 3d 6f 23 b5 3d 0a 01 25 3c 6c b7 48 3d
       0.11212989 0.08844649 0.0100710485 0.04900305

action_model._discrete_distribution.branches.2.bias f4 [3]
000000 1c fc 6b bd a5 93 5a 3e 5f 24 25 be
       -0.057613477 0.21345384 -0.16127156

action_model._discrete_distribution.branches.2.weight f4 [3, 256]
000000 d2 b1 fc 3d 14 b1 2b 3d 11 b7 48 bd 0e cb 0d bd
       0.12338604 0.04191692 -0.04900271 -0.034617476
000010 c1 4b 26 bd ed bd c1 bc c9 1a 69 bc e1 85 b1 bd
       -0.04059959 -0.023650134 -0.0142275775 -0.086681135
000020 23 71 87 bd c9 99 58 3d bb 82 23 bd 67 5f 4f 3d
       -0.06613376 0.052881036 -0.039919596 0.050628092
000030 2e c6 2b bc dc 32 9d bd 65 ce ae bb ea dd fc ba
       -0.010484261 -0.07675716 -0.0053346627 -0.001929221
000040 ea ac 31 3c 26 b0 95 bb 89 7e 07 be e6 c0 e9 3b
       0.010844449 -0.0045681177 -0.13231863 0.007133591
000050 c3 d9 cb 3b f1 d6 5b bc 80 ac 00 be cf eb da 3d
       0.0062210276 -0.013417945 -0.12565804 0.10689508
000060 94 24 c8 bc ae c9 68 bd e2 5d 30 be e1 1e 0d 3d
       -0.024431504 -0.05683296 -0.17223313 0.034453277
000070 12 e9 46 3d 37 b5 ca 3d 7b d4 97 bd b2 60 02 3d
       0.048562117 0.09897845 -0.07413574 0.031830497
000080 84 4b 4a 3d 71 71 95 bc b2 a2 be 3d 99 8f 8a 3d
       0.049388424 -0.01824257 0.093083754 0.0676567
000090 9f 16 0c bd e9 ac 1a bc cb 2d d1 bd d2 d3 2c 3d
       -0.03420126 -0.009440639 -0.102138124 0.042194195
0000a0 8f d7 d5 bd 66 a5 37 bd ca e9 05 bd 79 93 a7 3d
       -0.10441505 -0.04483547 -0.03269366 0.08182425
0000b0 0f 77 12 bc 2d 89 d2 3d 6a fc 3b bd 81 e7 d8 bd
       -0.008939519 0.102800705 -0.045895018 -0.10591031
0000c0 d2 08 e2 3d 20 96 ed 3b 49 43 33 bd 5e 4e e2 3d
       0.110368386 0.0072505623 -0.04376534 0.110501036
0000d0 88 ea 9a bd ba 63 83 3d b3 92 39 bc 39 5f cc bd
       -0.075642645 0.06415506 -0.01132648 -0.099791
0000e0 76 e5 24 be 53 60 6f 3c d5 c4 13 3d 89 ce 5c 3c
       -0.16103157 0.014610368 0.036076386 0.013476976
0000f0 0b c3 38 ba a6 7a c5 3d f5 01 b5 3c 76 9d 7a 3b
       -0.00070481066 0.09642534 0.02209566 0.0038240827
000100 ce e9 ec 3c 7a ba 05 be da 39 c6 3c b4 fb 6c 3d
       0.02892008 -0.13059416 0.024197508 0.05785723
000110 39 3c f5 3d b1 5e b1 3d c1 09 f5 3c b7 5a 4f bd
       0.11974377 0.08660639 0.029911878 -0.05062362
000120 81 a4 f8 bc 77 2e 97 3d d8 b8 23 3c ef c2 94 3d
       -0.03035188 0.07381909 0.009992801 0.07263743
000130 3d 4f 1b bc 76 0e 9d 3d bb ef 44 bc bc e9 a4 bc
       -0.009479341 0.07668774 -0.012020047 -0.020130984
000140 2a dd 3f bd 81 a3 bc 3d 63 48 4d 3d 4b 6a d5 3d
       -0.046841778 0.092108734 0.05011786 0.104206644
000150 92 8c cb bd e5 22 ec 3c c1 34 bf bc b4 81 1b 3c
       -0.09938921 0.028825233 -0.023340585 0.009491373
000160 2f 63 79 3d 0c 36 6d 3c d2 94 52 3d bd a3 93 3c
       0.060885604 0.014478218 0.051411457 0.018022412
000170 85 f4 db bb 47 4e 25 be 25 05 52 3d e1 b4 03 3d
       -0.0067124986 -0.16143142 0.051274437 0.03215492
000180 94 dc 26 bb cf cb 4f 3d 07 cf d1 bd 12 62 b7 3d
       -0.0025461065 0.050731476 -0.102445655 0.08954252
000190 23 6a 3c be 46 ee c1 bd 4e d9 b9 3d 8f 14 f5 3d
       -0.18399863 -0.09469275 0.09074651 0.11966812
0001a0 cf 4b 2c 3c 90 0f 64 3d be b2 9c bd 36 93 cd 3b
       0.010516121 0.055678904 -0.0765128 0.0062736524
0001b0 cf 87 fa bc 77 b3 c2 3b 6c ce 02 3d 24 23 4a bd
       -0.030582337 0.005941804 0.03193514 -0.04934992
0001c0 41 7f 2d bd f7 5a aa bc d6 34 b6 3c e1 90 eb bd
       -0.042357687 -0.020795329 0.022241991 -0.11502243
0001d0 d9 6a 9b bd 62 f3 24 3d 13 fa 7d ba d7 12 b3 3c
       -0.07588739 0.04027117 -0.0009688448 0.02185957
0001e0 b6 3a a5 3c 35 da 1c 3e cb 28 1a 3d 50 96 95 bc
       0.020169597 0.15317614 0.03763656 -0.018260151
0001f0 61 a4 24 be 5a 0a 9d 3d da 1e 87 bc 8f 77 a7 bc
       -0.1607833 0.0766799 -0.016494203 -0.020442752
000200 49 a2 70 bc a8 e0 89 3d ce f6 47 3d 0f ce 29 be
       -0.014687129 0.06732303 0.048819356 -0.16582511
000210 5d 7f b0 3d ad 3e c2 bc f3 74 4a 3d d7 b2 e7 bc
       0.086180426 -0.023711527 0.049427938 -0.02828352
000220 c1 f7 20 3d dd bb 9c 3d f5 d5 b2 bd cb bf 68 3c
       0.039298777 0.076530196 -0.08732215 0.014205883
000230 75 d4 02 3e b6 7d 3e 3d 07 58 6b 3c fd 4e b1 bd
       0.12776358 0.046506606 0.014364249 -0.08657644
000240 f4 50 25 3d 43 a5 83 3c 72 8d 06 3a b5 da 96 3d
       0.040360406 0.016070014 0.00051327713 0.07365934
000250 f9 1e 24 bc ad 27 a3 3d 01 6c 8b 3d 59 1a f0 bc
       -0.01001715 0.07966552 0.068077095 -0.029309439
000260 2c 7b 45 3d e1 79 af bc 37 a2 2d 3d 1e 07 aa bd
       0.04821317 -0.021420421 0.04239103 -0.08302139
000270 13 68 e2 3c dc 55 82 3d a1 81 91 bc a8 4c a0 3d
       0.027637517 0.063640326 -0.017762007 0.07827121
000280 76 49 06 be 34 16 bf bc 83 41 7b 3c 4b ed b1 3c
       -0.1311396 -0.023326017 0.015335443 0.021719595
000290 60 e2 08 3d 25 38 9b bd 35 1d 72 3d b8 14 73 3d
       0.033419013 -0.07579068 0.059109885 0.05934593
0002a0 8d bd 4a 3d 89 8e b5 3d 9a c4 f4 3c fe a8 f6 3b
       0.049497176 0.08865077 0.029878903 0.0075274697
0002b0 2a 2a 3b bc 3f 6b f0 3d d4 60 c8 bc 75 da fe bd
       -0.011423627 0.117392056 -0.024460234 -0.12444011
0002c0 a0 ab e6 3c 78 21 98 3d 14 2d 2b 3d 0a d8 1b bd
       0.028158009 0.07428259 0.041791037 -0.038047828
0002d0 86 0c 3f 3d 38 00 01 3d 07 dc cf bc 1e 27 96 3d
       0.046642803 0.03149435 -0.025373472 0.0733168
0002e0 c6 73 00 3d e4 bc 9a bc ce 05 a7 3d e8 31 a0 3a
       0.03136041 -0.018888898 0.08155404 0.0012221904
0002f0 51 33 9a bc 1b 14 00 3c c9 f3 bf bc b3 dd 16 bd
       -0.018823298 0.0078172935 -0.023431676 -0.036832523
000300 99 d9 0e bb 09 ce 0e 3c 36 f8 e1 bd 6a f3 45 3d
       -0.0021797179 0.008716115 -0.110336706 0.04832784
000310 ea 3c c2 b9 d8 b5 28 3d 6a da bb bd c5 36 44 3c
       -0.00037047948 0.041189045 -0.091725186 0.011975949
000320 95 ec b6 3c 61 77 b4 3c a5 04 0c be 3e e3 81 3d
       0.022329608 0.02202958 -0.13673647 0.06342171
000330 8e 61 2d 3d 38 f0 26 bd ed 22 7b ba 12 b8 40 ba
       0.042329364 -0.040756434 -0.00095800945 -0.00073516474
000340 92 ee a0 39 f8 25 07 bd cb 29 06 be 71 a2 c4 3d
       0.00030695327 -0.032995194 -0.1310188 0.09601296
000350 b2 8c 8a bd bf 1e 62 bb c3 b4 77 3d 93 59 f1 3d
       -0.06765117 -0.003450319 0.060475122 0.11784663
000360 c4 f2 69 bc fb 11 7d 3d c5 87 c8 bc a3 66 e6 3b
       -0.014279071 0.061784726 -0.024478802 0.007031278
000370 b1 18 1e 3d 4f 1b 91 3b ca 3e 91 3c ab 62 44 3c
       0.038597766 0.0044283043 0.017730135 0.011986415
000380 0f f1 60 3d 30 a4 a5 bd 08 d6 d8 3c fc e0 fc 3c
       0.05491739 -0.08087957 0.026469246 0.030869
000390 83 05 32 bd 58 f8 fb bc 22 17 0f be cc 0d 72 3d
       -0.043462288 -0.030758068 -0.13973668 0.05909519
0003a0 9e d7 0e bd a6 0b 07 ba 3c 7d fd bd 3c fd 29 3c
       -0.034873597 -0.0005151577 -0.12377402 0.010375317
0003b0 37 43 5e bd 34 88 5d 3b 0e 80 16 3d df 81 e2 bd
       -0.05426332 0.0033803107 0.036743216 -0.11059927
0003c0 cb 06 33 bd 25 85 9b 3d 5d bc 91 3d 6d 72 e7 3d
       -0.04370765 0.07593755 0.071160056 0.11301122
0003d0 ad 14 de 3d 88 f8 c3 3a bc d1 5c 3d 58 74 90 3c
       0.10843787 0.0014951387 0.053910956 0.017633602
0003e0 e3 0e af 3c bd db 7f 3d d0 19 46 3d f3 8b 0e bd
       0.021369403 0.062465418 0.04836446 -0.034801435
0003f0 66 c6 63 bd ab 2e 04 bd a9 ad 2a bd aa b5 f4 ba
       -0.05560913 -0.03227107 -0.04166952 -0.0018669863

action_model._discrete_distribution.branches.3.bias f4 [2]
000000 b0 82 e5 3c b1 82 e5 bc
       0.028016418 -0.02801642

action_model._discrete_distribution.branches.3.weight f4 [2, 256]
000000 2e a3 3d bd f0 ec fb 3b 02 04 e2 bd ba 95 4a 3d
       -0.0462982 0.0076881573 -0.11035921 0.049459197
000010 d1 d6 22 be f3 f8 08 bc 80 c2 0b 3d 21 db 43 3d
       -0.15902258 -0.008360135 0.034121037 0.0478164
000020 01 25 c4 bd a6 9f a5 bd 5b db 21 bc e1 cb a1 3d
       -0.095773704 -0.08087091 -0.009878959 0.07900215
000030 c2 e2 df bc dc 51 8d bd aa 80 f7 bd 77 25 53 bd
       -0.027329806 -0.06900379 -0.120850876 -0.0515494
000040 8c e6 73 3b 2b a1 52 bc a0 f9 8f 3c c3 d6 2a bd
       0.0037216274 -0.012855808 0.017575085 -0.04170872
000050 fe bb 54 3d 27 3b 3f bb 83 3c bd 3c 97 4d 7e 3b
       0.051937096 -0.0029179545 0.023100143 0.0038803571
000060 86 0c 03 3d 7b 4e e9 bd 00 c5 b7 3d e3 5d 7d 3d
       0.031994365 -0.11391922 0.08973122 0.061857115
000070 35 d4 19 3c 28 43 80 3c 6a 1c 22 bd 90 57 20 3c
       0.009388973 0.015657023 -0.03957788 0.0097865015
000080 2d f4 f4 3c 85 39 78 bd 19 42 9e b9 54 62 c8 bd
       0.029901588 -0.06060173 -0.00030185355 -0.097843796
000090 cb d6 1c 3d e9 72 ae bd cb fa 0d be a8 97 a4 3a
       0.03829078 -0.08518011 -0.13865201 0.0012557404
0000a0 de 08 63 3b d3 d6 22 3c 30 d0 31 bc 64 44 fe bc
       0.0034642736 0.009938913 -0.010852858 -0.03103847
0000b0 dd 75 e3 bd 75 ae ca 3c ea 07 75 bd ac ab 64 bd
       -0.11106465 0.02474139 -0.059822 -0.05582778
0000c0 ac 2c ed 3c 48 8f 54 3c 84 df 23 3d 6f 26 db bd
       0.028951965 0.012973614 0.040008083 -0.1070069
0000d0 f1 f1 b5 bc 06 4e 87 3d 6b 45 1e bc e5 1e 43 bd
       -0.022210093 0.06606679 -0.009660105 -0.047636885
0000e0 cc 6e 4b bb bb 88 01 3c 6e c7 31 bb de 8c d1 bd
       -0.0031041382 0.007906134 -0.0027126926 -0.102319464
0000f0 69 47 8f 3c 26 6e 8f 3d 8d b6 39 3d f1 44 43 bd
       0.017490106 0.07003431 0.04534011 -0.04767317
000100 7b a5 0e 3b 16 95 c3 bd c5 39 c8 3b a4 39 99 3d
       0.0021766115 -0.0954992 0.0061104023 0.07481697
000110 5e fd 3e 3b e6 ea 91 bd a1 91 24 bc 57 db 53 bd
       0.0029142718 -0.071248814 -0.010044486 -0.05172285
000120 e9 c0 4d 3d 4b ad 91 bd eb f0 53 bc 4d 1d 63 3d
       0.0502328 -0.07113131 -0.012935857 0.055447865
000130 37 02 95 bd c5 4b 80 bd 99 1b 10 3d 1b 3d d5 3d
       -0.07275813 -0.06264452 0.03518257 0.104120456
000140 54 70 31 bd b8 28 a5 bb 28 f6 54 bc c0 25 3b 3d
       -0.043320015 -0.0050402544 -0.012998141 0.045690298
000150 88 f8 e5 3c e5 b5 8b bd ac ed 68 bd ac cf 60 bd
       0.02807261 -0.06821803 -0.056867287 -0.05488555
000160 e0 e8 86 bc 05 44 bc 3c d6 6d 9e bc 3a 0d 0f 3d
       -0.016468465 0.022981653 -0.019339483 0.034924723
000170 92 2a f3 ba 58 d4 6f 3c c3 86 6c bd 9f 9b 0d bc
       -0.0018552116 0.014638029 -0.057745706 -0.00864306
000180 b0 c6 18 bd 82 41 0b bd da 6e 4d bd 5b d1 c5 bd
       -0.03729886 -0.03399802 -0.050154544 -0.09659072
000190 a8 bf 94 3d 0e 01 59 bc bd 92 17 ba 9e 48 ed bb
       0.07263118 -0.01324488 -0.00057820586 -0.0072413227
0001a0 53 fe c0 bc 48 eb 4c bc ad 41 d2 bc e7 77 d1 3b
       -0.023558771 -0.012507267 -0.025666082 0.0063924673
0001b0 ea 12 82 bd 6f f3 1f bc d7 4d 29 3d c5 40 92 bd
       -0.06351264 -0.009762629 0.041334 -0.0714126
0001c0 fb e6 84 bc 24 ba e5 3d da d0 76 3c 37 71 51 3d
       -0.016223421 0.11217144 0.0150644425 0.05113336
0001d0 1d a3 24 bc ed 8b 54 3d 99 4e 92 bc 30 e3 f2 bd
       -0.010048655 0.051891256 -0.017859744 -0.11859739
0001e0 13 6b e6 3c a0 e1 84 bc c9 2e bd 3a ad 46 9a 3d
       0.028127229 -0.016220868 0.0014433499 0.075330116
0001f0 53 85 3b bc a9 35 46 3c 08 7e 7d bc 53 30 39 3d
       -0.011445361 0.0120977545 -0.015471943 0.0452121
000200 54 1f 95 bd 88 9c 07 3d 1a 6d 05 bd da 05 5f 3c
       -0.07281366 0.033108264 -0.03257475 0.013612235
000210 2d 21 c6 bd 78 0e 7f bd 1c 24 4b bd 82 98 12 3c
       -0.096742965 -0.062269658 -0.049594983 0.0089474935
000220 a1 fb d0 3c 22 31 1b bc 68 71 64 bd 15 af cb bc
       0.025510611 -0.009472163 -0.055772215 -0.024863759
000230 35 43 43 3d af 85 52 3d 5f e0 15 3d 35 79 e5 bd
       0.047671515 0.05139702 0.03659093 -0.11204759
000240 08 02 83 bd 33 34 76 bd f9 40 12 3d 8d db 01 be
       -0.06396872 -0.060108375 0.035706494 -0.12681408
000250 28 7e e1 bc 82 55 3e bc 5c a9 89 3d 31 01 9f bb
       -0.027525976 -0.011617066 0.06721756 -0.004852437
000260 36 b5 e7 bc 06 fd fb 3b b3 af c9 bc 80 35 bc bc
       -0.02828465 0.007690075 -0.024619913 -0.02297473
000270 85 5a ac bd 0c db 55 bd d9 81 f6 bb 9c 00 ab bb
       -0.08415703 -0.052210853 -0.0075228033 -0.0052185785
000280 63 d1 47 bc 5a f0 b1 3b 1d 5c b3 bd 93 37 72 3c
       -0.012195918 0.0054302635 -0.087578036 0.014783758
000290 50 88 2b bd ad aa 77 bb d6 25 7c bd 39 6b 1d bc
       -0.041878045 -0.003779094 -0.06155952 -0.009608083
0002a0 38 97 28 3c c8 30 eb bd a8 37 21 3c 67 ee dd bd
       0.01028996 -0.11483914 0.00983993 -0.10836487
0002b0 e6 cb fa 3c 95 46 68 bd dc 95 da 3d d3 79 8c 3b
       0.030614804 -0.056707937 0.10673115 0.0042869835
0002c0 ed 6c b6 bc a2 1e 8b bd 25 6c 57 bd b1 f7 01 3d
       -0.022268737 -0.06792952 -0.05259337 0.031730358
0002d0 70 a0 a6 bb 70 d9 c4 ba 77 6d 33 bd c2 ea 65 3c
       -0.0050850436 -0.0015018415 -0.043805566 0.014033021
0002e0 b1 e5 b8 3c 60 7d e4 bc a9 3a 05 be 0d ef 78 bd
       0.022570463 -0.027891815 -0.13010658 -0.06077485
0002f0 9f 85 c1 3c 4b c1 af 3a 43 e4 dc 3a 90 ef af bb
       0.023623286 0.0013409046 0.0016852695 -0.0053691342
000300 bc 45 ea 3c bf 5c 13 3b 10 ee 02 3d d4 8a 12 3c
       0.028597705 0.00224857 0.031965315 0.008944232
000310 97 63 35 3c c1 da 0a bb 96 f8 e8 3c 65 ca 18 3b
       0.011071107 -0.0021187516 0.028438848 0.0023313996
000320 3c 5b 8e bd f0 3b 9a bb 9e fb 48 3d 64 31 09 3d
       -0.06950995 -0.004706852 0.049068086 0.03349437
000330 47 5f 4b 3d e5 d6 26 bc c6 bf a7 bc 0a 56 80 3d
       0.04965141 -0.010183071 -0.020477187 0.06266411
000340 23 0f eb bc 70 d2 06 bc dc ab 96 bd 70 02 b1 bd
       -0.028693741 -0.008228883 -0.07356998 -0.08643043
000350 a1 d3 b1 bc 28 7b 9c bd e6 e3 3f bb 77 62 88 bd
       -0.021707358 -0.07640678 -0.0029280125 -0.06659406
000360 5e 94 a2 3d e8 e2 1a bc 27 f6 b6 bd c9 3b 50 bd
       0.07938455 -0.009453513 -0.089336686 -0.050838266
000370 4f e9 6e bc 1f 3b 32 3d 7d 13 fb bd a8 c0 e9 bc
       -0.014581992 0.043513414 -0.122595765 -0.028534248
000380 23 9d d7 3c 60 f8 47 bd 6a 7e 3f bb ec f4 f4 bc
       0.026320046 -0.048820853 -0.0029219636 -0.029901944
000390 d9 11 e7 bc 31 b0 ab 3d c6 88 28 3d ec de d7 bc
       -0.028206753 0.08383215 0.041146062 -0.026351415
0003a0 61 ac 9b bd 14 83 bc bb 1d 4c 0d be 9e eb ea 3c
       -0.07601238 -0.0057529304 -0.13798566 0.028676804
0003b0 2b b2 fd 3b 5e eb a2 bd 65 3d 31 bd 69 3e 41 bc
       0.0077421865 -0.07955049 -0.04327144 -0.011794665
0003c0 64 13 b9 bd 08 ea 6d bd 71 ac c5 bc 17 f9 a2 3d
       -0.090369016 -0.058084518 -0.024130078 0.07957666
0003d0 c9 2f 34 3d 2a ad 06 be 27 5e 86 bc 75 6a bd 3d
       0.043990884 -0.13151994 -0.016402317 0.09248821
0003e0 d6 5d 5b bd 4d e0 f5 3c 04 a7 88 3c a0 0c 4b bc
       -0.053556286 0.030014182 0.016681202 -0.012393147
0003f0 c9 c8 2f bc a5 fd 6b 3c e9 8b 21 3b 69 98 8e 3c
       -0.010729023 0.014403735 0.0024650043 0.01740666

discrete_action_output_shape f4 [1, 4]
000000 00 00 40 40 00 00 40 40 00 00 40 40 00 00 00 40
       3.0 3.0 3.0 2.0

network_body._body_endoder.seq_layers.0.bias f4 [256]
000000 ee 7c bb bb 4b 58 8b 3d 19 d0 d3 bd a0 f2 d0 bd
       -0.00572168 0.0680395 -0.10342426 -0.10202527
000010 ec 98 d8 bc 9a 7d 7f be 9b a4 b3 bd 0b ff 33 be
       -0.026440106 -0.24950257 -0.087716304 -0.1757776
000020 83 17 ac 3d 7b 47 0d bd d4 96 c7 bc dc 45 34 3c
       0.08402922 -0.034491997 -0.024363913 0.011002984
000030 f1 ae 3e be f5 91 8a 3d 1d 3f d8 3c 58 b7 08 bc
       -0.18621422 0.0676612 0.026397282 -0.008344494
000040 88 23 e7 3c a0 ca b3 3d 84 fb 4f be 99 56 26 bc
       0.028215185 0.08778882 -0.2031079 -0.010152482
000050 01 66 b6 bc be c0 b1 3c 06 11 14 be a0 43 59 bd
       -0.022265436 0.021698352 -0.14459619 -0.053043008
000060 88 2a ce bd 07 a1 94 bd 7e 55 c9 bd 04 3c 8f bd
       -0.10066706 -0.07257276 -0.098307595 -0.06993869
000070 8a 99 02 be fa 20 7f 3d e1 28 35 3d 91 01 ff 3d
       -0.12753883 0.06228731 0.04422844 0.12451471
000080 9c 9b b8 bd b1 a9 21 be 9a 23 d8 bd aa 8e 00 3d
       -0.09014055 -0.15787388 -0.105536655 0.031386055
000090 a9 46 5c 3e 6d bc 0a 3d 58 7d f0 bc 22 6a 30 3d
       0.2151133 0.033871103 -0.029356644 0.043069966
0000a0 e7 32 5a 3c df 55 1f be ae e4 ca 3c 36 bc 18 3c
       0.0133178 -0.15560101 0.024767246 0.009322217
0000b0 76 b9 b8 3d df bf 3a bd b9 85 48 3d b4 ea ca bd
       0.09019749 -0.04559314 0.048955653 -0.09908047
0000c0 6d 27 2c be 7d 36 95 3c 8e 2f 40 bd fa e5 a4 3d
       -0.16811915 0.018214459 -0.04692035 0.08051677
0000d0 5f d8 da 3d 3f e9 40 be be d2 24 3d cf 3d 4a ba
       0.10685801 -0.18838976 0.040240042 -0.00077148987
0000e0 89 0a 18 bd a6 bd c2 3c 5a 4a ba bc ec a9 04 be
       -0.037119422 0.023772072 -0.022740532 -0.12955445
0000f0 e1 c7 6c 3d ff 0a 8d 3d c6 e4 0a be 52 33 a3 3c
       0.057807807 0.06886863 -0.13563833 0.019921932
000100 50 1a 16 3d 4c 0d af bc 5a f3 2e 3e f5 67 9f bc
       0.036646187 -0.021368645 0.17085019 -0.01945875
000110 e0 1c 2e be 38 4d 43 3d 99 af 82 3d 69 49 c9 3d
       -0.17003202 0.047681063 0.06381149 0.09828455
000120 75 84 c0 3c 14 9f ab bc 61 83 69 3c 93 cc 91 bd
       0.02350066 -0.020949878 0.014252515 -0.071190976
000130 2d 6b 75 3d 04 d8 78 bd ca 6a 64 bd dd b6 b0 3d
       0.059916664 -0.060752884 -0.055765904 0.086286284
000140 99 eb ad bd 2f 62 2a 3d 64 2e 02 3e f5 24 10 3d
       -0.08492202 0.04159754 0.12713009 0.035191495
000150 5b 6f 82 3d 57 99 9b bb b3 5e 8d 3b 1e 97 a2 bd
       0.063688956 -0.004748504 0.0043142675 -0.079389796
000160 04 73 1d bd 8a ec 9d 3d fb 23 35 be e4 cd b2 bd
       -0.038439766 0.07711132 -0.17689507 -0.08730677
000170 ec f5 14 3c 6c eb 9d 3c 86 c4 69 3c c0 1d 1d 3d
       0.0090918355 0.019277297 0.014268046 0.03835845
000180 ee 80 4e bd 72 78 f7 bc f3 8d 39 bd a4 92 19 be
       -0.050415926 -0.0302088 -0.04530139 -0.14997345
000190 3e 51 b4 bc 9d 91 62 3d c6 52 25 3a f2 02 84 3d
       -0.022011396 0.05531465 0.00063065847 0.06445874
0001a0 ef e7 ba bd db 88 04 bc 26 61 3a be ec 79 7f 3d
       -0.09126269 -0.0080892695 -0.18201122 0.062372133
0001b0 10 7f 37 be 98 63 87 3c e5 ce 06 be 9b 07 18 bd
       -0.17919564 0.016526982 -0.13164862 -0.03711663
0001c0 81 2c 29 be 80 22 35 3d 8b 19 c8 bd 4e ca 5b be
       -0.16520883 0.044222355 -0.09770497 -0.21463892
0001d0 4f e4 d6 3d 32 5a ab 3d 0e 9e 8c bd a4 88 af bd
       0.10492765 0.08366813 -0.06866084 -0.08570984
0001e0 f2 db f9 bd 24 ef 5a 3c 58 d3 bf bb 8e e6 7d bb
       -0.12200154 0.01336268 -0.0058540516 -0.0038742158
0001f0 38 6f 0a be d0 48 34 bd f7 36 a9 3d 90 cb 0f be
       -0.13518989 -0.044014752 0.08262437 -0.14042497
000200 85 49 99 3d af 66 e8 bd a0 af f4 3c e6 f4 15 3d
       0.07484726 -0.1134771 0.0298689 0.036610506
000210 81 60 08 3e a1 f9 8f bb c2 46 63 3d 49 b6 7d 3d
       0.13318063 -0.0043937718 0.0554874 0.06194142
000220 51 c9 8b bd 90 79 df bd e2 d8 4b be 83 2d 3a bd
       -0.068255074 -0.10911858 -0.19906953 -0.04545356
000230 bd e1 61 bd 20 08 03 be bd 67 40 bc 7d a3 58 bd
       -0.05514692 -0.12796068 -0.011743483 -0.05289029
000240 5a 5e 57 bd 53 53 7b bd de ac 12 be 9f 24 4e bd
       -0.052580215 -0.06135876 -0.14323756 -0.050327893
000250 72 e8 09 3d 06 68 b7 3c 6a 22 98 bd b4 71 86 bd
       0.033668943 0.02238847 -0.07428439 -0.06564656
000260 37 b7 2e be 3c 97 00 3d b9 40 38 3d e7 7c 3c be
       -0.17062078 0.03139423 0.0449836 -0.18407021
000270 cf 87 6f bc a6 d0 07 3d e3 c9 a0 bc 13 ee 99 bd
       -0.014619782 0.033157967 -0.019627517 -0.07516112
000280 f5 e8 0e 3c 12 4c a7 bd 42 57 18 bc a6 b1 d0 bd
       0.0087225335 -0.08168806 -0.009298148 -0.10190134
000290 29 d7 0b 3e 4c 74 b1 bc 78 60 11 bd 49 1b ab bc
       0.13656296 -0.0216619 -0.03549239 -0.020887034
0002a0 c9 0a 57 3e 30 f6 80 bd 70 ff a1 bc 5d ef 88 bd
       0.21000208 -0.062969565 -0.019775122 -0.0668628
0002b0 82 45 16 bc 5b 2f e2 3d 54 ec f3 bc a9 d1 f3 bd
       -0.009171845 0.110441886 -0.029775776 -0.11905224
0002c0 11 6c a1 3c f0 6c 2f be 0b 71 34 3d 78 f8 a1 3d
       0.01970485 -0.171314 0.04405312 0.0790872
0002d0 7c 5c 91 3c 03 c8 82 bd c0 78 b6 bd 2b ef 2b 3d
       0.017744295 -0.063858055 -0.0890975 0.041976135
0002e0 fe 9a cf bd 97 e1 22 3e 59 c2 53 bd 63 35 2a be
       -0.10136984 0.15906368 -0.051699016 -0.16621928
0002f0 ea 33 00 bd 2f 85 2d bd d4 30 df 3c 98 22 2e 3d
       -0.03129951 -0.042363342 0.027244963 0.04251346
000300 91 30 0d 3e ce 34 ff bc f5 44 95 bd 97 1a 06 bd
       0.13788058 -0.031153109 -0.07288543 -0.0327402
000310 7c 26 f1 3d 09 f8 f3 bc 0d 7d 61 bc f0 41 bd bc
       0.117749184 -0.029781358 -0.013762725 -0.02310273
000320 65 01 27 be 95 f3 08 be dd 13 39 bd 50 11 f3 3d
       -0.16309126 -0.13374169 -0.04518496 0.118685365
000330 25 1d 41 bc 39 64 f9 3c 52 17 0d be 63 75 ee bd
       -0.011786734 0.030443298 -0.13778427 -0.116434835
000340 23 59 01 be 6d 58 b5 bd d2 68 b7 bc 5a 67 19 bd
       -0.12631659 -0.088547565 -0.02238885 -0.03745208
000350 9d 44 0c be 44 c5 00 bd 31 3a bc bd 88 67 77 bd
       -0.13698049 -0.031438127 -0.09190787 -0.06040147
000360 a1 af f5 3d 7b 6b c8 bd 26 ee 3b bd f0 94 8f 3d
       0.11996389 -0.09786125 -0.045881413 0.070108294
000370 87 06 54 3d 02 52 ab bd 42 58 81 bd 06 80 9d bc
       0.051764037 -0.08365251 -0.06315662 -0.019226085
000380 fb 2c af bb a3 1d 5a 3c cc 48 d2 bd 6c b5 5d 3d
       -0.0053459383 0.01331273 -0.10267791 0.054128096
000390 61 45 8d bd ee 69 74 be 5b 40 24 3e 60 49 c2 bd
       -0.068979986 -0.23868534 0.16040175 -0.094866514
0003a0 67 3a 34 3c 3a ee c5 bd 9d 2e 96 bd 0c 97 d7 bc
       0.011000252 -0.09664579 -0.073331095 -0.026317142
0003b0 81 90 a0 3d 0d 69 0c bd 0c a5 ab bb 65 b1 e7 3c
       0.07840062 -0.03427987 -0.005238181 0.02828283
0003c0 39 c5 f6 3a ca a6 a2 3b 25 9f ef bc 9a 32 a2 bd
       0.0018827087 0.0049637305 -0.02925069 -0.07919808
0003d0 73 60 a8 bd 21 c2 23 be a3 7c 9b 3d 75 fe 91 3d
       -0.08221521 -0.15992023 0.07592132 0.07128612
0003e0 ea d1 22 3e 41 32 72 3d bb e4 3f bc 3d 68 8c 3d
       0.15900388 0.059129957 -0.011712248 0.068558194
0003f0 32 dd 0e 3b 75 c8 1f 3d 78 f1 8b bd c1 fc 7c 3d
       0.0021799323 0.03900953 -0.06833166 0.061764482

network_body._body_endoder.seq_layers.0.weight f4 [256, 13]
000000 a5 c2 9c 3e bb b9 d8 3e fb 7e 85 3e c7 ad 9e be
       0.30617252 0.423292 0.2607344 -0.30991957
000010 85 2b 69 be 21 67 c8 be 85 fa 0c 3f 23 d6 0b bf
       -0.22770508 -0.3914118 0.5506976 -0.5462362
000020 9e e7 96 3d 14 d9 46 3d 06 ef 47 3e fd 67 db 3d
       0.07368396 0.048546866 0.19524774 0.107131936
000030 e5 cd 72 3e 5d 16 cd be 01 d9 07 bf 8e 37 26 3f
       0.23711355 -0.40056124 -0.53065497 0.6492852
000040 b1 00 ca be 2c d7 8f bd 08 00 36 be 99 6e c7 3d
       -0.39453653 -0.07023463 -0.1777345 0.09737892
000050 3c 75 42 3e 69 b5 33 3f 70 1f 18 3d 3e 0a 9e 3a
       0.18990034 0.70198685 0.037139356 0.0012057496
000060 26 5c 19 bc 4f 29 6a bc b1 ad 6d be 5e 5f 84 3e
       -0.009360349 -0.014292075 -0.2321079 0.2585401
000070 9a a1 c5 be 9b dd 17 bf bc 05 87 3d 5d dd 1a 3f
       -0.38599855 -0.5932252 0.065928906 0.60494024
000080 9a dc e7 be 6c 10 62 3e b5 be b4 3e d0 3e 09 3f
       -0.45285493 0.22076577 0.35301748 0.5361147
000090 33 e5 bb 3e 95 08 4d be 33 cf 2e bd 39 3a 9f be
       0.36698303 -0.20022805 -0.04267807 -0.31099108
0000a0 54 93 bf bd 19 95 51 be 89 32 38 bf a8 50 a6 3d
       -0.093542725 -0.20467032 -0.7195211 0.08120853
0000b0 b6 97 01 3f 92 db ae 3d 7e 0b 4d 3e 61 23 59 3e
       0.5062212 0.085379735 0.20023915 0.21204902
0000c0 f4 40 82 3d 9a bc a9 3d 4e 91 76 3c 90 87 e9 3d
       0.06360045 0.08287926 0.015049292 0.114028096
0000d0 14 03 2c be 22 25 ad bc 6e 47 94 bd 51 d5 9a be
       -0.16798049 -0.02113587 -0.07240187 -0.30240873
0000e0 7c 40 87 3d 6d 43 2f bd d8 64 05 3d e2 8d 24 3f
       0.06604096 -0.04278891 0.032566875 0.64278996
0000f0 ff 19 2f 3e 01 28 4e 3e f5 60 9d be 4b fe 07 bf
       0.1709976 0.20132448 -0.30738035 -0.53122395
000100 d6 67 3b be 1d 93 2f 3d 96 dc c7 bd f1 89 7b 3e
       -0.18301329 0.042864908 -0.0975887 0.24564339
000110 71 f4 69 3e 9d a1 b8 3d 24 42 17 be 26 e8 f3 bd
       0.22847153 0.090152 -0.14771324 -0.11909513
000120 f0 61 98 bd 20 e8 42 be 30 67 f7 bd 83 22 9f be
       -0.07440555 -0.19033861 -0.12080228 -0.31081018
000130 dc c5 f8 be 98 b0 79 3e 1d c4 eb bd f9 ed d4 3e
       -0.48588455 0.24383771 -0.11512015 0.4158781
000140 0d a6 40 be be b9 6f 3e d3 7f b6 3a 19 26 a4 3e
       -0.18813343 0.23410699 0.0013923593 0.32060316
000150 47 ed e6 bd 92 8e fa be 19 08 48 bd 19 37 3d be
       -0.11275726 -0.48936898 -0.048835848 -0.1847805
000160 4d 54 51 3e 7d 52 c1 3e 3c 25 48 3e 3d da 5c bd
       0.20442314 0.37758246 0.19545454 -0.053919066
000170 14 24 da 3d 13 9d 7b be 80 34 5a 3e 5c 5d ae be
       0.106514126 -0.24571638 0.2130909 -0.34055603
000180 7b e7 cd 3e 80 09 11 be 21 a6 5f bd 94 e3 05 3e
       0.40215668 -0.1416378 -0.054601792 0.13075095
000190 7b ca 96 3d 56 ef e7 be ab b4 5f 3e a2 24 fc 3d
       0.07362839 -0.45299786 0.21846263 0.12311675
0001a0 59 9b 58 be 5e 72 c7 3d 35 a6 87 3e a4 d2 c6 3c
       -0.2115301 0.09738611 0.26493993 0.024270363
0001b0 6b c2 60 3e 45 d5 cb 3c 64 b3 e0 be 08 42 0f 3e
       0.21949165 0.024881968 -0.43886864 0.13990033
0001c0 b1 d0 ce be 6f ac 26 3f f8 3c db 3e ca c1 8f be
       -0.40393594 0.6510686 0.42819953 -0.28077537
0001d0 e7 c2 8a bd a4 97 f3 bb 72 b2 de be 56 79 8d be
       -0.06775456 -0.0074338485 -0.43495518 -0.27631634
0001e0 33 2f ff be e1 74 f4 3d 57 cf be bd 93 a4 40 3e
       -0.49840698 0.119363554 -0.09316891 0.1881278
0001f0 3f f6 27 bd 55 10 d7 3e 2c 0e f6 3d ea 64 f7 bb
       -0.041006323 0.42004648 0.12014422 -0.0075498717
000200 eb 6a 3c 3e 28 54 9f bd 04 95 0c 3e c5 f1 d9 be
       0.18400161 -0.077797234 0.1372872 -0.42567268
000210 7c 89 bc bd c8 67 aa bd 72 92 a2 3e f6 60 0b 3f
       -0.092059106 -0.08320576 0.31752354 0.54444826
000220 14 6c 04 bf 27 89 59 be 7e da 7f 3e c1 e0 70 be
       -0.51727414 -0.21243726 0.24985692 -0.23523237
000230 c5 9b e3 3e c6 f4 19 be ff 56 5c be 4d e5 22 be
       0.4445478 -0.1503478 -0.21517561 -0.15907784
000240 b8 c2 f1 3d b6 fe b9 bd 0d 79 cc 3c ab 38 03 3e
       0.11804718 -0.090817854 0.024960065 0.12814586
000250 b6 e7 a0 3e cb d6 85 bd 71 0d b0 3e 1f db 8f 3d
       0.3142678 -0.06535109 0.34385255 0.07024216
000260 97 67 1a 3d 83 b3 70 be ca 75 8d 3d bc cb 17 3f
       0.037696447 -0.23505978 0.06907232 0.5929525
000270 6b 76 3c 3f da 8a cb be 03 2c bb be 33 52 7c be
       0.7361819 -0.39754373 -0.36557016 -0.24640732
000280 16 36 f1 be 93 62 85 be c8 b3 87 3d 00 aa 15 be
       -0.47111577 -0.2605177 0.066260874 -0.14615631
000290 ab 41 68 3e 13 02 62 be be 1c 2d be cc 0f 9c bd
       0.226813 -0.22071104 -0.16905496 -0.076202005
0002a0 2d 8e 17 3e c4 0c 0c 3f fe 49 89 be 5a af 94 3d
       0.1480033 0.5470698 -0.26814264 0.07260008
0002b0 75 e1 18 3f 8a 07 f9 bd 7c 06 a0 3e 32 fb c4 bd
       0.5971902 -0.12159641 0.31254947 -0.09618224
0002c0 13 dd 76 be 34 c6 61 bf 69 9b 6f bd bc 18 7a be
       -0.2410777 -0.8819306 -0.05849782 -0.24423498
0002d0 e1 e2 fb 3d b2 ab ad 3e 1e 06 b7 bd 86 c3 9d be
       0.12299133 0.33920056 -0.08936714 -0.30813235
0002e0 80 e7 2d 3a 77 39 79 bd 3b a5 00 be 6d 21 ab be
       0.00066339225 -0.06084582 -0.1256303 -0.3342394
0002f0 bc 4f f3 bd 29 c4 44 3e f5 a5 23 3e 7a 73 32 3e
       -0.118804425 0.19215454 0.15981276 0.17426863
000300 44 22 9c 3e 68 9c d1 3d 57 d6 c0 be df 6f 82 bc
       0.30494893 0.1023491 -0.37663528 -0.015922485
000310 ea 7f 9b 3e 19 e7 44 3e 8c d6 7a be 0c a1 20 3d
       0.30371028 0.19228782 -0.24495906 0.039216086
000320 98 cd 82 bc 08 cc be bd dd d9 93 3e 28 c0 bd be
       -0.015967175 -0.093162596 0.28877154 -0.37060666
000330 ed ef ea 3d af 1d 5c 3e 2d 5b d8 bb 55 29 90 be
       0.114715435 0.21495698 -0.006602666 -0.28156534
000340 27 d6 0d be f1 9b 42 3f b7 eb 95 3e 97 ae 89 3e
       -0.13851224 0.760192 0.292814 0.26891014
000350 85 6e 88 3c c2 b0 93 3e 01 de d3 bd 1f 71 cc 3e
       0.016654262 0.28845793 -0.10345078 0.39930055
000360 25 8e 13 3d 76 7c a3 3e 66 ad be bc e0 62 28 3e
       0.03602423 0.31930894 -0.023276042 0.16443968
000370 89 6d af 3d e1 1f 62 3e 9e 3e 54 be 30 39 ed 3e
       0.08565814 0.22082473 -0.20727012 0.46332693
000380 54 72 8f 3d 21 d7 d7 3e 06 dc 1f 3e 1e bd 22 bd
       0.07004228 0.42156318 0.15611276 -0.039731137
000390 f0 21 e6 bc f4 3a 69 bd 4d e8 45 be 70 fa d7 3e
       -0.028092355 -0.056940988 -0.19326897 0.42183256
0003a0 2e af 30 3e 35 26 94 bd b1 01 a9 be 5c 49 bc 3e
       0.17254326 -0.0723385 -0.33009103 0.3677472
0003b0 86 6a 7b be 41 5a b8 3e 7e c1 cb bd 00 da ff 3d
       -0.24552354 0.36006358 -0.09949015 0.12492752
0003c0 ed 74 46 3f 9a 2d 85 bd 59 95 bc 3e b8 db ae 3e
       0.77522165 -0.065028384 0.36832693 0.34152007
0003d0 2f 5a 10 bf 54 76 cd 3c 2f e5 66 be 1b de bd be
       -0.5638761 0.025080837 -0.22548364 -0.37083516
0003e0 bd 99 59 3d 9d 0b 88 be c3 29 52 bd 57 2e 10 bf
       0.053125132 -0.2657136 -0.05130936 -0.5632071
0003f0 99 e8 db 3c f5 40 42 3e cc eb b7 be 5b 67 74 be
       0.02684431 0.18970092 -0.35922086 -0.23867552

network_body._body_endoder.seq_layers.2.bias f4 [256]
000000 59 7c 84 bd f6 19 1c be 19 f8 ba bb c9 58 13 bd
       -0.0646903 -0.15244278 -0.005705845 -0.035973344
000010 19 46 4f 3d a9 c2 93 bd 37 1d 33 be 4d 87 44 bd
       0.05060396 -0.07214863 -0.17491613 -0.047980595
000020 76 45 b8 bc 12 c7 07 bd 1d d1 1a be 63 42 44 3d
       -0.022494059 -0.033148833 -0.15118833 0.047914874
000030 22 02 9e 3d 42 43 2d bd 5f 8c 18 3c a3 f9 38 bd
       0.077152506 -0.04230047 0.009310811 -0.045159947
000040 54 a5 86 bd 3b ce ee bd a2 f3 87 3c 8a 6f 66 bd
       -0.065745026 -0.11660429 0.016595665 -0.056258716
000050 d4 0b 7f bd c0 e8 56 bd 20 aa 23 bd 9e 48 07 3c
       -0.06226714 -0.05246806 -0.039957166 0.008257059
000060 8a b4 10 bd 9d e6 a0 bd e1 9a ec 3b 52 5b 89 3c
       -0.035328425 -0.07856486 0.0072206114 0.016767178
000070 01 1a 8f bd 64 8c ab bd 1f 96 13 bc b8 34 bd bd
       -0.06987382 -0.08376387 -0.00900796 -0.09238571
000080 22 7d 65 3c 05 94 25 bd 44 78 09 3c 76 5f e4 bb
       0.014006885 -0.040424366 0.00839049 -0.0069693876
000090 38 94 df bd 92 e2 a6 3d af fd 81 3d d8 69 6a bd
       -0.10916942 0.081486836 0.063472144 -0.057229847
0000a0 32 56 9f 3d cc 4e c5 bd 1c 69 8e 3d 66 99 a4 3c
       0.07780112 -0.0963417 0.06953642 0.020092677
0000b0 2f 9c dc bd 0f 0b c3 bd 18 8c 10 3b a0 7c 91 3d
       -0.10771977 -0.09523594 0.0022056159 0.071038485
0000c0 18 5f c2 bd 0b 43 40 bd 40 77 e4 3d 6c 02 db bd
       -0.09490794 -0.046938937 0.11155558 -0.10693821
0000d0 c5 ff 44 bd e6 5c 05 bd 86 b1 5d bd b0 0e b7 bc
       -0.048095483 -0.032559298 -0.054124378 -0.02234587
0000e0 0a 52 45 3d 0c 23 60 bd 33 28 50 3d 51 09 58 bd
       0.04817394 -0.054720923 0.050819587 -0.05274326
0000f0 6f da 62 3d 32 7d 4f bd 1b 79 3b bd 06 c2 28 bd
       0.055384096 -0.050656505 -0.045769792 -0.04120066
000100 83 5c 5a 3d 03 b7 23 3d 2d 3a a0 bc 56 5a c4 bd
       0.053310882 0.039969455 -0.01955899 -0.09587543
000110 77 07 12 3d c3 30 f2 bc a7 2f 9e 3c e8 a7 e0 bc
       0.03565165 -0.029564267 0.019309832 -0.027423814
000120 46 f7 e8 3c 23 4e b4 bd 5c 1c 3a 3d f0 0f 8a bc
       0.028438222 -0.08803966 0.0454372 -0.016853303
000130 2f 2f 79 bd 21 7b e6 bd b5 b4 4b bc b0 7c e7 bd
       -0.060836013 -0.11253954 -0.012433221 -0.11303079
000140 66 74 53 bc 9d b0 55 bd 38 dd 3c bd 0c 15 3f bd
       -0.0129061695 -0.052170385 -0.04610941 -0.04665093
000150 be e5 1e bd a6 fb aa 3d 26 70 3a bd f7 29 24 be
       -0.038793318 0.083487794 -0.04551711 -0.16031633
000160 40 90 f1 bd f0 62 05 be 50 dc 34 be 23 a4 94 bd
       -0.11795092 -0.13026023 -0.17662168 -0.07257869
000170 22 9c 85 bd 15 e4 a6 bd dd 86 20 bd d2 94 22 bd
       -0.065239206 -0.08148972 -0.039191116 -0.039692707
000180 0f 2d 0c be a8 13 6a bd 5a 96 be 3c f7 e0 8f bc
       -0.13689063 -0.057147652 0.023265053 -0.017563326
000190 74 8c a0 bd 96 73 c1 bc c6 9f 98 bd 17 94 80 3d
       -0.07839289 -0.023614686 -0.07452349 0.06278246
0001a0 59 73 d9 bc 46 f9 54 bd 07 88 b5 bd e0 93 96 bc
       -0.02654426 -0.05199554 -0.08863836 -0.01838106
0001b0 67 d6 4f bc c2 35 7b bc 32 14 2b 3c a7 f3 4f bd
       -0.012685395 -0.015332641 0.010441827 -0.050769474
0001c0 7f 1f 30 be 54 6d 6f bc 4d 8c 1f bc ee be 9c bd
       -0.17199515 -0.014613468 -0.00973804 -0.076536044
0001d0 82 55 9f 3d f6 f7 d4 bc 38 db 16 3c 85 b5 cb bc
       0.07779981 -0.025997143 0.009207539 -0.024866829
0001e0 af 0c bb bd 2f ac 03 3d 1e f4 58 3c 53 5a f8 3b
       -0.091332786 0.03214663 0.013241796 0.007579127
0001f0 38 59 07 3d 13 4f 70 bd 4c 8d 0a bc 28 ff aa bc
       0.03304407 -0.05866916 -0.008456539 -0.020873621
000200 d6 85 ba bd 83 d2 92 bd 64 83 0e be 6d 77 09 bd
       -0.091075584 -0.07169058 -0.13917309 -0.03356116
000210 be e6 5d bd 88 61 da bc 2a 41 e5 bd 2d ab e2 bc
       -0.05417513 -0.026657835 -0.1119407 -0.027669514
000220 36 9f bd bc 5e 35 75 bd 49 69 1b 3b 47 35 1a bc
       -0.023147207 -0.059865348 0.0023713878 -0.009412116
000230 a5 d0 8d bd 9a 42 d0 bd e7 c9 b1 3d ae a9 95 bc
       -0.069245614 -0.10168953 0.08681088 -0.018269386
000240 c8 65 53 bd ef 08 8d bc 38 db 80 bc 90 2e 3e bd
       -0.051610738 -0.017216174 -0.015729532 -0.046431124
000250 33 b0 66 bd df 3d df bc df 0c b4 bd a2 78 a1 3c
       -0.05632038 -0.027251182 -0.087915175 0.019710843
000260 18 60 87 bd dd b7 66 bd ea b5 42 bd 05 04 74 bd
       -0.06610125 -0.05632769 -0.047536768 -0.059574146
000270 86 ab 20 be 65 6e e2 bd 3c 46 91 bd 9c c4 a9 bb
       -0.15690431 -0.11056212 -0.07093474 -0.0051809084
000280 05 91 4f bd 03 33 56 bd 67 e9 a6 bc 9e 20 cd bd
       -0.05067541 -0.052294742 -0.020374967 -0.10015987
000290 3c 8b a2 bd 04 9d 2e bd b4 94 36 bd 94 ec 40 3b
       -0.07936713 -0.04263021 -0.044575408 0.0029437887
0002a0 5b e1 88 bd d5 5b ba 3c ff d8 88 3d 5a 4d 76 bd
       -0.06683608 0.022748867 0.06682014 -0.060132362
0002b0 37 2c a0 3b d2 e2 ee bc 79 3b 1c 3d 9d df 0e 3c
       0.0048880833 -0.02916089 0.038142655 0.008720306
0002c0 7d 8f ea bc e0 19 c0 bc 9c 9f b9 bd ac e3 65 3c
       -0.028632874 -0.023449838 -0.09063646 0.014031332
0002d0 12 30 77 bd 29 df dc bd a0 cb a1 3c b3 d4 89 bd
       -0.060348578 -0.10784752 0.019750416 -0.06730022
0002e0 27 74 db bc df e9 0b 39 17 40 08 bc a3 84 02 bd
       -0.026788784 0.00013343197 -0.008316061 -0.031864773
0002f0 a1 46 08 bd e3 8a 79 3c 62 27 36 3c e4 16 b3 bd
       -0.033270482 0.015230867 0.011117788 -0.087446004
000300 e0 e9 3f bd 37 e7 cc bc cb ac 2a 3d 94 54 00 bd
       -0.0468539 -0.025012596 0.041668694 -0.03133066
000310 be ed 73 3d a1 36 37 be c5 12 48 bd 98 e9 d2 3b
       0.0595529 -0.17891933 -0.048846025 0.006436538
000320 e9 c5 22 bd c6 de 9c bc af f4 84 3c fc 3e 9d bc
       -0.039739523 -0.019149195 0.016229955 -0.019195072
000330 a4 b6 b4 3c b2 6e a7 bd e9 f0 02 bd a0 b5 23 bd
       0.022059746 -0.0817541 -0.03196803 -0.039968133
000340 1b 08 47 bd 0d 77 bd bc d1 75 3d bd 77 42 d7 bd
       -0.048591714 -0.023128057 -0.046254937 -0.10510724
000350 74 8f 79 3c 55 ec e2 bd 91 95 d4 bd 5c 25 ab bd
       0.015231956 -0.11080233 -0.1038009 -0.08356735
000360 bd 51 af bc cd 9d e0 bd ff 17 89 bd 61 1d dc bd
       -0.02140128 -0.10967598 -0.0669403 -0.10747791
000370 7f 6a 8e bd 59 ab e3 bc 8d fb 70 bd 13 56 ae bd
       -0.06953906 -0.027791666 -0.058833648 -0.08512511
000380 d2 51 9a bd d1 83 15 3d f3 33 03 be e9 3a 99 bd
       -0.07535137 0.036502663 -0.12812786 -0.07481939
000390 8f 6f 97 bc 7f ef eb bd 4e c0 b6 bd 02 8a 36 3d
       -0.018485812 -0.1152029 -0.08923398 0.04456521
0003a0 69 d8 e5 3c f9 22 e6 bd e6 4b bc 3c e2 0a b0 3c
       0.028057294 -0.11237139 0.02298541 0.021489564
0003b0 00 ad 85 bd fd 62 a6 bb 63 38 86 bc 71 e4 63 bd
       -0.06527138 -0.0050777183 -0.01638431 -0.05563778
0003c0 e4 26 7b bd 3c 45 a8 3c e1 db 8a bd f2 b0 01 bd
       -0.061316386 0.020540826 -0.0678022 -0.03166289
0003d0 49 18 16 3b 48 d1 90 bc 0a f3 ce bc 10 fc 28 3d
       0.0022902659 -0.017677918 -0.025262374 0.04125601
0003e0 0a 40 7a 3a 19 73 59 3c 8f a7 81 bd 13 2e 96 3d
       0.0009546286 0.01327207 -0.063307874 0.07333007
0003f0 ef 5b a7 3d 39 bf 19 3d 16 5b 4f be ce b6 96 bd
       0.08171832 0.03753588 -0.2024959 -0.07359086
