Assets/Model/ChaseMode-999894.onnx (onnx, 295132 bytes, 15 tensors)

action_model._discrete_distribution.branches.0.bias f4 [3]
0.019704228 -0.03815315 0.020176519
00000000: c36a a13c 7a46 1cbd 3a49 a53c

action_model._discrete_distribution.branches.0.weight f4 [3, 256]
-0.04264463 -0.01791152 0.021198353 0.061416734 0.021075636 -0.029532477 -0.07520251 -0.036158275
-0.022461912 0.030883849 -0.0418918 0.037466478 -0.03057633 -0.019875918 0.06734638 0.012177896
-0.020021757 -0.08522547 -0.068774015 -0.0538237 -0.004080203 -0.011037877 0.0026797408 0.062955156
-0.031042099 -0.005558936 -0.049165633 -0.0105358455 0.013030252 -0.03919271 0.03517744 0.049697123
0.019587835 -0.083439715 -0.06818486 0.057350982 -0.06917994 -0.008240769 0.015634626 -0.06908292
0.052571487 0.0032941285 -0.0454826 0.02748763 -0.024233146 0.03927525 -0.028509302 -0.005919126
-0.06668987 -0.06224005 -0.11331731 -0.05715456 -0.048280336 -0.02056422 0.012782958 -0.04026851
-0.0091822175 0.05283215 -0.054621212 -0.0045352727 0.02396405 -0.02212988 0.028358927 -0.019052813
0.0151431225 0.043029603 -0.008278088 0.057986204 -0.002193403 -0.005251689 0.009682766 0.0005866846
0.027604315 -0.023196183 -0.0149475625 0.022842392 0.0313887 -0.020751204 0.013228594 -0.04021321
-0.049131315 0.095828295 -0.04748438 0.01598433 -0.04430251 -0.011955035 -0.022182457 -0.014429276
-0.03792658 -0.046143085 -0.0660274 -0.03885651 0.022634545 -0.007157912 0.03132668 0.005934003
0.050811715 -0.026697077 0.037506603 0.048710585 -0.006699328 -0.035153627 -0.045218334 -0.031632848
-0.004561473 0.025688922 -0.04815959 -0.07591088 -0.07635504 0.020925164 -0.0025019955 0.018072583
-0.04405907 -0.009857453 -0.05003446 0.010181645 0.017954472 -0.032006443 -0.032885388 0.05069026
0.021227852 0.0154651115 -0.08848874 0.026060734 -0.01141569 0.00021716864 0.01352278 0.0010522958
-0.019345285 -0.0070472597 -0.02835417 -0.0138288485 -0.031016165 0.016735904 -0.00043336436 0.06873325
-0.019638088 0.028477704 0.038141605 0.026728988 0.007989772 0.110875905 0.009047851 0.017330758
0.010283812 0.040294636 0.06299162 0.023279212 0.011845661 0.021156525 -0.05197503 -0.031538606
-0.038107432 0.011442783 0.0073937923 0.06619177 0.05663312 -0.0001463116 -0.029201582 -0.047972724
0.0854685 0.0040728655 -0.014092963 0.060947128 -0.0009472291 -0.045626998 -0.010955868 -0.019675333
0.045764845 -0.03588963 -0.0123029705 0.036733728 0.026830813 -3.4933237e-05 -0.06155726 -0.057214186
-0.0119708255 -0.0027847823 0.014206493 -0.031680647 0.018616157 0.026760332 0.07077691 0.044299897
0.021058707 -0.005130024 0.0014412937 -0.023459593 0.0028688537 -0.015009907 -0.022524957 0.043140605
-0.0476221 0.09767701 -0.028489564 -0.065830365 -0.03531559 0.08102305 -0.012956079 0.004435011
-0.022855274 -0.033835433 0.04181661 0.027726868 0.039382085 -0.011667053 -0.01572349 -0.011838632
-0.016949851 -0.05014622 0.035690468 -0.00562543 -0.036204107 -0.06877221 0.045970168 -0.019406047
0.011086102 0.048439845 0.069391444 -0.022427596 -0.010686709 -0.0885138 0.045216333 -0.007847801
0.08150173 0.068530135 0.0336357 -0.06372828 -0.035688523 0.014488729 -0.014735509 0.03875543
0.001325226 -0.052064434 -0.00816982 0.0075886897 -0.0017654567 -0.059680626 0.03127022 0.029173966
0.03653189 0.03139218 0.018513039 -0.03879858 0.0040662717 0.047894765 -0.003361662 -0.021979509
0.003157199 -0.070580706 0.010463978 0.015578096 0.060992155 -0.034977745 -0.029431371 0.0034142924
00000000: 23ac 2ebd 2ebb 92bc 2ba8 ad3c 1d90 7b3d
00000010: d0a6 ac3c 18ee f1bc c603 9abd b31a 14bd
00000020: 0b02 b8bc 2000 fd3c bc96 2bbd 7376 193d
00000030: 367b fabc d2d2 a2bc e6ec 893d cc85 473c
00000040: ab04 a4bc b18a aebd 64d9 8cbd 3d76 5cbd
00000050: 39b3 85bb 36d8 34bc 979e 2f3b a2ee 803d
00000060: 004c febc bc27 b6bb e761 49bd 8a9e 2cbc
00000070: d77c 553c 8988 20bd 3816 103d 368f 4b3d
00000080: ab76 a03c 71e2 aabd 81a4 8bbd dde8 6a3d
00000090: 36ae 8dbd 4a04 07bc 3014 803c 597b 8dbd
000000a0: 3355 573d 4ee2 573b f64b 3abd bd2d e13c
000000b0: 9784 c6bc 16df 203d 578c e9bc 3af5 c1bb
000000c0: b394 88bd 6cef 7ebd e812 e8bd e61a 6abd
000000d0: 9ac1 45bd 4c76 a8bc 9d6f 513c 98f0 24bd
000000e0: 0371 16bc 8666 583d 7eba 5fbd a09c 94bb
000000f0: 4150 c43c b949 b5bc fb50 e83c a514 9cbc
00000100: dc1a 783c cf3f 303d d1a0 07bc f182 6d3d
00000110: 32bf 0fbb 5c16 acbb 77a4 1e3c bdcb 193a
00000120: 7222 e23c ec05 bebc 9fe6 74bc f81f bb3c
00000130: 7091 003d 6efe a9bc bfbc 583c 9bb6 24bd
00000140: eb3d 49bd a041 c43d fb7e 42bd 92f1 823c
00000150: 8c76 35bd 0ddf 43bc fcb7 b5bc c568 6cbc
00000160: e758 1bbd 8800 3dbd 6039 87bd 0128 1fbd
00000170: 156c b93c eb8c eabb 6850 003d 0672 c23b
00000180: f21f 503d d4b3 dabc 86a0 193d c084 473d
00000190: 0986 dbbb 40fd 0fbd dc36 39bd 7291 01bd
000001a0: 6978 95bb 9371 d23c fe42 45bd 2a77 9bbd
000001b0: 0860 9cbd 406b ab3c 85f8 23bb f40c 943c
000001c0: 4977 34bd 2881 21bc eff0 4cbd ead0 263c
000001d0: 4215 933c 3019 03bd d4b2 06bd 97a0 4f3d
000001e0: 08e6 ad3c 6161 7d3c 9639 b5bd 527d d53c
000001f0: e008 3bbc c3b7 6339 a68e 5d3c 30ed 893a
00000200: 017a 9ebc b3ec e6bb 0147 e8bc 6592 62bc
00000210: 9d15 febc bc19 893c 2e35 e3b9 05c4 8c3d
00000220: 0ee0 a0bc 134a e93c 5f3a 1c3d c0f6 da3c
00000230: 88e7 023c e812 e33d 703d 143c 3cf9 8d3c
00000240: 6f7d 283c fd0b 253d c001 813d 0cb4 be3c
00000250: 4e14 423c 7350 ad3c c5e3 54bd a02e 01bd
00000260: 8a16 1cbd 837a 3b3c a047 f23b 8d8f 873d
00000270: 21f8 673d 396b 19b9 2838 efbc 0c7f 44bd
00000280: 1c0a af3d ac75 853b 2ce6 66bc b2a3 793d
00000290: 784f 78ba 60e3 3abd 3e80 33bc 2a2e a1bc
000002a0: eb73 3b3d 0101 13bd 6692 49bc 1b76 163d
000002b0: 4bcc db3c 4785 12b8 7723 7cbd 6c59 6abd
000002c0: 4821 44bc e580 36bb 5ac2 683c 91c3 01bd
000002d0: e980 983c 7c38 db3c 7cf3 903d cf73 353d
000002e0: 4f83 ac3c c319 a8bb cbe9 bc3a 552e c0bc
000002f0: 6103 3c3b 1dec 75bc 4286 b8bc 34b4 303d
00000300: 640f 43bd e20a c83d f262 e9bc 12d2 86bd
00000310: 15a7 10bd 6aef a53d bc45 54bc 9253 913b
00000320: fc3a bbbc 0697 0abd e547 2b3d 7523 e33c
00000330: 1c4f 213d 2b27 3fbc 8cce 80bc d2f6 41bc
00000340: 6ada 8abc 1f66 4dbd 2b30 123d 8755 b8bb
00000350: c24a 14bd 72d8 8cbd 374b 3c3d 6ef9 9ebc
00000360: 7ba2 353c dc68 463d 1a1d 8e3d 14ba b7bc
00000370: 4e17 2fbc b946 b5bd c334 393d 1094 00bc
00000380: 61ea a63d 8759 8c3d 96c5 093d f983 82bd
00000390: 212e 12bd 2262 6d3c 346d 71bc 04be 1e3d
000003a0: 35b3 ad3a 8441 55bd b5da 05bc 8baa f83b
000003b0: e666 e7ba ac73 74bd 3415 003d 3efe ee3c
000003c0: 77a2 153d 1695 003d a8a8 973c 43eb 1ebd
000003d0: 5c3e 853b 4d2d 443d 544f 5cbb 5f0e b4bc
000003e0: 02e9 4e3b 9e8c 90bd 1b71 2b3c 453b 7f3c
000003f0: e9d2 793d d344 0fbd 0f1a f1bc 52c2 5f3b

action_model._discrete_distribution.branches.1.bias f4 [3]
-0.0854686 0.023115389 0.061956942
00000000: 290a afbd 7c5c bd3c 90c6 7d3d

action_model._discrete_distribution.branches.1.weight f4 [3, 256]
0.040679656 0.029935928 0.032785174 -0.023086112 -0.047098767 -0.00829548 0.008804614 0.050909042
-0.03093684 0.008954248 -0.009847257 0.0770428 -0.03755602 -0.006445371 0.07795314 -0.022454504
-0.072653204 0.024318848 0.03748359 0.04369698 0.041220866 0.03826937 -0.057489228 0.07308688
-0.018111255 0.016575221 -0.00609384 -0.0022722688 -0.11412724 -0.043791328 0.01881141 0.0045619216
0.09519169 -0.01652549 0.03947862 0.095122 -0.09989207 0.034741305 0.008718372 -0.04789147
0.016069889 0.0035732416 -0.12637699 -0.013268634 0.02735 -0.032361772 0.0005447754 0.06418095
-0.008803691 -0.01387105 0.03586812 0.06018124 -0.024606226 -0.04709372 -0.0643589 -0.0033786192
0.00027854968 0.082645305 -0.04326865 -0.04346903 -0.043068647 0.02873768 -0.054665886 0.060089782
-0.028912902 0.04183942 -0.013007842 -0.027823862 -0.06531153 0.06786855 -0.043636136 0.027716894
-0.056228742 -0.011463107 4.4721684e-05 0.006548319 -0.0060919 -0.005415802 -0.019213744 -0.023324994
0.02554837 0.003413656 0.028335614 0.048550144 0.022883568 0.0072815362 0.020383922 0.012552814
0.022940684 -0.029037608 0.09238161 -0.02368694 -0.07403754 -0.0065897815 -0.0039762314 -0.072378196
-0.060216043 0.044651546 -0.010811812 -0.08189298 -0.006394154 -0.018490296 0.02774094 0.023175327
0.046462353 0.020575177 0.046756897 0.025621291 0.04870003 -0.053011123 0.027285874 -0.00463725
0.04548247 -0.08539671 -0.047984306 0.051954933 -0.020076137 0.042712722 -0.007415191 -0.032539733
-0.0069774776 -0.030360868 0.032133345 -0.030886814 0.044972524 0.050850295 -0.058912683 -0.051383853
-0.0075136856 -0.004384247 -0.062482398 0.11532267 -0.014774017 0.14953366 0.014230176 0.019719418
-0.014593245 0.012110708 0.04407644 -0.055315766 0.06241336 -0.006554136 0.0098904995 0.04592369
0.051967826 0.025491841 -0.057155114 -0.050526377 0.018219985 0.008794999 -0.0677571 0.01192863
0.024472928 -0.013963765 -0.048256446 -0.025756283 -0.041607667 0.04961302 -0.016477965 -0.0016925076
0.039444335 0.015519204 -0.0012328376 -0.028014777 0.0070061386 -0.041948564 0.017400336 0.025576554
0.036318883 -0.008510123 0.00019106691 0.001248999 0.07131153 -0.021835031 0.0112777995 -0.055651266
0.033893257 -0.04581581 0.057106066 0.0021691893 0.019326853 -0.029443081 -0.04118139 0.03719667
-0.052958388 -0.078060664 -0.05028999 -0.0011532062 -0.043823425 -0.0057915645 -0.030623032 0.033000417
0.0035497106 -0.022530442 -0.045260377 0.0475741 0.011939311 0.010921712 -0.043925967 0.02217637
-0.030105913 -0.0028400777 0.023589788 0.060833603 0.009110722 0.057848018 -0.024647912 0.09982095
0.0069406074 -0.022079041 -0.0024751178 0.044150285 0.059796598 0.088845216 0.01264556 0.0015853873
-0.0015540328 0.028194424 0.03659956 0.10357127 0.019999314 -0.068203524 -0.03634064 0.11490605
-0.0022206998 0.023788285 0.030002218 -0.025372019 -0.0068626106 -0.032938596 0.01620301 0.08065409
-0.020573074 -0.00053791306 0.035174567 0.029121542 0.06202908 -0.006332567 -0.020317862 0.0063695754
-0.032366488 -0.028446307 0.039593454 0.092186965 0.020384574 0.027788855 -0.1807938 0.003714119
0.10069745 0.016025625 0.026813643 0.012208168 0.017184392 -0.015540779 -0.027689425 0.018539818
00000000: b69f 263d 313c f53c bf49 063d 161f bdbc
00000010: a3ea 40bd c4e9 07bc 3a41 103c 0086 503d
00000020: 426f fdbc d7b4 123c 6456 21bc 9ec8 9d3d
00000030: 57d4 19bd b133 d3bb e5a5 9f3d 82f2 b7bc
00000040: 34cb 94bd 5238 c73c 6588 193d 9bfb 323d
00000050: 36d7 283d 58c0 1c3d d379 6bbd 93ae 953d
00000060: 0e5e 94bc c2c8 873c d6ae c7bb 58ea 14bb
00000070: 8bbb e9bd 895e 33bd 631a 9a3c 2c7c 953b
00000080: dcf3 c23d 7760 87bc 55b4 213d 53cf c23d
00000090: 3794 ccbd e64c 0e3d 81d7 0e3c d929 44bd
000000a0: 00a5 833c 0c2d 6a3b f868 01be af64 59bc
000000b0: 1b0d e03c c78d 04bd 42cf 0e3a 4d71 833d
000000c0: 5b3d 10bc 6743 63bc 73ea 123d 9b80 763d
000000d0: ff92 c9bc 58e5 40bd 99ce 83bd d36b 5dbb
000000e0: 4e0a 9239 f141 a93d 783a 31bd 950c 32bd
000000f0: c068 30bd 486b eb3c 56e9 5fbd b420 763d
00000100: c0da ecbc d05f 2b3d d81e 55bc deee e3bc
00000110: 0dc2 85bd abfe 8a3d cebb 32bd 8a0e e33c
00000120: 1c50 66bd c1cf 3bbc 8b93 3b38 4893 d63b
00000130: 909e c7bb 0a77 b1bb 2466 9dbc 0f14 bfbc
00000140: d14a d13c a5b7 5f3b 1720 e83c 84dc 463d
00000150: 5276 bb3c f499 ee3b 2ffc a63c 51aa 4d3c
00000160: 1aee bb3c 47e0 edbc 9232 bd3d 1d0b c2bc
00000170: fea0 97bd 18ef d7bb 0c4b 82bb 053b 94bd
00000180: 19a5 76bd 8ae4 363d 0724 31bc 82b7 a7bd
00000190: 0d86 d1bb f678 97bc f840 e33c 2fda bd3c
000001a0: 4f4f 3e3d 468d a83c 2984 3f3d bee3 d13c
000001b0: af79 473d 3122 59bd a086 df3c 13f4 97bb
000001c0: d44b 3a3d 78e4 aebd 318b 44bd b2ce 543d
000001d0: b676 a4bc 89f3 2e3d 21fb f2bb 6248 05bd
000001e0: 53a3 e4bb 5bb7 f8bc 419e 033d 5806 fdbc
000001f0: 1c35 383d 6648 503d 6d4e 71bd e077 52bd
00000200: 5d35 f6bb bba9 8fbb 8bed 7fbd 4b2e ec3d
00000210: b80e 72bc 5a1f 193e af25 693c 9e8a a13c
00000220: 8218 6fbc fe6b 463c 7f89 343d c992 62bd
00000230: 27a5 7f3d 14c4 d6bb c30b 223c 7b1a 3c3d
00000240: 37dc 543d 44d4 d03c 7b1b 6abd bff4 4ebd
00000250: 1442 953c e618 103c 3cc4 8abd 4d70 433c
00000260: 737b c83c 47c8 64bc 8da8 45bd d7fe d2bc
00000270: cd6c 2abd 0637 4b3d ccfc 86bc 22d7 ddba
00000280: 6290 213d 4244 7e3c 2a97 a1ba 3f7f e5bc
00000290: c093 e53b 42d2 2bbd 268b 8e3c ec85 d13c
000002a0: 1cc3 143d 0b6e 0bbc 2259 4839 74b5 a33a
000002b0: c80b 923d 61df b2bc 85c6 383c 95f2 63bd
000002c0: a8d3 0a3d 5ca9 3bbd 0de8 693d f528 0e3b
000002d0: 5953 9e3c 9e32 f1bc d1ad 28bd 895b 183d
000002e0: e5ea 58bd 45de 9fbd e0fc 4dbd 2e27 97ba
000002f0: 3180 33bd 2ac7 bdbb 27dd fabc 722b 073d
00000300: 43a2 683b c391 b8bc f262 39bd 0fdd 423d
00000310: 1a9d 433c fbf0 323c b7eb 33bd 38ab b53c
00000320: ada0 f6bc 9920 3abb 5f3f c13c a82c 793d
00000330: 2345 153c 0bf2 6c3d 6bea c9bc ed6e cc3d
00000340: 096e e33b 1bdf b4bc 9635 22bb eed6 343d
00000350: 47ed 743d 7bf4 b53d 532f 4f3c c5cc cf3a
00000360: b0b0 cbba fef7 e63c 6ce9 153d 2d1d d43d
00000370: 9ad5 a33c 4aae 8bbd ecd9 14bd dd53 eb3d
00000380: 2989 11bb a6df c23c 36c7 f53c fbd8 cfbc
00000390: c0df e0bb 9fea 06bd 2dbc 843c f92d a53d
000003a0: dd88 a8bc bc02 0dba 3513 103d 4d90 ee3c
000003b0: 3412 7e3d 6c81 cfbb a571 a6bc dfb7 d03b
000003c0: b992 04bd 3b08 e9bc bf2c 223d 85cc bc3d
000003d0: 8dfd a63c 74a5 e33c 0322 39be 9468 733b
000003e0: 773a ce3d 2c48 833c 49a8 db3c c504 483c
000003f0: 48c6 8c3c c09e 7ebc efd4 e2bc d1e0 973c

action_model._discrete_distribution.branches.2.bias f4 [3]
0.025440529 -0.024554204 0.004009481
00000000: a868 d03c e625 c9bc f761 833b

action_model._discrete_distribution.branches.2.weight f4 [3, 256]
0.026178772 0.081419304 -0.019660214 -0.010831181 0.009373913 -0.030821493 0.06046545 -0.03668975
-0.015377369 -0.053106915 0.07220826 -0.0075595956 -0.049346562 -0.02677361 0.028456911 -0.02611334
-0.06706403 0.022227908 0.006501422 0.073603064 0.073581524 -0.073447295 0.00088093337 0.04137712
-0.031226909 -0.07973754 -0.04588575 -0.062206063 -0.041535743 -0.033216413 -0.059735768 0.049268026
-0.013836447 -0.027269997 0.0072192433 0.06761538 -0.09886655 -0.024765473 -0.01143373 -0.010504582
0.048217233 -0.017906545 -0.057150744 -0.011436312 0.04167998 -0.058030948 0.0042317864 0.046582635
0.013036415 -0.018775467 0.005631881 0.018154277 -0.005899873 -0.05907322 -0.043331377 -0.04078538
-0.00051115354 0.0044598784 0.0067682085 -0.02823021 -0.07531718 0.010199516 -0.045207787 0.03521888
0.05592236 -0.037512135 -0.016504101 -0.08260134 -0.046173677 0.022025235 -0.03963066 -0.04242069
0.068713106 -0.028108498 -0.046326693 0.015962146 0.017262917 -0.03780539 -0.035463404 -0.09758001
-0.019282702 0.01810394 -0.012151535 0.0808146 0.03642244 0.030124748 -0.033001434 0.0050872425
0.014318655 -0.0013770941 0.01508649 0.092898756 -0.060848363 0.035275847 -0.025617091 -0.05963191
-0.052956853 0.048326563 0.036056 0.04128759 -0.04760906 0.049754675 0.019208955 0.071958184
0.020465035 0.0032164305 -0.0037585844 -0.018219346 0.071700476 -0.025398279 0.019035216 0.036190074
0.09025724 -0.0800837 -0.04268257 0.07502501 -0.014180045 -0.073922805 0.067795776 -0.07804596
0.022324242 -0.021711143 -0.05711975 -0.016743941 0.022927128 0.07642488 -0.027239908 0.03791278
0.0020551651 0.0038890715 0.0074183997 -0.022135625 0.052813195 0.11082664 -0.03484253 0.0045720646
-0.008224251 -0.03787133 -0.047371734 0.006495754 0.075454034 0.011371506 0.10277992 -0.011566075
0.026379958 0.02125345 -0.063149884 -0.024463467 0.018275907 0.08051911 -0.043346033 -0.007492877
0.016822293 -0.029227694 -0.011206197 -0.033417422 -0.05006452 0.028544525 0.011461763 -0.04169361
0.01985808 0.032450397 -0.032278027 0.036450885 -0.035671577 -0.04464819 0.007361384 -0.011002179
0.0625657 -0.034640826 0.012891393 0.016877698 -0.032062884 -0.049463235 -0.045091376 0.052806426
-0.01312633 -0.010399563 -0.046558864 0.008111928 0.019438641 -0.04829274 -0.0011053398 0.006906512
-0.019657314 -0.053780533 -0.076272376 0.01265698 -0.0600718 0.086235955 0.022976266 -0.008579745
-0.014666252 -0.046909936 0.026139922 -0.025064658 0.006141533 -0.011935512 -0.07246555 0.031732827
0.0060704374 0.037433043 0.08202226 -0.030062476 0.046055038 -0.054072645 -0.055563174 -0.048349
-0.015847228 -0.01963814 0.010389107 0.064587675 -0.056160346 0.012538133 0.05391331 -0.047760077
0.034254424 -0.014161851 -0.04036908 0.015318788 0.03948494 -0.03998321 -0.022232171 0.06539973
-0.006482449 -0.04806862 0.005054539 -0.03439869 -0.045474578 0.002425556 -0.008021979 0.00037739976
0.06806794 -0.016229786 -0.037118163 -0.026108583 0.09700957 -0.051093835 -0.03631412 0.017673211
-0.056761544 -0.011850747 0.0145447515 -0.019425023 -0.025369849 -0.049630377 -0.06300383 0.06467301
-0.027147012 -0.040812936 0.054147433 0.06360712 0.0016136155 -0.06224065 -0.03929226 -0.0021896733
00000000: dd74 d63c 2abf a63d 750e a1bc 4475 31bc
00000010: 0a95 193c 5b7d fcbc 9faa 773d fe47 16bd
00000020: 5cf1 7bbc a386 59bd ede1 933d 7cb6 f7bb
00000030: 9f1f 4abd 5454 dbbc 781e e93c a5eb d5bc
00000040: de58 89bd 4d17 b63c e109 d53b 34bd 963d
00000050: e9b1 963d 896b 96bd 70ee 663a 0e7b 293d
00000060: 93cf ffbc 6f4d a3bd b2f2 3bbd c9cb 7ebd
00000070: 6221 2abd ef0d 08bd 7ead 74bd 45cd 493d
00000080: 44b2 62bc 5465 dfbc 678f ec3b ef79 8a3d
00000090: 8c7a cabd f6e0 cabc 8a54 3bbc 691b 2cbc
000000a0: 6f7f 453d bfb0 92bc e616 6abd 5f5f 3bbc
000000b0: a0b8 2a3d dcb1 6dbd ccaa 8a3b 6fcd 3e3d
000000c0: b096 553c 02cf 99bc a48b b83b 47b8 943c
000000d0: b953 c1bb c3f6 71bd 3e7c 31bd 920e 27bd
000000e0: effe 05ba 2c24 923b d9c7 dd3b 0b43 e7bc
000000f0: e53f 9abd df1b 273c cd2b 39bd ac41 103d
00000100: d80e 653d 53a6 19bd 9c33 87bc e42a a9bd
00000110: 9c20 3dbd 446e b43c c253 22bd 51c1 2dbd
00000120: 75b9 8c3d cb43 e6bc 0fc1 3dbd 0cc3 823c
00000130: f66a 8d3c d3d9 1abd 1342 11bd 07d8 c7bd
00000140: c2f6 9dbc b74e 943c 3b17 47bc 2082 a53d
00000150: b22f 153d 2dc8 f63c 832c 07bd e2b2 a63b
00000160: cb98 6a3c 9c7f b4ba 532d 773c b441 be3d
00000170: 223c 79bd 687d 103d efda d1bc 9740 74bd
00000180: 49e9 58bd 13f2 453d 75af 133d 2d1d 293d
00000190: b801 43bd 8fcb 4b3d 195c 9d3c d05e 933d
000001a0: 4aa6 a73c c0ca 523b 9552 76bb bd40 95bc
000001b0: b3d7 923d 0d10 d0bc beef 9b3c 0b3c 143d
000001c0: cad8 b83d ec02 a4bd ebd3 2ebd b6a6 993d
000001d0: 6b53 68bc d764 97bd 83d8 8a3d 8fd6 9fbd
000001e0: 54e1 b63c 91db b1bc 66f6 69bd 972a 89bc
000001f0: acd1 bb3c a684 9c3d 3a26 dfbc 6e4a 1b3d
00000200: f3af 063b cbdf 7e3b 0c16 f33b c555 b5bc
00000210: a652 583d 14f9 e23d 0ab7 0ebd 42d1 953b
00000220: 02bf 06bc f81e 1bbd dd08 42bd 55da d43b
00000230: a587 9a3d 8e4f 3a3c 477e d23d a27f 3dbc
00000240: c81a d83c b71b ae3c ba54 81bd 9c67 c8bc
00000250: 5bb7 953c 34e7 a43d 9c8b 31bd cf86 f5bb
00000260: e8ce 893c eb6e efbc 329a 37bc b5e0 08bd
00000270: 7410 4dbd 35d6 e93c 1eca 3b3c ebc6 2abd
00000280: 6aad a23c b5ea 043d f735 04bd 864d 153d
00000290: 5c1c 12bd 05e1 36bd c437 f13b 7c42 34bc
000002a0: 7222 803d 8ae3 0dbd 6c36 533c 1943 8a3c
000002b0: 5f54 03bd f699 4abd bcb1 38bd 8d4b 583d
000002c0: d20f 57bc ee62 2abc 82b4 3ebd e4e7 043c
000002d0: c93d 9f3c 9cce 45bd 0de1 90ba 0650 e23b
000002e0: 6008 a1bc fa48 5cbd b134 9cbd 395f 4f3c
000002f0: d90d 76bd 7a9c b03d b938 bc3c 0f92 0cbc
00000300: b84a 70bc a224 40bd 6423 d63c 6654 cdbc
00000310: ea3e c93b 2a8d 43bc d168 94bd 48fa 013d
00000320: 85ea c63b 6453 193d 49fb a73d 9545 f6bc
00000330: 35a4 3c3d 477b 5dbd 3696 63bd 9a09 46bd
00000340: 0cd2 81bc 2ae0 a0bc 1337 2a3c 8b46 843d
00000350: 6408 66bd be6c 4d3c 34d4 5c3d 12a0 43bd
00000360: 5e4e 0c3d 1c07 68bc 0c5a 25bd a7fb 7a3c
00000370: f6ba 213d 6fc5 23bd 3e20 b6bc 4bf0 853d
00000380: b96a d4bb 9ae3 44bd 8ca0 a53b a4e5 0cbd
00000390: 8d43 3abd 14f6 1e3b 9e6e 03bc bddd c539
000003a0: 3467 8b3d 54f4 84bc 3709 18bd abe1 d5bc
000003b0: f4ac c63d c547 51bd 1dbe 14bd 69c7 903c
000003c0: cb7e 68bd a329 42bc 1c4d 6e3c 3a21 9fbc
000003d0: 6ed4 cfbc 3949 4bbd 2708 81bd 4873 843d
000003e0: 6963 debc 772b 27bd b3c9 5d3d 7344 823d
000003f0: f47f d33a 0df0 7ebd ecf0 20bd 9f80 0fbb

action_model._discrete_distribution.branches.3.bias f4 [2]
-0.022212183 0.0222122
00000000: 53f6 b5bc 5cf6 b53c

action_model._discrete_distribution.branches.3.weight f4 [2, 256]
-0.00388972 0.019399222 0.04782997 -0.012174842 0.044921905 0.011633389 0.029947067 -0.00075153675
0.026738359 -0.024243252 -0.075668074 -0.042264078 0.04212075 0.046608742 -0.039924864 0.050499346
0.019359058 0.05137645 -0.013777304 -0.013785671 0.026242036 0.024564063 0.032951362 -0.051508825
0.040664442 0.010356463 -0.011969103 -0.022178918 -0.036138464 -0.031241097 -0.029745135 0.017611474
-0.04186311 -0.054477267 -0.037793808 -0.0150024295 -0.040580038 0.02657636 -0.01734928 -0.011331436
-0.001028632 0.029893251 -0.04879797 -0.026468901 0.015575907 0.040152326 -0.027038556 -0.0034686986
0.07809199 -0.017703656 -0.0016816265 -0.050701078 -0.01078464 -0.0065855323 -0.044421118 0.046038207
0.008667452 -0.040171273 0.051332958 -0.045891427 0.079636864 -0.061221857 0.06467782 0.055046115
0.05452824 -0.044653703 0.014468883 0.0026771242 0.0390559 -0.0002410436 0.029576559 -0.082803756
0.011870154 0.0037144842 -0.035877813 0.017468043 0.03552128 0.029573785 -0.038703945 0.028947927
0.028729415 -0.0044779363 0.027402319 0.0037386275 0.014086823 0.0056492244 0.07316304 0.0412725
-0.011163884 -0.02514445 -0.006048096 -0.030396527 0.049661983 -0.054562174 -0.0054125236 -0.018803045
0.011122698 -0.01522784 0.003168297 0.04104475 0.023061132 -0.031201435 0.038493786 0.019905832
0.025997788 0.043379106 0.03659641 0.032986682 0.023513943 0.007300664 -0.0049039675 -0.007497346
-0.024439542 -0.016207987 -0.0149024 -0.04600996 -0.015435014 0.041257903 -0.00056306267 -0.03453976
0.01670047 -0.028233223 -0.016722862 0.010044551 -0.04008425 -0.04606703 0.009715608 0.0032137916
-0.016732382 0.042363238 -0.037535086 -0.06495644 0.022180844 -0.04167257 0.049858175 0.01795771
0.034886107 0.0037057714 -0.006798642 0.019236468 -0.03780457 -0.0050307605 0.044350207 -0.069990195
0.006272651 0.020765848 -0.0039160824 0.034636356 -0.013438971 0.06385491 -0.010447623 0.008901512
-0.038341623 0.001711934 -0.0047784667 -0.0066117593 0.05349493 -0.019333728 0.09332792 0.03870028
-0.06976622 -0.027359337 0.014354586 0.027476054 0.002956372 0.004953558 -0.012781491 0.06281299
-0.01971495 -0.014733156 0.05201326 0.032030243 -0.025596809 -0.01871684 0.033003714 -0.012707979
-0.028731547 0.0048750094 -0.016210934 0.027627604 0.018797573 0.01733317 0.0326651 0.015550834
-0.026051044 0.01963144 -0.012739752 -0.023102187 -0.005024496 0.025546227 0.053189836 -0.026964823
0.028987419 0.021780286 0.012532952 0.04417649 -0.024286192 -0.0034215767 0.015269171 0.033228356
0.042261314 -0.0013238807 -0.021772457 0.010072701 0.0110071255 -0.0053058504 0.044097885 -0.029540984
0.0036760608 0.043321677 0.0009927485 0.020120896 -0.016881155 -0.0033020903 0.036390346 0.05332143
0.021404356 -0.020457145 0.033161752 -0.006750125 0.047029145 -0.016514104 0.0039014963 0.011737722
-0.03505592 0.018329976 -0.03280776 0.0005590422 0.07820014 0.04814164 0.0018466666 -0.050909605
0.0142630115 0.0696572 -0.019581337 0.08005727 -0.023764396 0.007026842 0.010006166 0.03150493
0.042532552 -0.008818406 0.039081372 -0.04296329 0.030752975 -0.032485537 -0.0056217383 -0.0141579425
-0.034568816 0.036148503 -0.047118966 -0.0025872006 -0.0068229656 -0.013356443 0.03561422 0.04553345
00000000: acea 7ebb 1eeb 9e3c 5ce9 433d fd78 47bc
00000010: 0800 383d f899 3e3c 8d53 f53c c702 45ba
00000020: 670a db3c c999 c6bc ddf7 9abd 191d 2dbd
00000030: cf86 2c3d cfe8 3e3d 4188 23bd 67d8 4e3d
00000040: e396 9e3c 1d70 523d 34ba 61bc 4cdd 61bc
00000050: 8af9 d63c 933a c93c 02f8 063d ebfa 52bd
00000060: c28f 263d 27ae 293c 0e1a 44bc 90b0 b5bc
00000070: ed05 14bd 54ed ffbc 12ac f3bc f045 903c
00000080: a778 2bbd 8e23 5fbd aecd 1abd c0cc 75bc
00000090: 4137 26bd abb6 d93c 1420 8ebc 7da7 39bc
000000a0: 2ad3 86ba b1e2 f43c 61e0 47bd 4fd5 d8bc
000000b0: 1732 7f3c c476 243d f67f ddbc 1b53 63bb
000000c0: b1ee 9f3d 4207 91bc 066a dcba efab 4fbd
000000d0: 0fb2 30bc 73cb d7bb ebf2 35bd 8f92 3c3d
000000e0: ee01 0e3c a28a 24bd 8242 523d a6f8 3bbd
000000f0: a718 a33d c5c3 7abd ce75 843d 0978 613d
00000100: 0159 5f3d cde6 36bd e50e 6d3c b172 2f3b
00000110: 14f9 1f3d a6c0 7cb9 8a4a f23c 0495 a9bd
00000120: 097b 423c b46e 733b 9df4 12bd 2419 8f3c
00000130: c37e 113d b944 f23c 0788 1ebd 3424 ed3c
00000140: f359 eb3c a7bb 92bb d47a e03c c303 753b
00000150: 6bcc 663c 211d b93b 81d6 953d 5a0d 293d
00000160: b9e8 36bc bcfb cdbc 1b2f c6bb 2302 f9bc
00000170: 5d6a 4b3d 967c 5fbd 8a5b b1bb d808 9abc
00000180: fa3b 363c 317e 79bc 34a3 4f3b 8a1e 283d
00000190: b3ea bc3c 279a ffbc a9ab 1d3d 8e11 a33c
000001a0: 50f9 d43c 4aae 313d 1ee6 153d 0b1d 073d
000001b0: 50a0 c03c 693a ef3b 76b1 a0bb 4cac f5bb
000001c0: 6f35 c8bc 9dc6 84bc 3229 74bc f174 3cbd
000001d0: 24e3 7cbc 0cfe 283d 7f9a 13ba 9079 0dbd
000001e0: 6dcf 883c 5c49 e7bc 62fe 88bc e791 243c
000001f0: 622f 24bd c8b0 3cbd 372e 1f3c 7a9e 523b
00000200: 5912 89bc 1385 2d3d 64be 19bd e207 85bd
00000210: 9ab4 b53c dbb0 2abd 1638 4c3d 0c1c 933c
00000220: bce4 0e3d 87dc 723b 25c7 debb cc95 9d3c
00000230: f7d8 1abd 14d9 a4bb 90a8 353d 0557 8fbd
00000240: cf8a cd3b 241d aa3c 7b52 80bb dade 0d3d
00000250: 212f 5cbc 5dc6 823d 822c 2bbc a6d7 113c
00000260: 1b0c 1dbd f962 e03a af94 9cbb 75a7 d8bb
00000270: 801d 5b3d c461 9ebc b522 bf3d 2f84 1e3d
00000280: 98e1 8ebd b020 e0bc 7f2f 6b3c 7615 e13c
00000290: b1bf 413b 7551 a23b 7569 51bc 19a4 803d
000002a0: 3f81 a1bc 5663 71bc db0b 553d 2532 033d
000002b0: 66b0 d1bc 0f54 99bc e72e 073d 2135 50bc
000002c0: 6c5e ebbc 8bbe 9f3b cbcc 84bc 4953 e23c
000002d0: 5efd 993c 4bfe 8d3c d7cb 053d edc8 7e3c
000002e0: 0069 d5bc 1dd2 a03c 65ba 50bc cc40 bdbc
000002f0: 87a4 a4bb 5246 d13c 96dd 593d 55e5 dcbc
00000300: 0677 ed3c 926c b23c 0357 4d3c 68f2 343d
00000310: d6f3 c6bc 883c 60bb 8c2b 7a3c 751a 083d
00000320: 331a 2d3d 1186 adba 275c b2bc f807 253c
00000330: 3b57 343c b3dc adbb fc9f 343d efff f1bc
00000340: 11ea 703b 1272 313d 1d1f 823a 94d4 a43c
00000350: 594a 8abc e267 58bb 0b0e 153d 9267 5a3d
00000360: 3058 af3c be95 a7bc 9ed4 073d 2730 ddbb
00000370: a2a1 403d 9648 87bc 3fb0 7f3b 934f 403c
00000380: cc96 0fbd bf28 963c 6e61 06bd b08c 123a
00000390: 6527 a03d 2b30 453d d90b f23a 9786 50bd
000003a0: 68af 693c 6fa8 8e3d 0a69 a0bc 11f5 a33d
000003b0: 8dad c2bc 6c41 e63b e7f0 233c 500b 013d
000003c0: 9d36 2e3d 137b 10bc ca13 203d 46fa 2fbd
000003d0: aaed fb3c 8e0f 05bd 8f36 b8bb b7f6 67bc
000003e0: 0898 0dbd 7410 143d d1ff 40bd 068e 29bb
000003f0: 2f93 dfbb fbd4 5abc 37e0 113d 4881 3a3d

action_model._discrete_distribution.branches.4.bias f4 [2]
-0.0016205253 0.001620515
00000000: ce67 d4ba 7667 d43a

action_model._discrete_distribution.branches.4.weight f4 [2, 256]
-0.025965553 0.0069202622 -0.0020177872 0.011621504 0.03702917 0.11216816 -0.008953496 0.006181502
0.0033527848 -0.0040942216 0.009794864 0.03162766 -0.014556368 0.026144618 0.022511972 0.042700727
-0.00518356 -0.020112889 -0.030556805 -0.01619689 0.007684047 0.029583262 0.048059624 -0.031662643
0.022589685 0.021520555 0.05622789 -0.045058224 -0.044136066 -0.012554663 -0.02564107 0.053353216
0.0013207917 0.022582842 0.010210503 0.039794505 -0.010095919 -0.006366395 -0.018197065 0.046569742
-0.008918888 0.007844995 -0.018605959 0.09950714 0.004959031 0.06342215 0.10514094 0.024692453
-0.014395898 0.07308416 0.023401456 -0.0021241952 -0.024176488 -0.033415373 0.014119314 0.07091154
-0.0008799556 0.048184466 0.020534074 -0.08189416 0.02427855 0.0432379 -0.007582702 0.09928305
-0.04184898 0.0441926 -0.007149217 0.022274528 0.034947503 0.029457651 -0.013978498 -0.047555678
0.033070218 0.033050016 0.0008265495 -0.015246521 -0.015937854 -0.004896639 0.04405434 0.011295035
0.020677071 0.04748919 0.029676106 0.042451944 0.00818973 0.06240804 0.075746775 -0.039476857
0.00081995147 0.09014262 0.022079054 -0.01625781 0.041458692 0.022349697 -0.005891371 0.08810421
0.043166026 -0.043568954 0.008927176 -0.018190427 0.0991553 0.008432216 0.013125329 0.073556624
0.023850435 0.05324312 0.05191899 -0.006528377 -0.021880165 0.05369674 0.050869375 -0.020763634
0.034640867 0.12486834 0.03548592 0.029102538 0.009256822 0.08527746 0.038476665 0.018558504
0.08286263 -0.0057979566 0.01633451 0.11645315 0.029614044 0.030734532 -0.05593388 0.037757725
0.039447732 0.047310427 -0.038531933 0.046928257 0.005999681 0.02251944 0.001815913 0.03892486
0.073209584 0.03917654 -0.042337883 0.045841593 0.022692975 0.04185737 -0.036296993 0.002363857
0.044806473 0.018614482 -0.028511418 -0.044681523 0.0103741465 0.03392742 0.048717137 -0.06004163
0.04354273 0.046983007 0.029045433 0.0065817325 0.010055698 0.06859896 0.049110983 0.01478573
0.033729862 -0.029869257 0.118673496 0.015305992 -0.025961071 -0.013779344 0.02312703 -0.013882542
0.07519673 0.065204605 -0.043329865 0.04545703 0.046453483 0.04800261 0.005049852 -0.017856985
-0.03385965 -0.009753661 -0.01910802 -0.00832904 -0.016610438 0.036607448 0.0022845573 -0.0069003953
0.006572733 0.006982847 0.057886276 0.0051269718 0.07925806 -0.0038087624 0.02250162 -0.011655819
-0.054044332 0.04734807 0.042765614 0.055205148 0.010616472 0.04091984 0.05697323 0.028289437
-0.00833817 -0.033862725 0.053614836 -0.020878134 0.021986635 0.087859906 0.0184595 0.04399547
0.015154998 0.04762852 0.048506793 -0.004915547 0.06345133 0.065093584 0.012509199 0.049073342
-0.04561456 -0.0018435072 -0.03621293 0.041982196 0.04341999 0.014466307 0.079713516 0.010186984
0.03544638 0.047646206 0.0023535935 0.05994021 0.05043898 0.07380503 0.06546741 0.056733336
-0.015612257 0.027922645 -0.0029522087 0.03807669 0.01919442 0.0080903815 0.0637801 0.05861064
0.014412789 0.07906737 -0.048792213 -0.016974417 0.037974156 0.0026585248 -0.051272403 0.034318317
-0.015866116 0.021666883 0.042771455 -0.04701957 0.05926812 -0.010234126 -0.017525248 -0.04094821
00000000: b6b5 d4bc 5ec3 e23b da3c 04bb 1f68 3e3c
00000010: e6ab 173d 6cb8 e53d afb1 12bc 328e ca3b
00000020: 65ba 5b3b d228 86bb a37a 203c 018c 013d
00000030: d57d 6ebc 3d2d d63c 076b b83c f5e6 2e3d
00000040: dada a9bb c9c3 a4bc 4452 fabc 57af 84bc
00000050: 75ca fb3b 9958 f23c 2bda 443d b0b0 01bd
00000060: 010e b93c e04b b03c 374f 663d f98e 38bd
00000070: 05c8 34bd 13b2 4dbc 390d d2bc e788 5a3d
00000080: 6a1e ad3a a7ff b83c f449 273c 90ff 223d
00000090: 5a69 25bc 319d d0bb 0312 95bc eabf 3e3d
000000a0: 8720 12bc 4b88 003c 866b 98bc 66ca cb3d
000000b0: 5e7f a23b 79e3 813d 2254 d73d d447 ca3c
000000c0: c6dc 6bbc 26ad 953d 69b4 bf3c 1536 0bbb
000000d0: c50d c6bc 8fde 08bd b254 673c 123a 913d
000000e0: d2ac 66ba 135d 453d 1337 a83c 20b8 a7bd
000000f0: cfe3 c63c 391a 313d 5178 f8bb e954 cb3d
00000100: d669 2bbd 4d03 353d fb43 eabb 1279 b63c
00000110: 1d25 0f3d 2c51 f13c 1206 65bc bec9 42bd
00000120: a374 073d 745f 073d ccac 583a 8bcc 79bc
00000130: 1a90 82bc fc73 a0bb 5372 343d cf0e 393c
00000140: f662 a93c 0684 423d 4e1b f33c 17e2 2d3d
00000150: 382e 063c 939f 7f3d 2021 9b3d 7cb2 21bd
00000160: 03f2 563a b29c b83d 22df b43c 192f 85bc
00000170: 97d0 293d b616 b73c 670c c1bb fb6f b43d
00000180: dcce 303d 5c75 32bd 4a43 123c 1704 95bc
00000190: ef11 cb3d 4727 0a3c 9f0b 573c dba4 963d
000001a0: fd61 c33c 7515 5a3d 02a9 543d ffeb d5bb
000001b0: 083e b3bc 1df1 5b3d 685c 503d 7f18 aabc
000001c0: 95e3 0d3d f9ba ff3d af59 113d 7268 ee3c
000001d0: eda9 173c f3a5 ae3d b599 1d3d 0108 983c
000001e0: e2b3 a93d c9fc bdbb f3cf 853c fd7e ee3d
000001f0: 2799 f23c fcc6 fb3c ed1a 65bd d8a7 1a3d
00000200: f293 213d 94c8 413d a9d3 1dbd d837 403d
00000210: f998 c43b b07a b83c ee03 ee3a ad6f 1f3d
00000220: e8ee 953d 9477 203d 7d6a 2dbd 65c4 3b3d
00000230: 9ee6 b93c a272 2b3d 28ac 14bd f1ea 1a3b
00000240: fe86 373d 667d 983c c790 e9bc f903 37bd
00000250: 53f8 293c 7af7 0a3d 9f8b 473d 36ee 75bd
00000260: dd59 323d 4171 403d b0f0 ed3c 93ab d73b
00000270: a8c0 243c 9d7d 8c3d 9928 493d d93f 723c
00000280: 5328 0a3d 5fb0 f4bc 170b f33d fcc5 7a3c
00000290: 50ac d4bc c2c2 61bc e674 bd3c 9a73 63bc
000002a0: be00 9a3d fe89 853d a87a 31bd 2731 3a3d
000002b0: 0246 3e3d 639e 443d 3b79 a53b d048 92bc
000002c0: 6bb0 0abd d2cd 1fbc 6c88 9cbc 8776 08bc
000002d0: 9d12 88bc b1f1 153d 83b8 153b b61c e2bb
000002e0: 1560 d73b 5ed0 e43b 291a 6d3d 2800 a83b
000002f0: 0d52 a23d 6e9c 79bb 5155 b83c 0cf8 3ebc
00000300: 975d 5dbd 0df0 413d ff2a 2f3d cb1e 623d
00000310: b6f0 2d3c 909b 273d c35c 693d 40bf e73c
00000320: d29c 08bc a4b3 0abd 3b9b 5b3d 9f08 abbc
00000330: 511d b43c e5ef b33d 6138 973c 9834 343d
00000340: ab4c 783c 1f16 433d 0faf 463d 9912 a1bb
00000350: c5f2 813d c94f 853d 62f3 4c3c 2101 493d
00000360: 55d6 3abd d6a1 f1ba 0254 14bd 86f5 2b3d
00000370: 29d9 313d 1704 6d3c d740 a33d 4fe7 263c
00000380: 3930 113d ab28 433d bf3e 1a3b de83 753d
00000390: 1b99 4e3d 1727 973d c713 863d 3761 683d
000003a0: 8dca 7fbc 08be e43c d879 41bb 4ef6 1b3d
000003b0: 9e3d 9d3c 858d 043c 249f 823d b611 703d
000003c0: 9e23 6c3c 13ee a13d 58da 47bd ef0d 8bbc
000003d0: ca8a 1b3d a53a 2e3b 0303 52bd 5d91 0c3d
000003e0: a8f9 81bc bf7e b13c 1f31 2f3d 9897 40bd
000003f0: 21c3 723d 09ad 27bc 1c91 8fbc 4fb9 27bd

discrete_action_output_shape f4 [1, 5]
3.0 3.0 3.0 2.0 2.0
00000000: 0000 4040 0000 4040 0000 4040 0000 0040
00000010: 0000 0040

network_body._body_endoder.seq_layers.0.bias f4 [256]
-0.042571444 0.064600356 -0.064159535 -0.027809123 0.010848019 -0.015758771 0.03579478 0.04656397
-0.017660635 -0.07491203 -0.010843188 -0.060118753 -0.004155759 -0.091865994 -0.03755898 -0.12601449
-0.052295875 -0.042476412 -0.008283377 0.00496845 -0.020233504 0.041044004 0.063017935 0.02408864
-0.05682669 -0.06146575 -0.017860675 -0.03852956 -0.034293614 -0.06724464 -0.05838783 -0.0104952995
0.029766506 -0.08742655 0.024397641 -0.04683523 -0.0011972666 -0.062409077 -0.07151633 0.0479006
0.009002708 -0.01760714 -0.013779645 0.06803268 -0.052257434 -0.018528689 0.08917394 -0.091366835
0.049647458 0.03018701 -0.060503844 0.051642384 0.004068887 0.10665058 0.0005962676 -0.031116204
-0.1330828 0.031258564 0.02244312 0.03176033 -0.055133563 -0.054915305 -0.094110094 0.010722182
-0.07788437 -0.061477892 0.03282842 -0.016454129 -0.077959195 -0.056218125 0.04469695 0.00740881
0.0020947198 0.0079571 0.0141146155 -0.0025496823 0.009107841 -0.013647087 -0.01680168 0.022022463
-0.09849156 0.013110319 -0.06562613 -0.060614806 -0.1312046 -0.08544795 -0.078422464 0.027920943
-0.041454747 -0.032877553 -0.06344464 -0.0065014577 0.004885621 -0.032760683 0.021363778 0.013495349
-0.059885193 -0.01863986 -0.022201082 -0.07529569 0.008404342 0.018729405 -0.009482434 -0.028512917
0.020301927 0.06429856 -0.05305219 0.03243112 0.0013210163 -0.07164052 0.0005580178 -0.046196274
0.0011059922 0.10633615 0.047958177 -0.0068176473 0.024969963 0.036333043 -0.057859853 0.04141546
0.080713205 -0.030376684 -0.015333611 0.043919686 -8.960033e-05 -0.08452718 0.006567263 0.03575008
-0.03958708 0.020487266 -0.07297158 -0.09399264 -0.08639272 0.06955381 -0.044672187 -0.04975999
-0.043847162 -0.040274993 -0.026498768 -0.08441232 0.04693101 -0.062026933 0.05968191 -0.001070524
-0.05251281 -0.03139058 0.0037680552 -0.080366105 -0.06566256 -0.029273413 -0.0069485945 0.00489982
0.112204544 -0.017420791 -0.054332152 0.028515065 -0.10822419 -0.009696101 0.0006045944 -0.0049316115
-0.08165302 -0.022558637 0.046108883 -0.019005982 -0.0030339197 -0.00010094474 -0.06730407 0.06810211
0.005114202 -0.042601157 0.0013796359 -0.1198155 -0.06586971 0.006244618 -0.082578905 0.012804499
0.06840677 -0.021864235 -0.042188555 -0.038918808 0.02755897 0.01993378 0.013689232 0.03501701
-0.08901565 -0.091366306 -0.04610712 0.0032087928 -0.0458055 0.057553127 -0.057383657 0.09498112
0.00745353 0.022532662 0.047100775 -0.028941398 -0.028716657 -0.079921834 -0.019527065 -0.019697461
-0.010068701 -0.07635873 0.023272654 0.077633224 -0.026450101 0.028438173 -0.04808853 -0.08621981
-0.09800139 0.030104768 -0.04244908 0.007499053 0.04594138 0.007225648 -0.041177712 -0.04745773
0.048519976 -0.015936613 -0.01093663 -0.061076913 -0.0372394 -0.08395038 0.060830988 0.0040201643
-0.013233284 0.00504054 -0.07299674 -0.114721656 -0.043436307 0.0150465565 0.02313614 -0.03616118
-0.046690874 0.023441404 -0.017152501 -0.12147751 -0.029784504 -0.0274061 -0.008944416 0.035529457
-0.043088574 -0.019899938 -0.058213837 -0.053608414 0.0049889456 -0.000944435 0.017917199 -0.0046796375
-0.109306894 -0.030341145 -0.10511989 -0.052626412 -0.05727312 -0.045763817 0.034177665 -0.077554174
00000000: 655f 2ebd 314d 843d 1366 83bd f5cf e3bc
00000010: e4bb 313c 8a18 81bc 8c9d 123d ddb9 3e3d
00000020: 09ad 90bc 7a6b 99bd a0a7 31bc 153f 76bd
00000030: 082d 88bb 3d24 bcbd 72d7 19bd f109 01be
00000040: 3334 56bd bffb 2dbd 00b7 07bc 61ce a23b
00000050: bcc0 a5bc c21d 283d 8c0f 813d 8a55 c53c
00000060: 1ac3 68bd 83c3 7bbd 8d50 92bc 2cd1 1dbd
00000070: 7677 0cbd 8fb7 89bd 1428 6fbd 7af4 2bbc
00000080: e3d8 f33c b10c b3bd 90dd c73c 4cd6 3fbd
00000090: 9aed 9cba a9a0 7fbd 2777 92bd 6b33 443d
000000a0: 1880 133c d93c 90bc 05c4 61bc b854 8b3d
000000b0: e40b 56bd 7ac9 97bc d4a0 b63d 891e bbbd
000000c0: 225b 4b3d c04a f73c e1d2 77bd f786 533d
000000d0: 4c54 853b 9f6b da3d d74e 1c3a 69e7 febc
000000e0: dc46 08be fb08 003d a2da b73c 1f17 023d
000000f0: bbd3 61bd dfee 60bd cbbc c0bd 17ac 2f3c
00000100: d781 9fbd 3ed0 7bbd 1877 063d cfca 86bc
00000110: 12a9 9fbd fa44 66bd 2614 373d 9ac5 f23b
00000120: 9147 093b 7f5e 023c fd40 673c 9218 27bb
00000130: 0e39 153c 0898 5fbc ada3 89bc 7468 b43c
00000140: f1b5 c9bd aacc 563c fe66 86bd 3b47 78bd
00000150: 805a 06be 56ff aebd f59b a0bd 76ba e43c
00000160: 74cc 29bd 9daa 06bd 43ef 81bd 2e0a d5bb
00000170: 8f17 a03b 1130 06bd 1703 af3c 991b 5d3c
00000180: 2d4a 75bd 9fb2 98bc 0bdf b5bc a034 9abd
00000190: 5eb2 093c 696e 993c 365c 1bbc ec93 e9bc
000001a0: 3a50 a63c f7ae 833d 414d 59bd 7ed6 043d
000001b0: f425 ad3a 44b8 92bd f147 123a 4e38 3dbd
000001c0: f1f6 903a c4c6 d93d cb6f 443d 9266 dfbb
000001d0: cf8d cc3c f5d1 143d 74fe 6cbd 42a3 293d
000001e0: f74c a53d 86d8 f8bc d339 7bbc 21e5 333d
000001f0: d0e7 bbb8 961c adbd 3232 d73b ad6e 123d
00000200: 1026 22bd e9d4 a73c 2072 95bd 377f c0bd
00000210: abee b0bd 3a72 8e3d 2ffa 36bd 22d1 4bbd
00000220: 1599 33bd 64f7 24bd f213 d9bc 5ee0 acbd
00000230: bb3a 403d f40f 7ebd 0575 743d d350 8cba
00000240: ac17 57bd 6993 00bd 7af1 763b fc96 a4bd
00000250: 187a 86bd ccce efbc 09b1 e3bb ab8e a03b
00000260: 7fcb e53d 0cb6 8ebc 648b 5ebd 6d98 e93c
00000270: a5a4 ddbd 65dc 1ebc a57d 1e3a 5b99 a1bb
00000280: b339 a7bd e4cc b8bc abdc 3c3d 6fb2 9bbc
00000290: bad4 46bb 4bb2 d3b8 b7d6 89bd 1e79 8b3d
000002a0: 0995 a73b 8d7e 2ebd e6d4 b43a d461 f5bd
000002b0: b3e6 86bd a79f cc3b 211f a9bd f6c9 513c
000002c0: d918 8c3d a01c b3bc e8cd 2cbd 5469 1fbd
000002d0: 59c3 e13c 2b4c a33c cd48 603c ff6d 0f3d
000002e0: d64d b6bd 421e bbbd d2da 3cbd 9c4a 523b
000002f0: 8c9e 3bbd d4bc 6b3d 200b 6bbd 7685 c23d
00000300: be3c f43b 6b96 b83c beec 403d 8316 edbc
00000310: 323f ebbc 0fae a3bd 39f7 9fbc 925c a1bc
00000320: 31f7 24bc f761 9cbd 4ba6 be3c 2bfe 9e3d
00000330: e2ad d8bc 2cf7 e83c 7af8 44bd 0394 b0bd
00000340: f4b4 c8bd 469e f63c 16df 2dbd 9eba f53b
00000350: 072d 3c3d 21c5 ec3b f6a9 28bd 0963 42bd
00000360: e2bc 463d 808d 82bc 8d2f 33bc c92b 7abd
00000370: 5788 18bd 2dee abbd ea29 793d 95bb 833b
00000380: 6ad0 58bc 1d2b a53b 517f 95bd 30f3 eabd
00000390: 45ea 31bd d585 763c 0188 bd3c bf1d 14bd
000003a0: ee3e 3fbd 3008 c03c 6783 8cbc 33c9 f8bd
000003b0: a2fe f3bc c282 e0bc 9a8b 12bc 5687 113d
000003c0: a57d 30bd 3205 a3bc a271 6ebd 7f94 5bbd
000003d0: 4f7a a33b f693 77ba 17c7 923c a557 99bb
000003e0: 4bdc dfbd fe8d f8bc 1949 d7bd cb8e 57bd
000003f0: 3897 6abd d772 3bbd e1fd 0b3d b9d4 9ebd

network_body._body_endoder.seq_layers.0.weight f4 [256, 12]
-0.22232403 0.14236261 -0.25229838 0.41972107 0.15854673 -0.31189916 -0.17802756 -0.21691465
0.14731409 0.070227586 -0.64782107 -0.111868195 -0.32794333 -0.23243229 -0.111310415 -0.692156
-0.018526291 -0.6379481 -0.41981685 0.16637003 -0.038924877 0.19834585 -0.25216267 0.025719902
-0.082248725 -0.23540029 0.011012128 0.08934211 0.055868216 -0.12685923 0.11200754 -0.32969004
0.17389406 0.07104792 -0.5635947 0.20537849 -0.34498775 0.15654805 -0.56234753 -0.18310933
0.10297803 -0.17504016 -0.6249468 0.25712267 -0.30200765 -0.20573372 -0.6906394 0.27851045
-0.21580239 -0.55459315 0.29999837 0.019817004 0.120846756 -0.65624577 -0.5411584 -0.22785057
0.35417077 -0.045998447 0.48289153 -0.27374613 0.0013336224 -0.48089793 0.17419985 0.6377154
0.08526379 0.11690894 0.07743131 -0.8449614 -0.48661086 0.14970636 -0.31899026 -0.024697833
-0.14252223 0.23377927 -0.43444803 0.5006286 -0.15621056 -0.24608032 -0.050894465 0.37195835
-0.13507736 0.14667985 0.2509022 -0.6449548 0.13454969 -0.09855542 0.32333437 0.7900548
0.30106327 0.0029394978 -0.68471444 -0.037092973 0.25343022 -0.13299459 0.012504028 0.33518112
-0.22394912 0.14901774 -0.28516188 0.29276165 0.32162976 0.14113717 0.25128946 0.19569227
0.60685295 0.08332352 0.23070024 -0.42248556 0.06148224 0.8088528 -0.093606636 0.24067001
-0.44695294 -0.3439928 -0.0027697901 -0.12117363 0.22074546 -0.28756642 0.13175072 -0.16634205
0.46502003 -0.2099383 0.40853712 0.3427423 0.29663703 -0.089137845 -0.38679138 0.070390485
0.13952248 -0.067063466 -0.1718417 -0.06497983 -0.19567885 0.79110026 -0.3451238 -0.45640364
0.29766047 -0.28727046 -0.047620606 0.111789495 -0.005331471 -0.09681611 0.4708228 -0.3499485
-0.581374 0.10607861 0.023812054 -0.47104388 -0.46273044 -0.3909296 -0.070318386 0.27875656
0.4181025 0.07063054 0.2782453 -0.22854593 0.035131864 0.46984878 0.39141122 -0.013431291
-0.39086285 -0.22214353 -0.029879969 -0.31920204 -0.30973497 0.21805592 0.31688622 0.36011833
-0.09526702 0.12601176 -0.12895243 0.6109565 0.12133222 -0.03289388 0.075646885 -0.38457972
-0.01593622 0.2241786 0.12986073 0.14609449 -0.035857398 -0.27749464 -0.002083837 0.4526474
0.17286566 -0.1061179 0.31678113 0.27983958 -0.20563889 0.14129207 0.1276547 -0.04533263
-0.10118545 0.09129471 -0.3292903 -0.5971475 -0.12708528 0.023863524 0.54158276 -0.11991501
0.70272404 -0.0751053 0.13954598 -0.25518024 0.020426448 0.058823366 -0.01738609 0.45933315
0.29005623 0.21362235 -0.3125468 0.06029719 -0.19179538 0.15217948 0.2879381 -0.0105225425
-0.03569778 -0.67959917 -0.78015137 0.39762712 -0.2355911 -0.10169086 -0.20637412 -0.38961595
0.16539994 -0.113868795 0.25666445 0.10401201 0.33774635 0.11391277 0.3710101 0.4031682
-0.02937888 0.38515133 0.6653548 0.009690519 -0.40425017 0.25494012 -0.12014959 0.10373728
-0.21084522 -0.39197505 0.4953241 -0.22450247 0.01589994 -0.037078455 -0.17997468 -0.15715605
0.32813922 0.176709 -0.39991167 -0.22107053 -0.3186623 0.2852992 0.18960585 0.46196437
00000000: e9a8 63be 81c7 113e 412d 81be aee5 d63e
00000010: 135a 223e 3fb1 9fbe db4c 36be e01e 5ebe
00000020: 81d9 163e 7bd3 8f3d 9ad7 25bf 271b e5bd
00000030: 30e8 a7be bb02 6ebe b7f6 e3bd 2331 31bf
00000040: 73c4 97bc 9150 23bf 3cf2 d6be e85c 2a3e
00000050: b16f 1fbd 2d1b 4b3e 771b 81be 8bb2 d23c
00000060: 0572 a8bd c60c 71be 366c 343c fff8 b63d
00000070: 12d6 643d 63e7 01be 3664 e53d 22cd a8be
00000080: 4911 323e 9281 913d be47 10bf bd4e 523e
00000090: 3ca2 b0be 224e 203e 02f6 0fbf 0381 3bbe
000000a0: 25e6 d23d ba3d 33be 83fc 1fbf 95a5 833e
000000b0: bfa0 9abe dcab 52be becd 30bf ec98 8e3e
000000c0: 4dfb 5cbe d1f9 0dbf 6399 993e 4557 a23c
000000d0: 817e f73d b9ff 27bf 5b89 0abf a951 69be
000000e0: df55 b53e de68 3cbd 8f3d f73e 7428 8cbe
000000f0: f1cc ae3a 4138 f6be 7261 323e 5141 233f
00000100: c89e ae3d f46d ef3d 4f94 9e3d 644f 58bf
00000110: 0f25 f9be a04c 193e b152 a3be 1c53 cabc
00000120: 59f1 11be d563 6f3e f96f debe 3229 003f
00000130: a9f5 1fbe 7bfc 7bbe b776 50bd 5371 be3e
00000140: b851 0abe 3e33 163e 4176 803e c21b 25bf
00000150: 65c7 093e 6dd7 c9bd 158c a53e 0841 4a3f
00000160: f724 9a3e 97a4 403b 7249 2fbf cdee 17bd
00000170: 9bc1 813e bc2f 08be b2dd 4c3c dc9c ab3e
00000180: eb52 65be 1b98 183e bd00 92be dbe4 953e
00000190: a8ac a43e 4386 103e 03a9 803e 8e63 483e
000001a0: b75a 1b3f 86a5 aa3d af3c 6c3e 0750 d8be
000001b0: cdd4 7b3d fa10 4f3f d6b4 bfbd 3372 763e
000001c0: 04d7 e4be d31f b0be 5e85 35bb e129 f8bd
000001d0: 190b 623e e83b 93be a9e9 063e 9255 2abe
000001e0: 1b17 ee3e 11fa 56be c72b d13e eb7b af3e
000001f0: cfe0 973e e78d b6bd 8509 c6be e328 903d
00000200: fbde 0e3e 9258 89bd 45f7 2fbe 2514 85bd
00000210: 0960 48be 8c85 4a3f 11b4 b0be bdad e9be
00000220: f466 983e 1d15 93be d30d 43bd e4f1 e43d
00000230: 9fb3 aebb 8647 c6bd b00f f13e 732c b3be
00000240: edd4 14bf be3f d93d 7f11 c33c aa2c f1be
00000250: 01eb ecbe ed27 c8be 1603 90bd 2eb9 8e3e
00000260: 8811 d63e bfa6 903d 2b76 8e3e f207 6abe
00000270: 6ee6 0f3d 0590 f03e 0d67 c83e eb0e 5cbc
00000280: 2d1f c8be 9879 63be d6c6 f4bc 736e a3be
00000290: 9595 9ebe 0d4a 5f3e e93e a23e 6e61 b83e
000002a0: 5b1b c3bd 3a09 013e 1b0c 04be a567 1c3f
000002b0: 077d f83d bcbb 06bd c1ec 9a3d a2e7 c4be
000002c0: ad8c 82bc 138f 653e 36fa 043e cb99 153e
000002d0: 35df 12bd c713 8ebe fc90 08bb 66c1 e73e
000002e0: b203 313e 5754 d9bd 2331 a23e 2247 8f3e
000002f0: 0093 52be deae 103e eab7 023e b5ae 39bd
00000300: 513a cfbd b9f8 ba3d bd98 a8be a9de 18bf
00000310: a522 02be 707d c33c 2ba5 0a3f 0096 f5bd
00000320: b9e5 333f cfd0 99bd 24e5 0e3e fca6 82be
00000330: 5e55 a73c c5f0 703d 466d 8ebc b72d eb3e
00000340: 4082 943e d1bf 5a3e 2206 a0be 30fa 763d
00000350: 0266 44be f0d4 1b3e 9f6c 933e be66 2cbc
00000360: d637 12bd 36fa 2dbf 00b8 47bf c895 cb3e
00000370: cb3e 71be 4c43 d0bd bd53 53be be7b c7be
00000380: 9a5e 293e 0b34 e9bd 8669 833e 4004 d53d
00000390: 17ed ac3e 194b e93d 09f5 bd3e 106c ce3e
000003a0: faab f0bc 8e32 c53e b154 2a3f fcc4 1e3c
000003b0: e1f9 cebe 8387 823e fd10 f6bd 3674 d43d
000003c0: cfe7 57be f4b0 c8be 1f9b fd3e fae3 65be
000003d0: 9740 823c 94df 17bd 484b 38be 84ed 20be
000003e0: dd01 a83e 34f3 343e 39c1 ccbe 5060 62be
000003f0: b427 a3be bd12 923e 0928 423e 9886 ec3e
