Assets/Model/ChaseMode0515.onnx (onnx, 87373 bytes, 9 tensors)

action_model._continuous_distribution.log_sigma f4 [1, 2]
0	0x3d52e7e8	0.051490694
1	0x3dac8365	0.08423499

action_model._continuous_distribution.mu.bias f4 [2]
0	0x3b3e694e	0.0029054466
1	0x3c907564	0.017634101

action_model._continuous_distribution.mu.weight f4 [2, 128]
0	0x3a82cad8	0.0009978665
1	0x3c059ee6	0.00815556
2	0xbb6b3ed7	-0.003589561
3	0x3d57e96a	0.052712835
4	0xbcb2a621	-0.021807732
5	0xbbd7d2e3	-0.006586419
6	0x3b93146a	0.0044885175
7	0x3cb8bd1b	0.02255111
8	0xbd0ba2d4	-0.034090832
9	0x3d57585f	0.05257451
10	0x3c8a7dac	0.016905628
11	0xbd041c50	-0.032253563
12	0xbc852699	-0.016253756
13	0xbd12c8ba	-0.03583596
14	0xbbc8e359	-0.0061306176
15	0x3cbecabe	0.023290034
16	0x3d036731	0.032080833
17	0xbcd206fb	-0.025638094
18	0x3aaafe0e	0.0013045685
19	0xbc1e7b93	-0.009673017
20	0xbc3bbbe8	-0.011458375
21	0x3b86cf06	0.0041140346
22	0x3d77c769	0.060492907
23	0xbd1fe7c7	-0.0390394
24	0xbcc7fdd6	-0.02441303
25	0xbc1b7355	-0.0094879465
26	0xbd0b8861	-0.034065608
27	0xbd20a60e	-0.039220862
28	0xbd17afad	-0.03703277
29	0xbc0a9d00	-0.008460283
30	0xbc9f618e	-0.019455697
31	0x3b8bb0ef	0.0042630355
32	0x3d0681a3	0.032838475
33	0x3ba83156	0.0051328344
34	0xbc613595	-0.013745685
35	0xbd2aa319	-0.04165945
36	0x3a7c8768	0.0009633214
37	0xbcb21b25	-0.02174146
38	0xb9aef2bd	-0.0003336872
39	0x3c90149a	0.017587949
40	0xbd49aff5	-0.04924007
41	0x3c445b1a	0.011984611
42	0xbd669d8d	-0.056302596
43	0xbb8c1bc5	-0.0042757713
44	0xbc6ab9c9	-0.014326521
45	0xbcbe9c4f	-0.023267893
46	0x3c7e4269	0.015518763
47	0xbc5b828e	-0.013397826
48	0xbd524425	-0.05133452
49	0xbc8242e9	-0.015901046
50	0xbb9472d7	-0.0045302915
51	0x3c6f0c51	0.014590339
52	0x3c418d4c	0.011813473
53	0x3c28c2d5	0.010300358
54	0x3a6d9633	0.0009063214
55	0x3b6bec5d	0.0035999038
56	0x3cd9412a	0.02652033
57	0xbd395af6	-0.045252763
58	0x3c817231	0.015801521
59	0x3c00ba52	0.007856922
60	0x3b39e14f	0.0028363054
61	0xbc0a1e8c	-0.0084301345
62	0xbd9de883	-0.07710364
63	0xbd3c44a8	-0.045963913
64	0x3a926feb	0.001117227
65	0x3b7f86b6	0.0038990206
66	0xbac8094f	-0.0015261563
67	0x3bc01b6b	0.0058626435
68	0xbba0b4dc	-0.0049043726
69	0x3d157719	0.036490534
70	0xbb088308	-0.0020830054
71	0xbc662bc8	-0.014048524
72	0xbba8750e	-0.005140907
73	0x3a37ff79	0.00070189644
74	0x3c9d58c2	0.019207362
75	0x3c519fcd	0.012794447
76	0xbd47475a	-0.04865203
77	0xbd01993f	-0.031640287
78	0x3cfcf2ca	0.03087749
79	0xbbf17c02	-0.007369519
80	0x3b731569	0.003709162
81	0xbca6b01d	-0.02034765
82	0xbceb3d65	-0.028715799
83	0x3c8c6b24	0.017140932
84	0x3c7fa82e	0.015604062
85	0x3cf2167e	0.02955174
86	0x3d1a43c6	0.03766229
87	0xbbfbfb28	-0.0076898523
88	0xbd2bec72	-0.04197354
89	0x3c46e145	0.012138669
90	0x3d328d4b	0.04359178
91	0x3d085a32	0.033289142
92	0xbcf6cb7c	-0.030126326
93	0x3c92d60a	0.017924327
94	0x3b1f0f09	0.0024270436
95	0x3d3e1c05	0.04641344
96	0xbc9ef726	-0.019404959
97	0x3cb0d52c	0.021586023
98	0xbbdb0408	-0.00668383
99	0x3c90e5ef	0.017687766
100	0xbd103b53	-0.035212826
101	0xba789ab9	-0.00094835047
102	0xbd20014c	-0.039063737
103	0x3c035ad1	0.008017258
104	0xbc1423cc	-0.009041738
105	0xbcce7edf	-0.025206981
106	0xbd0e360b	-0.03471951
107	0xbccca962	-0.024983112
108	0xbd06ad95	-0.032880384
109	0x3c3fb18b	0.011700044
110	0x3c12a8a6	0.008951342
111	0xbd4129dc	-0.04715906
112	0xbd53ee1a	-0.051740743
113	0xbce1bd1a	-0.027555991
114	0xbcadd30b	-0.021218797
115	0x3bb65600	0.005564451
116	0x3c82a6a7	0.015948607
117	0xbd211df4	-0.039335206
118	0x3cd33ce2	0.025785867
119	0xbd346d09	-0.044049297
120	0xbc26c5e5	-0.010179018
121	0xbbff18b7	-0.0077849287
122	0xbc13ef92	-0.009029286
123	0x3c8927cb	0.016742608
124	0x3ba2d614	0.0049693678
125	0xbc519732	-0.012792395
126	0xbd16a56c	-0.036778852
127	0xbbf839bd	-0.0075752423
128	0xbc905ee2	-0.017623369
129	0x3cf7f061	0.030265989
130	0x3ce497d7	0.027904434
131	0xbc8a1aa0	-0.016858399
132	0xbb15cfa8	-0.0022859368
133	0xbc3f9e5c	-0.011695471
134	0xbca51115	-0.020149747
135	0x3d61ba06	0.055109046
136	0x3b53c82e	0.0032315361
137	0xbc194d69	-0.009356835
138	0xbcba988c	-0.022777818
139	0x3c5730e8	0.013134219
140	0x3d72e12b	0.05929677
141	0xb9d562bd	-0.00040700092
142	0x3c307eb5	0.010772397
143	0xbca2e70e	-0.019885566
144	0xbb81b0de	-0.003957852
145	0xbce41700	-0.027842999
146	0xbd0e3f87	-0.034728553
147	0x3bb5aaaf	0.0055440287
148	0x3d1f596d	0.038903642
149	0x3b0d0f29	0.0021523929
150	0x3c2143a7	0.00984279
151	0x3c8154f8	0.015787587
152	0x3bec1541	0.007204682
153	0xbd16cb3b	-0.03681491
154	0x3c5c9ef7	0.013465635
155	0x3b8dbfeb	0.004325857
156	0x3c153238	0.009106211
157	0xbd175099	-0.0369421
158	0xbb00ccfc	-0.001965343
159	0xbc8e6fe5	-0.01738734
160	0x3bcd0e44	0.006257804
161	0xbc07ea9b	-0.00829568
162	0x3ccebedf	0.025237499
163	0x3c8142cd	0.015778923
164	0x3cfb0dfb	0.030646315
165	0xbcca4672	-0.024691794
166	0x3c318578	0.010835044
167	0xbcb01286	-0.021493208
168	0xbd368260	-0.04455793
169	0xbc40aac6	-0.011759466
170	0xbc1aeb65	-0.0094555365
171	0x3cf1401a	0.029449511
172	0x3c091f75	0.008369316
173	0xbc787445	-0.01516444
174	0x3c88bd45	0.016691813
175	0xbc36b0c3	-0.011150542
176	0x3cbb484a	0.022861619
177	0xbc6af4a2	-0.014340552
178	0x3c8e5695	0.01737527
179	0xbbb1aa87	-0.00542194
180	0x3c5bb1a8	0.013409056
181	0xba8eda24	-0.0010898751
182	0xbc726344	-0.014794175
183	0x3ce6e032	0.028183077
184	0xbcb24fad	-0.021766508
185	0x3c898cea	0.016790826
186	0xbcfe4f09	-0.031043546
187	0xbcec42c3	-0.028840428
188	0xbd5d2d15	-0.05399807
189	0x3ccc2e59	0.024924444
190	0xbcdd0feb	-0.02698513
191	0x3aaabcba	0.0013026216
192	0xbb65cfcd	-0.0035066486
193	0xbaea959e	-0.0017897373
194	0x3c917816	0.017757457
195	0x3c90f81b	0.01769643
196	0xbc50c5fd	-0.012742517
197	0xbccdc80e	-0.025119808
198	0x3c4f03c4	0.012635175
199	0xbb9bd9d1	-0.0047561903
200	0x3d100a12	0.035165854
201	0xbca07da9	-0.01959117
202	0xbc8da9d7	-0.0172929
203	0xbc0b8a48	-0.008516856
204	0x3c9b0d51	0.018927248
205	0x3c97c48f	0.018526344
206	0x39320a51	0.00016979246
207	0xbc5b11af	-0.013370915
208	0xbc920bc3	-0.017827874
209	0x3cb72b08	0.022359386
210	0x3c665dd3	0.014060455
211	0x3ca56e8c	0.020194314
212	0xbc01ea7c	-0.007929441
213	0x3bba5856	0.0056868
214	0xbbd2ec12	-0.006436833
215	0xbb31826b	-0.0027085792
216	0xbcd833c9	-0.02639188
217	0xbc699c45	-0.014258449
218	0xbc722850	-0.014780119
219	0x3b48ca12	0.0030638021
220	0xbcc161fb	-0.023606291
221	0xbba9ca64	-0.0051815975
222	0x3d2cd10f	0.04219156
223	0xbb634172	-0.003467646
224	0x3ccbcbe4	0.024877496
225	0xbbb16dd5	-0.0054147043
226	0x3d23fddc	0.04003702
227	0xbc3a145e	-0.011357395
228	0x3c31da58	0.01085528
229	0xbc5bdf58	-0.0134199485
230	0x3be14c2d	0.006875536
231	0xbb6bba63	-0.003596925
232	0xbcfa7818	-0.030574843
233	0xbb8d5f73	-0.004314357
234	0xbbdc3a58	-0.0067208223
235	0xbc61b618	-0.013776325
236	0xbb42a9ac	-0.0029703183
237	0xbc810a5e	-0.015752014
238	0x3c91eca4	0.017813034
239	0xbc8ac545	-0.016939769
240	0x3d1d3fce	0.038390927
241	0xbd1bf614	-0.038076475
242	0x3c82098e	0.015873697
243	0xbd502c2c	-0.050823376
244	0x3c929054	0.017891087
245	0xbb98c74b	-0.0046624294
246	0xbd155de3	-0.03646649
247	0xbcdb9b50	-0.026807457
248	0xbcb557a8	-0.022136524
249	0xbcbddfa5	-0.023177931
250	0xbc0dde8b	-0.008659015
251	0x391cbc1f	0.000149474
252	0x3c6a9bf1	0.014319406
253	0x3cce2fb7	0.025169237
254	0xbc8ae1e6	-0.01695342
255	0x3ccf35c3	0.02529419

action_model._discrete_distribution.branches.0.bias f4 [2]
0	0x3b55577f	0.0032553372
1	0xbb5557a2	-0.0032553454

action_model._discrete_distribution.branches.0.weight f4 [2, 128]
0	0x3b8d6c1b	0.0043158657
1	0xbc0fc0e4	-0.008774016
2	0x3a7ae87d	0.00095713866
3	0xbae10d83	-0.0017170165
4	0xb9adb0f9	-0.00033128986
5	0xbc079639	-0.008275562
6	0xbb48766e	-0.0030588168
7	0x3c136ad7	0.008997641
8	0x3ab356be	0.0013682467
9	0x379fa77b	1.9032266e-05
10	0xbbddc8d4	-0.0067683253
11	0xbbee996b	-0.0072814724
12	0x3c4b727a	0.01241743
13	0x39e58d07	0.00043783357
14	0x3c916b6a	0.017751414
15	0xbb92343d	-0.0044617937
16	0x3c90f9b8	0.0176972
17	0x3bd1dafa	0.006404278
18	0x3c7c88d0	0.015413478
19	0x3ca4bf50	0.020110756
20	0x3ba7e967	0.0051242593
21	0xbb20a767	-0.0024513842
22	0xbca3e67d	-0.020007366
23	0x3bb57719	0.005537879
24	0xbd5a17a8	-0.053245217
25	0xbc42f430	-0.011899039
26	0x3bb26aab	0.0054448447
27	0xbc87703b	-0.016533008
28	0xbbcfc9a8	-0.006341178
29	0x3b5edb8d	0.0034005374
30	0x3b3dccf8	0.0028961282
31	0x3ccd0c1e	0.025030192
32	0xb9f514dd	-0.00046745586
33	0x3b60f574	0.003432599
34	0x3ac74114	0.001520189
35	0xbc4d6c65	-0.01253805
36	0xbbfb6dc8	-0.007672999
37	0xbc3f8a0c	-0.011690628
38	0x3a0aea2c	0.00052991766
39	0x3bf8c55d	0.007591887
40	0xbbb34959	-0.00547139
41	0x3c66cac9	0.014086434
42	0xbc1c171a	-0.009526992
43	0x3c9133f9	0.017724978
44	0x3c98d96c	0.018658362
45	0x3c9f2720	0.019427836
46	0x3b8dda6a	0.0043290155
47	0xbcc192ec	-0.023629628
48	0xbca3ff8f	-0.02001932
49	0xbc6124bb	-0.013741667
50	0x3bd4ab68	0.00649016
51	0x3b7d12a0	0.0038615838
52	0xbc4bc187	-0.012436277
53	0xbc06e635	-0.008233597
54	0x3b0136b5	0.0019716446
55	0x3b38f800	0.0028223991
56	0x3b939552	0.0045038844
57	0xbc47258c	-0.012154948
58	0x3b4d51b4	0.0031329216
59	0x3b9aaa48	0.004720006
60	0x3be77f48	0.0070647337
61	0xbca0f7ab	-0.019649347
62	0xbcc09281	-0.023507359
63	0x3c61556e	0.013753278
64	0x3d081d93	0.03323133
65	0xbb0c93ef	-0.002145048
66	0x3c3d5184	0.011555079
67	0x3c2120c7	0.009834475
68	0xbb91b2c9	-0.0044463617
69	0x3be570d5	0.007001976
70	0x3926e742	0.00015917144
71	0x3c03b1ec	0.008038025
72	0xbb483374	-0.0030548247
73	0xbbadefc3	-0.005308123
74	0x3c77eae9	0.015131691
75	0x3b950505	0.0045477175
76	0xbc20b9b9	-0.009809905
77	0x3c2473e9	0.010037401
78	0x3ca5275f	0.020160375
79	0x3c4efab7	0.012633017
80	0xba2f87d0	-0.0006695958
81	0xbc01ba7c	-0.0079179965
82	0x3bf5506e	0.0074863946
83	0xbb8df2ca	-0.004331921
84	0xbae52549	-0.0017482425
85	0xbc481ad5	-0.0122134285
86	0xbce1c35e	-0.027558979
87	0xbbb95d6a	-0.005656888
88	0x3ad89653	0.0016524292
89	0x3d0bd331	0.034136955
90	0x3b31c251	0.0027123878
91	0x3c9d0200	0.019165993
92	0xbc84ade0	-0.016196191
93	0x3bd992f6	0.0066398336
94	0xbc1d0527	-0.009583748
95	0x3bb63426	0.005560416
96	0x39ae3294	0.0003322555
97	0x3cdd3ba3	0.027005976
98	0xbc0fb161	-0.008770318
99	0x3b6ce954	0.0036149817
100	0x3b958863	0.0045633777
101	0x3c0b1ce8	0.0084907785
102	0xbb379d56	-0.0028017364
103	0x3c5affb0	0.013366625
104	0xbba9a7ac	-0.0051774587
105	0x3bca303c	0.0061703008
106	0xbd011323	-0.03151239
107	0xbc7b8eaa	-0.015353838
108	0xbc87b5d0	-0.016566187
109	0x3c4a2fa1	0.012340457
110	0x3b001d24	0.001954862
111	0xbd087025	-0.033310074
112	0xbca0c2c8	-0.019624129
113	0xbc215d00	-0.009848833
114	0x3cf3d329	0.029763775
115	0x3c907da3	0.017638033
116	0x3a9f8103	0.0012169186
117	0xbaf0ba02	-0.0018365982
118	0x3c825ecf	0.015914349
119	0xbc11d908	-0.008901842
120	0xbc14001b	-0.009033228
121	0xbbf25265	-0.007395076
122	0x3c11a310	0.008888975
123	0xbbbd5e56	-0.005779068
124	0x3ca75816	0.020427745
125	0x3b8808f3	0.0041514575
126	0x3afd3acb	0.001931989
127	0xbca30103	-0.019897943
128	0xbaaf4941	-0.0013373272
129	0xbac38ae8	-0.0014918717
130	0x3c1c9558	0.009557091
131	0x3c458b6b	0.012057166
132	0xbbcdfbf7	-0.00628614
133	0x3c9c8592	0.01910666
134	0x3bc921d8	0.0061380677
135	0xbbea9141	-0.007158429
136	0x3c21f08f	0.009884014
137	0xbc12ad50	-0.008952454
138	0x3ba35651	0.004984655
139	0xbc424f3c	-0.011859711
140	0xbc1e9ccb	-0.009680937
141	0x3bae6c49	0.005322967
142	0xbc2a95d0	-0.010411695
143	0xbb9130da	-0.0044308724
144	0xbc58a00a	-0.01322175
145	0xbc8f4925	-0.017490933
146	0xbbae5f00	-0.0053213835
147	0xbcc0e247	-0.023545397
148	0x3bd779bb	0.0065757907
149	0x3b98bbce	0.00466106
150	0x3b65a35d	0.003504
151	0xbc117f45	-0.008880441
152	0x3d315549	0.043294225
153	0x3cddd651	0.027079733
154	0x3c223099	0.009899282
155	0x3c8583cc	0.016298197
156	0xbb3d5730	-0.002889108
157	0xba9c6292	-0.0011931232
158	0xbc56d537	-0.013112358
159	0xbc8db942	-0.017300252
160	0x3c4d79af	0.012541219
161	0x3b02ab99	0.0019938706
162	0xbbe7740f	-0.007063396
163	0x3c8edf1b	0.01744037
164	0x3cd85a4e	0.026410248
165	0xbc14f91e	-0.009092597
166	0x3bb80944	0.005616339
167	0xbc1fcb6a	-0.009753088
168	0xbc07698f	-0.008264913
169	0xbc4d22cf	-0.012520506
170	0xbb8dd917	-0.0043288576
171	0xbb7a831d	-0.0038225122
172	0xbad36619	-0.001612845
173	0xbb8ba131	-0.004261159
174	0x3baf5dbf	0.0053517516
175	0x3af48902	0.0018656554
176	0x3c828a09	0.01593496
177	0x3c124533	0.008927631
178	0x3c5ab304	0.013348345
179	0x3c8d0cbc	0.017217986
180	0xbb9c0db8	-0.0047623776
181	0x3cf83513	0.030298745
182	0x3b9756f1	0.0046185185
183	0xbbbce8ad	-0.005765042
184	0x3c0bb7b6	0.008527687
185	0x3ca9d247	0.02073015
186	0xbb3b21a3	-0.0028553985
187	0x3b8dca67	0.0043271068
188	0x3c62ab26	0.01383475
189	0x3bbc0aea	0.0057386057
190	0x3c954126	0.018219542
191	0xbbfb7a2e	-0.007674477
192	0xbd2b4c60	-0.041820884
193	0x3c455e2f	0.012046381
194	0xbbd94d1e	-0.0066315075
195	0xbbe16943	-0.0068790033
196	0x3c3d07ff	0.011537551
197	0x3bcc8073	0.0062408983
198	0xbb972eaf	-0.0046137194
199	0x3b2404d9	0.0025027303
200	0xbce914cd	-0.028452301
201	0x3cabbd08	0.02096416
202	0x3a8f7a9d	0.0010946576
203	0x3b83ece8	0.004026044
204	0x3c0050d2	0.007831769
205	0xbca94959	-0.020664858
206	0xbc51a186	-0.012794858
207	0xbc18a725	-0.009317194
208	0x3b26d9f1	0.0025459493
209	0x3c61fc6c	0.013793092
210	0xba28342a	-0.00064164645
211	0x3ba9e6ba	0.0051849755
212	0x3a232bc8	0.00062244805
213	0x3cbf2f7b	0.02333807
214	0xbbeebb32	-0.007285499
215	0x3c4e3ba9	0.012587466
216	0xbc8c342a	-0.017114718
217	0xbc3343aa	-0.010941425
218	0xbc3d57bb	-0.011556561
219	0xbcb2c4e1	-0.021822395
220	0x3ca3499b	0.019932559
221	0x3c041e5e	0.008063881
222	0x3c3350ad	0.010944528
223	0x3c21a6e0	0.009866446
224	0xbad48e60	-0.0016216747
225	0xbcb7a2ab	-0.022416433
226	0xbba6aba5	-0.0050863796
227	0xbc0ef3b0	-0.008725092
228	0x3cb0c529	0.021578388
229	0xbbf5a72f	-0.0074967365
230	0x3a7506f8	0.0009347047
231	0xbc5d1298	-0.013493203
232	0xbb37f2c5	-0.0028068286
233	0xb9a63650	-0.00031702453
234	0x3cd8dd31	0.02647266
235	0x3c774cfb	0.015094037
236	0xba113a07	-0.0005539958
237	0x3ba372fb	0.004988072
238	0xbb79799c	-0.003806687
239	0x3cce5b01	0.025189878
240	0xbb5aab56	-0.0033366284
241	0xbb813d81	-0.0039440994
242	0xbbe5ff0a	-0.0070189284
243	0x3afdf4b1	0.0019375292
244	0xbc3c9a01	-0.011511327
245	0x3c08e9d9	0.008356535
246	0xbcb7ea7a	-0.022450674
247	0xb971eb4f	-0.0002307121
248	0x3c2ab2b2	0.010418581
249	0x3bf0c0d6	0.0073472066
250	0x3c2bf6e5	0.010495876
251	0x3c1fe0d1	0.00975819
252	0xbcbcc88e	-0.02304485
253	0x3a6262b3	0.0008635923
254	0x3cf6a2a3	0.030106848
255	0x3c7e41b1	0.015518592

network_body._body_endoder.seq_layers.0.bias f4 [128]
0	0xbcb300f4	-0.02185104
1	0x3c4c26e3	0.012460443
2	0x3bf902b2	0.0075991983
3	0x3c12f384	0.008969191
4	0xbba033d6	-0.004888992
5	0x3c5412b2	0.01294391
6	0x3bab5342	0.005228431
7	0xbc037ee3	-0.008025858
8	0xbc857d2e	-0.016295042
9	0x3cdec11c	0.027191691
10	0xbc808999	-0.015690612
11	0xbbfeeec9	-0.0077799303
12	0xbc933141	-0.017967822
13	0xbc3dcd2b	-0.01158456
14	0x3c74c90a	0.01494051
15	0x3c843e0b	0.016142866
16	0xbb10fc98	-0.0022123214
17	0x3cc96360	0.024583519
18	0xbb0871f9	-0.0020819886
19	0x3b828a4e	0.0039837724
20	0xbba1d945	-0.0049392306
21	0x3a96c6ce	0.001150334
22	0xbb0ea02c	-0.002176295
23	0x3978fec4	0.0002374603
24	0x3d0a772f	0.03380507
25	0x3c2d05fc	0.010560509
26	0xbc3f0299	-0.011658334
27	0x3cd87c5e	0.02642649
28	0xbbe83498	-0.007086348
29	0x3bd7c36b	0.006584575
30	0x3c225f9e	0.009910492
31	0x3ce3959c	0.0277813
32	0x3cd49c2e	0.025953379
33	0x3ae3d58b	0.0017382366
34	0x3c0a9e0f	0.008460536
35	0xbb045791	-0.0020193795
36	0xbd1b0958	-0.037850708
37	0x3cbe3b18	0.023221537
38	0xbb9c01eb	-0.004760971
39	0x3cbffe87	0.023436798
40	0xbb432c55	-0.0029781063
41	0x3c291f51	0.010322408
42	0x3c1730ef	0.009227975
43	0xbc2350ab	-0.009967963
44	0x3c79f451	0.0152560035
45	0x3c299c8a	0.010352263
46	0xbb788198	-0.003791904
47	0xbc20c853	-0.009813386
48	0xbbd11e35	-0.006381775
49	0xbd400d03	-0.04688741
50	0x3b8b740c	0.004255777
51	0x3ca9c3d5	0.020723263
52	0x3c363f60	0.011123508
53	0xbcd22451	-0.025652083
54	0xba73792b	-0.000928777
55	0xbac95de0	-0.001536306
56	0xbc04a131	-0.008095072
57	0xbb21748e	-0.0024636122
58	0x3b719059	0.003685972
59	0xbc303021	-0.010753662
60	0x3c67f6cb	0.014157961
61	0x3c08e1b2	0.008354591
62	0xbc3c40f1	-0.011490093
63	0xbce857f0	-0.028362244
64	0xbc85976c	-0.016307555
65	0x3cca6a25	0.024708817
66	0xbc306094	-0.0107652135
67	0xbc1c57c9	-0.009542414
68	0x3be9ffd1	0.0071410914
69	0xbb7f08cd	-0.0038915158
70	0x3c7799b4	0.015112329
71	0xbb18680c	-0.0023255376
72	0x3bac4692	0.005257436
73	0x3c6076cb	0.013700197
74	0x3c998de9	0.018744426
75	0x3c5062c6	0.012718862
76	0x3c804524	0.015657969
77	0x3b610da6	0.003434041
78	0x3bdb9ed3	0.006702283
79	0x3cb75434	0.022379018
80	0x3c5ef507	0.013608224
81	0xbb8163ad	-0.00394865
82	0xbc9f82d3	-0.019471562
83	0x3b104765	0.002201521
84	0x3ac39eb0	0.0014924612
85	0x3cc6f687	0.024287475
86	0x3ca56891	0.020191463
87	0xbae6d858	-0.0017612083
88	0x3bacb768	0.005270887
89	0xba876547	-0.0010329866
90	0x3b5fbfc1	0.0034141394
91	0xbc8252f3	-0.015908694
92	0x3c7f5e01	0.015586377
93	0xba95d8df	-0.001143243
94	0x3b3e2d2d	0.0029018626
95	0x3c574dd5	0.013141115
96	0x3bb81980	0.005618274
97	0x3c7e7170	0.015529975
98	0xbc0b1c22	-0.008490594
99	0x3d1c604d	0.038177777
100	0xbb0247aa	-0.001987914
101	0xbca758bf	-0.02042806
102	0xbc5e32d8	-0.013561927
103	0x3c68787c	0.014188882
104	0x3c9b70e6	0.018974733
105	0xbcec9437	-0.028879268
106	0xbc3dd35f	-0.011586039
107	0xbb0fee4b	-0.0021962102
108	0xbbe3df27	-0.006954092
109	0xbc81b3a4	-0.01583273
110	0x3b791b28	0.003801057
111	0x3b7fd8e9	0.00390392
112	0xbce7a3ee	-0.02827641
113	0x3c93d753	0.01804701
114	0xbc78a87c	-0.015176889
115	0x3bf10acc	0.0073560234
116	0xbcf55c53	-0.02995125
117	0xbc5ad847	-0.013357229
118	0xbc2b9b7c	-0.010474082
119	0x3c4c58ee	0.012472374
120	0x3c0c0052	0.008544998
121	0x3ca91efd	0.02064466
122	0x3cdada55	0.026715437
123	0x3c8ed115	0.017433682
124	0xbc4e7b7e	-0.012602685
125	0xbacae0c8	-0.0015478367
126	0xbc40478d	-0.011735809
127	0xbc925b13	-0.017865693

network_body._body_endoder.seq_layers.0.weight f4 [128, 31]
0	0xbcda3789	-0.02663781
1	0xbe1473f0	-0.14497352
2	0xbda06f4d	-0.07833729
3	0x3e4610a4	0.19342285
4	0xbd40f56a	-0.047109045
5	0xbd8e95c3	-0.069621585
6	0x3db9cfc1	0.09072829
7	0xbd8de728	-0.06928855
8	0x3d71c333	0.059024047
9	0x3e19f094	0.1503318
10	0xbda91f9b	-0.082579814
11	0x3e6b5e9b	0.22985308
12	0x3ddf0005	0.108886756
13	0x3cbe5497	0.023233695
14	0x3e238bf7	0.15971361
15	0x3d66ef50	0.05638057
16	0x3e3f88ae	0.18704483
17	0xbe89ce47	-0.2691519
18	0xbdc24661	-0.0948608
19	0x3e351aad	0.17685957
20	0x3e43733c	0.19086927
21	0xbce9d808	-0.028545395
22	0x3e7ce591	0.24696948
23	0x3c12cf12	0.008960502
24	0xbe521347	-0.20515166
25	0xbe7cf72c	-0.24703664
26	0xbe6f7eaf	-0.2338817
27	0x3e0307d6	0.12795958
28	0x3e2a5f3a	0.16637889
29	0x3e5fb286	0.21845445
30	0xbdc313d2	-0.09525265
31	0xbe82baf5	-0.25533262
32	0x3edca1e4	0.43092263
33	0xbc64ce3c	-0.013965186
34	0xbe472c45	-0.19450481
35	0xbdb77ab2	-0.08958949
36	0xbe0bcd38	-0.13652503
37	0xbde4d85f	-0.11174082
38	0x3cd34058	0.025787517
39	0x3be68e1a	0.007035983
40	0x3e1c83bb	0.15284626
41	0x3bd1cbe7	0.006402481
42	0xbdd7e263	-0.10541227
43	0x3de06e29	0.109585114
44	0x3de16e07	0.11007314
45	0xbe172014	-0.1475833
46	0x3eaca361	0.33718398
47	0xbd8d4a7e	-0.06898974
48	0x3e8814a2	0.26578242
49	0xbcf5b841	-0.029995086
50	0xbe19e7d4	-0.15029842
51	0x3e853d29	0.26023224
52	0xbe4615e5	-0.1934429
53	0x3e1b0c3a	0.15141383
54	0xbe6045fa	-0.21901694
55	0xbe8c5317	-0.27407143
56	0x3e02ffdf	0.1279292
57	0x3e3a96eb	0.18221633
58	0xbe7f8e88	-0.24956715
59	0x3e3dc929	0.18533768
60	0xbb1b7836	-0.0023722774
61	0x3eb460ad	0.35230008
62	0xbc626bfa	-0.013819689
63	0xbe0f370e	-0.13985845
64	0xbcf54dba	-0.02994429
65	0xbec8fc14	-0.3925482
66	0x3bd5abc3	0.0065207197
67	0x3c377323	0.011196884
68	0x3b8d1582	0.0043055424
69	0x3db2935c	0.08719513
70	0x3e151d8e	0.14562055
71	0x3e23d2fe	0.15998456
72	0xbe134363	-0.14381175
73	0xbc380109	-0.011230716
74	0x3cc639a2	0.024197403
75	0xbe485cb6	-0.19566616
76	0x3d93b579	0.072123475
77	0xbeaf18e0	-0.34198666
78	0x3e85b1cc	0.2611221
79	0x3e6fa9fe	0.2340469
80	0xbda79d2f	-0.08184277
81	0xbd9a5c48	-0.075371325
82	0xbebd5ffe	-0.369873
83	0xbe168301	-0.14698412
84	0x3e4f0f59	0.20220698
85	0x3d53a630	0.05167216
86	0x3de5b33c	0.11215827
87	0xbe226485	-0.15858658
88	0x3e27b9d3	0.1637948
89	0x3e6a1cb5	0.22862513
90	0x3dc83352	0.097754136
91	0xbc824b7c	-0.015905134
92	0x3e0dd368	0.13850176
93	0x3c2368ed	0.009973747
94	0x3e591d5b	0.21202604
95	0xbb45f267	-0.0030204298
96	0xbddd211e	-0.10797332
97	0x3e5f9abd	0.21836372
98	0xbe356ba4	-0.17716843
99	0xbe0d1f07	-0.13781367
100	0x3cd63148	0.026146546
101	0xbd931bf2	-0.071830645
102	0x3cff1e57	0.031142397
103	0x3e150ca6	0.14555606
104	0x3eab0e01	0.33409122
105	0x3e616cac	0.22014111
106	0x3e4398d6	0.19101271
107	0x3d86f2dd	0.06589291
108	0xbe219652	-0.15779999
109	0x3e2fbe4d	0.17162438
110	0x3b687ac0	0.0035473555
111	0x3de6133a	0.11234136
112	0x3becf977	0.007231887
113	0x3e58a529	0.21156754
114	0xbe1db018	-0.15399206
115	0xbeccf4b5	-0.40030447
116	0x3c3c53c9	0.011494585
117	0xbcd763f1	-0.026292773
118	0x3d83c292	0.06433596
119	0xbd02ad54	-0.03190358
120	0x3e8d7d0f	0.27634475
121	0xbdbd40e3	-0.09240892
122	0x3bb3777d	0.0054768906
123	0xbe324973	-0.17410831
124	0xbd8181a9	-0.06323559
125	0x3e520398	0.20509183
126	0xbdb95ac4	-0.09050515
127	0x3d14975d	0.036277164
128	0xbbab42dc	-0.005226476
129	0x3d266abe	0.04062914
130	0x3e6250ac	0.22101086
131	0xbe9c7293	-0.30556163
132	0xbe5413a4	-0.20710617
133	0xbe19fc32	-0.15037611
134	0x3dc92a2c	0.09822497
135	0xbdf02464	-0.11725691
136	0x3d61eea2	0.05515922
137	0xbe25e253	-0.16199617
138	0xbe81ee42	-0.2537709
139	0xbbf62299	-0.0075114486
140	0xbd911088	-0.07083231
141	0x3e81ab07	0.25325796
142	0x3e86804a	0.26269752
143	0xbd801a78	-0.062550485
144	0xbd27d528	-0.040974766
145	0xbe471522	-0.19441655
146	0xbe9e2ca1	-0.30893424
147	0xbe580153	-0.21094255
148	0xbdde9bb3	-0.10869541
149	0x3d8418cd	0.06450043
150	0x3e530339	0.20606698
151	0x3df62eae	0.12020622
152	0xbc99d29b	-0.018777182
153	0x3d85a436	0.065254614
154	0xbe92e309	-0.2868884
155	0x3da9ad28	0.0828498
156	0xbe875e0d	-0.26438943
157	0xbdca0f7c	-0.09866235
158	0x3c4c561d	0.012471703
159	0xbdd5faa2	-0.10448195
160	0xbce92ab7	-0.02846275
161	0xbbda240d	-0.0066571296
162	0xbdf24385	-0.118292846
163	0x3e38cefc	0.18047708
164	0x3e095adb	0.13413565
165	0x3cdfa9fc	0.027302735
166	0x3e96334c	0.2933601
167	0xbe841631	-0.2579818
168	0x3dcc3750	0.099714875
169	0x3d92312c	0.07138285
170	0xbe9bf953	-0.30463657
171	0x3e7545e1	0.23952438
172	0xbe63f914	-0.22262985
173	0x3d2284c0	0.03967738
174	0xbe1c271a	-0.15249291
175	0xbe29e309	-0.16590513
176	0xbc572948	-0.013132401
177	0x3e8e1df6	0.27757233
178	0x3dae6931	0.085161574
179	0xbcfd3ba6	-0.030912232
180	0xbb934c8e	-0.00449521
181	0xbe87d02a	-0.26526004
182	0x3ea8d705	0.32976547
183	0x3e3c8677	0.1841067
184	0x3e01e9b7	0.12686811
185	0xbce3b092	-0.027794156
186	0x3e4873cf	0.19575427
187	0x3de7a010	0.113098264
188	0xbda07f75	-0.078368105
189	0xbe865017	-0.2623298
190	0xbf03938b	-0.5139701
191	0xbde280ac	-0.110596985
192	0x3e6a7971	0.22897889
193	0x3d1e3ccc	0.0386322
194	0x3ec264e8	0.3796761
195	0x3edae6f9	0.42754343
196	0xbdcc4ac0	-0.09975195
197	0xbd9843c5	-0.07434801
198	0xbd9ddf25	-0.07708577
199	0x3e6e2fa4	0.23260361
200	0xbe6c2b80	-0.23063469
201	0xbeb82384	-0.35964596
202	0xbe878b5f	-0.2647352
203	0xbd359cd1	-0.044339005
204	0x3d39f452	0.045399018
205	0xbec93bc4	-0.3930341
206	0xbe84d565	-0.25944057
207	0xbe130e63	-0.14360957
208	0xbe4baf94	-0.19891196
209	0xbe7464a8	-0.23866522
210	0x3d06ad8f	0.032880362
211	0xbed0168f	-0.4064221
212	0x3e0c3cfc	0.13695139
213	0x3de5e33f	0.112249844
214	0x3e03684f	0.1283276
215	0x3cdc3d00	0.026884556
216	0x3cdad4a1	0.026712717
217	0x3c935d1d	0.017988736
218	0x3e640c87	0.22270404
219	0x3ebca9b4	0.36848223
220	0x3d6e21af	0.058137592
221	0x3d673e85	0.056456108
222	0x3e87dfbb	0.2653788
223	0xbd51c794	-0.051215723
224	0xbcb4cdf3	-0.02207086
225	0x3c9fcb08	0.019505993
226	0xbd3364b2	-0.043797202
227	0xbe2325d1	-0.15932395
228	0x3adb7ed6	0.0016746174
229	0xbe29321c	-0.16523021
230	0xbd8b59b7	-0.06804221
231	0xbde567e0	-0.11201453
232	0x3bc97f60	0.0061492175
233	0xbe07b82b	-0.13253848
234	0x3e682c2a	0.22673097
235	0x3d29bcf6	0.041439973
236	0xbb8340cd	-0.0040055276
237	0xbeb1a241	-0.34694102
238	0xbdc0da49	-0.094166346
239	0x3d1fa6cb	0.038977426
240	0x3e02b89b	0.12765734
241	0x3e322af5	0.173992
242	0x3e805ba8	0.25069928
243	0xbe23cf51	-0.15997054
244	0x3df08dd0	0.117457986
245	0x3da11ccb	0.0786682
246	0xbde85776	-0.11344807
247	0x3e1a2a79	0.15055265
248	0x3e6df3e4	0.23237568
249	0xbdf787ad	-0.12086425
250	0x3e9142c1	0.28371242
251	0x3c4db937	0.012556366
252	0xbe9979db	-0.2997578
253	0x3e12cc33	0.14335708
254	0x3dcbdc1d	0.09954093
255	0x3e853876	0.2601964

network_body._body_endoder.seq_layers.2.bias f4 [128]
0	0xbc2577a5	-0.010099326
1	0x3c83f27a	0.016106833
2	0x3c48ed78	0.012263648
3	0x3c0d7f95	0.008636375
4	0xbc13e3a8	-0.009026445
5	0xbc8a994c	-0.0169188
6	0x3bd8801e	0.0066070696
7	0x3ca71908	0.020397678
8	0x3c010350	0.007874325
9	0x3c976626	0.018481325
10	0xbbdf6334	-0.006817246
11	0x3cef7bee	0.029233899
12	0x3c92dd68	0.01792784
13	0x3c060e2d	0.008182091
14	0x3b612438	0.0034353863
15	0xbc7cae33	-0.015422392
16	0x3c057dad	0.008147639
17	0xbc235663	-0.009969327
18	0xbca7e4df	-0.020494876
19	0x3bf929f4	0.007603878
20	0x3c91f612	0.01781753
21	0x3c4b8704	0.012422327
22	0x3c80d9a4	0.01572878
23	0x3cb9b357	0.022668524
24	0x3c80928b	0.015694877
25	0xbc5ccd03	-0.013476613
26	0x3c0952c2	0.008381547
27	0xbba5b942	-0.005057485
28	0xbb07ade0	-0.0020703003
29	0xbc30febf	-0.010802924
30	0x3b45c716	0.003017848
31	0xbc571694	-0.013127942
32	0x3c29ea6b	0.010370831
33	0xbbfd6e32	-0.0077340836
34	0x3bc95f05	0.0061453604
35	0x3c6a7dcd	0.01431222
36	0x3c88c811	0.016696962
37	0xbc1546c6	-0.009111112
38	0xbb5eb362	-0.0033981432
39	0xbbe1a5e2	-0.00688623
40	0x3b897399	0.0041946885
41	0x3ac285c9	0.0014840896
42	0x3bffe41a	0.0078091742
43	0x3bd8ff20	0.00662221
44	0xb9b34af5	-0.00034197388
45	0xbc1347d5	-0.008989294
46	0x3c02a411	0.007973687
47	0xbc699194	-0.0142559
48	0x3ce526b6	0.02797256
49	0xbc41303b	-0.011791284
50	0x3bac37ac	0.00525566
51	0x3c95f626	0.01830585
52	0x39c3fd6d	0.00037382115
53	0x3c1702ac	0.009216946
54	0xbbeca050	-0.007221259
55	0x3ca01fa2	0.019546334
56	0xbae151fb	-0.001719057
57	0x3bee621b	0.0072748787
58	0xbc16057f	-0.009156584
59	0xbc517260	-0.012783617
60	0xbcdb9d43	-0.026808387
61	0x3c7d636c	0.015465599
62	0x3c7fb85a	0.015607918
63	0x3bb9847e	0.0056615463
64	0x3cad959d	0.021189505
65	0x3c21edb3	0.009883332
66	0x3c4c7424	0.012478862
67	0xbac46569	-0.0014983836
68	0xbc94621a	-0.018113185
69	0x3c04179a	0.008062268
70	0xbadaf1bd	-0.0016704124
71	0xbbfa7002	-0.007642747
72	0x3c869a7f	0.016431091
73	0xbc76f2d2	-0.015072541
74	0xbb4dce48	-0.003140347
75	0x3c6733f4	0.014111508
76	0x3cdf2003	0.027236944
77	0x3c52d2db	0.012867655
78	0x3afffcca	0.0019530293
79	0xbc65631f	-0.014000683
80	0xbc66c397	-0.014084718
81	0x3bf2983e	0.0074034026
82	0x3c57b3c8	0.013165422
83	0x3c046b41	0.008082212
84	0xbb74bb84	-0.0037343213
85	0x3cb614b3	0.022226667
86	0x3b5265d1	0.0032104144
87	0xbcade68b	-0.021228096
88	0xbbd15a7c	-0.0063889604
89	0x3bbf320f	0.005834825
90	0x3bfec46f	0.0077748816
91	0x3d05a245	0.032625455
92	0xbc5cc126	-0.013473785
93	0x3ab05565	0.0013453184
94	0x3c42905f	0.011875241
95	0x3ce83492	0.02834538
96	0x3acc4716	0.001558515
97	0x3c5b0df4	0.013370026
98	0x3c355042	0.011066498
99	0xbb4531f3	-0.0030089587
100	0x3b91dbd5	0.004451255
101	0xbbbc563c	-0.0057475846
102	0x3aeb61c5	0.0017958215
103	0xbbb3981f	-0.0054807807
104	0xbcb2124e	-0.021737244
105	0xb9809d89	-0.00024531435
106	0xba875c4c	-0.0010327189
107	0xbb2b946d	-0.0026180998
108	0xbabde86d	-0.0014488824
109	0xbc34adc7	-0.01102776
110	0x3b738752	0.0037159515
111	0x3b9300ec	0.004486194
112	0x3c350867	0.011049367
113	0xbc1aeb55	-0.009455522
114	0x3c615817	0.013753912
115	0xbc03e834	-0.008050967
116	0x3c9191c8	0.01776971
117	0xba8d6f58	-0.0010790629
118	0x3bca315b	0.0061704344
119	0xbaba4351	-0.0014210736
120	0xbc9186bd	-0.017764444
121	0xbcb4a89a	-0.022053052
122	0xbcb45be0	-0.022016466
123	0xbc292e64	-0.010326002
124	0x3cc15885	0.02360178
125	0x3c19fcd8	0.009398662
126	0xbb913f39	-0.0044325856
127	0x3c49ace4	0.012309287

network_body._body_endoder.seq_layers.2.weight f4 [128, 128]
0	0x3e2e198d	0.17001934
1	0x3cd4bb9e	0.02596837
2	0x3d00f16b	0.031480234
3	0x3ccb8ff4	0.024848916
4	0x3d8ead77	0.069666795
5	0xbcc3b7a7	-0.023891283
6	0x3d09862f	0.033575233
7	0x3e04bb04	0.12961966
8	0xbce20f2f	-0.02759513
9	0xbd0b7a86	-0.034052394
10	0xbd70487c	-0.058662876
11	0xbd546719	-0.051856134
12	0x3d854d62	0.065089
13	0xbd86ad50	-0.065760255
14	0x3e10f611	0.14156367
15	0xbda8a834	-0.08235207
16	0xbd358627	-0.04431739
17	0x3db516be	0.08842228
18	0x3d4236b3	0.047415446
19	0x3d348a17	0.044077005
20	0x3c0469c6	0.008081859
21	0xbd7da220	-0.061922193
22	0x3dc54bc0	0.09633589
23	0xbd824f96	-0.06362836
24	0x3d999e08	0.07500845
25	0x3e4f7101	0.20257951
26	0xbc2bb7ee	-0.010480864
27	0xbd8d3458	-0.068947494
28	0x3d6932b8	0.056933135
29	0xbcc90995	-0.024540702
30	0xbda8e4f0	-0.08246791
31	0x3d164512	0.036686964
32	0x3d92368b	0.071393095
33	0xbda7e4f9	-0.0819797
34	0x3ca422ac	0.020036064
35	0xbcba45a6	-0.02273829
36	0x3d82b449	0.06382043
37	0x3ac24846	0.0014822565
38	0xbd869722	-0.06571795
39	0xbe17ad18	-0.14812124
40	0xbd182137	-0.03714105
41	0xbe03cdf0	-0.12871528
42	0x3e13efb8	0.14446914
43	0xbc923fc7	-0.017852677
44	0xbdf997dc	-0.12187168
45	0xba8299e3	-0.0009964075
46	0xbbc26dea	-0.005933513
47	0xbd36eeed	-0.04466145
48	0xbc823c69	-0.015897946
49	0xbe14ce3c	-0.14531797
50	0xbcf5b5c0	-0.029993892
51	0x3d794e32	0.06086559
52	0x3cb619e7	0.022229148
53	0x3d71bfbe	0.05902075
54	0xbce9316f	-0.028465955
55	0xbe84e748	-0.25957704
56	0xbd8ca761	-0.068678625
57	0x3e91f794	0.285092
58	0xbd6342f0	-0.05548376
59	0xbdc6d308	-0.0970822
60	0xbdd48712	-0.10377325
61	0x3e42f973	0.1904047
62	0x3d016c7b	0.031597596
63	0xbd575b61	-0.05257738
64	0x3da7ecbb	0.0819945
65	0xbcc2f562	-0.023798648
66	0x3bba3ccb	0.0056835166
67	0xbddc95e5	-0.107707776
68	0xbd6aa91c	-0.05729018
69	0x3d67b616	0.056570135
70	0x3de70fca	0.112823084
71	0xbcd847e4	-0.026401468
72	0xbd4286e9	-0.04749194
73	0x3d3b3dce	0.04571324
74	0xbc956e7b	-0.018241158
75	0x3d991fc4	0.07476762
76	0x3ce728bc	0.028217666
77	0x3d188f75	0.037246186
78	0x3d0e5e0e	0.034757666
79	0x3dd2aeb6	0.1028723
80	0x3dbe35bd	0.092875935
81	0xbdb93178	-0.090426385
82	0xbdf5109e	-0.1196606
83	0xbcf548dd	-0.02994197
84	0x3cb3c238	0.021943197
85	0x3da68f6b	0.081328236
86	0xbd3796e8	-0.04482165
87	0x3ccc11aa	0.024910767
88	0x3d9ff9d9	0.078113265
89	0xbd39e58d	-0.045384932
90	0x3ca9ede2	0.020743314
91	0x3d263fa8	0.04058805
92	0xbe8da1b1	-0.27662423
93	0x3d87a961	0.06624103
94	0xbdbfb4f9	-0.0936069
95	0xbd3c477c	-0.04596661
96	0x3de9429b	0.11389657
97	0xbd701b6e	-0.05861991
98	0xbc40bf2c	-0.011764329
99	0xbd0c0bbf	-0.03419089
100	0x3dfe9231	0.124302275
101	0x3e3f32b2	0.18671682
102	0xbda927db	-0.08259555
103	0xbd557a34	-0.052118495
104	0x3d909260	0.07059169
105	0x3dfc7851	0.12327636
106	0xbda232f9	-0.079198785
107	0x3c9b7f77	0.018981678
108	0xbdbdf802	-0.09275819
109	0xbbf27918	-0.0073996894
110	0x3d79ec02	0.06101609
111	0xbca90c65	-0.020635793
112	0x3e14eed8	0.14544237
113	0x3ce2ce56	0.02768628
114	0x3bbe1533	0.005800867
115	0x3d221e8b	0.03957991
116	0x3d938371	0.07202805
117	0x3c6f21ca	0.014595458
118	0x3dad22b7	0.08453887
119	0xbc12185a	-0.008916939
120	0xbd2df2a4	-0.04246773
121	0x3e073894	0.13205177
122	0xbd3c5236	-0.04597684
123	0xbd2f3fcb	-0.042785447
124	0x3dde252f	0.10846936
125	0x3cd35f75	0.025802353
126	0x3ce1afa8	0.02754958
127	0x3dfc9c39	0.123344846
128	0x3dd7a87f	0.10530185
129	0xbd9c138a	-0.07620914
130	0xbd8185d8	-0.06324357
131	0xbe333cd2	-0.1750367
132	0xbdaaf187	-0.08346849
133	0x3bc32fe6	0.0059566377
134	0xbe3df07f	-0.18548773
135	0xbdec595d	-0.11540482
136	0xbe190205	-0.14942177
137	0xbc3e61e8	-0.011620022
138	0x3bb712e6	0.0055869697
139	0x3bf655d9	0.007517558
140	0xbda6328c	-0.0811511
141	0xbd62e53b	-0.055394392
142	0x3dc6e88d	0.09712324
143	0xbb833995	-0.004004667
144	0xbd943565	-0.07236747
145	0xbcb1ff4f	-0.021728186
146	0x3d92ea51	0.071735986
147	0x3d8071ef	0.06271731
148	0xbdcc0b5a	-0.09963103
149	0xbd478292	-0.048708506
150	0x3d58ddde	0.052945964
151	0x3d41e0fc	0.047333702
152	0x3e0b1775	0.13583167
153	0xbd39171f	-0.045188066
154	0xbc82622f	-0.015915958
155	0xbe2844d0	-0.164325
156	0xbdecef73	-0.11569109
157	0xbd0d7ecf	-0.034544762
158	0xbe1cb6e4	-0.15304142
159	0xbd670ba3	-0.056407582
160	0x3dd3d646	0.10343604
161	0x3d3932b5	0.045214374
162	0x3d1438a5	0.036186833
163	0xbe09b7c0	-0.13449001
164	0xbb8d37ef	-0.0043096463
165	0xbc64cba2	-0.0139645655
166	0x3d363f31	0.044493858
167	0xbddb1794	-0.106978565
168	0x3e4b87a7	0.19875966
169	0x3e1ec8d3	0.15506296
170	0x3d15b267	0.03654709
171	0x3c3dc10c	0.0115816705
172	0xbda97516	-0.082742855
173	0x3da1219b	0.07867738
174	0x3e17a32f	0.14808343
175	0x3b8189b0	0.003953181
176	0xbe2e97a4	-0.17050034
177	0xbd121107	-0.03566077
178	0x3dc7f5ed	0.097637035
179	0x3c095938	0.008383088
180	0xbc6147aa	-0.013749996
181	0xbd66a8de	-0.056313388
182	0x3e04c842	0.12967017
183	0xbe390a59	-0.18070354
184	0xbd586ffb	-0.052841168
185	0x3dc37e6d	0.09545598
186	0xbb9e69db	-0.0048343963
187	0x3d657b6d	0.05602591
188	0x3e028171	0.1274469
189	0x3dfeeac3	0.12447121
190	0x3c5b006a	0.013366798
191	0x3d2cdefd	0.042204846
192	0x3ce9839e	0.028505143
193	0x3e058df7	0.13042437
194	0x3cbd19ab	0.023083529
195	0xbdc0d998	-0.09416503
196	0x3d177556	0.036977135
197	0xbda50633	-0.08057823
198	0x3dd1b757	0.102400474
199	0x3dd3f51d	0.10349486
200	0x3d30e4fb	0.043187123
201	0xbda32d7c	-0.0796766
202	0xbdf982f4	-0.121831805
203	0xbe0b2615	-0.13588746
204	0x3c8632b3	0.016381597
205	0xbe02e5e2	-0.12783006
206	0x3d68bdea	0.05682174
207	0xbe6d688a	-0.2318441
208	0xbd7e9a52	-0.06215889
209	0xbd1998d1	-0.037499253
210	0x3c8beb79	0.017080056
211	0x3dc7520e	0.097324476
212	0x3d255249	0.040361676
213	0x3dbce2f6	0.09222977
214	0x3e0bd24b	0.13654439
215	0xbc216171	-0.009849892
216	0xbdb92b3b	-0.09041449
217	0x3cea5e8c	0.028609537
218	0x3da74db1	0.08169115
219	0xbdb94d73	-0.090479754
220	0x3d52b560	0.051442504
221	0xbe56b131	-0.2096603
222	0xbc2a1e1d	-0.010383156
223	0x3d8c6d69	0.06856806
224	0xbd5a3565	-0.053273577
225	0x3d835dec	0.064143986
226	0xbdd9b48a	-0.10630138
227	0x3d81b77d	0.06333826
228	0x3dce10d8	0.100618064
229	0x3e2d492f	0.16922449
230	0xbd95d30b	-0.07315644
231	0xba8b1c1b	-0.0010613234
232	0x3d04d96b	0.03243391
233	0xbda6a444	-0.081368
234	0x3e08dfa5	0.13366564
235	0xbd6be1a8	-0.05758825
236	0xbc5d9fb7	-0.0135268485
237	0xbd4657fe	-0.04842376
238	0xbe5d9320	-0.21638155
239	0x3bc6c13f	0.006065517
240	0xbcd6f27e	-0.026238676
241	0x3dd0024c	0.10156688
242	0xbbec1050	-0.007204093
243	0x3e0a2dc4	0.1349402
244	0xbbe42c9e	-0.0069633266
245	0x3d2f42fb	0.042788487
246	0xbd65e513	-0.056126665
247	0x3d4ec43c	0.050480112
248	0xbdd92dba	-0.10604425
249	0xbd0332ea	-0.032030977
250	0x3cd01320	0.025399745
251	0xbddafaa3	-0.106923364
252	0x3dbd124a	0.09232004
253	0xbc83ca7f	-0.016087769
254	0x3e1a38be	0.15060708
255	0x3b010e55	0.001969238
